Data/Breast Cancer Winsconsin (Diagnostic)/results/models/model_worst/bcw_traced.pt (torch, 476245 bytes, 5 tensors)

weight f8 [256, 31]
-0.05239184607402374 -0.19345368435317795 -0.06041662956144174 -0.14791622432452572 -0.09334742644719136 0.08744054769304278 -0.12044473070573643 -0.07597098296088928
0.004974439048527248 -0.09708660628217092 -0.12722720708320528 -0.1483213718030813 -0.20683690325428428 -0.222518905436987 -0.06896164782655109 0.1291132131033811
0.09884062721453739 0.14941647698329327 0.12141600773270367 -0.033489347225054936 -0.2118102702641193 -0.15217358863788666 -0.19919830447436762 -0.2270040211890426
-0.15404585731762613 0.11357290564551652 -0.06461180351000229 -0.028308894580643545 -0.18235048756446334 -0.1414539065770501 0.17334345068628548 -0.11784251072650356
0.16891489975954505 0.00765876702149811 0.02782726603224806 0.14700641900644695 -0.11125512381069236 0.017975990344743686 -0.031059775438018935 -0.06981145379855694
0.12966623132699706 0.1248808820045114 -0.12570136996152298 0.03714081869020525 0.145451736174303 0.13154728715180922 -0.11597911909314013 -0.02387393949135271
0.09774154188802903 0.007610759960779554 0.11226565063228278 -0.09367877006125162 0.042698283319833975 0.21870505741693932 0.04736871121108257 0.13758315265191812
-0.02334878065810514 0.0631984622815288 0.1524992473610231 0.12697443108943138 0.006522717453630652 0.12498411638903584 0.00455479713001511 0.15808327560153465
-0.19470507790526406 -0.040780374391238085 -0.16136831015065947 0.03255473918415288 0.07307542416150607 0.09034648904588254 -0.03823175766677907 0.16621477317317362
-0.17519345866347408 0.0003768231618628358 -0.0585476059929087 -0.017146478189477773 0.10412830467443004 0.18214393716826638 0.05128303339838968 -0.11070458317461392
0.01078685529664741 0.14749993458593294 -0.21688231530658736 -0.10178884702669938 -0.18348227946954845 -0.12486531422132999 0.009757642021481328 -0.060284111827722656
-0.14121579852047011 -0.14147805618269574 0.07802665968633794 0.09463836338394671 0.09251860169085536 0.14883514169030457 0.1393564343604813 -0.018941231765826013
0.1768863213663638 0.1399222721237554 0.07998480922630746 0.01209826924488928 -0.04206698916568494 0.023972533904062898 -0.11448735794195444 0.0805596153538592
-0.17348198518303484 -0.14914268851786536 -0.06299636043574305 -0.0045929181862909415 0.07481568539476269 -0.15399584187884932 -0.15518226337832244 0.08480066932956333
0.06917551747882097 0.1412600002360279 -0.07883460684210056 0.1789418039749765 0.026307343003140072 0.1885004716105871 -0.11617249149349489 -0.07899193730579562
0.05576307686093557 -0.14041886849574822 -0.15316321250215773 -0.05000234818209053 0.018943445709808732 0.11323301700751554 -0.018505064633385766 -0.14453498301110343
-0.08031259356441424 -0.05402626056479223 -0.1506640877546307 -0.13290017471969262 -0.019024075383598682 0.11825705983112751 0.05223417824624775 0.05365201953071712
-0.010347147382925442 -0.16407016190048962 -0.09648355317518206 -0.00024966073324441757 0.017893066004863425 -0.007363117971687683 0.07235789971772602 0.15795875165721293
-0.08903949292731504 -0.12538806531092148 -0.09259364087192949 -0.08356620342266491 -0.16295870139253385 0.1714064554829326 -0.03552248394417367 -0.01022642588312174
-0.06624656235334264 0.07842806439344764 0.04231004711916544 0.13303817505217813 0.15062352982635052 -0.04900050862583263 -0.022677553421518042 0.16933615308707756
-0.09265511692040168 0.10948679756327173 0.18876253713886615 -0.010124386392780974 0.03819704179413562 0.027497132227906857 -0.15579873244864073 0.1509970391507057
0.07631846634551824 -0.16506437853078884 -0.1882839954416827 0.07440116628229348 0.00022268230447986795 0.11854116756518096 0.13326752171072662 0.1818516900238388
0.055690201740575186 -0.007999452197979286 0.04743280042045496 0.1091456739261861 -0.00696800442312962 9.974429765245729e-05 0.025781873125711164 0.18679187517456788
0.002355301436351272 -0.03901658170959882 0.22500334346103304 0.06812548269592826 -0.049485802965441555 0.0017648669378734026 -0.10242996576578903 0.10183862517001592
0.08467315406268554 0.22479383608544368 0.18944193757685435 -0.09497067484263502 0.08166076024248572 -0.14221970076633186 0.07879547826037149 0.2066713320010585
-0.02625953327585669 0.04323458599801837 0.16194608263052573 -0.07406170876604058 -0.19224215862680086 0.09242632993060734 0.0288191320793222 -0.1404804411384299
0.17637432301603836 -0.004564323498281754 -0.03047089806524637 0.010972633779565286 -0.04292048372617206 0.09781873088264374 0.04534358171932195 0.16707160351708086
-0.017197186968429784 -0.17986459080488224 -0.0026165330696854535 -0.03186494684535195 0.0007442472640455822 0.06363459457127613 -0.14777639672833423 0.12463944016697404
-0.06213977864069161 0.08638237701296556 0.027454180004734322 -0.07604088556912243 -0.05527175814173077 -0.061548820650001015 0.03499336065937674 0.15247309806342102
-0.1392274464152284 0.1261275668672962 -0.06430018360124998 0.1763063571684212 0.1779296300642668 -0.08379623764271221 0.1434943405374363 0.05893602001114272
-0.0063866985094394495 -0.15234947770877327 0.07395554794436009 -0.061264532143169126 -0.07379383497850762 -0.06154498248665599 0.002124912404730392 0.09566713001626671
0.03691286800371102 0.12571434591176445 0.011741895369706188 0.18986213947688235 0.1378924630437139 0.12990671741005252 -0.038552733116349214 0.08339790570168676
00000000: 3614 eea2 1ad3 aabf ae36 cb1f 17c3 c8bf
00000010: 4aae 33b0 edee aebf 06c5 0239 ebee c2bf
00000020: dda6 c1ef 9de5 b7bf 399a aff4 8062 b63f
00000030: 654e 5b43 77d5 bebf f411 4397 d572 b3bf
00000040: 8f4c 78d0 1360 743f b08e dcf6 aada b8bf
00000050: 82b9 ca2a fb48 c0bf 6e96 98d8 31fc c2bf
00000060: f0a1 8ab3 a179 cabf 4afa cbde 7f7b ccbf
00000070: eee2 1776 78a7 b1bf 1558 e121 c886 c03f
00000080: 8b0e 678d 9e4d b93f 5f3a 1041 1420 c33f
00000090: 983f 6c96 1e15 bf3f d226 3106 8425 a1bf
000000a0: 5ee3 de53 991c cbbf 0ce1 4195 6c7a c3bf
000000b0: 656a 917d 547f c9bf 83a1 88bf 770e cdbf
000000c0: edb9 a14f c6b7 c3bf 4b8d 752b 1d13 bd3f
000000d0: 60d3 022f 668a b0bf 3b9c a3c1 01fd 9cbf
000000e0: 0be0 3fc2 4257 c7bf 3ee7 515f 291b c2bf
000000f0: 7a31 d641 1e30 c63f d21b a641 ed2a bebf
00000100: 5e1e 23e1 009f c53f 5508 299e cc5e 7f3f
00000110: 02b1 2e36 c07e 9c3f 4ca6 f738 1bd1 c23f
00000120: c883 473e 377b bcbf d356 934a 4c68 923f
00000130: 57da e83e 22ce 9fbf da75 f3d6 29df b1bf
00000140: 84f6 782f e798 c03f 07e2 1a88 31f8 bf3f
00000150: 9e08 8684 fb16 c0bf 7100 3e13 1f04 a33f
00000160: 35ed 0199 299e c23f bde6 18a0 8ad6 c03f
00000170: 0420 86bb ceb0 bdbf 7540 5ef5 6872 98bf
00000180: 94a4 def5 9605 b93f 176d 11d2 752c 7f3f
00000190: 7008 ee11 71bd bc3f b319 bef5 54fb b7bf
000001a0: 8576 e8a4 8cdc a53f d7ab 89fe 86fe cb3f
000001b0: 83b2 0233 b640 a83f a46e 8f22 539c c13f
000001c0: 70e9 4f25 bee8 97bf 971a a840 c62d b03f
000001d0: 4644 0a68 1885 c33f 3f89 7aba b240 c03f
000001e0: 096e 4fa2 90b7 7a3f c80d 6984 f5fe bf3f
000001f0: 41cc 690b 0da8 723f 1767 60a1 123c c43f
00000200: 55ef fb92 18ec c8bf 2573 a84c 2ae1 a4bf
00000210: 659b 5a7f b7a7 c4bf d361 40c8 03ab a03f
00000220: 3b3d ea2c 12b5 b23f 53af c28f f220 b73f
00000230: 2ae0 b1e9 1c93 a3bf 0207 7293 8646 c53f
00000240: 5264 b73f bd6c c6bf a160 1528 0bb2 383f
00000250: 484d ffa9 f3f9 adbf 1cf4 42ac d88e 91bf
00000260: 4a23 2a0f 27a8 ba3f 7cb4 a616 7e50 c73f
00000270: 0f4f 920e c541 aa3f 5595 40b4 2257 bcbf
00000280: 5e68 ce35 6b17 863f 61b7 9a21 47e1 c23f
00000290: 6a49 a9b9 ccc2 cbbf bcc4 1379 d50e babf
000002a0: 9dce dbea 587c c7bf 9a41 fc58 2cf7 bfbf
000002b0: 005b f28a d0fb 833f a275 8921 8fdd aebf
000002c0: 0277 29fa 5b13 c2bf 9502 34f4 f31b c2bf
000002d0: 41a6 911f 8ef9 b33f 0057 ae43 383a b83f
000002e0: f9ab 8890 4caf b73f d516 07a9 070d c33f
000002f0: 4560 0880 6ed6 c13f 0fb4 eb8b 5465 93bf
00000300: 6f6b b002 36a4 c63f 1074 6017 f9e8 c13f
00000310: 28c5 cd6b e279 b43f a6c3 f535 fac6 883f
00000320: 2c65 6aed cd89 a5bf 1016 7b84 418c 983f
00000330: 2a88 2a22 0b4f bdbf edba 5211 8e9f b43f
00000340: 8d34 675e a834 c6bf 6395 cf8c 1b17 c3bf
00000350: deaa d68b 8720 b0bf 0f03 7416 06d0 72bf
00000360: 9892 ffe9 1e27 b33f 7d79 4bc0 22b6 c3bf
00000370: 1988 102d 03dd c3bf e10a 7325 7fb5 b53f
00000380: b662 4199 7cb5 b13f 9b93 9fc4 ce14 c23f
00000390: fa09 2e3a 812e b4bf a4d9 faa5 90e7 c63f
000003a0: 5d60 5fe7 4ff0 9a3f d78c 6c90 c820 c83f
000003b0: 5bce a8fb 7abd bdbf 6c46 60cb d038 b4bf
000003c0: b854 e25e fa8c ac3f b31c f7d7 3ef9 c1bf
000003d0: 0dd3 5226 da9a c3bf 17a0 5464 e899 a9bf
000003e0: f54f 301f e965 933f c0eb dfc8 d6fc bc3f
000003f0: c59d a4dd fdf2 92bf b38e 9450 1f80 c2bf
00000400: e1eb d0ba 5d8f b4bf 747d 807c 54a9 abbf
00000410: 743d cbf8 f548 c3bf cce1 0678 df02 c1bf
00000420: d0d0 6f16 0c7b 93bf 45ed 7e3c 1846 be3f
00000430: ae25 9a2e 70be aa3f 8660 7f0a 4778 ab3f
00000440: 50b5 ee9c e230 85bf f056 ce45 4000 c5bf
00000450: b641 7d69 25b3 b8bf a989 33af 9c5c 30bf
00000460: a7a4 4355 8f52 923f a7e9 28ee c928 7ebf
00000470: ea16 e51c 0c86 b23f 270b 3e0c fe37 c43f
00000480: 9fdc 2cce 4acb b6bf ebd8 e853 b70c c0bf
00000490: 33cd 5c83 37b4 b7bf 8c50 c03e 9864 b5bf
000004a0: 1b2f 8aaa d4db c4bf 46ad 4f90 a5f0 c53f
000004b0: df35 a0c5 0030 a2bf 88a7 c8a5 97f1 84bf
000004c0: 24b0 c7e2 88f5 b0bf 818f a893 dc13 b43f
000004d0: b38b 5699 a9a9 a53f 02fc 7b19 6507 c13f
000004e0: 685e 4ebf a147 c33f 1315 123c 9816 a9bf
000004f0: cbe1 31d9 c838 97bf 9e0c c59b ceac c53f
00000500: 2ced fae8 3eb8 b7bf 38c6 e0a6 5307 bc3f
00000510: 5857 dced 5e29 c83f a8ad 9723 18bc 84bf
00000520: 8e98 9e0a 908e a33f a54f 9c4e 3528 9c3f
00000530: 7005 507e 36f1 c3bf 73f9 78f8 de53 c33f
00000540: bbed 0865 9b89 b33f 591c c35d d420 c5bf
00000550: 7320 64a1 b019 c8bf 347a f76f f40b b33f
00000560: 2cb1 266e fa2f 2d3f 480f ecc5 b658 be3f
00000570: cfea aeff e80e c13f bbf6 af8a ea46 c73f
00000580: 45e8 5d16 6d83 ac3f ce21 9c4c 0462 80bf
00000590: 8289 20ad 1c49 a83f 164a 038c f8f0 bb3f
000005a0: 8602 da71 7b8a 7cbf 10fc 4afc b925 1a3f
000005b0: 8d42 9e37 9066 9a3f a142 84d1 cbe8 c73f
000005c0: 91f1 85d4 6c4b 633f 788d e33c fbf9 a3bf
000005d0: 01f1 d3d8 e8cc cc3f 9b06 34f0 ab70 b13f
000005e0: 8cab b402 3456 a9bf a8d4 ea71 63ea 5c3f
000005f0: c22e 18a9 d938 babf 7527 939c 1812 ba3f
00000600: 3364 8ccb 23ad b53f a428 2a5f 0bc6 cc3f
00000610: 5015 3127 a23f c83f fa35 8786 ff4f b8bf
00000620: 22a4 9b36 b8e7 b43f ddb3 d151 4134 c2bf
00000630: 1173 33c2 f02b b43f 198f fbc9 3474 ca3f
00000640: d519 8372 c7e3 9abf 26ce d5f9 d722 a63f
00000650: 9a84 4e34 a6ba c43f a938 0949 b5f5 b2bf
00000660: 8176 1b1c 649b c8bf 1c5d 5780 40a9 b73f
00000670: 2482 1e37 c382 9d3f 1e67 355a 43fb c1bf
00000680: 8fa0 9a0e 6f93 c63f 1bac 7442 0ab2 72bf
00000690: fb0f ae5a c333 9fbf 92ad dff9 d178 863f
000006a0: be64 dd73 acf9 a5bf 13c2 13fa a50a b93f
000006b0: bfcf 2221 4637 a73f 251b 9930 9a62 c53f
000006c0: 484e 73ae 239c 91bf f391 9b8b cd05 c7bf
000006d0: fa8b d27e 446f 65bf 77db 2d31 9a50 a0bf
000006e0: 9019 61d4 3263 483f fced 9356 5b4a b03f
000006f0: 45d2 8843 56ea c2bf 3814 4fcf 5ee8 bf3f
00000700: fbbb 15fa c8d0 afbf 96af 38cc 271d b63f
00000710: 010b 09d5 f21c 9c3f 65a2 ad5c 6a77 b3bf
00000720: 5ce9 3873 944c acbf c226 99b7 5383 afbf
00000730: 4fe3 3757 a6ea a13f 80e1 d90c 3d84 c33f
00000740: 438d 8778 34d2 c1bf f4d7 68b7 f224 c03f
00000750: beb4 b111 fa75 b0bf fac0 0eeb 3491 c63f
00000760: 91c5 0eeb 65c6 c63f 040b 3494 ab73 b5bf
00000770: e97a e2c5 055e c23f 4e2e 02ad dc2c ae3f
00000780: 35a7 a353 f028 7abf c832 290c 3080 c3bf
00000790: 8f5e c733 c0ee b23f 8857 eb93 105e afbf
000007a0: 6d0d e11b 27e4 b2bf 74b2 06ee d282 afbf
000007b0: 7a35 20a9 4368 613f f9d7 b81a a47d b83f
000007c0: 2848 c151 3ee6 a23f a01e 2a5e 6817 c03f
000007d0: 12f8 d884 220c 883f 64a1 e60f 674d c83f
000007e0: 2e9e 91d1 75a6 c13f 2748 6787 c8a0 c03f
000007f0: 10f1 cf0f 2fbd a3bf c42b 8bad 9059 b53f

weight f8 [128, 257]
-0.1167388647799574 -0.009868172308430994 0.023540407046735302 0.06633271607956186 -0.09368719715207739 0.04463994998870845 0.060921012432522466 -0.055340838452779165
0.07577470258958788 0.049029146379002485 -0.011363488475539077 0.04638085346860018 0.000740391908544809 -0.05325099224297547 0.05057623108134902 0.04452049196172577
-0.08176267193437094 -0.08330935500299701 0.01721768341233035 0.04520732039147514 0.08039679987415534 0.057327713276348495 -0.04688786588581522 0.03399539018021811
0.06084352313972174 -0.002294039714623712 0.03882897998304817 0.011021426617725915 -0.03887970008395294 -0.023137275102911258 -0.001656978742512314 -0.06649152834828694
0.04815071718001425 0.09088410567254492 -0.015375128644216432 -0.0747303629299268 -0.046124590578966194 0.04471959324811231 0.029723841560910687 -0.01387631489423964
0.05108774288724491 0.014782319117190487 -0.016964258498941544 0.024309888759004892 0.012078277187634117 0.012030687150109552 0.020367736158583026 0.033171121532855674
0.02926239551562469 0.06595239201186369 0.006267163226735937 0.03517897615125404 0.008330660001968023 0.011559208551026672 0.034033985025817844 0.0792975586212972
0.008176592377329811 -0.003520230869606175 0.06231237360764778 0.034699933234930515 0.00819783100073191 -0.021405950865584777 0.09485707451408751 -0.061484423199083274
-0.05410283005726348 0.059943332702131466 0.07318880324715175 -0.044298453537535615 0.03156753001901772 0.06775479778429994 0.034849215109792164 0.04949361207048553
0.0015757437863859107 0.06054296071829372 -0.009858176378395929 0.06026573057458396 -0.024330864478017054 -0.034077711542979575 0.05310665101849806 0.026630911418029743
-0.008712718674238009 0.06395164461205825 -0.02624297476126614 -0.014764110515791469 -0.0003186050056369666 0.007223474795866988 0.021515275706947366 0.05161010114646605
0.024635679086734804 -0.0038681350020573495 0.016095529867707774 0.031902813882632 -0.011645721222336631 -0.006098232747173844 0.0708039689581029 0.03636038597043113
0.08626005454864888 0.06954144111601258 -0.038945627513149034 -0.038132973275977596 0.018449150674972933 0.032952256203880696 0.022033267769646557 0.02525690993224598
0.0507806582102644 -0.05741772675289369 -0.04648395175645927 -0.013605953712789543 -0.018033933040016083 -0.010569878588491979 0.06137515095492299 -0.06490513481043965
0.02831178251991306 -0.028556023894397292 -0.043935022924919694 0.08489034624862159 -0.00010783096941527473 0.0034871788865541635 -0.012753695840484585 0.04215394428742047
-0.03821355601816225 -0.035310471012384895 0.0039035003040824327 0.04183576409385647 0.0014545870258433598 0.06808065003131036 -0.01983870257117606 0.07271323156160306
-0.030297130657923686 -0.011760195702216713 -0.02729746607384977 0.017159451181926477 -0.009924644166696353 0.06030172403956174 -0.08215126427044799 0.013384322723877391
0.015180032976657633 0.024261871762648476 -0.03381777655336943 -0.00031362736279323087 -0.030659079412137344 -0.0232903717654338 -0.022148253156523117 0.09300728731423738
-0.04248141208099527 -0.057408773446689196 -0.032157549088212466 0.0017878362464970937 0.061779730620113944 0.048763603060010534 -0.005968205278275252 0.09334774166667732
0.010615063517004485 -0.030431463994104565 -0.0465938154877361 -0.03213548163863692 -0.05121063100421288 0.08172530839403565 -0.005728260462118611 -0.03040643310504895
0.0027818155855280262 -0.04647047540477172 -0.015593630582649386 -0.05572475824321704 0.05786345117059686 -0.029391523922562873 -0.008616989822923082 0.002120479270523543
-0.06473965716847871 -0.023892902280001904 -0.0614926043427528 0.05399746030641336 0.030405106301180533 0.0028147707048132276 -0.015428095665940667 0.014887336348261313
0.0026333533127758887 0.029645221015382972 -0.013243125070426048 0.06312784510191738 -0.005455318024941846 0.04895768140900237 0.07087826200695099 0.07852244161574425
0.02955726055131715 0.009703393269928506 0.038713393212783775 0.0008456115075364851 -0.046872166658268516 -0.06014113387766658 -0.046971292238985655 -0.02335142884071161
0.08417907977631499 0.014631861899293774 0.0323296334535221 -0.0003839023163127168 0.03025306882548175 -0.0474578200442958 0.062430897464341446 0.03814131302863791
0.028865203655418878 -0.0664025071660729 -0.05357701715898606 0.06430080397534912 0.012561150070025659 -0.02110306735082549 0.04797072750459045 0.054096387509717916
0.04761338503638519 0.07793982769780976 -0.024255488446155743 -0.013309143349950436 -0.05544479813037065 -0.05565948692377027 0.03714474027546198 0.03830050032346451
0.027970647756707382 -0.03419969451970968 0.00790450862718263 0.04053999823075269 0.01573372410484754 -0.03248191794757374 0.0038275108881089103 -0.04925446129044978
0.06316092580131323 0.04537465985961668 0.022492146183585995 0.050023194498031776 -0.015218498332371102 0.0006033220215392577 -0.027087461776890902 -0.05515233747927206
0.01583163156890218 0.03406233240821284 -0.06278732201561595 -0.043418974737787074 -0.03746681140917431 0.0332645204498666 0.03936785206796223 -0.011789706676828913
0.06372187806721263 0.007544125215795274 -0.07492320026762384 0.04598958440777196 -0.0231989059331505 0.0012391237526914794 0.03830595087780943 0.000108372788844005
0.049954482723173696 0.010699733089787824 0.02740039876916701 -0.05907742652156974 0.05032430765085452 -0.07946216962980912 -0.02773528267113963 0.08327019354316587
00000000: eeee 6626 99e2 bdbf d622 b0aa c335 84bf
00000010: badc 99f9 f91a 983f 3b71 374e 2efb b03f
00000020: 9f73 d257 e2fb b7bf 1ed9 972a 0cdb a63f
00000030: b1e3 12f8 0931 af3f 6268 9366 a255 acbf
00000040: 2285 7c8d f865 b33f 234a 7f28 591a a93f
00000050: 5ba1 f79a bd45 87bf 2bcd 9d31 3bbf a73f
00000060: 4234 4784 db42 483f b085 53cc b643 abbf
00000070: f10e e6b4 20e5 a93f 6b73 f4d1 63cb a63f
00000080: 11e0 fd01 66ee b4bf 5b50 300b c353 b5bf
00000090: 89e4 ac2c 83a1 913f 420b 3ef5 6925 a73f
000000a0: 259d 297a e294 b43f b74e 5adb 0e5a ad3f
000000b0: 671c 1eb5 af01 a8bf 1ddd 1302 d867 a13f
000000c0: dff6 1ddc e126 af3f f0e0 9931 f3ca 62bf
000000d0: 0616 545e 64e1 a33f d9f4 06d7 6692 863f
000000e0: e37f ad40 0ae8 a3bf f3cf 8a3f 4cb1 97bf
000000f0: 29ad 9760 df25 5bbf fd89 b7bb 9605 b1bf
00000100: ca5b 22f7 35a7 a83f 61fc 9645 2e44 b73f
00000110: 48f1 96d5 fe7c 8fbf 0460 cd70 8721 b3bf
00000120: 1bf6 2770 a49d a7bf d86c fb8c 7ce5 a63f
00000130: 4292 a93d ed6f 9e3f a72e 4775 2f6b 8cbf
00000140: 7cb6 da31 2c28 aa3f 6bc5 5649 3146 8e3f
00000150: 7abc d01d 145f 91bf 29de c104 b1e4 983f
00000160: 4971 1aec 7ebc 883f 3272 dd7e 8ba3 883f
00000170: c657 c7a2 47db 943f c87d 4f24 cefb a03f
00000180: db09 f81e f6f6 9d3f 63af c886 41e2 b03f
00000190: 0b76 8fd1 98ab 793f e81d 2790 fa02 a23f
000001a0: beb2 1942 aa0f 813f c9ee 8db5 5aac 873f
000001b0: c9e1 4609 e76c a13f 825d ee44 d84c b43f
000001c0: 7dab d3a6 e3be 803f f9d0 b28e 75d6 6cbf
000001d0: b5dc 8f4d 68e7 af3f c5b6 d58c 30c4 a13f
000001e0: 44c7 5e40 06ca 803f b03f a10b 71eb 95bf
000001f0: be0d d5a0 8d48 b83f 2afc b4e5 e27a afbf
00000200: a319 6fbb 5db3 abbf 1e47 237b e4b0 ae3f
00000210: d340 615c 80bc b23f d407 6a72 49ae a6bf
00000220: e527 188a 9e29 a03f 0873 a1e0 6058 b13f
00000230: c82a 609e c1d7 a13f 5144 680a 3a57 a93f
00000240: d9bb e101 26d1 593f c67f 93a8 7cff ae3f
00000250: 44b4 2509 8630 84bf 6157 c65b 26db ae3f
00000260: e9af ddac 30ea 98bf 4201 3341 a272 a1bf
00000270: 5b29 a682 cb30 ab3f dc95 6936 2245 9b3f
00000280: 21ed 1e4e f9d7 81bf 3f5b 228e 225f b03f
00000290: e1c6 6539 70df 9abf a40f 8f5e a53c 8ebf
000002a0: 4890 5d14 4ee1 34bf bd0a 30c0 5c96 7d3f
000002b0: 6961 1ab6 1908 963f 4478 22a1 a36c aa3f
000002c0: 7f17 f86f 183a 993f 8138 922a 11b0 6fbf
000002d0: db0a 93b9 587b 903f 7874 8dcc 9055 a03f
000002e0: f75f 4e3e b6d9 87bf ae6e 66e3 75fa 78bf
000002f0: 0620 1a7b 3520 b23f 22d3 3919 d49d a23f
00000300: dcd4 3c91 2315 b63f 195b 4fc7 77cd b13f
00000310: 047b fb68 aef0 a3bf b937 3d42 2a86 a3bf
00000320: 8fe5 268b 55e4 923f c73d 733d 1edf a03f
00000330: a683 fa91 e38f 963f 4bc8 a088 f2dc 993f
00000340: e99b 9024 ecff a93f 1f8b 3a35 db65 adbf
00000350: 4369 2a99 becc a7bf 9a8d d131 70dd 8bbf
00000360: 3a20 80c2 7c77 92bf eed1 e116 a9a5 85bf
00000370: e4e3 4654 906c af3f 7d72 5a77 9f9d b0bf
00000380: bfd6 0e90 c3fd 9c3f a8c1 eb52 ca3d 9dbf
00000390: d11b 39bd a67e a6bf 494a e2ac 5fbb b53f
000003a0: 5c68 d3f2 6944 1cbf 2fd7 bce8 2491 6c3f
000003b0: 83d9 4d14 9c1e 8abf ef47 39a8 3395 a53f
000003c0: 2347 b92a ba90 a3bf aaba 68cc 3614 a2bf
000003d0: 86b4 abc4 3bfa 6f3f 7f2d 2c4d 7f6b a53f
000003e0: 74b8 21ed fad4 573f 68f9 5fc5 bb6d b13f
000003f0: a7fd f3ca 9850 94bf c226 8b97 559d b23f
00000400: 168b 5a05 3606 9fbf a611 7cbf ba15 88bf
00000410: 2513 34f0 ddf3 9bbf 9321 9346 3f92 913f
00000420: 3b93 f630 5f53 84bf 17e0 4819 dedf ae3f
00000430: 4bdb 5d81 dd07 b5bf 577a 0663 3d69 8b3f
00000440: 94dd 7e89 b516 8f3f 9c91 0aa7 1ad8 983f
00000450: a8eb a348 9050 a1bf 930c 2e44 cb8d 34bf
00000460: 0c36 9afd 1765 9fbf ff47 2d64 6ed9 97bf
00000470: 3b18 e21b 08ae 96bf 42e8 4d59 53cf b73f
00000480: d9cb 26a7 1fc0 a5bf 56fc e9c8 ae64 adbf
00000490: c388 4e4b f476 a0bf 1c4f 658d ba4a 5d3f
000004a0: 595e 23c5 97a1 af3f 4778 c100 8bf7 a83f
000004b0: 0daf c6e7 1d72 78bf 5524 9d39 a3e5 b73f
000004c0: c637 34b5 59bd 853f ff0e 7ffa 6c29 9fbf
000004d0: 3e6e 6e03 25db a7bf 15ba 5bd5 0f74 a0bf
000004e0: a3c1 bda2 4738 aabf 5dd2 ce26 f3eb b43f
000004f0: 8676 9035 8476 77bf 17c7 182f dd22 9fbf
00000500: eaba d3de e3c9 663f 77a6 2f68 faca a7bf
00000510: 79ee 06ab 8def 8fbf e8d8 769c f487 acbf
00000520: dda3 d23c 47a0 ad3f 4ba8 1bc8 cf18 9ebf
00000530: e0d9 d5cb c8a5 81bf 61c1 cca3 f75e 613f
00000540: 66f9 4a36 c792 b0bf 10b6 9887 6177 98bf
00000550: db2b 3269 f57b afbf 8b8c 2a1c 8ea5 ab3f
00000560: 3ea7 c724 8422 9f3f 7be4 ee83 000f 673f
00000570: 6023 99f2 c398 8fbf 7234 ec75 407d 8e3f
00000580: b510 6ecb 8a92 653f b09c f91a 515b 9e3f
00000590: d033 9828 361f 8bbf 1800 2e7e 2529 b03f
000005a0: a63b 1ac8 5058 76bf 514d 1431 fb10 a93f
000005b0: 4e32 51e9 1325 b23f 75df bdf6 0b1a b43f
000005c0: 2583 b52d 4244 9e3f b35b 0966 5fdf 833f
000005d0: 903d 88eb 3dd2 a33f 240c 8fe2 80b5 4b3f
000005e0: 3ca4 c7ed a0ff a7bf 4a41 4c96 d1ca aebf
000005f0: cfdb 0808 9f0c a8bf 5d2f bedc 6fe9 97bf
00000600: b78a a59a c28c b53f 004a b242 4ff7 8d3f
00000610: 5bc4 bf7c 828d a03f f249 b7e4 cf28 39bf
00000620: 6519 d614 a9fa 9e3f 5435 0f32 644c a8bf
00000630: b911 bd4d f1f6 af3f 6443 2b18 4287 a33f
00000640: 7c05 c506 d78e 9d3f 8a93 a634 c1ff b0bf
00000650: 09b8 0761 726e abbf da3d 2e7a 0476 b03f
00000660: 38dc 0106 a9b9 893f 0ae4 77e0 0a9c 95bf
00000670: a557 9883 9e8f a83f f238 5f8e 85b2 ab3f
00000680: 0990 2a17 c860 a83f 8b99 0453 ddf3 b33f
00000690: 18bd 7f46 6ed6 98bf a610 68fb d241 8bbf
000006a0: 3412 68b5 4263 acbf 9976 1978 667f acbf
000006b0: 0e2e 67a9 a204 a33f 4b93 9e88 1f9c a33f
000006c0: b1b4 7365 56a4 9c3f aa9d fd52 9f82 a1bf
000006d0: 488b 5b30 3d30 803f 4c76 299d a8c1 a43f
000006e0: 65ff e559 801c 903f 84a5 974e 78a1 a0bf
000006f0: 9c47 dd42 df5a 6f3f 8562 d978 e137 a9bf
00000700: 1da4 b37e 502b b03f 160f 54f0 583b a73f
00000710: 27f6 1961 2e08 973f 382c d2e0 a39c a93f
00000720: 81da 0d45 e02a 8fbf ece4 fc2c 08c5 433f
00000730: 9b84 dac9 d0bc 9bbf b0f8 8a5b ed3c acbf
00000740: b6b1 52cf 2a36 903f aa00 7037 9e70 a13f
00000750: f515 a976 d412 b0bf 5b9e 0c09 033b a6bf
00000760: c227 6093 d92e a3bf af0a e616 0c08 a13f
00000770: 7094 4aea 0528 a43f 12ef d9a4 3325 88bf
00000780: f09f 56b6 1350 b03f f5a3 42b1 96e6 7e3f
00000790: 3c71 dcb6 2a2e b3bf b9dc f961 f28b a73f
000007a0: f2b8 2439 74c1 97bf 1c9d 95ff 424d 543f
000007b0: e255 866c d69c a33f 97bd df55 c668 1c3f
000007c0: 5e54 2b4b a293 a93f 1b92 92dd bde9 853f
000007d0: e397 71a2 d90e 9c3f ab18 af7d 653f aebf
000007e0: 54c8 1b8f 1bc4 a93f b848 d4fb a157 b4bf
000007f0: f449 1250 a366 9cbf 6ede ff05 3251 b53f

weight f8 [64, 129]
-0.003125059216399432 0.07544391212212549 -0.046915685460496015 0.047401078524350417 0.006617586978946571 0.09467791486404552 0.06581649807243761 0.057383261296514686
-0.011631564071505016 -0.025983820794651117 -0.057922199463981326 0.020803184860147386 0.01836597526997982 -0.01249202629337178 -0.04477306508889722 -0.028482582881018008
0.09716800428615116 0.08280488284978213 0.02662452801990673 0.030263065405551022 0.06266538562520936 0.06475147910650514 -0.040592384811693985 0.09771350387766962
0.07222086311821743 0.061561672413067134 0.09971708969261661 0.05748394465391122 0.026756827619872962 0.07995117253687893 0.11429596939819225 0.018593280212715023
0.058641062660870304 0.024941876997457882 0.07951618612736844 0.07212157893939536 0.06698510249072576 0.05300663966408212 -0.031454470947481425 0.11726316124338058
0.022748379674024904 0.0005529910084661532 0.036690635597288246 -0.09658641878908605 0.11369409175538282 -0.03396522978858101 0.0023203557138629424 0.10002378323563743
-0.005288795784987553 0.038795473532626204 0.07965125395171738 -0.032822919866535925 -0.013142087362207868 -0.007886458869947138 0.11756356750851164 -0.04976003250443466
-0.03896848957972036 0.03826882110966602 -0.0218926243205299 -0.01424807697951335 0.05567595263334697 0.03951255697212716 -0.017253344403505178 0.07362268564876089
0.05403508205063514 -0.04730293848561786 0.05303446218165955 -0.0027368085830445027 0.060642979694578845 0.02559162608894351 0.08498985114803423 -0.023546157217743748
0.05468325824131956 0.09920154768111625 -0.08261420718914175 -0.01987877700441374 0.129286409551515 0.04739356465271185 0.05346387346194095 0.012115317196668293
-0.017855152740893214 -0.05361940632648699 0.08610015194729276 0.006055944614729778 -0.03400035473814027 -0.012652135272015383 -0.0031099175277368063 0.08005398295015889
0.1007018991137838 0.04191522931720827 -0.014325778348153326 -0.06517549114650349 0.1314212070349165 0.0037010851689982483 -0.0774850743065947 0.08887050706614966
0.040058723269107956 0.0330300498466898 0.08793078172775344 0.03274327869102975 -0.05208212133459752 0.005331757916448842 0.05573682226731486 0.0228221750226632
-0.047950426042925855 0.008613563101005911 0.040856422478061545 0.051894666519444355 0.07336789834190585 -0.06674873231104066 -0.04494947005243509 0.010857240640749916
0.028913527586238528 -0.07389154931566043 0.0001523374212344755 0.03810105556449925 0.09967606981555982 0.027576735960624314 -0.059647171678023754 -0.03822711160215316
0.062241426322572076 0.04224042199010526 0.05823328372047767 0.014778046823302195 0.04364556823735588 -0.019544003054592838 0.04938134083108905 -0.04261924409264119
-0.036565580017048044 -0.01266765346097344 -0.03537858418566872 0.011713290833941006 0.042815353482319005 0.10671891141510839 -0.039254302467150705 -0.042586403731626546
-0.07065619727260167 0.04391938866085694 0.064141443593182 -0.026130932837105603 0.02380065564031507 0.09145881948243413 -0.02320323071074195 -0.04992345056508788
-0.0977914301964552 -0.0015482304463761039 0.04384317594207109 -0.03282444317679182 -0.07949029253159177 -0.045859030713402436 -0.056801882515400824 -0.030981372031405715
-0.005873744298130093 0.029937232704667714 0.012463221821528023 -0.05125242241747405 0.044597908177090015 0.0037324596904644183 0.08295268993102375 0.019008520351163474
0.07222097093300754 0.07345657341304337 -0.08445143264340157 0.051553448724131375 -0.025725280689013228 0.10777140712541523 0.08041189812844617 0.07833635656485519
0.057995930549968565 0.0700055277501054 0.05575440894530437 -0.04672962445599691 0.029622670970381782 -0.07522581157862157 0.027982786669617732 0.030591258768983467
0.022251274874484726 0.06544259901161564 -0.038534283983778235 -0.012280531957680335 -0.02810262299366044 0.10919725686989719 0.017251159062661246 -0.09763422942439072
0.043190638807750585 0.08127815434713354 0.0075281305941888085 0.03612615814731579 -0.05145039703755388 0.07038633438843162 -0.07870154811088219 0.03119353878216575
0.08420307981639626 -0.05396217216111003 -0.03511001478218382 0.09282747302949855 0.04675969186456118 0.07783963361163512 0.05253801383717582 -0.0762977913601263
-0.011581702329693562 -0.026054426747765407 0.049462396237853465 0.017816997973223392 -0.06664626203277355 0.02407774542093409 0.09179351013271501 -0.027154171446564616
0.06071657733796489 -0.0002405828461056346 0.07105757806014151 0.023319332139046287 0.07227862728387179 0.04410851688546972 -0.04097032260138399 0.030475817764512643
-0.05473082692180659 0.03206858600530535 0.04927861782712481 0.10757061743859865 0.008099606369100797 -0.05220821160424822 -0.05713708559662514 0.013134064272131351
0.09962403912077367 -0.06415431890733446 -0.053460800330178256 0.04775500081102293 -0.046754907908890815 0.09183629773814633 0.045043934291856706 -0.02352355354866135
0.006511034186489487 0.009498238791475912 0.13150830371616154 0.02138148650581643 0.09347228835404899 0.015237500813272627 0.08927942806072729 -0.09978103544470884
-0.08616759410330205 0.061984019309529945 -0.07766402319555445 0.055875351683900315 0.044107874712345965 0.08142904067161531 -0.010393824782533432 0.031626372493630046
0.051335719117896764 0.1119194940231627 -0.04496376779745018 0.08892042817639649 -0.0434573272368022 -0.08246617266769125 0.01231330821772325 0.03465751744016718
00000000: 6f6e 3d64 b999 69bf 0d30 3fcf 4a50 b33f
00000010: 28cb 712d 5505 a8bf 054b 1d44 f444 a83f
00000020: a0bb 72fa 0a1b 7b3f af9a fed3 cf3c b83f
00000030: 5024 c29a 59d9 b03f eb73 36bd 5661 ad3f
00000040: 05bb 4e1a 4ad2 87bf 2111 27b2 809b 9abf
00000050: 3b04 d280 faa7 adbf d405 821a 6e4d 953f
00000060: 3728 93bc 87ce 923f cb5d 2063 6b95 89bf
00000070: 0fd4 98c4 7eec a6bf 7e17 ebc7 892a 9dbf
00000080: 5269 a098 00e0 b83f 06f7 c967 b332 b53f
00000090: d2bd 77d4 7543 9b3f 2232 c6f0 47fd 9e3f
000000a0: 15fc d9b5 d60a b03f 104c 218d 8d93 b03f
000000b0: 1a3b 776a 86c8 a4bf a73b 888f c003 b93f
000000c0: ba7f 2e05 117d b23f 3602 67f3 0285 af3f
000000d0: a803 1527 0f87 b93f 99d0 aa1c 896e ad3f
000000e0: 1ecb 494e 2466 9b3f a39f 5217 ae77 b43f
000000f0: 043e a12a 8042 bd3f a682 c1e9 1d0a 933f
00000100: 2d89 a98c 3306 ae3f 040e 0508 5d8a 993f
00000110: 3871 eb3a 2c5b b43f 0c6e e14e 8f76 b23f
00000120: f051 8488 ef25 b13f 4cfb a7af af23 ab3f
00000130: ae98 10e8 cc1a a0bf 73de 9062 f504 be3f
00000140: 489d f2ea 594b 973f 389b ee25 d31e 423f
00000150: c06b eb6f 1dc9 a23f aad7 ef35 e3b9 b8bf
00000160: 9179 d655 0e1b bd3f d741 49fe e363 a1bf
00000170: 4c00 ff7c 2302 633f c0ba d19d 289b b93f
00000180: 986c e84e b4a9 75bf aa65 1c14 00dd a33f
00000190: 32da ce4a 0664 b43f dba1 c56e 2ace a0bf
000001a0: eef6 5f1b 3dea 8abf 56df 6b97 c626 80bf
000001b0: f36f a65d a518 be3f 7746 82a0 257a a9bf
000001c0: 758a a388 adf3 a3bf 02b7 3e8e f897 a33f
000001d0: 2ed1 eb25 056b 96bf 3c61 4385 182e 8dbf
000001e0: dabd 77f7 8e81 ac3f ec07 f467 fd3a a43f
000001f0: 30b6 d657 dcaa 91bf ebe8 1ab3 efd8 b23f
00000200: d301 7d7c 7caa ab3f c3d1 993b 1738 a8bf
00000210: 9429 4341 5527 ab3f 32bf 81eb 806b 66bf
00000220: bb58 0abd 980c af3f c4f4 69f4 b034 9a3f
00000230: 0e37 2c17 e5c1 b53f 7767 c9dc 7b1c 98bf
00000240: 6c04 92ab 71ff ab3f 3ac3 00cb 4565 b93f
00000250: fcf4 0f66 3426 b5bf ba46 7924 1a5b 94bf
00000260: 82a6 6b02 758c c03f 13d2 7224 f843 a83f
00000270: 94b2 12e8 9d5f ab3f 5873 1f59 eacf 883f
00000280: 7e50 5904 9f48 92bf 41d6 34b9 0074 abbf
00000290: 2c54 cbd8 a80a b63f 6401 1141 1ece 783f
000002a0: 2630 4e97 7e68 a1bf cb34 bed9 5ce9 89bf
000002b0: e978 6542 f879 69bf 3a7b aff6 6a7e b43f
000002c0: 20bb 5683 99c7 b93f 0256 3eb6 e975 a53f
000002d0: d2e3 f56b d556 8dbf a397 f94a 57af b0bf
000002e0: b69f 1bfd 68d2 c03f f67d 56f8 bc51 6e3f
000002f0: 3130 13d4 0fd6 b3bf aa94 6db1 37c0 b63f
00000300: 8d7d b8b4 9382 a43f a3e9 c08f 50e9 a03f
00000310: 2d19 d5b7 a182 b63f 3c98 481e bac3 a03f
00000320: cb42 adff 81aa aabf b2f4 19de c0d6 753f
00000330: d964 a469 8989 ac3f 8f3a 623d b25e 973f
00000340: 2d05 5e4f f58c a8bf 3d1b 91de fca3 813f
00000350: 31ea bf0c 22eb a43f b85f 130f f091 aa3f
00000360: ba69 f413 3dc8 b23f fb4b 53e6 7116 b1bf
00000370: fe0a b2ef 9d03 a7bf 9088 d02b 523c 863f
00000380: 995d 94fd 819b 9d3f cff3 c27b 8eea b2bf
00000390: 5145 fc7b 98f7 233f ac69 2f47 fb81 a33f
000003a0: 6c38 0df4 5e84 b93f 8e42 536c 133d 9c3f
000003b0: 79e0 4ff7 128a aebf 6bb7 4d04 8192 a3bf
000003c0: f90f 06b5 1bde af3f 5292 085e 89a0 a53f
000003d0: f37c 3cc2 c0d0 ad3f c14f 70de f343 8e3f
000003e0: 30ba 6340 b658 a63f 0942 cfd7 5703 94bf
000003f0: 83e7 cdd7 8248 a93f e2c3 1d87 30d2 a5bf
00000400: 743c aa44 b9b8 a2bf 47d1 a7aa 7ff1 89bf
00000410: 2cca 1c4c 241d a2bf 7b85 7b48 23fd 873f
00000420: 7e4c f2dd e4eb a53f 3282 643a ee51 bb3f
00000430: 95bc a5d2 2319 a4bf 5a2c 9096 e2cd a5bf
00000440: 12a9 8b48 8616 b2bf ead9 ea23 9a7c a63f
00000450: c20a 8dda 926b b03f 1020 cc37 11c2 9abf
00000460: 1ce0 64f6 325f 983f 3d9a 9b5e d869 b73f
00000470: 46b8 4174 96c2 97bf 6507 f606 918f a9bf
00000480: f8d8 85f2 db08 b9bf 501c 91c8 bf5d 59bf
00000490: 4fdf a5dd 9c72 a63f 754f e88b 5dce a0bf
000004a0: 07cd c5ce 7959 b4bf 6bd8 47ba d57a a7bf
000004b0: bb7f 82e7 2215 adbf 5ff0 a3ae 94b9 9fbf
000004c0: 4308 a63a 110f 78bf 56df 98ad dda7 9e3f
000004d0: b892 0251 5186 893f 6c66 3fec c13d aabf
000004e0: c664 2e7a 89d5 a63f e7dd bb09 8993 6e3f
000004f0: 2e75 5e32 633c b53f 14af 0335 f876 933f
00000500: 431d 3ed4 127d b23f fa38 7ccc 0cce b23f
00000510: fec2 4ded 9b9e b5bf c145 88b0 3665 aa3f
00000520: 597c f55c ba57 9abf e12c 0c2d e896 bb3f
00000530: 07c4 abc8 df95 b43f 42aa 88f9 d90d b43f
00000540: 73c2 0682 a4b1 ad3f 1ad6 39dc e1eb b13f
00000550: e047 0e86 d78b ac3f ddf2 9501 f2ec a7bf
00000560: 8dde 26cc 6755 9e3f b494 8bb0 ff41 b3bf
00000570: a047 6306 85a7 9c3f 1735 d39f 5053 9f3f
00000580: f957 85c7 09c9 963f 5027 859e d8c0 b03f
00000590: 915f f802 c4ba a3bf 50f4 1519 8926 89bf
000005a0: ac23 c21a efc6 9cbf d5b1 11f7 59f4 bb3f
000005b0: 9609 f8af 49aa 913f 3911 598e 8efe b8bf
000005c0: e763 585a 151d a63f 84d8 cc26 a5ce b43f
000005d0: 26a1 3b2b d1d5 7e3f 60b2 8bb7 207f a23f
000005e0: f7f6 48d9 b457 aabf 3c9c 48bc d604 b23f
000005f0: 23e3 47df c825 b4bf 32e4 a9f3 32f1 9f3f
00000600: a5ad 0842 558e b53f b661 4e09 eea0 abbf
00000610: f5cb 809a f0f9 a1bf 27ff d490 8ac3 b73f
00000620: 9e9d a8e6 e2f0 a73f fed0 b158 4ced b33f
00000630: 6076 7436 43e6 aa3f 0a16 a686 4088 b3bf
00000640: f781 e7c5 25b8 87bf 0bd3 30fb 02ae 9abf
00000650: 165e 729c 2253 a93f 707b 6e7e 9e3e 923f
00000660: 36d7 d4bb ba0f b1bf 1cca 9324 d6a7 983f
00000670: 534b 018c c77f b73f be7b 4099 4dce 9bbf
00000680: d3b4 fb43 3e16 af3f 3822 79e9 9e88 2fbf
00000690: f4b9 e655 d430 b23f 6c68 9be3 05e1 973f
000006a0: ff4d 6224 da80 b23f 550e ff3a 6495 a63f
000006b0: 3ee9 5be7 0ffa a4bf 9241 7882 0d35 9f3f
000006c0: e9a4 6ccf ad05 acbf fc55 3e30 4b6b a03f
000006d0: 8c4e eb07 0c3b a93f 71c8 e87b bf89 bb3f
000006e0: 06e1 b9c3 8696 803f 8985 d8e2 08bb aabf
000006f0: a471 0d74 1241 adbf 7353 1944 08e6 8a3f
00000700: 404d eb05 f680 b93f f7a9 9add 6a6c b0bf
00000710: e97b 12ca 365f abbf 1358 68ed 5773 a83f
00000720: d1d7 ca60 42f0 a7bf 9cfd 5e67 9582 b73f
00000730: 5f59 55a1 ff0f a73f 4b75 b5f4 8e16 98bf
00000740: 9d46 4e6e 50ab 7a3f 74f7 d407 d073 833f
00000750: 3982 ce9b 43d5 c03f 8a1f 2145 07e5 953f
00000760: a91b 90c5 cced b73f 1e84 53bd d634 8f3f
00000770: e7f5 b93f 04db b63f 90fc fefb 3f8b b9bf
00000780: 3410 a656 140f b6bf 963d 9e8f 5ebc af3f
00000790: 8960 b317 cae1 b3bf 1c0b 45b0 b19b ac3f
000007a0: 3a6c c5ae 4e95 a63f fb15 a19a 88d8 b43f
000007b0: e5b1 2b8c 5b49 85bf 193e 1af7 5431 a03f
000007c0: 8abd 74e5 ac48 aa3f 2046 9d86 c1a6 bc3f
000007d0: 44d5 63b0 7d05 a7bf c3c4 f63a 7dc3 b63f
000007e0: 83dc 81ee 0940 a6bf 554f a2ca 801c b5bf
000007f0: 3f36 ce40 b837 893f 6ca0 ee4f a1be a13f

weight f8 [16, 65]
-0.12487900620303023 -0.11061895016164523 -0.05587668675881775 -0.05038220711313376 0.025938157457396863 -0.11339331022577179 -0.0030884619589393314 0.12335419214442607
-0.10594962627907686 -0.024202355137034413 -0.027627043221776268 -0.045134809217138847 -0.04399698257728518 -0.012301933019459338 0.10879557316534494 -0.09619012766149455
0.03681928124275107 -0.0827684944160587 -0.06522498196573535 0.03501622485361272 -0.12590082042500805 -0.020644984682636848 -0.038669347171961944 -0.08671565766892976
0.012874308752816428 -0.04674819268727836 -0.10673150506424077 0.07875551123226467 -0.12514536872331541 0.04957781263907211 0.059976386091019296 0.0016490928100100586
-0.11449923234356633 0.03564350526449781 0.12414220680151881 -0.0021621448889777794 -0.09368992784118048 -0.12171288307014162 -0.0891990208694213 -0.09609984849145099
0.030555646898226655 0.06457698837666861 0.0006980752385565024 0.11320254300805405 0.07861752778996837 0.07388413515850517 0.021408802594493202 -0.032319848816434106
-0.027273858732539416 0.032489934936105316 -0.03178105135019677 0.05780346020283989 -0.01162216034772338 0.10705054891505714 0.040922635895407865 0.041736995120742006
-0.0797352392418592 0.022202212443530715 -0.07962865763633059 -0.09342481661483959 -0.11643105449648115 -0.07065752004065375 -0.06488651752774974 -0.013989425175702563
-0.07800581503390819 0.1281318412668823 -0.02413056045913378 -0.02499014046476927 -0.05094855538051484 0.08503234950230514 0.12807124274978604 0.09221201892372202
-0.045696467479523904 -0.08630735483948862 0.06480503838853081 0.09069392566749197 -0.01437003628365017 0.10808443108409772 0.04387597954442791 -0.09115332883793335
0.10066174566625452 0.1340539357021224 -0.054097727717307226 -0.10089505056590002 0.11067589618447858 -0.025910728314865475 -0.08320817313139066 0.04393218245359021
-0.07809726883627514 0.10517305545112386 -0.10286940918465216 -0.04547936049922593 -0.12693136508575692 0.0309934045408356 -0.04783740431953259 0.04250135337134802
0.1427414885290729 0.04018319647461058 0.11399596446073644 0.08411472269466148 -0.02422713217910848 0.03682861950565755 -0.06904602004960902 0.0452374512072224
0.11016068376888363 -0.07411034536065668 -0.08171463556274955 0.08463326603108036 0.03595572841315246 -0.11394120989681056 0.13091067897252126 0.0534930492921064
-0.02830605601716852 -0.10231436914248299 0.07796377443096356 0.09866898709675363 -0.050347523714337566 -0.10956986545852607 0.04152174454313532 -0.052469851254855635
-0.018729417366608724 0.07421605108123062 0.03104076926025155 0.004105470912876449 -0.033189391541569004 0.03157875843331041 -0.023040772296073896 -0.10137802584330358
0.11586900467254584 0.11245796269056756 -0.056891874805302126 -0.05271934814000449 0.006425466176562748 0.015031477332655422 -0.08377957955284364 0.008917493696445919
-0.10949721925042316 0.04813891958970007 0.037704022874253125 -0.07569646796779912 0.042873219892932954 0.052530128250313765 -0.10464732025522613 0.074503960813699
-0.056813418074153056 0.0017717122030873173 -0.008705413402945474 -0.04941029231311445 -0.08179067558515031 -0.1127197359859294 -0.025891022215323186 0.018532313634545706
-0.05827066769369707 0.05420876655413545 0.12071055224042752 0.0847050550207405 0.003129759560613406 -0.09878001335543364 -0.09970654939195754 -0.10261459311561229
0.05298928779974248 0.0844062022026351 0.04564132483804983 -0.053956611680313196 -0.10887134733126326 -0.03222471178423237 -0.014915563091543961 -0.12576839098336445
0.05580291788509919 0.11558738352087072 0.04006381501030048 0.035827010084005996 -0.0016773564009343839 0.11452304143267152 0.11699083141026242 -0.042002360823691944
0.04470915121400807 -0.11275172646245676 0.07660808064040979 -0.0040822354936304395 -0.08201661869626617 -0.01750548466164172 -0.05245294985084916 0.04833104188046904
-0.0990330272907537 -0.009078695704738642 0.11195079129662647 -0.040301091924739386 0.0802320502135806 -0.08417152080973131 0.07206739292909584 0.026875819903116542
0.08481905093650273 -0.12051557246785655 0.08201693051556032 -0.06255424146998796 0.08245984823196377 0.02502776771744926 -0.0070031276728259465 0.062201901577173535
0.05691210310580922 0.06349783759786527 0.01732556878294189 -0.088360465760094 0.03613588320810756 0.027492071532152038 -0.117454354806431 0.06216551521648428
-0.10093935749196219 0.07957657144526373 0.10347867416301613 0.01442359050550402 0.061406431073774796 0.09785753736972878 0.04496868770951975 0.05001993001141044
0.03944331268993881 -0.0021513274989229526 0.0795144247437578 0.0028614184021535758 -0.009880375758366582 -0.026864435673485332 0.08850084795173113 -0.09405594760677785
-0.003717127439396592 0.06247005113556431 0.08745173115144124 -0.06897815068779595 0.018478679788253818 0.01755100461460112 -0.1184274448628565 -0.024523494554164516
0.09454495137131394 0.008882632966983044 -0.11334909821175213 -0.05301072131081252 -0.08293549574408983 0.07597390190654167 -0.08893069176879594 0.007250620488984515
-0.019710443002943476 -0.06576802462809349 -0.0481383340247971 -0.07704757888305265 0.021391090651253095 -0.09298826384031775 -0.07311122111791855 -0.11820734755821127
0.05669167558395971 -0.10761020951386033 -0.08823711958616204 0.04892152174149095 0.12522977643104635 -0.02627978890262947 0.08766699371515307 -0.01677024131668185
00000000: cd57 990f 12f8 bfbf 4f1a 4305 8651 bcbf
00000010: b1d5 797c de9b acbf 8bd1 b357 b2cb a9bf
00000020: 71f8 fd47 888f 9a3f 4e3f 010f 5807 bdbf
00000030: 4086 7963 f94c 69bf 1db6 15ed 2394 bf3f
00000040: de5d e4c3 831f bbbf 26ef 328f 80c8 98bf
00000050: 0ca7 7d7c 434a 9cbf 1e64 ffe2 e81b a7bf
00000060: f890 95c2 c586 a6bf f022 f87f c131 89bf
00000070: f0d9 b1d4 06da bb3f 3512 818c ea9f b8bf
00000080: e784 9911 fad9 a23f 2ff8 a7e8 5030 b5bf
00000090: 51ce 6c9c 95b2 b0bf 78bb 2689 a5ed a13f
000000a0: d0ea 21a1 841d c0bf 3a44 2778 f523 95bf
000000b0: 8528 ecfa 77cc a3bf 393b bd51 ff32 b6bf
000000c0: 6466 6a78 d85d 8a3f df59 7a0d 61ef a7bf
000000d0: 6f2a b483 c152 bbbf 8151 1f39 5229 b43f
000000e0: d5cc f470 c304 c0bf 2db8 c857 4362 a93f
000000f0: f01d 9691 39b5 ae3f a8d2 f8eb cb04 5b3f
00000100: 532d 555a d24f bdbf 5505 da92 dd3f a23f
00000110: f30a 449e c8c7 bf3f b3c2 cbb2 58b6 61bf
00000120: 51df 0a28 10fc b7bf e9c2 4954 9328 bfbf
00000130: ae29 783d bfd5 b6bf bddc 6bea ff99 b8bf
00000140: 8145 8bc0 fa49 9f3f 1ae7 2615 1e88 b03f
00000150: 137d ed28 e1df 463f 0c2b 0b84 d7fa bc3f
00000160: b312 c03e 4720 b43f 34f3 3218 12ea b23f
00000170: 06a0 f56b 30ec 953f 6d43 5b2b 3a8c a0bf
00000180: 04fd 2aad aded 9bbf f2dd ff4f 85a2 a03f
00000190: 99f9 5c20 9b45 a0bf 616b 5546 6a98 ad3f
000001a0: 9697 d1f4 5bcd 87bf a6e8 9b2e aa67 bb3f
000001b0: 2b7d accd cff3 a43f 3d5f 272a 8d5e a53f
000001c0: e7ec e154 8769 b4bf 610f 6041 2dbc 963f
000001d0: f456 5f30 8b62 b4bf 48db fe53 b0ea b7bf
000001e0: 271a 4df3 6cce bdbf b983 ca79 9c16 b2bf
000001f0: eea6 bb1e 679c b0bf c0b2 f4dc 7ca6 8cbf
00000200: 0ced 7768 30f8 b3bf 95a4 e8c9 9f66 c03f
00000210: 0747 0680 aeb5 98bf cf13 13f0 0397 99bf
00000220: f787 46d6 ed15 aabf b3e5 3618 aec4 b53f
00000230: 668e 9573 a364 c03f 3a55 93f5 349b b73f
00000240: 7b0c bc02 8765 a7bf 629b 7022 3d18 b6bf
00000250: e1a8 7e20 1097 b03f 450f b094 b737 b73f
00000260: b57d 0b9f 096e 8dbf e984 b6d8 6bab bb3f
00000270: 2152 7292 e976 a63f 0fcc 4716 d355 b7bf
00000280: f846 98d9 f7c4 b93f 57cf deea ad28 c13f
00000290: ece0 aa86 b2b2 abbf 2b41 820e 42d4 b9bf
000002a0: 175d 916a 4155 bc3f 945b e98a 5788 9abf
000002b0: 6bf6 5b7e 214d b5bf 3099 c26d 477e a63f
000002c0: 6308 8fbf 2efe b3bf 9f3d 9511 9fec ba3f
000002d0: e9f8 344c a655 babf 4b6e f91b 1249 a7bf
000002e0: 9aa2 f076 493f c0bf 900e 942b bcbc 9f3f
000002f0: 57e5 27ee 247e a8bf 1707 88c5 bcc2 a53f
00000300: 95e2 8164 5a45 c23f 7415 6a55 e492 a43f
00000310: 8f1e 3ceb d62e bd3f 21ef 15df 8a88 b53f
00000320: 2d62 8a51 ffce 98bf 24d1 aa68 33db a23f
00000330: 3033 08fe ffac b1bf b994 fafa 5c29 a73f
00000340: 76a4 1796 7d33 bc3f 8389 9e45 e5f8 b2bf
00000350: acb8 5817 40eb b4bf 19d5 c195 86aa b53f
00000360: 86d5 460b ca68 a23f b868 2c4a 402b bdbf
00000370: 4b2b 715e aec1 c03f 3fbb 8be2 7063 ab3f
00000380: 226c 7d43 43fc 9cbf dcb9 6045 4631 babf
00000390: 4e26 7415 6ff5 b33f bfc2 b5e8 5e42 b93f
000003a0: bc48 938f 26c7 a9bf 5680 c54c c50c bcbf
000003b0: a571 c58d 5642 a53f 26c8 540e 54dd aabf
000003c0: 6339 40ec cd2d 93bf 3f6e 3bb8 d2ff b23f
000003d0: 9b08 43c3 26c9 9f3f c942 e3f4 e5d0 703f
000003e0: f587 7d2e 33fe a0bf f54e 704d 172b a03f
000003f0: b6e3 f10d 0098 97bf 28b0 8709 e9f3 b9bf
00000400: bb4b b051 97a9 bd3f 5347 ee87 0bca bc3f
00000410: f2cf 648b ee20 adbf 7669 41c8 07fe aabf
00000420: b831 70f1 9651 7a3f 823f 6fbc d2c8 8e3f
00000430: 3789 401a 9472 b5bf 4be4 4ebe 5543 823f
00000440: 74fa ae7f 0208 bcbf f0e5 9a1a aaa5 a83f
00000450: e158 5812 f14d a33f 2d2b 58fe d760 b3bf
00000460: 46f4 a08a 7af3 a53f ae91 c79d 3ae5 aa3f
00000470: 5638 1cb2 2aca babf 8e07 1e0b b112 b33f
00000480: fd75 34f9 a516 adbf 367f 177e 1907 5d3f
00000490: ae15 e9ce 24d4 81bf 3129 244b 4e4c a9bf
000004a0: 0187 c1d4 3bf0 b4bf c55e ac5b 33db bcbf
000004b0: af04 b316 2d83 9abf 4d19 eb83 22fa 923f
000004c0: 84fb 1e28 a7d5 adbf 5455 035f 40c1 ab3f
000004d0: c39c 2702 e3e6 be3f c4b5 1e01 3baf b53f
000004e0: 9133 a1de 94a3 693f f92a dc9e a549 b9bf
000004f0: 1fe1 d550 5e86 b9bf 691e 8631 f344 babf
00000500: 86c5 4674 6921 ab3f a335 0a16 a59b b53f
00000510: 1f13 0dbb 4c5e a73f 22cc 2375 33a0 abbf
00000520: 115d 421c fede bbbf d1fc 78e6 c17f a0bf
00000530: 41d5 6ffd 0c8c 8ebf 9871 12bb 2d19 c0bf
00000540: e3fd ac36 3392 ac3f c066 0d80 2297 bd3f
00000550: b7c8 718e 3e83 a43f 0da0 3ff9 ea57 a23f
00000560: 6e1e b0b8 577b 5bbf b57e 97cd 6151 bd3f
00000570: e6c3 d672 1cf3 bd3f 8562 2f5c 5581 a5bf
00000580: 3d98 972c 1ee4 a63f 464a b911 4cdd bcbf
00000590: 67bb f550 969c b33f a910 09bf 88b8 70bf
000005a0: 466a 0787 0aff b4bf 6551 7d30 f5ec 91bf
000005b0: f351 60f0 1cdb aabf 8735 84a8 d8be a83f
000005c0: a80a 707d 3a5a b9bf 8933 23e9 d997 82bf
000005d0: 725d 619b cea8 bc3f 0da4 9e3f 58a2 a4bf
000005e0: c823 c26f 168a b43f 9ee3 21c9 438c b5bf
000005f0: f20a bd37 0273 b23f 0ef6 25be 5585 9b3f
00000600: 0d9c d989 b3b6 b53f 4c7d 68ca 1bda bebf
00000610: d55a 48c2 0fff b43f 9df5 5605 8e03 b0bf
00000620: 3bb0 63af 161c b53f f472 5a0f e1a0 993f
00000630: f126 31c5 4faf 7cbf e0c2 0b7a edd8 af3f
00000640: 350c 2c4b 9523 ad3f 257c d9ef 6441 b03f
00000650: c0b5 3a3d cbbd 913f 2ded b29e ca9e b6bf
00000660: 1f8a 2e09 6780 a23f bc00 85b0 e126 9c3f
00000670: 4b99 aa14 7d11 bebf b06b 968d 28d4 af3f
00000680: a3a6 4e67 29d7 b9bf 769d e253 215f b43f
00000690: 8714 5d11 947d ba3f 44a6 188c 1d8a 8d3f
000006a0: 87ae 73ea a970 af3f 8f8a ab0a 310d b93f
000006b0: abe3 1cc6 2206 a73f cb2c 1857 369c a93f
000006c0: 4c2f 19f4 e931 a43f 9f0a 0728 a99f 61bf
000006d0: 70ae d5ad 0e5b b43f d933 a34e d470 673f
000006e0: 1cf6 0896 293c 84bf cd8c 92c2 5982 9bbf
000006f0: d4f6 9ed7 fda7 b63f 7a24 f7f2 0c14 b8bf
00000700: 4656 3199 6173 6ebf e8a0 3615 13fc af3f
00000710: 7926 4695 3c63 b63f 7cb7 5755 8da8 b1bf
00000720: a789 7435 13ec 923f dd9d 53fb e3f8 913f
00000730: 0883 a2d2 4251 bebf 6d05 60dc af1c 99bf
00000740: b246 2412 1934 b83f dcb6 c3d0 0e31 823f
00000750: cabe d94d 7204 bdbf 0f10 bca4 3824 abbf
00000760: 65fe e5b9 423b b5bf 7bc1 0990 0673 b33f
00000770: 5df4 c16c 29c4 b6bf 8cab 039e d3b2 7d3f
00000780: e968 5970 f92e 94bf 7772 e65a 2cd6 b0bf
00000790: 160f a474 96a5 a8bf ade7 89df 63b9 b3bf
000007a0: fc73 17cb 8be7 953f c621 1b30 14ce b7bf
000007b0: bf0d acbf 6ab7 b2bf f0cf e833 d642 bebf
000007c0: 4056 2df9 b006 ad3f a6e6 93ba 578c bbbf
000007d0: 5472 ea36 b596 b6bf 0888 e6df 3d0c a93f
000007e0: b7dc 2081 8707 c03f 58c2 87c7 16e9 9abf
000007f0: f0f9 f116 5871 b63f 6b34 01d8 372c 91bf

weight f8 [1, 17]
-0.046737352203972085 -0.1867604799210455 0.13842006940978793 -0.13412022671307317 0.11616198029612389 -0.2201608402813536 0.14288968960673074 -0.19586177284598424
-0.06231164551979283 0.18064643946113237 0.12931146958861284 -0.04558388385662588 0.17770427306040676 -0.10678744417714388 0.044483445811238066 -0.1431945263071428
-0.04224443995541571
00000000: 8a75 6f4e f5ed a7bf 9c1b b974 c4e7 c7bf
00000010: b9cf 9cb3 bfb7 c13f 167d bb01 da2a c1bf
00000020: 2713 69a2 cabc bd3f 3b24 6ffc 3a2e ccbf
00000030: b3f3 e597 354a c23f 9b7d 74a2 ff11 c9bf
00000040: aebc 55df 4fe7 afbf 95ec cf2a 6c1f c73f
00000050: c0bd 703a 478d c03f 091a c754 c556 a7bf
00000060: 06b3 937c 03bf c63f 0d40 5d04 6c56 bbbf
00000070: edff f1c1 88c6 a63f 384a babf 3254 c2bf
00000080: afba 1730 10a1 a5bf
