Data/Breast Cancer Winsconsin (Diagnostic)/results/models/model_9/bcw_state.pt (torch, 406575 bytes, 10 tensors)

linear_layers.0.weight f8 [256, 31]
000000 c3 4d 14 72 e6 af a7 3f ef a4 9c e5 1f 37 da bf
       0.04626388685769769 -0.4096145384124403
000010 14 7b ed 32 33 aa c1 3f 32 2f 21 b9 fa 14 84 3f
       0.13800659167005647 0.00980564000578674
000020 22 4a b1 a1 f4 ab be 3f 6d 3a 04 c7 1e a1 9e bf
       0.11981133410999026 -0.02991149987888735
000030 56 ed 67 fd 54 d5 a8 bf a9 6b d4 64 6d 4c c1 bf
       -0.04850259393057381 -0.1351448767025805
000040 86 85 8c eb 32 6d b8 3f b0 d4 f8 d9 ba b2 c7 bf
       0.09541624308305616 -0.1851419033352264
000050 2b b3 3d 48 00 b2 c4 bf 3f 25 44 a7 4b d0 b7 bf
       -0.1616821625460941 -0.09302208741805361
000060 da c6 10 2b 5d 7c d2 bf 00 b0 88 30 ea a6 d5 bf
       -0.28884057241076067 -0.3383126710857596
000070 85 3d 51 52 c1 f1 b9 3f e4 ad 6f 7d 9a 13 d5 3f
       0.10134514102650456 0.32932150125154025
000080 b5 00 41 20 ac 6d c7 3f f0 59 e2 49 d1 dc c8 bf
       0.18303443503282826 -0.19423881633402074
000090 c1 ad dc 25 41 83 a4 bf 16 6d 16 c2 b2 f7 66 3f
       -0.040063892242268924 0.0028036586160859007
0000a0 68 7f 63 33 f7 d1 c3 bf f1 b2 ac df a5 50 d8 bf
       -0.15484514245235492 -0.37992235987876116
0000b0 8f 8b e6 64 46 58 99 bf aa 7f 40 d1 73 8f d1 bf
       -0.02475080481384456 -0.27438064036140963
0000c0 9e 99 44 5b 42 11 c3 3f ba e8 41 5e 8a 71 b3 bf
       0.1489642091411953 -0.07595124055106597
0000d0 a3 41 1a ce 93 3b b7 bf e9 8f c3 ef 36 a9 a6 3f
       -0.09075282842446213 0.04425975491338347
0000e0 3f 3e 92 84 6e 6a 92 3f 86 5e 1d 75 b3 fa d4 bf
       0.017984129754550656 -0.32780157505974505
0000f0 25 bc 3d 51 fe 88 8e bf b2 4c b4 09 ba 1d c3 bf
       -0.014909731725962836 -0.14934468721239608
000100 55 24 bf 0d 8e 4d 98 3f 8e 6c 0b 77 aa 7f 9c bf
       0.023733348454502885 -0.027830756679446504
000110 ca e8 02 a3 89 68 9c bf f5 e6 e2 e8 32 9f bd bf
       -0.02774252946321879 -0.11571043191625192
000120 b4 bd 3a 61 9c 0d c6 3f 5d a5 63 cc ed 7c b4 3f
       0.1722903704407891 0.08003126373264054
000130 ed 26 55 bc 49 26 c7 bf 74 ab 22 ea e7 9b bb 3f
       -0.1808559579460999 0.10784768549153317
000140 ff 6f c7 ee 0c dd cf 3f f5 8f 5e 5c 67 15 c6 bf
       0.24893342646726066 -0.17252819071029504
000150 0d 83 80 8d ae e7 a8 bf 85 80 5d e6 8a 3a c3 bf
       -0.04864259221381504 -0.1502240776853833
000160 84 62 34 3c d4 f2 b3 bf b1 9c 6b f5 57 a9 c0 3f
       -0.07792402715529972 0.13016795619407653
000170 66 74 bc 8f 62 23 d5 3f 39 37 c2 f0 20 23 8c bf
       0.33028472935422426 -0.013738877627726619
000180 6a 87 43 66 72 e0 8e bf 64 f7 82 d2 20 7a 6e 3f
       -0.01507653593620591 0.0037203446446189437
000190 9d 23 6a cf ab 16 bc 3f 02 64 77 33 6d 8d d0 bf
       0.10972093404610779 -0.25863199258816405
0001a0 b5 a1 c6 21 19 98 a7 bf b3 ef b4 90 3f 3f 96 bf
       -0.04608229195884254 -0.021725648123932916
0001b0 48 31 34 a2 5e bf cf bf de 28 f8 a1 d2 f4 c8 bf
       -0.24802763862715893 -0.19497139843617267
0001c0 b1 12 e8 a1 54 9f c0 3f 24 e3 e5 7b 83 7a b1 bf
       0.12986238389580287 -0.068275659321341
0001d0 db da f5 75 3e ce 76 3f b1 7d 9b 94 a7 8b 6b bf
       0.005567783343727507 -0.0033624909454912024
0001e0 73 54 98 45 49 c1 ad bf 95 65 da e4 1a bb 89 3f
       -0.05811528181599437 0.012563905819933644
0001f0 eb c0 8a a1 48 15 9e 3f 88 16 a1 fa 70 0b 01 bf
       0.029378065929166402 -3.2510171266636695e-05
000200 67 a0 26 da dc 08 b2 3f 92 2d 04 69 0c ad 8c bf
       0.07044773412656156 -0.014001938776820908
000210 87 a9 ae ba 36 e7 c3 3f 59 08 31 24 bf 71 ae bf
       0.1554935847792189 -0.059461568038856334
000220 2b 40 c3 f8 11 ae bd 3f 3a 34 e5 14 d5 15 d1 3f
       0.11593735049541525 0.26695754089888946
000230 e1 3c 6b ea a2 30 9c 3f c9 d7 e3 fa 41 84 a9 bf
       0.02752928310183911 -0.04983717143652162
000240 cf f9 74 30 84 69 d1 3f c0 13 40 0f 0a ae bb 3f
       0.2720652077877305 0.10812437889406024
000250 f9 51 7d c3 6f 7f be 3f cb d5 b8 c3 a3 0c c3 3f
       0.11913202784246114 0.14882323319186094
000260 23 33 4d 30 f9 60 a1 3f 56 36 74 6f 12 05 ca bf
       0.03394297327631637 -0.20327978555762866
000270 e7 92 1e c7 69 06 b5 bf de fe 97 b5 af d0 a7 bf
       -0.08212910758318125 -0.04651402560921068
000280 0d 98 50 28 7a a6 c3 bf d2 8e 0c a5 33 e6 b9 bf
       -0.15351798027512623 -0.10116884974973608
000290 1c 71 f6 fb b1 87 ca 3f 8f 14 f8 7f 0e 9b d0 3f
       0.2072660904203837 0.2594639062593353
0002a0 c4 3a ba 0d a1 88 c4 3f 01 28 fc aa e6 cc c1 3f
       0.160419589712964 0.1390655836951851
0002b0 49 4c d3 55 c1 05 c6 3f 8b bc 1a be e3 b2 c7 3f
       0.17205063524906652 0.18514677793925602
0002c0 a6 ef 8b 10 0b e4 c3 3f a1 cc 13 b4 d3 54 cf 3f
       0.155396826819808 0.2447762135776417
0002d0 6d c0 02 34 7a 78 b5 bf 84 c2 85 75 6a 6d c8 3f
       -0.08386958856385869 0.1908391069259957
0002e0 e3 5d 29 1c 98 09 9b 3f fd 0c 9f 5a dd 3b 9b bf
       0.026403786391112304 -0.026595553070149148
0002f0 a9 19 27 e7 ab 8f c5 bf f7 55 d9 de 35 9f 72 bf
       -0.16844700609926846 -0.004546366149573703
000300 fd 90 3f 72 38 8d b6 bf 33 ec 73 e2 21 a3 81 3f
       -0.08809235371842657 0.008611931536952699
000310 a4 c3 28 a6 a2 ca a2 bf 98 34 e9 9a d8 49 c0 3f
       -0.03670223501502015 0.12725360454570445
000320 6b 45 4a 07 34 de 69 bf ad b9 50 7b c8 3e b3 bf
       -0.0031577125722114705 -0.07517674456241848
000330 6b be 81 d3 2c b8 b9 bf 88 00 55 eb 2c b4 d0 3f
       -0.10046653903713725 0.26099703771252125
000340 c8 22 60 fd 16 13 c5 3f f6 2f 43 e3 03 ed ac 3f
       0.16464507457592092 0.056495782367704736
000350 1e 68 2d dc 9c 14 c5 3f c6 be 05 3d 1b 5e d0 3f
       0.16469155073974745 0.25574379882071374
000360 73 15 a5 4e 54 3b bf bf 9b b1 c6 ca f5 fc a3 3f
       -0.12199904365578167 0.03903930759711046
000370 56 58 41 52 70 6d bc bf 7f ca e6 2a a5 ca 9f bf
       -0.11104490287957111 -0.03104646753645079
000380 c7 55 40 b3 72 73 9c 3f 48 48 11 c8 51 4b cd bf
       0.027784149351722378 -0.22886106747552248
000390 49 50 29 20 01 9b bd bf f9 0b 9c 10 66 3d cf bf
       -0.11564642939748739 -0.2440612393475872
0003a0 d7 15 85 21 a1 42 c3 3f 8b 70 77 83 f6 9e d3 3f
       0.15047086846077093 0.30657732809573507
0003b0 45 78 69 e7 7d df 85 3f f5 8a 15 c9 52 a3 c3 bf
       0.010680183052667167 -0.15342173403322304
0003c0 8d 3b f8 91 a6 d9 ba bf 4e dc 5d d4 c3 52 bb bf
       -0.1048835855838048 -0.10673164305431834
0003d0 3a b0 ea 7c 23 e3 aa 3f 0e 97 06 6d 20 bc be bf
       0.05251418018210115 -0.12005808507691659
0003e0 03 dd fc 13 a8 43 cc 3f 1c 22 03 02 9a 38 93 bf
       0.2208147142025397 -0.01877060544282659
0003f0 ca f7 f7 fc 9d ef 95 bf 39 dc 06 7f d5 6d ad bf
       -0.021421879353503738 -0.05747859168644038
000400 ff 0e 8d 33 1e 7b c2 3f 9a 50 cd c3 51 1f a1 bf
       0.14438226239337124 -0.033442073012936294
000410 8e c6 ee bb aa b2 a1 bf fb 90 18 77 f8 a8 b3 bf
       -0.03456624549961616 -0.07679703624359384
000420 f2 0c 2a fe 75 36 a9 3f 7c 2f c4 a5 7b d1 c4 bf
       0.04924362876502099 -0.16264291376171147
000430 91 fe e0 9c 54 3b c2 bf 3b 04 55 80 4c 65 ac bf
       -0.14243562374212052 -0.05546034876397995
000440 99 17 39 d6 f7 29 a4 3f 7e 86 58 b8 4c dc be bf
       0.0393826912882524 -0.12054900646810471
000450 1b 08 23 1d bd 7e c0 3f 62 9e a4 19 32 3d b3 bf
       0.12886775896737465 -0.07515252233553718
000460 1d 1a 11 64 31 4b c1 bf da 71 26 cd c9 75 b6 3f
       -0.13510720621180008 0.08773480661915958
000470 1f 2c 26 f7 a8 76 c7 3f 80 5c e4 82 ca 55 be bf
       0.1833087164671676 -0.11849656768423422
000480 f6 44 95 89 46 34 c2 3f f9 7a d7 1f 75 51 b2 bf
       0.14222032277988433 -0.07155544307122942
000490 2d 6e d8 2c 09 da ac bf 4e 0f dd 31 2a 25 c6 3f
       -0.05635098144940929 0.17300918040029462
0004a0 4b 68 34 b4 e9 cb b4 3f fd db 8a 45 1f 96 d3 bf
       0.08123646401910027 -0.3060377291798771
0004b0 c0 04 ac 51 a4 57 9a bf b7 ed 2f 0f 1c 8c 9c 3f
       -0.02572495220647819 0.027878225733713537
0004c0 e6 90 42 a6 74 ea c0 3f ca 59 b8 bf a1 34 aa 3f
       0.13215501897969445 0.0511827990086889
0004d0 a4 98 a2 c0 e7 5b d8 bf 8f 52 c0 11 10 61 63 3f
       -0.3806094533159785 0.0023656190733255043
0004e0 d1 66 de b1 0a a3 d2 bf f6 de 76 cc f4 52 7f 3f
       -0.2912012803077291 0.0076474726151258745
0004f0 42 c6 4a 2b e1 68 b0 bf b8 fc d6 83 a4 cc 95 bf
       -0.0641003351872991 -0.021288462206709297
000500 87 da f1 10 fd 92 98 3f b4 ca 5f 5e df 22 96 bf
       0.023998216780877015 -0.02161740315927814
000510 ff 01 b0 2e e4 ca c5 bf 2e b4 be 91 dd 22 b6 3f
       -0.1702542522398431 0.08646950538850781
000520 34 02 5c 3f 6d 96 c3 3f 66 09 35 61 36 a5 96 bf
       0.15302816003533481 -0.022114610369734854
000530 2b 57 b7 15 7b d9 89 bf 06 ad 1d 7e 03 78 d1 bf
       -0.012621842956757575 -0.2729500514603419
000540 1a 26 92 88 80 9e cd bf 1a 02 cf d4 70 05 a2 3f
       -0.23139959972859075 0.035197759606948334
000550 9b 73 28 df ce fe c9 3f f2 a0 0e 53 a7 ac b4 3f
       0.20308862587344553 0.08075948503267563
000560 f3 cc 61 9e 64 6c 7d 3f ce 79 fd 64 a4 8a ba 3f
       0.007183449784963647 0.10367801156596743
000570 48 d8 41 89 2c ee d3 3f a5 19 a7 af 11 fc bf bf
       0.31141198543571535 -0.12494001902005054
000580 09 3e c6 ab ef bb 5a bf 26 59 1a db 3b 7f 94 bf
       -0.0016317215477988942 -0.020016608474713447
000590 d5 fe 5d 6b 5e 3c a2 bf d6 03 0f 7b 25 76 c5 3f
       -0.035616827589363055 0.16766804226611381
0005a0 92 70 bc 50 a3 b4 c4 3f 35 7f bc 79 02 a1 b7 bf
       0.16176263277236963 -0.09230056259229687
0005b0 a9 22 91 ef 0d 01 b6 bf b8 4f 41 7a 1e 54 bd bf
       -0.08595358942796828 -0.11456480488533216
0005c0 09 7d 84 09 e5 ea 99 3f 07 46 95 b5 97 9a c5 bf
       0.025310114580062968 -0.16878029219019217
0005d0 24 a7 ad 1e ac d3 b9 3f f5 b9 27 af 92 01 66 3f
       0.10088611363394456 0.0026862969327716654
0005e0 72 0d 6c 44 52 15 ba 3f 1b 20 be 58 65 3b cb 3f
       0.10188783808194105 0.21275011857164902
0005f0 35 80 80 db 54 e1 b8 3f ee 75 a1 6a 3d 2b 9a 3f
       0.0971882854360054 0.02555557215997866
000600 8d 26 c2 93 72 6f cd 3f 2a 56 84 91 84 42 d1 3f
       0.2299636098362509 0.2696849270881524
000610 64 74 b8 45 14 34 c5 3f 48 3c 92 6c 17 27 97 bf
       0.1656518307144409 -0.02261005973974431
000620 5a ed 89 6a 52 32 85 bf 64 ee 1a 5f 05 34 ac bf
       -0.010349887729936103 -0.05508438859893941
000630 de bf 32 d4 bb 3c ae 3f 8e a6 92 f0 c5 e6 98 3f
       0.05905711140928792 0.024317829903032044
000640 1f 41 d8 40 23 f1 ad 3f 95 3c 1d 16 f8 4e d4 bf
       0.05848035971223652 -0.31731989059057614
000650 24 24 88 56 7a ef 9a bf 02 f5 35 a6 db 05 a3 bf
       -0.026304160624963782 -0.03715406803073941
000660 ec 72 21 2c fb 87 d4 bf 87 30 e6 ef df 41 80 3f
       -0.3207996302569842 0.007938146122590929
000670 fd 3a 3d 7f 26 18 b7 3f 23 a1 da b3 30 ac d0 3f
       0.09021225553918195 0.260509658468907
000680 05 67 cf 85 65 f4 ca 3f 7c 7d b0 45 dd f2 c3 3f
       0.21058339151095865 0.1558491316109033
000690 40 cc 46 64 6b 86 c2 3f dc a5 88 aa fe 04 a0 3f
       0.1447271575576412 0.03128810722075645
0006a0 39 cd 10 1f 30 00 c8 3f 2a 82 f3 75 f9 64 b7 3f
       0.18750573651196037 0.09138449792545403
0006b0 44 ec c9 ce b3 33 b0 bf 65 8a e3 ac 77 1e b3 3f
       -0.0632889156203627 0.07468364687842095
0006c0 11 bc 66 e0 25 0f a1 bf 14 85 e7 f4 fd 16 b3 3f
       -0.03331869472764749 0.07456958035574629
0006d0 db 5d 50 cd e5 1c d6 bf 4e 0a fa 2d 42 39 ac 3f
       -0.3455137734431141 0.05512434779395346
0006e0 33 1c f0 5f dc b9 b2 bf 6d 5b e7 93 23 ce ca 3f
       -0.07314851133570315 0.20941586229192968
0006f0 3b 87 8b ee b6 6c 94 bf db c3 d6 8d 4c 60 b2 bf
       -0.019945963201173127 -0.07178190672745137
000700 08 cc a0 d2 ac 79 ab 3f 2e 89 27 61 60 42 be 3f
       0.053662682258071526 0.11820032474455353
000710 cc 0f 29 84 14 8f c6 bf 29 bd 66 4a c7 c7 c5 bf
       -0.17624145939964675 -0.17015925534131185
000720 d5 ae ea 7f 29 14 d0 bf 57 a2 04 de 54 04 cc bf
       -0.2512305974184817 -0.2188821872780575
000730 e5 04 f3 c8 ed c8 d0 bf 5f 97 4b 36 f7 5e c8 3f
       -0.2622637236018604 0.19039812232147832
000740 e3 26 e2 2d ce f4 c7 3f 71 13 3f bd 8f 99 bb 3f
       0.1871583675422733 0.10781191225312427
000750 91 bb 73 cc c4 3d b4 bf 11 55 50 da f7 36 a3 bf
       -0.07906751624589804 -0.037528748893388315
000760 86 40 16 ed 3f 52 bb bf 12 fe 1c 5b 43 90 bd bf
       -0.10672378099684651 -0.11548253035015701
000770 86 ff 09 c2 af 0c da bf d6 62 e1 6b 2c 4e 9b bf
       -0.40702432583929526 -0.026665395817277858
000780 b5 f7 29 9e 37 e0 c6 bf f4 6d 72 7e b8 97 b7 3f
       -0.17871756766174732 0.0921588238438103
000790 b7 94 40 11 cd 5d 73 3f fc 0e 9b d9 cc e6 c7 bf
       0.004728127521990525 -0.18673096299436753
0007a0 ce 40 06 3a 7d 89 c8 bf 7e 30 56 d1 84 77 8d 3f
       -0.1916958363840479 0.01438812030644265
0007b0 b3 31 35 c4 43 5f cd bf 78 49 c5 bb c8 c0 b5 3f
       -0.2294697483106468 0.08497290214771691
0007c0 28 22 8a 7c fa 9a ba bf 9d 4e e0 44 05 2e b1 3f
       -0.10392728367345028 0.06710846835658875
0007d0 f7 16 9d c7 21 5c b7 bf 6a ad 12 f1 ff 5f cd bf
       -0.09124957202319793 -0.22949218054905468
0007e0 c4 53 98 9f c5 a3 c2 3f 79 34 34 28 c1 69 ac 3f
       0.14562292378164277 0.05549434295435502
0007f0 f2 28 1b 99 13 f2 cd bf 65 eb e8 c6 83 dc d8 bf
       -0.23395009017833207 -0.3884591524580883

linear_layers.1.weight f8 [128, 257]
000000 2f 7b bb be fa 43 a8 bf 9c 42 a4 7e 16 03 b7 bf
       -0.047393642218358394 -0.08989086715542743
000010 08 7d 9c f2 db 4d a7 3f 22 7e be 43 dc 3c ad 3f
       0.045515893331179724 0.05710495306925291
000020 15 de ff 22 ef d4 a9 bf ae c0 52 ce 1b 52 c9 bf
       -0.05045268347015167 -0.19781825613381926
000030 49 6d 66 d1 a3 d8 99 3f 84 50 e4 2e d7 7f c5 bf
       0.025240478187339908 -0.16796388425484932
000040 a4 54 15 23 4e 8f c0 bf d0 94 37 ca 9d 4c 92 3f
       -0.1293733283334052 0.017870393245080163
000050 a2 80 77 6b 33 e1 b4 3f 37 6c e7 64 64 4e ab bf
       0.08156129239751178 -0.05333245975244732
000060 1b 3e 14 f4 0a 36 b6 bf d2 5a c4 59 7e c2 ac bf
       -0.08676212748491034 -0.0561713680819388
000070 a8 81 c9 44 41 42 6b bf fb 33 f8 1c 5b e0 be bf
       -0.0033274912623683824 -0.12061089951767194
000080 62 a3 9e 06 c5 c0 c0 bf 71 5c 1d bb f9 ed bb bf
       -0.13088286231257046 -0.1090999681303957
000090 9e 20 f1 2e 39 e2 91 3f 13 8a b0 14 ee ed c2 bf
       0.017464536180597727 -0.14788604746088704
0000a0 35 29 b5 9a 25 d6 b8 3f 77 aa b5 de cc bc b3 bf
       0.09701762225191575 -0.07709961354491122
0000b0 fa 78 06 c1 52 7a ab 3f c7 d1 e0 b0 d1 63 be bf
       0.053667627394348785 -0.11871061867061093
0000c0 1e 21 71 3f 03 70 b6 3f 43 5a 77 74 2b 34 b4 bf
       0.08764667796015543 -0.07892104714788055
0000d0 f5 48 75 46 b7 7d b1 bf 7b 71 97 88 53 68 a7 bf
       -0.06832452268762153 -0.04571782152536038
0000e0 ae 24 84 a1 eb e7 b4 bf 3d d2 6c c8 d6 64 ab bf
       -0.08166382497087696 -0.053503715482666504
0000f0 94 22 f5 91 95 6b 95 bf 41 61 3a fe a2 5a c9 bf
       -0.020918213876287853 -0.19807851232031662
000100 0f c6 42 d6 15 ca c3 3f e0 24 92 03 d0 1c c0 bf
       0.15460465394930664 -0.1258792893825449
000110 db 8f 6d 22 4d b2 b4 bf 7c cf 6d 73 c1 d5 99 3f
       -0.08084566202666059 0.025229475660537556
000120 86 64 65 75 3a 41 a9 3f 4f 02 f0 3a dc ea a2 bf
       0.04932577784593044 -0.036948091692469924
000130 1f 09 25 89 b3 2a 9a bf 7e 5f d6 f8 3c 24 b6 3f
       -0.02555351757588042 0.08649045062190727
000140 fc d7 fb 77 99 78 94 3f d1 5c 83 a6 5c 9e ac bf
       0.019991300533511933 -0.05589570553427737
000150 ca 0c 7d 86 b2 38 b0 3f 6c 53 2a d2 ac df a5 bf
       0.06336513312730854 -0.04272213044638459
000160 14 1d 21 8b 17 ec c1 bf f0 62 8a be 2b 1d 94 bf
       -0.14001745503831187 -0.019642528061555475
000170 d6 d7 73 c0 3e 7a b5 bf fa 81 7d 71 99 81 b4 bf
       -0.08389656256244335 -0.08010252972372447
000180 cb 85 49 c6 4b 3b c5 bf 56 77 19 e7 c5 40 bf bf
       -0.16587207014076308 -0.12208210842206077
000190 6a 52 73 a0 e6 31 b6 bf 3a a0 a9 fa 71 2f ae bf
       -0.08669892709014851 -0.05895572838636594
0001a0 04 1c 0d 34 76 15 b3 bf f6 5d e0 b9 ef 6f bd bf
       -0.07454623003751243 -0.11498926437376852
0001b0 01 7d 21 5e b9 0e a8 bf 55 ae 22 da 39 1f c5 bf
       -0.04698733591134819 -0.16501544142862437
0001c0 cd 55 02 cf 5b 65 b4 bf 3f 8e 41 68 3f 86 b5 bf
       -0.07967160991605411 -0.0840797071010053
0001d0 74 a4 fc e0 1f b0 b3 3f 28 4a b8 57 2c ab 88 bf
       0.07690619700282914 -0.012045236994741762
0001e0 cf 36 32 03 79 03 ba bf 58 04 66 5a 96 bc b7 3f
       -0.10161548927336671 0.09272136408800813
0001f0 6a 22 0b bd 06 25 a4 bf 25 b6 4d fa 58 df a5 bf
       -0.039344988419149754 -0.042719631724008424
000200 a2 a7 c7 0a 4d fc a2 3f e0 71 df 3b 1e 65 6c 3f
       0.03708115345564457 0.0034661856179651757
000210 96 aa a5 19 d7 c3 aa bf 16 0b cb f9 0b 3b 9d 3f
       -0.052275392418626485 0.028545558091319277
000220 93 78 a8 e9 22 e8 9d bf 00 be 8c 89 d8 62 c7 bf
       -0.029205842505796453 -0.18270403591439788
000230 83 25 99 40 e4 72 a6 bf 4d a8 c4 66 8a 89 aa bf
       -0.04384530342629047 -0.05183060173506302
000240 62 3e bb 33 5e b7 b4 bf 30 75 fb f7 52 3b a4 bf
       -0.08092297327970635 -0.039515106936713784
000250 3e e5 c4 bf cf ad 90 bf ba 85 41 c0 f5 60 8c 3f
       -0.016288038329752334 0.013856811456380725
000260 94 95 2a af e4 01 bc bf a0 08 ad 20 af fb 9b bf
       -0.10940388943216411 -0.027327286118869254
000270 a6 45 cf e8 04 90 a7 bf 14 5c ee d3 02 4a b4 bf
       -0.04602065412440064 -0.07925431894396723
000280 e0 12 bd ec 47 b1 a2 bf 53 8a 98 c9 48 07 b0 3f
       -0.036508796356917506 0.06261114999555532
000290 23 e6 d6 fd e4 9f 80 3f c6 33 43 c0 8e c5 b6 bf
       0.008117474552693576 -0.08895199006947427
0002a0 75 04 18 8c 9a d5 a7 bf 8e 2d e3 ee b0 1d 80 bf
       -0.046551541901870865 -0.007869131365075412
0002b0 ec 86 2f 28 12 d3 c0 bf 66 5b 66 ab 0f 36 b6 3f
       -0.13144137346448959 0.08676240858617987
0002c0 ca ec 59 a1 5f d1 a5 3f 82 68 23 51 d3 22 be bf
       0.04261301846141803 -0.11771889429965834
0002d0 7f 74 58 86 78 99 be 3f 29 4c 94 77 64 2f 9c bf
       0.11952927856369121 -0.027524537848034356
0002e0 39 60 9c 69 f5 1d c6 bf 1d 96 05 dd 16 ed ad bf
       -0.17278926522044616 -0.058449472885325295
0002f0 af 7f 51 12 2c db 96 bf d8 11 cf f1 3a d1 b8 bf
       -0.022320450418532974 -0.09694260028397339
000300 28 32 13 b5 47 89 97 bf 66 75 37 7d 30 8d ab 3f
       -0.02298461954778666 0.053811564717515734
000310 8a a7 4f 72 dc 08 ac 3f 14 07 66 51 a7 e4 c0 bf
       0.05475510497474463 -0.13197795366800646
000320 c1 bb 7c 93 26 37 c4 bf 27 17 f2 c2 e0 91 c1 bf
       -0.15793306542897592 -0.13726434248763406
000330 bc bd 97 df 26 53 ac bf b8 ae c4 89 d8 46 af bf
       -0.055321898263965136 -0.061087385957163176
000340 3d f8 41 f6 45 51 a9 bf 2e 9c 37 74 59 06 97 bf
       -0.04944819098544471 -0.022485158651672936
000350 0a bc 9c 91 b1 8c b9 3f be dd 80 c5 54 60 c2 bf
       0.0998030643938678 -0.14356479305000208
000360 c9 e3 6a fa 9c 44 76 bf 68 94 ff 87 c3 9d bc bf
       -0.005436528392856973 -0.11178228445312899
000370 bd 29 eb 3d 4e 28 ab bf b1 a2 76 2e db 12 c3 3f
       -0.05304188257067064 0.14901294487687758
000380 64 41 45 f1 93 c1 b4 bf 1b 2a c7 85 1d 6e b9 bf
       -0.08107876434701705 -0.09933647647918813
000390 47 5d 85 cf 65 55 a2 bf 6a 66 31 a2 21 d3 af bf
       -0.03580778272833612 -0.062157679604479224
0003a0 81 ff d2 ad 59 b0 b6 bf b8 f0 9e 94 db d9 58 3f
       -0.08862839215998798 0.001516785081988421
0003b0 e6 76 76 3f 13 2d c3 bf ee df ef 95 6a c1 b7 bf
       -0.14981308554427314 -0.09279504929133939
0003c0 f8 db 62 43 03 05 a5 bf 26 b3 ca ee 47 14 9d bf
       -0.04105386922440596 -0.02839767832726916
0003d0 04 a1 3c 05 ec 48 c0 bf b2 6a d1 16 9a 30 b0 bf
       -0.12722540145592387 -0.06324160630303302
0003e0 97 45 9a a3 f2 1c 95 3f 5e cd 85 14 fc 24 b9 bf
       0.020618239627372494 -0.09822059155503868
0003f0 26 78 cb da 8a 2e c0 bf 89 88 a4 90 4c 3e 44 3f
       -0.1264203613599772 0.0006177781918135376
000400 59 43 1e 0a 9d e6 b1 3f 19 ed d2 96 aa 6b b4 3f
       0.06992513176943528 0.07976785833573209
000410 02 f7 16 2c 2e 8c be bf 0f f2 8b db 87 4f b2 bf
       -0.11932648254784442 -0.07152604208017287
000420 a0 c2 de 47 0e e7 bc bf 4d 65 d7 f9 82 cf b9 bf
       -0.11290063147203933 -0.10082262611048982
000430 0f 83 ca 8c c1 8c a5 3f 44 46 a8 d3 24 a6 b0 3f
       0.04208950847283265 0.06503515403189747
000440 e5 35 1b ae b6 df b5 bf cb d4 29 96 4d f7 86 3f
       -0.08544484854356645 0.011213880677340879
000450 36 2d b7 98 fa 5d 9a 3f 0b 30 be df 06 9f 77 3f
       0.025749126025215584 0.005766894198938398
000460 28 ad 79 67 10 d3 95 3f 17 c0 49 4b 30 63 aa bf
       0.02131295806468106 -0.05153799933475527
000470 46 5f e3 6e 66 02 a8 3f 1f 5d d4 92 e7 e2 be bf
       0.046893311535028334 -0.1206497891874858
000480 5d 9b 65 2c 1f 4e aa 3f 4f 6f 15 e1 3f c8 b9 bf
       0.05137727181391114 -0.10071181531151051
000490 07 ed df 4e 55 fc 6e 3f 47 b9 ec 59 e6 51 c2 bf
       0.0037824312375939226 -0.14312438383917422
0004a0 f1 c0 bc 64 e5 c0 a8 3f 13 fe 39 e1 93 df 82 3f
       0.0483466802091942 0.00921550303541977
0004b0 4e 7b 46 4c a1 07 a6 3f 54 60 80 0c bd 0d b5 bf
       0.043026962815238975 -0.08224088244640032
0004c0 b0 47 bb 9c 91 4c 18 3f 47 cf eb 48 be 4a ab bf
       9.269369837319632e-05 -0.05330462112570316
0004d0 ea 33 9e ef a9 1f a8 bf ea a3 59 dd 16 64 99 bf
       -0.047116575718156486 -0.02479587293638367
0004e0 2e 05 2e b6 88 ea bd 3f 06 40 2d 92 e2 80 8e 3f
       0.11685995528934676 0.014894266210518491
0004f0 d1 61 90 ab 67 83 b0 3f 24 13 56 ba f2 41 c3 bf
       0.06450508059095418 -0.15045007799576482
000500 8f c7 9b 19 dd 26 a2 3f 48 b6 d5 0b 2c a2 98 bf
       0.03545275628665855 -0.02405613729700054
000510 f4 4e 47 a7 f2 43 b9 bf 1a fe 31 65 8e b6 b1 bf
       -0.09869305213879526 -0.0691918370302961
000520 8a d5 6e 2e 8f 62 ba bf 61 3b 74 1e 0a 3f 7d 3f
       -0.10306639560334055 0.007140197303001057
000530 8c cf ad 9c 5b e9 b2 bf 6c f4 bb 4b 65 02 b5 bf
       -0.07387325835389741 -0.08206780528048946
000540 0c 57 ac be ef a0 a3 3f 81 ed 79 47 75 da bf bf
       0.03833722307733298 -0.12442715640093206
000550 99 08 72 33 f0 2d 96 bf 25 e4 b3 92 0b 62 72 3f
       -0.02165961565015859 0.004488034446006349
000560 23 d0 ae 1e c5 df 94 bf 38 08 44 a9 09 17 bc 3f
       -0.020384864804967272 0.1097265280004941
000570 2e ea 06 62 e5 01 77 bf 0a f2 95 72 49 5e b6 3f
       -0.005617042567275505 0.08737620399001159
000580 e3 e7 68 15 31 fa 91 bf e7 af 05 d4 20 46 b8 3f
       -0.017555968219518447 0.09482007194827667
000590 d9 4d 8b cb dd ce 81 3f c9 46 eb fe fd 72 c6 bf
       0.00869534757058592 -0.1753842825624388
0005a0 93 da 3d 87 cd cb a5 bf b2 5e 8f 85 eb 34 bc 3f
       -0.04257051731012953 0.11018249521964199
0005b0 2f ec 6f 09 12 6e 7f 3f 72 b9 44 2d 57 4c b0 bf
       0.00767333074235936 -0.0636648641127289
0005c0 62 8a 71 60 82 28 c0 bf b3 c7 66 76 46 d7 96 bf
       -0.12623624524265425 -0.022305584885266416
0005d0 39 5b e4 5f e5 25 b8 bf fc 90 a0 0f b0 af b2 3f
       -0.09432824698556609 0.07299328214191186
0005e0 fd 74 2b 52 84 b0 c0 3f 50 89 cc 61 58 2e a4 bf
       0.13038686763949406 -0.03941608613810621
0005f0 88 85 47 9e 7f 97 bb bf 92 10 61 8a 1d 13 b3 bf
       -0.1077804337906142 -0.07451042774579467
000600 35 da ab e2 22 41 b4 bf 69 38 32 63 5c 37 b2 3f
       -0.07911890062300915 0.0711572401216657
000610 93 61 7a 2a d7 f5 b4 bf 7d d1 26 92 77 a4 8b bf
       -0.08187622820913125 -0.013497289798444662
000620 8b 68 3d 59 83 01 a1 bf dc 20 35 01 d9 33 96 3f
       -0.033214668887652975 0.02168215818281359
000630 63 40 71 61 0f a3 af bf 6f be 92 ac 9f bc c5 bf
       -0.06179092468721661 -0.16981883932520556
000640 26 a7 fe de b2 7d b0 bf 3e 9e a1 ce 45 45 b5 bf
       -0.0644180101795909 -0.08308826727590543
000650 c4 48 1e 4d 73 eb 83 bf b6 ca b5 24 68 f6 90 bf
       -0.009726429739917448 -0.016564967384918382
000660 97 f6 61 f4 75 fa b9 bf da fe ad a9 91 89 a4 bf
       -0.10147797790883782 -0.040112068140840854
000670 a1 51 e2 56 58 d2 96 bf bd 24 cc 33 47 19 b4 bf
       -0.0222867777852841 -0.07851071371637182
000680 7b ee 36 66 b6 9c bd bf a8 de e9 56 dc 7c 89 bf
       -0.11567249293778474 -0.012445184137717405
000690 f3 34 f5 a1 55 10 bb bf 61 6e 06 c3 4d 4b bc 3f
       -0.10571799472855385 0.11052404414515983
0006a0 8a ba b0 35 46 b3 b3 bf 8e ad ed 0f f5 f7 7b 3f
       -0.07695425806807968 0.0068282673590646225
0006b0 ca 93 fb c0 3b c8 87 bf a8 ca 37 99 0d 84 c7 bf
       -0.011612383677354194 -0.1837174413809255
0006c0 95 bb 1c 1f c0 45 a4 bf 25 9a 3e a7 19 b3 9b bf
       -0.0395946538904958 -0.02705040057449017
0006d0 6f 24 20 d8 24 c6 ae bf a6 bc 3f 6c 05 52 ab bf
       -0.060105468161119606 -0.053360146965013386
0006e0 96 2e 2e 8e 01 27 b6 bf ae 0f d8 61 5d 2a a5 3f
       -0.08653268548203594 0.04133884257683405
0006f0 de 85 86 80 95 85 9a bf 10 57 b9 05 a1 94 a3 3f
       -0.025900207490513576 0.03824332423088894
000700 5a 72 aa 56 65 d9 b2 bf f0 a7 28 5d 22 4b 8d 3f
       -0.07362969747414053 0.014303463428479518
000710 2f 50 e7 53 a6 16 99 3f 1c 53 c6 aa 7e 7f c7 bf
       0.02450046431643232 -0.18357833231552767
000720 16 47 eb 77 37 a2 c1 bf e0 dd 8e 67 e2 78 84 bf
       -0.1377629600088361 -0.009996193681089005
000730 1b de 6c cb c3 b4 a9 bf 3f f6 a0 bd c2 cc c4 bf
       -0.050207251150308184 -0.16249880084244414
000740 f3 7d da a7 ed 26 c9 bf 4f 51 bd 8c 36 76 a3 bf
       -0.19650049873324313 -0.038011269264333174
000750 3d fe 64 88 f9 aa aa bf f1 40 07 ca bf 2a c4 bf
       -0.05208568372699716 -0.1575546013323286
000760 ca 30 fb 47 5d 98 b8 3f db 11 1f 8d da ff bd bf
       0.09607489592889631 -0.11718526788087706
000770 75 34 7f 78 98 37 bb bf 80 50 3b 2a 63 b8 b9 bf
       -0.10631707135981279 -0.10046977788016598
000780 6c d1 a2 d9 41 57 7f 3f e6 d7 68 10 2b c6 bd bf
       0.007651574351417483 -0.11630505705474511
000790 c2 e5 9a b0 a1 49 ae bf 0b 08 66 54 3f 3a 5b bf
       -0.059155514534221534 -0.0016618364767002649
0007a0 ab b2 17 9f f3 c7 c0 bf 11 e4 91 7c 9c 67 c6 bf
       -0.1311020399874868 -0.17503696520341852
0007b0 77 06 2d ef 70 60 a6 bf ea 20 28 5d 1e dc b7 bf
       -0.04370453757884445 -0.09320249342283984
0007c0 5b 82 a1 22 28 27 93 bf 9e 43 7c 31 0d 26 ae bf
       -0.01870405875559054 -0.05888406018323809
0007d0 b8 6c 73 51 fc 47 a7 bf c1 20 43 88 0f 45 b1 bf
       -0.045471081679090586 -0.06746003224100418
0007e0 c1 f7 92 28 af 52 7d bf 29 15 d6 c0 83 5a cc bf
       -0.007158931935178304 -0.2215122882445624
0007f0 18 a5 f9 f1 bb 16 a8 bf 65 02 68 a3 c6 d2 b0 bf
       -0.047048447883591915 -0.0657161854687814

linear_layers.2.weight f8 [64, 129]
000000 11 ef 30 8a 32 d5 bc 3f bb 63 9e be f3 6e b2 3f
       0.11262813447768517 0.07200549510743219
000010 fd 2e cc 37 c0 ac b1 bf b9 84 0b 31 8e 71 77 3f
       -0.06904221880193613 0.005723529277674882
000020 10 ff 14 ff 71 fa ca bf 0d 45 38 4f 32 e8 a6 bf
       -0.21076798396278962 -0.04474026886976832
000030 b3 94 38 30 2b 98 87 3f f2 cd f7 3c 3a bf b3 3f
       0.011520707520569528 0.07713664997554995
000040 e2 21 c2 c1 60 e0 b2 bf 89 39 b4 fe e6 5f 85 bf
       -0.07373623590877501 -0.010436825416516598
000050 dd 30 10 cc 69 28 99 bf 1b 9d 34 bb 4d 18 b3 3f
       -0.02456822689059456 0.07458959408232994
000060 89 ea f2 53 c8 cd be bf cc 8c fd 86 b3 41 73 bf
       -0.12032749223264196 -0.00470132949689912
000070 aa 40 58 bc 18 e5 aa bf 9c a3 40 70 97 7e 60 bf
       -0.05252911852960669 -0.002013488558095534
000080 c6 83 79 38 31 1a a6 3f 52 2d 3b 84 88 a1 bc bf
       0.043168581146126025 -0.11183980205821811
000090 06 58 f9 53 7c 99 c8 bf 6c 2d 9e ae 06 e8 a7 bf
       -0.19218401050846995 -0.04669209367338109
0000a0 33 9d d1 f6 96 91 a0 bf 8e c5 53 c4 16 96 85 3f
       -0.03236076128888001 0.010540178171569516
0000b0 2c c1 28 6b 82 e2 ac bf 0e 05 3a 33 14 72 aa 3f
       -0.05641562994094537 0.05165160298657599
0000c0 ac d6 6f 9c dd 6b b1 bf 40 05 5f 51 c9 b8 c4 bf
       -0.06805214947947985 -0.16188923333360528
0000d0 de e4 52 e4 50 a8 86 3f bd fc a8 31 38 fa 74 bf
       0.011063224761857556 -0.005121440418007936
0000e0 36 20 7b fb dc 91 b0 bf 8b 20 5d 7d 74 da a3 3f
       -0.06472569598838693 0.03877605467147401
0000f0 83 4e 46 4a 78 63 b2 bf 30 68 d6 dc 25 7c be bf
       -0.07183028996797174 -0.11908184663335031
000100 9b 29 63 41 fc 20 b8 bf ec 96 80 8c ae 44 b0 bf
       -0.09425331684466302 -0.06354800157768253
000110 ea 0b 59 30 4d d6 b3 3f 53 01 cf c5 c3 86 bd bf
       0.07748873167388096 -0.11533759669601311
000120 53 71 33 9f 83 f1 91 bf 77 41 39 84 54 1a a0 3f
       -0.017522865859846814 0.031450883045752435
000130 f7 c6 9b 3a e2 f1 9b 3f fe 2a 72 55 0b 79 81 3f
       0.027289900614909404 0.00853165487776186
000140 f9 32 27 72 31 fe 9a 3f 50 2e 7f 29 ae 6a b7 bf
       0.02636029490695344 -0.09147156251054267
000150 f6 f3 16 6f e3 52 a7 3f e3 21 da 05 aa 5f a4 3f
       0.04555426341128303 0.039792359556546385
000160 cd 6a c1 4e 39 99 ad bf 3d 73 82 d4 f2 6c a7 bf
       -0.057809630264008406 -0.04575308651076291
000170 fb 05 f3 ac ea e8 b6 bf 49 26 b5 da f4 db 95 bf
       -0.08949152681727661 -0.021346879814961892
000180 86 2c 22 8a d8 8f b6 3f 64 8a 5e fe 78 43 a0 bf
       0.08813241360091881 -0.0317647753247641
000190 e3 7f b9 be 46 0d c1 3f 52 e1 31 1b aa 49 9d bf
       0.13321766197895987 -0.02860132018074186
0001a0 f3 82 48 74 93 8f 7e bf bf 54 1d d0 4b 07 b1 bf
       -0.007461143487063937 -0.06651758032724596
0001b0 35 c5 50 d3 89 d0 ad 3f 79 02 45 c7 7d 4c 7f bf
       0.05823164658103012 -0.007641307184088058
0001c0 06 76 f6 2d f6 6d b4 3f be 9c 81 2c 93 32 b2 bf
       0.07980288145196121 -0.07108421169833698
0001d0 e8 ae 28 3a 0d 5f b6 bf 1c 94 fd 80 d9 cc 98 3f
       -0.08738787336249809 0.02421893930240425
0001e0 3b bd 97 7c 66 76 8f bf d7 5f 4a c6 fb 54 b2 bf
       -0.015362549474018486 -0.07160924521519917
0001f0 ee ee 07 fc 7f 0c a5 3f 6e cc 2e 3e de b4 9a 3f
       0.041110991969586994 0.02608058218511327
000200 4c 8e c6 3a 47 6a 92 3f 80 e2 aa d6 e3 6b 87 bf
       0.01798354431379172 -0.011436252583153506
000210 92 fa 3d b2 83 31 af 3f e9 14 33 48 b7 cf 95 bf
       0.060924640186376014 -0.021300185949049064
000220 ff c8 c9 09 b7 63 ad 3f b2 66 56 5c 24 87 78 3f
       0.05740139002308985 0.005988256486853126
000230 7d 9b b4 7b d0 0c b0 3f 26 b7 51 5a db db a4 bf
       0.0626955320372939 -0.04073987462548549
000240 ee 15 ed c6 65 5a b1 bf 21 2c 5d 81 10 ba bc bf
       -0.06778560740084291 -0.11221411855983422
000250 2f 90 65 bf 02 fd 8a bf 9f a5 03 cb 8b 0e a0 3f
       -0.013177892175640775 0.031360977680218165
000260 18 fc 2a 11 83 69 a1 bf 1e 8b 34 bd 48 ee a6 bf
       -0.034008117528621706 -0.04478671369203922
000270 af fc 63 a0 12 62 b3 bf 96 31 bf 57 62 6f aa bf
       -0.07571522155557163 -0.05163104363564057
000280 28 88 b6 c4 51 e9 71 3f a1 11 e6 50 b5 5a a2 bf
       0.004372901351787951 -0.035848299146013625
000290 eb d8 44 6a 26 59 ae 3f 19 22 20 da a5 f7 90 bf
       0.05927391097286424 -0.01656970161278268
0002a0 05 45 90 44 2e 0e 90 bf 1c 4e bd a4 18 45 9c 3f
       -0.01567909520605772 0.027607331328296167
0002b0 e5 13 56 4e ba 23 b2 bf 76 b4 77 97 b7 53 a7 3f
       -0.07085766232019315 0.04556058620423979
0002c0 fc 6c 8e 5f 16 df af 3f f0 27 24 0e ec 25 aa 3f
       0.06224889675578457 0.0510705725919961
0002d0 e2 dd df 04 9d 35 9a bf cf c0 c6 c4 da 6d c0 3f
       -0.025595143721117604 0.12835249527188927
0002e0 2c 26 1a ce e1 14 ba bf e7 39 f5 a8 69 f3 a3 3f
       -0.10188113481321953 0.03896646678423448
0002f0 2b b5 34 87 5f 03 b7 3f 08 f5 d9 b7 4a 18 b8 3f
       0.08989522028851542 0.09412066448745204
000300 3b 3f 47 38 93 ad a4 bf 7d 90 d1 e7 eb 7a 9a bf
       -0.040386772746954645 -0.025859533332905905
000310 f3 75 03 8a 84 c5 94 3f bb 62 d6 c0 a3 59 b5 bf
       0.0202847203480498 -0.0833990426821271
000320 3d 61 a9 03 a7 f6 a3 bf cb 84 51 28 4b 28 c4 bf
       -0.03899118346879724 -0.1574796625964495
000330 b7 74 d7 58 da 21 b2 bf 8b 97 7d c8 e8 e2 b8 bf
       -0.07082905453667619 -0.09721236128606685
000340 3c 1e c2 66 3f 4d a4 3f c5 be d5 5b 8d ef 9f 3f
       0.039651852887854194 0.03118725655570988
000350 70 68 b0 c2 21 6b b2 bf c3 d9 77 9c f2 d4 bc 3f
       -0.07194720271255206 0.11262432403586957
000360 5b b5 f8 5e 3f 52 b2 bf f4 87 45 78 27 08 9d bf
       -0.07156749790802534 -0.028351418224140404
000370 43 34 ac d0 00 20 b1 3f 46 9d 6f cc f8 ec bc bf
       0.06689457983539264 -0.11299090376961826
000380 32 67 b0 bd c6 e5 c7 bf ef 15 9a d5 26 6b c1 bf
       -0.18669971716081474 -0.13608251027851234
000390 82 4c 8a cb e4 3a 9e 3f c2 c1 65 ea b1 9f c7 bf
       0.029521536753759132 -0.18456100411596138
0003a0 bb e4 d7 9d b2 97 b7 bf 55 f3 f3 f8 9c aa b9 bf
       -0.09215847352597255 -0.10025960042908129
0003b0 ab 35 3e e2 da c8 a4 bf 77 1b fd 9e bb ed a3 bf
       -0.04059490215068292 -0.038923133046913465
0003c0 5a d3 ed 2d 50 53 d3 bf 97 11 ed 0a 25 7f c3 bf
       -0.30196003422979845 -0.15231764825342672
0003d0 6d 0c 64 6a 09 55 b1 bf 96 77 76 6e 64 e6 b4 bf
       -0.06770380828315732 -0.08164050766796857
0003e0 63 ab 4b 36 78 50 a4 3f 2f 7b 40 00 f5 09 b5 3f
       0.0396764341620244 0.08218318229817777
0003f0 e7 17 63 88 de 54 c1 bf 1f e2 fb ea 21 f0 c5 bf
       -0.13540250453496513 -0.17139076207946943
000400 a9 58 89 6c 82 db a2 bf 32 b1 39 25 bf 77 82 3f
       -0.03683097433956679 0.009017461131599267
000410 64 47 57 a5 fd 5e b7 3f 72 4a 27 6a 3d df 5b bf
       0.09129319464343905 -0.0017011737587508094
000420 8a 0a 69 5f f5 e9 bd 3f 1e 91 6c 37 b7 97 c2 bf
       0.116851173203978 -0.14525499540571557
000430 ce d3 24 9b e4 1b 9e bf e6 e8 10 96 42 85 b1 3f
       -0.029403278321485087 0.06843963779184356
000440 a8 0a 2d 13 ff 29 a0 bf d4 05 6d 61 41 36 7e bf
       -0.03157040700036379 -0.0073759607246883414
000450 ca e3 fd 6b 9e e9 c4 3f 05 b3 e1 7e 6f 77 ce bf
       0.16337948105845462 -0.23801988311188196
000460 e1 b5 4f 01 f1 41 77 bf 0e 3f 2a bf cd 23 b5 3f
       -0.005678121019611266 0.08257757107844219
000470 20 b0 55 5e 56 93 aa bf 30 d3 cd 63 ec c4 8d bf
       -0.05190534497782573 -0.014535757823730927
000480 04 12 28 62 77 78 b2 bf 49 0f f1 af fc 62 a5 bf
       -0.07215067049407514 -0.04177083633160678
000490 d8 ed d4 f9 61 50 ca bf e0 04 61 e5 1d 93 c1 3f
       -0.2055780858880627 0.13730214786668338
0004a0 71 c2 87 e8 de 44 d1 bf 73 d4 f9 67 cf 36 b4 bf
       -0.2698285361102882 -0.07896133697961875
0004b0 50 21 8c 55 0d db be 3f 73 63 00 bf 18 7f bc 3f
       0.1205299695831219 0.11131434119341836
0004c0 63 af 89 54 e1 33 b2 bf 71 ec 6e 3b 26 54 b9 bf
       -0.0711041289702599 -0.09894026709564387
0004d0 6e f5 a5 43 40 95 93 3f 18 cb 9c 36 cd 49 a1 bf
       0.019124035004542454 -0.03376618663459946
0004e0 fb 9f db ec a2 10 8e 3f 76 37 3f 42 19 87 b9 3f
       0.014680168965654153 0.09971769206387457
0004f0 ed 08 1c f8 c2 0c aa 3f d4 d2 bf 6e 4d 45 b8 3f
       0.05087861326866681 0.09480747178879351
000500 03 1e 53 e4 aa 73 b0 bf d3 fe b8 8e ee fc a7 3f
       -0.06426494669278075 0.04685159198970514
000510 d0 39 39 0d 8f 37 d8 3f a7 90 9f f5 4e 76 d4 bf
       0.37839103976594135 -0.31972097384119497
000520 ed ea 5b 58 17 c2 b1 3f 3a 8c 84 6c c7 f0 74 bf
       0.06936784655765012 -0.005112437247848206
000530 62 46 31 2b 92 ad b1 bf a7 76 a0 a2 cd 1a 71 3f
       -0.06905473284248267 0.004175952208269307
000540 21 f6 70 29 cc 7f 91 bf d6 68 8a b5 f4 91 b9 bf
       -0.017089071301816475 -0.09988336021561692
000550 32 81 57 3f 3b fb 7f 3f 3e 6c d8 06 2a 3f 8f bf
       0.007807952342290302 -0.015257194837479667
000560 d2 09 50 86 21 ea a9 bf 88 2b 4d d8 fa 82 c7 3f
       -0.05061440243300165 0.18368468820184725
000570 20 c8 d9 4a d7 58 a5 bf 97 6d 08 a8 9e 02 a4 3f
       -0.04169342793183284 0.03908248711760647
000580 ee 9b 60 54 3d 65 ad 3f 02 0d 4e 76 ad 0d 9d 3f
       0.057413021612141665 0.02837248835159035
000590 52 9a f8 d0 8e 31 a8 bf f2 46 b1 e2 35 92 93 3f
       -0.047253096589248714 0.019112436257564043
0005a0 ce 99 da 2d dd 9b 97 bf 28 f1 a4 9f 68 16 92 bf
       -0.023055511401844524 -0.017663607353129468
0005b0 8c dc 44 dc 79 c7 9e bf ed da 2c a9 46 cd a7 bf
       -0.030057815617706526 -0.04648800673606055
0005c0 d7 4a 88 4a 8f 83 c2 bf 11 7e 5a 71 28 3c b2 3f
       -0.14463988436963035 0.07123043792170615
0005d0 eb 08 53 17 58 20 93 3f c7 12 d6 c6 df 76 c6 bf
       0.018678070472341195 -0.17550275048065186
0005e0 84 4b 58 61 c1 50 af 3f 55 61 11 41 2f 4f 9a 3f
       0.06116298974315895 0.025692690226010246
0005f0 a9 ba ba a9 d8 b4 c0 bf e4 53 9a 3c 75 78 b1 3f
       -0.13051899230545885 0.06824429254113756
000600 c4 41 9e ad 44 8e a6 bf 5d 5a 65 98 84 c2 96 bf
       -0.044054170793177444 -0.022226402093418297
000610 04 19 28 33 8c c6 9e bf f0 f7 29 eb 03 4c ad bf
       -0.03005427419886876 -0.05722057576802786
000620 c3 87 fe b2 7d 61 9a 3f ae 9c ac 0a 16 7b b5 3f
       0.025762523698751993 0.08390939484216872
000630 60 f4 c7 99 00 5c a5 3f 2b 73 df db 39 b5 73 bf
       0.04171754719934806 -0.004811502467387633
000640 7d a7 74 b9 5b e6 b2 bf 97 5a de 6a 48 b8 c7 bf
       -0.07382748868681506 -0.18531136720840344
000650 09 80 36 1f 9b 84 a0 bf 14 be 2b cf fb 8d c9 bf
       -0.03226170307175386 -0.19964549651875585
000660 b1 26 0a ec 24 eb b7 3f 6c 71 2c eb 81 fa a8 3f
       0.09343176615416372 0.0487862205102115
000670 80 a0 e3 7d 88 1d c3 bf 9b 4f 56 76 20 1a b8 bf
       -0.14933878085071584 -0.09414866341677312
000680 a1 94 61 b7 c2 0e 9f bf d6 ea 9f b4 77 6b cc bf
       -0.03032974476117956 -0.22202965087475118
000690 ab ab fb 4b 26 59 64 3f 28 1e 49 10 13 fc b0 3f
       0.002483916090445478 0.06634635112379128
0006a0 85 d1 f2 52 7e 89 87 3f 46 e1 1b 9a 33 ba b2 bf
       0.011492716699969882 -0.07315371048378436
0006b0 99 f4 3d 34 7d 54 94 bf 31 44 58 09 1a 7e c2 3f
       -0.01985355025634714 0.1444733186367855
0006c0 de c4 37 87 81 83 a4 3f 60 fb 0f 97 5a 6a 71 3f
       0.04006581092461102 0.004251817576913591
0006d0 fd c2 81 a5 81 9b ae bf f6 41 5a 88 bc 31 85 bf
       -0.05978016991946864 -0.010348771010542084
0006e0 06 e3 7d f4 a7 f8 c9 bf 27 fb c3 e7 2e 92 c1 bf
       -0.20290088117669586 -0.13727365795781418
0006f0 9f 34 94 b9 52 44 9a bf 42 98 7c e6 3b c4 a7 3f
       -0.025651257111395705 0.04641902149732903
000700 78 6a 06 ad a2 37 b5 bf 25 8e 5f a4 41 7d a6 3f
       -0.08288017963642769 0.04392438060292773
000710 26 a2 2e af 84 e9 b0 bf 90 09 06 f8 66 12 c3 bf
       -0.06606320645244831 -0.14899909124876531
000720 ac d1 1c ab 66 d7 cb bf 98 9f dc 53 3e 01 c4 bf
       -0.21751101832491082 -0.15628794760527565
000730 e4 02 d5 b5 c1 07 cd 3f 1d 2c 67 7a 9b 88 b2 3f
       0.22679921511191659 0.07239696253161339
000740 59 dc 60 b5 d4 30 77 bf 86 d0 d0 2c cf d0 af 3f
       -0.0056618031431333255 0.062139963360466274
000750 b7 ff 83 90 ad 3d cd 3f 3a 80 3a 51 8b 7f a3 3f
       0.22844476276804723 0.03808246008452483
000760 fe b6 f7 20 de 5b b2 3f 9e ea 60 e6 85 43 78 3f
       0.07171428971170354 0.00592376999525848
000770 d7 ef e6 f2 5c c7 b8 3f e5 35 35 ed 82 88 b9 bf
       0.09679203920580846 -0.09973924914557804
000780 dd 2b f4 a6 df 8a bb 3f b3 98 3d e1 52 36 c7 bf
       0.1075877935983693 -0.18134532926632616
000790 ea cc 3b 22 54 e1 cb bf 7f 04 fb c9 04 9c 75 3f
       -0.2178139845997074 0.005275744158724226
0007a0 ff 6a bf 17 94 73 c0 3f 5b 8d f7 d2 51 4e bb bf
       0.12852717551762535 -0.10666381264268436
0007b0 89 f6 a8 e5 22 3d cb bf c5 e4 cb 2a bd e0 8b 3f
       -0.21280323232524648 0.01361224924902372
0007c0 ba b2 fe 63 63 a8 93 3f df 89 d6 d9 61 6c c4 bf
       0.019197037676053276 -0.15955756317732914
0007d0 7c 7b 55 4f 20 5a ad 3f 58 c1 19 a4 ae 12 a2 bf
       0.05732823341781221 -0.03529878380948287
0007e0 ef a2 ae 6d 5a 78 70 bf a9 d8 67 6e b7 cc 8e 3f
       -0.004021027790181305 0.015038903290570298
0007f0 13 8b 83 38 83 b8 a3 bf 08 b2 2d 3c 1e be 77 bf
       -0.03851709427705976 -0.00579654512953854
