Data/Breast Cancer Winsconsin (Diagnostic)/results/models/model_bcw_best/bcw_traced.pt (torch, 475285 bytes, 5 tensors)

weight f8 [256, 31]
-0.08208863434957857 -0.43214019707887513 0.1662375281665656 0.16268719907918075 0.08300580204231912 0.12145764020076187 -0.06979102987898816 -0.1806934134786272
-0.050971831112527365 0.09461559956519824 -0.10016225979708565 -0.33166393285502843 0.15411558901677627 -0.04328570699469332 -0.29266993775530015 0.1608844008550479
-0.011569390461852938 -0.11749952107655862 -0.1312660800445739 0.17153530274858064 0.041351647134959604 -0.24261664499504923 -0.02760093117660195 0.26919682933622335
-0.27460933938306364 -0.10104254991319796 -0.32193198861914557 -0.1909982661400579 -0.26390413626014225 -0.20414283984174145 -0.17867441256776814 0.14491555170363668
-0.09658769545027882 -0.10532337081123645 0.1935080576975461 0.08396252391334551 0.06133453155210976 -0.018386001455430158 -0.00450406793160772 0.05853809216483299
0.00990716650906205 0.25062444150503616 -0.2125633115599404 0.1624020350103722 0.3098995856284562 -0.23235281111716008 -0.10910450261875201 -0.085343531827999
0.010558237507978624 -0.38144653697284336 -0.12220500099618858 0.32899150850207215 0.08613671751799541 0.3871895649059903 0.30838220530737886 0.30969419361929246
0.0187924366312621 0.2998360319176482 0.04834630272278068 -0.17154470891418497 0.2962421865306403 0.11870732821989267 0.2578662642209598 -0.10405611409699202
0.06407012913554629 0.030290910834372978 0.22062267224553114 -0.1813926782760511 -0.17682936093554988 -0.09895842461312017 0.08099829146585552 -0.20130677681153997
-0.21016833735633253 0.07659712267788944 -0.16613644224433852 -0.030513113888649943 0.12265450391717925 0.04930379454336825 -0.11034940117485989 -0.0223432646991363
-0.14059659641618644 -0.19903627098832277 0.018911076884033432 -0.40156026554230617 -0.09948461362712206 -0.01990440246392413 0.22668669012408346 -0.15438244029526627
-0.21420297201221664 0.12124200453253212 -0.1537368532631948 -0.323048416810728 -0.24057580560556474 0.25925738271488485 0.15139865518437332 -0.05914482665916363
0.0673051381120172 -0.06361939051688575 0.07503393754001401 0.23807406588937158 -0.044266965109757424 0.028075820604085828 -0.1796647152858392 0.19564373197343385
0.013109187174177722 0.06327148509985543 0.265065165471377 0.09561691245825103 0.15666745699694193 0.144322165846485 0.09674389084039406 -0.1932061948673261
-0.02240300453295096 -0.005401458080515043 0.12850196602647546 -0.05511008286841808 0.18315961007096293 0.14299250827853055 -0.025534486488839367 0.000491197852121875
-0.0001430515545264942 -0.02896218753304203 -0.10528395393190153 -0.29006235415943393 -0.09037603224146874 -0.03765455965230508 0.038963231757173984 0.06375787961296207
0.0943745531149628 0.1028208384365856 0.03605260287134957 0.16063105148871604 0.20038919281099776 -0.16825132140179544 0.021041953221407974 0.24406094941881853
0.004084995303012491 0.23671880076546345 -0.011245395149690621 -0.18184453008909673 -0.15989737236891693 -0.06769719076112603 -0.013174138852718183 0.09542849167142074
-0.06209867363680734 0.2717769520903931 0.218193253324061 0.2544169061030365 0.2458186576122769 -0.039983063074482406 0.10940779276135737 0.1944100973117239
0.2524698073886255 -0.11297533537076998 -0.13039018484850926 -0.1288355988150073 -0.2311131671272702 -0.08621716285602483 0.14992571683352157 -0.045910536285174934
0.1185496020975017 0.21456995775168167 0.12626475951628427 0.2163513567129254 -0.05846344963293869 -0.11048115704516477 0.08094428613060059 -0.026535584103156772
0.28063517850903374 0.05071192742881177 0.006431160639659983 -0.22168900037282593 -0.02324655114428369 0.0618900379409705 0.003873267305930418 0.21520011469426095
0.32986827422990916 0.2048129249445481 0.19338980142139947 0.08626484424092809 -0.09446874821191942 -0.018334375895826843 0.23498400254179894 0.33927162178977655
0.10534926276501502 -0.18623823109278992 0.1133080924149339 -0.2140680140758859 -0.016809236507871504 0.09262446842062583 0.19304995090339477 0.22578525321645956
-0.29337607770656277 -0.17549199949441138 0.14518807854086876 -0.1521591727394564 -0.22312052091349974 -0.16847892882344484 -0.006199614227718312 -0.2473610549329281
0.09849563011477407 0.002329031556409991 -0.22990606830000043 -9.011532213584235e-05 -0.09108325076837988 0.004038264441424392 -0.11832008584426353 -0.34525101924385543
-0.09020094573153598 0.07908998839668925 -0.0585241653917161 -0.07628097565564511 -0.3502861944476257 0.07157373204627974 -0.08644567154200264 -0.08339271758250737
-0.08995833765211583 -0.015651550296592882 -0.025387542917604755 -0.2429783490430535 -0.003261364441937224 -0.046564109367309654 -0.015878019762354055 0.035823036602853874
-0.03917725181036619 0.08748063330566783 -0.06990981167860832 0.039978533267486176 0.025975513527485006 0.1858896150323464 0.11274594888493635 0.0747597954848797
-0.027968551576137365 -0.08478947686613839 0.2781907936432754 -0.07027479089556861 0.2290193464881438 -0.2238024495220126 -0.004614343935990328 0.0793431712561201
0.13005548904754255 0.034864622762572975 -0.01576354563964956 -0.05974304188812786 0.09264754124217356 -0.19600128604879338 0.062167621442322865 -0.38990944751676015
-0.04847289090434179 0.044495039133295 -0.08411199260882626 0.16449485811456424 -0.24942783432429874 -0.07954290393190863 -0.15121546929270835 -0.18117846264239035
00000000: 2f9d e7bf c203 b5bf ab68 6f5b 2fa8 dbbf
00000010: 89f0 6b75 4547 c53f 21ef c223 efd2 c43f
00000020: 1967 2645 de3f b53f aff8 8210 d917 bf3f
00000030: e468 e22e d3dd b1bf c324 bf36 f620 c7bf
00000040: 4384 4ad7 fa18 aabf eeee d259 ba38 b83f
00000050: 5c37 1fde 3ba4 b9bf 6d01 385c fb39 d5bf
00000060: 11bf 5043 0fba c33f 2a57 da4f 8b29 a6bf
00000070: 909b cbb0 1abb d2bf 3af3 0d2c dc97 c43f
00000080: 55b4 584d b1b1 87bf 92c9 51d8 7214 bebf
00000090: c6ca 6eb0 53cd c0bf 0812 b569 def4 c53f
000000a0: 0a28 2908 0b2c a53f 7d07 dced 0f0e cfbf
000000b0: d079 f822 6b43 9cbf fae6 8b56 853a d13f
000000c0: 1ee4 f40c 3393 d1bf b1b2 61af ecdd b9bf
000000d0: 4bf3 a9a0 889a d4bf 3d06 5595 a172 c8bf
000000e0: 550d a12c cee3 d0bf ad9a 6a42 5a21 cabf
000000f0: 5727 4e9b cdde c6bf 80dc 9fc1 978c c23f
00000100: 2aab 27a1 f8b9 b8bf 9184 23f1 78f6 babf
00000110: 8866 a93d dfc4 c83f d324 4c66 917e b53f
00000120: 2e7a 435e 3d67 af3f 2a35 d2ab c7d3 92bf
00000130: ee87 7187 db72 72bf 331d d66e b4f8 ad3f
00000140: a736 3861 354a 843f cee9 f518 3b0a d03f
00000150: 125d bd4b 4635 cbbf d431 9602 97c9 c43f
00000160: ea5c 5412 65d5 d33f 0be1 70a6 bcbd cdbf
00000170: ee08 98ce 45ee bbbf 265b 20de 12d9 b5bf
00000180: ddbe 66a6 8e9f 853f de21 5ebc 9e69 d8bf
00000190: e0af afb2 d348 bfbf 1666 6b66 320e d53f
000001a0: 1d7e b950 0e0d b63f aaea a7bd b6c7 d83f
000001b0: cdaa 9db7 88bc d33f efc7 5698 07d2 d33f
000001c0: ea43 f912 533e 933f e2ea cf77 8330 d33f
000001d0: 095a 27ba d8c0 a83f 3d4c 4b51 2df5 c5bf
000001e0: 720e b6c9 a1f5 d23f 7dfe 7f7c 9a63 be3f
000001f0: a286 e480 e180 d03f 31d4 fee6 6ba3 babf
00000200: 9da4 4965 e666 b03f c446 999d 9404 9f3f
00000210: c97c 061d 5d3d cc3f 80f9 7612 e037 c7bf
00000220: 0b6b 1831 58a2 c6bf 3585 60dd 5655 b9bf
00000230: 9cb2 e0d4 4dbc b43f b832 6fa3 6bc4 c9bf
00000240: 7fd1 cccb cbe6 cabf 3186 de78 de9b b33f
00000250: 377e 0e7d f543 c5bf 59e5 0069 d43e 9fbf
00000260: 1809 081b 4966 bf3f 18d3 43d2 583e a93f
00000270: 86e0 2dbd db3f bcbf a6b5 ac1c 27e1 96bf
00000280: caa9 c4bb 11ff c1bf fc6a 4e41 057a c9bf
00000290: f10a ffe2 6c5d 933f 5e25 f8d3 29b3 d9bf
000002a0: cbd2 fbd9 d277 b9bf 4612 84d6 d161 94bf
000002b0: 0bbe 42c8 1104 cd3f 288a 12c6 cdc2 c3bf
000002c0: fdcd bfc3 006b cbbf ba63 5e4c b709 bf3f
000002d0: a649 7a32 a6ad c3bf 7d81 4e44 d3ac d4bf
000002e0: d272 a420 30cb cebf 7672 0047 ac97 d03f
000002f0: 0f6f 56f8 0761 c33f bd17 7510 3b48 aebf
00000300: 873b 0bd7 e83a b13f 8c56 a941 5c49 b0bf
00000310: 4310 d393 6c35 b33f 06a3 8203 3679 ce3f
00000320: c910 e1de 28aa a6bf 752e 366d e8bf 9c3f
00000330: 1dec 32de 40ff c6bf 0f24 3f93 da0a c93f
00000340: 709a 8551 fdd8 8a3f 6df2 455f 8f32 b03f
00000350: 8189 40e2 d3f6 d03f 0be3 f397 597a b83f
00000360: f71d 13e2 ad0d c43f 6603 3313 2679 c23f
00000370: 2a4e 3f27 35c4 b83f 8a7d 2b08 fbba c8bf
00000380: 5e64 342f d0f0 96bf e788 e7dc d61f 76bf
00000390: d817 c79e c072 c03f 9a0c 3387 6337 acbf
000003a0: 90f8 992b c671 c73f d68c 5019 944d c23f
000003b0: 7c12 8f61 b625 9abf 1d2a f95a 7718 403f
000003c0: 4389 257f 03c0 22bf a1a2 1981 43a8 9dbf
000003d0: c35b eea2 e3f3 babf 2e98 3ab1 6190 d2bf
000003e0: e9c0 d136 e222 b7bf 29fd 805c 7547 a3bf
000003f0: e17c 491c fdf2 a33f 4fcb ccb7 6f52 b03f
00000400: b910 3443 ee28 b83f 0eb4 6e6a 7752 ba3f
00000410: 4d47 899c 7c75 a23f 44dd 6eec 8e8f c43f
00000420: 602b cc62 5aa6 c93f bcf9 7661 4289 c5bf
00000430: 173a b893 058c 953f 4505 fea1 633d cf3f
00000440: 4829 b193 6dbb 703f 9f68 d139 cd4c ce3f
00000450: 552a 3063 d307 87bf 5836 d87a ae46 c7bf
00000460: fe39 8560 8477 c4bf c9a0 5964 9a54 b1bf
00000470: 64fe 33fc 0afb 8abf 2fda d56a 006e b83f
00000480: f345 cab8 65cb afbf 1e3a 4228 cb64 d13f
00000490: 2b0a 9eab c1ed cb3f 57c5 d0d8 5d48 d03f
000004a0: 2e7e 985b fc76 cf3f 40fd 98f8 a878 a4bf
000004b0: 586b d62b 2602 bc3f eda6 fb18 6ee2 c83f
000004c0: 4b8a 7d1f 7728 d03f 080e ac9a f3eb bcbf
000004d0: 2366 d225 a0b0 c0bf cd4a bc55 af7d c0bf
000004e0: 2a49 3ec3 1d95 cdbf 6d0e d2f6 5312 b6bf
000004f0: f28d 5011 c430 c33f aff6 c5f7 9581 a7bf
00000500: d46b f647 4459 be3f 85b0 9f43 0777 cb3f
00000510: 593f 6192 7129 c03f c17c c3b8 66b1 cb3f
00000520: 0ea0 5ed8 ebee adbf 154e 553c 7e48 bcbf
00000530: 7a9f bac5 c3b8 b43f d3fe 9ce7 242c 9bbf
00000540: 446b 7340 edf5 d13f 8ad2 a5eb e9f6 a93f
00000550: 806c f689 8f57 7a3f e5fa 3d1f 4e60 ccbf
00000560: 4d51 a3a3 f1cd 97bf 9330 cf11 0db0 af3f
00000570: 1c5d 0b8d d4ba 6f3f cd88 5a67 ad8b cb3f
00000580: fe8b 73d2 8f1c d53f 02ac 3757 4f37 ca3f
00000590: 670f 3e3c ffc0 c83f 9a2f cfec 7315 b63f
000005a0: d872 1098 1a2f b8bf 18e9 7523 3fc6 92bf
000005b0: cb06 00af f413 ce3f f611 0352 a0b6 d53f
000005c0: 62c3 3b56 2bf8 ba3f 687a e783 a7d6 c7bf
000005d0: 6156 4b57 c201 bd3f 2fad c9a7 9466 cbbf
000005e0: 29c4 49c4 7036 91bf 8c0c adb6 3cb6 b73f
000005f0: 2aef cf5c dcb5 c83f 43ec 3dfb 87e6 cc3f
00000600: 976b cb74 acc6 d2bf f3e1 4497 8576 c6bf
00000610: f711 8de0 8595 c23f 96e7 59a7 f379 c3bf
00000620: 63ea 3196 368f ccbf b44f aeb0 b790 c5bf
00000630: 04a1 b145 c464 79bf 9ed8 9eec 86a9 cfbf
00000640: 6b51 2476 0237 b93f 535c b74b 5514 633f
00000650: 8e0e 40e2 8f6d cdbf 84d6 1d72 899f 17bf
00000660: 9178 435f 3b51 b7bf 6a16 565b 6d8a 703f
00000670: e538 29a3 394a bebf 9d08 24bb 9718 d6bf
00000680: 3c37 fcbf 6817 b7bf 29d4 9ad1 3d3f b43f
00000690: bd27 c420 e1f6 adbf d37a bf67 2687 b3bf
000006a0: 7124 59c9 166b d6bf 5335 64f6 a752 b23f
000006b0: 3656 27b4 4d21 b6bf 93ce bda2 3959 b5bf
000006c0: a2e6 3776 8207 b7bf 924c 9fc2 f506 90bf
000006d0: 5046 3a2a 31ff 99bf 9053 631f ea19 cfbf
000006e0: bc67 cab3 93b7 6abf d9c7 cc3d 40d7 a7bf
000006f0: c60f 6bde 5342 90bf 8b2a 4ea5 6557 a23f
00000700: a89c 8b6e 0a0f a4bf 4aca 147b 2165 b63f
00000710: a042 d402 9ce5 b1bf b70f daf9 1078 a43f
00000720: b0b0 6334 5399 9a3f 426f 9d1c 3bcb c73f
00000730: 45a0 3723 ebdc bc3f ebc7 a93c 7523 b33f
00000740: 2f10 58b9 c9a3 9cbf 025d 2f5e c3b4 b5bf
00000750: f7c0 2fc2 e0cd d13f 6534 a158 87fd b1bf
00000760: f7af a885 8150 cd3f 211a bb04 8fa5 ccbf
00000770: 59dd c284 7de6 72bf ffb9 b485 d54f b43f
00000780: 02ef 0f84 a8a5 c03f 12f2 1a9d c6d9 a13f
00000790: e416 f7a3 5124 90bf 1269 25d6 a396 aebf
000007a0: 58a0 b0cf bfb7 b73f 5fd9 c6f4 9116 c9bf
000007b0: 6a05 ee39 6fd4 af3f 3419 5fc1 46f4 d8bf
000007c0: 8c7b 5a52 70d1 a8bf e0cf d2c3 0dc8 a63f
000007d0: 3ed0 7411 5d88 b5bf d129 fbe1 2a0e c53f
000007e0: ad46 9153 40ed cfbf ee33 047b ec5c b4bf
000007f0: 0078 a14b 075b c3bf a4f1 e419 db30 c7bf

weight f8 [128, 257]
0.034742051941383884 0.06261976788954099 0.034847543721976 -0.06325209260745067 0.009628582183189382 0.0255847711918206 0.05240234055885561 0.025000361841894667
-0.1449948458049569 -0.12857583949800716 -0.04522240468464633 -0.049069449449350475 0.05632698144213514 -0.0485727387056739 -0.004105555139007693 0.03908157263969275
-0.025290971750524117 0.09218343437463926 -0.05739377683080842 0.0006643591685797685 -0.11784115710802531 0.1231271158202375 0.04509515690546419 0.02473813119688731
-0.0022346221881657793 -0.12071363332450617 -0.0346753373468554 -0.11439188905781425 0.11112690627436649 -0.05169532128321502 -0.18167206546118359 0.008973297043149963
0.02842999422221465 0.11108437294562604 0.17769551954332882 -0.08399665614191754 -0.005245331499711131 -0.13735057835977948 0.26211516448261035 -0.06508111584870957
0.014710777254086402 -0.006218848821307958 0.19577361098004495 -0.05337857542496127 -0.02879277267004895 -0.0390150832226655 0.1322250306693443 0.13065721172860323
-0.017834017200259098 -0.04574268746618315 -0.07780089171288158 -0.047482750724042753 0.03121133884320391 -0.039055864253425145 0.0139158120703187 0.12086167229670437
0.1398124614266082 -0.036591036038536105 -0.07560904988852825 0.04089116194806448 -0.01372283692710139 0.10893287558693823 -0.007941623778588827 0.20979029609809383
0.0821515374493287 -0.0847512497257585 -0.12664482561895024 -0.07281675028492249 -0.042403137803920105 -0.09060217892679484 -0.0188163268135667 -0.009556782886611643
0.08360579961558111 -0.1197932628712524 0.0055311410493040945 -0.08794592047768253 -0.04286659795109044 -0.036223248996837855 -0.01588691618845206 0.16768995891262004
-0.035872059863579726 -0.022176526772439545 -0.06796197279772725 0.18079478060294052 -0.0950774786036207 0.0031011315524277516 -0.07001689287580218 0.0798025830319276
0.07064098053115206 0.0113416586930844 -0.021847702462918048 -0.07840091718442875 0.014966391838523512 -0.06237567118134527 -0.061962719284347344 -0.1223700671492619
-0.040535050125231724 0.05706899381271053 -0.10331352838135213 -0.1353063141719672 -0.05410286590249761 0.11558095939642347 -0.20946499158879323 0.04454555045617803
0.06014955532919029 -0.0020231949512934024 0.13564344162097827 -0.15116693585521118 -0.015756970310978165 -0.13617030081364495 0.15501690293504145 -0.013835538568984422
0.014376799265415957 -0.010282672623387005 -0.07966513921167323 0.025618637750810677 -0.26044761775588576 0.015584945784166268 -0.04690516863957436 -0.004381726832599962
-0.025956303320523077 -0.08793217462697359 0.06121832294680717 -0.09881813861134811 -0.01647258465555279 0.043676515874804166 0.09395292397185315 0.011748946335021038
-0.059499919500813125 0.057339178060305085 -0.058728400916830854 0.053507715779531353 0.06353756423260723 0.045015409836918985 0.11642440764557271 -0.2061821246575871
-0.09568014826217841 0.10296630025741231 -0.1660619979610991 -0.09533573509122452 -0.032404342615769986 0.19634113329685496 -0.19896660843512765 0.057327866090550086
0.06374107889519974 -0.16567698096882255 0.12911684196769424 -0.026566712396801268 -0.056787213395343386 0.10538389271555686 -0.06840203373506096 0.12893469610998098
-0.05773765952820422 -0.03617166144465184 0.08751157516166938 -0.04497651637574529 -0.12228497715942946 -0.019631579979641572 -0.1812157900837507 -0.008610637952752036
0.026113400616933072 0.17429016817107104 -0.04962502943269577 -0.006129214509627548 0.0031304822567500934 0.06036592015779568 0.015070535722310445 0.005891156650013504
0.029949339639881743 0.02648483653469865 -0.06306207087968206 -0.01830915282438244 -0.11279116678464222 -0.17113607181214083 -0.12038311044087997 0.15578443440574472
-0.09776799626906864 -0.10940860830675915 -0.061673621502758284 -0.141155328519079 -0.11551818521800468 -0.05619403268531469 -0.1800136513511693 -0.12238844790403408
0.05550804325755188 -0.061869543058518744 -0.19917512025573444 0.11344275615447974 -0.09609995404674652 -0.014788786344499575 0.06923531305890783 -0.053052073192963074
-0.07973917046333433 -0.21079647586522976 -0.013705326089387139 -0.054435479784048925 -0.00455153191289371 -0.014629903267306586 -0.05518841114139012 0.08283493562655722
0.0056787443575933155 0.07686999874282008 -0.07180091507985223 -0.013789785331876046 -0.007473407414676699 0.01981241218362702 -0.057442743332627624 -0.05985869856343709
-0.05989229594018173 -0.05485318879034965 0.1267610653299097 -0.05149410838718643 -0.15192893900840315 -0.08199270159836028 0.004186775722091288 0.0034065220898789757
0.08517825806146895 -0.07364438700358863 -0.00116701267149073 -0.05526144946405969 -0.08567223600132282 0.2667479196893949 0.04672521898528589 0.0562529267345379
0.04536154758339979 0.07090922403746489 0.05623064731189849 0.07249732904106551 -0.055608157562014655 0.22306437525933356 -0.10363513318828971 0.04172917242566094
-0.0006492000561576475 -0.037454321175446136 -0.08540287858133168 0.30916002168886186 -0.003615893577442493 0.1906746205401113 -0.08825538521787263 -0.15591578635297865
0.028700708781191932 0.028386230057814897 -0.05754523143179725 0.06934462337840643 -0.04110409537211675 -0.024107976625649397 0.06716513035940336 0.07409947864018429
-0.1393049201593081 -0.0871160074404371 -0.056031503955345945 0.1683711035280296 -0.14676948858817385 -0.03850842756933119 -0.02085453885341644 0.008351765177922195
00000000: dcb2 c4d1 b5c9 a13f 3c2f 2b5f d907 b03f
00000010: 867d 4389 89d7 a13f 6f0e 2705 4a31 b0bf
00000020: f34e ab6c 26b8 833f aa94 2dee e432 9a3f
00000030: 7f47 dec5 7ad4 aa3f 1915 ffe1 b199 993f
00000040: b311 69ec 308f c2bf 4e8f d950 2c75 c0bf
00000050: 6085 551a 6427 a7bf 4641 3c81 a11f a9bf
00000060: 154d 5ade e3d6 ac3f aea0 6fa8 86de a8bf
00000070: 1208 dd90 fcd0 70bf a83a baf8 7f02 a43f
00000080: 8ad2 3562 e0e5 99bf df3d df63 5599 b73f
00000090: c7e8 f694 b762 adbf 25c0 6f73 0cc5 453f
000000a0: 2eda e68b d62a bebf 98df b237 4285 bf3f
000000b0: d2e1 3b60 b616 a73f 08b4 d1e1 f354 993f
000000c0: 7e62 f2a6 574e 62bf 0b62 4fb3 16e7 bebf
000000d0: 87d8 c33f f7c0 a1bf 3654 6e6e c948 bdbf
000000e0: 8f70 271c d072 bc3f a805 8924 cf77 aabf
000000f0: b653 e0bd 0741 c7bf 7973 b38a 9760 823f
00000100: d0b7 a39d c01c 9d3f eaeb e584 0670 bc3f
00000110: 33cb 8a0e babe c63f 3857 1a0b ce80 b5bf
00000120: c68d f7f3 207c 75bf 082b 1229 b494 c1bf
00000130: 2143 cfae 7ec6 d03f 084b 28f0 27a9 b0bf
00000140: f2ec a319 af20 8e3f f88b e684 ef78 79bf
00000150: 9720 4a14 1c0f c93f f0b9 83c7 6f54 abbf
00000160: f784 ea43 da7b 9dbf 28f0 fbf4 c8f9 a3bf
00000170: bbfd 37f3 bfec c03f ec31 ae21 60b9 c03f
00000180: 7991 86a2 1443 92bf 7095 65e5 956b a7bf
00000190: 9da7 815d c2ea b3bf a3bf f7ba a84f a8bf
000001a0: db3c 627e ddf5 9f3f c5f6 5e57 21ff a3bf
000001b0: 9316 eaad e47f 8c3f cdad da61 caf0 be3f
000001c0: 0445 b3ee 5fe5 c13f 737b 396e 0fbc a2bf
000001d0: 5188 8d5c 1d5b b3bf 3a56 86b6 afef a43f
000001e0: f45f 7bfe b71a 8cbf 3aea 1a62 06e3 bb3f
000001f0: a8d8 3fb3 b243 80bf 4b36 618e 68da ca3f
00000200: 6136 a916 e207 b53f dd04 de05 42b2 b5bf
00000210: 8ed9 1ecc e535 c0bf 3622 1359 1ea4 b2bf
00000220: 4c32 3b34 ddb5 a5bf 44da 6f53 b431 b7bf
00000230: 1e33 2e51 9644 93bf 77ae 9faf 8192 83bf
00000240: 77d7 1a8f 3067 b53f 432b 5072 c5aa bebf
00000250: 9343 a95e d2a7 763f e5ac 44b4 9f83 b6bf
00000260: 79d8 9458 9cf2 a5bf 75b2 978b da8b a2bf
00000270: c0d2 dae5 a844 90bf 4bda b254 dd76 c53f
00000280: b990 e897 d25d a2bf a4ee e784 71b5 96bf
00000290: 84b2 89b2 f465 b1bf 6c12 fd8a 4824 c73f
000002a0: 084e 3065 ff56 b8bf 0509 2553 8b67 693f
000002b0: eab0 1189 a0ec b1bf 032a 422c f16d b43f
000002c0: ee7f 23fd 8615 b23f 2081 5aa9 4b3a 873f
000002d0: ccac 487e 3e5f 96bf 2795 481f 1512 b4bf
000002e0: a977 e21b b3a6 8e3f 6571 9437 b4ef afbf
000002f0: 2b85 cbd9 93b9 afbf e757 6a0c a553 bfbf
00000300: bf59 4295 02c1 a4bf 891a 15ac 2538 ad3f
00000310: cadc a161 c172 babf 96cb 27a1 b751 c1bf
00000320: 859a 57ef 5eb3 abbf 93df a5b8 b696 bd3f
00000330: aaf0 43b4 bfcf cabf 2080 c8a4 acce a63f
00000340: 4e00 042a eccb ae3f ac8d c684 f292 60bf
00000350: 0be9 d6a8 c35c c13f 6609 de2a 7059 c3bf
00000360: 4fc4 ad60 9822 90bf de2d 5746 076e c1bf
00000370: 6873 3708 98d7 c33f 2f22 698d ce55 8cbf
00000380: dd35 5455 9571 8d3f 4239 10f5 140f 85bf
00000390: e4a0 8b3f ef64 b4bf ac30 3bad c53b 9a3f
000003a0: f249 257c 2cab d0bf 4b98 9f03 00eb 8f3f
000003b0: 2c03 a44a f403 a8bf 7ee8 22d7 92f2 71bf
000003c0: d3fb 8b07 4a94 9abf bafc 4916 b982 b6bf
000003d0: efeb f10d 0258 af3f 965b 9641 254c b9bf
000003e0: 2038 8171 30de 90bf 332e 92ae c45c a63f
000003f0: 669b d27f 4c0d b83f 5ac6 2be2 d40f 883f
00000400: 90c2 bd00 c676 aebf 10d9 188d 8f5b ad3f
00000410: 117e 9122 a611 aebf faa7 b602 5d65 ab3f
00000420: ee50 7270 ff43 b03f d096 2182 420c a73f
00000430: 803d 4b6f fdcd bd3f f349 3605 2d64 cabf
00000440: c898 a983 7e7e b8bf 8b19 32dc ff5b ba3f
00000450: b0f8 2c01 8541 c5bf b15f 5b38 ec67 b8bf
00000460: f3f3 904f 4d97 a0bf 074e 2fcd b421 c93f
00000470: e2c9 1ce2 bc77 c9bf 624a 04fc 135a ad3f
00000480: 6f42 44d9 5551 b03f 9005 7b3f e734 c5bf
00000490: 1899 ce92 e686 c03f 5541 a0e3 4d34 9bbf
000004a0: aa5a bab0 3613 adbf a30d bd54 70fa ba3f
000004b0: ca39 dfb1 cb82 b1bf 3458 8e9f ee80 c03f
000004c0: 23aa d75e ca8f adbf 38be e48d 1785 a2bf
000004d0: b63f 5799 2867 b63f b0fa d775 2907 a7bf
000004e0: 821d b179 114e bfbf f8eb ec07 4d1a 94bf
000004f0: 6dd9 f639 1432 c7bf 29f6 3c43 74a2 81bf
00000500: 115d 8ca6 78bd 9a3f 4590 27e6 234f c63f
00000510: 52f3 f3ac 7368 a9bf 7680 e77d f21a 79bf
00000520: 57fb 3add 18a5 693f b8c9 bd29 48e8 ae3f
00000530: 89f3 7b10 4ddd 8e3f 09d6 5b52 5321 783f
00000540: f60c 2929 0aab 9e3f 5697 064b d71e 9b3f
00000550: 3fd8 0bfc d524 b0bf 8e8b 6472 a2bf 92bf
00000560: e322 9ec4 e1df bcbf bfad cc6b c9e7 c5bf
00000570: 0597 5572 6dd1 bebf dbcf 7f8d bef0 c33f
00000580: 9933 92ca 5207 b9bf 5112 94da 3302 bcbf
00000590: 67ad c256 af93 afbf 61a2 d2b7 6011 c2bf
000005a0: 1dc7 9a8b 9992 bdbf 9741 3ad9 76c5 acbf
000005b0: 4483 b1f4 af0a c7bf 54f1 276d d954 bfbf
000005c0: 018b e9dc 8c6b ac3f fc0e 1c60 5dad afbf
000005d0: 7b6e d601 927e c9bf d0ce a69f 950a bd3f
000005e0: 1723 c7af 019a b8bf 15c7 934d 9549 8ebf
000005f0: 0ffb 50cd 67b9 b13f 9992 b22e a429 abbf
00000600: 0fa6 5949 c969 b4bf f402 fa00 61fb cabf
00000610: 87f1 adba 8911 8cbf 1d41 d49a f7de abbf
00000620: 09b9 668b a0a4 72bf 2c22 9d60 48f6 8dbf
00000630: c9e1 f0c9 a741 acbf e279 7b9b ab34 b53f
00000640: 9075 c554 9842 773f 70db a492 c0ad b33f
00000650: 3241 1776 8b61 b2bf 0c76 27a8 d13d 8cbf
00000660: e2b5 f886 6f9c 7ebf 55c1 8879 b449 943f
00000670: 1a27 03a0 2269 adbf 4413 6ca1 cca5 aebf
00000680: bddc b0f8 33aa aebf c529 df97 b715 acbf
00000690: 23c1 ffe2 b439 c03f 9856 eb8e 6f5d aabf
000006a0: 7ab4 2d50 6872 c3bf 3a2a e043 79fd b4bf
000006b0: 2a46 d50c 2726 713f a320 039f fee7 6b3f
000006c0: 384a b408 3ece b53f a6e1 b6c9 5bda b2bf
000006d0: 3239 8450 ce1e 53bf 97fa 5a8c 3a4b acbf
000006e0: 2a06 cd9b 9dee b5bf 17e3 d5dd 6512 d13f
000006f0: 4c67 e12e 5eec a73f 961c 4201 2fcd ac3f
00000700: 8ab9 bbf6 a039 a73f 1ec4 395e 1b27 b23f
00000710: 7a9b 796e 43ca ac3f ae5a 4759 2f8f b23f
00000720: 2145 3d24 ac78 acbf f91c 529a 5f8d cc3f
00000730: 94a3 c203 d587 babf b9f7 b6ad 865d a53f
00000740: e4c3 3f81 e245 45bf 43b8 1579 362d a3bf
00000750: 51b7 7d8a f6dc b5bf 9398 981d 47c9 d33f
00000760: c35a 2615 149f 6dbf 80d0 b2a5 0668 c83f
00000770: ace6 34a9 e797 b6bf 2478 a869 0cf5 c3bf
00000780: 4755 59f6 b763 9d3f 162b 05a7 4711 9d3f
00000790: e2a4 148e 9176 adbf 294e 90b9 91c0 b13f
000007a0: 4ab6 b592 980b a5bf d036 b8ec c2af 98bf
000007b0: 3c41 53e6 bb31 b13f a005 69f5 2ef8 b23f
000007c0: 85c8 205e bed4 c1bf 5e2e ea12 3c4d b6bf
000007d0: 0f5c 114a 29b0 acbf ca45 9f2f 2f8d c53f
000007e0: 90b7 c4b4 57c9 c2bf f6b2 0f6a 60b7 a3bf
000007f0: 74f3 6469 e45a 95bf 24a4 6cf2 ba1a 813f

weight f8 [64, 129]
0.013444154304130975 -0.02694494783938924 -0.006073211341764527 0.017932991319778574 -0.06302346452415383 -0.07011238700450587 -0.07011517388461903 -0.07271766853720575
-0.02205473993705909 0.05569365708285611 -0.06246453952454966 0.051990327147319 -0.039891032250894874 -0.037668115553111885 -0.04540734175203052 -0.008382745696886962
-0.03865471329254138 -0.0035685667626767273 0.047313583206204324 -0.007244398887008741 0.04164715894251893 0.0791222455635735 0.09370648369529254 -0.006865635946175693
-0.06718950326986936 -0.0039344394707637766 -0.06636351841140715 0.00636578763470375 -0.05228793004175205 0.02313768550890408 -0.049845717263053806 0.0189551504465651
-0.022110505740316335 0.03593889000706331 -0.017591424724370162 0.10881984473053503 0.024537632099367622 -0.11855602037056005 0.09598248786153264 0.03585990865921009
0.01080912767987266 0.04709037086023029 0.10690316095685687 0.01997048172037623 -0.05633918831217599 -0.07393018752002972 -0.0602102612053891 -0.02374728024240643
0.05008633790409341 -0.032561210352830994 0.04018096731263802 0.028819612409605778 -0.08318333443538768 -0.03488505664652886 -0.07867153413076837 -0.008111826814172385
0.07494139827712935 0.015402822756591682 0.05868662829190853 -0.02546037181900791 -0.017815561549927333 -0.0959521175164873 -0.12952989417600339 0.019291073152776457
0.07362498913308796 -0.011291795799092216 0.059806555825233844 0.029207523686466664 -0.1572659327121018 0.06660992207429084 0.05672390651733807 -0.16897121878836627
0.04069867101328891 -0.0496768822476403 -0.03783020304970439 -0.03550246821748449 -0.04870223638712425 -0.2459256496975387 -0.03324425475454365 -0.07559356184110408
0.04295168672208242 0.06766428053871888 -0.1469207695325709 0.04656799415911806 -0.03596624251442558 0.03536058105373549 -0.14576124760328002 -0.08290976375382682
0.04998612718042881 0.04909256518957293 0.015230486816191704 -0.1416683604051882 0.010196204637286916 0.044408841481261244 0.009416441898030528 -0.01247226299548197
-0.06780157836100928 0.16613688181110522 0.008069204465844228 -0.0675117849544923 0.02714031241997315 -0.05088332083995599 -0.017466235357942048 0.039884021670014536
0.09565073332189117 -0.12016826387006196 0.03014917755203872 -0.06267962343474995 0.07702189941840419 0.17650840463489445 -0.038305350475578065 -0.02546956837802023
-0.04255705661375263 -0.05402056464112382 -0.08329037375401693 -0.2657517254736328 -0.09682807798694938 0.06987805557890332 0.06916374883057386 0.01970973014689375
-0.01565737139753763 0.04407013527541655 0.02508259420140279 -0.00015980799419425075 0.001038295413682871 -0.026471646134061475 -0.08229454210068914 -0.017554463103838444
0.036317760271989345 -0.07889375304798982 -0.03205036849387288 -0.15340102813769058 -0.028535847420807458 -0.141245860326156 0.022267624824883626 0.09306421567967778
-0.04999109241173693 -0.022447851721447545 0.05833954986117794 -0.10635092755532381 -0.18649544801455015 -0.051474001214862126 0.03803850737365894 0.07342245551262865
-0.019111621528161885 -0.03532217788381542 -0.05514146686544969 0.010245816070934357 -0.06255961820092264 -0.03313785266523461 0.07138557489818921 -0.023576865549946445
0.06281461174358427 0.029214878262330348 0.010501486216787814 0.06735497487896495 -0.08002739482556967 -0.07667965022647011 -0.07618176099069056 -0.08862879960277063
0.005840532900601859 0.042628124125754875 -0.019391599869791835 -0.1316303171576308 -0.021263579143599522 0.016619792252051756 -0.1396446681366514 0.06991105677919202
0.03367338335601933 -0.17822960787307002 -0.0481310926891273 -0.024146029998306916 -0.027134061626480743 -0.10644380536393734 -0.02098455516407496 -0.02451791472696561
-0.08481548983140844 -0.1037066074297886 0.10054525189861968 -0.08560168756995988 0.10444507887893908 -0.03610300875505905 0.0040066683264463965 -0.04091764491637991
0.019113019458251418 -0.04844514714002623 0.04117053045364352 0.0417723286262143 0.02464255683245414 -0.13939252032794158 -0.06555551010355988 0.04852646635897586
-0.08729949079016353 -0.06874953461579658 0.060019459364062375 -0.05009552216001973 -0.07596617726055846 -0.12520174312387172 -0.006792000658190706 -0.10960201226148499
-0.09330580917063773 0.020004531871139878 -0.13168860463837986 0.02711782849950687 -0.008376701635975592 -0.05051683460924289 0.06437396290673816 0.047523384844906716
0.10632596389921968 -0.03146199627579923 -0.15375809496675624 -0.026882361888404 -0.07147214486092678 0.0029640857280135192 -0.015768295847550618 -0.04930187207156029
-0.09665195621195961 -0.06595626171460726 -0.005307426206796387 -0.08249707718318416 -0.13623513330049655 0.051319606449606564 0.11396424190503965 0.025362251368299546
-0.10988157685299961 0.07024950552892964 0.044035221242832 -0.13517659870776608 -0.08973032134099114 -0.061264134218035934 -0.007576021590309218 0.08427684309429753
-0.013785306731692426 -0.01730805092664107 -0.08809051385037957 0.03723190087470584 0.006012296832785851 -0.08379842088778618 -0.020531070033885584 0.08306599637312366
-0.004516281251459919 0.09582661090068179 -0.04050116446671727 -0.13993257524732772 -0.12478298061574812 -0.20410204105258126 -0.005576399864180927 -0.05189374706911344
-0.01976794913830099 0.01108989914697468 -0.050954800454651006 -0.07818325055526489 0.08266670730190558 -0.08814599721436563 -0.053862996678194275 0.08024323922600556
00000000: db0d 78d8 9b88 8b3f b5e7 0cd7 7497 9bbf
00000010: fe60 8341 39e0 78bf 489c f3ac 065d 923f
00000020: 0e09 0347 4e22 b0bf ca95 3aa9 e2f2 b1bf
00000030: bdac c96a 11f3 b1bf 316b 3508 a09d b2bf
00000040: 217d 018b 8495 96bf 5ff0 8707 e183 ac3f
00000050: efd4 d524 5afb afbf 01b6 9ce5 799e aa3f
00000060: 53b1 d7ed 986c a4bf ef1c ce38 3c49 a3bf
00000070: 2d83 a58f a13f a7bf e054 f314 f92a 81bf
00000080: 57fe daf2 8cca a3bf 4bdb 41b1 d33b 6dbf
00000090: 18f0 0d69 7c39 a83f cd37 c884 4dac 7dbf
000000a0: 0245 42c3 c652 a53f a8e5 1401 5b41 b43f
000000b0: eff9 e4ea 25fd b73f 555a ae1d 241f 7cbf
000000c0: 06b7 2dcf 5433 b1bf 842b ae0d 8f1d 70bf
000000d0: 0578 3915 33fd b0bf 85f3 441b 0313 7a3f
000000e0: 237d 02cb 7bc5 aabf 0975 43ca 67b1 973f
000000f0: 0720 fbba 6085 a9bf 92f7 089d fa68 933f
00000100: 77f1 35ec 22a4 96bf f241 780a 9566 a23f
00000110: 665d 8687 7c03 92bf 8d00 460a 9edb bb3f
00000120: 9660 8d9d 6420 993f 7347 3cf6 af59 bebf
00000130: b99f 5aee 4e92 b83f d392 dbdd 3a5c a23f
00000140: 5015 118f 1823 863f f336 9aa5 3a1c a83f
00000150: cc12 266c 015e bb3f ec5d 7f57 2473 943f
00000160: 0066 9176 7dd8 acbf ccee 95b9 16ed b2bf
00000170: d382 851d e1d3 aebf 1653 0a00 3551 98bf
00000180: 7b89 8c9e eaa4 a93f c0cb 2aeb dcab a0bf
00000190: d510 0f89 9992 a43f ad6f 2173 e382 9d3f
000001a0: 75e3 f8c4 804b b5bf 41f7 d442 74dc a1bf
000001b0: 9bc1 3752 d123 b4bf 6080 05f7 ee9c 80bf
000001c0: fb7e b706 5c2f b33f 0c90 0be0 838b 8f3f
000001d0: c2d7 737a 2c0c ae3f 93ff 39a1 4812 9abf
000001e0: 3804 de18 3e3e 92bf 641b b766 5190 b8bf
000001f0: 258e ab81 6f94 c0bf 4205 2f01 0ac1 933f
00000200: 3cb6 7e58 16d9 b23f b897 5c2d 2720 87bf
00000210: 7d28 b602 f79e ae3f 8d40 1fbc 93e8 9d3f
00000220: 39ff e242 4a21 c4bf a0ef e50c 590d b13f
00000230: 5362 c976 ea0a ad3f 47a5 5451 d9a0 c5bf
00000240: 4b48 fcc9 74d6 a43f 1ce1 3d91 3f6f a9bf
00000250: dd8d ccf9 7a5e a3bf 81be d727 612d a2bf
00000260: 53ad 0ce1 7fef a8bf d367 59df 7d7a cfbf
00000270: 94bc e615 6405 a1bf 4e4c e583 195a b3bf
00000280: 150b 8f73 c3fd a53f 316b 0540 7252 b13f
00000290: 076e 1fbe 4cce c2bf 714f e897 c2d7 a73f
000002a0: 7e0b b8d6 2a6a a2bf ecfe 6236 c81a a23f
000002b0: b478 bdf7 4da8 c2bf 657e d703 9339 b5bf
000002c0: 2dbe fc1a c897 a93f ce92 ee23 a922 a93f
000002d0: 1bbc 3856 2931 8f3f 96bb 6857 3022 c2bf
000002e0: 570b af6b bfe1 843f 726a a173 c1bc a63f
000002f0: 1b4b f96f ed48 833f b7b3 61cd 0e8b 89bf
00000300: ce7e adb9 715b b1bf ede0 042d f943 c53f
00000310: 34c8 484a 9686 803f 8960 79cc 7348 b1bf
00000320: 7bef fc88 abca 9b3f e6c6 d6ed 600d aabf
00000330: 4c1e 9636 abe2 91bf 484d 69b1 ad6b a43f
00000340: 7cb8 7403 917c b83f a8c9 56eb 58c3 bebf
00000350: 2066 590e 6ddf 9e3f ee20 c794 c50b b0bf
00000360: cfed 130b b5b7 b33f fb20 b0d0 d397 c63f
00000370: b4dd 1b47 c29c a3bf d246 e8cc b114 9abf
00000380: 2e7c bddc 09ca a5bf a1e1 e35c 95a8 abbf
00000390: c059 5897 8452 b5bf dcf2 7086 1302 d1bf
000003a0: 29da 4994 b9c9 b8bf bd61 6b3b 87e3 b13f
000003b0: 70cb 4b27 b7b4 b13f ee58 9399 c92e 943f
000003c0: fcff 5f68 7c08 90bf aaf6 795b 5c90 a63f
000003d0: beea 2c67 40af 993f bb01 a837 44f2 24bf
000003e0: b14a 1a36 ed02 513f b916 ab19 621b 9bbf
000003f0: 9335 f64e 4111 b5bf fc23 b813 ccf9 91bf
00000400: c7aa 43d1 3d98 a23f 2e27 3389 6132 b4bf
00000410: a009 03e9 e768 a0bf 9217 8317 a5a2 c3bf
00000420: 737a be4d 8038 9dbf aaea 6527 5814 c2bf
00000430: faa6 8701 53cd 963f c5a8 c572 0ed3 b73f
00000440: cfdb ffb5 6e98 a9bf d44a 09d4 91fc 96bf
00000450: 6e2a 6f75 aede ad3f 6fd7 bf7b d039 bbbf
00000460: 6ea5 0935 15df c7bf 31cb 9fdf cc5a aabf
00000470: 8929 5182 c879 a33f 5300 3865 d0cb b23f
00000480: f478 bf35 ff91 93bf 3041 ab9d bf15 a2bf
00000490: b95f ae99 803b acbf 4e5f 9027 c2fb 843f
000004a0: 3b24 393a e803 b0bf 20e8 e9d2 71f7 a0bf
000004b0: 9908 9835 5346 b23f c6b5 eaa9 8824 98bf
000004c0: 484e 264f 9e14 b03f 57f8 c54a 81ea 9d3f
000004d0: 004d e29e cd81 853f 7bfb 53f6 2c3e b13f
000004e0: b255 8fe3 ac7c b4bf eccc fd0d 47a1 b3bf
000004f0: 63b7 01dc a580 b3bf 4313 c783 60b0 b6bf
00000500: a8eb c91c 3eec 773f 9d17 057e 5ad3 a53f
00000510: 1110 083d 64db 93bf 3254 ad21 43d9 c0bf
00000520: 7717 12a4 1ec6 95bf d668 c160 c704 913f
00000530: 9f95 5a61 e0df c1bf 6cd4 7ee6 b0e5 b13f
00000540: 1101 8540 a33d a13f de32 7f50 3ad0 c6bf
00000550: 1085 0a7a a3a4 a8bf f610 afa4 bcb9 98bf
00000560: b06c 2c0d 08c9 9bbf dd5f e6b6 e63f bbbf
00000570: e76d 9aa8 f97c 95bf fb79 ac67 391b 99bf
00000580: 9226 05cb 77b6 b5bf e440 4a27 848c babf
00000590: 0433 ac68 55bd b93f 4f6b 9800 fee9 b5bf
000005a0: 0260 03a6 e9bc ba3f b6c5 c7f3 177c a2bf
000005b0: 291d d9d6 4b69 703f db89 7d55 28f3 a4bf
000005c0: 8806 0106 5d92 933f 5f8e 3b65 cdcd a8bf
000005d0: 54f9 b6c3 4d14 a53f 149b a7c2 2e63 a53f
000005e0: 2fa8 bdfe e53b 993f 80c9 0e36 9dd7 c1bf
000005f0: b1a6 f7f3 3ec8 b0bf 5326 0104 76d8 a83f
00000600: 68b5 e669 4259 b6bf c841 caca 9199 b1bf
00000610: 3e3b 2fde deba ae3f 69e7 b4ca 1ea6 a9bf
00000620: 42ad eff6 8472 b3bf aa42 0f58 9c06 c0bf
00000630: d4af 38cb edd1 7bbf 8526 3da2 e00e bcbf
00000640: 2b2a eab6 e3e2 b7bf b122 a268 117c 943f
00000650: 61bf 1615 2cdb c0bf 0af9 2caa c6c4 9b3f
00000660: c052 99dc cd27 81bf 6899 16b1 57dd a9bf
00000670: c2fa 65e1 cf7a b03f 527f 682f fc54 a83f
00000680: e9ae a9a9 2d38 bb3f ab92 246a c91b a0bf
00000690: 4651 b062 58ae c3bf c587 99c4 0c87 9bbf
000006a0: ffad c09c ff4b b2bf c89f 7568 2348 683f
000006b0: 2d60 ea6b 9025 90bf 599c 5b50 183e a9bf
000006c0: ad58 06bf 2ebe b8bf 03d9 0773 82e2 b0bf
000006d0: 9df8 be5f 3dbd 75bf f471 8448 871e b5bf
000006e0: 31c1 0b21 2770 c1bf 1476 b03e 9046 aa3f
000006f0: 9a44 e5b3 c22c bd3f ac17 b8e0 8ff8 993f
00000700: 393c 04f3 3221 bcbf 9292 ce20 dffb b13f
00000710: 715d 38d6 c88b a63f 1333 517f 774d c1bf
00000720: 297f 9efb 90f8 b6bf 56b8 c439 035e afbf
00000730: 6d3b 6dcf 0808 7fbf 026f e6cc 2a93 b53f
00000740: 00a3 9f8c 783b 8cbf 93ec bfa2 33b9 91bf
00000750: 4f41 1394 198d b6bf 8fe2 3f49 0f10 a33f
00000760: 2c9f 54a4 59a0 783f 5d63 2b35 d073 b5bf
00000770: 2bc3 63c9 1806 95bf 6b0c d529 d043 b53f
00000780: 4097 6404 aa7f 72bf 80aa e7bf 1788 b83f
00000790: 623f ab91 91bc a4bf d889 2a85 4fe9 c1bf
000007a0: f18f d704 c7f1 bfbf 5510 af03 0420 cabf
000007b0: 1bba bc70 47d7 76bf c2b6 0e35 d191 aabf
000007c0: d062 3b9c 0c3e 94bf c6b1 3711 4db6 863f
000007d0: 08ca 0d63 bf16 aabf 91d6 3a48 d103 b4bf
000007e0: 7d66 5434 a529 b53f 1d1b 4f6f bc90 b6bf
000007f0: c011 6542 ee93 abbf 8367 3328 d28a b43f

weight f8 [16, 65]
-0.05837783882480429 0.05971989292874478 -0.044822967612501007 0.14212035430391354 -0.11998104255448769 0.02470758008332008 0.10326035569376588 0.038689797829046385
-0.40363942596076663 0.2679056567125296 -0.10543108514811873 0.10893960322099432 -0.06444868756356115 0.030827699811533955 -0.08813146665700387 0.1985507129710373
0.20294943943559798 -0.19325309881285202 -0.11123787946327679 0.08754358731286263 0.07257303813862287 0.0076857616571119934 0.0024404213425358 0.03810861147576665
0.05750952646017709 0.2843172984893402 0.053383129393791924 0.09101761217953744 0.013077007355503812 0.11885894109190863 -0.1029029532031053 -0.05504265933909751
0.0024199440014093378 -0.015140096339652081 0.1274848595080227 0.02089984501048034 0.18917504651257605 0.02128528258413927 0.0961096992857326 0.027594302998816794
-0.08638112596386761 -0.1564193975235845 -0.16284917752235928 0.09815939981234414 -0.20574033287507193 0.10821332203281979 0.024986161819575144 -0.17562424742949337
0.17236711553947054 0.018194216827141833 -0.1108970616270378 -0.002654517625744418 -0.11855039341060673 0.02421899725584645 -0.1974740107885606 -0.18291000406138172
-0.06517632787677735 0.016596898512798684 -0.1307498083799022 -0.19208922673930925 -0.14693260760607427 -0.0006990956892973435 0.0061324031951204535 -0.09008338687059858
-0.13295246871807462 0.05604105329355752 -0.06858341069962091 0.11420947483773901 -0.09280527008296656 -0.05637495525598317 0.028122971990861178 -0.07001616861397796
0.02956964166896074 -0.1544107441686834 -0.03980764102595804 0.12306486712264389 -0.1277745337173266 0.1085039453987487 0.2128561667923431 -0.06716158456657818
0.1368114258868279 0.25195829380988427 -0.26061511216668565 -0.007423078040549547 0.022209858580283213 -0.021232942015315746 -0.08119473355091064 -0.2074223500078166
0.13879447776563175 0.03217006586980451 -0.1375502959339493 -0.09679887351574301 -0.03906114098302797 0.5252084792534369 0.03272649611902079 0.15895756701415342
0.04288162093290615 -0.09290611566864874 0.15338841275576898 -0.15427698165518583 -0.06321769386438439 0.8476902715785963 -0.02874750476613767 -0.04046159288261753
0.09325424078543874 0.044358597799765864 -0.05052775743208373 -0.21181143009995543 -0.13053939672666606 -0.02755964712827178 0.17344831454174137 0.10766001690388392
0.08980139163408088 -0.06945416014371736 0.007622080940386298 0.015076470141834487 0.15012049094107216 0.07282853227860611 -0.09900205811369397 -0.010115153125754827
-0.12691736221800276 0.20805045313537976 -0.011871332979183885 0.5021307724482692 -0.13265098247818194 -0.14038096216605306 -0.19283868967464016 -0.1542268261850636
-0.07492464282392615 -0.12494737794335875 -0.11883962482882157 -0.023524458939918672 -0.04728753870461709 0.10780768188366081 0.029537223586478086 -0.021004393888356992
-0.05328435550604969 -0.09198223083140002 -0.019473602841548174 -0.23766813295299757 -0.11104668199997586 0.027051855931611034 -0.1220087511156503 -0.3337099232455932
-0.05457425083976506 0.10032817692497017 -0.2694916218908185 0.1283779287589026 0.01567206084029216 -0.06679098384824511 0.0013478123263350851 0.011503049276166117
-0.05353081178706268 0.018784448489548997 -0.05946953964407524 -0.29685535677929276 0.030815047945949546 0.016540381556473124 -0.16854928807731828 0.06983123771010359
-0.19644774476677465 -0.12195928492691266 0.005480954449293442 0.17603283655875557 -0.12866474347713272 0.056525370363530524 -0.22636645809683004 -0.11141144903990934
0.07887671383292823 -0.07304606641893704 0.10619199583891557 -0.010713605775709081 0.09345181254457977 -0.01865297448451657 0.06130503722664314 -0.15834355723926086
-0.1337078404782762 -0.026876690356678442 0.05453386434614735 -0.07176252468037764 -0.09635973482533412 -0.01650482313721555 -0.13105608094626253 -0.16320788359058794
0.06474389162498376 0.23363342395243625 0.00023502354276712208 -0.13014623640532272 0.15387777614093961 0.0652625531502937 0.04933521882232161 0.10864860434153316
0.11340410749533873 0.07067896142132724 -0.033713731177126165 -0.0622073996431572 -0.11639857935761436 -0.016455012450893345 -0.16991085723020022 0.13085547958464738
-0.03423675292280613 0.03825448786082273 -0.03217862976253234 -0.28869169893634167 -0.18580949625966806 -0.09797146608038895 -0.08997301542093342 0.021509791472766514
0.025589045503138577 0.08471807457254701 0.006881581125043236 0.057191280468459935 -0.15680327842989095 -0.11703701199333415 -0.07566976909831198 -0.006653332677215792
-0.14371603951846978 -0.04356712821282016 -0.030021781503902868 -0.06496451213857682 0.35640776008293784 -0.06374759791218158 -0.05974976352091048 0.0763603536189337
-0.023982769387904657 -0.030597917069767264 0.019965654764150305 -0.023782545171955403 -0.006429009991479627 -0.1368191850514828 -0.0552521559963612 -0.2115310543607557
0.017849527102810212 0.026381924189295764 0.08510826367360382 -0.016528643877545945 0.06059146389271202 -0.10251078381296753 0.024614230213907996 0.019600746054041177
0.17933978735088757 0.08753097012260622 -0.021956058469446958 -0.03150800044590944 -0.10592278146065105 -0.1534247282321582 -0.2732330205743433 -0.010995187694577718
-0.04757418117593035 -0.24840280361185382 -0.041976110822019685 0.031136521478945033 0.025436080121955845 -0.020526884567671537 -0.33857279336481144 -0.174757512761209
00000000: 6f9c 2039 b3e3 adbf 9d62 1916 9b93 ae3f
00000010: 6bbe 0238 09f3 a6bf 1f66 eaf0 ff30 c23f
00000020: a658 e9dd 13b7 bebf c044 afa1 f14c 993f
00000030: ce94 ad4a 456f ba3f a4ad ba30 26cf a33f
00000040: 562c 7875 3ad5 d9bf 1199 7fc4 5d25 d13f
00000050: e965 b116 88fd babf 7bc9 1241 77e3 bb3f
00000060: b809 5b8d b57f b0bf 757a 01ea 4b91 9f3f
00000070: 1f54 0aa7 c88f b6bf 6f6f 6719 1c6a c93f
00000080: d107 8f4a 3ffa c93f d03c a07d 84bc c8bf
00000090: 9804 5fee 157a bcbf 4ab7 7bac 4169 b63f
000000a0: 6c72 6089 2594 b23f 05f4 64ef 1a7b 7f3f
000000b0: 784e 593b effd 633f b601 f8cf f882 a33f
000000c0: 67b6 b57e e371 ad3f eab8 ac2e 4132 d23f
000000d0: 0917 cf95 0855 ab3f d2ce ab23 ee4c b73f
000000e0: 1a1c 5f37 1ec8 8a3f 37b2 d320 8a6d be3f
000000f0: ca4d ab12 d957 babf 161a 7e2b 8d2e acbf
00000100: 1fb9 038b fdd2 633f 43c5 1855 c501 8fbf
00000110: f93a 2983 6c51 c03f 18f5 3edb c466 953f
00000120: 4ed2 fe4e e336 c83f 5509 5722 cfcb 953f
00000130: bcb7 422f a59a b83f f84a be53 ae41 9c3f
00000140: e1a7 01cf 121d b6bf e572 6902 8d05 c4bf
00000150: c8cb d1e9 3dd8 c4bf 8a2f fd73 f920 b93f
00000160: be52 9500 b355 cabf ab5a 1f47 deb3 bb3f
00000170: 6276 78ef f895 993f 9111 8cf7 da7a c6bf
00000180: b6ed 122a 2010 c63f 7ee1 fe38 81a1 923f
00000190: a61e e9f4 bf63 bcbf f38d 744c edbe 65bf
000001a0: a361 a08e 5159 bebf 4983 9f64 ddcc 983f
000001b0: f7ca 1211 d446 c9bf b505 c752 9869 c7bf
000001c0: fc41 b454 65af b0bf 865c 4f01 c7fe 903f
000001d0: da97 79e3 68bc c0bf 7f2f 6139 6196 c8bf
000001e0: db29 310c b0ce c2bf b1be a78f 70e8 46bf
000001f0: 1dee b372 4a1e 793f c0aa 8570 b40f b7bf
00000200: 2386 8824 9604 c1bf 7829 42b6 69b1 ac3f
00000210: 27c5 00b2 ae8e b1bf d748 5207 d53c bd3f
00000220: 271d e70f 16c2 b7bf 469c 469a 2ddd acbf
00000230: 5348 deb3 44cc 9c3f cf64 6362 94ec b1bf
00000240: acc4 b00f 8147 9e3f 9c81 2d34 bbc3 c3bf
00000250: 63bf acc8 aa61 a4bf 2a0e 94db 2d81 bf3f
00000260: b8ed c979 ea5a c0bf 157f f920 eac6 bb3f
00000270: 2401 90f1 de3e cb3f 59d0 4269 8031 b1bf
00000280: 4397 f36b 0983 c13f 73a4 f7ad 1520 d03f
00000290: b65a e601 ebad d0bf 0d91 b756 a967 7ebf
000002a0: b920 0161 2ebe 963f d6ee 369e 16be 95bf
000002b0: 7e66 3595 2dc9 b4bf dc1b dfc8 d08c cabf
000002c0: 6e34 6f77 04c4 c13f fd56 a449 9878 a03f
000002d0: 1cb4 4b83 3f9b c1bf 802d 0a9c cfc7 b8bf
000002e0: e612 2266 d2ff a3bf 8736 3f03 82ce e03f
000002f0: 8075 16fd 86c1 a03f b085 e3b7 b858 c43f
00000300: e039 036f 94f4 a53f 6b2e 65f8 b1c8 b7bf
00000310: 4889 2f44 3ba2 c33f de07 5e1f 59bf c3bf
00000320: fa12 ade7 082f b0bf 6228 3259 4720 eb3f
00000330: 4ba8 3f63 fc6f 9dbf a18d 59c4 61b7 a4bf
00000340: 4703 638a 82df b73f e85c b18d 2bb6 a63f
00000350: e30a 6c33 c6de a9bf d961 990e a31c cbbf
00000360: b5ea e3d3 83b5 c0bf cac0 6b9c 9838 9cbf
00000370: 9865 40eb 8d33 c63f 8f61 b05b 9b8f bb3f
00000380: 6a23 3458 39fd b63f 046f 6372 bfc7 b1bf
00000390: 7edf dcc5 5438 7f3f 1a1e 9691 69e0 8e3f
000003a0: 4493 86f3 2537 c33f ea2f 5a04 e4a4 b23f
000003b0: 06c3 d5e9 3258 b9bf 7904 f4de 40b7 84bf
000003c0: 1cad 0200 d43e c0bf 3935 11b2 65a1 ca3f
000003d0: d081 3e57 ff4f 88bf 8960 bf8d 7411 e03f
000003e0: f355 c317 b5fa c0bf a2fa bddc 00f8 c1bf
000003f0: 612d c72c f0ae c8bf 95bb 5063 b4bd c3bf
00000400: d5de 97ea 422e b3bf 70d8 fc25 8dfc bfbf
00000410: a6d3 1b0e 466c bebf 9151 36b7 cb16 98bf
00000420: ae44 7d80 1236 a8bf 3da9 f2c3 4899 bb3f
00000430: 6f35 4685 013f 9e3f eb8a 4a03 2d82 95bf
00000440: 4de7 9248 1648 abbf 81e6 3bc1 258c b7bf
00000450: 59e5 5b5d e3f0 93bf 0bd1 2acd e86b cebf
00000460: d4ea 842b 8e6d bcbf f3e8 1652 7bb3 9b3f
00000470: e415 de2b f73b bfbf 0931 acdd 805b d5bf
00000480: bdf8 1efd 27f1 abbf 8e92 c27e 1baf b93f
00000490: c34a a4c9 593f d1bf 2f1b c61e b06e c03f
000004a0: e174 1433 560c 903f 98be 4bc3 3619 b1bf
000004b0: 3460 3777 2215 563f 1733 9023 e98e 873f
000004c0: f553 e8fb 6368 abbf 4979 beff 3a3c 933f
000004d0: 064b c29f ca72 aebf 3a9b 409c adff d2bf
000004e0: 962f 9cdc fa8d 9f3f 8cc6 6437 f6ef 903f
000004f0: 6830 07e8 0593 c5bf b13f 34c2 75e0 b13f
00000500: 65b8 921f 3325 c9bf 0063 3444 b938 bfbf
00000510: 9cf0 c481 3273 763f 385f 0576 3e88 c63f
00000520: 3bf6 b018 1678 c0bf eb17 36b2 e4f0 ac3f
00000530: 76f7 377b 93f9 ccbf ebc0 06f2 7585 bcbf
00000540: 8d10 54aa 4331 b43f 56eb 5ea2 25b3 b2bf
00000550: d7a0 390d 662f bb3f e866 6ed3 03f1 85bf
00000560: 2e82 a13e 75ec b73f 0c57 89ed c319 93bf
00000570: 8ede efb3 5f63 af3f b0fd ef07 9a44 c4bf
00000580: 7357 09a9 561d c1bf 4f36 6d28 9085 9bbf
00000590: cc4b c8d7 dceb ab3f 2ca3 9460 075f b2bf
000005a0: e9dd b915 08ab b8bf f904 67ee a3e6 90bf
000005b0: 8c95 cd16 72c6 c0bf 1948 3cf5 fee3 c4bf
000005c0: 8a23 2541 0e93 b03f 6869 9035 b3e7 cd3f
000005d0: c1a9 25dc 14ce 2e3f df77 87c2 a1a8 c0bf
000005e0: 42a3 0d58 44b2 c33f de18 6ff3 0bb5 b03f
000005f0: 2f08 c43e 7742 a93f 5326 671a 65d0 bb3f
00000600: 33af ec34 0d08 bd3f 70e1 d133 0418 b23f
00000610: cfed a919 ed42 a1bf 49b8 12f6 a5d9 afbf
00000620: f24d a41b 4ccc bdbf 09d3 5331 95d9 90bf
00000630: 1aff 8493 a3bf c5bf 2cc3 a852 dfbf c03f
00000640: aed6 3fcc 7a87 a1bf 4d2e 939c 1796 a33f
00000650: 3a9b eba4 b779 a0bf 9fba 63bf ec79 d2bf
00000660: 655a dc06 9bc8 c7bf 4ea6 c172 a814 b9bf
00000670: ba62 c1b6 7808 b7bf 1660 adab a906 963f
00000680: 648f 49c6 0334 9a3f 4a4f ab6f 15b0 b53f
00000690: 8e80 075e dc2f 7c3f b6f0 74ee 2c48 ad3f
000006a0: 0888 613c 2112 c4bf 7fd4 ee3a 23f6 bdbf
000006b0: 15b8 920f 185f b3bf fcf8 2064 8640 7bbf
000006c0: 803c d284 4965 c2bf 709b b53d 6e4e a6bf
000006d0: da5d e8a6 07be 9ebf 0a29 09a7 83a1 b0bf
000006e0: 8032 667e 62cf d63f 933b 3b38 c351 b0bf
000006f0: f636 8860 8597 aebf d21a 8125 5a8c b33f
00000700: fd15 c168 f08e 98bf 4cbd 8f74 0f55 9fbf
00000710: d260 0569 e071 943f 16b1 ea96 735a 98bf
00000720: d884 8b3a 4e55 7abf 8778 a182 4a83 c1bf
00000730: 9a62 13b6 024a acbf 1caf 4818 7313 cbbf
00000740: e95e 9f7c 2547 923f 45f1 64f6 dc03 9b3f
00000750: 01f4 18b9 a7c9 b53f e3eb 9a83 e2ec 90bf
00000760: 5703 ac27 d805 af3f 21ca f68f 253e babf
00000770: eac9 2307 7934 993f e402 1ecd 3712 943f
00000780: 8a96 c52c 9bf4 c63f b651 10fe 6d68 b63f
00000790: 8925 4d24 a67b 96bf 667f f40e d121 a0bf
000007a0: a95c 4662 c11d bbbf bad0 13e7 6ba3 c3bf
000007b0: 5e76 e359 a67c d1bf 7024 7e1c a584 86bf
000007c0: 0cb7 91a0 a45b a8bf 1bb2 dfbe a9cb cfbf
000007d0: d03f 638e e47d a5bf 9363 da95 40e2 9f3f
000007e0: 9b87 0c71 ea0b 9a3f aeae a0e7 ff04 95bf
000007f0: 834d b438 2dab d5bf bc14 0545 745e c6bf

weight f8 [1, 17]
-0.06906764802187286 -0.052620300523836004 0.12179981973558858 -0.08057661952277395 -0.1232155471104019 0.09701106588149729 -0.06595004911837304 0.09018149203301888
0.04570630329778782 -0.09450731197837936 0.0002897273689417048 0.11704488944681372 0.09372353788827256 -0.08813220240111326 0.0198719983407956 0.05622102274447509
-0.28637838619297706
00000000: 7330 77d9 6aae b1bf eb0c b64b 0cf1 aabf
00000010: e54c 6ce2 452e bf3f 302c ac59 aba0 b4bf
00000020: 1dab 32d9 0d8b bfbf 5da6 4f9b b7d5 b83f
00000030: ac0c 2238 1ae2 b0bf 337e fc5e 2216 b73f
00000040: 0326 c50b d166 a73f 0815 2e96 a131 b8bf
00000050: 564e 0993 d1fc 323f 3387 5664 a7f6 bd3f
00000060: ce75 180a 44fe b73f 2d88 09ff d48f b6bf
00000070: 8b66 eb3b 5359 943f c604 127c 00c9 ac3f
00000080: deb9 be02 0654 d2bf
