Data/Breast Cancer Winsconsin (Diagnostic)/results/models/model_18/bcw_traced.pt (torch, 476245 bytes, 5 tensors)

weight f8 [256, 31]
00000000: 74ea 1105 dfbd d1bf 4a92 be1c 52f1 cc3f
00000010: 3b4c 49c1 b861 b9bf f9ea 8850 ddbf c9bf
00000020: edbc 79e7 6799 c7bf 19d0 2488 c0cd 84bf
00000030: a2ea 617c 0c9c b1bf d89c 6f8b 5c18 d7bf
00000040: 6b40 adcb a72c 8c3f 7f4b 2918 093b c33f
00000050: 4791 5070 833c abbf 2e85 0819 f0bb 753f
00000060: c3e9 8255 2dea cabf 4510 e441 1741 c8bf
00000070: e389 cf9a bbd2 ab3f cb99 205d b523 99bf
00000080: b560 69f0 3535 a6bf d352 df67 7991 ccbf
00000090: 4579 baee aac3 9e3f 0d4d dbb5 fade ba3f
000000a0: d962 a700 39d9 c7bf 9504 38ab 182f a9bf
000000b0: 62e2 7847 3eab d3bf 5f30 18a7 5ece cabf
000000c0: c1db 21e2 9a6b c8bf 4345 4c4f 348d b43f
000000d0: 0e65 bfa2 09e4 94bf b321 c160 3e43 abbf
000000e0: dfc0 61b3 44ec c0bf db11 9430 2b10 c53f
000000f0: 504b 0391 f9c1 89bf 61f8 78cf 29bd c13f
00000100: 1508 6215 d23a a53f fac2 a0df a006 94bf
00000110: 658f 7c78 7a54 c43f 8765 a590 44b6 c1bf
00000120: 64a1 a246 9495 d3bf 06e9 8dff 81fa 84bf
00000130: be40 2df0 4f22 b0bf 22ce 7fbd 0a18 c03f
00000140: f3ca d7ad cc57 c4bf 3c0f 1d37 d89f bc3f
00000150: c27e e183 caa7 cebf f67d 139c 244a a8bf
00000160: d0b5 6192 545f bb3f 7e35 0bef 90dd bdbf
00000170: b02f 5063 a205 bdbf 40c6 0bff 7631 b33f
00000180: 4654 373d 8543 bc3f e248 f5f3 774e a03f
00000190: 9a08 c565 d06e c9bf 2e79 1bda c3d1 af3f
000001a0: 0f90 ec3d 4dda b43f cf1c fbec 8cdc bc3f
000001b0: c153 a67c 6f65 ac3f db7b 96b4 1ce4 913f
000001c0: 5c69 0f61 5add 94bf 9bcd 4ae5 8aeb b83f
000001d0: 3802 79df a2dd 9fbf 252a 7518 e77c 81bf
000001e0: 2392 3bfa 05c3 8b3f 133d 5215 c5fc 8ebf
000001f0: 0d2f 7f30 fc2c c2bf 2ec3 885c 0a1c 86bf
00000200: 5c71 4825 0e44 a0bf 9db5 3c7e 92e8 b2bf
00000210: af94 6fe0 2f50 c6bf f874 4f04 9229 693f
00000220: b949 803c 39d8 babf 9f26 ed6f 9fea c7bf
00000230: fc1d 808c dcbd b9bf 8876 34a3 9009 c2bf
00000240: d46b 8727 d54a 923f 117e 0c17 4bd8 a23f
00000250: 5290 620f 30d0 c23f 22db 9e32 3828 d33f
00000260: 9177 7fe4 34b7 a4bf a2fa ff78 61a7 c5bf
00000270: 29e2 1b75 e885 a23f 36df babd 4c43 a53f
00000280: de14 d449 a44a 6b3f 5e82 53bd a569 c5bf
00000290: 5bd4 fd70 ad58 a1bf 6f78 bcf9 6645 adbf
000002a0: f0a3 a12a 92bc c3bf 58da a868 e8e3 b43f
000002b0: b76e 4584 1762 a2bf f0bc 0119 3009 963f
000002c0: 77fd b627 50d7 ab3f 9ca5 2231 6212 bdbf
000002d0: ed7e c366 3564 b83f d22b d3f4 f5c0 9bbf
000002e0: 65fd 3041 942f cdbf 7d4a 12fd 3731 b63f
000002f0: b34f 1706 320a ab3f 8624 8a29 1df4 c63f
00000300: 0683 8c1d 65b8 d03f 798f af00 1611 9a3f
00000310: 633d a128 fac9 9c3f 0b36 f908 b359 cb3f
00000320: 26bf 36a3 bbbf d23f fc55 9a47 9152 a03f
00000330: d327 3b18 b23e b33f 7566 6ffb af8b a33f
00000340: 83c9 a380 c713 b93f 7659 9e9b 8180 a9bf
00000350: 913c 125e 880d c93f 9104 014c ce0f c13f
00000360: 022d f738 5e71 c13f 8fdc 7c87 4ea1 b0bf
00000370: d25b 9b2b c15a b23f 46da 418b ed68 cd3f
00000380: 1c4b 5823 4969 a9bf c669 0d87 6f1e c23f
00000390: 20bc 8a3f 6a23 d43f 181c e916 3f7b b3bf
000003a0: 21e1 e518 59d6 823f 61bd 3e9f 1f12 bc3f
000003b0: 3f03 30a4 3c10 ae3f b3af fabf 831b a1bf
000003c0: c68c 1e1e 6fc2 d53f ff1c 1cd5 5bea c03f
000003d0: fabd 622f a615 abbf a66f 3ed5 7a00 c23f
000003e0: b470 d249 967b bcbf 063d 9d65 4d3c a63f
000003f0: a82c 48bf 9d6f c9bf ab15 1009 77d0 a33f
00000400: 9d5d 186b dd74 a5bf e1c7 bd4c 7431 b0bf
00000410: 5e5f 0bcf 02e1 b4bf 29cb a769 afaf c3bf
00000420: 4894 b46f 93e2 be3f 6ea8 326c a43a a5bf
00000430: 5ddb 8a8f 96c4 a2bf 2dbb b6b1 9e83 9abf
00000440: c8fc 4474 4637 bdbf 8a20 67c3 1c3a b43f
00000450: da2b 8504 1686 973f 8bde aab1 0b8b c2bf
00000460: 04e5 7342 59a3 bebf 4bab 1db1 acb7 62bf
00000470: 5015 df34 c522 a2bf 2805 781a 8626 97bf
00000480: 2086 7a83 3cd7 8c3f 84aa ace7 ecd2 c0bf
00000490: ea0d 5b22 df4e d1bf e4ac 8d48 407b c8bf
000004a0: 295f a170 58de c2bf d7ee 2fa8 29cf aabf
000004b0: 1660 3c73 db1a c6bf a067 77c2 d3dc 9abf
000004c0: 272c 21cf dd47 afbf 87f5 d6d2 7a70 ab3f
000004d0: 6ed9 96eb d98d d5bf 2e77 3592 84d2 96bf
000004e0: 3eb2 7fe5 7be2 be3f 823b b9c8 b3fb cf3f
000004f0: 4c19 8f85 6e62 b93f 4e79 3e8f 43b6 c6bf
00000500: 3f4f 3efc 08f8 c8bf e5f0 4ff9 acb8 b0bf
00000510: ea8a 08ff f106 aa3f 194e 6f2a 26ec b23f
00000520: 65bc 2a34 b523 b8bf 5e4c 2af0 0b0e b53f
00000530: 3d4d 7e5b 7276 ccbf edab 09e7 e2e0 a53f
00000540: 6756 4432 0dd5 b53f 3a71 29da f5f5 bc3f
00000550: 0330 d4de 3b89 c53f 18d6 92ef 4c40 bf3f
00000560: bc1d 9544 a28b be3f e0c6 2188 e10f c03f
00000570: 2a9b c7b6 6f5b c53f 79f8 8a9e 0ee8 a93f
00000580: 8dd2 0484 428f aabf 2902 9675 d66d a63f
00000590: 47e6 c6a1 4704 a73f 9086 7c7c 70f9 b23f
000005a0: acbb 5f13 0f05 c6bf ad06 57db 48aa 95bf
000005b0: c1b5 32a9 073b 9b3f 8b58 6621 6b62 c0bf
000005c0: 2f54 f971 b8b6 c7bf 36d2 0aa6 1873 9cbf
000005d0: 807c 6580 bb59 babf 8abb 46c9 430a b2bf
000005e0: b950 d527 6cd3 c7bf c66b 405f d69a 613f
000005f0: 185f 5663 d277 bb3f 46e6 4077 d8f9 98bf
00000600: 6f18 6ba6 8d26 aebf 420b bc9f bd79 c7bf
00000610: bd91 d7d5 9d34 cabf 39c6 a1b4 9574 b63f
00000620: 5f2c c708 1813 c93f a44e cbc6 b903 babf
00000630: 8267 cb08 7a54 af3f e3b6 c946 1a4f bb3f
00000640: 04a0 5b36 f6b2 ca3f eec2 eea0 b44b b9bf
00000650: 9ef7 02b9 6e0a c0bf d57d 5a05 0769 b23f
00000660: d5db 81e7 2475 973f 9b6d b536 0b2a c93f
00000670: d470 d1d7 661d d0bf af62 89f9 bbd6 b13f
00000680: 2dec 6d79 1e60 b53f 5642 4c43 9329 b0bf
00000690: 8ef6 6405 9d94 c1bf 3fb7 f5b0 7b49 c2bf
000006a0: 3b17 077c f1f8 cabf 66e4 a0c8 bf94 c3bf
000006b0: a77b 11ed eba7 b23f e697 f5b8 2862 acbf
000006c0: 3995 ed87 9c7e cfbf d91e 2145 1897 c5bf
000006d0: 90b5 2c4a 1f0b 91bf 872a 1898 9acd a03f
000006e0: f721 04cd 4e17 8a3f c032 59d1 60fd d2bf
000006f0: 0e0a b96b 44cc a9bf 678b 5bcb 74fa b03f
00000700: c843 bacf 782c bfbf fc7f c526 aacd babf
00000710: 054c 07dc da4c 66bf cc5b e324 d937 93bf
00000720: 4fc3 a1f4 22c3 c93f e7cf 8c6e dc86 9c3f
00000730: 6214 af2d 9ccd b4bf 070b ef81 32b8 8abf
00000740: edac 94f3 8129 a6bf 0cb9 3d39 fcef bc3f
00000750: 7fb5 b13d 2cda c7bf 6802 c015 bbf1 8e3f
00000760: d26e aaaa 163d c03f 061a 4235 f1de 5abf
00000770: 9e5b 6416 fa2a c9bf 97c9 16ba 055a cabf
00000780: 6537 7fe8 67e4 b5bf 2a88 7544 ce73 c6bf
00000790: 0c37 6a28 3bf5 773f 5099 67bf 007d b73f
000007a0: 68bc 6190 59fd b4bf f47d e050 652d ccbf
000007b0: fe18 5498 e235 84bf 28f3 7c16 cc6d a1bf
000007c0: e7dc f978 e15c c9bf e49b 7ee2 d850 9a3f
000007d0: 1539 2c0a 454e a6bf 92c1 0750 d3f0 bcbf
000007e0: f7e1 3dc0 4b66 953f 83ae e40b 0433 b53f
000007f0: 5554 7a2e 5220 c0bf 86c1 a089 6aff c5bf
-0.27721381659617994 0.22611452487503164 -0.09914736479667934 -0.20116774017682085 -0.18436907579914621 -0.010158065943507254 -0.06878736530954169 -0.36086190811915975
0.01375704851457745 0.15023912124396685 -0.053196055851261685 0.0053061846561217995 -0.2102715175186188 -0.18948641507461353 0.0543421389081862 -0.02455027943519798
-0.043374715420840294 -0.22318952152149638 0.03004328806002234 0.10496489467486843 -0.18631660968710298 -0.04918744173120008 -0.30732686023433164 -0.2094229045764022
-0.19078384439100485 0.08027960716232933 -0.02040114456017244 -0.05324740344127878 -0.13221033820037228 0.16455592987052978 -0.012577008951131369 0.13858530645842662
0.04146439085981527 -0.01955653538624611 0.15882807620175324 -0.13837487280651947 -0.3060045900151833 -0.010243430720710222 -0.063023563515574 0.12573370221035512
-0.15892942894387083 0.11181403489632386 -0.23949557723516618 -0.04744066624857261 0.10692337583323952 -0.11666208110837847 -0.11336722302092883 0.0749735233946689
0.1104052805379335 0.03184866765026741 -0.1986942765161686 0.062147255300930446 0.08145601999109452 0.11274033342043598 0.05546139141657803 0.01747174122067095
-0.020375644849857863 0.09734409425691697 -0.031118912591639097 -0.008539014276398646 0.013555571269031457 -0.015130557740376227 -0.14199783676155456 -0.010795670460625208
-0.03176922040094851 -0.07386127073251321 -0.17432211359770153 0.0030715801135402475 -0.10486180998876805 -0.18684761967806637 -0.10055330686747505 -0.1409169003390398
0.017863588845880532 0.036806437076162386 0.14697838546010417 0.29932980483447313 -0.04046025552064159 -0.16917055519293905 0.03617788724472277 0.04152908149757055
0.00333149039818413 -0.16728660339778662 -0.033879680674467415 -0.057170122132661365 -0.15419222909557062 0.08160259776273315 -0.035904631515874134 0.021519423986714636
0.05437708363342158 -0.11356176089852571 0.09527906187895115 -0.02710327441017652 -0.22801449950382416 0.08668851784231353 0.05281215977052458 0.1793247654752898
0.2612545765460229 0.025455802718979712 0.028114231805657208 0.21367490709455725 0.2929524511227889 0.031879940023980397 0.07517541019038214 0.03817510551716633
0.09795805826778374 -0.04980855011597189 0.19572548478433707 0.13329485617763173 0.13627221852798505 -0.0649613457470528 0.07169730486508222 0.2297646455733277
-0.049631391110003004 0.14155382246356235 0.31466156201617146 -0.07609934148159458 0.009197898933721195 0.10965154302424686 0.05871762756578968 -0.03341304510590195
0.3399923128255974 0.13215206056359105 -0.05289954498709544 0.14063964283275004 -0.11126078893943508 0.04342882028015009 -0.1987187561029249 0.03869983659391648
-0.04190723354639234 -0.06325461267058997 -0.08155839495463854 -0.15379898699719632 0.12064477421934428 -0.0414630300595754 -0.03665609838701898 -0.02589271506956974
-0.11412468279467014 0.07901172419144778 0.022972435022250305 -0.14486833739441737 -0.11968000290280051 -0.0022848484886045842 -0.03542152662661613 -0.02260789429238233
0.01408240581742165 -0.13143693268041912 -0.270438941526861 -0.1912613252892249 -0.1474104452088281 -0.0523617761427581 -0.17269461752653176 -0.026233013862885124
-0.06109517243802314 0.05359252761580096 -0.33678291327250676 -0.02228743688953399 0.12064337113378884 0.24986884404139792 0.09915819893567351 -0.17743725294435325
-0.19506943050930123 -0.06531792723393755 0.05083423841667474 0.07391584907536987 -0.0942948582039534 0.0822455846157921 -0.2223647066826774 0.04273137159619709
0.08528215863437937 0.11312805725305433 0.16825054531398118 0.1220748982330736 0.11931814360024523 0.12548464915339874 0.16685291695395083 0.05059858022058079
-0.05187423574026182 0.04380674538970581 0.04495452737633037 0.07411864318103256 -0.1720293850516702 -0.021157396686027386 0.02659236879542504 -0.12800349360322047
-0.18526368680127933 -0.02778280747834768 -0.10293170818975916 -0.07046912826511523 -0.186139602136455 0.0021490275339721447 0.10729708600262844 -0.024390585211426584
-0.05888788849328896 -0.18340273189104478 -0.20473072949893192 0.08771644267997027 0.19589519909490868 -0.1016193495118452 0.06119138104777645 0.1066757605383049
0.20858647970385402 -0.09881142548580232 -0.12531837495583614 0.07191509133053071 0.02290780699737723 0.19659557505916045 -0.25179453922261286 0.06968283502772964
0.08349791016182513 -0.06313438790335488 -0.13734781993291673 -0.14286752834908076 -0.21072214656867935 -0.15297696396172283 0.07287478006172297 -0.05543639428906015
-0.2460513747893545 -0.16867354751069888 -0.016643990423451493 0.03281863314267235 0.012739768630596322 -0.29671497768576316 -0.05038656058288292 0.06632165875229888
-0.1217723376414731 -0.10470069357461392 -0.002722194156584037 -0.01876773154875959 0.20126759476581887 0.027858204123916066 -0.08126236071901041 -0.013046640959037526
-0.04328542803190225 0.11303688428390418 -0.1863456059685795 0.015109502412088818 0.12686427434242958 -0.001640067629553267 -0.19662405103073594 -0.20587226473214734
-0.08551644731707382 -0.17540911047677926 0.005849104962761375 0.09175114319768807 -0.08199081206270054 -0.2201353688151212 -0.00986840274209699 -0.034040811295631024
-0.19814699561150137 0.02569903261578678 -0.04356590031794575 -0.11304970458855326 0.020898040398124675 0.08280968942988846 -0.1259863593046783 -0.17185718269457712

weight f8 [128, 257]
00000000: 7405 3e88 db54 b0bf cefa a953 391b b4bf
00000010: 079c 3ee7 5a1f a2bf 395f 0f54 595f babf
00000020: 5b82 6268 9670 73bf dce6 85d2 0eeb 913f
00000030: 1024 2288 5b61 aebf b27e 6e89 d880 68bf
00000040: ebd6 b235 b862 92bf b565 07f4 ff11 b5bf
00000050: 0295 351b d9b3 9f3f e528 0e45 9399 933f
00000060: ee44 5348 ad37 76bf 6fd7 b6e0 d758 853f
00000070: 6f9e 547e d97f c1bf bf57 4b0e 287c b3bf
00000080: 61ce 1c71 a0e5 a8bf 43cb 5110 ada7 b1bf
00000090: 9979 97c5 c774 b23f 4546 cb81 8e9c 78bf
000000a0: 5f34 5f59 8382 adbf e4a7 15d6 ab7c a4bf
000000b0: c2da 6c08 2098 ae3f af1c 49df 25f2 80bf
000000c0: 55fd 8a6c bd5b 92bf a221 8c1c 1d4d acbf
000000d0: 53b9 f610 6fd1 a83f e546 3b2b 8d38 98bf
000000e0: 0862 35a2 55a4 aabf 116c 9db8 80a5 84bf
000000f0: 253c d24f c815 c2bf c123 9602 66bf adbf
00000100: 62d7 27a8 9303 a13f b624 bc50 5c57 b0bf
00000110: 5c0b ae0c 4e48 b5bf 8835 b195 f2cd 9dbf
00000120: 309b e52f 441d b5bf a2a5 26eb d1ab b53f
00000130: b39f 6141 44e5 93bf 9cee a013 a4aa bbbf
00000140: 3c42 84d3 4e80 80bf c780 c248 d043 babf
00000150: 38bc cf01 f293 ab3f 120e f1d4 6978 78bf
00000160: a34c 9316 4168 923f b175 3df4 d59d 98bf
00000170: afdb abff 6de4 64bf 51fd 94a3 011d a3bf
00000180: 052c 5706 20dd a9bf 01cd 8309 6643 a0bf
00000190: f585 785b dc74 bcbf 746b 423b b62e 763f
000001a0: 943e 9886 ce99 bbbf 0826 e016 b29c bf3f
000001b0: 0bd3 33f0 9066 bbbf 433e 9456 2063 bcbf
000001c0: 2b85 4acf c9cc 563f 0433 afee 1533 7dbf
000001d0: 73fc cd50 ee7e 8e3f 1155 dbea cd11 abbf
000001e0: 44e0 5287 be34 a6bf 31ec 9192 a196 93bf
000001f0: 4585 9894 cc11 76bf e90a 3166 51f3 84bf
00000200: 4497 ff47 7442 abbf 427f 98de ebb5 a43f
00000210: 03ce 0d38 019c 933f 6618 e70f 30f2 a73f
00000220: 7e8e 08a8 fb99 b7bf 4e08 29f5 8b1d 95bf
00000230: a9c5 f869 ee19 933f ac68 41c6 dcee b1bf
00000240: 54ed 67ec d90d a6bf 1400 00f0 22fd b1bf
00000250: 0857 0a8c 61ae 9abf 3724 be89 fd45 943f
00000260: 39e0 1312 f6b8 a6bf fb88 ce28 850b 95bf
00000270: a8c4 2223 48d4 b73f 041e 23e1 59a1 84bf
00000280: 1ad2 a8b1 03d2 aabf 1c77 0327 a059 813f
00000290: 08e4 f2bb 6293 a43f 5be4 fe95 0c0b b53f
000002a0: 5d15 475c 1d49 83bf 8197 48a2 a003 b1bf
000002b0: 0926 ed12 76a3 b0bf bbd6 28e1 1769 b3bf
000002c0: 8626 66c9 0b60 b9bf 2ad4 b1e6 0e5c a3bf
000002d0: 0b00 9b7e 19ea c0bf f2d2 9976 bcac 97bf
000002e0: ad89 2cd4 9240 b0bf 09de 9886 d2f0 9cbf
000002f0: 1884 1409 e292 803f 7650 f3dc 37db a03f
00000300: 639d 6238 e8fd b43f c9bd 36ae e73a 3c3f
00000310: 2c4c db15 a419 72bf 4935 4859 9bec 533f
00000320: 3214 2365 37aa 9a3f dd21 016a 8349 893f
00000330: 8b85 57fb 3517 a2bf 2d80 bb97 c064 a6bf
00000340: 3118 d686 3ed7 84bf de41 b34f 242e 8ebf
00000350: 7e07 e99b 8b14 92bf 601e aa37 99a4 b13f
00000360: 1853 d3bf 0905 b2bf ffa1 a7d1 c6d4 b5bf
00000370: a0de 52ae 005d 8ebf 25c6 25be 639c 7abf
00000380: 4ea9 b20e f933 ae3f 811c 8e09 96e7 91bf
00000390: 7877 9a8b 56f9 b8bf e043 9299 efb5 a9bf
000003a0: c258 a5ef 5fd4 9fbf 4917 2eaa c9df 89bf
000003b0: 3e2a 5f1c dc3b 993f 1e39 c0c0 e30a b9bf
000003c0: 0f94 1327 dbe3 69bf 5ff2 ab22 933a 9f3f
000003d0: 060f 4017 e22c bdbf 613a 45c1 cf9c aebf
000003e0: 785b ad45 9e11 a0bf 8a09 d53d ead3 8a3f
000003f0: 5838 7864 9940 8e3f 6399 91d0 cca1 9b3f
00000400: 906b 4e70 2a4b 9c3f 01d9 7be5 540b b3bf
00000410: 4414 3db0 ea0a ad3f d6aa e8f9 5afb b6bf
00000420: 1313 aa4f d3c2 94bf 614c 4ca0 eb54 aa3f
00000430: 52d1 2c0a 474e 24bf daa0 981c 38c7 b5bf
00000440: 48a7 6724 3f5b bcbf 14cc 6886 11f1 ba3f
00000450: c2f9 635b 5a0f b13f 40c6 fcd1 e162 b1bf
00000460: 5ce4 88fc 6223 873f 42d4 ce40 504f a43f
00000470: b02d 11d2 a7f5 aebf 8137 f9ce 45cd bfbf
00000480: 6c83 0268 d055 72bf b319 6d8d 9147 babf
00000490: c00f 09c0 ed12 bdbf 155c 3dd4 d999 8ebf
000004a0: 363a aa0f 87d7 9b3f 4a77 26a0 aaed b1bf
000004b0: dddf 60c9 35c6 a43f 2d0c ad07 4396 73bf
000004c0: 6b94 d651 885a ac3f bf6c 5636 6bd5 c7bf
000004d0: b1e9 01be 9b96 c2bf 26dd c4d5 3c08 bd3f
000004e0: bd25 ce59 3b34 bbbf dd4b 51a9 ea22 c3bf
000004f0: 325d 9e89 0070 a9bf 976d 1e31 d952 c2bf
00000500: ddd4 62d5 80e6 95bf 35ab 5c5e 6d5d aa3f
00000510: e907 ea70 07e0 8bbf b8db cfbf a342 aabf
00000520: 57de 9287 8686 b2bf c98c 373b 0413 afbf
00000530: 4c1a 6afe a960 9f3f d9a9 0c3a 5ad6 a13f
00000540: a991 7296 c2d0 b3bf ebc1 05ea 3955 99bf
00000550: 163a 5254 837d 7b3f acf4 d544 8106 c0bf
00000560: 2da5 bfaa 0052 84bf 8232 19d7 93a8 b83f
00000570: 8c01 e97f d27d aa3f 6738 a73d 2b50 a43f
00000580: 0678 1c05 5a05 afbf d99c 361a de05 90bf
00000590: 636c cdc4 f6fe afbf 0bd2 577a c7e1 ae3f
000005a0: 4059 6dd2 f1cd 873f ece8 0d04 cdd9 a5bf
000005b0: 3e6f e979 d009 a0bf 9b3d 2d58 ede0 a6bf
000005c0: 7e6b 7b94 8c14 a6bf 037a fa35 123b b0bf
000005d0: aabb 718c c9ae 77bf 8b0d 6b15 b59f 90bf
000005e0: 07a6 aeab 982f b3bf 2384 3990 07e0 a5bf
000005f0: 7d2b 67ca 71b8 8bbf c018 94d2 1b8e 803f
00000600: a842 37e4 5844 a4bf 0cfd bd17 4192 af3f
00000610: 605c 79e6 1c55 8dbf 7636 0087 110c c7bf
00000620: 93ba 58a5 cf28 a1bf b4ec 13eb d8cc b33f
00000630: a0a0 2d73 b336 bb3f c907 7ed2 f0c2 91bf
00000640: fa5c d5b6 c349 adbf 5c1a 1ec5 3e24 aabf
00000650: 8eb3 a8c7 bab7 8d3f 3fe8 ac30 ae12 b6bf
00000660: fb53 2631 ea93 9cbf 01b4 2597 a992 49bf
00000670: 44de 0a85 edb1 9b3f 62b5 1a6f cae2 a3bf
00000680: 37d0 48d8 1192 96bf 9216 a06e 206f abbf
00000690: f6cf 473d 037c aebf 0641 26a3 acd5 b5bf
000006a0: 0b45 9f34 a552 c8bf 8265 b494 0b4a ae3f
000006b0: 2908 fdb2 2023 a7bf 6f3c 760c 129e a1bf
000006c0: af3a bb62 9681 8cbf 2ac5 c52d 2c3d 613f
000006d0: 4ccf bfad 050e a0bf d015 84f3 9aee ffbe
000006e0: 800c a963 1e94 92bf 9131 b3fb f082 8b3f
000006f0: 260f 122e 9fea a4bf bbff 3850 6dfc 99bf
00000700: 3e89 19f3 6214 abbf 8659 0815 648c c1bf
00000710: 2da7 ae6c 1e73 c13f e693 cc7d 05a0 af3f
00000720: ab5e e44b 9c26 88bf 6bc5 7182 fefc 8d3f
00000730: 796a 2d7e 2e72 8fbf 1b9d 8a69 3bd3 793f
00000740: e987 47a6 b7b8 b7bf f7b0 0987 437d 97bf
00000750: 0572 6905 48ff 99bf b642 db51 e824 913f
00000760: 7e81 9807 6feb b43f 10d8 49db 4a6b 8dbf
00000770: 9303 91ad 980e b1bf 25a4 e1d3 3c6e 9fbf
00000780: e093 1f69 3d66 b7bf 4eb1 bdf6 44e5 a33f
00000790: d8b1 0235 476e b23f 3bcd f3a7 ef89 bbbf
000007a0: 84af a187 a4ab adbf 36b4 398c 1d7a 923f
000007b0: 59f4 7f2e ff38 b4bf 6874 a507 c6da a3bf
000007c0: fc97 825a d559 a5bf 2289 8f27 b0e2 a1bf
000007d0: 577d 5095 1de0 96bf f47c 2d47 3c09 9d3f
000007e0: b781 c16b 21bf a2bf 5510 e5ed be0c abbf
000007f0: d908 43cf 7780 933f 953b f847 5f14 94bf
-0.06379482341983139 -0.07854040424897876 -0.03539547035989448 -0.1030174093460773 -0.004746043710981053 0.017498237227733124 -0.05933652912887777 -0.002991125987548881
-0.017954710271360346 -0.08230590541588508 0.030959503446315935 0.019140530671884277 -0.005424191365095183 0.010423361344560537 -0.13671415966495057 -0.07611322735769387
-0.048626912887269176 -0.06896478317666514 0.0720944268609628 -0.006008679073333638 -0.05763636079755296 -0.040013666041730095 0.05975437262389029 -0.00827436053908878
-0.017928085088667462 -0.05527583096960888 0.048472853489658484 -0.023653226627010766 -0.05203502278408584 -0.010081296571732097 -0.14128974816819198 -0.05810087949345855
0.03323041370087655 -0.06383301707332376 -0.08313453492705264 -0.029105940233696198 -0.0824778191505231 0.08465301505079606 -0.019429270258484354 -0.10807252387251726
-0.008057227926230863 -0.1025972535740066 0.05386310836899394 -0.005974210172158505 0.017975823405163138 -0.024039595634681003 -0.0025503300106452724 -0.037330676287178684
-0.0505151756038558 -0.031764210378151254 -0.11115815385030443 0.005415641633727531 -0.107815654621158 0.12348473604665611 -0.10703378547971114 -0.11088754762408208
0.001391598777594825 -0.007128797219547737 0.014890539017640791 -0.05287021152404681 -0.04337115671063477 -0.019129299708293416 -0.005388068334953038 -0.010229717188967995
-0.0532413804901766 0.04045044986946646 0.019149798437366538 0.046769620839356915 -0.09219334461573145 -0.02062052425231569 0.018653607576373386 -0.07005100097868205
-0.04307442675414089 -0.07026880607008962 -0.026055835888278117 0.019798242122792877 -0.044379892069571665 -0.020551758399627734 0.09308291299636784 -0.01007337778391016
-0.0523835329408124 0.008471728506659164 0.04018696350380685 0.08219984685901364 -0.009416798952666278 -0.0664616008949377 -0.06499422037190795 -0.07582234618242982
-0.09912179629295723 -0.03781172338577961 -0.13214415246875463 -0.02311987375147146 -0.06348531417874055 -0.028262414422185276 0.008092656995872402 0.03292250225209241
0.08199931503860607 0.00043075710547221515 -0.004418984373574946 0.0012160794332232874 0.02603994898597168 0.012347246811388263 -0.035333334857351316 -0.043737429163002474
-0.010176170816304704 -0.014736446077592665 -0.017656499281890607 0.06891782387730805 -0.070389375049967 -0.08527796381498119 -0.014825825996339248 -0.0064968010141100195
0.058990271610428566 -0.01748499329871978 -0.09755459697995927 -0.05021618604326483 -0.031083582879852363 -0.012633872514708282 0.024642409545587045 -0.0978224130232985
-0.003160408051018588 0.030496882430258384 -0.11396611278183508 -0.059790127127247635 -0.031384416585459485 0.013099508296936308 0.014771650675381817 0.026984405736948058
0.02763048468078072 -0.07439165690070483 0.05672391320562345 -0.08977287865915726 -0.02027445005161883 0.051429141347534076 -0.0001549207418861756 -0.0850710935416176
-0.11076731337348378 0.10524091273764241 0.06664051753248315 -0.06791507126470098 0.011297963458775033 0.03966761389839536 -0.06046795310302444 -0.12422596266807596
-0.0044763699408186634 -0.10265454962527691 -0.11357007921566176 -0.014941884793797692 0.027189359980690685 -0.0700327530853119 0.04057472308380714 -0.004781972728610956
0.05537820815087787 -0.18620052483752222 -0.14522120263775443 0.11340694636316026 -0.10626574461470902 -0.14950307147463962 -0.04968263320841472 -0.14315333269483396
-0.021387112640430018 0.05149404312972764 -0.013610895284049422 -0.051289670147461164 -0.07236519632248793 -0.06069195959914848 0.030642181542612598 0.03483850439654974
-0.07740417645488286 -0.02473917475566793 0.006711495404614817 -0.12519851552125283 -0.009922032557329341 0.09632228852678718 0.05174119769481242 0.0396741402397403
-0.06058770477669388 -0.01564738306992983 -0.06249209549306369 0.060316308674291795 0.011623276933886317 -0.04267731356135748 -0.03132487762624557 -0.04468480779052727
-0.043125527501351776 -0.06340135400612472 -0.0057819245331377864 -0.016234235222112352 -0.07494501296482535 -0.04272483478121838 -0.013535393704747762 0.008083550800176531
-0.039583948000318 0.06166270651646685 -0.014322496207723912 -0.18005580036008312 -0.033514489110861544 0.07734447230534408 0.10630342065781173 -0.017345202300482563
-0.05720340353826177 -0.05105777889462068 0.014510592668637103 -0.086222540744445 -0.02790800023065641 -0.0007804229810922659 0.027045928235308617 -0.03883965116743117
-0.02204158670993214 -0.053582204345770226 -0.05953989146283327 -0.08529166205540059 -0.1900221354431227 0.05915867033236123 -0.04518987831990302 -0.03440910722849188
-0.013919043434183235 0.002104364668576016 -0.03135698076212509 -3.0452777736852444e-05 -0.018143153031144 0.013433344537042287 -0.04085252225288931 -0.025376995107080563
-0.05288991181875467 -0.13709689166053013 0.13632564837217256 0.06176774178155835 -0.01179239374736992 0.014642704349372612 -0.015354502893093912 0.006304962233719703
-0.09266231355243772 -0.022938780896240876 -0.025387883501354142 0.016742353435634093 0.08171743331377532 -0.01436480027880907 -0.06662897336447164 -0.0306939606020117
-0.09140380684364358 0.03885856163000999 0.07199521106912898 -0.10757348871611765 -0.05795015483530988 0.01804395836227376 -0.07899470219850126 -0.03877848475779261
-0.04170099954471593 -0.034932617978272754 -0.022339308012417316 0.028355542988148977 -0.03661446037654364 -0.05283161787022609 0.01904475405240977 -0.01960896374481143

weight f8 [64, 129]
00000000: 1da7 ddf4 007e 96bf a9ab b676 c593 903f
00000010: 22ca bb2c 4b63 b3bf fe1b 91bf 7b38 c6bf
00000020: 9552 71c4 b43a b53f 02cc f0ae 01af 96bf
00000030: 4e3d 54f8 eb85 bf3f abe5 169d 9a85 953f
00000040: 6aaa a4b3 5eb6 90bf c530 9825 f0ba a93f
00000050: 8b6e 34bd ab44 993f 50e5 cb52 5ba7 933f
00000060: 9817 1286 7c1c 76bf 46c6 eb11 92d8 a4bf
00000070: a762 ca2e 24e9 c7bf 6fa1 858a 0c2d b13f
00000080: 7995 1ace 1968 c03f 113c 41b4 d3cf ae3f
00000090: 4f95 ed2b ff92 a3bf d067 a20c 2e90 a9bf
000000a0: b25e 010b e89a ae3f b838 e264 f8d3 b1bf
000000b0: 89b4 34df a76f c1bf 108f 9cb0 1220 a7bf
000000c0: fd3f ef8f 2d73 b0bf 4d7c 6216 0c08 ac3f
000000d0: c003 278f f072 c13f 907f 0db3 6ce8 993f
000000e0: f959 8190 90f8 933f ff67 b05a 0499 443f
000000f0: e420 9e87 4218 a9bf c5a6 f4d6 c9b8 b13f
00000100: 2be9 7db4 eade b0bf b7dc aba7 7c90 aabf
00000110: f424 b129 69cc aabf 1580 d57f 8041 b63f
00000120: ec83 8dd4 1ce6 c0bf d195 9afa c72a b73f
00000130: 95c4 fc0e 502a a83f b060 381e f9da aebf
00000140: a3a8 388f d0a5 b13f 43cf da45 9191 9b3f
00000150: 2cba 5dbb 25c6 333f d70c d192 9891 b33f
00000160: e4a0 42bd 4069 b3bf cf3a a498 45fe ab3f
00000170: eb7b 8ba7 ce1e 81bf 2e44 0c1e 7ab4 a8bf
00000180: a51f 36b2 55df b53f 957d e27f 5497 afbf
00000190: 778a 9056 2da9 b93f eace 656c e2e5 c13f
000001a0: 4d4e 0b04 2f38 b13f 8cf3 9851 cdff 85bf
000001b0: 9776 3f73 52d3 a63f 2a98 d646 ecd6 a83f
000001c0: ed80 b690 591e 863f 804c 7ed8 0865 a53f
000001d0: 09db 05d5 cf0a a3bf eb11 8b58 689f ca3f
000001e0: 198b 2d6e 50ba 8a3f d251 8e22 9f5f bb3f
000001f0: c43c 9b65 180c c23f dedb ed56 e4a2 b6bf
00000200: 985c 8231 81d8 aa3f 182a cbbb 2801 b13f
00000210: 17aa 0a51 f0db c03f 64ea dbaa e4a7 bd3f
00000220: 01bc 4d4a 6d47 953f c14a 8ab2 418a 913f
00000230: e65e 47a1 847c c33f c009 36ae 5e0e a83f
00000240: d916 c41b 5eb7 a6bf efdf bc7b da31 a7bf
00000250: 35e6 996c d428 ab3f abef 25df adb9 bcbf
00000260: 202f d7bb 0539 aabf a44a 7fe2 d011 9dbf
00000270: aa33 629e acb8 ad3f f369 4f6f 5fd7 a93f
00000280: 2a79 b31f c9d5 9abf e51e 3942 c400 bdbf
00000290: 0609 7b69 e62c a33f 4f16 d82f 140a 85bf
000002a0: 9fa3 472e 2ffe a13f fd4c acff 21a3 b6bf
000002b0: 19f8 e9c2 dbe0 883f 21bd 8228 61c3 9d3f
000002c0: ac6f 3732 2abb 623f 9ab5 172c fdef a03f
000002d0: ebaf de1d 53ef 9ebf 609f df30 de39 b8bf
000002e0: 9074 7b7b f6f9 b0bf 335a 66ce 526e 81bf
000002f0: ded4 0068 fd52 b73f 8463 ee1e 11ab aebf
00000300: f50c d57b c5ac a13f a0de e8c0 31ce b4bf
00000310: 8ccf 9abf cc6c babf de74 8d45 d6ad 9b3f
00000320: b9e8 576a 7a77 a73f 2f43 d408 5e65 b0bf
00000330: e77e 0555 5ee4 ba3f e234 9754 e9a1 b23f
00000340: c959 7019 046e c0bf 9b13 9056 c4db ac3f
00000350: 4fd9 5981 012c 9e3f 7dd0 869c 86df 96bf
00000360: 49b8 2a11 2413 b8bf 9e8d b240 2ae3 b6bf
00000370: d25f c0ea f91f c4bf ecc8 9656 71d4 b0bf
00000380: 3e0d 34cf f5b1 953f a0eb 66bb e9bd bc3f
00000390: 12c0 8f19 c74d 973f c31b 820a a944 a8bf
000003a0: 3735 4315 e123 a93f df58 204f cdfc bebf
000003b0: c473 4764 b56f a8bf 5eac 8a47 f2e5 6fbf
000003c0: 3c1f 656c 09da c2bf 77f5 94a4 3ecd a1bf
000003d0: e2e6 9286 1ce1 ad3f 1ca7 1f62 a17c c4bf
000003e0: 20c9 9b5f 4f4d a5bf 9f11 1e0d 7c05 9d3f
000003f0: 56e9 1feb e9b4 84bf fc11 0b17 5e00 a4bf
00000400: a35a 8542 550d b73f b1ec f469 c143 923f
00000410: ad10 bef1 76d0 b0bf 5c75 8e67 6285 9bbf
00000420: 64c8 8083 755f babf f033 62c4 396e a73f
00000430: b773 407b 54ac a5bf bfa1 4b89 d696 babf
00000440: 7062 b21f 5cff c2bf ad15 dc71 4529 aa3f
00000450: 7aae 1f32 fe69 c2bf 4a50 8b66 1a0d a7bf
00000460: 857a bf3b 269c acbf 72b8 d0cc 5d0d 913f
00000470: b8eb 2b71 8aef 9dbf cf3e a5c2 375d aabf
00000480: a3ab 70be 3b8c 96bf 6ba2 b36f bc75 6fbf
00000490: d11e 4239 e5b9 a3bf 6816 1544 e388 953f
000004a0: ab12 7c6d aac4 b5bf ca98 cd1c b8a8 a93f
000004b0: 16a1 9845 deba 98bf 7b10 efea b100 a43f
000004c0: 8784 5481 eae6 833f 12e8 5b74 3e10 9abf
000004d0: 8efa faa3 9704 9b3f 447f c623 9a02 bbbf
000004e0: 2dbe e339 747e 8dbf a3dc 7c20 94c6 b0bf
000004f0: 419b 4664 6dcc a6bf 0af6 e5a3 19ac b23f
00000500: befa 840c f591 babf de2a f98e 2721 b0bf
00000510: 9560 1b43 d7eb a43f 626f bb77 b804 813f
00000520: 9005 bb3a 1b21 b2bf 1d0e 48f6 a928 97bf
00000530: 938a 5ad4 6a3b 91bf 27c5 3768 4e7b a03f
00000540: b0e0 992f 72ae 9abf 081d 69aa 071d a2bf
00000550: 1c0d e7fa b328 923f 73e2 89a0 359e b0bf
00000560: a934 402a 4882 783f 2682 23e5 b7e7 a7bf
00000570: e6f8 0001 83eb 8e3f cd0f d909 088d b1bf
00000580: d6c2 3764 0473 a4bf 8612 3c18 ce24 9cbf
00000590: 3ea2 41e0 4e9a b5bf 2c1d 9ad9 c0ee 95bf
000005a0: 5add 18a8 8ea1 a7bf d231 4adc 0bcb 663f
000005b0: 69d9 cae1 dcdd b2bf 3b88 5e9d 02b6 90bf
000005c0: 5a20 55f2 b364 9bbf e4d9 d34d 3237 a73f
000005d0: 9b37 3235 f1d0 9cbf 0a25 330c ad59 623f
000005e0: 071f e18b d78e b2bf 94fb 3a99 a772 b13f
000005f0: 3d68 fba7 8303 8d3f b8aa 90c8 d3ec 62bf
00000600: 96f8 1742 1cc5 b8bf 4644 a810 2762 a9bf
00000610: 94f4 8322 2ebd b7bf 2d05 f54c 2008 a0bf
00000620: 60f4 a527 78ad b3bf fe72 4be4 cfb6 a1bf
00000630: 8842 703c cb6a a1bf 8474 b436 87e7 c4bf
00000640: 1678 3f99 6772 96bf 513c 7b10 a611 c4bf
00000650: 35a6 074a 5cde b6bf 0168 02c1 e90a 90bf
00000660: 8acb 4af0 207a acbf 71af 38db 4230 9f3f
00000670: 5308 e505 0e83 943f 757a 6c89 8b42 a8bf
00000680: 6885 0e28 4caa 873f 8676 13cb 16fb 5dbf
00000690: e88e 47a4 9cde 91bf 61b1 355f 6aee bdbf
000006a0: 852d d89c e25e ae3f 8679 cbc5 5bde b9bf
000006b0: acd3 1519 2eb8 b8bf ab79 b91e af7e 6c3f
000006c0: b4dc 24b0 b742 78bf 2595 ea9f 9663 b5bf
000006d0: 25c9 b2c8 ed01 9f3f 78c9 0428 9fef a6bf
000006e0: eaef d8a4 40c2 a13f 06e1 a3c4 4db8 b33f
000006f0: 0c55 29ed 9931 a13f 4ec2 64dc eaff b23f
00000700: b385 8238 603d 94bf fa0c d9df 2b0f bdbf
00000710: 96f6 eaa4 251c bfbf 3ed5 3f67 5d13 bcbf
00000720: e1d9 519f c116 533f f52d 4fac f48a b7bf
00000730: 32b5 e91f ee9c 9f3f 8f36 b206 e9c7 a8bf
00000740: 8825 243a d94f 803f def1 399d 2c24 bebf
00000750: 4ed5 9a55 6345 afbf 3246 03a1 6bc4 a83f
00000760: 13da fdf6 ab85 8fbf b74c ddd2 37f5 b3bf
00000770: 7e6d e451 5a9e 813f ff2e 3ad9 0640 b83f
00000780: 85f8 d743 603c 88bf 78a3 cc90 b3da b43f
00000790: 716f c3e2 7b73 b1bf 33c0 2786 4591 9fbf
000007a0: 04ee 9d61 0e78 8a3f ab35 a623 e316 af3f
000007b0: 5a22 7c71 58a6 a63f 77a7 d4e4 1c7d bebf
000007c0: bbb4 9042 8e07 95bf 5671 4e79 2fc7 b3bf
000007d0: 1387 e98a c54e 4cbf b362 5b51 89bf a3bf
000007e0: e65d 2046 d85f b7bf d78f d555 13a7 b4bf
000007f0: da5e e8c0 9afd a3bf 807e c684 0b43 b6bf
-0.02196504110853602 0.016188702936840525 -0.0757338508808876 -0.17359873632287298 0.08292703433955702 -0.022151972105529445 0.1231372338554497 0.021017471158960948
-0.016320686068107916 0.050254349316760684 0.024676021025796174 0.019193102768416737 -0.005398260517841445 -0.040714802444096906 -0.18680240902610487 0.06709364301571495
0.12817690433181975 0.06017934394241576 -0.03823087130767055 -0.049928130190167175 0.059775592177797945 -0.06964065993290347 -0.13621996306156728 -0.04516657262709434
-0.064257476463581 0.054748895390041775 0.1363201807962735 0.025300692013274395 0.0195028866004012 0.0006285926114089068 -0.04901321321000454 0.06922589776936679
-0.06590144068278352 -0.051883597819988685 -0.052340780581809826 0.0869369804472629 -0.1320224798064652 0.09049653881319066 0.04719782050086355 -0.060264382304184294
0.06893638130773865 0.026922483337968883 0.0003017274969953378 0.07644036850347234 -0.07582478161441802 0.0546743153409942 -0.008359541404784529 -0.04825193039699403
0.08543906784882312 -0.06170143185704117 0.10023768771547191 0.13982801716667065 0.06726354454740964 -0.01074180989518838 0.04458100945315129 0.048514732024429755
0.010800075272357346 0.041786457469378924 -0.03719186282517312 0.2079897339191484 0.013050678598749909 0.1069278201451376 0.14099411927461436 -0.08842303392690051
0.05243304948197042 0.06642393669896085 0.13171199757682991 0.11584309741366777 0.020780284557471166 0.017128969690541455 0.1522374904150105 0.04698463322258162
-0.04436773384990795 -0.04530222664328664 0.05304588151643622 -0.11220823953584495 -0.05121629636741276 -0.028388274978918063 0.058049578031478546 0.05047128900305955
-0.02620615249622308 -0.11329294792914942 0.037451935173082915 -0.010273130140386359 0.03514239730777224 -0.08842670909898583 0.012147633443643046 0.029065626237465673
0.002286512770053725 0.033080970413588776 -0.030209826181518833 -0.09463299458695706 -0.06631412996962838 -0.00851120655424351 0.09111007489339637 -0.05989888670519064
0.03452126633285416 -0.08127127608974627 -0.10322265317773666 0.0270303230239407 0.04583342121255058 -0.0640467425876181 0.10504712653846192 0.07278307261659081
-0.12835742227680516 0.05636418873476786 0.029464744110066218 -0.0223370583568827 -0.09404206675637385 -0.08940376357582244 -0.15722583734964118 -0.065741618766683
0.02118667676132912 0.1122728426479811 0.022757636008407252 -0.04739883664392821 0.04910186180641534 -0.12104495221896937 -0.04772726868734581 -0.0038938266773889526
-0.14727895539021485 -0.03476901778274571 0.058358088901014474 -0.1600534180754999 -0.04160545389267356 0.028341234493852615 -0.010110690582213405 -0.03906530410089101
0.09004719614072569 0.017836591808401085 -0.06568091775813185 -0.026876008577905494 -0.10301908932231779 0.04576282999287418 -0.04233039860284953 -0.10386410571994185
-0.14841796443649313 0.05109612479104029 -0.14385964820336367 -0.04502184392700366 -0.0558788249907041 0.016652551294264524 -0.029234088094181238 -0.05149244547885489
-0.022019322870771806 -0.0038403206250346342 -0.03852764438584944 0.021029997854631693 -0.08503213093724564 0.05011535026169296 -0.02415034580022376 0.03906780236096182
0.009717781135409232 -0.02545259080122981 0.026384705909317456 -0.10550845502302503 -0.014401348129893321 -0.06553006928594356 -0.04452840661115554 0.0729385399954127
-0.10378963046694431 -0.06300589790877661 0.04086182302643341 0.008309785036025811 -0.07081766303874404 -0.022616058022334785 -0.016828221522369246 0.03219075224104478
-0.026056083827342646 -0.035377730896067716 0.01773339480292889 -0.06491408509635636 0.005983621496864413 -0.046689745636971744 0.015097640483983498 -0.06855821838786298
-0.039940011247272686 -0.027484150151411167 -0.08438580489167521 -0.021418584138271843 -0.046154459018391505 0.0027823669100312887 -0.07369785797604823 -0.016319313864763024
-0.026751338640025636 0.04534299087565666 -0.028140801307521817 0.002240026458456006 -0.07249209561370772 0.06815574160553545 0.014166859210878008 -0.002310193671765628
-0.09675766576399022 -0.0495769698937996 -0.09273041098272677 -0.03131199778955316 -0.07686568229651547 -0.03459787046242545 -0.0340178977277264 -0.16331567927491986
-0.021920794228087535 -0.1567885952449353 -0.08933045203561892 -0.015666630177840094 -0.05561926778081901 0.030457539205755283 0.02003118430116786 -0.04738269856010372
0.01155528542750757 -0.0018298838224874172 -0.017450759436441837 -0.11691918205696573 0.05931766666989361 -0.10104917124724552 -0.09656036484177716 0.0034783764183849617
-0.00592300179623988 -0.08355084804732778 0.030280795454651916 -0.044796918521018136 0.03468515407845969 0.07703100252900094 0.033581552696583555 0.07421749001219632
-0.019765380333984072 -0.11351274695430283 -0.12152323986353006 -0.10967048426376366 0.0011650935023489394 -0.09196404654283426 0.030872078607378124 -0.04840019423236896
0.00796479901011328 -0.11773947561773165 -0.061076263618284984 0.04837356892097623 -0.015391677355848043 -0.07796048067148119 0.008602815269617588 0.09472697070503598
-0.01183390814821573 0.08146211896077016 -0.06816839491096773 -0.030827604592502843 0.012924301485091945 0.060721490956989164 0.044237865307938676 -0.1190965708416608
-0.020536635220356852 -0.07725807868559306 -0.0008638825000384119 -0.038570681744834266 -0.09130622589179146 -0.08067437024652634 -0.03904422383146562 -0.08696052543245436

weight f8 [16, 65]
00000000: dadf cf38 6ae1 a13f 6d9f 7bca cd30 bbbf
00000010: f56c c1fd 8366 adbf 4def a8a4 706f b2bf
00000020: 62f7 7a74 f8d0 a6bf b68a 1d35 780c a73f
00000030: de7a b103 0784 babf a98d 2b68 e85d c1bf
00000040: 5c4c 0431 fe67 90bf 51be f735 d605 69bf
00000050: 9e10 65e4 b26a 8ebf f878 4234 5817 d3bf
00000060: 5748 ac08 4d95 bcbf 7f41 b0b6 f979 9a3f
00000070: e68e e54f d5f8 b3bf 0e64 ddc9 ac37 a53f
00000080: ec70 9bd9 4677 723f eb07 996b 7e96 9abf
00000090: 539a 5118 d8bf 91bf 6c5e cf3c 872f bbbf
000000a0: 3895 5bcf 8807 b9bf b1e0 0560 c5c7 9dbf
000000b0: 82e9 714b fd3e a7bf b154 824b 5520 a3bf
000000c0: 422c ab75 2147 a03f 6f0d 48dd 2e14 a4bf
000000d0: 4e34 48dc 7ca7 bcbf 05b3 9c27 c91c c0bf
000000e0: c697 1a89 062e a83f 8546 139c cfd4 a5bf
000000f0: e96f 1908 bb0a 9bbf b2c5 d953 32cd b0bf
00000100: eb0d 1143 9060 983f db6f c6be 2603 b7bf
00000110: 801f d1ee e944 cebf 6b4c 1d76 8fac b3bf
00000120: 5d8d 8463 d493 a4bf dfd6 ea2c 1b4a b03f
00000130: 2be6 2951 1524 b3bf ffac a29a af3f a63f
00000140: 3dae ce9b 68d7 c63f fde9 5569 3a6a b23f
00000150: 6271 ae51 2f88 b63f 1ea4 d6ad 3647 88bf
00000160: da88 3338 c70d a4bf de6a e69c fc30 a8bf
00000170: 1629 49e5 972e a1bf 6cd2 f5bc 5994 a0bf
00000180: 7119 51b4 26c9 a8bf 1668 ef57 42ef b7bf
00000190: 1dbc c4f5 9a12 aebf 7755 2c6c acc4 acbf
000001a0: 6466 62bd e1d8 923f d916 22ca 9e1e a73f
000001b0: 9567 d492 ed73 cabf 3a3e 3c43 ee21 a63f
000001c0: 971f 9ed8 e534 a63f b2cd e699 ba5e c1bf
000001d0: 0d74 970b 8483 b8bf b5e8 fb4c b89e c03f
000001e0: 98d0 df94 2121 a8bf e6a5 e801 36e8 bdbf
000001f0: af0e 0236 c5b0 bebf 2303 eab5 040d a7bf
00000200: e978 8446 4e6b c9bf 444e 7456 670a 98bf
00000210: 9b7f 8083 bb49 acbf 4b93 f11e 9abf c0bf
00000220: c397 aeae 89b3 babf 7a4c c895 9eb3 b53f
00000230: a550 40c3 6146 a83f 754a 90fc 525d 8f3f
00000240: a864 5930 5bf9 b8bf 1193 e56e f3a1 a1bf
00000250: fdda cc8a 3ace 44bf eef5 f142 8f7f a7bf
00000260: da1d bb2f 4191 bb3f f46b 0845 5232 a5bf
00000270: 524c 05e0 a3cd b5bf 2cf8 49da fcdf cabf
00000280: 1961 100e d9ae b8bf 2e9f 62d6 ab95 c23f
00000290: f455 19b0 980d c0bf a8d1 d648 ac25 ac3f
000002a0: a8a9 fa83 e0c1 b03f 751f 5de4 d65f bd3f
000002b0: 38d5 cc82 12d4 b0bf 5653 3edd 825a 803f
000002c0: 19ea ab67 9281 c2bf 8737 f651 70d8 cf3f
000002d0: cf79 9f17 858f b23f 32fc c667 60ab c2bf
000002e0: bf24 616d c2dc 71bf cbb8 ac1e 6858 bd3f
000002f0: 837b 62ff b725 a73f 078b 87ba 344d babf
00000300: f98a 44c5 5a0b adbf 7556 3ae0 8fbc b7bf
00000310: a5f1 ef41 f2e3 c4bf 8d48 a284 b9ac b1bf
00000320: 383a 4d59 a330 b5bf a46f ffe3 938d c5bf
00000330: 5f13 842d d039 b2bf 9f88 358b 219e b6bf
00000340: 1b65 0b74 869c ccbf 789a c995 e736 a13f
00000350: 070d e946 287a 9dbf a626 b453 0e6b 813f
00000360: 60fb 77e3 6e02 c03f 69e5 12e9 4bdc afbf
00000370: 59e0 6e4f e38e 913f a419 b7f4 d54e b03f
00000380: 5704 352f beff afbf 25d2 5508 b020 b23f
00000390: acbc 6070 cf2d bcbf d233 4890 89bf c2bf
000003a0: b936 94c6 b34d b33f 6b79 242f db8e a4bf
000003b0: d153 2eef 45b4 b9bf dd2f 0f6a 38cf 66bf
000003c0: 8100 c007 2192 5c3f f6ef 28d8 8214 b7bf
000003d0: 84d9 7ccb eac0 b53f bda1 a57e c006 bb3f
000003e0: cff0 fe75 fd5c b1bf 261f c44a 6082 c93f
000003f0: 5f94 4d44 ece4 a1bf 61dd 6663 5e90 b13f
00000400: 922b 8a42 bc2d b6bf 7b69 a3df 74db b73f
00000410: 8f34 7f7a 9283 bd3f 5da1 7b0d e90f 93bf
00000420: 0ad3 214a 53f0 a73f f855 9e65 8baa d13f
00000430: 6ba1 f519 dc77 bf3f 3b51 1144 849a a5bf
00000440: 70b6 f403 ddc0 933f 98c1 2177 8b99 58bf
00000450: b501 8b4b 5fb6 bd3f 1f32 b4ee 09e5 b53f
00000460: 776f eca7 42dc a2bf 2ad7 35b4 7da2 adbf
00000470: 013a cb1c 1df0 d3bf b33c 1086 3cd4 b1bf
00000480: eff6 3cbb 823a 8fbf 9d03 7694 9d8a c13f
00000490: 69d8 ed48 42e6 773f 8a2f f7b3 21fd b03f
000004a0: 991a 9b8b 34e4 bd3f 821a e30c fddb b73f
000004b0: b4b8 c8ee c6da b73f 897e 4c4d 4dfd c53f
000004c0: 93bc 819c 3ef6 b23f 5b1a cdbd 58b0 b73f
000004d0: f56c 6143 f483 c83f 266d db4a fd73 b23f
000004e0: d963 8bfe e9e4 c8bf 6f1a 8a38 45c6 c13f
000004f0: d2c9 7f91 2a6e b7bf e325 874e 2832 b13f
00000500: bd01 dcf8 bff4 b4bf 6087 676f 2d77 c43f
00000510: 8c45 2f2a d228 a4bf 7372 7f1e f89c bebf
00000520: a803 04cb 2b7a a6bf 8a2b 027c 9834 7fbf
00000530: 3f05 a85d 7874 b4bf 2af6 c6c5 b453 c33f
00000540: 51e8 2166 2082 99bf e786 064f f792 b5bf
00000550: 9be7 ebd2 886e a0bf c071 cca8 39fb b5bf
00000560: e5f5 ea96 1c2a 923f 2d17 a46c 2d88 b13f
00000570: ec85 192c ab35 b23f 9627 f368 e1cb a73f
00000580: 30ed 95a8 3a56 af3f 20b6 36d1 361c bf3f
00000590: 5234 3fdf fa3c a03f e0ea 9215 c97a c2bf
000005a0: df01 9614 2d67 b0bf d5ff 9891 d909 993f
000005b0: d8c1 b214 50e0 a23f f7fd 3ad7 813a b2bf
000005c0: efdd 45cb 60e5 c6bf cc94 c998 cee1 c03f
000005d0: 4a78 f4ca 7962 aa3f e72b 37fb 4c7d c23f
000005e0: e407 b13c 90b9 b9bf 260d 0bea 4123 b2bf
000005f0: 6530 ab57 3fde be3f 574a 96b6 b5dd c53f
00000600: f202 f941 1f79 aabf 49e4 ba85 40f2 c1bf
00000610: 4f95 8edb 36ee bf3f a8c6 e688 0505 98bf
00000620: b35a d844 6c9d aebf 5cca 10e2 06c9 a2bf
00000630: 5610 9766 8d1e b6bf f29b 9154 3772 b5bf
00000640: 4f6c 8437 88e6 9e3f 5a23 7d6f eb81 a23f
00000650: 25f9 fc12 27c7 aa3f 764e 3386 8b73 7d3f
00000660: 05b9 ebc5 6262 afbf 34ca e3d7 fa5f bdbf
00000670: 59f0 fad5 4be2 66bf d278 bbd6 407b b1bf
00000680: 0774 0366 6a36 acbf f5f3 5f31 9921 bbbf
00000690: 81bb b509 09c2 bc3f c7fd 2a6f cab7 b13f
000006a0: c393 13c3 96ca b9bf fe65 ad4d 62a9 a3bf
000006b0: c595 20e1 0bb3 a6bf c797 6d1d 43c9 bc3f
000006c0: 4112 bd23 ee01 c9bf d9c0 5ebd 7616 c0bf
000006d0: b15e e89e d472 9cbf c582 9574 3411 b93f
000006e0: b7e2 aade bb6d b4bf 242b 4ef4 d838 c4bf
000006f0: 118b 2ca0 db64 c3bf 49a3 8d0e 0dc6 b03f
00000700: e349 1163 a95a b0bf 0210 1450 8973 7bbf
00000710: 224e ebc3 8936 c6bf 610a 2ab9 50a7 b23f
00000720: c00c 1ac8 3669 78bf 7f5a 66b2 528f be3f
00000730: 04a2 5bff 509a b63f 2eab 5264 c2a6 babf
00000740: dcad f656 99a6 b7bf 786a 7ac0 c7e8 b73f
00000750: 2701 d7aa 80d1 d2bf c976 a004 efb0 bc3f
00000760: a5dd 1ae8 3539 a0bf 9556 6b30 7148 a8bf
00000770: 89ca abcd 3b67 cbbf 4133 0585 5fa1 a13f
00000780: 4fa9 d9d1 edab 663f 6aa6 20f9 2d4c a83f
00000790: c79e 9533 c2d7 b7bf c40d 6c8a 02c0 b2bf
000007a0: c74c 6057 fb4c b2bf e852 5ca0 362f 6fbf
000007b0: 6383 09ed fcd2 d6bf 2417 a35c 078d c43f
000007c0: 0e5b 910d 6526 cbbf 361d 2a73 cba1 b5bf
000007d0: 0367 bbc6 03fd a1bf 3b9c 1eed bd26 c2bf
000007e0: 8753 2345 8446 c93f 0e22 7ceb 3252 a13f
000007f0: 3452 1c43 e5e3 943f 68b6 fe6d d5e6 5ebf
0.03492290442949271 -0.10621343797140322 -0.057422756887456496 -0.07201293964402318 -0.0445630685985481 0.045017010196507654 -0.10357707824867243 -0.13567833982879776
-0.016021701566455313 -0.003054540997019996 -0.014851949305587472 -0.2982998380993105 -0.11165315114729545 0.02585592439214812 -0.07801564407923997 0.04144039119882602
0.004508282430574644 -0.025964713399169097 -0.017333389744090443 -0.10619397387142165 -0.09777121603436434 -0.029082378373886445 -0.04540244623145197 -0.03735605761281969
0.03179268418679061 -0.03921648455800663 -0.1119306600378007 -0.12587847170052427 0.04722614692336395 -0.042639243890914925 -0.026408121461244525 -0.0656310515130574
0.02380586060850291 -0.0898918357619886 -0.23647808228474432 -0.07685181268361567 -0.040190350673834564 0.06363077017416739 -0.07476933700117942 0.04345463526382253
0.17844874961643767 0.0719334132353779 0.08801551574874147 -0.011854579143646456 -0.039167619333754636 -0.04724873938831363 -0.03355860399149628 -0.032381824795184894
-0.04840966178066964 -0.0934945549664977 -0.05873569727042869 -0.05618799992059114 0.01840546339426509 0.04515548913427176 -0.20666284245890823 0.04322762079948146
0.04337232846506749 -0.13570339693761252 -0.09575677187918093 0.129843747701505 -0.04712777082741687 -0.11682450815774068 -0.11988480156474667 -0.045021197515785503
-0.1985872120212158 -0.023477186824562915 -0.05525003414390924 -0.13084723006172747 -0.10430202974984497 0.08477202564999856 0.04741197117269395 0.015314720471029756
-0.09755487375641059 -0.03443871239395525 -0.0006349359369782478 -0.0458950776310124 0.10768515982919472 -0.04139954655348524 -0.08516906947379368 -0.20996056231155202
-0.09641796677931715 0.14519260376004567 -0.12541493033010875 0.05497492207669846 0.06545832845828292 0.11474364352500095 -0.06573596661913406 0.007985136391462849
-0.14457922041022256 0.2487926864818599 0.07250243975383984 -0.14585499827623633 -0.004360923272608007 0.11463022946256556 0.045209646153344905 -0.10274056962911625
-0.05672725351384673 -0.09272097801507491 -0.16320636958688542 -0.0690418194592743 -0.0827734082242636 -0.16838310845093674 -0.07119465934017687 -0.08835038803730065
-0.2235267702697364 0.03362201407872062 -0.028786305740379905 0.008504974297938016 0.12507425410145867 -0.06222760410441703 0.01714663669892533 0.06370293831341783
-0.06249803854235186 0.07081127360817925 -0.11007400983429488 -0.14647025628110427 0.07540439222449437 -0.04015240622014712 -0.10040700044039787 -0.0027843572465595504
0.0017438242493881542 -0.09015672471372213 0.08497493236504822 0.10557177631347421 -0.06782516604193066 0.19929126406372538 -0.034949668252729486 0.06860914160539756
-0.08663536667351782 0.09319239101333736 0.11528888216635579 -0.018615380714352415 0.04675541191037354 0.2760342113845975 0.12292266496445385 -0.04219449358848456
0.019290402761888037 -0.0015014516798395935 0.11606402963935276 0.08552610471469578 -0.03683670329902971 -0.05788033318360271 -0.31153037845516 -0.06964472077401034
-0.015248318995527891 0.13704271077224642 0.005834826398190975 0.06636248248758939 0.11676338585230396 0.09320050778033287 0.09318202333153885 0.17179266237598181
0.07406989403692625 0.09253458627527193 0.1915269211775478 0.07208235814635042 -0.1944859021084813 0.13886323223796945 -0.09152475406862173 0.0671715919226226
-0.08185958696049674 0.15988700809162548 -0.0393739391798916 -0.11958266014648604 -0.043900841266810986 -0.007618518488139334 -0.07990219389468665 0.15099200875367674
-0.024910455926580536 -0.08427377394994161 -0.03209331106877685 -0.08586464282092887 0.017738768302242653 0.06848415281646388 0.07113141848233057 0.046477359830148376
0.06120475109033874 0.12152426345593215 0.031715240241830714 -0.14437211564457808 -0.06407434227549612 0.024451636802268546 0.036867620970386816 -0.07120524887704237
-0.1788750641387504 0.13189108333896227 0.05153256037213845 0.14444887415297034 -0.10048772317625737 -0.07085048641151967 0.12057872667645737 0.1708285466707646
-0.05170533829050851 -0.14020544557368655 0.12472861156728253 -0.023456655960848366 -0.05979479160685255 -0.03668996343221373 -0.08640369181290572 -0.08377404989879247
0.030176285160546986 0.0361474584192993 0.052300664012806565 0.007190270439611282 -0.06129749933266918 -0.1147457863878934 -0.0027934533280511817 -0.06828694574821562
-0.05510265822679377 -0.10598142104568338 0.11233574378068846 0.06921067441998395 -0.10074751150712218 -0.03840167234620749 -0.044334765654905385 0.11244601696452526
-0.19537140603110184 -0.12568554159725556 -0.027781793784099566 0.09791877599992478 -0.07979940592020794 -0.15798484734508478 -0.15151543923374125 0.06552201848320495
-0.06388338726654967 -0.006701980951451249 -0.17353937212338716 0.07286552925692426 -0.005959714880762579 0.11937443595375362 0.08829218134236078 -0.10410704564371251
-0.09238584874281436 0.09339569520163049 -0.2940370243413945 0.11207479346236505 -0.03168648203193961 -0.047427689705427024 -0.21408793966800868 0.034434304225760666
0.0027675290028145515 0.04745620409114511 -0.09313596495996555 -0.07324233893819271 -0.07148714907843888 -0.0038066927835508253 -0.3566276850524927 0.16055385611814998
-0.2121092144249918 -0.08450004159577848 -0.035133474358827875 -0.14180730894187996 0.19746449828985765 0.03383025288173168 0.02040060255156302 -0.0018860897325611251

weight f8 [1, 17]
00000000: 6528 a092 2dbe 9cbf 85f7 16a5 a8c2 cb3f
00000010: fc05 1553 5b1c bf3f c597 5eb6 6163 b93f
00000020: 56d2 23cb bc25 c03f b81e 7c84 f181 ba3f
00000030: 461f 0b8e 1002 b03f 1655 d302 a9d4 a8bf
00000040: fbd3 5ab4 1cad c2bf 34a9 2d20 a129 c33f
00000050: 9a0a 26ea 5141 a23f e5dd 385b aa15 c1bf
00000060: 9896 e2b6 bee9 cd3f 415f 880d 02ea c7bf
00000070: f810 dd6d 2c02 c3bf aaf1 0e4b a7e6 b5bf
00000080: e505 6787 d93a b43f
-0.028069221567456632 0.21687801419278344 0.12152643946048863 0.09917269422893955 0.12615165633146103 0.10354527935498481 0.06253150432450835 -0.048497468562042
-0.1459079628599794 0.14970792838296065 0.03565460189112919 -0.13347367719846584 0.23369583063065558 -0.18682885800148522 -0.14850383152418778 -0.08555074293594225
0.07902297549937705
