Data/Breast Cancer Winsconsin (Diagnostic)/results/models/model_bcw_2/bcw_traced.pt (torch, 475221 bytes, 5 tensors)

weight f8 [256, 31]
0	0xbfcc41eee23b9dbb	-0.22076211973693013
1	0xbfc9dc0ea375e9d2	-0.2020281122348267
2	0xbfc85d069360a9e8	-0.19033891864940178
3	0xbfc8cb0967d4e083	-0.19369618959331455
4	0xbfb2e415b6a96d36	-0.07379279813306003
5	0xbf8c9c0058c20bc0	-0.013969423969916295
6	0x3fc55872aad0996f	0.16676171627586764
7	0x3f9ca30056a75c25	0.027965550698208958
8	0xbfce056324ed1044	-0.23453940680531293
9	0xbfbbbc8ee6ad9933	-0.108345919912243
10	0xbfd147162b1acb13	-0.26996378144683425
11	0xbfb03a649f09307e	-0.06339100725853261
12	0x3f6ad4f4be5d7279	0.0032753734730433495
13	0xbfa43482b382da1a	-0.03946312371538259
14	0x3fc0284a9136e395	0.1262295922331559
15	0x3fb445267e1074f5	0.0791801507734425
16	0xbfa3a38a17833128	-0.038357081766294876
17	0xbfa093bbdbdae82b	-0.032377119624883065
18	0x3fa6439669692ea6	0.04348440205339203
19	0x3fc3c50f4678e215	0.1544512838461435
20	0xbfcf54c844be8a49	-0.24477485043196825
21	0xbfad2d100245dd12	-0.056984424855665364
22	0xbfc186f1938c79a9	-0.13693065361526394
23	0xbfbe338debbfbd15	-0.11797415738668733
24	0xbfccb4a849a68c6f	-0.2242632255193686
25	0xbfcf6573d0d5d73c	-0.24528358170544518
26	0x3fbc7120cb5dcd0d	0.11110119786262747
27	0xbfd15d65dd42e826	-0.2713255558734339
28	0xbfcdfa213b20ec8d	-0.23419585597170958
29	0xbfc144bf1640ddee	-0.13491047464934475
30	0xbfc902a4823facdc	-0.19539314613152825
31	0xbfb0df91815b06dc	-0.06591138275237135
32	0xbfc7d6638347196e	-0.1862301245693731
33	0xbfa3a45e93d5f51e	-0.03836341433177835
34	0x3fb1e4394f95e5a4	0.0698886699009536
35	0xbf81696b8b8ab63d	-0.00850185412977133
36	0x3fb92efa36bd39bd	0.09837306820302323
37	0xbfcf131ef78b205e	-0.242771025534469
38	0xbfccc4adb00f8d4a	-0.2247521505042676
39	0x3faf45daf1ff42b3	0.061079828301108384
40	0x3fbad07a5642d794	0.10474361997589049
41	0xbfd22a7b1ab76884	-0.2838428269293518
42	0xbfc42c25551ae87b	-0.1575972238113684
43	0xbfc822f867ea3fe1	-0.1885672099492686
44	0x3fa8977a44bca290	0.048030682459573204
45	0x3fcaf1fabf9a0635	0.21050962787198704
46	0xbf911d1e4caae36b	-0.016712640218176682
47	0xbfb11d5f8ad43451	-0.06685444964769373
48	0xbfa5619892b311da	-0.04176022330060265
49	0x3fa8056372e7f1db	0.04691611077939558
50	0x3fc42ab89953cca8	0.1575537441891346
51	0xbfa51a9bd12276a7	-0.04121863296425703
52	0xbfd0b386007a2811	-0.2609572415027524
53	0x3f8cda0bcd09fb5c	0.014087764925759742
54	0xbf86083d22de0e58	-0.010757901789253996
55	0x3fc11620a6f5bb48	0.13348777916277244
56	0xbfc69409008cbf9f	-0.17639267470212602
57	0xbfbe2dab15e729e9	-0.11788434300175478
58	0xbfb4219a469a8623	-0.0786377355930417
59	0xbfb9bfac5b7dbcf4	-0.10058095201178557
60	0xbfd253c0dd402af7	-0.2863619003916677
61	0xbf8fdde9803ebfc9	-0.015559982515554698
62	0xbfda610525ef61bc	-0.4121716375789466
63	0x3fbcce9cd1c6a9fb	0.11252765771374833
64	0xbfd8ae4a86ef8f68	-0.3856378858310934
65	0xbfd781720f19a739	-0.36727572893743204
66	0xbf65853869799c0f	-0.002627000980101275
67	0x3fb8fd063c181fb2	0.09761084525246025
68	0xbfc59ddddf7b81cd	-0.16888020908574078
69	0xbfd5dd35eb4ec623	-0.34162662486332546
70	0x3f94a03bfe15ab2d	0.02014249552068319
71	0x3fcb152bfe8de115	0.21158361367611947
72	0xbfd3b34215e67100	-0.3078160489910857
73	0x3fb47e303eaaafcf	0.08005048303556282
74	0xbfc5f615804a4f04	-0.171572387353642
75	0xbfe12f11e27af20e	-0.5369958327715396
76	0x3fc1986868f020c7	0.13746361850667752
77	0x3faa583afdd568b1	0.051454394803572064
78	0xbfcc954bfb67d4d8	-0.22330617690719268
79	0xbfc4fb97e242ad97	-0.16392801807283483
80	0x3fc65207236ddbd7	0.1743782923692538
81	0x3fa41676c9b3e5fd	0.03923388683501725
82	0xbfd859404ac2321e	-0.3804474573196631
83	0xbfc4838e8121fb7d	-0.16026479058561086
84	0xbfd25b5cb97f65a2	-0.28682630648617125
85	0xbfd03c9be1c75495	-0.2536992745274998
86	0xbfcd5dfcad005a10	-0.22943075606663443
87	0xbfc0073e3a13e8b4	-0.12522104106739607
88	0xbfdffc79def8b0b8	-0.4997849156814129
89	0xbfdb9e19d4561df9	-0.43152471290565547
90	0x3fb21878647479fd	0.07068588688387219
91	0xbfb0e81371c55f48	-0.06604119804012243
92	0x3fa45d142b6974c0	0.039772634791668704
93	0xbfb777c3e5b4a91b	-0.09167122228669593
94	0x3fcc4f684ba4a3f4	0.22117332166206405
95	0xbfc6b25789a5abbf	-0.17731756421139086
96	0x3f78d47c28e3c1f4	0.006062016486098266
97	0x3fbf2526ff11b0de	0.12166064955971786
98	0xbfcb7fa4810ff9a8	-0.21483284284472615
99	0x3fcc5b80afcc7bb8	0.2215424402611157
100	0x3fb37cdbec7ccb4c	0.07612394832248731
101	0xbfb6e33fc07686ac	-0.08940504502109076
102	0x3fb4364535703488	0.07895309977193865
103	0x3fd70ecbedeb9db8	0.36027811273967414
104	0x3f70c3f4c3ac42fb	0.004093128309947454
105	0x3fd32343c07c6e2b	0.2990273837801591
106	0x3fd2cdc81be23f18	0.29380991671585965
107	0x3fc07dfcd9a89a64	0.12884483936177837
108	0xbfb884ddeec4ea33	-0.09577738837553156
109	0x3f8994087dbaa938	0.012489382111500733
110	0x3fb94af6e1f3dafa	0.09880011574191974
111	0xbfa619777828b051	-0.0431630453279871
112	0xbfcdc4b97f3286af	-0.23256605826195684
113	0xbfc5238e3574a211	-0.16514756784569376
114	0xbfc07b477108ec77	-0.12876217860489067
115	0x3fa5922dd84fcfbf	0.04213088288807353
116	0x3fcbc70aae8b8ad1	0.21701177141866038
117	0xbfa963715b0aff5e	-0.04958681331981894
118	0x3fb8737a69bf1980	0.09551205712987176
119	0x3f96e568aa7fcf16	0.022359500318955026
120	0x3fbe37956be18160	0.11803563960848384
121	0xbfbb42f1d9e88ecb	-0.10649024553327562
122	0xbfbd36edf4c489d8	-0.1141194078996145
123	0xbfc8c4ed695621ac	-0.19350974696523104
124	0x3fc312230bd1aa83	0.14899099423503878
125	0xbf7e5c7cfb1655d6	-0.007412422376906721
126	0xbfa364f985f38828	-0.03787975082538281
127	0x3fc2dad934ecd24d	0.14730372509224524
128	0x3f98bb765fa3857d	0.024152612292601006
129	0x3fac456bd0cbb1c5	0.05521714137816817
130	0x3fd28b4671da68aa	0.2897506820533048
131	0x3fd08dd6cb282a28	0.2586571678117786
132	0x3fb0bc97178a2a7d	0.0653776581258771
133	0x3fbeaeb60b2828f6	0.11985337993988651
134	0xbfbb81b49cbb4094	-0.10744789911700742
135	0x3fab3d019a985799	0.0531998158659654
136	0xbfba17591e43c878	-0.10191876400839017
137	0x3fd592cca4c6e2d3	0.3370849236630821
138	0xbfb6b8b2eac1265a	-0.08875578147230936
139	0x3f959b119304af5b	0.021099352453503566
140	0xbfbe095e7c09843f	-0.11733046081782648
141	0xbfa3df62879697b7	-0.03881366639261279
142	0x3fa05011fd1ac3f1	0.031860887667228506
143	0xbf9d8b1a06bfb92c	-0.028850943242951718
144	0x3fc11c730cd011bb	0.13368070722220957
145	0x3fae63cba883ec1f	0.05935512954780386
146	0x3fbc13e24c464101	0.10967840540093123
147	0x3fcaf5375a2b532a	0.2106084051398736
148	0x3fc31f0cfa971609	0.1493850921234954
149	0x3fd6025ebde0640a	0.34389465849523104
150	0x3fb6ec22ef081874	0.08954065643055903
151	0x3fce3d3ab2bef99e	0.2362435696395097
152	0x3fd22b0c446375d7	0.2838774364334688
153	0x3fd05e4c0b16ede2	0.2557554348274761
154	0xbfc4585db287b281	-0.15894671647346928
155	0x3fcf70fe21d4df15	0.24563576366357923
156	0x3fd1db4c586f8ccf	0.27900990139296494
157	0x3fd1c34dc66596fa	0.27754539847079196
158	0x3fccec3a486cc76d	0.2259590963017745
159	0x3f83fca8561b03a2	0.00975924980900961
160	0xbfb54920b9708a6a	-0.08314709212621954
161	0x3fcdebfd3026de55	0.2337643132320745
162	0x3fcf73f9bd1ce7f8	0.24572679266003639
163	0xbfa6b86c5461103a	-0.04437578706759422
164	0x3fb505afa9bc9bea	0.08211801427806589
165	0x3fd39a24aee2e376	0.30628316000689126
166	0x3fbbc9e2ddb784dd	0.10854928887376354
167	0x3fd5714a6f05911a	0.3350397190281612
168	0x3fd058f5e3831f5c	0.2554297181891252
169	0xbfbc2782972c89fd	-0.10997787657519349
170	0xbfb4425c91efdcaf	-0.07913759768404093
171	0x3fbc0ca9a7c683dd	0.10956821771698295
172	0x3fcc4475a6bfbf4f	0.22083922044793744
173	0x3fcd37caf9b369e6	0.22826516334937635
174	0xbfc95815f6796a61	-0.19800066504361083
175	0x3fbcfaf818c1c9a6	0.11320448498171362
176	0x3fb00579ef8bbd3d	0.06258356188094623
177	0x3fb20a2eeee80cdc	0.07046788532902631
178	0x3fc9373939feb85e	0.1969977887324061
179	0x3fc9d3e889e4d7bf	0.2017794297514097
180	0x3fb1a400ffe8fc70	0.06890875098996374
181	0x3fb1a558667cc5c2	0.06892921926625831
182	0x3fdbf8dac2c2d77d	0.4370638753856538
183	0x3fcefca995656194	0.24208564562537715
184	0xbfb4b6b7b9897bac	-0.08091305045807812
185	0x3fb81860ab60e9cb	0.0941219728855806
186	0x3fc58b79df925552	0.1683189717920564
187	0xbfb1d835d5124f1c	-0.06970535709325215
188	0x3fc82a9d947d30ae	0.18880052328529956
189	0x3fa3435ea888bef4	0.0376233654718571
190	0xbfa13a05500b5d7a	-0.03364578821281845
191	0x3fbb85077f95ee92	0.10749861588367995
192	0xbfb3eabbe027ad9f	-0.0778005048993493
193	0x3fb92cd8091be2cb	0.09834051344285936
194	0x3fb071357d0f4114	0.06422743132793968
195	0xbfc51f45313da0ef	-0.16501679329235894
196	0x3fa7bde1f55fa16a	0.046370564654185056
197	0xbfacf43b261e6ac5	-0.056550835040260185
198	0x3fa9126836ac4cbd	0.04896855990787106
199	0x3f675685cfddcb1c	0.00284887442733729
200	0x3fce1c5c37a1303d	0.23524048534670952
201	0x3fc14a9be52f3fa7	0.13508938494350994
202	0xbfb19be395082779	-0.06878492725823361
203	0xbfca606253d560dd	-0.20606640904839582
204	0x3fd82ba6f88a54d2	0.3776643206741258
205	0x3fca285eabc00975	0.20435698877561106
206	0x3fcd60afc7fb46ea	0.22951314224933778
207	0x3fd0a4a9df71d599	0.2600502664639293
208	0x3faf13c3b0807e0d	0.060697665496487564
209	0x3fb338485b0eec82	0.07507755492308557
210	0x3fbc0cfd19a4d039	0.10957319141454115
211	0xbf9702a23b0ae13b	-0.02247098431937043
212	0x3f8c2e8a6787a8fe	0.013760644230349058
213	0x3f8e797ed02ccccd	0.01488017151641543
214	0x3fc3c5260be89e6c	0.1544539983890333
215	0x3fcabad91e0ce896	0.20882715194040163
216	0xbfce8192c7136ba9	-0.23832926483632136
217	0x3fd178481552888e	0.2729664047457242
218	0x3fa5118d12962fdb	0.04114952899826082
219	0x3faeec0e24d3b14e	0.06039470862910666
220	0x3fd279d849fed5eb	0.28868682123297046
221	0x3fb4f4d6f2f075bb	0.08186095648894469
222	0x3fb45f929a200f8b	0.07958332312415288
223	0xbfb636bd36bb91b4	-0.08677275263068546
224	0x3fc9af1c82fb5bfa	0.20065647502516964
225	0x3fb36f39aea4d9bd	0.07591591371315239
226	0xbf8fa80aa0af7ddb	-0.01545723250268243
227	0xbfc21eeadcf76258	-0.14156852521297725
228	0xbfb3bee73b53fd00	-0.07713170240821299
229	0x3f9541845d61e6d3	0.020757740211115937
230	0x3fcfe70037220e9b	0.24923708622019522
231	0x3fbe5e502988ca8e	0.11862660421392432
232	0xbfba199da90cefb6	-0.10195336701593657
233	0x3f903fc5a8384e69	0.015868271248179164
234	0xbfbf0bce3f0400c7	-0.12127388990848252
235	0x3fc113f1596e45a9	0.1334211050675951
236	0xbfcf1e18dad408d3	-0.2431059902665483
237	0x3fd611455369f0ce	0.3448041262233915
238	0x3fcb044474b120b0	0.21106773088309216
239	0x3fd3dc45a9f798c0	0.3103193435512246
240	0x3fba513c4ed4ec27	0.10280205654719109
241	0x3fc1b1279c9d7e47	0.1382188334200569
242	0x3fb1587c69919cce	0.06775643899310355
243	0xbfc56ed05b9f10c2	-0.1674442717904921
244	0x3fc27bf050066404	0.14440730960339476
245	0x3fa5c145214df9c4	0.04249015838194084
246	0x3fbc5aa9a9a55916	0.11075840369935394
247	0xbfcc619d521fb0f0	-0.22172895917845592
248	0xbfc27c972b36dd52	-0.14442720041345553
249	0x3fcec094f0567c0c	0.24025212989087696
250	0xbfd2ae7324f5478d	-0.29189756974403097
251	0xbfaf3702ab47d47e	-0.06096657124354808
252	0xbfc74553ab569775	-0.1818031870472471
253	0xbfc0c630daf4f0a7	-0.13104830447435242
254	0xbfbd5404074dad25	-0.11456322840028983
255	0xbfc27ce93a0e7e4c	-0.14443698248668324

weight f8 [128, 257]
0	0x3fd4ed9adc49d970	0.3270022536520605
1	0x3fda589a340700ff	0.4116578586654355
2	0x3fdab832e16e4fe0	0.4174925996278471
3	0xbfd399d747611089	-0.30626470537777856
4	0xbfdeb54bc9213b8e	-0.47981543199141974
5	0xbfc62d8c8206812a	-0.17326504086396116
6	0xbfd372879529fe5c	-0.3038653332405141
7	0xbfc3721eba6f0660	-0.15192016699988908
8	0x3fd7b6f5d188e9f6	0.3705420061338879
9	0x3fcf3b479d1ac65c	0.24399657412645837
10	0x3fd6a9d14c5c3e84	0.35411484200538035
11	0x3fd8b3d2e454ff2a	0.38597557352112466
12	0x3fd39085a2b158b0	0.30569592369046017
13	0x3fad46d8028c08fe	0.05718112021533449
14	0x3fadbff58543a579	0.05810515643845355
15	0x3fe448102a7be9d7	0.6337967710272164
16	0xbfbda972cc75ce55	-0.11586682788566212
17	0xbfddeaf61045a7d9	-0.467465892687526
18	0x3f89e2e554035b05	0.01263980066907556
19	0xbfd5ef27b839c9fd	-0.3427218722419239
20	0xbfd4f2255749bc95	-0.3272794105932431
21	0x3fd8d7b5b5368974	0.38816588112435757
22	0xbfcfeabc044ac989	-0.2493510266263679
23	0xbfc161fce52ec851	-0.13580285254062344
24	0x3fdc9c6beaf9eaa0	0.44704721400163727
25	0xbf9aae2ba9011a96	-0.026055032911495767
26	0xbf61377e06c95314	-0.0021016560988677078
27	0xbfd708ca75cf861e	-0.3599115515226873
28	0x3fd2e42d2c954549	0.2951767859822963
29	0x3fe027c8a219cd69	0.5048564115553918
30	0x3fe0f70c605cb143	0.530157268721759
31	0xbfc772dfd3afe259	-0.1831931861522829
32	0xbfda81db4b3cc175	-0.41417581889529426
33	0xbf8534f3d64f0001	-0.010354905107192282
34	0x3fc55ce40a5ed21b	0.16689730173460834
35	0x3fe1af9f55417471	0.5526882805967387
36	0x3fd7d769a684b59d	0.37252274762689713
37	0xbfd6f0f466ae319c	-0.3584567072619167
38	0xbfd16db062cd028a	-0.2723198857166059
39	0x3fc1ecd4cca360bb	0.14004001609896996
40	0xbfbb53a8fb599688	-0.10674530159448115
41	0xbfbc8424b8b83e29	-0.11139134893186821
42	0xbfb848a2294249ea	-0.09485829837129925
43	0xbfd00ba12dd464ea	-0.2507098147921868
44	0x3fd7f152b400e66d	0.3741041906210743
45	0x3fd027935213bd65	0.2524154950651421
46	0x3fe29b625a4829c5	0.5814677966421234
47	0x3f7d0630dea52379	0.007085982224744985
48	0xbfd22d17583852ff	-0.28400214781986216
49	0x3fbd50acac0b3520	0.11451224518096526
50	0x3fdeb7b2335a4f34	0.479961919926825
51	0x3fd851e3e4e2e2fe	0.37999818184066203
52	0x3fddbca08cf560f5	0.46463788762549935
53	0x3fd80e024af0621e	0.37585503881703797
54	0xbfc724fa00796472	-0.18081593535569912
55	0x3fc843e0ef2b8dd1	0.18957149198750625
56	0x3fc27de990e2c3e1	0.1444675404977991
57	0x3fcb395b9f4dd3e1	0.21268792418018648
58	0x3fcd1eae5d247fed	0.22749881313302414
59	0x3fc497c5288d8f84	0.16088165741086524
60	0xbfc93a47278d875b	-0.19709100180903757
61	0xbfc47d3fdd5212e9	-0.1600723105113027
62	0x3fd21f60b6d78ee9	0.28316514831224865
63	0x3fb76743c572e6cd	0.09141944475677662
64	0x3fe129e1134f6f3f	0.536362207141316
65	0x3fb2d9b2c938fa5b	0.07363431370411304
66	0xbfd7dbfd0360c51e	-0.3728020222652776
67	0x3fcdb611eeb6565e	0.2321188369357285
68	0x3fd41bc4b3316c66	0.31419484614679616
69	0xbfc10b431244af4a	-0.13315618888861486
70	0xbfcf94e12f6d826c	-0.24673094573792598
71	0xbfc5544869359c68	-0.1666346086233006
72	0x3f9bc86936690084	0.027131694742138737
73	0xbfc15d5218d5f1eb	-0.13566042149240273
74	0xbfd7c747056b7ea0	-0.37153792886054227
75	0xbfc2dd181447c7c3	-0.1473722552323676
76	0x3fe334c70d05251d	0.600192571096304
77	0x3fc7d11ad99c0beb	0.1860688746019997
78	0x3fd576716354ee31	0.3353541822468485
79	0xbfcb16a023d6da2d	-0.21162797689403715
80	0x3fdc5be0c4f5c84b	0.4431077884138445
81	0x3fba71096dd53d65	0.10328730517834613
82	0x3fd63dcc8747ed07	0.34752190791159915
83	0x3fc14c76a44f810c	0.1351459791467352
84	0xbfd019ee5579c90c	-0.2515827021335475
85	0x3fd0d9f89a9adc68	0.2633039007009246
86	0xbfd61b6012a3685e	-0.3454208547606238
87	0xbfcf3d0a657c57bc	-0.2440503116164886
88	0x3fc0c74a85e0eb92	0.13108188187638042
89	0x3fb8fc1b4f447a8c	0.0975968426250608
90	0x3fc4f97c82030b20	0.16386371944653266
91	0xbfd5524fe65d33dc	-0.3331489324235102
92	0x3fd37cd1734bc5a2	0.30449329623578525
93	0x3fd51e18c718c5c9	0.329961962156713
94	0xbfba64ba909f4a32	-0.10309949904266416
95	0x3fc761f77ae36a66	0.1826772069969877
96	0xbf9a5eaced7f046f	-0.025751783366790123
97	0x3fd6f6b2af95cf89	0.35880725047103873
98	0x3fc825e3c00aa362	0.188656300325671
99	0xbfc3b8f8a52c5622	-0.15408237519356854
100	0x3fc6aeeab2b6988c	0.177213036787354
101	0x3fc2dc1273809645	0.14734106673965833
102	0xbfcc8230012e0408	-0.22272300775151188
103	0x3fda3e7b4712e836	0.4100635713654158
104	0x3faa5715b0d61219	0.051445653759433614
105	0x3fd641beba377698	0.34776275811405233
106	0xbf5a46bc51ad4d33	-0.0016037787488201837
107	0xbfd6755c22b4bdf9	-0.35091308011303074
108	0xbfca39b843596030	-0.2048864678242821
109	0xbfc8ca556aaeaefe	-0.19367473324870582
110	0xbf9899cf857ea80f	-0.024024240992425002
111	0x3fd871b042ca7604	0.3819389965300106
112	0x3fc323b2b7652470	0.14952691988790745
113	0x3fd78db1ab15b49c	0.3680233164548754
114	0x3fda6da33b6c1aa2	0.41294174960095564
115	0xbfd7f610b6eb4d71	-0.37439363349149973
116	0x3fddf8384fa39e66	0.4682751443601546
117	0x3fd8bb091a16df97	0.3864157442835618
118	0x3fb2b5f5906d5585	0.0730889775853339
119	0x3fcec95920add392	0.24051965804724468
120	0x3fe032f2cd38341b	0.5062192924684753
121	0x3fcf91b0b4796a54	0.24663361370297088
122	0x3fd6f596f611c4fa	0.35873960523811343
123	0xbfd0616e05d49a39	-0.2559466416300072
124	0x3fe1d552b83c1793	0.5572904203734076
125	0xbfcb60281727be6b	-0.21387196665408523
126	0x3fe0ced267d85d66	0.5252468136049344
127	0x3fc68048d4278ced	0.1757899318609825
128	0x3fcf3b0b6989aec8	0.24398939755643867
129	0x3fe2c12bcb852096	0.5860804533958965
130	0x3fd9c049cfb8da21	0.40236134801253526
131	0xbfbcc4164f9aa649	-0.11236705249270885
132	0x3fc84709117d9ad6	0.1896678290751967
133	0x3fd5ce7acefe30f4	0.34072752203134304
134	0x3fd5aa590420fda2	0.33852219966135
135	0x3fb2aeaa1a8b1f56	0.07297766826661464
136	0xbfdb51f98ff3d0be	-0.4268783479485697
137	0xbfd0cfba64612753	-0.2626787166851631
138	0x3fa26cf77b551996	0.03598760014078832
139	0xbfc0d576b54e975f	-0.13151439526444172
140	0xbf8fd886feaa8d64	-0.015549711844249976
141	0xbfa8b704b85b499a	-0.04827131987044027
142	0x3fd68fac7f5d62ca	0.35251915395705835
143	0xbfd7fd510ed0d59f	-0.3748362202344086
144	0x3fd906b256234298	0.3910337296665971
145	0x3fdbdbe4bb942c84	0.4352962333511601
146	0x3fc9136efd6b567f	0.19590556501377773
147	0xbfb80390d2320ecb	-0.09380440837599761
148	0x3fe45842a9446d2f	0.6357739740373399
149	0xbfce07a15f9aa91d	-0.23460786026164096
150	0x3fc03d9471476a8d	0.12687926799010932
151	0x3fcbc180748fa0a7	0.21684270564515382
152	0x3fd0fe150e84ea9d	0.26550794999972444
153	0x3fe08d34bd0802d0	0.5172370616929474
154	0x3fb8b5847df8ca77	0.0965197379635273
155	0x3fc4a74eeefb1cd7	0.1613558451556176
156	0x3fd3e26b7bab232e	0.31069457127573485
157	0x3fcdee1397779f4c	0.23382801910269746
158	0xbf9945fd38bcca69	-0.024681049907665207
159	0x3fc43a10f46f21ab	0.15802204070338396
160	0x3fd5077c4add894e	0.32858187972137365
161	0x3fdddb1691403d2f	0.46649707970296367
162	0x3fb6245ee221492e	0.08649247189285766
163	0x3fd4eb004d4711fa	0.3268433336891402
164	0x3fd9b44de145b8ca	0.40162989615681666
165	0x3fd45f8a11032968	0.31833125745165214
166	0x3fc7f01c8efe6bf8	0.1870151231968007
167	0x3fe334b1d7d733e5	0.6001824584615149
168	0xbfd0db20dca1b1d6	-0.26337453409248945
169	0x3fa7acc3e53aa38e	0.04623996899801518
170	0xbfcec6bde9812840	-0.24044011975849067
171	0x3fe572706192db62	0.6702196031318233
172	0xbfd8287d19f2661b	-0.37747123273729394
173	0xbfd4d5df63b726da	-0.32555374849162677
174	0xbfd60039e418bd29	-0.3437638022905554
175	0xbfbfa78f534ff595	-0.12365051063530637
176	0xbfd21bff1bde4db1	-0.28295877191086577
177	0x3fa2a631c080ebdc	0.03642421221635292
178	0xbfd25c6fe41d1f39	-0.28689191128477237
179	0x3fd876de0af8c6b1	0.3822550875803286
180	0x3fb6646c46b51683	0.08746983267072932
181	0x3fbbce099eeccc16	0.10861263399128548
182	0x3fe080c0e331799e	0.5157169759148024
183	0xbf915c0bc672f2da	-0.016952690112463788
184	0x3fd0f6b085e63cc8	0.2650567348109232
185	0xbf992a43a75aaa38	-0.024575287904250426
186	0xbfd0833325b316f3	-0.2580077999267438
187	0x3fd4b1d467cac75b	0.32335386405894945
188	0x3fd0f7e314273105	0.26512982338023533
189	0x3fd9946b0683529d	0.39968371997864854
190	0xbfdff0ff54931960	-0.49908431300391065
191	0x3fc14edf65295848	0.13521950187231568
192	0x3fc33320af2a0973	0.1499977927488306
193	0xbfab955b1c782901	-0.05387387011076506
194	0xbfda17d3e2f1ca56	-0.40770432627247055
195	0x3fd074e2de0ec75c	0.2571341675312533
196	0x3fd3290d93156fbc	0.2993806778301822
197	0xbfc16e63b88e7a7a	-0.13618132125425914
198	0x3fd496915f09c3b2	0.3216899326426371
199	0x3fd8c2e61a7d7464	0.38689568125648166
200	0x3fda120812ca8caf	0.4073505576618101
201	0x3fd6e7176531a512	0.3578546989652561
202	0x3fc3611383e403ea	0.1514000314710125
203	0x3fc23b20ff80662d	0.14242947078382553
204	0x3fca664f736d6380	0.2062472642526494
205	0x3fd6d3d9b5314f46	0.35668032354918855
206	0x3fe0ba4a2d4d485f	0.5227404484560444
207	0x3fd9a6074d610959	0.40075857693240874
208	0x3fdac71d22a2da1d	0.4184029424899636
209	0x3fca6973846e498c	0.20634311643932468
210	0xbfe51456534f2be1	-0.6587325694212006
211	0xbfbde9d627fe4d2d	-0.11684931255722537
212	0x3fd47f4d2ace6e62	0.3202698629408812
213	0x3fb261091959b2cb	0.0717931448832118
214	0x3fd8f68693a5d77e	0.3900467340348469
215	0x3fd4835d38b4cc4c	0.32051783120841004
216	0xbfc96f3c0abe073f	-0.1987071087315204
217	0xbfb767801a6951b6	-0.09142304081735272
218	0x3fcd16cdfba4f066	0.22725844180411342
219	0x3fd0d7e54a832276	0.2631772258432997
220	0xbfddb44edee94183	-0.4641301323763615
221	0xbfa092f5d4e9a4d1	-0.03237121795684462
222	0x3fbad064a3eacdf7	0.10474232675442595
223	0xbfe15344f342dd85	-0.5414147139735382
224	0x3fdc196343fbbc08	0.4390495456599983
225	0xbf650182a56053cc	-0.002564196746798397
226	0xbfe015bc3d66b4fe	-0.5026532363168881
227	0x3fd9c72786c8f4fb	0.4027804199466371
228	0x3fdff7af30b4e892	0.49949245220671756
229	0x3fe1e00fb7a6f7b9	0.558601244636285
230	0xbfda4652550e1f6f	-0.41054209047478357
231	0x3fe98e84ec37cab5	0.798647366870077
232	0xbfc8195aebd6e59a	-0.18827377811048224
233	0x3fa6ef73f73127bc	0.04479563133698103
234	0x3fa9db40099a00c1	0.05050087086874689
235	0x3fa9a4940a6f06d6	0.050083757661480696
236	0xbfd688c5b7dfc36a	-0.35209792095616044
237	0xbfd2d0cae7102188	-0.2939936882471774
238	0x3fd66eac8ecff0e3	0.3505050081873959
239	0xbfc2e6957f58a375	-0.14766186445310905
240	0x3fc8b5d49fda08fe	0.19304902844675803
241	0x3fcab276266f69c7	0.20857121350020533
242	0x3fd7599d7b926610	0.3648446757084409
243	0x3fcde3678816eca3	0.23350233216283298
244	0xbfc7fbaaa8873a8a	-0.18736775616567442
245	0x3fe3c038b3921d0a	0.6172145373574562
246	0xbfd4a7a890798264	-0.3227330599675382
247	0x3fd993575dea8d5d	0.3996179978514272
248	0x3fe49b3190da14bd	0.6439445332659016
249	0xbfc4d3b04d9a3d1c	-0.16271022595581364
250	0x3fdb4f1fdde95dc5	0.42670437499097275
251	0x3fda34dae63b1855	0.40947601779442283
252	0xbfa0ed65842543a0	-0.033061191922235666
253	0xbfd533f091f91fee	-0.33129514937581817
254	0x3fd0d392b67b690e	0.2629133970309717
255	0x3fe329c899a46314	0.5988505364249215

weight f8 [64, 129]
0	0x3fcef91e3dd2a437	0.24197748202030464
1	0xbfb33be967382a04	-0.07513293046955744
2	0xbf953e142ebcaf9e	-0.02074462447414726
3	0xbf9c97f7ebc54106	-0.027923463597574937
4	0x3fc05a8f4a967b40	0.12776366369231518
5	0xbfcc96426fa5b5f7	-0.22333555652168943
6	0xbfb3d8a1d5988d2a	-0.07752429451698065
7	0x3fc140e1e52e4f8c	0.13479255381082245
8	0xbfa8a033c806a027	-0.04809724632951911
9	0x3fa3572264d19f5c	0.03777415734003739
10	0x3fb4e55d608550b0	0.08162482840026786
11	0xbfb3544e59d71b1e	-0.07550515836110747
12	0xbfbc3b0b83752ebb	-0.11027595481317125
13	0xbface125c8c5b27f	-0.05640523982842626
14	0x3fad6c4169afc93a	0.05746654906387723
15	0xbf91945c17d479fd	-0.0171675099892301
16	0x3fab94c702dec946	0.05386945638692224
17	0xbfc355aee2e5d8d9	-0.15105234221454714
18	0xbfa4847981ee3dbb	-0.04007320128504995
19	0x3f7fdc46f6609417	0.007778432080191264
20	0x3fb20e4439a4529a	0.070530189583517
21	0xbf8b4c42357d9de6	-0.013329045541197137
22	0x3f8a1881feedaecc	0.012742057411478845
23	0xbfbffd798ce6498c	-0.1249614686005655
24	0xbfb4e6fdb43fbabc	-0.08164964342698061
25	0xbfb6f35c45495bfc	-0.08965088550154116
26	0x3fc1f985e3e34c0f	0.1404273379071985
27	0xbfab2157a2b2b6a0	-0.05298875676213055
28	0x3f9c6752ca97e0a2	0.027737897506057714
29	0xbfaeb779d2622c35	-0.05999355977208901
30	0x3f9d84fd26e7dc25	0.028827624797454505
31	0xbfa0e04cd019c56b	-0.03296127357760777
32	0xbfaecd635975b152	-0.0601607367233067
33	0x3fb383f87f7a218b	0.07623246299966106
34	0x3f9586b0974a97ab	0.021021613344281025
35	0xbfbc5080dffe819f	-0.11060338467223695
36	0xbfbd87d7ca2c843c	-0.11535404859434178
37	0xbf9fd3e2b00821e4	-0.031081716531874096
38	0xbfb879b9efaa0e8e	-0.09560739613703559
39	0xbfaab707cd90be87	-0.0521776617464385
40	0x3f837afc78c3713d	0.009511921344192426
41	0xbfcffb78388c5d17	-0.24986174355647314
42	0x3fa9f2c108d5f4f6	0.050680191353402224
43	0xbf81b84d979168ab	-0.008652311504352935
44	0xbfae3d96b444f6dd	-0.05906363440088367
45	0xbef6dc972476ca03	-2.1802598238538164e-05
46	0xbfb3fbe96a594c08	-0.07806261869818354
47	0xbfb731de6426e7ac	-0.09060468621365086
48	0xbf83d1922191ede6	-0.009677068376041608
49	0xbfce7cbb6e07e16c	-0.23818152306172224
50	0xbfabbf3429ed1293	-0.05419314395706922
51	0x3facca2d21d85e3c	0.05622998273991839
52	0x3fbe3b3de967b882	0.11809145878189223
53	0x3fa65dacc083a341	0.043683432102460625
54	0xbfd3b70461e558b2	-0.3080454784407137
55	0x3f6b29dda0a478e8	0.00331586157439211
56	0x3fb1aa490ccb7e56	0.06900459825873759
57	0x3fb7707d8fe016a0	0.09156021845418616
58	0xbfa798c7cb6a2f7d	-0.04608749731150306
59	0xbfd21296fc99dd59	-0.28238463085241033
60	0x3fc0bff348f5413a	0.1308578592529644
61	0xbfb64eadc7938323	-0.08713804361788084
62	0xbfb145263f06b0f8	-0.0674613860962302
63	0xbfb6ec25bffb544c	-0.08954082428984228
64	0xbf4536f0135b4292	-0.0006474182361789363
65	0x3fb79784aa9df026	0.09215573468640112
66	0xbfaa2c039f759d7b	-0.051117051329863515
67	0x3fb60a086da61221	0.08609059025736389
68	0x3fa6a37d8b778be6	0.04421608283498539
69	0x3f991903af3f8832	0.024509484835910374
70	0xbfc2af8ad0d0032c	-0.1459821242897531
71	0x3fcd4dd06f8cf668	0.2289372009926638
72	0xbfa7378de3da41fb	-0.0453457203522056
73	0xbfc6496db51b99ab	-0.17411586135058363
74	0xbfc165205a23ee39	-0.13589863206276379
75	0xbfa28eeb033d9ffe	-0.036246627946468365
76	0x3fab4b05d2f87518	0.053306753161658615
77	0xbfb55d663a33f66a	-0.08345641060801659
78	0xbf87f170838fada3	-0.011690978064470786
79	0x3fa80f6759b56f0d	0.04699252100064486
80	0xbfaaf51127dd031e	-0.052650962940339094
81	0xbfcb9ad98bc2f076	-0.21566314052859398
82	0xbf9d1a17560ad27e	-0.02841984236393324
83	0xbfa35878d64b8016	-0.03778436294464897
84	0x3fb3d68b47f68e34	0.07749243266021538
85	0xbf9c12963e25a538	-0.027414653342394874
86	0x3fa8d3dfd51f0c03	0.04849147297456826
87	0x3fc7b0145ee4ac95	0.18506102212390788
88	0xbfb51128e1ee43e0	-0.08229308620344922
89	0x3fb846accb5d7c4d	0.09482841458292164
90	0xbfbb37c56c8344fc	-0.10631975077855665
91	0x3fa4425cc9a71b22	0.03956880532819286
92	0x3f60a1df31b9bb00	0.002030311514139682
93	0xbfa15b33f27917f1	-0.03389894804836036
94	0xbf72ef40af76f502	-0.004622700383547286
95	0xbfa24dc08c25dde9	-0.03574945174016959
96	0xbf933241149fccbc	-0.018746392139246323
97	0x3fb94b55ecacfe98	0.0988057806798629
98	0xbf9df03b7f06bd14	-0.02923672640616555
99	0x3fc0bdaff8618a09	0.1307887995527184
100	0xbfd46c7863329569	-0.31912049948944926
101	0x3fb2188fdf8291a5	0.07068728644168816
102	0xbfaecb256aa24be1	-0.06014363218960007
103	0xbfb8ced24289f78a	-0.09690584301458052
104	0xbfa8af3860e126ae	-0.04821182425128022
105	0x3fc3c53782b5918c	0.1544560802677889
106	0xbf436b0fc4da36fa	-0.0005925967213486754
107	0xbfb96bbe3bb53e80	-0.09930027921404339
108	0xbf90d3a0ecfaf8bc	-0.016432299102910206
109	0xbfa08c2ad3faf646	-0.032319391609672496
110	0xbfb094e9f4f9c429	-0.0647722457013208
111	0x3fb85345dc72b040	0.09502064353972717
112	0xbfa61da46948a1d5	-0.043194902278915905
113	0xbf7d52ca88d5c73c	-0.00715903391879796
114	0xbfa35629f5b1ce8b	-0.03776675342751642
115	0x3f730e3882642fd1	0.00465223382913034
116	0x3f4aa0aefa8a942c	0.000812611998374129
117	0x3f5113e74abfa5b5	0.0010423430167015694
118	0xbfc3c35152e6f668	-0.15439812229117256
119	0xbf911c73f93b08a8	-0.016710102164105095
120	0xbfcdc92736150761	-0.2327012075493782
121	0xbfc3d830bd4b8a2c	-0.15503510706828771
122	0x3fa10dce1633304c	0.0333084489917331
123	0x3f7324838501328d	0.004673494098892517
124	0xbfc88ef28aa46010	-0.19186240930207576
125	0xbfd22729f2d19fc7	-0.28364037239816436
126	0x3faa402d6b5539b6	0.05127088484970292
127	0xbfb445df865ff7fe	-0.0791911795676867
128	0xbfb6d79e0f2952e7	-0.08922756071235548
129	0xbfb305fb6e719104	-0.07431003042581003
130	0xbf532844af0131e7	-0.0011692686785124086
131	0xbfb8426fbe1c5ba6	-0.09476374045730881
132	0xbf8bd23cb958ee10	-0.013584589392045238
133	0xbf921bcc50b6a8db	-0.017684166361200276
134	0xbf875665ba0226e4	-0.011395258654619274
135	0xbfa6bf9ed5f0bb7c	-0.04443069802834196
136	0x3fb1e122979080fb	0.06984153938583752
137	0xbfc000cf3cd5241e	-0.12502470465031562
138	0x3f916f3d711d129c	0.017025909451393248
139	0x3fa5f9521f823795	0.04291779169680791
140	0xbfc566d7330d4e82	-0.16720094673893376
141	0xbfcf0e15694f753e	-0.24261729852779895
142	0xbf9be567e1979ebb	-0.027242301124629203
143	0x3fb4e28c9e1afefc	0.081581867790188
144	0x3f87d94af2788621	0.011644921803113441
145	0xbf83d8b3d11c6924	-0.009690670794544838
146	0x3fb19172c2c795ce	0.06862561469423342
147	0xbfb62afe0f50652b	-0.0865935122859766
148	0xbf567393b55d08a6	-0.0013703291383114018
149	0xbfb7d940ce8a7c29	-0.09315877001289209
150	0xbfcba829e57d8ff2	-0.21606944757070284
151	0x3fb40588dd8e241b	0.07820945176185072
152	0xbfc7c97caa7c002b	-0.18583639454300402
153	0xbf78c724a82a4f3f	-0.0060492927465423665
154	0x3f89ebaa7af05bf7	0.012656528355405412
155	0xbfc106b545db7615	-0.13301721487998522
156	0x3fb466926aa60a7f	0.07969012359357384
157	0xbfbe3e5e783f7a51	-0.11813917575589385
158	0xbfca90ae8bb13cf7	-0.20754033871569508
159	0xbfb04f677ad94567	-0.06371161221729481
160	0x3f9a13c10fa2091c	0.025465981082114827
161	0x3fd0594dd85884c6	0.2554506886245459
162	0xbfaa0733b44dbd38	-0.05083619667027012
163	0x3fad7cea753e75c2	0.05759365731430989
164	0xbfc4dd2ec49ef9fb	-0.1629999599517332
165	0xbfd1fae73aedcdf8	-0.28093891863610976
166	0xbf95e5896bf862e0	-0.02138342591760789
167	0xbf98c3a0d176b5cc	-0.024183762344980583
168	0x3fa54e606fac5201	0.041613591796849654
169	0x3f81cd2ce56f61b2	0.008692122222712626
170	0xbfc9a74fb0d795f3	-0.20041843542928425
171	0xbfaf3019ecaaba78	-0.06091385854721393
172	0x3fb1af87236dc44c	0.06908459296188701
173	0xbfb598f9232c171a	-0.08436543568322144
174	0x3fb089594248a561	0.06459577434784115
175	0x3f9519a59da80676	0.02060564780004489
176	0x3fb292184ab2db64	0.07254173110673673
177	0xbfbab8be9045ab96	-0.10438147566098474
178	0xbfb2c17b6d430e19	-0.07326480309989626
179	0xbf9ddf6ddfdb6f00	-0.02917262724700631
180	0xbf8b83d2127507d4	-0.013435021579997576
181	0x3f81570882e9b55a	0.008466783995766992
182	0xbfa612640db36535	-0.04310906092878001
183	0x3fb0d83679810c7f	0.06579914537819496
184	0xbf8d7165a45f09bb	-0.014376443937980867
185	0x3fbbce9d510eff2f	0.10862143734902639
186	0x3fb479aceecc2fe2	0.07998162107486409
187	0xbfa55eab9652f990	-0.041737901783096665
188	0xbfc4a45460a7e616	-0.16126494140171194
189	0xbf9f2ad84df3625e	-0.030436877973303182
190	0xbfb210b998f4e9c1	-0.07056770309728845
191	0x3fc9386c2e55c0f5	0.19703438055467584
192	0xbfa8cd339d1a05ef	-0.04844056408638752
193	0x3fb46710fed1ac64	0.07969766827743424
194	0xbfb1690c8726673d	-0.06800916957436427
195	0xbfc79ba1f3e9e592	-0.18443703088614122
196	0x3fb237aec5d696ec	0.07116215066943327
197	0xbfb047f6feca80a1	-0.06359809608921065
198	0x3fb334898933935b	0.07502040481229015
199	0xbfa99ccfe4900435	-0.05002450623579372
200	0x3f4163c90910c016	0.0005306941621991991
201	0x3fb31f8eee212342	0.07470029176432738
202	0xbfc35cedb3b15c1d	-0.1512734534651096
203	0xbfa2185a4621ea50	-0.035342045842260306
204	0xbfa4955ed9644139	-0.040202106511176124
205	0x3f9371d371a85a16	0.018988899051772
206	0xbfb237a06c378e88	-0.07116129533783966
207	0xbfa242dc17548bf0	-0.03566634926598755
208	0x3fb6ce78c962199d	0.0890880099924289
209	0xbf9b23a41e04fa52	-0.026503147442094317
210	0x3fc47da8159cff7a	0.16008473449073418
211	0xbfb63faf61156283	-0.086909257127795
212	0xbfb6bfe0f59af281	-0.08886533733579861
213	0xbfd424078ce6fdeb	-0.3146990657805577
214	0x3fa726d5757dce7d	0.04521815356465895
215	0xbf9f64a5643bdc02	-0.03065737175253603
216	0xbfa4f04775ebf1f1	-0.04089568438027758
217	0x3fbb61609dfc8376	0.1069546113690317
218	0x3fb1e9c250678314	0.06997312987324406
219	0x3f6b808ac938590f	0.0033571921028495775
220	0xbfa3b2f7b8a0aefc	-0.03847478989368189
221	0xbfa1342182cb504c	-0.03360085221871198
222	0xbf7d45dc1ae730a8	-0.007146701608189122
223	0x3fb0865ad910f4cf	0.06455009269207611
224	0xbfb2e43fd51149fa	-0.07379530860752218
225	0xbfcb345cfbc90f59	-0.2125354985638477
226	0xbfb91c3d96cd39b0	-0.09808716708832921
227	0x3f8c42ed4bf5ab68	0.013799528008083775
228	0xbfc51c9e9a8aa443	-0.16493589921927496
229	0xbf8faa0e07a78324	-0.015461072548477235
230	0x3fa3642443496802	0.03787339516993883
231	0xbfb0be2d73929720	-0.06540187903973704
232	0xbfca8f1434706fe2	-0.20749142227657474
233	0xbfb1c695b8e3c803	-0.06943641437445085
234	0xbfb99b7f873cc123	-0.10002896358196671
235	0x3f7188d3952a1df1	0.004280878538913666
236	0xbfbdfe7d72d5edcd	-0.11716445973973251
237	0xbfb4a74590a60381	-0.08067736417252826
238	0x3fa4ef2aa2f752d3	0.04088719596226089
239	0xbf957360c940edfa	-0.02094794491152461
240	0xbfcbacd9f2580705	-0.216212504703485
241	0xbf846de11ed42c7f	-0.009975203278847154
242	0x3f8b24212cc6a6c1	0.013252505473093536
243	0xbf9f9ce2fb315a9a	-0.03087191255721198
244	0x3f98dfdf6b4efe02	0.02429150669536107
245	0x3fc0d4e2270a0fe2	0.13149668604103143
246	0x3fa65f4099ed85fb	0.04369546774865892
247	0xbfc599d886ca7268	-0.16875750142652923
248	0x3fad6868d3dc6b64	0.05743720613664641
249	0xbfa3b9bf3360a412	-0.038526511212985906
250	0xbf801a8b23b454cc	-0.007863127734291452
251	0xbfc6432060baa712	-0.17392353747464334
252	0xbf902b498b0f8bc0	-0.01579012786158862
253	0x3fa051a00574232a	0.03187274996350305
254	0xbfd1d55cac243928	-0.27864758310978965
255	0xbfad12a2bbad8d08	-0.0567828039263763

weight f8 [16, 65]
0	0xbfc8ab151fcaa24f	-0.1927210240585446
1	0x3f988c8838235d6f	0.02397358744277994
2	0x3fb888786fee08ec	0.09583237393056593
3	0xbfb17515ed094398	-0.06819283520714092
4	0xbfc41a56235cf803	-0.15705372549740568
5	0xbfb7c0b786ce11b0	-0.0927843765367189
6	0xbfbc9893031907af	-0.11170309854153858
7	0xbfcbd4ff585712cb	-0.21743766606791434
8	0xbfd512767f804513	-0.32925188494944385
9	0x3fc75576ad619fd1	0.18229564157377223
10	0xbfb8fb72cc9b5b9a	-0.09758679862294031
11	0xbfcc264cf72fb3a7	-0.21991884297986283
12	0x3fb182c5ca63790c	0.06840168181540579
13	0xbfac4836d2a6126f	-0.055238450254397324
14	0x3fa2d4c3ae243049	0.036779513366213275
15	0xbfc9f287581067a6	-0.20271388816837294
16	0xbf9909345d8bd514	-0.024449175080879362
17	0xbf93f530826e65da	-0.019490011177912915
18	0x3fb5170c2648069d	0.08238292631724638
19	0xbfb0a26490cefd95	-0.06497791800847204
20	0x3fa71f5bd6c911b6	0.04516112324612058
21	0x3fc180cbc726922b	0.13674304222253517
22	0x3fca6ed0253b43d8	0.20650674646324663
23	0xbfbdc50d63622e0d	-0.11628802944522239
24	0x3f9d2fa6e761f4b6	0.028502090332484818
25	0xbfaea85c430ad5c1	-0.05987823789966341
26	0xbfc2fa492b8f1c25	-0.14826311709313802
27	0x3f8ca8c3e6767c6d	0.013993769140880208
28	0xbfaf34540c739b65	-0.06094610836026141
29	0xbfc8ccbd854cc5c3	-0.19374817856582469
30	0xbfbb72a150ebce66	-0.10721786714184986
31	0xbfcc3a9634b27b6e	-0.2205379254637267
32	0x3f9172bc2da970da	0.017039242064456818
33	0x3fc4fd6dc618cc20	0.16398403332422706
34	0x3fa60f2d5d4c35fb	0.04308454288375781
35	0xbfc0369144691ebd	-0.1266652664219147
36	0x3fb3b1a92691c2bf	0.07692963782916261
37	0xbfb88a75187488cb	-0.09586269232798654
38	0xbf97f412b42b3b6a	-0.023392002340922792
39	0x3f8239125977dd13	0.008897918086388878
40	0x3f95b74cc4f50428	0.02120704605227189
41	0xbfcd515947343e29	-0.22904506661187554
42	0x3fa1aeb023bb0ecc	0.03453588901677804
43	0xbfa62a415d271a33	-0.043291132565674316
44	0x3fbafc572dad1f08	0.10541291108267725
45	0xbfc2aee350fcedb7	-0.1459621568154554
46	0xbfd1fbb744b5e718	-0.28098851881041886
47	0xbfb3006ef18784de	-0.07422536274636424
48	0xbfbada46bdf60528	-0.10489313256950494
49	0x3faa6caecbb020ef	0.051610433925874825
50	0x3f8317a0d1b8c598	0.009322410965156888
51	0xbfbecbdc6892482e	-0.12029817154896769
52	0xbf6d6e70339c0c96	-0.00359270014166808
53	0xbfc444cbd2064d86	-0.15834949259861392
54	0x3f90e966bad9959f	0.016515355257430305
55	0xbfa9634ea46809bb	-0.04958577877916378
56	0x3f9eaf03f8dd5733	0.029964506210794894
57	0xbf92518b4717509e	-0.01788919087796669
58	0xbfcb5f5f30104794	-0.21384801718573654
59	0xbfbe39ce4be50ba3	-0.11806954720400013
60	0xbfab55d975380567	-0.05338935428518248
61	0x3f92947f54880cb3	0.018144597563161734
62	0x3fa31763b50894d1	0.03728782257921071
63	0xbfb0856c8d28dd72	-0.06453588911323552
64	0x3fa0fe8bef3af763	0.0331920365838261
65	0xbfc142648d63f658	-0.13483864692527692
66	0xbfc497d8f831354d	-0.16088401907692643
67	0x3fb3c4d2a8d9f830	0.07722202894544306
68	0xbfbf3ee89ed1a948	-0.12205366017739039
69	0x3f848b2780e0da36	0.010031040783457273
70	0xbfc093d4ef42fc62	-0.12951146776865402
71	0x3fb3e2d257f51cea	0.07767977378272276
72	0xbfc3670e8be1c06b	-0.15158254461448747
73	0x3fb2ffe091b1856c	0.07421687657326509
74	0xbfbd17750b2a6246	-0.11363917849156122
75	0xbfa7266e9fd22fa0	-0.04521508885326786
76	0x3fdb574205654552	0.42720079924500454
77	0xbfa2b750f43280cc	-0.03655484181331445
78	0x3fc0c7c27b2898e6	0.13109618199923218
79	0x3fc143cc6fae4855	0.13488154843486436
80	0xbfa1bc5b4e802e73	-0.034640172321897554
81	0x3fd4bb59ec4a0519	0.3239350135337005
82	0xbfc39c6497c34b85	-0.153210233786549
83	0xbfc3987e9f20e30e	-0.15309126634544906
84	0xbfb459b2cd6db938	-0.07949368968340742
85	0xbfa1770cda93e00a	-0.034111406022873395
86	0xbfb90d896e41cec9	-0.09786280576536933
87	0xbf9d557726c505b3	-0.028646337262448984
88	0x3fb7eace6bd148b6	0.09342661030067032
89	0x3fa21ef91ee8fa74	0.03539255621261797
90	0xbfacca4a5a62bf9e	-0.056230853589453775
91	0x3f8cb6bd6146333b	0.014020423441957077
92	0xbfbde1731b4061c9	-0.11672133841819411
93	0xbf9ffc10c525c37f	-0.031234991105012263
94	0x3fd84d3790535b6b	0.3797129544668027
95	0xbfb499ddd5f802c9	-0.08047281717154954
96	0x3f97f3ee28af3552	0.0233914577800552
97	0xbfb5979dce934e0b	-0.08434473317475281
98	0xbfbf9237d3af73f4	-0.12332486074542698
99	0xbfa27bd4a3686f78	-0.03610100264287913
100	0xbfb6853c04541e97	-0.08797049623182783
101	0xbfbd2f5c171f56c1	-0.11400390209686419
102	0xbfb2c53271c6e09f	-0.07332148816829197
103	0x3fc02d31c6601902	0.12637922464654855
104	0x3fb1638d7bc91daa	0.06792530319318382
105	0x3fbf09795cfc45d3	0.12123831291344027
106	0xbfbad6132f12ea15	-0.10482902430786852
107	0xbfb3d74beb38be2f	-0.07750391476360428
108	0xbfb895a0b00d323c	-0.09603313730367175
109	0x3fc30a47876018ff	0.14875120267988248
110	0x3fc6232409be73b4	0.17294741130618052
111	0xbf9de148164b61f5	-0.02917969356608015
112	0x3fa819ba90d1f3b8	0.04707129495452683
113	0x3fb07e48ed56d70a	0.06442695421614189
114	0x3fbfb0412ed50517	0.12378318208086046
115	0xbf93248c855ed5dc	-0.01869411052731161
116	0x3fac9ca94fe7267c	0.055882731441283945
117	0x3f705ba868b8a261	0.0039936617354575385
118	0xbfc23559064416b2	-0.14225304418521528
119	0x3f9e49e4ff679dae	0.02957876023165589
120	0xbfb2f0336705b57f	-0.07397767319863212
121	0xbfa535c32d1ef701	-0.04142579961579252
122	0x3f9dccfffe1c3e97	0.029102325329459857
123	0xbfb0d11f28e5bd7d	-0.06569094418022377
124	0x3fae9856865d5a4a	0.059755996610580356
125	0xbfb132b912304300	-0.06718022054725381
126	0xbfc59227345c79de	-0.16852273995114236
127	0xbfca8202bda18c71	-0.2070926118786676
128	0x3fae7e898ed7bc04	0.05955915325818498
129	0xbfbb5d125290921a	-0.10688890949001753
130	0x3f7a259f4c720e61	0.0063835356332933866
131	0x3fb7056b184dd2df	0.08992642730101917
132	0x3fbe2fef32f45983	0.11791892045980572
133	0xbfbc4c435f245798	-0.1105386836319141
134	0xbfc9b33aabfb8eb7	-0.20078214070882947
135	0xbfc725f9f93decbe	-0.1808464495660242
136	0xbfac37000734e6d4	-0.0551071175381829
137	0xbfa73e53b304edc8	-0.04539739189427966
138	0xbfd1e881bb154329	-0.2798160864813775
139	0xbf92f37f5e1e0e9e	-0.018506994361372812
140	0xbfbf7728fc18e616	-0.12291198878019602
141	0xbfc6d21c390240e8	-0.17828705581314996
142	0x3fad0a11056e5cdc	0.05671742621705686
143	0xbfc35789af9cfbf2	-0.15110894274582126
144	0x3fb70d6bb0691509	0.09004853302856843
145	0xbfaa6c2c26acffe3	-0.05160654041401338
146	0x3fc2a27668143ae0	0.145582962817989
147	0xbfb280129a390b95	-0.07226673379140743
148	0xbfad0c7ad384bfb6	-0.0567358382417064
149	0xbf6cc52b1229ff77	-0.003511985896068322
150	0xbfbe56242a221e3e	-0.11850191143650421
151	0xbfb8694d4ff974a8	-0.09535678102970968
152	0xbfc342c057d05164	-0.15047458923130386
153	0xbfb213b412f7ef79	-0.07061315024469463
154	0xbfb4bb184a2dfb8b	-0.08097984133745066
155	0xbfb0ce73c2c0533b	-0.06565021042508772
156	0xbfc051ca09561cc4	-0.12749600845220332
157	0xbfbb6fce730bada1	-0.10717478092890655
158	0x3fc2074fb1bf9497	0.14084812335128014
159	0x3fc12e52be80c73d	0.13422617246538407
160	0x3fb93d3b3c1b9542	0.0985905668017795
161	0x3fab6d8817f395ba	0.05357003490807295
162	0xbf9a7464b1191ce9	-0.025834630307397886
163	0x3fb486b731eb8761	0.08018059700728265
164	0x3fb6152ad42d8a5b	0.08626048736690832
165	0xbf9f8c5f594fa063	-0.03080891592608771
166	0x3fb186e4215a5113	0.06846452535893759
167	0xbfc783cf6a19f414	-0.18371002846461748
168	0xbfb7409a9e41ab91	-0.09082952846226379
169	0xbfc0cd702b1be8a7	-0.13126947503025585
170	0x3fa23ec313f9f9ed	0.03563508623937026
171	0x3faf076c7fdc8c57	0.060603514297576204
172	0xbfad12fe2a8f3ffd	-0.05678552884603503
173	0xbfc7c557a9a5475d	-0.1857099130962138
174	0xbfcd166641c4f0db	-0.22724607669250116
175	0xbf98edbad0d53c79	-0.024344367023612954
176	0x3fb1586b0c71336f	0.06775540403141432
177	0x3fc136142eb54fd0	0.13446285515476442
178	0xbfb93af8d8cb54ca	-0.09855609219387698
179	0xbface425fa42a0b9	-0.05642813377318263
180	0x3faba9661636eec7	0.054026785098782386
181	0xbfb4b844baaf9b29	-0.08093671376955726
182	0x3f9fb5bcbeb3885f	0.03096671022365915
183	0xbfc4e29d75777fd9	-0.16316574321444824
184	0xbfc8057e0b8cf62f	-0.18766761363979031
185	0xbfc0ae51fd15c57e	-0.13031983239811135
186	0xbfc2d62eacbe6dc4	-0.14716132578619867
187	0xbfc39722d4e78177	-0.1530498065540191
188	0xbfc8a6872e201015	-0.1925820327015805
189	0x3fa5ea97577f2a9b	0.04280541365695464
190	0xbf74718402506652	-0.004991069469747327
191	0xbfb56b4cd6ff8b51	-0.08366852044086427
192	0xbfc72b080b5779cc	-0.18100071481508306
193	0x3f99f4d1a0a7c347	0.025347972326872605
194	0xbfc46bba12d47efc	-0.15953756255566265
195	0x3fc0beeb8768be31	0.1308264170815945
196	0x3f972e79fda305d4	0.022638231378328502
197	0xbfa51484ecc3ffd7	-0.04117217436032632
198	0xbfb14b00128d0e78	-0.06755066349892924
199	0x3fb0f5933414992f	0.06624717732902206
200	0xbfb06d1983331bae	-0.06416472867122877
201	0xbfab15eed1902e78	-0.05290170963425295
202	0xbfcafd37edde39bd	-0.2108526145425013
203	0x3fc499efae392668	0.16094776160234692
204	0x3f9d8be7d677bc84	0.028854010071821992
205	0xbf886490021b27e8	-0.011910557808182134
206	0xbfb0f70417757e3a	-0.06626916477898073
207	0xbfac195b47c4bcd4	-0.05488095522957229
208	0xbfc086e864a45c7e	-0.12911705888902597
209	0xbfb7d793f895c162	-0.09313320940942085
210	0x3fa6f1681135e119	0.044810535527121505
211	0xbfa221e53c8f0a98	-0.03541485180132503
212	0xbfc42811ca86294d	-0.15747282399054044
213	0xbfc6b549cb228e04	-0.17740747851085825
214	0xbf65284d62f58c4f	-0.002582694192527358
215	0xbfadd407432645ad	-0.058258273074112445
216	0xbfc304640845f7b2	-0.14857149509401563
217	0x3fb9cf787e7b268b	0.10082200134197643
218	0xbfc153d5f2708027	-0.13537096345771824
219	0xbf9f82f839a65cff	-0.030773046988170624
220	0xbfcecf5841ca386b	-0.24070265972517588
221	0xbf91c3fae3001bc2	-0.017349166970259018
222	0xbf7cd76d6d73a1b7	-0.007041385127401537
223	0x3facb8e700564789	0.0560981929694569
224	0xbfd535a38430135c	-0.3313988486191215
225	0xbfc2e2d8d1ebcd37	-0.14754781961492267
226	0x3fa19e726aa4b356	0.03441197921561094
227	0xbfc8d456c3b57357	-0.193980069695409
228	0xbfd1aa34d0ec5609	-0.27601356890349443
229	0xbfc270866e4ddc8a	-0.14405899415917062
230	0xbfc4ef4f77a55070	-0.1635531744201475
231	0xbfad38c9a24e7838	-0.05707388025551591
232	0xbfa9d85d582c5b84	-0.050478856099451824
233	0xbf83e5736b0ce022	-0.009714986519256345
234	0x3fb56e3a8cd14d21	0.0837132066529205
235	0x3f55e05e39e2ead2	0.0013352317978802442
236	0x3facda1c4244654b	0.05635155018735335
237	0xbfc21d2316285da2	-0.14151419240873248
238	0xbfb7ace970377fff	-0.0924821757284917
239	0xbfc40c543dace56e	-0.15662625323765716
240	0x3fa96c5ba9d2716c	0.04965483139060009
241	0xbfb415c21e13044f	-0.07845700487361394
242	0xbf88cf50cd00de6d	-0.012114173179823962
243	0x3fa91eef4ed0b13b	0.049064138766285535
244	0xbf8da77cfec4c5fb	-0.014479614758417183
245	0x3f7c0ffde8285785	0.006851188491529108
246	0xbfaef99e781e7750	-0.06049819198891149
247	0x3fb0be0b85f39e1e	0.06539985676101209
248	0xbfc6f3fc5fb21d7b	-0.17932085678715368
249	0xbf97d946ed276332	-0.023289783692095507
250	0x3face8e508a2307d	0.05646434526815456
251	0x3fa4391d4e674c7c	0.039498248883000436
252	0xbf8585dd18652804	-0.010509230906468055
253	0xbfb18c67a581c1db	-0.0685486582822316
254	0x3f8ae849fa0e9cd0	0.013138368552814944
255	0xbfc5d4d3a87aad48	-0.17055745817683943

weight f8 [1, 17]
0	0x3f923f9de43ad483	0.01782080369476492
1	0xbfaa2def6437ab8b	-0.05113170717580492
2	0x3f79476b4dae8064	0.006171626237943515
3	0x3fa2ae11066ba2df	0.036484272035357306
4	0x3f92e064cfa8fba9	0.01843411939102749
5	0xbf9f64cee24f6383	-0.030657990038750704
6	0xbfa7655d7ea309cf	-0.0456952302061101
7	0xbfb12f6994d06bfc	-0.06712970622213271
8	0x3fa6bc82506d8545	0.04440695983681534
9	0x3f88fd628e8d3c58	0.012202043509800628
10	0x3fb5a11a0cf00a35	0.08448946777210938
11	0xbfa6734bd5a2637f	-0.04384839041558219
12	0x3facddbfdea4435b	0.05637931435388196
13	0xbfa380ae8819b60f	-0.03809113894827131
14	0xbfaca5ad8ba1c89c	-0.05595152215472973
15	0x3fac978771527395	0.05584357508016705
16	0xbfbc54271414b49f	-0.1106590675378407
