Data/Breast Cancer Winsconsin (Diagnostic)/results/models/bcw_23.onnx (onnx, 416707 bytes, 5 tensors)

model.sequential_layers.4.Linear 4.weight f8 [1, 17]
000000 c6 89 b3 84 fb 27 e0 3f 60 c5 8e 45 01 33 e6 bf
       0.5048806754896809 -0.6937261923359692
000010 56 c6 16 5b 0b 5c e1 3f fe 89 07 e0 39 53 e3 bf
       0.5424858836251569 -0.6039094329428847
000020 71 e8 9a 84 0b de de 3f 87 57 4a 0b c0 c9 e0 3f
       0.4823025507900019 0.5246277065768802
000030 3e 26 37 19 e9 d5 e2 3f 58 08 c0 04 27 e4 e0 3f
       0.5886121265877546 0.5278506367469715
000040 e7 d0 d8 f9 ff 6e e4 bf ae 1c 59 46 d5 9f e1 3f
       -0.6385497932265282 0.5507608770357331
000050 ce f9 53 b7 97 7e e0 3f 94 e3 e5 61 fb 36 e1 bf
       0.5154532032609553 -0.5379616653509509
000060 6f 17 fb b2 b3 27 e3 bf 6d b8 21 85 e2 dc e5 bf
       -0.5985964294165863 -0.683213481924907
000070 3b 6d 1e 32 4c e4 e0 3f c9 fd 83 89 9d ab e4 bf
       0.5278683642276641 -0.6459491430140868
000080 0e 56 36 f9 84 67 c2 bf
       -0.14378416222159313

model.sequential_layers.3.Linear 3.weight f8 [16, 65]
000000 ad 55 3f ce 48 ee b2 3f 38 a8 28 25 9e 68 b0 3f
       0.07394843135201397 0.06409634024808575
000010 3f d0 b0 d2 6b 4f bd 3f af ad 35 e1 f2 13 c6 3f
       0.11449312108817454 0.17248378750387647
000020 77 1f 13 c7 08 90 c6 3f 99 54 95 43 ba 57 8c 3f
       0.17627057762569695 0.013839202105979264
000030 69 6c d5 54 af 0f c7 3f 82 81 24 d7 c1 2a c8 bf
       0.18016616480130956 -0.1888048458577139
000040 b4 62 0a cf 3f 2f b8 3f 4e 2e b2 e4 89 90 c6 bf
       0.0944709663839472 -0.1762859694175511
000050 1d 70 fc 4f 9a 76 b2 bf 08 9e 5d 5e c0 24 90 bf
       -0.07212223484788223 -0.015765195617317956
000060 8f 63 e6 ea eb 87 c4 bf 33 01 00 80 f8 ff 73 3f
       -0.16039799661373563 0.004882784560323028
000070 cf c8 be ff 4b c8 ba 3f 1d f8 87 eb 07 4d c5 3f
       0.1046187877061897 0.1664132976583809
000080 d6 f5 cd e2 b2 64 ba 3f 0b 70 a4 b0 cf c7 ae 3f
       0.10309904134006528 0.06011818915632724
000090 5d a6 85 e0 da d6 b0 3f a8 bf 75 22 a5 80 b6 bf
       0.06577842694755405 -0.0879004677897216
0000a0 f0 25 22 d4 da 1f b4 3f 65 3a 3b 78 4a 93 c5 3f
       0.07861106566465259 0.16855746145889153
0000b0 13 e4 5a ac 0c 20 b3 3f 0a 10 28 77 48 a9 a2 bf
       0.07470778663527282 -0.03644777731463485
0000c0 a7 27 be d4 19 d0 b7 bf 04 65 63 77 d8 6c 96 bf
       -0.0930191177741607 -0.021899587904816734
0000d0 46 73 af 79 13 96 ba 3f 32 6b 8f dd 84 40 a3 3f
       0.10385247917970472 0.03760161594956059
0000e0 a2 9e 5d cf e3 a3 b1 bf 6d a1 0b 51 83 a0 97 3f
       -0.06890701115264133 0.023073245832081413
0000f0 7f 47 20 7e 38 64 c8 bf 69 02 ae e4 e9 e2 b4 3f
       -0.19055849226475272 0.08158742745400506
000100 95 fa bf d7 cd 64 b9 bf 11 10 f6 1e e1 7a c3 3f
       -0.09919439809162107 0.1521874810388231
000110 1d fa cc 8e 17 59 c7 bf 1f 6e 60 9e ea 11 c5 3f
       -0.18240637276353847 0.16460926755176872
000120 3f 09 30 29 42 60 c0 3f a6 fc 30 6c bf 79 c6 bf
       0.12793757449260032 -0.1755904463079549
000130 f9 9f df e3 26 3b d0 bf ce 55 80 f5 f7 45 ce 3f
       -0.2536103463485229 0.23651027190559976
000140 b9 d9 49 20 17 5e c0 3f d7 2f 04 57 d2 bd b7 3f
       0.1278714091929041 0.09274019836828927
000150 80 cd 4a 96 76 90 a5 bf 80 87 0c 48 95 be b7 3f
       -0.04211779198285637 0.0927518177891482
000160 94 f2 ac dd 4a 7f 7d bf e8 db ac 15 53 20 ce 3f
       -0.007201473660469877 0.23536146696434845
000170 18 9a da 9a 0f 25 c9 3f 7e f4 1e 36 0d db c8 3f
       0.1964435106394411 0.19418492453215558
000180 c4 5f 7d bf 92 17 b3 bf 3e d6 23 29 18 94 b1 3f
       -0.07457844901125471 0.06866599087137445
000190 4e b6 34 5e 66 6a b3 3f f2 e8 2a 6c a0 6f 88 bf
       0.075842283248414 -0.01193166093922968
0001a0 14 63 06 db 32 d3 bd bf 46 1c b5 04 b7 a2 c5 bf
       -0.1165038857201462 -0.16902816514832092
0001b0 e1 7f b4 0f 82 44 ae 3f e7 25 5f e7 a5 90 af bf
       0.05911642495834691 -0.06165045213090164
0001c0 b3 25 c8 6e 52 b9 c4 3f bd ca 4c 78 15 55 95 bf
       0.16190557870167552 -0.020832381694342973
0001d0 a6 c0 4b 81 3d 70 c2 bf 63 29 3e e5 45 23 d1 3f
       -0.14405030072476172 0.2677778948497204
0001e0 f4 81 1c dc 10 30 d7 bf 8c 23 bc 2c 8f d4 b0 bf
       -0.3623087071919422 -0.0657433971611125
0001f0 9c 03 1a 7f 5c 65 c3 3f 9a 75 63 17 e0 23 d9 bf
       0.15153080183156653 -0.3928146580127191
000200 91 e2 69 3f 13 dd b2 3f ff 7d 1d f1 a0 74 c5 3f
       0.07368583963569565 0.16762172482684431
000210 a1 b1 0f 0e b0 95 c9 3f e8 11 4f 19 a8 7c d6 bf
       0.19988060652339093 -0.3513584372670082
000220 0d a3 43 a2 36 e6 ae 3f d5 18 dd 8e 56 c5 af bf
       0.06035013895763628 -0.062052445353900566
000230 aa 58 58 bd 01 45 dd bf 62 6d db 8c 02 e2 d0 3f
       -0.45733684054119783 0.26379455333309043
000240 f0 cc 7a e7 b0 ba 9c 3f a4 b8 34 96 52 13 c5 3f
       0.028055919769667648 0.16465217909121066
000250 51 5d c6 b4 2e 00 b3 bf af ed 73 ee e1 a6 ca 3f
       -0.074221533903587 0.20821785109715793
000260 ad 15 88 c6 d7 ee cb 3f 63 2e ca 72 76 f9 99 3f
       0.21822640603947488 0.025365687137805525
000270 e5 72 e5 b3 56 34 c1 3f 88 78 c8 c7 03 12 ca bf
       0.13440974983213674 -0.20367476706536913
000280 41 01 2b ef f4 12 c4 3f f6 f9 cc 83 26 49 d7 bf
       0.1568285148441735 -0.36383974906121297
000290 f6 da a6 3d e0 dc c3 3f 96 65 45 fc 9f 60 d1 bf
       0.15517809877720595 -0.2715225184998301
0002a0 6d c2 b4 e4 55 22 bb 3f b6 f9 75 4f 43 4f d5 bf
       0.10599266847271745 -0.3329628253922253
0002b0 69 eb 21 67 a9 f8 d1 3f c7 fd 16 50 8e a3 c2 3f
       0.28080210753949203 0.14561633024821516
0002c0 d1 01 26 eb d9 3b c0 3f f4 82 90 f2 83 dd b1 3f
       0.12682651502474454 0.06978630706772632
0002d0 8a af 4e 70 df 0a d2 3f a1 89 21 60 77 ca bc bf
       0.2819136235000249 -0.11246439072559734
0002e0 44 0f 5c d5 83 92 d4 3f 11 e6 6f a8 e7 d0 d6 3f
       0.3214425643529817 0.3565005440610501
0002f0 85 3d 27 3e 68 67 91 bf b0 c7 d3 98 45 1d c5 3f
       -0.016996029656920725 0.1649558063723453
000300 d4 b6 7a 4e 21 7d d0 bf 1f d9 f6 a8 50 49 b5 bf
       -0.25763733543395273 -0.08314994931319973
000310 79 b0 bf 9f 18 d8 80 3f 03 84 0d c2 d8 0a c2 3f
       0.008224670767923424 0.14095601535066757
000320 d9 45 ce 74 68 23 c7 3f 5c 44 3a bc 6a ab d4 3f
       0.18076806739240572 0.322962459388753
000330 22 68 7b f5 5b b2 b0 3f 4d c4 a7 7c f9 ae a1 3f
       0.06522154563154506 0.03453807493850345
000340 ab 32 06 74 d0 ed d3 bf a6 97 43 91 64 d2 d4 bf
       -0.3113900311516697 -0.3253413599580831
000350 ad d1 ce 3e 59 40 c8 bf 29 02 6e b8 e7 7a b7 bf
       -0.18946376387397149 -0.09171913387945864
000360 f5 7a b0 ec 4d 57 d0 bf 07 6f 34 31 c5 99 bc 3f
       -0.2553286372585 0.11172134829797296
000370 ad d8 e4 25 26 f9 c7 bf 3f 9c 20 09 12 61 ae 3f
       -0.18729092455186472 0.05933433877390159
000380 69 57 74 9a 35 da 5c bf b3 f9 2d f6 20 4c d8 3f
       -0.001761009547242643 0.3796465305421421
000390 be 19 37 26 a8 a8 af 3f 9c ea c8 aa b1 b8 b7 3f
       0.061833624520250194 0.0926619569735671
0003a0 1b 6d 6f 47 df 3d c8 bf 2b be 68 87 d3 82 57 3f
       -0.1893881892018293 0.0014350000107120713
0003b0 ac df 98 2d 83 b6 a3 3f f7 bd 31 82 a8 e7 cf 3f
       0.03850183421712869 0.24925714833396714
0003c0 2d 20 57 f0 7b 2c b8 3f df 05 38 7e 15 93 b6 3f
       0.0944287740486522 0.08818182307734145
0003d0 76 20 80 5a f7 9d bb bf 1e 57 c1 96 dd ea a5 bf
       -0.1078791233013606 -0.042807507183779445
0003e0 e7 e3 aa 15 34 74 ba 3f bd 10 b9 e7 92 28 bc bf
       0.10333562401764561 -0.10999410779283188
0003f0 9e 34 0c 9e d4 92 a0 3f 2d 85 23 de ea e0 c8 bf
       0.032370228093079975 -0.19436393591517157
000400 2e d8 7e 0f cf b2 be 3f f8 bb 20 73 ad f1 b3 3f
       0.11991590622241752 0.07790645657290429
000410 a4 94 e0 96 eb 26 98 3f c6 71 88 67 06 9b d0 bf
       0.023585969051187164 -0.25946197615283173
000420 cd 98 23 6e 5b d1 b7 3f c6 2f a7 9d 4d 53 c1 3f
       0.09303828658048303 0.1353547115126032
000430 30 da 93 bb 35 2b c0 3f 9f 4d 4f a7 d4 90 c7 3f
       0.12631866129932368 0.18410738152907144
000440 4b 15 f8 46 18 0e bd bf 55 99 ec 7d 6b 2f cf bf
       -0.113496320082125 -0.24363464020388884
000450 e0 af 54 0b 99 1a a4 3f f9 9d 23 a7 51 0d cc bf
       0.03926542533221755 -0.21915646229830069
000460 9d d9 31 9e f8 4d d0 bf 7d c4 ec 4b 9e 1e bd bf
       -0.2547589821691874 -0.1137484488833866
000470 0a b0 47 59 9d e2 d1 bf b6 a2 f6 1c e0 21 c9 3f
       -0.27945646017792625 0.19634629644612794
000480 3a 6d 27 76 4a 64 d4 3f 28 08 77 07 02 6a d3 3f
       0.3186212686393507 0.3033452103519516
000490 5e 89 af cd 6b 6d ab bf 45 48 df c7 6c bd c6 3f
       -0.05356919179736751 0.1776557899416408
0004a0 19 ea 8b fb 23 27 b8 3f 3a f1 00 bd db 5c c9 bf
       0.09434723750374764 -0.19814631203360894
0004b0 43 15 ef ca 32 d0 94 bf bc a2 d5 12 96 6b ce 3f
       -0.02032546390161839 0.23765827102331183
0004c0 87 1a 57 ac 7f 90 cc 3f 82 a1 fa c5 1d ed be bf
       0.22315975108195493 -0.12080560763809525
0004d0 7b a6 6f 38 49 02 dd bf 07 ef b8 f6 49 ba b5 3f
       -0.45326452742902007 0.08487379334922816
0004e0 0d db ed 17 29 ad 97 3f 11 42 86 e6 da 2f be 3f
       0.02312149246742039 0.11791771057165358
0004f0 d2 43 1c c4 7a 79 b1 3f 84 7a fa e6 c8 af b5 3f
       0.06825988090373805 0.08471351279374956
000500 c6 93 2c 89 a1 cf cd bf 2f a4 f9 bc 84 40 d3 3f
       -0.23289889524417456 0.30081289724927535
000510 b3 dc ca 44 a4 89 a7 3f 10 0c 1f 5b 16 17 d4 3f
       0.04597199764014572 0.3139091386657933
000520 3e 2b a9 51 22 40 cc bf 76 4e 23 9e 03 e0 c2 bf
       -0.22070721614212546 -0.14746136876657417
000530 e5 9a c5 6d 87 19 b2 3f 06 b2 79 46 17 f8 a5 bf
       0.07070204191186809 -0.04290840850157811
000540 5e f8 2c ec 0d 8f b4 bf 97 51 3c 22 3b 99 cd 3f
       -0.08030783668525163 0.23123873874341136
000550 a7 a8 0c dc c9 8e b7 3f 15 6a 46 58 c0 b9 b9 bf
       0.09202252981472957 -0.10049059062149752
000560 29 0f 18 63 4a 1b c1 3f 9c 55 8b 26 15 24 b4 3f
       0.13364534224103267 0.07867557707807865
000570 e2 75 5f 5e 30 c0 b9 bf 56 4f 52 67 f1 02 c5 3f
       -0.10058882049585052 0.16415231270786518
000580 ac c2 1c 52 f7 3f cb 3f 8a 2c 42 8a 7d e4 56 bf
       0.21288959035293453 -0.0013972497918384474
000590 00 6d dd 96 a3 20 d2 bf f8 ca 3b bb 3a 38 86 3f
       -0.28324212773232205 0.010849436606326077
0005a0 5b da 47 7d f6 9c c3 bf e5 fd 3b 31 69 3b cd 3f
       -0.15322762601109016 0.22837557701130531
0005b0 b6 77 7c 45 c6 e5 cd 3f 13 55 77 32 a3 5e bf 3f
       0.23357466118699016 0.12253780347903769
0005c0 45 47 8e b2 f4 d4 b4 3f 3f 50 07 4f 80 86 d0 bf
       0.08137444838783121 -0.2582093021167146
0005d0 48 c7 2b 9d 41 f0 b1 3f c3 da fb 9e 07 83 c6 3f
       0.07007227027113772 0.17587371123200599
0005e0 89 9b 21 83 84 1b d3 bf 28 e8 80 a4 90 c4 c1 3f
       -0.29855454259671227 0.13881118805312664
0005f0 a5 0d 51 68 b6 52 d3 bf 23 df 58 4a 28 e6 c0 3f
       -0.30192337214631443 0.13202384596092384
000600 f8 4e 91 ce fc 3d af 3f 66 23 fc e0 2e ea c7 bf
       0.06101980229928289 -0.18683420167533454
000610 76 a2 0c c8 95 f8 c3 3f 1c ad a9 fc 08 d3 b1 bf
       0.15602371471438276 -0.06962639015698752
000620 6f bb 5d 60 98 8f bf bf 6e 5e 0c f3 d7 4f d5 bf
       -0.12328483917893406 -0.33299826369464014
000630 0d a9 b5 ab 83 53 a1 bf 06 60 fc 0f a0 b4 c8 bf
       -0.033840288839956136 -0.19301224499281505
000640 5b c8 ab a5 18 b8 c4 3f da b6 8c aa db 8f d0 3f
       0.16186817254453242 0.25878039984932644
000650 76 31 4a 18 61 0a 7b bf 7d ab 87 0b 9f 74 c9 3f
       -0.006601695324786374 0.1988714987085948
000660 bb 99 bd 95 54 97 d6 3f 0e bf 12 c7 f1 2c ae 3f
       0.3529864752112208 0.05893664889424431
000670 dc 38 cf 64 bc ee bc 3f 2f 7f 15 19 58 de ce 3f
       0.11301782094162455 0.24116040444186512
000680 cc 70 22 c1 b9 1e cd 3f e3 20 8a 9f 4e f7 d3 bf
       0.22750017099759245 -0.3119694288257177
000690 9f fb c1 4e 3f b8 c3 bf a4 93 94 f6 6d 87 d6 bf
       -0.15406028123467494 -0.3520159633647444
0006a0 1f 3a 74 62 40 e4 c4 3f f4 f5 ab ef 68 d5 ca bf
       0.16321568305325315 -0.20963775351258074
0006b0 42 d4 e2 9b 91 ca c9 3f 7f e0 30 e6 21 e0 de bf
       0.20149440871833418 -0.4824299571951158
0006c0 a7 c0 88 74 f1 46 c7 3f d1 42 18 9c af 29 b2 3f
       0.1818525141729925 0.07094857750804386
0006d0 2e 61 b9 19 e1 39 a9 bf 0f 40 2a ae a0 1b bf 3f
       -0.04926970900550241 0.12151531459880992
0006e0 6a d8 1b 42 a7 84 a4 3f 39 8b 56 63 d3 2c d7 bf
       0.04007456476203759 -0.36211094571096997
0006f0 38 73 98 74 98 ac a0 3f 7e a7 2e 67 86 52 c2 bf
       0.03256679938588153 -0.143143463499026
000700 6c a0 49 11 86 0d cd bf e3 d9 d8 59 d5 64 a3 bf
       -0.22697521061059278 -0.037878672807369694
000710 e4 6e 37 c1 dc f2 c8 3f 6e dc a2 99 db 36 c5 bf
       0.19491156992341196 -0.1657366275955811
000720 84 29 2a 79 30 d6 c5 bf 98 b4 51 8e b3 b8 9e bf
       -0.17059904018635674 -0.030001454888794216
000730 39 27 cb 53 39 78 95 3f 37 99 d0 ef 16 47 b7 3f
       0.020966430415490598 0.09092849116186562
000740 b8 01 72 ea 9f 75 b5 3f a6 6e e2 5e 9d a9 b4 bf
       0.0838260600448909 -0.08071311537281164
000750 2d 82 c6 c0 dd 03 cf bf 42 c0 3e d5 b3 2a d9 bf
       -0.24230548775541774 -0.3932313520881544
000760 bb 7b 03 0e 91 ed d3 3f 09 cf 42 72 ae a9 ae 3f
       0.311374915776408 0.05988831658160449
000770 48 b0 9e 16 66 4b d1 bf 73 bc 4f b9 a8 48 b2 bf
       -0.27022697648022076 -0.07142118953901093
000780 2f 9a 3e 0a 02 fe a6 3f 59 45 6d 0f d1 f6 c3 bf
       0.044906677008203714 -0.155969746143948
000790 89 8e 0d b2 f4 ca 97 3f 05 2e ad e2 5a dd c0 3f
       0.023235152595033646 0.13175521915614766
0007a0 97 87 a1 2f a9 7a ce 3f 1d 4c 8a d8 77 0b b3 3f
       0.2381183130810853 0.07439374004961548
0007b0 5f 0d 77 0a 04 48 d7 3f c1 07 97 2b 67 a1 a6 3f
       0.36377049467065165 0.044200157233276645
0007c0 53 3d 4c 3e fc 82 c7 3f fe dc f9 ea da 40 b9 bf
       0.18368485490689554 -0.09864586102218095
0007d0 70 cf c7 e0 ac fe c3 3f a0 71 d5 53 59 d3 c4 3f
       0.15620957351313391 0.16269985764928396
0007e0 a9 7c 5f f6 30 ef a0 bf ac e7 a2 61 ec 6f cc 3f
       -0.03307488448603497 0.22216563002967626
0007f0 36 66 d1 08 8e d9 da bf 36 42 20 43 c9 f5 c6 3f
       -0.4195284925568531 0.17937579896580907

model.sequential_layers.2.Linear 2.weight f8 [64, 129]
000000 a9 78 1b 3d 02 9e ad bf b9 02 21 3a 08 c2 b8 bf
       -0.05784613605440942 -0.09671069544948353
000010 ed d6 cc 24 c6 15 c6 bf d7 76 85 6e 64 78 a0 bf
       -0.17253948971636338 -0.03216852044236667
000020 da 40 ab e1 8f 28 c8 bf 38 07 81 ed 70 38 ad bf
       -0.1887378551387034 -0.057071236602963926
000030 77 4f 06 b8 f0 03 ca bf 85 b9 d9 93 f6 46 cb bf
       -0.20324524865702262 -0.21310312480222762
000040 ba c0 83 09 13 56 8a 3f 1b 40 e0 b6 67 d6 c8 3f
       0.012859486320366254 0.19404312543383714
000050 2f ba cb c9 7c 5c c8 bf 73 ef b1 4e a6 59 b5 bf
       -0.1903224931079008 -0.08339919492021668
000060 91 9b 7a 3d 39 60 c2 bf da 25 80 20 8d e6 d4 bf
       -0.143561511057865 -0.3265717332256749
000070 ba f0 d5 42 c5 fb af bf 25 4f cc d9 8f 09 a1 bf
       -0.06246773186555417 -0.033276076637916575
000080 b7 d5 23 22 5e 35 a6 bf be c3 d5 b9 44 4d 8e bf
       -0.04337591330287743 -0.014795815392718011
000090 f4 5b 4e 35 20 a2 c2 bf 00 d7 ea ff 8f f0 8c 3f
       -0.1455726871760984 0.014130711553075326
0000a0 e7 46 c2 9f a6 71 88 bf 79 5b 25 75 a4 f6 c6 3f
       -0.011935521841482678 0.1794019290925595
0000b0 b7 b3 42 5d d7 78 d4 bf 84 af 08 4d c4 3a ba 3f
       -0.3198755656001668 0.10245921021186005
0000c0 00 7b 70 53 e1 d4 bf bf 42 55 4f d9 82 c6 c2 bf
       -0.12434204375356828 -0.1466830788691969
0000d0 9e 2d de 0e 54 23 ba 3f 8c 24 6a d9 a5 b2 c6 bf
       0.10210156786904753 -0.17732689968059778
0000e0 45 71 a2 1e 58 17 97 bf b4 cd b3 fe 06 44 ba 3f
       -0.0225499886224594 0.1026005145866325
0000f0 fb 34 f4 6c 03 46 9a bf 88 4d ed 33 01 1b be bf
       -0.025657704854030943 -0.11759955899952079
000100 91 7a 8d de 1b cd cd bf a5 a8 3a 7c 33 de c3 bf
       -0.23282192580059705 -0.1552185398662164
000110 f4 0d 3d e7 7c 8c b4 3f 88 a3 ec 68 5c af 95 3f
       0.08026867528410958 0.021176761535716376
000120 ba 73 da 8e 6d a1 92 3f fb 46 a7 30 c1 a6 bb bf
       0.01819392380149385 -0.10801322400882533
000130 b0 8b 9f 8a 37 d1 c2 3f 13 50 a4 60 0a bb ab 3f
       0.1470097948905198 0.05416138105115933
000140 85 d1 cb cf 0c 72 bd bf 9b 60 e5 ef df 13 c0 bf
       -0.11502151559017733 -0.1256065293662275
000150 c1 a0 aa 7a 84 56 d2 bf bc 31 ae 6e 68 71 a0 3f
       -0.28653060893203636 0.032115233908459356
000160 03 87 d5 11 76 e6 c4 bf b8 53 b4 24 86 0a aa bf
       -0.16328311796956294 -0.050861541729467274
000170 1b c5 de 2f 41 88 aa 3f 69 cd 7b 08 8c 4a a2 3f
       0.05182079038002937 0.03572499850806816
000180 a1 56 1c fc 00 61 b8 bf db 7e 0c 3e 08 82 b9 bf
       -0.09523016123815832 -0.09964038386214773
000190 3a 5a 6f 55 64 a7 ae bf 98 c6 67 a9 49 8c b4 3f
       -0.059870849064897105 0.08026562105058088
0001a0 a1 bc 47 8f 8d dc c7 bf 7a 82 13 6d af 7b d0 bf
       -0.18641824241737928 -0.2575491490552292
0001b0 94 f2 2f 25 39 f1 c9 bf b4 28 65 88 f8 5e b2 3f
       -0.20267404857431315 0.0717616398807504
0001c0 6b 6d cf c3 34 44 b5 bf 10 f8 36 7a 84 a4 b1 bf
       -0.08307199268840797 -0.06891658767469289
0001d0 d4 ea d4 0d 1f 65 c6 3f 46 11 e3 35 28 eb a8 bf
       0.17496097731949212 -0.04866910608100965
0001e0 d8 de f3 a4 10 c2 c9 bf ae 38 4f 0d 43 be 77 3f
       -0.20123489431693176 0.005796682283245298
0001f0 a2 18 3d 4c df 6c d7 bf e8 14 31 62 3e 23 9b 3f
       -0.3660200352209221 0.02650163149180154
000200 10 43 1e f4 99 6c ae 3f 60 97 5f 39 88 1d c5 bf
       0.05942231278380039 -0.16496374894557686
000210 11 85 f2 af dd 1f a4 3f f8 85 7a bb 0e 0f d1 bf
       0.03930561802668298 -0.2665440398069161
000220 ec f3 01 24 f1 99 c3 bf e7 f3 aa 61 e2 a6 88 bf
       -0.15313543565926524 -0.012037056546768411
000230 b5 60 0d 5a 0c 15 b8 3f 10 bf 1a 8f 71 73 ba 3f
       0.09407117079297474 0.10332402938615481
000240 04 4c 9a ac 81 08 c7 3f 24 25 60 cc 7f 73 c3 bf
       0.17994709899775796 -0.15196225623393744
000250 64 c3 d1 9c ea 11 c5 3f 6f 5f 56 c9 73 44 c4 bf
       0.16460926682659782 -0.15833899813582827
000260 54 4e 9b 59 f1 66 db bf 49 05 70 5f 35 b8 94 3f
       -0.42815812826777244 0.020233949613616607
000270 c6 82 9a ae 4c f0 ca 3f 01 36 33 86 bc 78 d2 bf
       0.21045835996212342 -0.28861916642640045
000280 37 7c f7 e7 0a a5 d5 bf a4 f9 96 ed 43 5d aa bf
       -0.3381984010029017 -0.05149280810609305
000290 e9 17 66 be bf f5 ca bf ed 4e 83 f3 14 9f b6 3f
       -0.2106246642762806 0.08836489625110362
0002a0 72 16 17 a0 1f 3d 91 bf d5 1f e9 1a a1 7f b5 3f
       -0.01683473028767541 0.08397871882436843
0002b0 16 a2 82 20 71 e5 be bf 28 cc 64 f2 fa 3f c8 bf
       -0.12068850558956287 -0.18945252261764378
0002c0 20 1b 4d 04 7c e1 92 3f a2 b8 b5 7e 3c f6 b6 bf
       0.01843827987911617 -0.08969476788999711
0002d0 7d 97 48 c5 b1 91 b7 3f 3d 6c 6a 11 b2 a4 c5 3f
       0.09206687036984636 0.16908861017586388
0002e0 b7 e4 84 98 ae 9b b3 3f 4b 66 b2 bc 7f 40 d5 bf
       0.07659426902400211 -0.3320617048972038
0002f0 5e 96 ca ce 86 8e be 3f 41 2d 9b 72 49 13 d7 bf
       0.11936228321663964 -0.36055217926032773
000300 8c 34 13 de 72 e3 6f bf 71 ba 44 b4 41 54 b8 bf
       -0.0038926356797675584 -0.09503565455518427
000310 b6 e5 17 6a 19 b9 cc bf 12 a3 c3 54 7a 5a 7d 3f
       -0.22439878158892917 0.00716636453237453
000320 aa 7d cd 97 2d 29 97 bf 5d 19 76 5e cd 6c c4 bf
       -0.02261801947622436 -0.15957038032883988
000330 15 75 ea 07 19 28 cd bf 7f 06 1d bf 1e 27 c8 3f
       -0.22778618704334322 0.18869385081966425
000340 fb de 09 4b 62 c6 d0 bf b3 61 cf 7b 0d 0d c9 bf
       -0.2621083958433556 -0.1957108358899525
000350 92 ff f5 3b 94 bb 8b bf 66 5a 52 5d 23 5a b8 bf
       -0.01354137237535705 -0.09512539890634172
000360 9a 96 48 24 fb 26 bd 3f be 1f f3 80 fa ad c9 3f
       0.11387605319813546 0.20062190338489744
000370 fb 9d 47 22 b2 b7 ad 3f cd 90 e4 0f 8c 28 bc 3f
       0.058042113003292393 0.10999369991310744
000380 6c 07 cf 2e ce e7 c7 bf 5f a6 e0 04 b1 26 be bf
       -0.18676163945752522 -0.1177778851421407
000390 a3 3c d2 74 af a2 e2 bf 74 2e d3 25 29 eb a2 bf
       -0.5823590547241974 -0.03695038401346276
0003a0 86 41 50 ed b7 e2 d2 3f c7 af 81 eb 89 33 c2 bf
       0.2950877969278952 -0.14219783782334458
0003b0 aa 75 dc 56 af 3a af 3f 2e fe f9 fb 0b 5a b9 bf
       0.060994605401201454 -0.0990302553345763
0003c0 57 0b 55 ce 2b a1 c1 bf 1c 37 e6 e9 0b f3 b8 3f
       -0.13773105215849554 0.09745859585219957
0003d0 2b 8d 09 40 c4 58 95 bf 51 4a 4f 59 1f c5 a1 3f
       -0.020846430214431038 0.034707049991670964
0003e0 80 e0 f7 9f 3a 34 cc 3f c6 f4 69 b9 fd 69 a7 bf
       0.22034390269232418 -0.04573052299836315
0003f0 b8 5b 39 e4 87 fe d3 bf ed d9 48 a9 15 a9 c4 bf
       -0.3124103287458939 -0.16141005292747881
000400 42 7a 1a 08 b0 36 b4 3f 2a fc 9f 6c 9d 2f af 3f
       0.07895946691358183 0.06091014815319114
000410 71 74 9a 7d a0 a2 b4 bf d4 11 ea fa ce 3b c0 3f
       -0.08060648981559539 0.12682521106411448
000420 bb e8 5b fc 1c 1e c9 bf 07 bf 2c d3 a3 fe c7 bf
       -0.1962314827176835 -0.18745849429387126
000430 4b f2 a9 62 28 46 be 3f 46 00 7b b7 5b 5d b2 bf
       0.1182580223921345 -0.07173703412536367
000440 e6 cf fd 7f 3e e8 c2 bf 35 2c e5 fd df 8a c9 3f
       -0.14771252870161716 0.1995506276819882
000450 0e 21 7a fe ad dc c6 3f 62 da a9 45 0e 70 c7 3f
       0.17860960889471084 0.18310717011964345
000460 6e c9 74 f6 4c 6e bf 3f ff bc 5d 42 4f 0f bd bf
       0.12277680413243328 -0.1135148560549517
000470 6f d8 0a 1d f1 ab ab 3f f7 92 da b7 97 7c aa 3f
       0.054046187205515454 0.05173181647595542
000480 d6 be 52 3c c3 66 9d 3f ee 99 59 90 43 97 c3 3f
       0.028712320858800343 0.15305370853748407
000490 21 68 fe b3 ce 4c 92 3f 82 d0 5c ad ca 2f c9 3f
       0.017871122108410135 0.19677098717659552
0004a0 61 36 5a c9 5b a3 bc bf 10 5a a7 a9 79 c5 bf 3f
       -0.11186765352086915 0.12410698310791468
0004b0 5d f0 4c 1b dd f4 b4 bf ac fc 2a ca 73 c9 ab bf
       -0.08186132351414828 -0.05427133410329907
0004c0 fc e8 a7 99 2c 51 a2 3f be 59 f7 b3 50 29 ad 3f
       0.03577556014711722 0.05695583531239688
0004d0 31 a8 fe 2e d0 0c c0 3f 91 13 e5 48 96 71 b0 3f
       0.12539102835336416 0.06423320083292895
0004e0 5c 26 f9 b9 5d 05 b8 bf 21 1e 80 d4 05 db ae 3f
       -0.09383188047754615 0.060264761152265096
0004f0 e3 46 79 0b bd 84 da bf 8c 54 d0 20 b8 dc a4 bf
       -0.4143517124222013 -0.04074645424422227
000500 6a 40 94 c7 a5 83 a4 bf 3b d9 a6 a7 d3 d5 b7 bf
       -0.040066891300853794 -0.09310648768482548
000510 d8 c0 4d 24 bf d0 c3 bf e6 08 33 b2 28 ab aa bf
       -0.15480794212954296 -0.052087089302874465
000520 36 6e f4 bb b9 aa 38 3f e3 09 66 f4 d8 54 b3 bf
       0.0003763869717247932 -0.07551341978800212
000530 19 e3 a2 d0 1f a8 c0 3f b9 68 ca 7e ef 40 b7 3f
       0.13013074576681374 0.0908345875308524
000540 e7 c7 bd 9d ac 3a b4 3f ae a1 7e 9c 91 a5 8d bf
       0.07902029849154212 -0.01447595366319451
000550 dd 7b a9 b5 aa e3 bb 3f 43 96 9f 70 23 cb c6 bf
       0.10894267020329047 -0.17807429312886044
000560 41 32 c8 6b 19 97 aa 3f 26 46 2e 9e 5f 8e b7 3f
       0.05193404617975662 0.09201619731745633
000570 30 f2 7f 1e b1 15 94 bf 87 e1 15 ad 2d ae cb 3f
       -0.019613997923430826 0.21625300361098374
000580 78 1a 59 db d3 ac be bf e8 29 06 fc 65 25 9a 3f
       -0.11982463936974763 0.025533288485840716
000590 f3 9a d4 fe b2 31 ca bf b6 1f 62 19 14 c8 ca 3f
       -0.20464169924635875 0.20923091163080948
0005a0 96 8d ac 51 a9 28 c3 bf d5 01 d3 24 ec 5f af bf
       -0.14967838752737056 -0.06127870511545878
0005b0 46 9b d9 66 b6 08 ca bf 99 f1 c6 91 9b 4e bc bf
       -0.20339088460897353 -0.1105744582081968
0005c0 7e 50 47 7d 4a 96 a2 bf 34 90 3f 6b 35 b9 c4 bf
       -0.03630287913588946 -0.1619021199868499
0005d0 3b f0 2b ed a9 00 b6 3f c6 2c 10 21 39 5d 5f bf
       0.08594762840579133 -0.0019143159772763581
0005e0 a6 8b 32 2b 4b ed 96 3f d9 38 3f eb 56 ac c2 bf
       0.0223895783534648 -0.14588438498180414
0005f0 ff 8b 70 03 26 2a 6d 3f fe 12 40 46 ff c1 c7 bf
       0.003560137028686849 -0.18560782365980083
000600 6d c1 3b d6 42 c9 aa 3f 5e b6 66 43 ed 62 b3 3f
       0.052316750194111396 0.07572825332200625
000610 ba 18 9d 28 ed bd c3 bf b3 98 0c 8b 2e d1 a5 bf
       -0.15423359377945706 -0.042611555551319034
000620 1a 3f c0 26 ed 08 c9 bf d2 dd 7b f8 3d de 3f 3f
       -0.19558491127144678 0.0004862691207416478
000630 54 2c 7b 70 3a e5 bb 3f 0d 3d 39 d9 6c 05 ba bf
       0.1089664959537669 -0.10164528182325601
000640 c6 75 ba 9a 51 d6 c5 bf 2f 5f 8c be 00 9c bf 3f
       -0.17060298972221072 0.12347416545923971
000650 d9 f9 27 24 6d 12 c3 3f 7c aa ee e7 89 f0 cc bf
       0.14899982705533324 -0.22609065842455667
000660 da a8 cb 8d 91 94 c9 3f 7f 88 26 85 57 12 a5 bf
       0.19984645293818099 -0.0411555624043709
000670 9e 9f 01 c4 b4 1c b8 3f da c9 7e 8a 06 c7 6d bf
       0.0941880205660923 -0.0036349418405390134
000680 a5 18 71 e3 22 97 d1 bf 19 2a 8f 9e dc 51 c2 bf
       -0.2748496266471057 -0.14312322370672417
000690 61 17 3e 31 07 01 c7 bf ef a2 60 1e 7d 10 c5 3f
       -0.1797188749734984 0.16456569655681316
0006a0 8b c5 d6 42 a7 40 b9 3f 2d 91 b4 7a a8 35 c8 3f
       0.09864278203783365 0.1891375159403962
0006b0 ee 3a 75 9f ba 5d c4 3f d3 e4 d0 f4 80 08 b0 bf
       0.1591103819468666 -0.06262975670769615
0006c0 f9 e0 14 b8 cd 7c d1 bf 56 b6 a6 b3 2a 61 cc bf
       -0.2732424066230262 -0.22171529552490438
0006d0 58 9f 4e d9 39 b9 ab 3f cb 45 e9 9c 1e de 9c 3f
       0.05414753701853553 0.028191068961239723
0006e0 7a 48 81 80 8f 7d a6 3f 5f 1b a5 19 2e 2c ab bf
       0.04392670100846004 -0.05307144225166981
0006f0 db 52 ae ef a0 83 cb bf 5d ac 05 1a 63 28 c0 bf
       -0.21495448783084367 -0.12623251696217866
000700 0c 41 50 97 91 82 b2 3f 66 14 23 db 70 4d d0 3f
       0.07230482048203529 0.25472661399937235
000710 48 85 2e 49 09 da c7 bf b7 bc 74 5c 6c 5e bc bf
       -0.18634143899275046 -0.1108157850001018
000720 2a 52 95 4d 63 90 c2 3f 23 73 6c af e9 54 c8 bf
       0.14503136909719788 -0.19009133401495956
000730 35 57 23 05 cd 79 b7 bf 3c 71 19 18 fd 61 c4 3f
       -0.09170228362503681 0.15924037625053156
000740 6f 9f bc e1 11 18 7a bf db 35 51 49 ab dc bb bf
       -0.006370611048431714 -0.10883589305850398
000750 89 3b db 2e 8b 2b c3 bf 09 47 3f cb db bd b9 3f
       -0.14976634776982348 0.1005532618721895
000760 be 89 2b 2c 7a 6d 9d 3f a0 5c 9d b3 55 11 9e bf
       0.028737935014655262 -0.02936300190716834
000770 96 d4 a4 f5 b9 e3 c1 3f b9 06 1c 24 4a 27 b9 3f
       0.13976215833978206 0.09825576192454379
000780 3f 94 f5 da e9 58 a9 bf 37 93 ec 67 44 41 b8 bf
       -0.04950648115008293 -0.09474589860162728
000790 d4 7e fb 53 85 c0 c5 3f 26 76 ef 17 07 d9 c1 3f
       0.1699377689428646 0.13943566006393943
0007a0 4c d9 48 20 c8 1c b7 3f 97 09 66 8e 0d 7b ab bf
       0.09028292453954129 -0.053673194534911754
0007b0 01 17 fd 8f ed 92 b6 bf b9 58 85 f2 3c ea 5b 3f
       -0.0881794430289027 0.0017037959279000826
0007c0 9a 8d 1d 54 18 bf c1 3f d0 48 e0 66 89 6e d1 bf
       0.13864425761412918 -0.2723716263436815
0007d0 fe 05 60 2e be 71 b7 bf b1 96 ba 60 b8 a5 9b bf
       -0.09157932884411221 -0.026999359992848585
0007e0 10 dd e9 27 e2 20 c4 bf 5c 2d 6e 28 00 66 4a bf
       -0.15725352238562396 -0.0008056164523266118
0007f0 79 b6 ed c7 40 29 b2 bf 1d 83 39 e9 36 dd bb 3f
       -0.07094197159832473 0.10884421533547735

model.sequential_layers.1.Linear 1.weight f8 [128, 257]
000000 18 14 75 82 03 6b c2 bf 4a 99 4c 32 e1 34 c2 3f
       -0.14389079923617554 0.14223875957504567
000010 bc dc 38 ec ff 88 92 bf 1a b8 73 2f 12 ab b7 bf
       -0.018100737374166384 -0.09245408686157966
000020 fc 96 89 70 87 46 d2 bf 70 98 c4 b7 3b 78 a9 3f
       -0.2855547522543558 0.04974543207417603
000030 0a 12 69 81 2c 8b c1 bf 92 5b ab 4d a4 1b 9d 3f
       -0.13705974882954336 0.028425757637559786
000040 7a 6f b3 0c 2d d0 b7 3f 5b 5f de 7d 8d e3 9b 3f
       0.09302026329117821 0.02723523216954447
000050 15 fd 00 f7 7b 94 a3 3f 65 41 9a d5 b1 ed ae 3f
       0.03824221983131274 0.06040721638157968
000060 09 dc 85 76 46 a5 7b 3f 88 46 e2 27 3c df a1 bf
       0.006749415632262953 -0.03490627276290775
000070 24 ad 89 a9 e5 77 a4 3f e1 0c a2 e2 82 11 c3 bf
       0.03997724241784287 -0.14897190156998533
000080 61 e8 20 e2 35 e4 bb 3f ee 10 41 21 7d b6 bd 3f
       0.10895096560207797 0.11606580793256047
000090 d5 d4 3a 19 46 33 be 3f c1 50 bf 3d 40 27 bc 3f
       0.11796987644159469 0.10997392184737277
0000a0 4e 92 a6 b3 46 a3 89 bf 8d 14 e4 56 05 c6 a0 3f
       -0.012518455846312861 0.03276077924423602
0000b0 6a a4 1e 64 03 a6 9d bf 2a d7 01 ed 48 7a b3 bf
       -0.028953602777310662 -0.07608466898258529
0000c0 6f 4c e7 07 b7 7c 95 bf 5e 12 6c ec ba 0a b2 3f
       -0.020983562333480806 0.0704762294008758
0000d0 e4 01 79 5e 8d 61 bd bf d1 bc 92 f3 ab ab 9a bf
       -0.11476977879011191 -0.026045500508811884
0000e0 93 8f 25 dd 21 84 d1 bf 07 15 2f e8 82 d2 9b 3f
       -0.27368971439704487 0.02717022459161902
0000f0 a0 45 db 9b 10 65 86 bf dc 4c 7d 91 3e 9b c4 3f
       -0.010934953457225671 0.1609876833341336
000100 ff df 85 0a c6 52 a5 bf 70 73 7e bb ba 9c bb 3f
       -0.04164713743642778 0.10786025121201503
000110 7f 9b a8 8e 88 5b bd 3f a1 e2 53 74 7c 8c b1 3f
       0.1146779392516759 0.06854989852935002
000120 75 0e 25 11 4b 24 b8 bf 73 bf 20 71 cf 79 8b bf
       -0.09430379074643176 -0.013415928497209717
000130 3c af 57 97 32 36 8e 3f f9 ad ac 78 e2 83 b3 bf
       0.014751811259848695 -0.07623115011363514
000140 b3 9d 2c aa 41 49 ce bf 33 0e f8 59 c0 34 ca bf
       -0.2366106110505207 -0.20473484414115858
000150 5e b0 46 d5 48 b1 94 bf 01 86 f0 c5 1f 0a 84 bf
       -0.02020753671392616 -0.00978493521512558
000160 1e fe 16 cd f6 eb c1 3f 43 50 53 52 d7 32 a7 bf
       0.14001355184699177 -0.04530976180981885
000170 24 d6 ca e7 79 dc c9 bf 18 78 31 aa ba c7 b8 3f
       -0.20204089944825043 0.09679762511356704
000180 e6 ad 3a 82 97 bf bd bf 57 12 dc 7a cf 89 c4 bf
       -0.11620470933365076 -0.16045564173704704
000190 09 16 d9 3f d1 a7 c1 bf de 32 74 65 a0 6f a3 bf
       -0.13793388001992948 -0.03796101797533934
0001a0 ea 80 26 29 35 37 8c 3f ab 9d fb f7 3b 39 b5 3f
       0.013777175253210722 0.08290457538861655
0001b0 f8 6b 21 49 91 db 83 bf cd 44 cd b5 f0 11 89 bf
       -0.009696135563151728 -0.012241249607230742
0001c0 3f 3f 25 7a c0 e4 d5 bf 1f 12 7e 67 56 a4 bb 3f
       -0.3420869057490456 0.10797634150191769
0001d0 ec f6 d8 82 55 53 90 3f 98 d0 e5 16 e4 af b7 bf
       0.015942894088076295 -0.09252763327623581
0001e0 d8 aa 71 7e d4 03 92 bf b1 72 28 89 3b 99 ac bf
       -0.01759273549798021 -0.05585657166759484
0001f0 8c d3 ea bb 5a 65 bc 3f 29 99 dd a9 ef dc b1 3f
       0.11092154586624597 0.06977746865377256
000200 62 7c 91 c7 53 f8 90 bf dd ea 6d 49 98 a3 c1 3f
       -0.016572293334658268 0.13780501923959934
000210 b6 65 3c 1d 4b a1 b0 3f a8 e1 f1 8c fe f4 c3 bf
       0.06496114219444035 -0.15591413385460595
000220 e3 8d 1d c1 07 a3 d2 bf 4f 7d ee ab a9 a9 c5 bf
       -0.29120057925157833 -0.16924019713494906
000230 8d 28 df 8f b1 8e 93 3f fb b5 d2 84 17 f1 b5 bf
       0.019099020391685918 -0.08571001999617771
000240 d1 d9 fc 19 6f b3 ae 3f c0 ab 89 be 8b 8f 85 3f
       0.05996272270424508 0.010527698280574316
000250 55 8c 8a cc 18 15 c4 bf f3 e2 67 29 17 77 9a bf
       -0.1568938254104945 -0.02584491911145199
000260 a6 c0 e2 f3 07 33 a0 bf 89 a0 f8 a3 2b ef b2 3f
       -0.03163933612938878 0.07396195176318278
000270 34 8b 30 16 54 7d a5 bf a0 b7 c7 71 9e 08 bb 3f
       -0.041971805294699044 0.10560026433787906
000280 1a 48 0e ac 9f 15 aa 3f d8 f8 c1 15 ce 28 bc bf
       0.05094622588434579 -0.1099976351851838
000290 a1 14 b8 b0 c2 01 c0 bf 9c 74 4f c6 ae 6c b7 bf
       -0.12505372647152505 -0.09150211659967272
0002a0 b7 63 62 db a1 48 cb bf 7c 41 8f 36 93 29 b4 3f
       -0.21315406047940907 0.07875938493748963
0002b0 95 10 3a e7 33 80 b6 bf 8a fa e2 4b 3d 6a 91 3f
       -0.08789371867357183 0.017006833798172617
0002c0 ea 5d 46 6d c6 f6 99 3f 6a d1 b2 f7 43 5f b3 3f
       0.02535543481789474 0.07567238614394048
0002d0 5b 68 d2 3f 00 b3 9c bf 7b f1 1f d0 9c 8e bc bf
       -0.02802658452547067 -0.11155109482928609
0002e0 75 d9 2d 41 59 b6 b0 3f 19 45 d0 2f 36 f4 c8 bf
       0.06528241959845167 -0.194952748629057
0002f0 75 7e e8 49 12 ed b9 bf 5f 41 a8 39 f9 71 74 bf
       -0.10127367309950748 -0.004991506134061601
000300 57 c0 56 d8 9a 67 c3 3f 1d 3e c4 df c3 ca ca bf
       0.15159926951810362 -0.20931290079214274
000310 62 fb f0 fd 32 8c b6 bf 88 eb dd db fd 38 93 3f
       -0.08807676982631343 0.01877209333859356
000320 0f 31 69 34 de e4 a1 bf d6 17 3a a6 4d 04 96 bf
       -0.03494924917012742 -0.02150079085415498
000330 99 eb 50 5d e6 6a bc bf fd b4 04 35 f8 99 bc 3f
       -0.11100616243576979 0.11172438902277189
000340 15 cd 9c 8f 96 df ca 3f e7 5c 18 c7 ee 6d 8d bf
       0.20994836819009124 -0.014369836283590632
000350 a1 c5 37 b7 dd ce d8 bf 5c da 4d a1 97 4e b6 bf
       -0.3876261033284099 -0.08713672340477657
000360 8a 4e 10 f2 d8 3e b0 3f 30 5f eb e6 32 e7 ae 3f
       0.06345897588499319 0.06035765713539687
000370 bd 42 af 2a 7c 9b c1 3f d4 60 83 01 5f 8e c4 bf
       0.1375575264378507 -0.16059482168089423
000380 9b 43 d7 9b 52 1c b9 bf a0 b6 95 98 c8 53 b2 3f
       -0.09808841995915289 0.07159093594756394
000390 38 8b ad b6 5c d6 a2 bf 79 d6 3e aa 58 51 a4 3f
       -0.036791703509854334 0.039683123380581393
0003a0 02 b8 81 7c 52 92 b9 bf 4f 7f ad bc af 62 b4 3f
       -0.09988894977297494 0.07963083607091657
0003b0 da ff 4e f8 5f 28 ab 3f 7b f9 4c 54 86 6f c7 3f
       0.05304241090880142 0.1830909644722388
0003c0 29 6f 92 86 5c fd d0 bf 39 e5 51 e2 57 ea c5 bf
       -0.26546395437047693 -0.17121408987785872
0003d0 04 51 84 a1 15 4b d9 bf 6c 32 d2 1c 75 d5 31 3f
       -0.39520779393321015 0.00027212247079758697
0003e0 57 98 01 d6 b6 8a c4 bf 8e 90 b1 55 9c 60 51 bf
       -0.16048322152636516 -0.0010606314379169343
0003f0 b0 95 9b b4 73 39 b3 bf dd d3 3f de b0 8d c5 3f
       -0.075095397561731 0.16838656284349343
000400 5f 6b 77 ca 77 7f aa 3f d5 b8 c0 26 fd 97 be bf
       0.05175375315203356 -0.11950666614640977
000410 c9 58 9d 62 5a ec a2 3f 63 60 7c d4 91 a1 a7 3f
       0.03695948079864448 0.04615455359288558
000420 bc 47 8f be 22 21 b6 bf ba 4a 75 41 f1 30 bc bf
       -0.08644311096511975 -0.11012180183505907
000430 e9 23 b4 55 28 32 a5 bf f1 a8 c3 7a d5 44 c5 bf
       -0.041398296796678676 -0.1661631440577547
000440 d2 19 3a 9c 7a 5a b5 bf 43 14 f8 03 bd 8c b8 bf
       -0.08341184915671043 -0.09589749667073115
000450 c8 c2 93 71 70 31 4a bf 6f 2d 8d 59 f1 f5 bd bf
       -0.0007993506470978734 -0.11703403889003082
000460 fe 0f cd 2d e7 cc a4 bf a9 bd df 0d d3 51 97 bf
       -0.040625786152787655 -0.0227730729310999
000470 42 cc 4a 4c 1d bf a0 3f 9d db ba 61 d1 ab a1 3f
       0.03270808750439659 0.034513991527482114
000480 0a 29 74 8a d7 47 9b 3f 4e 62 8c 83 27 66 88 3f
       0.026641242814585055 0.011913593961751758
000490 44 1c ed ee 36 1d b4 3f e8 92 b7 61 ef 1d c2 bf
       0.07857077916297422 -0.1415385462888914
0004a0 91 1f 2b 17 27 5c b5 3f fd 46 2d 46 c2 01 ae 3f
       0.08343738856922146 0.05860716921473672
0004b0 46 7e 21 98 6d 98 c3 bf e5 9a fb 20 c4 07 ba bf
       -0.15308923652900058 -0.10168100171322754
0004c0 e0 7c 4d b2 a7 1e 81 bf e5 45 c9 fe a0 d2 c9 bf
       -0.008359251145235225 -0.2017403835366586
0004d0 5f c4 99 5d 43 99 a5 3f 06 9b 87 8a d7 1e b0 bf
       0.042184930015431325 -0.06297061092446307
0004e0 3e 7a ba 42 fa ca ca bf 6b e3 62 0a 30 30 92 bf
       -0.20931938417648327 -0.017761946329048522
0004f0 f8 4e 78 5e 52 d1 ae 3f 79 96 90 c8 fa 73 b9 bf
       0.06019074824521725 -0.0994259586010119
000500 f5 96 75 9f bf a8 b3 3f cb 9b da 5f 4e b3 9b bf
       0.07679364817667163 -0.027051186180553615
000510 6e 2e 27 df 94 ba a9 bf be 3d b1 2a 5c a7 ba bf
       -0.05025162910496027 -0.10411621134084378
000520 76 5e df 28 01 d9 73 bf fd bb cc 43 0a 48 c3 3f
       -0.004845623521724121 0.15063598928961133
000530 cd 7c c4 cf e3 ff be bf a2 c5 0f 6a d6 43 b9 bf
       -0.12109206983994909 -0.09869136895556221
000540 2d 4b 0e c4 39 d5 c1 bf 49 87 69 46 ec 54 70 bf
       -0.13931963036574171 -0.003987238835721226
000550 63 b7 69 d6 1f 50 a4 bf 82 e3 a5 0c 21 1d bd bf
       -0.03967380039544712 -0.11372572478093271
000560 e2 1f e4 3e ca bc a3 3f 4c 3d 08 a7 a4 3e b1 3f
       0.0385497285624863 0.06736210897382938
000570 85 4d ed ec 41 c6 d3 bf 5b 50 c4 9c 39 43 b2 bf
       -0.3089756788005718 -0.07133827283206655
000580 a6 0d 5f bd 8a bd c6 bf 2e f9 94 00 8a 99 a3 bf
       -0.17765936133046728 -0.03828078515151599
000590 7b a0 9e 35 fd db a3 bf 01 01 35 54 74 a5 95 bf
       -0.038787758632055046 -0.021138970985021825
0005a0 61 27 61 25 3c 27 c3 3f 55 11 e6 31 6e 87 d0 bf
       0.14963485551043745 -0.25826601860923876
0005b0 fc cf 5a 76 5a 27 93 3f 83 70 22 97 73 19 b7 bf
       0.018704808687019167 -0.0902321094494614
0005c0 28 df cd ff b8 72 83 3f 1d 0e b8 17 58 cf b4 bf
       0.009496159845852128 -0.0812888200671797
0005d0 5e 4d 1a db 74 0b b1 bf 54 92 d0 bb f8 b7 76 bf
       -0.06658106183231413 -0.0055465427549604325
0005e0 43 7a f4 07 a7 2a a3 bf 6a 13 e9 ee 48 79 a8 bf
       -0.03743478748423403 -0.04780033031833038
0005f0 8f 87 65 f8 45 e4 a2 bf c2 37 b2 65 19 84 c2 3f
       -0.03689783723053985 0.14465634790070508
000600 b3 5b ea 52 6e e2 c2 3f 3b 94 7e ab 66 7e 97 3f
       0.14753512428862123 0.022943119256201277
000610 41 a0 b5 62 cd e7 b1 bf d5 7e 8a 56 21 93 ba 3f
       -0.06994327220820741 0.10380752909486131
000620 2a ef c6 06 34 e4 9d 3f 1c 24 80 eb 1a 3d a2 bf
       0.029190838731422954 -0.03562244534266076
000630 ec f4 51 33 84 dc b6 bf a5 5c 8b 0b 30 aa b8 bf
       -0.08930231335576239 -0.0963468578514602
000640 d5 0a c4 c8 ac a8 c8 bf a4 7c ed 4e b8 ee 8f bf
       -0.19264755061165909 -0.015592040928537117
000650 1c ce 8c aa 7f c5 bc bf 0e 9e da a1 e8 d1 b6 3f
       -0.1123885909444699 0.08914045287621539
000660 da 59 63 0d 25 b7 b0 3f 92 a3 e6 d2 5f d9 c2 bf
       0.06529456688745175 -0.14725873754403246
000670 ec fb 45 a9 f9 65 c0 bf 0c 61 dc 74 bf 88 a9 3f
       -0.12811203732778098 0.04987142850422019
000680 44 ac f6 9f 98 ff ae 3f 5f 1f 26 d7 e1 68 a3 3f
       0.060543794180681704 0.03790956260041755
000690 e0 b3 5f 70 d0 48 c4 bf fa 28 d5 30 c3 53 c1 3f
       -0.15847211348537282 0.1353687275353151
0006a0 b0 bc f7 bf 93 66 b3 3f d6 73 27 87 0f 45 a2 3f
       0.07578395306312546 0.035683140991501425
0006b0 94 1e 4d c2 f0 37 90 3f 71 07 cd a4 77 44 c8 3f
       0.015838395938117047 0.18958945795935336
0006c0 b8 b4 0d a3 36 9a c4 bf 08 4a a0 26 98 b7 af bf
       -0.16095622026060652 -0.06194758864889499
0006d0 7a be e1 08 05 c1 ad 3f 0f de a4 1a 91 4d a6 3f
       0.05811324819012227 0.043560537817423854
0006e0 58 f1 ba 69 fb b7 d6 bf 80 bb 19 85 d2 1a cc bf
       -0.3549793751260686 -0.21956855296181388
0006f0 71 bc 7f 21 f0 64 b6 bf dd 9c f3 a2 ac 92 af bf
       -0.08747769182058264 -0.06166591157107757
000700 b9 1f 66 ac c6 71 c4 3f a4 df ca d2 a1 9f a7 bf
       0.1597221700469598 -0.04613977144384698
000710 ac d3 36 c5 9b e7 a1 3f 30 24 f8 a6 32 ba 9c bf
       0.034970157455439604 -0.028054038468358466
000720 59 7c 2e d5 10 0e b5 bf c7 a6 a2 95 b5 10 c6 bf
       -0.08224587635639703 -0.1723849278108018
000730 f4 d0 b8 a6 fe c2 89 3f b0 bb 24 1c 54 fd 8e 3f
       0.012578954184484271 0.015131623371955033
000740 27 6b a5 83 28 d0 cc bf b7 4d c5 6d f8 3e c5 bf
       -0.22510248592410528 -0.16598420486353202
000750 d5 1a 27 90 59 bf ab 3f 91 6c 39 67 a3 5c ca 3f
       0.05419425854375041 0.20595209636926318
000760 f4 eb bd df 9e c2 ca bf b3 59 81 c8 b5 ac 9e bf
       -0.20906434941193164 -0.029955711710806642
000770 4e 09 6c 34 59 7c a2 3f bb 1e 5e a7 e1 04 a3 3f
       0.03610495343129348 0.037146617584821816
000780 19 8d 6d da d1 49 79 bf 94 66 68 a5 24 df a4 bf
       -0.006173915614314817 -0.04076494712007875
000790 16 c6 53 fa a6 2b 9d bf be d7 06 75 66 98 c6 bf
       -0.028486832646143233 -0.17652588571735167
0007a0 e9 2b df c1 6e cf bd bf b0 45 87 f4 89 28 c7 bf
       -0.11644642098615034 -0.1809246486650813
0007b0 7b db 44 81 5e b2 89 bf 33 9e 3d d2 82 a3 c1 bf
       -0.012547243423439039 -0.13780246034296936
0007c0 9d 6a e2 ad d5 96 c4 3f 49 1a 86 cf 02 31 b0 bf
       0.16085310926867616 -0.06324784819126096
0007d0 a6 08 b7 0a 69 10 b3 bf 1f be 8f f3 a1 9f 8b 3f
       -0.07446915160747611 0.013488068814665742
0007e0 1e f3 be 7b dc ad 96 bf 53 13 a1 2f 3c 77 c6 bf
       -0.022147603085374994 -0.17551376653332315
0007f0 43 44 ff 9b 25 d6 a4 bf bb ab c2 0b 38 86 ba 3f
       -0.04069631127607256 0.10361051833267158
