Data/Breast Cancer Winsconsin (Diagnostic)/results/models/bcw_4.onnx (onnx, 416707 bytes, 5 tensors)

model.sequential_layers.4.Linear 4.weight f8 [1, 17]
000000 1c ef 69 ad 47 82 e4 bf 1d d0 09 fc ea f5 e3 bf
       -0.6409033190716147 -0.6237692759154957
000010 0a 3a 2a 07 8f f7 e6 3f 5e 9e 17 b7 e1 52 e7 3f
       0.7177195682468789 0.7288673950215061
000020 33 6e b3 18 ca 68 e5 bf 53 98 5b 89 6a ca e3 bf
       -0.6690416796149691 -0.6184590037125964
000030 cc 0a 53 9e f5 2f e6 3f 95 58 68 42 b0 c5 e4 bf
       0.6933544246934047 -0.6491318985961408
000040 c2 cc 89 5b 87 50 e4 bf 93 40 41 23 70 91 e2 bf
       -0.6348301685196918 -0.5802536667415715
000050 e5 61 a3 8f 51 9d e7 bf fd 37 96 a6 43 97 e7 3f
       -0.7379539304193342 0.7372148755691793
000060 97 46 12 c9 18 e9 e3 bf 4c 3e c2 65 dc f7 e4 bf
       -0.6222042014289454 -0.6552564609027711
000070 06 41 52 07 37 b4 e1 bf d5 0d 2c 62 75 b5 e3 bf
       -0.5532488959306938 -0.6159006993697697
000080 86 04 93 14 e6 44 d1 3f
       0.269830246059492

model.sequential_layers.3.Linear 3.weight f8 [16, 65]
000000 cf 8c 30 39 3d 8b ab 3f e0 27 bf a2 93 22 c7 bf
       0.05379668543926074 -0.1807426972066528
000010 83 b4 2c a6 e2 ad c8 3f 4b 91 75 f6 89 c7 b1 3f
       0.19280655969615532 0.06945097224303713
000020 9c 4e 95 c6 e0 40 a9 bf bb ef 8d b5 c0 08 cf 3f
       -0.04932310508834556 0.24245461335146765
000030 1d 2e d1 8b d8 b8 b3 3f 49 34 c7 7f cf d6 c3 3f
       0.07703927434447917 0.1549929975430209
000040 8f 7b db 24 d6 2b cb 3f 41 fb ab 7e 0a 4f ae bf
       0.21227528381038183 -0.05919678493773129
000050 81 62 10 e6 4d dc c7 3f fb 79 3c b7 d5 7a c6 bf
       0.18641065343469523 -0.17562362143594598
000060 a0 54 a6 61 9c 26 c4 bf bd ca 2d a8 b2 9a 6b bf
       -0.15742831008961833 -0.003369664134362209
000070 df 14 34 06 bb 63 c6 3f cf 95 a6 f5 b2 34 b2 3f
       0.17491853526022447 0.07111662385303606
000080 95 f6 46 87 88 d6 b7 3f e4 58 83 90 05 0a a0 3f
       0.09311726858774201 0.031326459780460586
000090 ae b2 a6 92 c1 04 b2 3f b4 01 b7 8f 9f ce b4 bf
       0.07038507299757654 -0.08127782114661991
0000a0 3a b2 9b b7 58 46 c5 bf 0c 29 c2 4e 1a 9c a5 bf
       -0.16620930638545578 -0.04220659457594608
0000b0 94 ac 21 31 51 8a b7 bf 77 78 3d 2c 63 76 ba bf
       -0.09195430230617979 -0.10336894826966324
0000c0 61 c8 79 f2 0b 1f b3 bf cf cc 7d 96 a1 95 75 3f
       -0.07469248456780654 0.005269652559820772
0000d0 47 23 90 84 66 8d c3 bf 1c a0 20 96 e7 fd c3 3f
       -0.15275269959263424 0.15618605452004963
0000e0 3b a4 40 8a b7 be 89 3f 8a 5f ab fc ca 31 b4 3f
       0.012570794970161106 0.07888477963149235
0000f0 6d cd 79 51 33 cd c5 3f bf b0 58 41 cf 23 cb 3f
       0.17032472112951372 0.2120303219866226
000100 1a fd 0a b0 a4 e5 bc bf cd 51 45 84 e8 af a1 3f
       -0.11287907884524309 0.03454519858010805
000110 44 a4 01 ab 49 a7 b2 3f 68 e3 c4 34 2d 05 cc 3f
       0.07286510872803925 0.21890797688117947
000120 37 df 7d 44 64 2e 97 bf 74 ca 40 5f 48 d4 ce 3f
       -0.02263790767707904 0.2408533539870238
000130 a8 f3 fd a7 1e 89 cd bf 13 3d 3b 0e c3 20 c9 bf
       -0.2307470627091821 -0.19631231493847476
000140 49 55 10 be 74 05 c4 3f bf 81 49 22 de c3 c0 bf
       0.1564165046735673 -0.13097740816284717
000150 ee 87 9a 2b 12 33 b9 bf 3d a1 68 07 17 2e ba bf
       -0.09843553127805624 -0.10226577692867962
000160 87 c7 3a 62 f2 2e 98 bf 24 03 6a 5e 23 08 ba 3f
       -0.02361658787294332 0.10168667845756524
000170 1d 73 f6 56 46 22 78 bf 50 5b 33 42 40 85 96 3f
       -0.005892061962552456 0.02199268726402731
000180 91 df 9f 07 a2 d9 a0 bf 9a 8a 32 f7 69 af c5 bf
       -0.03291040747711727 -0.1694157082575501
000190 4e 16 07 a9 c3 34 d8 bf 6d 3f 96 d9 47 e4 c0 bf
       -0.37822047716722274 -0.13196657299385653
0001a0 1c c9 22 9c 2c 3e cb bf 6a 06 e2 c5 75 e4 b9 3f
       -0.21283490775892566 0.10114227372289411
0001b0 7a c0 40 8c 5c 82 c2 3f d0 bc 03 f2 3e 03 c3 bf
       0.14460331772125185 -0.14853655640715724
0001c0 26 04 97 5e dc 39 d3 bf 78 f1 9e 5b b8 39 b6 3f
       -0.3004065440873681 0.08681823956334778
0001d0 fd 2c 84 2f 9c 5d d2 bf 10 e4 03 6f e7 15 bb 3f
       -0.2869635070826034 0.10580297909099579
0001e0 00 be 51 cc 42 26 c6 3f ad 05 00 25 7a 42 c3 3f
       0.17304263092545114 0.15046622091908315
0001f0 23 41 e4 14 56 96 90 3f fe 92 01 7d 4f 2f d0 bf
       0.01619848730575869 -0.2528876038325477
000200 76 1e 85 71 54 80 c7 3f 22 55 82 4a 94 a4 c8 3f
       0.18360381644218976 0.1925225604833623
000210 70 88 72 50 a3 a7 d6 bf 3e 8b 5a 91 ab f3 ca 3f
       -0.353981808244618 0.21056122395847326
000220 a2 b7 d0 1b d9 d0 a6 3f fc 92 c7 25 da 54 ca 3f
       0.044562134404585466 0.20571448178011298
000230 87 26 eb 4d 20 e1 b5 3f 18 cb 86 8f b7 a2 8e bf
       0.085466403029523 -0.014958795611936845
000240 26 c1 e4 5e 9d 98 a0 bf 0b 59 06 2a da b0 67 3f
       -0.032414357980430616 0.002891946889756918
000250 62 58 c0 01 54 62 b7 3f 02 45 73 d2 23 0a 89 3f
       0.09134411852605376 0.012226371631558045
000260 5d 1e 46 b1 0a 12 c2 bf 13 49 53 fc 23 bc c6 bf
       -0.14117559104873836 -0.17761659451077402
000270 03 3f 2a cc 1a 6f cb 3f 36 b2 95 4a 9c 3d c5 bf
       0.2143281456851512 -0.16594270364602587
000280 50 a3 bf f4 d6 55 af 3f 1e 7b 06 26 0c 64 b6 3f
       0.06120177972463259 0.08746410301544613
000290 48 3f e3 5c da 38 9c 3f d7 ae 43 23 ca 6c 5d bf
       0.027560626906790092 -0.0017959569932441322
0002a0 fc 15 92 ff 51 a8 cd 3f 79 7b a2 ca 4e f2 b9 bf
       0.23169922808681054 -0.1013535732949843
0002b0 5d 86 fb 5a 7c 59 c8 3f ac 3a 76 f1 70 83 cd 3f
       0.1902308887720662 0.23057376661423257
0002c0 89 f0 5d 77 d2 ea c7 bf a4 53 09 bc 30 75 7b bf
       -0.18685370281662397 -0.006703558320244083
0002d0 5a b3 22 3f ff c2 c2 bf 9d b4 6a 8a 01 7a cd bf
       -0.14657583792486656 -0.2302858281958934
0002e0 65 c1 0e ed 5e c8 c9 3f a7 33 a1 e7 d1 e1 af bf
       0.20142733168678287 -0.0622697444201557
0002f0 ed 45 5b 02 0f 60 cb 3f 1a 6e de c9 33 ce 8b bf
       0.21386897673669072 -0.013576893423127113
000300 ee 7b a6 fc c3 da bb bf bd 3a 52 2c 37 f1 c2 3f
       -0.10880684774609481 0.14798631347772143
000310 29 be c1 ce 65 6b bf 3f da 27 cc 2a 61 6d b7 3f
       0.12273250863813047 0.09151274962292125
000320 c7 08 a0 a0 b0 10 af bf 8f e4 28 f6 29 af b4 3f
       -0.060674209220466895 0.08079778918990342
000330 47 18 12 8b 92 75 b2 3f c8 fa b5 ec 28 1a c0 3f
       0.07210651297836633 0.12579833562991483
000340 0e 1d 1e 05 4e d1 a7 bf 00 72 17 18 0a c1 c4 3f
       -0.04651874363394813 0.16214109588953818
000350 9d 83 a2 9a d9 53 ab 3f ad 88 c7 63 1c 80 82 bf
       0.053374099851914304 -0.009033414645220306
000360 96 d0 8c a0 ce 61 d0 bf 3f d3 f6 1d 76 dc c4 bf
       -0.2559696739074381 -0.1629779478368167
000370 d1 49 fb 46 2d a4 cd 3f 96 16 05 a0 8b 3c ad 3f
       0.23157278028391073 0.05710254982345224
000380 71 40 51 cf 7e 19 cb 3f a1 0d 23 66 33 8c d7 3f
       0.2117155563632909 0.3679321763449597
000390 ab 6a 8a 0d b4 9d c5 bf b7 9f fe c3 e9 00 c7 bf
       -0.16887522374311933 -0.1797153670315745
0003a0 a0 48 6f 32 25 70 b5 bf 7e a7 f6 cf 86 cb d5 bf
       -0.0837424514896008 -0.34054727848944555
0003b0 a2 a0 35 f7 a3 c9 c2 bf c0 0d 0d 7f 96 f3 b7 3f
       -0.14677857943320755 0.09356060602026783
0003c0 a2 02 bf 55 df 8f cb 3f 7b 83 f2 10 6a 46 d2 bf
       0.21532813727209993 -0.2855477490903053
0003d0 1b e6 04 38 6d ba c3 bf ff 21 27 7b c2 e2 d6 bf
       -0.15412678942975408 -0.35759031321188667
0003e0 1d a8 75 a0 cc 64 b9 bf c9 7a f5 89 ba 74 c4 3f
       -0.0991943256136953 0.15981227623247765
0003f0 64 ea 20 81 1a 53 c5 3f ee f9 77 fb 04 6e c1 bf
       0.1665986185560825 -0.1361700275301269
000400 2c 5f 76 12 50 23 af 3f 10 a9 65 b3 4f fe c3 3f
       0.060816290143689805 0.15619846591591413
000410 9c f9 f3 14 b5 9e c9 3f fa df 17 7e c2 2d 9c 3f
       0.20015586398217244 0.027518309541818532
000420 d4 13 08 73 f7 e0 d8 3f e7 0e ef de 5b a5 c1 3f
       0.38873087152051977 0.13785885224762426
000430 1e 34 cc 83 9d df d2 bf 88 45 69 75 b1 86 c2 bf
       -0.2948983943068145 -0.14473551018685904
000440 02 7b b4 b4 c6 a5 c2 bf 3e 13 25 ed e6 a2 d8 bf
       -0.14568408797727989 -0.3849427524440222
000450 0b 71 64 a3 5f 23 d3 bf 20 19 2b 32 97 9f c9 3f
       -0.29903403240474863 0.2001828188860566
000460 3b dc e4 9f a2 4c b7 3f 6a 53 03 64 ea 4b cb 3f
       0.09101311114942316 0.21325425990530827
000470 ff 9e 03 ed 23 86 c2 3f 24 06 7c 52 7b 77 c7 bf
       0.14471863816219607 -0.18333379294931362
000480 1f b1 e9 95 33 44 ca 3f 31 32 c2 00 4e 56 b9 3f
       0.20520634479488195 0.09897315519828777
000490 dc 93 ea 04 bd e3 c0 3f 16 9e 47 77 5f ed c2 bf
       0.13195002307943937 -0.14786904644209703
0004a0 fe 3a 39 bc 84 ee 88 bf b9 9c ab e1 70 17 c6 3f
       -0.012173687929274642 0.1725903608232551
0004b0 2e bf 27 d4 6a 31 bf 3f 6a a5 de b5 1c 1e d8 bf
       0.12184779815265465 -0.3768378997870828
0004c0 5a 2b 28 f4 bf db c2 bf fd 17 e2 0f 0d 67 c4 3f
       -0.1473312322781009 0.15939486766382052
0004d0 6a 9e 4f 5e 27 00 cd bf c4 f9 c1 ff 6d 0e db 3f
       -0.22656719307927925 0.4227557180055579
0004e0 0a 7f d1 6d 27 f8 b3 3f 4b d2 a0 34 6f 02 d4 bf
       0.07800527983772212 -0.3126485837886192
0004f0 7c 89 ae d1 4f 14 c7 3f 1c 6d 5e 84 01 b9 b1 3f
       0.1803073667370646 0.06922921640073237
000500 77 8d 17 3e 21 92 d4 3f 54 43 f1 e9 95 d9 d3 bf
       0.3214190584532938 -0.3101553711504057
000510 f1 94 fb b1 47 be cd bf 4a a9 6c 7f 98 b6 c3 3f
       -0.2323693865829806 0.15400987836739893
000520 9f 60 4b c6 94 b9 c7 bf e5 20 ed 5e 48 a4 c3 bf
       -0.18535098726602414 -0.15345101008484288
000530 bd 9a 29 6c 16 3b d6 3f 21 8f 39 4e b5 79 a1 3f
       0.3473564201616844 0.03413168506520337
000540 49 14 c7 b5 b7 a2 ca bf c5 7a b7 66 f0 1d 9f bf
       -0.20809074760305382 -0.030387645978289485
000550 80 c1 a9 30 f2 42 c2 bf 8e c0 a4 c0 52 d8 b0 3f
       -0.1426680314648472 0.06580083087169639
000560 56 ab 0c 9f 5c b9 ce 3f c4 fa 0e 9b 85 1d b4 3f
       0.24003179327095364 0.07857546840294122
000570 16 f9 68 74 0f c1 d5 3f 6f ea 7a 69 3b 02 aa 3f
       0.3399084698502447 0.05079827940558778
000580 f0 a1 5a 41 db bf d2 3f 23 b6 c5 da 85 01 ba bf
       0.29295998937825996 -0.10158573714371548
000590 fa a8 e4 a9 ab 46 bc 3f df e4 58 e6 5f 5a c1 3f
       0.11045334718497549 0.1355705141775507
0005a0 12 72 ea 4e c0 ec a3 bf b2 10 6e c5 00 25 d1 3f
       -0.03891564334228205 0.2678834846522121
0005b0 66 23 ce 78 c2 53 b7 3f 97 2d a9 2d c6 7c bb 3f
       0.09112182092043283 0.10737265219466106
0005c0 33 ca d6 54 5d 0f d6 bf 1a b1 4b 98 68 d7 d8 bf
       -0.3446877792841036 -0.3881474959623731
0005d0 5e ad a3 69 33 21 b9 3f 1b a9 a9 37 bf bb b1 3f
       0.09816285447202719 0.06927104100183039
0005e0 76 49 c3 be ea be a4 3f e2 64 e7 27 10 77 aa 3f
       0.040519080912093594 0.051689629431800346
0005f0 2f eb 3d 43 ee 16 ce 3f 55 d9 28 08 3a 45 a3 bf
       0.23507478984159877 -0.037637532707253264
000600 15 25 ff e2 b8 c3 ba bf e9 f2 1b a2 91 28 a6 3f
       -0.10454898397360453 0.043278265989988025
000610 10 fb a8 33 2b 88 c9 3f 9b 2b 44 5d bd fc b6 3f
       0.19946804068055046 0.08979400183686297
000620 6a 3b 51 e3 f2 d1 c3 3f 7e 04 07 27 07 85 65 3f
       0.1548446283290688 0.002626909227018858
000630 1d 9a aa 16 24 4e c0 3f 93 69 1b ac 3c b0 d7 bf
       0.1273846731830454 -0.37013165290195466
000640 8c 51 50 28 b5 09 c8 bf a8 99 63 a4 15 1e d9 bf
       -0.18779625385708376 -0.39246121457690686
000650 3d f3 7f 25 2c 79 d0 bf f2 26 28 9f 3b 9d d9 bf
       -0.25739577924814566 -0.40022173445377895
000660 e3 ce 6e 21 53 94 ba 3f a5 28 d9 f0 72 b6 c8 3f
       0.10382575575095702 0.19306790123147724
000670 d9 54 52 c8 34 3d b8 3f e8 bc 0d 39 87 df b3 3f
       0.09468393221534956 0.07762951987182343
000680 f6 c9 df c2 7c 4b da bf 92 21 49 78 6c 1f ca 3f
       -0.4108573821132774 0.20408397553752572
000690 9e 4e 57 4e ce 14 c4 3f 1c 27 92 07 e7 92 bc 3f
       0.15688494515653856 0.11161655363880779
0006a0 17 e3 e0 eb 5c fc d3 bf 0d 46 7f dd 62 54 be bf
       -0.31227801356321677 -0.11847513110776493
0006b0 c2 06 c8 4f eb 5c bf 3f 22 c9 02 3c 00 89 b9 3f
       0.12251158426081601 0.09974671807393468
0006c0 b1 fc 97 4f 29 a7 d3 bf c3 0a 74 28 e1 24 c5 3f
       -0.3070777203829023 0.16518797374017966
0006d0 f9 a5 cf b3 34 61 c1 3f 4d af ce cd e8 45 d0 bf
       0.13577898769226218 -0.25426693056464417
0006e0 7a 74 02 35 c7 e6 ac 3f 7f 99 2a e2 5f 6d af 3f
       0.05644819757547111 0.061381336553767867
0006f0 0e 85 82 f2 1f ac c8 bf 53 1f 62 9a 18 e1 cf 3f
       -0.19275283185292164 0.249056887991396
000700 7e 64 0e 47 b7 bc 9b 3f 42 2a dc 9c ae c0 41 3f
       0.027087081634452385 0.0005417683221094554
000710 f0 7a fd 9a 7d d2 b2 bf 13 68 f9 ab 6b e6 c1 bf
       -0.07352433237017997 -0.13984437844447992
000720 33 9a 52 ea 63 15 c7 3f cb d5 f1 94 78 cf d0 3f
       0.18034027997528454 0.2626630262887743
000730 14 4f 98 3a bf 93 cc bf 28 07 91 89 c5 15 c2 3f
       -0.22325888024408214 0.14128941743006718
000740 3f 38 16 e7 9f 8f bb 3f 71 29 be 42 f8 b6 be bf
       0.10766028777854418 -0.119979397101053
000750 16 d5 50 48 80 06 b1 3f 61 05 f4 9d 7f 8a db bf
       0.0665054489662292 -0.4303282778274334
000760 aa f9 d3 df d1 3b c6 3f 67 e2 63 c9 62 4e c2 3f
       0.17370055607893892 0.14301714738373336
000770 67 f8 92 f3 02 f8 c2 3f b5 d3 9e 76 fe 2c c0 3f
       0.14819371121660938 0.1263731078339824
000780 44 37 3b 05 68 cc ac bf c0 bc 83 ac 3d 05 a4 3f
       -0.056246996534908195 0.039102484997664444
000790 43 04 29 70 2c d1 c0 bf 95 8d c7 80 13 4b a2 3f
       -0.13138347126553826 0.03572903582587653
0007a0 1b 62 16 9b df d8 b2 3f d4 15 e1 39 e3 4c cd 3f
       0.0736217263823921 0.22890892339834912
0007b0 45 76 17 f7 fc 50 ba 3f 9c bc c7 10 56 4b c0 3f
       0.10279828102599094 0.127299078172176
0007c0 40 38 07 a5 f9 15 ba 3f 8a 88 a5 ce 5d 31 dd bf
       0.10189781455048408 -0.45613808803876366
0007d0 8a f1 19 cc a2 5c cf bf 69 56 29 78 da 74 c3 3f
       -0.2450145241345008 0.1520035826421691
0007e0 11 dd e8 25 68 56 c2 bf dd 38 07 bd bc a1 cb 3f
       -0.14326192713790722 0.2158733294476808
0007f0 5d 1f 89 95 f6 0d b6 bf 75 38 95 b0 4f 7d bd 3f
       -0.08615056181690535 0.11519334851365833

model.sequential_layers.2.Linear 2.weight f8 [64, 129]
000000 2a aa 74 ed 15 1a c9 bf a1 31 c0 7c 2b 97 d0 bf
       -0.19610857100026752 -0.2592266767758478
000010 63 91 0f 56 8d 9a a5 3f 9d 4d f3 41 76 fb 77 3f
       0.04219476390406631 0.0058550471723778615
000020 d5 40 0f f6 84 e4 b9 3f b5 6d 3e b5 f9 b9 c2 bf
       0.10114317900957144 -0.146300519464473
000030 e3 38 a4 9d 9d 5c 91 bf 21 ac b3 fd f9 dc a9 3f
       -0.016954863306687506 0.050514042109931497
000040 2a 5e a9 12 59 40 be bf 6e 1c 07 c6 3d c0 d1 3f
       -0.11816937165837574 0.27735847796106483
000050 c9 ba cc 4d 08 cd b6 bf 0a 1e 42 b3 60 77 9a 3f
       -0.08906604670913078 0.02584601492028863
000060 c4 5c e1 8c 63 03 95 3f b3 5e ad db 6a 33 c7 bf
       0.020520740007069063 -0.18125663496424735
000070 fc c1 d8 84 ee 24 ba 3f d4 db 05 28 06 cd c9 bf
       0.10212603324249153 -0.20156933740847072
000080 e1 8b 16 61 35 dd c2 bf 0e f0 c9 27 c9 3e b8 bf
       -0.14737574806812773 -0.09470803471953124
000090 41 d9 18 73 17 fc c3 bf 24 4a cc 21 da fe c5 bf
       -0.15613072509740714 -0.1718399682072952
0000a0 5e 97 34 82 e7 29 d2 bf 36 96 31 cd 53 3c c5 bf
       -0.2838076373612831 -0.1659035446092944
0000b0 24 f1 8e 12 4a 6c b9 3f d3 ff 84 ad 8f 26 c3 3f
       0.09930861428341992 0.1496142956984828
0000c0 78 b2 4e 91 48 e7 ba 3f 24 df ea 32 d0 0f c2 bf
       0.10509160563987929 -0.14110758291439496
0000d0 53 8f e7 9f ff b2 c6 3f 6a 8b 99 4f f3 fc 98 3f
       0.17733760173643506 0.024402429326424814
0000e0 28 07 fb ed d7 b9 a7 bf 12 66 44 5b 09 3e 93 bf
       -0.046339748192180175 -0.018791338153368704
0000f0 33 a6 59 3a b4 fa c1 bf a1 e8 1c 65 85 49 b0 bf
       -0.14046337937479478 -0.06362184256150495
000100 84 42 f8 15 c3 8c b3 3f 9c 85 a4 ef 60 46 8d bf
       0.07636660848971571 -0.014294392884553635
000110 45 17 f8 01 46 3f c3 3f 27 9c a7 89 58 86 9f 3f
       0.15036845298907955 0.03078592624833845
000120 ea 0a 20 1b c7 27 99 bf ca 13 9d e3 b6 88 ac bf
       -0.024565802603329447 -0.0557305481766331
000130 43 c6 2a e8 9f 81 a1 bf 46 ee 43 c8 56 db c1 3f
       -0.03419208249159713 0.13950619486409915
000140 f8 56 20 a9 d5 72 c7 bf a8 f7 55 ba 4e ba a2 3f
       -0.18319197424050748 0.03657766365630205
000150 59 9c ff b5 e1 c7 c0 3f 99 90 cb d4 18 68 ac 3f
       0.13109990488667014 0.0554816970596061
000160 c9 9e e4 cd 86 66 b8 3f 3c e7 44 9e e0 e7 9f 3f
       0.09531443144498576 0.03115797964094401
000170 84 0a f4 e0 7f 22 92 3f d6 63 39 cd 7c b5 b6 3f
       0.01770973024850743 0.08870677957874248
000180 5f 29 7f d7 d6 51 b0 3f 88 f0 5d e0 74 68 b4 bf
       0.06374876748228563 -0.07971888044079567
000190 33 b0 67 ab 09 89 a5 bf 7c 30 87 94 44 47 c8 bf
       -0.04206114022585474 -0.18967492344234305
0001a0 5f 93 cc d9 6f 42 a7 bf 39 d8 1e 6b 0d 6a c2 bf
       -0.045428748452002614 -0.14386146288387794
0001b0 57 4e b2 5e 7e 19 c4 3f f7 9b f0 d4 94 f8 b7 3f
       0.15702800392010616 0.09363680075385604
0001c0 9f f9 d3 d8 f6 a9 bf bf 64 32 7b cc 1c f0 be 3f
       -0.12368719857838649 0.12085132591455189
0001d0 95 2c 6a 3c b8 3d c5 3f fe d5 51 6c 4b 52 9a bf
       0.16594603490770923 -0.025704554067905498
0001e0 49 c5 01 9f 72 f5 98 3f 16 ae 90 ac a8 80 b4 3f
       0.024373808817874907 0.08008817875877869
0001f0 6d 5c 61 5d a3 76 a8 3f 23 82 14 c1 9e 11 d1 bf
       0.0477801372041363 -0.2667004476116139
000200 d7 51 58 51 f8 e0 b6 3f 47 37 00 1a 76 61 c9 bf
       0.08937026964151272 -0.19828678388187823
000210 60 38 c5 54 ca 08 ba bf fd dd a6 ad 12 4d b0 3f
       -0.10169663018788944 0.06367604007288459
000220 d8 3d b8 76 be fe c5 3f 15 81 fe 04 96 e3 9c 3f
       0.17183666989193003 0.028211921744174157
000230 72 2c 8f 04 ab ef b0 bf 4b 42 75 2a 01 a2 99 bf
       -0.06615704404173231 -0.025032060829575802
000240 01 00 5c 56 b0 0c c5 3f 01 4f 73 82 83 ec 93 bf
       0.1644497319866787 -0.019456915700017955
000250 ef f4 c9 23 4e f5 c8 3f 29 a6 08 30 56 0d 0e 3f
       0.19498612163071224 5.7319824922363455e-05
000260 4d 92 cf d9 a4 d5 c7 bf 23 07 36 51 3e 47 92 3f
       -0.186207395890181 0.017849897104958445
000270 52 2c 00 bc a5 61 9f bf dd c3 a9 ed 34 f6 c0 bf
       -0.030645932769442226 -0.13251363377233263
000280 66 59 30 a8 c3 fa c1 bf 12 ed f8 bc 9e f4 c1 3f
       -0.14046521866175538 0.1402777121273649
000290 cc 67 2d 6f 70 f4 cb bf c0 20 2a 7f 2c 1a a1 3f
       -0.21839719227392462 0.033402815363900995
0002a0 ae 0d 8e 0b 5d 21 b2 bf 4a 55 03 c3 eb b2 c6 3f
       -0.07082158596136054 0.17733523389930844
0002b0 ce e5 67 2c 18 16 c8 3f 22 1d 29 56 3b f2 c9 3f
       0.18817426841978463 0.20270482737598977
0002c0 08 48 21 47 66 60 a4 bf c5 5a 88 37 0b 63 66 bf
       -0.03979796999250601 -0.0027327746468118496
0002d0 9d 11 21 83 d5 cc c6 3f 6b 31 41 3f 8a 1f ca bf
       0.17812603857795475 -0.20408752525907956
0002e0 67 09 06 bc cf d5 b0 bf ae c1 3e 80 8e 21 b6 3f
       -0.06576250400943238 0.08644953375801975
0002f0 bf f1 b8 24 ec e1 82 3f 7f ef 1c ed 01 84 bf 3f
       0.009219975348167318 0.12310802496807403
000300 cc 92 df d0 28 8d ba 3f 4d 53 39 89 97 74 a2 3f
       0.10371642207571624 0.0360457758912732
000310 b3 1f a0 70 4a 9b ba bf 48 88 6c 4b 18 e9 b4 bf
       -0.10393204927106474 -0.08168174592404498
000320 80 20 09 87 68 2b c2 bf f6 22 41 80 32 e4 c5 3f
       -0.1419497165063639 0.17102652800010504
000330 eb db 8c ba 65 7e d0 bf 8f 67 50 6f 5b cf b0 bf
       -0.2577146837024304 -0.065664019275941
000340 79 be 7e 73 e0 ab cb bf 08 3c a4 81 44 d1 ae 3f
       -0.21618276252182847 0.06019033510721533
000350 50 40 48 ce b5 98 c0 bf 43 89 1b 85 e3 00 93 bf
       -0.12966034481405808 -0.018558077811470907
000360 0f a3 e1 5e 94 f8 b2 bf 5c c7 fe 9a e0 69 b0 3f
       -0.07410552326622287 0.06411556037963123
000370 05 25 be fb 5a a6 94 bf fa e9 94 c8 74 8e b1 bf
       -0.020165845503957964 -0.06857995888723414
000380 7c f6 21 ee ed 4e c2 3f 45 27 d7 96 4e 3c b8 bf
       0.14303373458453794 -0.0946702116263199
000390 a9 6f 7e cc e1 69 bd bf 80 53 c8 a5 08 d4 ba 3f
       -0.1148968815090813 0.10479787871766
0003a0 69 5d 3f b3 7d 4c b0 3f 33 90 e9 07 2f 56 b4 3f
       0.06366716028366216 0.07944005911991851
0003b0 7f 1d b5 ee bf 06 a9 bf 27 ff 27 39 62 38 aa bf
       -0.04887962139997181 -0.05121142337520573
0003c0 3a 09 78 b8 2a df cc 3f 3a 4f 0b a5 63 92 97 3f
       0.22556051261205728 0.02301936812257497
0003d0 be 61 0c 63 f1 85 ae 3f e4 e1 bc bf 61 28 a6 bf
       0.05961565336309914 -0.04327683892774184
0003e0 0b 86 40 c3 b7 b8 c4 bf cd 17 ee 1a 96 e8 d3 bf
       -0.16188714059630657 -0.31107094411742936
0003f0 2b 32 20 1f cf db b4 3f 35 6b 27 c8 17 d7 a4 3f
       0.08147902021318802 0.04070352857862362
000400 2f 81 c1 91 72 17 c9 3f 08 6d 0c d9 de 2e c1 bf
       0.1960280620287533 -0.1342428741271322
000410 70 bd 6f 7c 33 71 bd bf 6b 39 51 5e 69 11 ce bf
       -0.11500856197357279 -0.23490635972343496
000420 ec 0d 52 54 fa 74 c9 3f 91 b5 b2 64 7b d6 98 3f
       0.19888238064969188 0.024255683919070462
000430 9c f7 7a f8 0b 69 c8 bf ea 58 3d da 41 3c b5 3f
       -0.1907057727129854 0.08295070245853578
000440 51 c0 36 eb 09 24 cc 3f fc 60 bb 0e 6f e7 b2 3f
       0.2198498152261004 0.07384389981905665
000450 fb 9c a6 3c a3 72 b2 3f 4e 79 ff a4 ee c5 b5 bf
       0.07206173163159584 -0.08505145576734671
000460 24 76 b8 aa c7 4c c5 3f 70 fd c3 a8 6a f3 cd bf
       0.16640563808407294 -0.23399098625666737
000470 f5 92 a8 a7 3c d7 87 3f d4 b3 54 ac d3 be a2 3f
       0.01164100062039484 0.036612143312914874
000480 45 8c 7e 17 f8 2b 81 3f 8a 29 00 75 e9 bd c8 bf
       0.008384645668973909 -0.1932956525127561
000490 d3 dc a3 be 22 a0 d0 bf 15 57 9b ec 22 8f b9 bf
       -0.2597739087791073 -0.09984033848317282
0004a0 ce 88 f7 36 24 7d 9e 3f ef ea 00 68 92 c8 c5 3f
       0.029774251799502598 0.1701834686117176
0004b0 92 10 41 a2 d6 b4 ab 3f 09 d4 b1 2a f4 b7 be bf
       0.054114062601486115 -0.11999441187238359
0004c0 c4 ca fb 57 2b de a6 3f 02 cf b9 db f2 b7 c5 bf
       0.04466376732843494 -0.16967616776275213
0004d0 dd 16 28 3d a3 eb d0 bf 50 82 f1 04 84 05 9f 3f
       -0.26438218090366467 0.030294478227349153
0004e0 01 e6 40 8d f2 00 d0 bf 8e b0 15 e7 d3 cc c7 bf
       -0.2500578288487248 -0.18593834670480586
0004f0 f0 11 ee 63 2a ae cc bf 1d 44 1d f3 51 fd 98 bf
       -0.2240651119174255 -0.024403839553375762
000500 20 d6 f7 76 20 b9 a7 bf 43 27 30 47 50 30 a0 3f
       -0.04633428051230859 0.03161860341067648
000510 84 1e 59 8d 26 63 9b bf ee f1 64 f3 8a 1d c2 bf
       -0.02674541700096579 -0.14152657398689378
000520 83 92 70 c7 bf 66 b8 3f 6f e2 24 25 39 5b af bf
       0.09531782740720911 -0.06124285295885989
000530 d4 af 69 c7 31 2c af bf 08 5d 2a a5 36 5a c1 3f
       -0.060884051887881846 0.13556559624405673
000540 97 c6 7a 43 e4 34 b2 3f 53 0c 6e 83 00 08 d5 bf
       0.0711195626015758 -0.3286134036536101
000550 bb 2d f2 48 3c d2 cd bf 09 86 bd f5 cf 9f 97 bf
       -0.2329783779317561 -0.023070573209571097
000560 bc c2 db f5 72 cc bc bf 4a 51 34 98 ec 21 c8 bf
       -0.11249464514163326 -0.1885352843461397
000570 98 d9 c5 75 b4 d7 96 3f 38 af 3a 1c bd c9 c8 bf
       0.02230722397640647 -0.19365657690411253
000580 4f 01 d5 80 2c 9b c8 3f 4b 74 b8 32 c8 f0 bf 3f
       0.19223552981021405 0.12476779211324744
000590 15 09 bb fd 8e 79 be bf 1d bd 32 f7 4b 2b c8 3f
       -0.11904233641238122 0.18882131166672247
0005a0 a4 af 98 d7 60 d8 b8 3f 4e d4 f9 00 4b cd d0 3f
       0.09705167068085402 0.26253008933355637
0005b0 ce 11 d4 33 58 93 b1 bf f3 c1 8d 51 a9 8b ac 3f
       -0.06865454926816669 0.05575303192643224
0005c0 6f e3 b5 8e 56 3d d3 bf eb 67 08 cc 1e 3a c5 bf
       -0.3006187814385645 -0.16583619082012943
0005d0 6d 1a 1f bc 10 c4 b0 3f 8b 85 c7 c7 53 6b b0 bf
       0.06549172013101563 -0.06413768412996583
0005e0 1b 9f 70 e8 78 c9 79 bf 64 9d 9b 88 33 a8 cf bf
       -0.006295654579879596 -0.24732059641176385
0005f0 77 6c 8c 1e a9 fb d1 bf 69 2a e6 94 f3 24 8a 3f
       -0.2809851454091538 0.012765791875400017
000600 bf 3e 84 8c 97 cc c7 bf 11 05 76 c7 b1 5b a9 bf
       -0.18593115197335483 -0.0495276981337246
000610 86 b7 2f 86 85 da b3 bf d7 4d fd 06 eb 5e c6 bf
       -0.07755312467608463 -0.17477166978151956
000620 bb 82 b3 f7 44 2c 9e 3f a8 a7 6e d6 d9 5c af 3f
       0.029465749376756927 0.06125527136403203
000630 3b 2d 99 b3 4f 35 9c 3f 4a 90 e3 2d ad 06 85 3f
       0.027547116600812088 0.010266640627783503
000640 f2 e7 ea 6d 1b c7 c7 3f 0e f0 08 17 34 83 bb bf
       0.18576376788206478 -0.10747075617194943
000650 bc 1f b7 95 fd a9 9d bf 44 74 fc d1 00 c9 b5 3f
       -0.028968775046251713 0.08509831549277275
000660 0c 9a c7 89 44 de ba bf d3 b2 ca 21 e4 51 c1 bf
       -0.10495403636705464 -0.13531161928167154
000670 94 db 05 d9 e1 b5 b0 3f 69 d3 37 0a 5c 0f bc 3f
       0.06527530239496421 0.10960936784233656
000680 5f de a8 ab 6e 75 c0 bf a1 ce 1a d0 34 66 c9 3f
       -0.12858374959772598 0.1984315887581163
000690 c9 2c ae 77 fa 83 c9 bf 23 b2 90 54 d6 02 a1 3f
       -0.19934016078727826 0.03322477133074055
0006a0 4b 40 0e 33 ba 8e bb bf 58 64 c4 ab a8 03 c5 3f
       -0.10764659639812739 0.16417415988033457
0006b0 8f f9 86 ff e8 53 bf 3f d5 59 5d 59 c7 9e c2 bf
       0.12237411726434842 -0.14547054160602949
0006c0 28 8d bf b5 87 2a d1 bf 0b 81 72 4b 97 5b 94 bf
       -0.2682208323369246 -0.019880641918121927
0006d0 84 71 11 60 2d 90 c2 bf b8 ba 78 6d 85 27 b5 3f
       -0.14502494040324276 0.08263429567953551
0006e0 1e c1 27 5b 56 68 d0 bf 57 26 d4 92 4b a0 90 bf
       -0.25636824514278256 -0.016236477696145304
0006f0 07 68 66 41 16 d4 bb bf 67 76 22 bb f4 5c b4 bf
       -0.10870493981056494 -0.07954339569774903
000700 0e 99 f8 64 a0 d7 ab bf d1 e5 33 40 a3 3b c9 bf
       -0.05437947495038219 -0.19713249812029557
000710 5f 1f 6d 9d ab e7 c0 bf 98 b4 e4 98 df d8 96 3f
       -0.13207001864270304 0.022311681467887284
000720 be 76 55 5c d4 b1 c4 bf 06 74 89 f3 d3 10 c2 3f
       -0.161676926693806 0.14113854781581398
000730 2d 81 47 4f 67 1d ba 3f 1b 7d 9d 9f 41 16 9f bf
       0.10201116261987826 -0.03035833870614822
000740 ec f4 dc 7b 90 0b cb 3f 2c 9c 52 37 4b 31 bb 3f
       0.2112904171753266 0.10622091389323945
000750 bc 41 e7 e0 8f bd c0 bf 96 e6 da 6f 89 11 cd bf
       -0.13078497392281274 -0.22709768258737445
000760 4e 0c bf 24 0c de 80 3f a7 88 c9 00 34 da 92 bf
       0.008236021872909085 -0.01841050391011181
000770 ed 1f cb 71 e4 a1 47 3f 15 9b 91 f8 cf ff 95 bf
       0.0007212033702552724 -0.02148365931170833
000780 62 35 1d 35 18 0b bc 3f 07 58 a5 bd 62 47 aa bf
       0.10954428955775122 -0.05132587971699825
000790 c3 7f a5 3b 2d 26 c3 3f a5 06 be 4e a0 c6 a5 3f
       0.1496025601618368 0.042531022655578433
0007a0 f8 1b 8c a3 9f 7a b2 bf 17 61 c9 4c e5 17 b7 3f
       -0.07218358748296783 0.09020836949037335
0007b0 d6 1b a6 1a ae 4a b2 bf 0a 6e 53 24 c2 e5 ad 3f
       -0.07145202780348767 0.05839354222709055
0007c0 5f 72 ff c4 7d 11 d3 bf 50 e8 1f 3a ee 53 c3 bf
       -0.2979425834471722 -0.1509988578616821
0007d0 23 01 29 56 58 75 d4 bf af 3b c8 76 a3 1d b9 bf
       -0.31966217435912564 -0.09810849809603782
0007e0 a2 21 f0 04 a2 57 c5 3f a0 69 87 6e b1 c9 97 3f
       0.1667368435012238 0.023230335589553897
0007f0 e0 4d ec 55 32 bb d0 bf 97 ac d0 c0 ac fa d2 bf
       -0.2614255751697936 -0.29654997663119204

model.sequential_layers.1.Linear 1.weight f8 [128, 257]
000000 db 45 5d da ec ca af 3f 35 80 eb b9 1f 70 be 3f
       0.062095071464351746 0.11889837540684385
000010 d6 52 d2 fd 64 a8 c5 bf 1a c2 cc 54 de b8 b4 bf
       -0.16920149224883713 -0.08094586916264071
000020 28 8a 7f ee 99 c7 a8 bf bd 63 19 7c 66 c5 b7 bf
       -0.04839783703188899 -0.09285584001317111
000030 8d a4 77 6e 29 e5 bc 3f 70 c3 80 5c 0c 54 b9 bf
       0.11287173220593356 -0.09893872507451618
000040 88 a1 1e 20 a4 de 9a 3f 4a 24 80 7d 6a d1 8d bf
       0.02623993345301437 -0.014559585528347924
000050 95 d8 72 ad 50 12 a3 3f 2f ef f8 87 26 a0 9d 3f
       0.03724910847943012 0.0289312382212607
000060 f3 71 22 03 ce 55 ae bf e7 11 0f ed 3a b0 b6 bf
       -0.059248388178477905 -0.08862655913896554
000070 ad c7 a3 95 9b 76 7c 3f c8 01 58 62 8d 2c bd bf
       0.006949050666877382 -0.11396106387110827
000080 c7 7f 9e 80 87 34 ca bf 56 8b 5a b6 d7 68 bc 3f
       -0.20472806720954237 0.1109747715186534
000090 41 e7 87 68 63 14 bb bf 9e c7 f5 0a 8d b9 6d 3f
       -0.10577985097907307 0.0036285166494786766
0000a0 d9 6a cb bb bc ef c2 bf 6b 15 16 19 5a 7e be 3f
       -0.14794119996698532 0.11911547768075585
0000b0 b5 a2 dd 17 69 13 c2 bf 96 52 ad b6 ed 5f 9d bf
       -0.1412173620731402 -0.0286862509486406
0000c0 55 30 fd 35 ed c3 c0 bf 9f 04 7c 7d 72 99 04 bf
       -0.1309792054765945 -3.929024359018121e-05
0000d0 5e fc 8b c8 6d f1 c2 bf 42 f1 9b da a3 cc 77 bf
       -0.1479928235275762 -0.005810394339047344
0000e0 22 4d 11 53 c9 aa bc bf 06 3d f6 ed 21 0b c5 3f
       -0.11198099401490372 0.16440223807556026
0000f0 ef f3 d2 cf 22 15 c8 bf 60 cf 74 a8 be 7a a2 bf
       -0.18814501903207723 -0.036092718184959294
000100 1e 7f 79 6e 11 de c8 bf a7 3d 7e fc 9b 05 b5 bf
       -0.1942769803454149 -0.08211684145339025
000110 c4 ce f2 37 b3 62 ab bf 41 a4 74 77 f6 02 b1 3f
       -0.053487396793028746 0.06645145813367127
000120 5c 4a 7a 95 49 ad a4 bf 8f 95 9a ef 09 f4 9a bf
       -0.04038457822493477 -0.026321559190042584
000130 38 fa 2c b5 44 ef a9 3f 92 a8 b8 5a 90 7e b7 3f
       0.050653597942517725 0.09177496161342649
000140 39 22 ff b5 c5 de c0 bf 35 5f 94 5d dc a9 81 3f
       -0.13179847132256997 0.0086247650202008
000150 e6 78 65 39 e3 3f c1 3f 39 f8 0e f1 7e 5e 43 bf
       0.13476219465787337 -0.000591098769397786
000160 d8 9f 5c f7 af 57 b6 bf b9 51 0e 31 27 29 cd bf
       -0.08727550305468357 -0.22781839270886708
000170 91 cc 37 17 48 b2 c4 bf e3 dd 53 e3 cc 08 a6 bf
       -0.1616907227868052 -0.043035891294433325
000180 09 61 7b 90 75 ae 8c bf b7 d1 8c cd 19 e8 9a bf
       -0.014004629585017374 -0.026276019259243912
000190 14 66 7b e5 81 18 a5 bf 57 01 39 60 dd 6b c0 3f
       -0.04120260168356196 0.12829177091954122
0001a0 c9 60 0a ff 6b f5 b8 bf 56 98 19 ca c4 e5 c7 3f
       -0.0974948403985564 0.18669948452151414
0001b0 70 bf 7a d7 5a ba b5 bf 77 5d 10 0f 89 19 b8 bf
       -0.08487479935388165 -0.09413963907024035
0001c0 e0 5b c6 2a 00 6b cc bf 10 2c bc d8 56 3d c3 bf
       -0.22201540077796178 -0.15030942518964752
0001d0 a7 43 f3 91 74 63 85 3f 8b 0b b8 fa 11 df d1 bf
       0.010443602279709042 -0.2792401264597905
0001e0 7c 51 ac 88 25 0e ab 3f db 15 ed d6 ad d9 b0 bf
       0.0528423051202109 -0.06582151887149428
0001f0 b0 56 14 3f cf 4a cc 3f 70 6c 7f 67 0a 00 cc bf
       0.22103300647784385 -0.21875124028779025
000200 1a 26 69 1b 1f 9d b3 bf f3 37 18 7c c7 1c b9 3f
       -0.07661623400886022 0.09809538631108676
000210 53 38 bf b3 e4 5b a0 bf 83 07 0c db a2 ff 96 bf
       -0.03195109075714755 -0.022459549541060674
000220 4d 69 7a ff a1 7f b2 3f be 0e 71 7a 66 28 89 3f
       0.07226002204189293 0.012284088718053861
000230 0f 7b 2d 4d 0b 66 c6 bf 25 6a 2f a6 81 00 d1 bf
       -0.1749891402095831 -0.2656559107687449
000240 24 77 a7 83 8b 3b c3 bf 78 47 b5 0b 6b 6a b0 bf
       -0.15025466850686897 -0.0641238120636255
000250 fd 9a f2 d2 3d 60 b3 3f bc 1e d2 c3 31 88 bf bf
       0.07568727874841481 -0.12317191153317258
000260 36 de 9c 1c 7f 6f ba bf a9 6f 10 74 d1 d8 c2 3f
       -0.10326380203775262 0.14724176566312266
000270 fc 78 39 e0 60 21 b3 bf ec be 23 21 a4 d9 c7 bf
       -0.07472806429129614 -0.18632938020845502
000280 87 ab a7 75 9a 0a c0 bf 20 cb 5c 73 41 4b 9d 3f
       -0.12532358879920144 0.02860739008537927
000290 15 e4 54 66 45 d1 bd 3f b6 02 ad 34 5e 07 94 bf
       0.11647447346048552 -0.019559356656148018
0002a0 d3 db c8 b8 8b ef ab bf b6 21 54 5a 04 d6 bb 3f
       -0.05456196432753981 0.10873439030922935
0002b0 05 03 33 15 0a 3c c3 3f 03 b7 cd 0c ef c8 81 bf
       0.15026975665207246 -0.008684032037958206
0002c0 98 eb 99 bb 39 30 c5 3f 52 09 00 e3 11 3c b6 bf
       0.1655342260381445 -0.0868540934753004
0002d0 2c 66 c6 2b d6 fa b8 bf b7 97 dd 66 47 61 c2 3f
       -0.09757746285176755 0.14359371683820907
0002e0 b3 5b f6 98 7b 3b c0 bf 19 05 53 86 ab a8 bd bf
       -0.12681527108062837 -0.11585495023156901
0002f0 a0 5e 4d bd 21 3e ae bf 42 1b e3 12 92 50 b7 bf
       -0.05906777797525575 -0.09107315980064093
000300 a1 46 80 9e 1b cf 91 bf 77 1b 6b 95 3b 46 ab bf
       -0.017391616391313595 -0.05327020834879808
000310 b8 b5 67 0f fa 4f 9d 3f 21 01 cd 44 80 e4 b5 bf
       0.028625399770978638 -0.08551789931971544
000320 50 cb c8 8e 02 a4 63 bf 45 6c 93 22 61 24 64 bf
       -0.0023975419956285063 -0.0024587533158473584
000330 11 a8 d8 fd 58 17 82 bf ca 04 82 13 27 e9 a7 3f
       -0.008833594557547316 0.04670068848737115
000340 49 3d 8d b9 1e 3c c4 bf d0 26 1d be 9f 84 c7 bf
       -0.15808471737043764 -0.18373486311820963
000350 32 73 5d ea 24 a9 6b 3f a7 54 f8 5e 2a cc bd bf
       0.0033765526776917904 -0.1163965684757665
000360 6d ad 34 0d b7 af 96 3f 3a 63 38 6a 3a 45 b4 bf
       0.022154674702659905 -0.07918133824604193
000370 f6 db f4 bf 4f 12 ce bf 94 85 ec 51 65 c5 be bf
       -0.23493382332682672 -0.12019952058883226
000380 78 b8 29 9c 32 d9 ba 3f 33 dd f7 3c b3 ee ac bf
       0.10487667381832633 -0.05650863761177973
000390 bb 99 ec 04 65 46 c2 bf 02 14 9e b9 8a 16 c4 3f
       -0.1427732729000136 0.15693792403558865
0003a0 65 d7 cd 74 c9 4e c4 bf f3 dd 4c 9c ef 4b a1 bf
       -0.15865438655208233 -0.033782470540639674
0003b0 d7 f6 e0 2e 45 5d c1 bf 2a d4 1e 8c c2 41 ca 3f
       -0.13565888203623075 0.20513183442895527
0003c0 65 da 36 29 47 aa 97 3f e6 68 55 cd a4 d8 a9 bf
       0.023110496416587262 -0.05048098570360242
0003d0 10 20 64 9b d8 b5 bc bf 6a cd f2 93 79 eb 92 3f
       -0.11214975160339713 0.01847639050965936
0003e0 83 96 75 c8 e4 cf 93 3f ce 33 9c 5d 3d 91 b8 bf
       0.019347738967005156 -0.09596618209270888
0003f0 ef 54 d7 a0 6e a8 b3 bf 62 98 f6 10 18 6a a4 3f
       -0.07678882052217138 0.03987193305083349
000400 33 92 41 fc 87 a9 a2 3f f9 36 88 d4 de bf b6 3f
       0.03644967035578297 0.08886521042606067
000410 f6 16 ba a2 ff be 42 3f 37 d3 d5 72 d3 24 c5 bf
       0.0005720852108914421 -0.16518633944692748
000420 a2 9d a4 05 52 3d b3 3f 8c 84 e8 b0 da 2a c6 3f
       0.07515442502755446 0.17318280828570598
000430 3b a3 fb 1e 23 17 c1 bf e1 ee 29 08 e5 19 c1 bf
       -0.13351859104957406 -0.13360274218199833
000440 01 7f 63 f9 48 5c b2 3f 30 4d 13 5f 98 23 62 bf
       0.07172065819349528 -0.002214238739364348
000450 94 e1 b1 0c 00 aa b8 bf b4 53 c8 95 cc 57 b9 bf
       -0.0963439970963747 -0.0989959588699339
000460 dc d0 a6 9b 36 3f b5 bf e2 46 df 6f 5e 8e c5 3f
       -0.08299580860222328 0.16840725386150895
000470 6b a1 7e 2f 3f 96 86 bf f1 54 2a d2 82 5e 71 bf
       -0.011028760563775738 -0.00424052335678947
000480 f8 09 cc cf 43 59 bb bf 10 bf b4 20 ac 28 bf bf
       -0.10683082411927802 -0.1217143611763698
000490 09 78 35 aa 42 37 8a bf e8 67 ef 0b 7e 8e a8 bf
       -0.01280071336685397 -0.04796213050549608
0004a0 57 8b e2 d9 5c 28 90 3f 43 e4 5f 45 bb fe cc bf
       0.01577897148002746 -0.2265237892859507
0004b0 3f 32 f0 5e 84 17 b9 bf f2 4b f0 41 58 56 b9 bf
       -0.0980150920660856 -0.09897376642065561
0004c0 3b 98 52 28 3f 00 a7 3f 0a 5f 39 53 3e d9 c1 bf
       0.044923757240482996 -0.13944224418332168
0004d0 17 87 7a 29 4f 8c b4 3f e0 25 5b 02 85 96 ab 3f
       0.08026594889318193 0.053882748162844996
0004e0 8c a8 25 f6 57 33 ab 3f 4d a0 f9 cb b0 d6 a5 bf
       0.0531260955784357 -0.04265358438425491
0004f0 54 13 47 d7 29 4d b0 3f 3d ce 53 d1 b8 e9 a8 bf
       0.06367742067147947 -0.04865815692201323
000500 8f de 7f 2d 8a 50 c4 bf 73 82 14 7b 06 1c 49 bf
       -0.15870787831930896 -0.0007662803310815716
000510 06 22 f8 33 73 8e be bf 99 09 8e b4 7f eb b9 3f
       -0.11936111468106256 0.10124967725827218
000520 5f c6 8e 06 54 11 b0 bf de 1e 4b d9 2f 38 ce bf
       -0.0627644077310605 -0.23608968839675176
000530 76 b1 2c c8 eb 73 a8 3f 75 85 5b 51 2f 51 b0 3f
       0.04775940722024334 0.06373878227488723
000540 0a 33 42 a0 98 b2 c0 bf b5 da f8 c8 ab a3 9f 3f
       -0.13045032334448364 0.030897792950976128
000550 d1 df 35 16 69 e3 cc 3f d6 e0 74 74 26 36 9b 3f
       0.2256900175523229 0.026573754175132823
000560 60 c2 28 c9 62 90 ac 3f 49 ba fc fa 0b d1 b7 bf
       0.055789076858108855 -0.09303355100267043
000570 28 f7 fc bf 3b c9 a0 bf bb 47 34 27 07 27 b9 bf
       -0.03278528898816396 -0.09825176913389459
000580 3a 03 27 01 7a 74 98 bf e4 a0 1c f2 bf 37 ad bf
       -0.02388182289155625 -0.05706596212832141
000590 89 6d f0 00 f9 ab bc 3f 25 fc 7c 77 24 27 b1 3f
       0.11199909470490445 0.06700351636116915
0005a0 a6 41 92 34 e2 5e c1 bf 93 cb c6 5d 1c e2 c7 bf
       -0.13570811812361433 -0.18658785418446353
0005b0 af 7e cf 91 c7 06 bd bf 73 1c d0 bd b8 f7 b4 bf
       -0.1133846980078441 -0.08190493234734379
0005c0 dc 7b 9a cf 98 1e 64 3f a8 94 f1 55 64 5c c2 bf
       0.0024559959973226974 -0.1434445781370972
0005d0 66 2e 5d 8a e3 4e 7f 3f 89 6c 97 7c 6c 11 b9 bf
       0.00764359362603848 -0.09792211572441735
0005e0 22 2a 8b 8e a7 c9 cc bf 81 21 02 d4 b4 6e c0 bf
       -0.22490400753152168 -0.1283784899899381
0005f0 c8 7b 4a a6 12 7e c5 bf e4 77 6d e2 5d 42 99 3f
       -0.16790993804622034 0.02466723150734386
000600 65 30 99 a7 c6 47 c5 3f 2c 8e 59 38 f3 df be bf
       0.16625292953029028 -0.12060470700958409
000610 66 2c 5d ce bc f3 b2 3f a9 b8 b9 37 39 f1 c0 bf
       0.07403163946325861 -0.13236155720682533
000620 2b 83 2b 31 cf 06 98 bf 84 b6 11 8b 4f 0f a1 bf
       -0.02346347558602983 -0.03331993649122203
000630 84 59 db 55 f2 50 84 3f 13 c0 50 49 e7 f2 7e bf
       0.009920018429892215 -0.007555869543509191
000640 0a e4 5b f2 09 7c aa 3f 88 45 0f 7a a8 64 b2 3f
       0.05172759135707146 0.07184842090580024
000650 f8 6d 5d 1e 69 89 73 bf e8 c2 12 45 ef 56 bd bf
       -0.0047697168536973075 -0.11460776745185408
000660 64 d8 61 87 87 05 a7 3f 35 0b 36 a1 e8 d7 c2 bf
       0.044964061046741916 -0.1472140109218231
000670 c9 bd 7a 86 8e f4 c5 3f c6 d8 4d 4a 9d 43 ba 3f
       0.17152577940349392 0.10259421409668609
000680 73 01 88 3f e3 0f b5 3f 7f 88 2c 02 1d 28 c2 3f
       0.08227367688232849 0.14184916120672494
000690 6e 32 1a df 89 dc bb 3f 91 1f fd ef 8e ca b6 bf
       0.10883390137514379 -0.08902829512692124
0006a0 86 39 33 84 5d 10 7f bf a8 45 f3 55 22 2e 96 3f
       -0.007583966539824854 0.02166036271666419
0006b0 04 b5 71 c3 a8 8a 93 bf ce 18 a7 1e 29 74 d1 bf
       -0.019083630494084694 -0.27271488183431536
0006c0 5a 6c 7b f3 18 e6 c6 3f b0 0b 60 25 d0 00 c5 bf
       0.17889701737189762 -0.16408731293640022
0006d0 9e 8b 01 73 ec 4d ba bf fc a4 a2 8e 22 51 b6 3f
       -0.10275152023090903 0.08717552168186055
0006e0 b1 f5 f8 28 b2 ff c7 bf 80 86 2d e3 6c 7c 7b 3f
       -0.18749072075472165 0.006710458127459185
0006f0 5c 2b 9d 26 e2 cf c3 bf 2b 8a 95 a9 4b b8 a1 3f
       -0.15478159795233182 0.03460918851012126
000700 69 01 0c 84 67 68 b3 bf 37 f0 c3 26 e2 cc b2 3f
       -0.07581183408547577 0.07343877264423858
000710 fa 79 6d ba 2a 26 c9 3f b8 b2 99 60 b2 88 a9 bf
       0.1964772615710471 -0.04987103871539972
000720 8f 5b f4 40 8f a6 c9 bf 33 d4 21 02 2c 27 b1 bf
       -0.20039549514396213 -0.06700396587423611
000730 81 c2 5a a9 13 cb 9a 3f 5f 65 b9 9d 35 22 b7 3f
       0.026165301524715637 0.09036574459732581
000740 ff e4 e7 54 4d 34 ab 3f a3 74 92 d9 39 f5 a3 3f
       0.0531334081787893 0.03898030072125749
000750 95 43 d9 b6 18 0e 91 3f 11 fb 3c 20 64 02 97 3f
       0.0166553365327818 0.022470058887161196
000760 21 73 10 14 42 ca ad 3f 44 da 05 83 db f8 b2 bf
       0.05818373198437699 -0.07410976361084304
000770 22 2f 91 29 be d9 b5 bf a1 12 32 c1 3c 78 8a 3f
       -0.0853537417871704 0.012924646993505208
000780 a2 11 46 69 37 49 ca bf d2 4e 71 98 1b 1b 83 bf
       -0.20535938873594 -0.0093290477654259
000790 4d 46 7e 1a 61 3a b3 bf c4 cb 73 45 f1 84 98 3f
       -0.07510954758461104 0.023944635261567773
0007a0 fb be a9 dd 63 1e bb 3f c9 b2 5a 1a 5b f7 92 3f
       0.10593246614166311 0.018521712764299623
0007b0 f4 05 95 82 20 38 c7 bf 4f 0d 09 2e f1 11 d0 bf
       -0.1814003598793047 -0.25109509940758284
0007c0 f9 eb 8b fc 78 0b b7 bf 05 44 86 7b d2 04 62 bf
       -0.09001880803764085 -0.0021995650278729983
0007d0 53 fd b6 4b 4a f3 c2 bf 44 c0 6b 12 85 e3 83 3f
       -0.14804962822925435 0.009711303352986651
0007e0 b7 e8 1f de be 77 b7 bf 92 47 db f7 9c 43 ab bf
       -0.09167092249836882 -0.053250222450187526
0007f0 6c d7 b4 b9 c8 43 c0 bf 26 1d a5 0b 8a d2 b5 bf
       -0.12706860606857207 -0.08524382385541127
