Data/Breast Cancer Winsconsin (Diagnostic)/results/models/bcw_9.onnx (onnx, 416707 bytes, 5 tensors)

model.sequential_layers.4.Linear 4.weight f8 [1, 17]
0	0x3fdf31837dd008d0	0.48739707266225896
1	0xbfdec474c62ba31e	-0.4807407317407967
2	0xbfe23733c85fa323	-0.5692385591074508
3	0xbfe0aeb0d2c3723e	-0.5213245502923838
4	0xbfe054d65a8806d2	-0.510356118029643
5	0x3fe57989a0323732	0.6710861328917643
6	0xbfdcda29b33386cb	-0.45081560611843646
7	0x3fe1c068bb73c713	0.5547374402214892
8	0x3fdde1cb23dd4a30	0.4669063425291453
9	0xbfe10f2c8815722b	-0.5331022889982412
10	0x3fe2024ea9a4fc0c	0.5627816499107907
11	0xbfe12a52461758a2	-0.5364161843269992
12	0x3fe26d2710b341eb	0.5758242918182622
13	0x3fde2d5d41c6022a	0.47151881621542435
14	0xbfe2803348232996	-0.5781494530613596
15	0xbfdc88df66d37009	-0.4458540443572479
16	0xbfc0518167b877e1	-0.12748735012513548

model.sequential_layers.3.Linear 3.weight f8 [16, 65]
0	0x3fc2988e3cb9bb0f	0.14528062787163562
1	0xbf9300361cbd4cb6	-0.01855549383556073
2	0xbfb42300844c4896	-0.07865908842021194
3	0xbf9c13d0c16ca8ff	-0.027419339948360207
4	0xbfcef229a6c49f82	-0.24176521914455057
5	0xbfb4ca1a93f2580f	-0.08120885955790434
6	0xbfd214865baccdb1	-0.2825027365936093
7	0xbfc3d03f48781979	-0.1547927001813141
8	0x3f8ae0964aef66bb	0.013123678361739768
9	0x3fb2c38ceea00b14	0.07329636407670775
10	0x3fbabebde5019de8	0.10447298851942544
11	0x3fd2d883ed29d739	0.2944650474595281
12	0x3fbc377df7266987	0.11022174152313911
13	0x3fa6e6703837d1fd	0.04472685514693706
14	0xbf882e495c3b7e32	-0.011807034613808918
15	0x3fccecda9258abf2	0.22597820421046283
16	0x3faee6f3925a8794	0.06035576974433279
17	0x3fa53074130e786a	0.04138529522536845
18	0x3fcdb0559df373eb	0.231943800091272
19	0x3fc9628af07a9185	0.19831978551986765
20	0xbfd1b296dc64ba7d	-0.2765252258567797
21	0x3fcdcde9c0f340b4	0.23284646912953166
22	0xbfbae7ae882edce0	-0.10509768318921742
23	0x3fc3c970fbdb33b7	0.15458500192326394
24	0xbfcad1ea10d2802b	-0.20953107663535894
25	0x3f744ccf4989ba57	0.004956063953257392
26	0xbfbc995b4faf2f88	-0.11171503730218835
27	0x3fa3ab20f66cf486	0.0384149838268764
28	0xbfbb667f89b4ea55	-0.10703274833660122
29	0x3fba2dcfe904ae4e	0.10226153792307821
30	0x3fc1d82800fd1267	0.1394090657069171
31	0xbfd23527f434af0e	-0.28449438904020574
32	0x3fbb37af80b46851	0.10631844417767523
33	0x3fa93d988fb4d703	0.04929806474903666
34	0x3fccdae9e757d0b9	0.22543071552320784
35	0x3fbe49ba00fa2527	0.11831247829299639
36	0xbfc66d0c68cca89e	-0.17520289532814542
37	0xbfd0dd60938738c8	-0.26351179511119627
38	0xbfa36e8527576556	-0.03795257668725564
39	0xbfb3104f1cf9dc04	-0.07446760613844111
40	0x3fc269e31e3539a5	0.14385642027850767
41	0xbfbde9347c491908	-0.11683967623057268
42	0x3fd5290819e046dc	0.3306293728538614
43	0x3f747f551f24a45b	0.005004246241051192
44	0x3fc924c2c56e3f04	0.19643435135048304
45	0x3fcde966e6749950	0.23368536236484738
46	0x3fadbb07b1868f40	0.058067551060303035
47	0x3fc94a65987a4833	0.19758291192244
48	0xbfd55cd90a540b5b	-0.3337919808256424
49	0xbfd88d1c825fc9c5	-0.38361275417187485
50	0x3f9cb102ed45b8ab	0.02801899502940645
51	0xbfbd904c1777a54c	-0.11548305104192486
52	0x3fbc5894eab6c7b1	0.11072664957353485
53	0x3fd3ab61929b5cb0	0.30733527485922263
54	0x3fcf8e96ee20bf60	0.24653898837413646
55	0x3fc65bf67d610776	0.1746814834787604
56	0xbfbe91fa80b5e458	-0.11941495554300852
57	0xbfa6a3d64cec38ab	-0.04421872796057021
58	0x3fc0cd0cd24077cd	0.1312576319332365
59	0xbf881b799a3aaa1f	-0.011771154421997441
60	0x3fd93fab2fafed07	0.394511028832952
61	0xbfbb748ae64c9866	-0.10724704859294007
62	0x3fc4edbfbe2e7fb2	0.16350552355015463
63	0xbfcebf5668a3c20d	-0.24021415814742433
64	0x3fd0ada6398d5f10	0.26059871311507354
65	0xbfc06c3097fb88b4	-0.1283016912557905
66	0x3fd1bee80cb718d7	0.2772770046398256
67	0x3fc9ed3413503f65	0.2025513738922157
68	0xbfb43d1972258b4d	-0.07905730282577146
69	0x3fcb003b3a43eccd	0.21094456047999302
70	0xbfc3baa0282b788f	-0.15413286172310278
71	0xbfbb6c598ee347a8	-0.10712203730079628
72	0x3fc74d0fe3f8693b	0.18203924781193756
73	0x3fa0af0eede61d84	0.03258558897055777
74	0xbfdb2b6bc18d6ccf	-0.42452520276647204
75	0xbf9a0e27325b69b0	-0.02544461483817323
76	0xbfd176f32f1e1a48	-0.27288512803389553
77	0x3f9c15d079756cf4	0.027426965153932906
78	0x3fbde5d99e46da98	0.11678848375491169
79	0xbfb8a78c309079c6	-0.09630657373097681
80	0x3fbebad00552c82f	0.12003803377118126
81	0xbfd360ddb1f450d1	-0.30278723123889245
82	0x3fbd690d5ace3eb5	0.1148842188542812
83	0xbfb507a67a864b18	-0.08214798442194782
84	0x3fbd08822e438cd4	0.11341107968796688
85	0xbf987a442ed9128f	-0.023903909072276405
86	0xbfdd5234c98e3955	-0.4581424682918585
87	0x3fc43db1c7aa1f05	0.15813276528592027
88	0xbfa747b9706ebe8a	-0.04546908853023719
89	0x3fc4035ad99a5675	0.1563523828996726
90	0xbfdbb6ece3cab084	-0.43303987736977256
91	0xbfc922925b48c58b	-0.19636754472007242
92	0xbfb1d108ab335482	-0.06959585361194523
93	0x3facbe12613e4512	0.056137632723343725
94	0xbfbccb43afd494f4	-0.11247656862959216
95	0xbfb15e00aa12abe3	-0.06784061577006599
96	0xbfbcf1f6636b5f21	-0.11306705405456487
97	0xbfcc4cd247d65ab7	-0.22109440334016536
98	0xbfd2313d8479c536	-0.284255389567153
99	0xbfdc8441a1c46b14	-0.44557228849014163
100	0x3fd813f402ae84e6	0.37621784459959284
101	0x3fc1c77305a0c9f7	0.13889920973595313
102	0x3fbd448b684dcd78	0.11432715698702178
103	0x3fb670cc1c43964f	0.08765865030326235
104	0x3fb702de6e29de84	0.08988752545871576
105	0x3fd2012a4a24c6f7	0.2813211177882375
106	0x3fc8e3a985e4f5db	0.1944476989537368
107	0xbfc88a64506a8371	-0.1917233841568549
108	0xbfdbdef7f87c0ef5	-0.4354839254958585
109	0xbfcb87207f40ea9a	-0.21506124700120638
110	0x3fd832642612016b	0.37807563512617176
111	0xbfbb6364fb1acd08	-0.10698538904653188
112	0x3fbf02d7d9242e5e	0.12113713313390792
113	0x3faf51843ab86606	0.061168796699529834
114	0x3fa785b5c531947c	0.045942001649373204
115	0xbfde1a52babc34d1	-0.4703566382966758
116	0xbfb0b24c5b6fb56a	-0.06522061569531493
117	0xbfd8d854688c6a4b	-0.38820371827901984
118	0xbfd01ac1600e57ce	-0.25163301830741325
119	0xbfd4821c0144a7e5	-0.3204412472138059
120	0xbfc6e0190c5e4448	-0.1787139234916444
121	0xbfb688ae3214f96d	-0.08802307818129913
122	0xbfd0cea8db359be1	-0.26261350066346095
123	0xbfc16a7585c64e69	-0.1360613730617957
124	0x3fd33a595beb0e64	0.30043634392152385
125	0x3fa68cd3e006f3e1	0.04404317960459259
126	0xbfd4f8c74579fc2d	-0.32768422875227793
127	0x3f9694bf26a9e53b	0.02205179856762139
128	0x3fa5681c91030551	0.041809933377872206
129	0x3fd287c7bfdfe617	0.289537370088142
130	0xbfa12255e8f6829d	-0.03346508473191998
131	0x3fc957c1ece70aef	0.19799064700608635
132	0xbface2d4e17134e8	-0.056418087501336533
133	0x3fc8a7e0c64593d3	0.19262323075522989
134	0xbfb289926a3a7afd	-0.07241168111293557
135	0xbf81d5e37836ba87	-0.008708741289266143
136	0xbf8cde2b543e6c7a	-0.014095629223268558
137	0xbfaa06f8010e9ae4	-0.050834417466196574
138	0xbfc7f9d67e9b7d51	-0.18731194669724485
139	0xbfd9d7c665a206bc	-0.4037948601254404
140	0x3fc97e8d767733e6	0.19917457851843706
141	0xbfd5be0aae87903c	-0.33972422641659583
142	0xbfd86c3d3efd0310	-0.381606399070777
143	0x3fa18c17c1ec4057	0.034271948263381695
144	0x3fc30be249e62a06	0.1488001690707536
145	0x3fae70e5bed1ad7a	0.05945508913358828
146	0x3facf80b5e403f93	0.05657992864155328
147	0xbfd025395ede1882	-0.2522719789925604
148	0xbfd825f23f4027b0	-0.3773160569841094
149	0x3fbdd3e2e2cdc17e	0.11651437794876604
150	0x3fb5adbf47fd4e9d	0.08468242175632175
151	0xbfdf8d719b142e91	-0.49300804275910887
152	0x3fc648d3d4fdabdd	0.1740975179667136
153	0x3fc4b3d3bf7cedd1	0.16173788881302056
154	0x3fbfb692d0f2f381	0.1238796005372489
155	0xbfcd00eded8fbc3f	-0.22659086322480168
156	0xbfc74d21c185092a	-0.18204137753679933
157	0xbf8c8f8b4e249155	-0.013945663759451202
158	0x3fb8931999624495	0.0959945678207695
159	0x3fcbc7784161f1b0	0.21702483360776403
160	0x3fc48a3fa01ff268	0.16046901053040874
161	0x3fbc25bb707391d6	0.10995074744602759
162	0x3fa71ff08ecc9081	0.045165555411842646
163	0xbfbd2085e5f862d3	-0.1137775122118783
164	0xbfd41f3137660de4	-0.3144038239481388
165	0x3fa32971874dad42	0.03742556358960282
166	0xbfc94a255652222c	-0.19757525172123402
167	0x3fba6818245529b6	0.10315085303333302
168	0x3fb23658a8328d48	0.07114175897964004
169	0x3fc0c4e1773c3195	0.13100832292583378
170	0x3fd056ed09c3f184	0.25530553773548825
171	0x3fbeadf710ca4045	0.11984199676430858
172	0xbfc27a6a54198a3e	-0.14436081987794752
173	0x3fa6383f16649a7b	0.04339787624694665
174	0x3fb566c0adba9002	0.08359913102555086
175	0x3fc08be130259151	0.12926878786960086
176	0x3fb0d9a436442cb7	0.06582094502316492
177	0xbfd1f97fe9254c17	-0.2808532501996423
178	0x3fa434de78f83ba5	0.03946585871391698
179	0xbf9b9e46b1e4ad09	-0.026970963104003185
180	0xbfd58fc88606a892	-0.3369008358810187
181	0x3fc7e2ce9a6bc981	0.18660910167779934
182	0xbfca4d18332fb44d	-0.2054777383740735
183	0xbfcb3b97d584e6dc	-0.21275613713969832
184	0xbfd1ee94b7e45d61	-0.28018682440002435
185	0x3f99a7e17a3a9715	0.025054476819284483
186	0x3fc1b3c59e63029a	0.13829870446899833
187	0xbfbff7f45704dcc2	-0.12487723469245096
188	0x3fc7100caf9738bc	0.1801772935272704
189	0x3fb6b5b8d5a1a8a7	0.08871035781490609
190	0x3fd060b5ab78d2c1	0.2559026884585301
191	0xbfc58358a41d9c34	-0.16807086957416717
192	0x3fc70451d8f29cee	0.17981932728910216
193	0xbfb93f69c9f1d47f	-0.09862385921754145
194	0x3fc13f614a384d85	0.1347467052843109
195	0x3fd2679f8bad1d3e	0.2875746597314509
196	0xbf91643b933dec1e	-0.0169839199656786
197	0x3fc6f7936dce8444	0.1794304166951709
198	0x3fb3fb59a4e565f7	0.07805404926093461
199	0x3fb905ca32475d3a	0.09774459578999464
200	0x3fb64c3b42a640d4	0.08710070016082067
201	0x3fb547f814317c34	0.08312941067696117
202	0x3fbd7eb78dbe4ce3	0.1152147980740668
203	0xbf9a886075e223e6	-0.02591086120131427
204	0xbfcaf6e94e7120f8	-0.2106601365105758
205	0x3fc5445d76383676	0.1661488368267105
206	0xbfd2c6f05a132027	-0.2933922652850946
207	0xbfca4dcaaf48b268	-0.20549901541507443
208	0x3fc7d13a9df152ff	0.18607266151470722
209	0x3fd268059e3a6ef2	0.2875989957044417
210	0x3fcc0a3c5000f89b	0.21906236559329248
211	0x3fd5b88383f1ce75	0.3393868244668064
212	0x3fc8f6956a046966	0.19502513577101438
213	0xbfd9d3b4a7186658	-0.4035464889326241
214	0x3fd54d79339d8510	0.3328536037498262
215	0xbfc1748f5d992ad4	-0.13636962957601517
216	0xbfd904d821adfcc4	-0.39092067040469325
217	0x3fc2d2602e0d25a4	0.1470451569423804
218	0x3fd0f3e0ab6e7cb2	0.2648851083885787
219	0x3fbd323c4992c2cf	0.11404778286192684
220	0xbfd1d38c3537c997	-0.27853684613287427
221	0xbfd02325be8ef820	-0.252145229427585
222	0xbfa114e7bb2aa398	-0.03336261901615173
223	0x3fca1b19ae2937ea	0.20395203594165362
224	0xbfbae63adafe59d8	-0.10507552954218313
225	0xbfb7e2edda2e36f3	-0.09330641342804906
226	0xbf78d4b79ef0a669	-0.006062237996084721
227	0xbfa76eb301d9c36a	-0.04576644322958752
228	0xbfc2f954af6f2edb	-0.1482339722264133
229	0xbfc1da3eca6a8f72	-0.1394728172646143
230	0x3fb06aa7982913c7	0.06412742104391987
231	0x3fc706fc71fc5081	0.1799006992883996
232	0x3fbed5241dd918c5	0.12043977478706143
233	0x3fae4626abf06d3d	0.059128960121791675
234	0xbf4bf5c35db93050	-0.000853271859747826
235	0x3fcbda70bd49e570	0.21760377161607947
236	0x3fa3ec4ebe0f9cc7	0.03891225881653209
237	0x3f8f6d33703c9d95	0.015345002997107208
238	0xbfd0476ce4df85ec	-0.2543594584550124
239	0x3f98737ceb51be93	0.02387805162692176
240	0xbfb87ed57d492483	-0.09568533238156544
241	0xbfe25d919cb7fb62	-0.5739219723617277
242	0xbfa506c89adedda6	-0.04106737986097224
243	0xbfb20dab9ea395e6	-0.07052109358809097
244	0x3fb91e90a6733b15	0.0981226354954113
245	0xbfd6785c8a35cacf	-0.3510962819774876
246	0xbfa8dc4f45876be8	-0.048555829274583406
247	0x3f9812483fb82fa1	0.023507241143348904
248	0xbfac55a49e405963	-0.055340904538911294
249	0xbfce9cf57c8acd3a	-0.23916500645791833
250	0x3f9e45239e373c77	0.02956061986133959
251	0x3fb074760f87769c	0.06427705649499632
252	0xbfdde2aaeac71996	-0.4669596951247511
253	0x3f7c47441eca29a1	0.00690390214425421
254	0x3fb0cbf2203b3244	0.06561196600814251
255	0x3fcfa324b62e9cad	0.24716624160393988

model.sequential_layers.2.Linear 2.weight f8 [64, 129]
0	0xbfa6ace79a596864	-0.04428790816446407
1	0x3fbf52b5e0ffdaaf	0.1223558115305916
2	0xbfc0ae533b17b510	-0.13031998048192195
3	0x3fc9259dd195106d	0.19646046384343965
4	0x3fafe29b8c5f3ded	0.06227575386548865
5	0xbfaaf8f2050918b0	-0.05268055259198101
6	0x3fba063903b65b83	0.10165745106347228
7	0xbfc34e9c0216e43d	-0.150836468715882
8	0xbfbb9950cdaf76c7	-0.10780816098801003
9	0xbfa9a9bd991eff95	-0.05012314314035319
10	0x3fb9f7246bb1ecb1	0.10142734174034974
11	0xbfb7de5ef3cf3f50	-0.09323686077482063
12	0xbfc3961e4be3d8b3	-0.1530187483364834
13	0xbf8a480a699db3bd	-0.01283271918119932
14	0xbfd2003e213e1a7b	-0.28126481291148026
15	0xbfbd392c8f60163b	-0.11415365696310513
16	0x3fccb8806808dd49	0.22438054160896062
17	0x3f83ec6a232de371	0.009728268812738002
18	0x3fc74231a0263170	0.18170757598671683
19	0xbfc177253ae7bab2	-0.13644852997045614
20	0x3fbbe945dcaa6592	0.10902821194976856
21	0xbfa6986000eceb77	-0.04413127909943786
22	0xbfb3fac98d540681	-0.07804546070476627
23	0xbfb315c5c9a0f861	-0.0745509736306942
24	0xbfb0bf41a6244408	-0.06541834169571825
25	0xbfcb68a00a8fdfaa	-0.2141304065296457
26	0x3fc513b0f8ffed69	0.1646634307688644
27	0xbfb73dddbc66a65d	-0.09078775262482837
28	0xbfc4d444ff6b1b16	-0.16272795173264204
29	0x3fc3d9552b834a6d	0.1550699675049886
30	0xbfb676b31a0a6390	-0.0877487124038352
31	0xbf8ca0b64bc10f4b	-0.013978408991654276
32	0xbfc1a42f97129d26	-0.1378230559978217
33	0xbfb140ed32224e55	-0.06739695047354506
34	0xbfc6ef7ef41df8d7	-0.1791838352182313
35	0x3fb3499964e0ebb5	0.07534178459984171
36	0xbfc8408e99c3416c	-0.18947012432046095
37	0xbf8e45ed316de814	-0.014781811781848155
38	0xbfcfddeb995a374d	-0.24895997035894837
39	0xbfc57afacc8b7f23	-0.1678155421022832
40	0xbfc4f0ee07326a53	-0.16360259391224705
41	0x3f90b48dc69f80ed	0.016313758132924617
42	0x3f91fe5f0aae2a80	0.017571911837459542
43	0xbfcd8cad702d719a	-0.23085563638131817
44	0xbfbfbd47e627beb0	-0.12398194664978734
45	0xbfc27dcc7786c281	-0.14446407161951316
46	0xbfc16acdf41e1749	-0.13607191486169715
47	0xbfbda5156359b684	-0.11580022502467996
48	0xbfb6a82e6e72c0f8	-0.08850374409189843
49	0x3fbc99b0e6122648	0.11172013871159792
50	0x3fb00d2523feb0ed	0.06270057801038194
51	0xbfc0fd2b43566c8d	-0.13272610462158632
52	0xbfc7b38bb1eeed21	-0.1851667994322748
53	0xbf9101534eff45e2	-0.01660661859188462
54	0xbfcd7c93e813d020	-0.23036431152252224
55	0xbfb03c405ce6217a	-0.06341936367073756
56	0x3f6c383e073d2200	0.0034447871675278297
57	0x3fb219a39f8067ba	0.07070372242051706
58	0x3fc19ee3762c27dd	0.1376613928808287
59	0xbfc7d7f141c1b66c	-0.18627753935600155
60	0xbfb4733501ad58db	-0.0798829201788495
61	0xbf89092c5208a572	-0.012224527600738642
62	0x3fc951bc6efbc88f	0.19780688685529355
63	0x3fa99b3cf9c03f98	0.0500124983665266
64	0xbfc9c787fa9e7395	-0.20140170800450777
65	0x3f8dce0c46a429c2	0.014553161531257856
66	0xbf95dd6bf4249b77	-0.021352469230943662
67	0xbfd0325fbde878da	-0.25307458444320974
68	0xbfb711954c5ea78b	-0.09011204828735069
69	0x3fbc3d877455d9ea	0.11031385984629308
70	0x3f79afea9f4a8ef7	0.006271282666293613
71	0x3fc6117396caffb1	0.1724075781148691
72	0xbfdf25cb389b7ad5	-0.48668175247250406
73	0x3fd237a5e9374fb5	0.2846464898586832
74	0xbfc3a81b5158f2ee	-0.15356770965617933
75	0xbfb96b4f6750edf6	-0.09929367325178604
76	0x3f950ae4f637277f	0.020549371269033664
77	0xbfc557086c4d49b6	-0.16671853340319637
78	0x3fbddb9f67d40864	0.11663242611760577
79	0xbfc75f5cc0a35ce2	-0.18259772688063608
80	0x3f8ae4b0268e0391	0.01313150041255698
81	0xbfc3ffdd3b863c98	-0.1562458553930568
82	0xbf45eab5cd341654	-0.0006688487723358152
83	0x3fb4ce51cf24a002	0.08127318675235531
84	0xbfc05631b5dbdbe5	-0.12763043765855211
85	0x3fb080f95732ca65	0.06446798685900886
86	0xbfc09e6a4ca757a9	-0.1298344492230943
87	0x3fa9d41b22305aad	0.050446365283439355
88	0xbfd04846b952073d	-0.25441139314363054
89	0x3fa7ccd8c32b7587	0.046484731506761405
90	0xbfb50df55333bee3	-0.08224423676778829
91	0xbfc7dfc54cafb5e4	-0.1865164398617899
92	0x3fa3fb60ad47e9c4	0.03902723422284596
93	0x3fbeaa3f4a4380f2	0.11978526652410773
94	0xbfb33c1dc7a7613b	-0.07513605236397762
95	0xbfc8659860452187	-0.1906004400318688
96	0x3fc2aa32d7fb2fc7	0.14581904931981013
97	0xbfaf87f4660fb8aa	-0.061584126909893414
98	0xbfa91040841426d2	-0.0489521180371192
99	0xbfca2eea507d9f3e	-0.20455674104891303
100	0x3fb746d4418ed9cf	0.09092451668298128
101	0x3fbf757a1d2582cf	0.1228863068731798
102	0xbf931b57048386c3	-0.018658980989932027
103	0xbfb3f04b943c8846	-0.07788536423734724
104	0xbfd1c7dc3ebef2d2	-0.2778235066178186
105	0x3fc759c70b8a49ab	0.18242729247556375
106	0xbfc47f07ab887adb	-0.16012664676323748
107	0xbfb8824c2255eaca	-0.095738180525511
108	0x3fb9674ddc1b01b7	0.09923254607838926
109	0x3fca0b10d8e4d0e8	0.20346270170705982
110	0x3f73e0350ebcc777	0.0048524925767184845
111	0x3fa2233db843f91f	0.035425118201589216
112	0x3fb13e1d9a7b86e8	0.06735405942483974
113	0xbf9923d9a049ceb8	-0.024550819786283568
114	0xbfba8288120849ea	-0.10355425300830459
115	0xbf81702ad0f55d80	-0.008514723302751603
116	0xbfbd5ad5de5b6413	-0.1146672885764846
117	0xbf9a396099e931ad	-0.02560950221440954
118	0xbfcacdd1673edfe4	-0.2094060663346219
119	0x3fb729eabf676334	0.09048335240312327
120	0xbfc0c85ff8b3380f	-0.131114956317504
121	0xbfdcef8b827682d0	-0.4521206640293203
122	0xbfa857f48dd84115	-0.04754604560378276
123	0xbfc582c29164e8a3	-0.16805297946286143
124	0x3fb46353ba6ef5fe	0.07964061071012193
125	0x3fc081e05c0b926c	0.12896351332087208
126	0xbfad80c33a287ff3	-0.057623005723371444
127	0x3fc7738c86e1f9e8	0.18321377359457292
128	0xbfa61f3e9b7496f4	-0.04320712707185051
129	0xbfc0376cc0873c14	-0.1266914310531041
130	0xbfcadaf9e027fc49	-0.20980761952520968
131	0x3fc2c116dc9a68ff	0.14651761790884874
132	0x3fb95ae7b4ecc4fd	0.09904335181342457
133	0xbfb40a4d44c65663	-0.07828219346114333
134	0xbfcf8a27487c0c30	-0.24640360869679645
135	0xbfcf32e209bcfd6a	-0.24374032474041069
136	0x3fc123a964b2a5db	0.1339008084953964
137	0xbfc714e2ddf95133	-0.1803248962265883
138	0xbfc76ec907d48d4a	-0.1830683983072084
139	0x3fc4868a0262d640	0.16035580746181388
140	0x3fa314f5cbab6ab9	0.03726928816987169
141	0xbf93f54e4ec58f4f	-0.019490455205768694
142	0xbf898d67ed96d238	-0.012476741731782245
143	0xbfc34adf71cef3d4	-0.1507224374489896
144	0x3f85339af4897564	0.010352335536647224
145	0x3fbb082fa29f0b8a	0.10559365959401937
146	0xbfc12dd5242801ba	-0.1342111994308775
147	0xbfc612f27c6427f3	-0.1724532229785037
148	0x3fc702f2218e36cb	0.1797773994298296
149	0x3fc631ae18d638af	0.17339111531004422
150	0x3fbad10f52132949	0.10475250009327398
151	0x3fc482e08b061faa	0.16024405277516723
152	0x3fb2b6a621a82667	0.0730995018167505
153	0x3fc81c0f865d9e10	0.18835634289574488
154	0xbfb4a6f03a06880b	-0.08067227760923872
155	0xbfc99ac23b3821b4	-0.20003536120954168
156	0xbf955425e7b7fa0e	-0.02082881190107782
157	0xbfaa048b92ed3ee6	-0.05081592720546073
158	0x3fca4910d5dd1966	0.20535479013978913
159	0xbfb2c3874d1d8c67	-0.0732960284490659
160	0xbfb51704f79ac096	-0.08238249821693197
161	0x3fcf8bd0a3fac65e	0.24645431525054823
162	0xbf9b70485a2d511f	-0.026795511726349305
163	0x3fa19a7f4c59f79c	0.03438184554123255
164	0x3fb8e5dd87a9bd5d	0.09725746690832211
165	0xbfcb9f5694d56816	-0.2158001162268312
166	0x3fcffd7057947266	0.24992183948860996
167	0x3fc7faf3e41ab6d3	0.18734596860797711
168	0xbfa2366122be31d4	-0.03557113217457056
169	0xbfb1dd3fef383495	-0.0697822531730757
170	0xbfa562dbcff75342	-0.041769856583107515
171	0xbfc3157ea9fcaf02	-0.1490934686674948
172	0xbfaf83651d9dfa35	-0.06154933916603903
173	0xbfc7e3ee43ad7bf6	-0.1866433935601603
174	0xbfb7daaa5fe79c4f	-0.09318032113479656
175	0xbfc64cdc8404f33f	-0.17422062345749542
176	0xbfc7912ec67db983	-0.18411812488507104
177	0xbfb201e4f4570fac	-0.07034140553793006
178	0xbfc017dac70d96a0	-0.12572798461331036
179	0xbf870b3a530df380	-0.011251884135839552
180	0x3fc0fc7277930f43	0.13270407522770186
181	0xbf9cc67bcd8a1510	-0.028100904865387355
182	0xbfc6bf17ca8eb946	-0.17770669355872765
183	0x3fac73aa1f3f152f	0.05556995040346135
184	0xbfba4ad236ba7901	-0.1027041801084785
185	0xbfc9e83cf6684b8c	-0.20239984542476142
186	0x3fcb4b6f4c3024da	0.2132395860683463
187	0x3fc4a4df681b2f79	0.16128151496229373
188	0xbfc6f9b01d263c44	-0.17949487136181308
189	0xbfce1d422927e4dc	-0.23526789674341486
190	0xbfca6040f413183f	-0.20606243055061843
191	0x3fab6c80cc8903c8	0.05356218811767338
192	0x3fb6523def7fba6b	0.08719241234914825
193	0xbfc201cf9ba56a62	-0.1406802663794507
194	0x3fa14c1825428c25	0.033783678577741484
195	0xbfe23b3e063090c7	-0.5697317238705403
196	0x3f8771d7063bb14c	0.011447601201745393
197	0x3fd13f862fcc89d2	0.26950220744961684
198	0xbf947560d047a1fb	-0.019979012215033603
199	0xbfd35e57d2bf1e34	-0.30263324337690567
200	0xbfbc2f384e94f444	-0.11009551924230815
201	0xbfb8b5aecf932582	-0.09652226035827563
202	0xbfc6bce1fad3b791	-0.17763924357808183
203	0x3f979213ded16bb5	0.023018179392561417
204	0x3fc3e37fbb23d805	0.15538021695800822
205	0xbfc433f1f444ddee	-0.15783523966977903
206	0x3fc948e7dadc7bc3	0.1975374048861039
207	0xbfc0de87718f2366	-0.13179104847793183
208	0xbfbfbf2759e02141	-0.12401052421785598
209	0xbfc00a29c118130b	-0.1253101532785411
210	0xbf9a942c3dcc60c6	-0.025955859443542527
211	0xbfb96c8d0b49044a	-0.09931260610120876
212	0xbfb747c505a38b56	-0.09093886745135413
213	0x3fc7994d277906b2	0.1843658869493559
214	0x3fc35f0bfcb92234	0.15133809890746053
215	0x3fbebd63ccd3c653	0.12007735968270454
216	0x3fbe01b9556bbd6c	0.11721380553693955
217	0x3f90721d97a9211e	0.016060316449768235
218	0xbfbae4d5efb7d573	-0.10505425550930685
219	0xbf9563a8f73ce3db	-0.020887985315514484
220	0xbfca58219a06e58c	-0.2058145525059384
221	0xbfb4dd4e16df061b	-0.08150184687021815
222	0x3faa65e42e3580ba	0.05155861915659572
223	0xbfc600313cf47ef8	-0.1718808696396008
224	0xbf9b61dde42af6ab	-0.026740519572504933
225	0xbfb0c34853eb1d18	-0.06547977494038937
226	0xbfc0397b98ab60b3	-0.1267542357879897
227	0xbfb31b257467795a	-0.07463296977900793
228	0xbfbe02bfa44a3a05	-0.1172294403170114
229	0x3fb801ffb30ead69	0.09378049966351444
230	0xbf9f757eee08c4ee	-0.030721648481805745
231	0xbfa21c0405cf79ca	-0.0353699929325902
232	0x3fc3fc1af6890a8d	0.15613114393098151
233	0x3f9e6e9bb9792828	0.029718812175168946
234	0xbfacc6f07731fae4	-0.056205286550712136
235	0xbfc988003351d9c8	-0.19946291452261122
236	0x3fa737d5e45df186	0.04534786617930124
237	0x3fc980cb4aa423e1	0.19924298424328327
238	0xbfc65b6078985a75	-0.17466359985765548
239	0xbfc21b2917c96d45	-0.14145387326684947
240	0x3fc3626bbff025d4	0.15144106742836405
241	0x3fa2f4443b7e99cf	0.037019855749622736
242	0xbfca51d437730cb4	-0.2056222220181546
243	0xbfb544880e8c7837	-0.08307695727532481
244	0xbfafce9046c3daad	-0.062122830045998036
245	0xbfa2314d9e71ed82	-0.0355324035562843
246	0x3fc7d45f3862afa3	0.18616857770154835
247	0xbfb6d3a2da368dde	-0.08916681125133816
248	0xbfa52959d57288b3	-0.04133110743102133
249	0xbfb9b0695658872b	-0.10034807546665252
250	0xbf93ce924445ed59	-0.019342694680273585
251	0x3fa673ac26c73b38	0.04385126088492658
252	0x3fb2dd26707c5bfc	0.07368698354945019
253	0xbf9f8ce13dfff35e	-0.030810851487319872
254	0x3f80ad8aec47146e	0.008143506370183764
255	0x3fbabaf8ebeab6ae	0.10441547164620132

model.sequential_layers.1.Linear 1.weight f8 [128, 257]
0	0x3fbf7130f7f84b37	0.1228209119220026
1	0xbfa42303d4201132	-0.0393296429101916
2	0xbfc277664a4992fc	-0.14426878573717505
3	0xbfc33d6edb69ba7b	-0.15031228745961642
4	0xbf81b065b41da764	-0.008637232360076026
5	0x3fa267bcdf14902a	0.03594770644329544
6	0x3f85b0f517f6aa0c	0.010591425699051825
7	0x3fb33c1c4fb975c4	0.07513596483609947
8	0xbfafc701a69c5e9b	-0.0620651737100932
9	0xbf8e3c0fca167ce7	-0.014762996058208034
10	0xbfc34bf8731b7243	-0.15075593586415623
11	0xbf818ee5407198c1	-0.008573332814375669
12	0xbfa4a89a5761eaac	-0.04034883801155806
13	0xbfc488efc893a0c1	-0.16042897504599377
14	0x3f8a35c3cc94966d	0.01279786079482933
15	0xbfc77da15530a8af	-0.18352142963096216
16	0xbfbb92f9c466f6b7	-0.1077114204881252
17	0xbfa0220be51dea94	-0.03150975391232183
18	0xbfc97322871794b7	-0.19882613750738695
19	0x3f95649fbf4dca51	0.020891662646543022
20	0x3fafafc0d271d851	0.06188776558785548
21	0xbfb5ec18b0cc7973	-0.08563379589438629
22	0x3fb3e0ac9c6aeaf2	0.07764700716772291
23	0xbfb06d0f2e572d1e	-0.06416411286698007
24	0xbfaf9a3032778648	-0.06172323814440667
25	0xbfc09e1c19ba4d67	-0.1298251271842716
26	0xbf828f4c8704ba31	-0.009062383528172098
27	0xbfbfa36c9e3f2a0b	-0.12358740676351247
28	0x3fb6a8cd6b4d6220	0.08851322049793753
29	0xbfb8bfc1e766d4ed	-0.09667598628478276
30	0x3f99b137f96b8e07	0.025090097998043983
31	0x3fa8d00b33d747ee	0.04846224792312613
32	0xbfbe913b2f40f461	-0.11940355209022037
33	0xbfb686ea84a1887e	-0.08799615610181097
34	0xbfbe0b77f20b59ff	-0.11736249598775571
35	0x3fc054af63fc2dc5	0.12758438474734937
36	0xbfc2e23d16d23463	-0.14752925504982092
37	0x3fb544c6d144cddc	0.08308069810009705
38	0xbfc05ec94859d2e4	-0.12789264710195092
39	0xbfb22792d1c9155a	-0.07091634389606352
40	0xbfa97aee365ab5bf	-0.04976601041321826
41	0xbfbd2a7239be7a69	-0.11392892751471496
42	0x3fa9b011a0330c3c	0.05017142372664593
43	0xbfa03733307045ca	-0.031671142256651644
44	0x3faee94d10dcd1d9	0.06037369566766743
45	0xbf944c41ef00210c	-0.01982214947932541
46	0xbfc33530c621c926	-0.15006074594891422
47	0xbf8464c8318ec0ae	-0.009957851421717425
48	0x3fb19290bedecf0b	0.06864266071243834
49	0x3fb4afdb8a55f94e	0.08080837371196489
50	0x3fad81847ccd000c	0.05762876532980962
51	0x3fb455485e6e4c33	0.07942631059113196
52	0x3f7ce00a07cfb25b	0.007049597913447582
53	0xbfc1337d81457135	-0.13438385784218956
54	0xbfbdd16203588b5e	-0.11647617894827308
55	0xbfac090ed8d2697b	-0.05475660702468851
56	0xbfc4d5d19307f440	-0.16277522734881877
57	0x3fa04a76c1c989b7	0.03181811442916021
58	0x3f96ac464b24c325	0.022141550384904413
59	0xbfc01291cdd22c76	-0.12556669759610245
60	0x3facd28f36081ad6	0.05629394087377697
61	0x3fbcc853177370ad	0.11243171045811336
62	0x3f7aabe9b06c7290	0.006511605118046618
63	0x3f90cc2eef8e93a9	0.016403897639651586
64	0xbfae3f57bf8795a1	-0.059077016954499635
65	0x3fb4b8cee078e2f0	0.08094494800833352
66	0xbfbc67e26b3ef3c3	-0.1109601508932903
67	0xbfc0d42d22e28b61	-0.1314751072250955
68	0xbfb795bf7109af8b	-0.09212872037613644
69	0x3fa90fafc4ce0be2	0.04894780423548874
70	0xbfc544434cd12b1d	-0.16614571810563286
71	0xbf9adb4eff90ecff	-0.026227220867650832
72	0x3f50825d820ce4e8	0.0010076440014031244
73	0xbfc5e3929a4513d0	-0.1710074666281387
74	0x3fb0ddb9f311825d	0.06588327583586691
75	0xbfb0f2121d168913	-0.06619370660931549
76	0xbfbebb1eb9ce7fa0	-0.12004272495550916
77	0x3f98c99acabcbc3c	0.02420656073007542
78	0xbf9fe7913ceed1e3	-0.03115679678349349
79	0x3f91bf50e7effd14	0.01733137527116664
80	0xbfaf5090ed891b9a	-0.06116154574970452
81	0xbf8a6bbcc325baec	-0.012900805192399521
82	0xbfb65cb2d4c5eea8	-0.08735196776063481
83	0xbf96a924708c3518	-0.022129601830831097
84	0x3fb2a75a0769e4ed	0.07286608391759204
85	0xbfa72b95f2c55e84	-0.04525440777314052
86	0x3fa28bdca5fbe199	0.03622331167383947
87	0xbfa1f59e93d9df1e	-0.035077052639222325
88	0x3fb678437e6a4f6c	0.08777257763204965
89	0xbfad744d354e3fec	-0.05752793575004475
90	0xbfa19bc47ce838a3	-0.03439153694863364
91	0xbfbfbc7060ed0824	-0.1239691006312858
92	0xbfc20f57b44459f0	-0.14109321882342796
93	0x3f9e218a46e9de18	0.029424820497721965
94	0xbfacb001be6fc877	-0.05603032540956659
95	0xbf92aaa13137b770	-0.01822902548695232
96	0xbfca04ade1776b3a	-0.20326779851060356
97	0xbf93b65b84efc204	-0.01925032614593826
98	0xbfb64176844e14ae	-0.08693638544180501
99	0xbfc87df0eaabff02	-0.19134341677271755
100	0xbf9b10c7fdf766ff	-0.026431202770118564
101	0x3fa3523e50a27111	0.0377368424826462
102	0x3fa600d7476634a8	0.04297516581127897
103	0x3fa14e8da49b5c46	0.033802439063656695
104	0xbfbb737248732374	-0.10723032254021608
105	0x3fbb9a072cd777fa	0.10781903118865435
106	0xbfc723279b7ea099	-0.1807603368045008
107	0x3f8ca506ce137b8e	0.013986638225501637
108	0xbfab67553194b315	-0.053522741606093195
109	0x3f7693d1791947ec	0.005512064222402895
110	0x3faeafe39da8334b	0.05993567752384495
111	0x3fab8d9871ff5fda	0.05381466285297139
112	0xbf843702083f36c7	-0.009870544315983122
113	0xbfb2fdbec3f790dc	-0.07418434414245517
114	0xbfb24567ce121861	-0.07137154370329447
115	0xbfb4c55282c096c7	-0.08113589946932641
116	0x3fbb17c062a21673	0.10583116920505535
117	0xbfc0e99f77ea42bf	-0.13212960581997454
118	0x3fbd6fde58a51bca	0.11498822845633963
119	0x3f98f130d98ee826	0.0243575699603086
120	0x3fba49f3b25a73df	0.10269091705636367
121	0xbfb9e8154991ed18	-0.10119755788939633
122	0x3faf72c1b96800be	0.061422399408912906
123	0xbfbc860ae96c4622	-0.11142032812883731
124	0x3faa9cad051e8bae	0.05197659194461522
125	0x3fc3b58443d6b8e9	0.15397694885672955
126	0xbfc1d6430a900410	-0.13935125365972612
127	0xbf746e62222af749	-0.0049880822504613865
128	0xbfb22047d89c7b9c	-0.0708050636135184
129	0x3fbe1fc90d4d3495	0.11767250609155362
130	0xbfbdf5795fad9fbc	-0.11702688775915154
131	0x3f7f471cc32bc2e3	0.007636177399704211
132	0xbfb23d2527c8316e	-0.07124550076713884
133	0xbfb7176de6617c9c	-0.09020125269442975
134	0xbfc3f115af0820fd	-0.15579482122871716
135	0xbfa10a9d2334c390	-0.03328410200845788
136	0xbfc2bc10a6432550	-0.14636428945804392
137	0x3fa72aca0d0d5689	0.04524833115889943
138	0xbfbf47e9188b07c8	-0.12219101762005302
139	0xbfc52ef8893d6c09	-0.16549593640488094
140	0xbfa3c730ea4ef8d8	-0.038629082300290996
141	0xbf8e52d00d2d18dc	-0.014806390192131529
142	0xbfc10dfaa522f6de	-0.13323910773572484
143	0x3f9af66f4b051c05	0.02633069892297259
144	0xbfb6800df5ab644e	-0.08789145705976972
145	0xbf939a0ca1f2313a	-0.019142339119342135
146	0x3fa0c4c84efd64b8	0.032751330988227634
147	0x3f73ae9d6b1bad3c	0.0048051976352597135
148	0x3f9a114ef71a66e2	0.025456651527384085
149	0x3f82141d7fc850f5	0.008827429258453348
150	0x3fb16935bdae9908	0.068011626061523
151	0xbfc0aa5dd825dbb8	-0.13019917539688008
152	0xbfc4e11b1430b1bc	-0.163119683130743
153	0x3f33e71b9eb3c77d	0.000303692095896861
154	0x3fa66115f9238b9d	0.04370945612188069
155	0xbfc3a71328eed2c4	-0.15353621958424502
156	0xbfa471ac3fb62b08	-0.039929754998487665
157	0xbfb0628140b16779	-0.06400306538981039
158	0xbfc3ac31dc916277	-0.1536924674026243
159	0x3fa25537338580d2	0.035806393660779215
160	0x3fbcc0bfe07a4bdf	0.11231612425244418
161	0xbf671a161769c67c	-0.002820056102159905
162	0xbfb45fb5278b6354	-0.0795853826088096
163	0x3f95e1bc509038b4	0.021368925492475113
164	0x3f9371c6d539b7b0	0.018988711132287228
165	0xbfc10079ffab8e77	-0.13282704337972337
166	0x3f83b76724cbe413	0.00962715703052378
167	0x3fbd7cf4d532c68a	0.11518793301618238
168	0xbfa77fc93ccd6eff	-0.04589680545060836
169	0xbfbd0d1535c6f27c	-0.11348087847631833
170	0xbfc2d6f169ea9f69	-0.1471845404787431
171	0x3f951337d8dfd733	0.02058112393566276
172	0x3f9c53f9add48c53	0.027664090380437333
173	0x3fb4bda84b3fcfa0	0.08101894223346884
174	0x3f9011c29ee792c0	0.015692749928251315
175	0x3fad7295760a279d	0.05751483026422408
176	0x3fb7e481acf755d1	0.0933304831772468
177	0xbfb14ef3540b755a	-0.06761093904375085
178	0x3fbf9be9ac40aa26	0.12347279029260302
179	0xbfbfa89edf167af6	-0.12366669603805377
180	0x3fc138900929d9b0	0.13453865477977223
181	0xbfb11221c59703af	-0.06668292116138617
182	0xbfa2ffa311681364	-0.037106605410406585
183	0xbf7872dc64c3d422	-0.005968914902259067
184	0xbf935700530ceb2b	-0.018886570996282586
185	0x3fa5cf53c775797b	0.042597406480797205
186	0xbfa60c4c39f6578e	-0.043062574458573186
187	0xbfb0c576f4e99c9a	-0.06551307181654167
188	0x3f9d341d7476a984	0.02851911567055644
189	0xbfb9a0ff184399cc	-0.10011286108383571
190	0xbfbc9784a1da1eab	-0.11168698264566028
191	0x3f9daefd19c50e4f	0.02898784131799764
192	0xbfa7aa584c7f8c31	-0.04622150358024902
193	0x3fb14c5ff13e1bae	0.06757163657867579
194	0x3f960405f28239ee	0.02149972241073244
195	0xbfa3df902589a805	-0.038815025884858335
196	0xbf90e9a26cb060ad	-0.01651624477753504
197	0x3fb2ed05fc9f0fbb	0.07392918984902412
198	0xbfbc5957cce6c754	-0.1107382655380012
199	0x3fc00e608a0899f6	0.1254387544624504
200	0xbf866e11f0264a4c	-0.010952129498751927
201	0xbfa9e4a1a18233d8	-0.05057244392910548
202	0xbfa42341b4a2a9e6	-0.03933148698827775
203	0xbf9cc0183612949c	-0.02807653265030706
204	0xbfc60f874fd194fd	-0.17234889409443346
205	0xbfae0d4ca6b7f4f0	-0.058695216514005
206	0xbfc1254d03d2db27	-0.13395083128644922
207	0x3fb8f376d0e813ad	0.09746496773011755
208	0xbfc1c9cbfb997f3a	-0.1389708498490963
209	0xbfa79e765d155c38	-0.046130846846317686
210	0x3fbad693771d4598	0.10483667047562617
211	0x3f84129aedc30f63	0.009801111584586136
212	0x3fa5c243d6792b25	0.042497749262642416
213	0xbfbf9de641336005	-0.12350310413182804
214	0xbfa6bd6313fd895f	-0.044413658323508846
215	0xbfc3aafc5d03b3db	-0.15365557233545143
216	0x3fb3ffd935bcec61	0.07812268793070266
217	0xbf9448c24d6d489b	-0.019808803535234714
218	0xbfb7f71d01437dcb	-0.09361439972734968
219	0xbfb5f05aafbdb773	-0.08569876471093867
220	0xbfb525b61dc73cf3	-0.08260668017395627
221	0x3fbff47616869138	0.12482393312399587
222	0xbfc232584cf23a7c	-0.1421614051545993
223	0xbfbfb588d1263d2a	-0.12386374574838457
224	0x3fc0e70a764e8108	0.1320508077306004
225	0xbf997b9dcfcdeef9	-0.024885621841788972
226	0xbf69e10e38d0a40c	-0.003159072663511347
227	0x3fa0439af4ff2d80	0.03176578751262138
228	0xbf970c0a490400cb	-0.022506867128868884
229	0xbfc383549e2f6dea	-0.15244538997545415
230	0x3fa5426b38152f6d	0.041522360416449945
231	0xbfc537b28fdc90b6	-0.16576225304118503
232	0xbfb3b05864ffe345	-0.07690956559953317
233	0xbfc527cd5052cf91	-0.16527716085476787
234	0x3fb32df96582b614	0.07492026069913776
235	0xbfbc26f6185f186b	-0.10996950240141394
236	0xbfbc07a008288e00	-0.10949135016613099
237	0x3fa234b1aa508c67	0.035558273353921525
238	0xbfb366d52286880c	-0.07578785031230967
239	0xbf994f177540955d	-0.024715773135672737
240	0xbfaa7f004110028f	-0.05175019067974517
241	0xbfac33bb8443451d	-0.05508218755279357
242	0xbfc8452cb373de80	-0.1896110416635004
243	0x3fb7be59581a052e	0.09274824524802192
244	0xbfb484a6afb1df25	-0.08014909543441869
245	0xbfbb01633dbb2606	-0.10548992402177512
246	0x3fbfbe72b5b62589	0.12399975715938728
247	0xbfa7e86141a6aeff	-0.04669479299931644
248	0x3fb5af01a77b0e5d	0.08470163668521864
249	0xbfb2676c16da020d	-0.07189059789562453
250	0xbfaa9c1e8b3cc211	-0.05197234582590594
251	0xbfb1d7a630ab7964	-0.06969679535129597
252	0xbfbff2072426b511	-0.12478680260274568
253	0xbfa18cbc8803dbf4	-0.03427685890522261
254	0x3fae010286f659f8	0.058601454710856815
255	0xbfb1e7c9c91c9a79	-0.06994305763201138

model.sequential_layers.0.Linear 0.weight f8 [256, 31]
0	0xbf7b2a9907dc3a63	-0.00663242128008665
1	0xbfb2ae76b7311f68	-0.0729746052976431
2	0x3fc19d73b4cc4309	0.1376175530245052
3	0x3fb8eefbb67bd994	0.09739659505053161
4	0xbfbc1231870e2dca	-0.10965261027575149
5	0xbfa17880e4a715fd	-0.03412249365969087
6	0xbf96074633a9c883	-0.021512123969337892
7	0xbf9289ab0acd1cb0	-0.018103287252668465
8	0x3fb8d9fe8d04b0be	0.0970763296397221
9	0x3fbe67a71fee804f	0.11876911668378053
10	0x3fb70ed1eefdcbbe	0.09006988606215224
11	0xbfbdadf291e7fbb3	-0.11593547880327897
12	0x3fb961b987c6ec9b	0.09914741101140338
13	0x3fbdf3f7fe145f62	0.11700391724695927
14	0x3fbedcc1ca0d0ed3	0.12055598433385777
15	0xbfb15a4ca288b28f	-0.06778410881151785
16	0x3fb9dae8d4c99454	0.10099654383664475
17	0xbfa5609fdf3f2e5d	-0.04175281143360785
18	0x3f88cf27c09c72ac	0.012113867345356986
19	0xbfc1db104e0c4f48	-0.13949779330197942
20	0x3fbeb500d9360ead	0.11994939139372703
21	0x3fc08b88c95a3a52	0.1292582495847961
22	0x3f96ad9d6afac9cf	0.022146663336295277
23	0x3f769acdd82985e8	0.00551872642481175
24	0xbf97048cc3022e46	-0.022478293802619363
25	0x3fa9ca0eb640f575	0.05036970114495435
26	0xbfaa37f9cafa0ae0	-0.05120831110709445
27	0xbfa97293563a1285	-0.04970226695607941
28	0xbfa141abcdae49f3	-0.03370415578605792
29	0xbfc236ffd555b68d	-0.14230344692935085
30	0xbfc890eeaaa96ea1	-0.1919229825315272
31	0x3f9a68ccc234d9a7	0.025790404656811507
32	0xbf902ed0f96d59e4	-0.015803590034318207
33	0x3fa9e084130b2090	0.050541045498506354
34	0x3f85d7a03c98f331	0.01066518006256842
35	0xbf9d1e65193120ed	-0.028436259901611406
36	0x3fb7d96e2bb3a0dc	0.09316147391257651
37	0x3fa566d80a7b8f6f	0.041800261764165174
38	0xbfbcd627e6efe2bd	-0.11264275920974405
39	0x3f96b203d2623104	0.022163448062699778
40	0xbfd2ec7e248ce396	-0.2956843716561307
41	0x3fc7d6dfe5f186e6	0.18624495246608957
42	0x3fc23ecfbac35222	0.14254185313497297
43	0xbfc8f7cd475747f3	-0.19506231292194762
44	0xbf6e1895b25d1f74	-0.0036738322986912767
45	0xbf9f04711be275c9	-0.030290381743375314
46	0x3f882e2e67e824c7	0.01180683378790305
47	0x3f53ad84eeba91e4	0.0012010381860046932
48	0xbf9e52758ffefd9f	-0.029611431993314615
49	0x3fc90ffb46047c54	0.19580021780800172
50	0x3fa84c65ba3e8178	0.047457865700610335
51	0x3fb02e7fa21995b3	0.06320951182859495
52	0x3fc73b545432a000	0.18149808989733174
53	0x3fa839a6f8389bac	0.0473148515705398
54	0x3fc362008baf22aa	0.15142828770173838
55	0xbfb0db2fcaff2622	-0.06584452348683859
56	0x3fc23747515cfd6a	0.14231196854414502
57	0xbfc41052d7a5cdc5	-0.15674815683051527
58	0x3fb75aec00f95d4b	0.09123110793858762
59	0xbfbcc9cd4ec70f9c	-0.11245425389557656
60	0x3fab34898248aa2e	0.05313520160082806
61	0xbf9e9ab1a96f76c9	-0.029886985746876236
62	0xbfa7f21e3ea80cc3	-0.04676908984040431
63	0x3f91a5e522e811ed	0.0172344019465686
64	0xbfa54572e1d6eb52	-0.041545476978589804
65	0xbfc35c9cdca084a7	-0.15126381657413399
66	0x3fa536512f2fa279	0.041430031785982764
67	0x3fc05d93dada7019	0.1278557604426858
68	0xbfc493c23c0e0db2	-0.16075923855178825
69	0x3fbf4ab4c19aec4f	0.12223367430390052
70	0x3fd155284147629a	0.2708225858200791
71	0xbfc101b56a6ea166	-0.13286464402086579
72	0xbfc8ea7f4a1dd6ef	-0.1946562873742361
73	0x3fb032c20b4ec9d2	0.0632745053870061
74	0xbfcb27a4b96c26dc	-0.21214732221442645
75	0xbfbb5f1707e749a0	-0.10691970770793668
76	0xbf79462a75dc2601	-0.006170431004429045
77	0xbfc0c94444276d53	-0.13114217117149937
78	0xbfbd78fe5b23bd29	-0.11512746548736587
79	0x3fd1c58b1588956d	0.27768208601840777
80	0xbf870bc55beb8692	-0.011252920024563271
81	0x3fc4cfa237859498	0.16258647643113444
82	0xbf9482fb4abe1006	-0.020030905186573043
83	0xbfb57b17cdd4b40f	-0.08390949988525186
84	0x3fbc4ac3f6bb4f19	0.11051583074305106
85	0xbfb7d304a96fc200	-0.09306363236078852
86	0xbfc2fa48079804f3	-0.14826298113624822
87	0xbfbabc1541c0e22b	-0.10443241935070861
88	0xbfba7533c490fbb2	-0.10335086392386364
89	0x3fd4b8d33381e293	0.3237808230401608
90	0xbfc89ed2b9b3b71e	-0.19234689776879405
91	0xbf9a2cc41e8171f1	-0.025561394082943726
92	0xbfd148edaadb8273	-0.2700761955766559
93	0xbfc4912b864a0165	-0.1606802373608033
94	0x3fa89e3ca024b540	0.04808225111842512
95	0xbfcfd0781dc2ea58	-0.24854947522347248
96	0x3f31cb815345de01	0.00027152926784121406
97	0x3fbf03e96097f0c6	0.12115343673935106
98	0xbfad9bafcad7e6cf	-0.057828420172837285
99	0x3fd16d14339269ea	0.27228264843293337
100	0xbfb1f444a4d3ea2b	-0.0701334860240556
101	0x3fd05c6bfd361f02	0.25564098098446675
102	0xbfb84f1613220821	-0.09495676009285649
103	0x3f9b71671b0fb77f	0.02679978468579902
104	0xbfc0319026c764f0	-0.12651254552364533
105	0xbfc0f4e9f6cd0dda	-0.13247417975263326
106	0xbfb7a0af0a6ba793	-0.0922955894890534
107	0x3fc302ff0a454345	0.14852893830768657
108	0xbfa77f132746c722	-0.04589137892197771
109	0x3f990cf7c62138e5	0.024463530986673105
110	0x3fc32d9df3b11222	0.14982962035186725
111	0x3fc5585eb99e5527	0.1667593389835613
112	0x3fc3c10021a118fe	0.15432740823798236
113	0xbfc768a16adda8c7	-0.18288057058391002
114	0x3f7b5812309d95bc	0.006675787977518718
115	0x3f9241c75431223c	0.017829050553958434
116	0xbf401466b39c4877	-0.0004907132599518822
117	0xbfb25e3f2cf7d850	-0.07175059173445786
118	0x3fb35bb8b634357f	0.0756183094819871
119	0x3fce7157b933fd29	0.23783394377822134
120	0xbfc05d82276b53ff	-0.1278536503292855
121	0xbfb6f0a0c02e1b72	-0.0896091908635819
122	0xbfc0281a1a900590	-0.1262238149356958
123	0x3f9c9e4580f4502a	0.0279475078542221
124	0xbfb14aab54d204b7	-0.0675456125336663
125	0xbf99804fb604b423	-0.02490353153659809
126	0xbfaa4af51fddf89a	-0.05135313047411323
127	0x3f8a5897a116d654	0.01286428890567063
128	0xbf880cfc41a89a5f	-0.011743517640821098
129	0xbfc5b30002a6da66	-0.16952514771920163
130	0xbfb112ba706a56e9	-0.06669202084080052
131	0x3fb07757d05059a4	0.06432103000438488
132	0xbfaad39bd9bb90cf	-0.052395696953483666
133	0x3fc9f044cace2025	0.2026449194202097
134	0x3f87b71c003dc2f8	0.011579722173082882
135	0xbfa0ef4524bdb05b	-0.033075485930425606
136	0xbfc6cb5355cf39a6	-0.17808000268855756
137	0x3fd0969e3ba7b4fa	0.25919299913114424
138	0x3fc6d72ca760f36d	0.17844160244740284
139	0x3fb6b4ed314ea4e4	0.0886982198122897
140	0xbf8fd15c16184b3c	-0.015536040710718894
141	0x3fa454129d8d5f66	0.039703923923922343
142	0xbfc998ce3754aeda	-0.19997575475405577
143	0x3fc55e2db67f7194	0.16693660174395275
144	0xbfc0f5c48990c4c6	-0.13250023572030595
145	0xbfbe867280318cc4	-0.11923900251126712
146	0x3f943cdc377aaa56	0.019763413320712374
147	0x3fb6ace365abc61e	0.08857556564523647
148	0xbf8e24a7ce359868	-0.014718352299223095
149	0xbfc65d3255d41b54	-0.1747191351971319
150	0x3f919fff7db17d0f	0.017211906477652635
151	0x3fc08f4a6eea8591	0.12937288680863593
152	0x3fa6c281e264f5a3	0.04445272339442432
153	0xbfc28fd190035621	-0.14501399547468544
154	0xbfc3994f4c4e6dcd	-0.1531161425199187
155	0x3f92a4c6d0dfd8e8	0.018206697939569333
156	0xbf95a9b8362b9606	-0.021155241304674298
157	0x3fcf0b41f7a8fafe	0.2425310572889074
158	0x3fb451baf54f3fbd	0.07937210549357494
159	0x3fbc93c224d4a73e	0.11162961386858414
160	0xbfc9d06c1f86146e	-0.20167304553266113
161	0x3fabbe3190ecf288	0.05418543714629204
162	0x3fc5826e9258f322	0.16804296632644716
163	0xbfc17bab5ff0d4fd	-0.1365865915737813
164	0xbfba8fb88e6ee1ca	-0.10375550725337415
165	0x3fbc5c1094901017	0.11077979685802607
166	0x3fb99cc776a8b77b	0.10004851004552322
167	0xbfb4b20777bf0f35	-0.08084150956625254
168	0xbfb0f27768ed157f	-0.06619974433586683
169	0x3fb1f239012025d7	0.0701022746799461
170	0x3fb06b60b5f0e1c2	0.06413845483701322
171	0xbfa2f1e9bdcd3e02	-0.03700190011897676
172	0x3f8dfa7895ab7956	0.014637891833839827
173	0x3fd063944f0e02af	0.25607784004391027
174	0xbfad2376cdef7a5f	-0.056911194456678464
175	0x3fcbba25cc7dccc0	0.2166182754986945
176	0x3fcb8f8629c387c2	0.21531750716445514
177	0xbf88531ef7c76963	-0.01187729066525795
178	0x3fc5831c03b266fa	0.1680636423159781
179	0x3fc5875547580d11	0.16819253905860213
180	0xbfc0ed6d7d3cfce0	-0.1322457181467831
181	0x3fbf45f009c63917	0.12216091383581716
182	0x3fc56dbe463a1c1c	0.16741159848263087
183	0x3f9679da7299fffb	0.021949208492969757
184	0x3f9a1cfc42162bc3	0.02550119546280506
185	0x3fcaa9d0f8aeed83	0.2083073820375426
186	0xbfbf04fab50bce9b	-0.1211697284705288
187	0xbfd08272c5a2cb74	-0.2579619340933086
188	0xbfa9e88853887142	-0.050602207371613264
189	0xbfaa176eceee0e79	-0.05096002841949327
190	0xbfc08d2b5266f330	-0.1293081428865661
191	0xbfc780bfdef1721d	-0.18361662279029725
192	0xbfab4da9aef474aa	-0.05332689533882136
193	0xbfa4035db62ddec2	-0.039088181008023706
194	0xbfc21e45be1eff55	-0.14154884131675752
195	0x3f92dbf6672d95a4	0.01841721539257936
196	0xbf9af61922384e2a	-0.026329415048236417
197	0x3fb3eac6ccf32a04	0.07780115607889831
198	0xbfa18f20cdbc2e8d	-0.034295106043001324
199	0x3fc4f696521a7bd3	0.16377524384458172
200	0xbf9a464e8609cf56	-0.025658823901223947
201	0x3fb5b931ac1b590f	0.08485708667589996
202	0x3f786c318ca60220	0.005962556412101111
203	0x3fa82d74a7b0fdfe	0.04722179934514868
204	0xbfaa7a131c2856c0	-0.05171260565491087
205	0xbfb8e5b3bdc7af09	-0.09725497611333024
206	0x3faf7a21d13f17d9	0.061478668968945
207	0x3f98c3a83c272069	0.024183872863233456
208	0x3fc151f69a39e126	0.1353138211304749
209	0x3fa62ebc9fed03d0	0.04332532360286445
210	0xbf974fa8b26c8598	-0.022764812364703596
211	0x3fa482daf56fcc84	0.040060846767937114
212	0xbfd1658707665a83	-0.2718217441810468
213	0x3f8d8308c7ba39e1	0.014410084338376929
214	0xbf89d7c5aef131dd	-0.012618584061919453
215	0x3faca3526557ba4d	0.055933546896871
216	0xbfca2e781c1d30b9	-0.20454312680010903
217	0x3fa397d65338c141	0.03826780095949057
218	0xbfad813dd00ceaf9	-0.0576266590564582
219	0x3fc2c41e1ec922d9	0.14661003592688962
220	0xbfc0e5fbe63dbf0d	-0.13201855413671418
221	0x3f9d167df8063527	0.02840611292190434
222	0x3fab885f6ba098ba	0.05377481640634714
223	0x3fb14e2d1f3b9bce	0.06759912502785356
224	0xbf93a41a4acbce7a	-0.019180689635460692
225	0x3fc0821eb1b184dc	0.12897094417988952
226	0xbfb944bcd9c6a35f	-0.09870510403437781
227	0x3fca50bbaa60c87a	0.2055887777256123
228	0xbfb843e709bdc950	-0.09478610980821611
229	0xbfb24ece050d6f08	-0.07151496528006984
230	0x3fbd7a1d27ed9452	0.11514456009679577
231	0xbfcb43162f83e015	-0.21298482246470543
232	0xbfc2def51a3c5b1e	-0.1474291208366702
233	0x3fb0af1fc4e11998	0.06517218166945893
234	0xbfca0cd045b96792	-0.20351603893760434
235	0xbfcac34094057399	-0.2090836260566931
236	0x3f64e5e43dba5a78	0.0025510270914524368
237	0x3fd2aa493111b6da	0.2916434268180247
238	0xbf96dcfd9d53706c	-0.022327387549794173
239	0x3f8d97d3175888fd	0.014449738645514016
240	0x3fbdd84778859fd3	0.1165814084284869
241	0xbfaf0ebca4fc8624	-0.06065930856699378
242	0x3fceea0049c2f453	0.24151614762914395
243	0x3fcd030a341d20a4	0.22665526909464007
244	0x3fa4de172cbf3c99	0.040756916248590964
245	0x3fa55e7e386a83ab	0.04173654974625348
246	0xbfa9724f6d9e6e09	-0.04970024312134675
247	0xbf86a23eef2cd8a3	-0.01105164687542654
248	0xbfd0b74161bf0357	-0.26118502183458275
249	0xbfc6ec0b10029d06	-0.17907846719501935
250	0xbfd02d3e60770ef4	-0.25276145382325343
251	0xbfa3aaa643c8c0a2	-0.038411327146947075
252	0xbfc7a09a7c12016e	-0.18458872850534241
253	0x3fbceed04997931d	0.11301900669748162
254	0x3fb6f5c35eac6dd6	0.08968754826894751
255	0xbfb6b3eebd234ca4	-0.08868305318474029
