Data/Breast Cancer Winsconsin (Diagnostic)/results/models/bcw_5.onnx (onnx, 416707 bytes, 5 tensors)

model.sequential_layers.4.Linear 4.weight f8 [1, 17]
0	0x3fe258cc1edba09b	0.5733395197576273
1	0xbfe355f79eb3d500	-0.60424405094696
2	0xbfe6e315146f498c	-0.7152200125804469
3	0xbfe476ee31669cdc	-0.6395178761348705
4	0x3fe1f04ae212119f	0.5605825820389788
5	0x3fe263838d5cb72f	0.5746476899127851
6	0x3fe2c139fbd617a3	0.5860872191121768
7	0x3fe17de1f369bcef	0.5466165308152123
8	0x3fe218dff0fae484	0.5655364710465993
9	0xbfe298c8888fab13	-0.5811503092967051
10	0xbfe3fcee33ea127e	-0.6246253026916546
11	0xbfe545967de8154e	-0.6647446116555018
12	0xbfe55830e642a2c2	-0.6670155045768171
13	0x3fe0874bdeb70ecf	0.5165156698135095
14	0xbfe29f631d351c02	-0.5819564409692932
15	0x3fe16aded90054c3	0.5442957151705275
16	0xbfbe63890bb30aca	-0.11870628867749669

model.sequential_layers.3.Linear 3.weight f8 [16, 65]
0	0xbf8b05f0a914356b	-0.01319492355335213
1	0xbfd080598544b33c	-0.2578338433693721
2	0xbfbc937a8a0e13b7	-0.11162534590228189
3	0x3f96859e17140a3b	0.021994085463129514
4	0x3fc0ed48bb74b3a6	0.13224133637541263
5	0xbfdb670e5b6b38c1	-0.42816504409428197
6	0x3fc0bbe88ad76176	0.13073450831758365
7	0x3fde931fc58cf190	0.4777297429279992
8	0x3fc4a685c0300ce0	0.1613318622986304
9	0x3fd38722bdb3e59a	0.3051230289998671
10	0x3fcf658363830eb5	0.2452854381464157
11	0x3fbc2ed6ebc0e046	0.11008971458147795
12	0x3f96cfc348179421	0.02227692725672992
13	0xbfbf7461104d6ebe	-0.12286955497750804
14	0x3fb7ce9c23738157	0.09299636712558389
15	0xbfd196477932893c	-0.2747973140304969
16	0x3fc1e150fd78a7b1	0.139688609853065
17	0x3fc3c8d2bad00761	0.15456613656720733
18	0x3fc1a4012d95c442	0.1378175232489714
19	0x3fd0ecde21305dd6	0.264457256709162
20	0xbfc23bd6f8c1259f	-0.1424511637326704
21	0x3fd979a8ceaa4e61	0.39805050069955966
22	0xbfd6f73c89284154	-0.35884011644613634
23	0xbfc3747fd80371de	-0.15199277923137705
24	0x3f9721c621f0b12f	0.02258977491526187
25	0x3fc2fedc8466c3aa	0.1484027525416683
26	0xbfcf8e6f4763718f	-0.24653426156772837
27	0x3fc304e3f78e621f	0.14858674609855968
28	0x3fc439d1ac981fe3	0.1580144970650955
29	0xbfbf065feefb97e0	-0.12119102081814459
30	0xbfc1485defcb74a0	-0.1350209637520594
31	0x3fca390628850258	0.20486523607725604
32	0x3fae58e2c4e884a0	0.05927189496674967
33	0x3fd53eabd8efea5d	0.3319501513030099
34	0xbfc2bbb4ca547978	-0.14635333899873237
35	0xbfb66d4bef511c24	-0.08760523407646353
36	0x3fc7e7394573bc3e	0.18674388781752954
37	0x3fc15e110de36f66	0.13568318536897123
38	0x3fb010520c8c2cde	0.06274903112732796
39	0x3fb73df3089110a4	0.09078902205607392
40	0x3fb6ba09803a888a	0.08877620106298614
41	0xbf9dd90ce12229d9	-0.02914829372506653
42	0x3fb75c69cc4ce8cc	0.09125386464885138
43	0xbfc3cb45e4233687	-0.15464090003517958
44	0x3fcfbc892b4b358e	0.24794115652040855
45	0x3fb81f3d889ea06e	0.09422669015350646
46	0x3fd13c5dd5b23f4b	0.2693094813230245
47	0xbfb59196e730311b	-0.0842527689384877
48	0xbfa6965b51605131	-0.04411588066446582
49	0x3fc072ea43821f5e	0.12850693031600263
50	0x3fd7c8e34b42ef34	0.37163622236015503
51	0x3fc2351ffefe798b	0.14224624586945497
52	0x3f926e250c6e159d	0.017998293765705154
53	0xbfb6816b1cbb14ee	-0.08791226817546136
54	0xbfbfb3840915d0cf	-0.12383294317061487
55	0x3fa05e22a13af94b	0.031968195134583675
56	0xbfc5e3d9c269f37f	-0.1710159491812213
57	0x3fcd575bf83b30e2	0.22922849293389108
58	0xbfcdb31bfb9c6d81	-0.2320284823007164
59	0x3fd5d4d2f35c8b37	0.34111474767466937
60	0xbf9c0d25877c7e39	-0.027393900293757965
61	0x3fbdf2e8e929d1f8	0.1169877595182881
62	0x3fcff9a5ad071b0e	0.24980612705822874
63	0x3fd30bc404113445	0.29759312054813264
64	0x3fb12e7d4719f8e4	0.06711562143206923
65	0xbfa1df96c6ad47e6	-0.034908973457859635
66	0xbf95cb60eb0c86b1	-0.021283640238044913
67	0xbf974fea8b95bd7a	-0.02276579358061557
68	0xbfd9b16083877e17	-0.40145123333602
69	0x3fc0c6a85b10ad9b	0.13106255003490905
70	0x3fabaf03055c26de	0.05406960907391832
71	0x3fd612f9774e39a2	0.344908110150664
72	0xbfd3e5284fd757e6	-0.310861661882312
73	0xbfdfe7164be8ec46	-0.49847943699905206
74	0x3fb673de42d6905a	0.08770550853529482
75	0xbfc26991ec0204ec	-0.14384674094984662
76	0x3fae8d16a00e0b71	0.05967016891283706
77	0xbfba432c69201970	-0.1025874859479694
78	0x3fd5143ecab8a630	0.32936067387581414
79	0xbfc43952bd28813d	-0.15799936519852933
80	0x3fb61519a211f9a8	0.08625946242134452
81	0xbfda7ca935bb97c0	-0.41385870215742315
82	0xbfb58448349e3ab8	-0.08404971394177607
83	0x3fcba64fa65965a6	0.21601291296501052
84	0xbfd3280fdd9b9e44	-0.2993201889171113
85	0x3fd2e323f56bfd5b	0.29511355368591347
86	0x3fc445df5c20fa63	0.15838233946302002
87	0x3fc0b54bd2064eeb	0.13053272013768633
88	0x3fbf4d9af059ba32	0.12227791183406891
89	0xbfd1904ead5be1b0	-0.2744328206022386
90	0xbfd80548419a2fad	-0.3753224030158389
91	0x3fad24bb8fb0b6ad	0.05692087296516255
92	0xbfc3afe60322dcfa	-0.15380549576887131
93	0x3fc0e38635282d3e	0.13194348903230407
94	0x3fc5c56f6c380c89	0.17008774551513664
95	0x3f681b8daf5aa131	0.002942826012105958
96	0x3fcad982d2d5d90d	0.20976290983862392
97	0xbfd6135ac6c7eecb	-0.34493131077009015
98	0x3fb715e744927f76	0.09017796920897844
99	0xbfcaf1cd4b345158	-0.2105042092522449
100	0xbfda0a3f380c4d45	-0.4068754241318014
101	0xbfd55c934ba01528	-0.3337753523376983
102	0x3fc57b3c02128bdf	0.16782331563180627
103	0xbf6e5f6d940d7e9f	-0.00370761301057583
104	0x3fdef50d923c7241	0.4837068489157766
105	0x3fa4ec457b88d052	0.04086510785092003
106	0x3fc09f7d5cc654e6	0.12986723928467042
107	0x3fc522c6ad575158	0.16512378181381382
108	0x3fb9d5b3eaf3edbe	0.10091709600594975
109	0xbfd873d17ff2e4d0	-0.3820689916133917
110	0xbfd4a69b4951b570	-0.32266885910106335
111	0x3f9ecec6d66efc7c	0.030085665548309923
112	0x3fbe6e6e65bf7abb	0.11887254699784482
113	0xbfa1534869f95225	-0.033838522850292464
114	0x3fd2b568f5d55840	0.29232238776365094
115	0x3fa237adb4849863	0.035581043516047094
116	0x3f7cb0c82f598578	0.007004529926775908
117	0x3fc51adf246636b0	0.16488255765255166
118	0xbfd242bcedd987a2	-0.28532336452019014
119	0x3f9e26552a756a66	0.029443102566214206
120	0x3fc361450642d469	0.1514059334346343
121	0x3fb659b765b71405	0.08730646355896006
122	0xbfd0513496a8226e	-0.2549563857324192
123	0x3fac9e9574be7b6c	0.055897398472771836
124	0xbfcba8e25ca9eb99	-0.21609143757436014
125	0xbf49fa4ff64ce107	-0.0007927790107720441
126	0x3fd00102ccad522c	0.2500617026137515
127	0xbfc8febdb56f8d0c	-0.19527407988707812
128	0xbfbbbb9ff8ef1c87	-0.108331678652677
129	0x3fcb149eb9c3f488	0.2115667731340276
130	0x3fb3f221e3f5ee8f	0.07791339698263243
131	0x3fb327c6db78903e	0.0748256955926658
132	0x3f3c52e2d674c217	0.0004321864893937223
133	0xbfcaad2565c00f18	-0.2084089991404816
134	0xbfc5bcb937ed3ab8	-0.1698218844489554
135	0x3fb857b69866ce40	0.09508839817754566
136	0xbfc19fc934bec714	-0.13768878055048417
137	0xbfda40860f848813	-0.41018821254158516
138	0x3fa67c44551ace5b	0.04391683138728971
139	0x3fc2e6fb9ea659f5	0.14767403837750206
140	0xbfc8a021b983cecb	-0.1923868327936503
141	0xbfb9c39aa8a01812	-0.10064093224363571
142	0xbfc1381162e68d0f	-0.13452355698709836
143	0x3fcf86751d81a42b	0.2462908166956209
144	0xbfbfd677e1045f2f	-0.12436627620297423
145	0x3f785508ca623691	0.005940470064286566
146	0xbfd2a55d169bd2e1	-0.29134299476508657
147	0xbfbd552a220adb64	-0.11458075839150933
148	0xbfcbc5f6052f5feb	-0.21697879079033497
149	0xbfbf4f05947d7146	-0.1222995269321859
150	0x3fcdc361100fd949	0.23252499851487077
151	0x3fcdba2590af98e4	0.23224324764959825
152	0x3fc36e31078cde62	0.15180027836480564
153	0x3fb99d38e4c41b35	0.1000552710066643
154	0xbfa2e7355ddc0701	-0.036920230586487086
155	0x3f981a3651fb2330	0.023537491563533297
156	0xbfb1dfce76b257d8	-0.06982126615397932
157	0xbfc69125dc017b0d	-0.1763045620200149
158	0x3fabfde109a8aef4	0.05467131846338971
159	0x3fbcd3fbbe32d7b5	0.1126096095420895
160	0x3fbe9e5ef619f059	0.11960404880841348
161	0x3fc0413984d422d6	0.1269904993607926
162	0xbfb673ec333a5f3e	-0.08770633936580638
163	0x3fc6b91f965ae00e	0.17752451745559522
164	0xbfc31202ecde31a2	-0.14898716512506122
165	0xbfc09d7107fc9fe0	-0.12980473413449456
166	0x3fa348458a45aa4f	0.03766076386348926
167	0x3fc895ba40c4638e	0.19206932222803313
168	0xbfc5d04ce0e8e07a	-0.17041932088773476
169	0x3fbe3178ede0bd50	0.11794238860669748
170	0x3fd00dedffe82c38	0.25085020056639307
171	0x3fbe125b862cd21d	0.11746761346587005
172	0xbfb7017ee0e291c2	-0.08986657133443202
173	0x3fc53bd29e35d109	0.16588814473255578
174	0xbfc5629b94157af9	-0.16707176905307344
175	0xbfc71314cc82730f	-0.1802698134023548
176	0x3fc4203f078b678b	0.15723407619844595
177	0x3fbb7cbc0148ec3a	0.10737204581612128
178	0x3fafe7f84b8fc87c	0.06231666490920504
179	0x3fb80b0161c72d6c	0.09391792905005553
180	0x3fb555b16de2da67	0.08333882267729963
181	0x3fbc1eb9e37660b5	0.1098438434913785
182	0xbfbc3f779d5dff3d	-0.11034343330356662
183	0xbfd54c49b2f828f5	-0.3327812431094935
184	0x3fb3b17d145add0d	0.07692701098391215
185	0x3fc6c78ca8e88557	0.17796476600146136
186	0x3fb3c02cd2d81948	0.07715110919534596
187	0xbfb66b295cf8204f	-0.08757265586621198
188	0x3fa9a93ec5ab96b0	0.05011936343161716
189	0xbfbf01dee735bcb6	-0.12112229485295498
190	0x3fbaebfbe2f7b0fb	0.10516332904052554
191	0xbfc988a205a31a3e	-0.1994822051548954
192	0xbfd551f6c3fe7092	-0.33312768116025737
193	0xbfaed1b83fbe5adf	-0.06019378450507928
194	0x3fa52bbc3cdcf20b	0.04134929888684632
195	0x3fcd0e8ca8349503	0.22700651372102962
196	0x3fc26e3616e8bf71	0.14398838156329988
197	0x3fca5708f3b2f9dd	0.20578109645243972
198	0xbfe039273bc9899d	-0.5069767158241124
199	0xbfce4c62aade167b	-0.2367060980142702
200	0x3f9574da3a9763da	0.020953569246419203
201	0x3fc4405ff11b48f6	0.1582145621565087
202	0xbfaaab9675530238	-0.05209036047154253
203	0x3f81bd296c2e8937	0.008661578763910256
204	0x3fb5fdb33bdb0aeb	0.0859024068004534
205	0xbfd3d76519f30047	-0.3100216630373364
206	0xbfd3edd5ed62062b	-0.3113913362686584
207	0xbfc59475d00e8cc1	-0.16859314593339117
208	0x3fc45e8003897bd3	0.15913391277987773
209	0xbfdbfd18b653b242	-0.43732278638234245
210	0x3fc1e2a44c7988a9	0.1397290585910629
211	0xbfdc2a668d18ca98	-0.4400879266642419
212	0xbf93e21a6e48c49e	-0.019417202931610526
213	0xbfc6133486bce76b	-0.17246109560965847
214	0xbfd06c5ef1ef5f65	-0.2566144335410086
215	0x3fc618fa9241438b	0.17263729230264988
216	0x3fd3e4fd129485da	0.31085135282964205
217	0x3fa467f837c2e8aa	0.03985572510414788
218	0xbf9392253422a45e	-0.019112187678420482
219	0xbfcea41b4f8758ed	-0.239383138496755
220	0x3fa1f77a5e96571c	0.03509123234395714
221	0xbf7f637f23edc9fe	-0.007663246767025898
222	0xbfc7ee1365efe934	-0.18695299603843696
223	0x3fd4343d47a6d8f7	0.31568843838921573
224	0x3fa25cd0ad36c60b	0.03586437334469047
225	0x3fb539a6717529f9	0.08291092176401794
226	0x3f9ca99f9e4ba031	0.027990812336526175
227	0xbfc549b2476a403e	-0.16631153571188578
228	0xbfad641943c7c6e0	-0.05740431740185925
229	0xbfda234329aecbce	-0.4084022433336799
230	0xbfd18a929bb6fb89	-0.27408280569573457
231	0xbfaf9737c4575ae7	-0.061700575559077646
232	0xbfcf29e094aed0ea	-0.24346549281984348
233	0x3f84bfa74132facf	0.010131174733371577
234	0xbfd17970a398e663	-0.2730371091489358
235	0x3fa03dece9e5a297	0.03172245364368569
236	0x3fa56b934100a860	0.041836358723529754
237	0x3fa9cfa5af7306d1	0.05041234747615209
238	0x3fb48558cac5d748	0.08015971136577804
239	0xbfd4f9ad6ab4a8c9	-0.32773909969786225
240	0xbfbe2b022dfc6a61	-0.11784375784592661
241	0x3fcae727cfc0376d	0.21017930645069374
242	0x3fc3ac878cf24099	0.153702682324824
243	0x3fc0097b4274a7bc	0.1252893518915793
244	0xbfa147425e0ed69e	-0.03374678991478429
245	0x3fc8506550aaf213	0.18995348395209585
246	0x3fb2e742902095c7	0.07384124773724131
247	0xbfd3f72cb06fe3e5	-0.3119613383310578
248	0xbfda4d9e62f2b18c	-0.4109874693192743
249	0x3fb6b9221ee3f9b2	0.08876240972674657
250	0x3fd084042558647a	0.25805762907982166
251	0x3f8aa75b52ae94d3	0.013014520130875706
252	0xbfd499a1bccf77e9	-0.321876940140895
253	0x3faa007c8759ba37	0.05078496124484782
254	0xbfcdf30ad214607b	-0.23397956140320617
255	0xbfa8e091deac2a4f	-0.04858833163423936

model.sequential_layers.2.Linear 2.weight f8 [64, 129]
0	0x3faff8ef12e01800	0.06244608979618249
1	0x3fba266b502077a6	0.10214873033734637
2	0xbfbfc88edc84db33	-0.12415402301563176
3	0x3fa1a030d59d63ac	0.034425283504510545
4	0x3fa737cdc76811d6	0.04534762438928268
5	0xbf95e6c928fc3ef6	-0.021388190390154237
6	0x3fbf080f727edfb4	0.12121674104025609
7	0xbfc91d06a88c9b5e	-0.19619830350822104
8	0x3fc243cdcfd36efa	0.14269421241521468
9	0x3fbf97c4084c9c17	0.12340951159113477
10	0x3fc1f28463312986	0.14021353572236367
11	0xbfc85a1553e7096c	-0.1902491244964709
12	0xbfc905d8f18bb08b	-0.19549094957563215
13	0xbfc9619f4d05ea56	-0.1982916952218427
14	0x3f96a299e58be12b	0.022104649196053188
15	0xbfbf0e1bbee1fc2d	-0.12130902681563845
16	0xbfcadb65951a4775	-0.2098204591789529
17	0xbfcbfb7ee39385d1	-0.21861253845331288
18	0xbfc6152792833669	-0.17252058652813965
19	0x3fa83592e37402b7	0.04728373552825842
20	0x3f94b740e2b1cfee	0.020230306469286967
21	0xbfd0408e11f2f426	-0.2539401221545766
22	0xbf89618a6f7751b9	-0.012393075491595395
23	0xbfc330ce0a7a6f8c	-0.14992690574296963
24	0xbf99cc8cc5a86a3e	-0.025194358409956978
25	0xbfc1bd269908b67e	-0.1385849234806535
26	0xbfc76f93e3fca3ec	-0.18309258110210125
27	0x3fa99ffcb4f7bda6	0.05004872998312786
28	0x3fc4a823dd3a44d8	0.16138122846726932
29	0xbf8de26e9b87b9f6	-0.014592041131405314
30	0xbfc3c0e24c5d667d	-0.15432385185959055
31	0x3fc257d09728ecae	0.14330489521839723
32	0xbfc59f9915cab74a	-0.1689330440908015
33	0x3fb4e745945c4f7e	0.08165392753681819
34	0x3fb1de054f10aa8f	0.06979401760387759
35	0x3fa55576639dfbe1	0.04166765180615762
36	0x3fc7e457264c9e87	0.18665589685518943
37	0x3fc18f4a807b7ccb	0.13718539498856894
38	0x3fc2cfc1d97c85c9	0.14696524733976293
39	0x3fafb38cc857fd55	0.06191673226930542
40	0x3fb07f91bf6a205f	0.06444655345160431
41	0xbfc619f3f320979e	-0.17266702052546362
42	0x3f9e7f4a5452bf60	0.029782449146920853
43	0xbfd506548412e902	-0.32851136110151924
44	0xbf794bdd8d50ec99	-0.006175866544306485
45	0x3fc11dca098a89ba	0.133721594485065
46	0x3fc03bed16e2b78e	0.1268288003679427
47	0x3fb9271769c36ceb	0.09825273830522334
48	0x3fd02b6432175a05	0.25264840022774165
49	0x3fa5a644938c799b	0.042284148227042816
50	0xbfdb771640c74a5a	-0.4291434891321494
51	0xbfb093f65e30d072	-0.06475772666527904
52	0x3fd1e5c10a98b45a	0.2796480754357781
53	0x3fb441e3981754c0	0.07913038695490382
54	0x3fad401fc0cf1965	0.05712985256791362
55	0x3fb758e066cc75a1	0.09119989881261016
56	0x3fc3803e80c2859f	0.1523512009344303
57	0x3fb4fd32dd52ab57	0.0819885053958108
58	0xbfb233eceef87896	-0.07110482057803078
59	0x3fa129fb8836516c	0.03352342641588532
60	0xbfd4de0ebcdac2a9	-0.3260533184320971
61	0x3fc2c926c8546ec5	0.14676365644196757
62	0x3fb81285d94e1fec	0.0940326362161838
63	0xbfa272ced067f26a	-0.036032164516630896
64	0xbfbed09aeaa4fede	-0.12037056187272863
65	0x3fb766761301616b	0.09140718425749632
66	0xbfcace86edd11aa1	-0.2094277058806329
67	0xbfd15351e229baf6	-0.2707104405043731
68	0x3fb16c5e33473219	0.06805981399447382
69	0x3fbae10dd655e0db	0.10499655230330822
70	0xbfc79e2dbc96db00	-0.1845147295805063
71	0xbfc503113d9af0da	-0.1641561079794716
72	0xbf9d835e4e479725	-0.028821443107424422
73	0xbf75647694befb72	-0.005222762305435379
74	0x3fb8d44010869d1f	0.09698868182623642
75	0xbfbe479bd421dd47	-0.1182801621342736
76	0x3fb9737c90cbc8ae	0.09941843543109272
77	0x3fb775c599e5ccf8	0.09164080626742421
78	0xbfaa94f634363d8a	-0.05191773784019478
79	0x3f70b3c4ab9a20cd	0.004077690356673891
80	0x3f7f1d3e652522e4	0.007596248370028678
81	0x3fce6c1db12403d7	0.23767443799445573
82	0x3fb069d6e0ee297c	0.06411498061621573
83	0xbfcaff334de75711	-0.2109130983723664
84	0x3fb02ec77d68b945	0.06321379482026142
85	0xbfb9f889f6fd6f0a	-0.10144865303066922
86	0xbfb6ac92a704ba11	-0.08857075288390372
87	0xbfc9a32e443fe8e7	-0.20029238064291308
88	0x3faaa8f6c20c4dc9	0.05207034224272495
89	0x3fc8cbc3650f5576	0.1937183612305195
90	0x3f913b5a138f5cdb	0.016827971881721786
91	0x3fbbf8c0267a0e74	0.10926438273787104
92	0xbfc6f06990137f14	-0.17921180281609195
93	0x3f8a464d722017dc	0.012829403920488085
94	0x3fa561d971cd778f	0.04176215662185633
95	0xbfbbeec18c38f1a0	-0.10911187814139689
96	0x3fbd85e193283df8	0.11532411425309153
97	0x3f89c08ad0534fea	0.012574276430690607
98	0xbfc00ad4d8c420dd	-0.12533054909022825
99	0xbfbd57c69ca30b80	-0.11462060283797193
100	0x3fbd2172f9780124	0.11379164305254058
101	0x3fc776b4d29c801c	0.1833101299644121
102	0xbfd03a67baa35ca9	-0.25356476999645366
103	0xbfbe55f852326154	-0.11849929816015009
104	0x3fbf541c6028366b	0.12237717959961862
105	0xbfac4ab246149f7f	-0.05525738816714831
106	0x3fc583c8f86bb802	0.16808426027222373
107	0xbfb3515c3eb177f5	-0.07546021013828848
108	0x3fb6c5e31a711be8	0.08895701785614529
109	0xbfc9207885835b3f	-0.19630342978663326
110	0xbfc1a9445f71e184	-0.13797812137978493
111	0x3f98e860bc8798f9	0.024323951250971174
112	0xbfa34fe421b3c2f6	-0.03771889602092486
113	0xbfd108f53298e502	-0.2661717409242358
114	0x3fb3d06ba146db03	0.07739899337216731
115	0x3f9396afd97e9717	0.01912951245289837
116	0xbf96d53ef6cd9dd7	-0.02229784375540852
117	0xbfbd46226e33c4ab	-0.1143514174507511
118	0xbf8156a73307d8ca	-0.008466058964568996
119	0x3fae6220f2560291	0.05934241254999962
120	0xbfbda66b85c883e5	-0.1158206178302091
121	0xbfcd47ba18fa1b7c	-0.22875143260554498
122	0x3fc2d3d89f14cd3d	0.14709003226890074
123	0x3fb1eb79b6a18b19	0.06999932011380529
124	0x3fb9343ce12736a4	0.09845333573249576
125	0xbfb6a4bf1ef684d6	-0.08845133310252903
126	0x3fb9fd40805951ca	0.10152056821363611
127	0xbfc02f146d708785	-0.12643676131943607
128	0xbfeaa163badf1bd4	-0.8322008752664893
129	0x3fc06b6fd2d93e81	0.1282787112745503
130	0x3fc0757e8be3620b	0.12858564215163457
131	0xbfc358be66862d91	-0.1511457443815343
132	0x3fa86017c9c85ab7	0.047608130819005216
133	0xbfa7a228ee4c49b6	-0.04615905674849634
134	0xbfb4feef19bc79fa	-0.08201498392416076
135	0xbfd11868e9ce75d7	-0.2671148570314847
136	0xbfcd836b638b7eb0	-0.23057310448256407
137	0x3fb93ed7c8c630e0	0.09861515666688403
138	0x3fcc59806ebaf49e	0.22148137480499924
139	0x3fad994c3ebaad62	0.057810194642423665
140	0x3fb26494cd872e3b	0.07184724824690474
141	0x3fb7cb765da82e63	0.09294833933398076
142	0xbfbfee248cec0ad4	-0.12472752037505624
143	0x3fc10df921ac1f6b	0.13323892730863504
144	0xbfc5649019fce811	-0.16713143605176176
145	0xbf90ecbc268bd70b	-0.016528072216678995
146	0x3f7eaef4e25ffd77	0.007491070346076759
147	0x3f75ffe5a7805a12	0.005370995604627742
148	0xbfb5397449b71e22	-0.08290793227853802
149	0xbfc4e2c2c491e363	-0.1631701907934043
150	0xbfc1dbbaef064dd1	-0.13951813384174597
151	0xbf90878fdac11f02	-0.016142127730090834
152	0x3fbe9172793a0ac0	0.11940684756886366
153	0x3fbea077c0bcbd81	0.11963604407787011
154	0x3fc5913af653e491	0.1684945776721958
155	0xbf95d6ca9ee2ea14	-0.021327176997809685
156	0xbfb0a2e815412a98	-0.06498575705442489
157	0x3f8701a9678d4f22	0.011233638260513216
158	0xbfb87d68705db8e2	-0.09566357367814107
159	0xbfbc0c2b46149c76	-0.10956068478536615
160	0x3fb23314acb15aa1	0.07109193054325626
161	0x3fd03ace146352c4	0.2535891722775825
162	0xbf9819ed976ee6c4	-0.02353640782141643
163	0xbfa87f8fad9760f5	-0.04784821504625995
164	0x3fc3ca1f1df3680f	0.1546057602161572
165	0xbfc1860943f320a9	-0.1369029599939087
166	0x3fc57d66fa40331d	0.1678894731452595
167	0x3fc3009af5e029a0	0.1484559727253556
168	0xbfc28b75d96a4a03	-0.14488099208809055
169	0x3fce16be52d09697	0.23506907504741
170	0x3fc341a0ca0ac212	0.150440310147602
171	0x3fc7133c40d6e204	0.1802745167349401
172	0x3fa212e91872f045	0.03530052588891456
173	0x3fc0d983a0d420ea	0.13163800576172174
174	0xbfc6074e057197f6	-0.17209792390639195
175	0xbf69e88b24ef9714	-0.003162643209622904
176	0xbfc6bda5414c5549	-0.17766252220523374
177	0xbfc45be225cd28a8	-0.15905405851146281
178	0x3fc62d3f626cbcc7	0.17325584703346505
179	0xbfce3b9d63cbb03b	-0.23619429943880896
180	0x3fc42bb762fb5f80	0.15758411725141386
181	0xbfc93d7b7e177c3b	-0.1971887937242814
182	0xbf99108470c5caed	-0.02447707117375846
183	0x3f9844ade3400ccb	0.02369949054265134
184	0xbfc2cee2c1faccf4	-0.14693865272202056
185	0xbfb586bc3f14d771	-0.08408714809487862
186	0xbfc000f14df526cb	-0.1250287657406289
187	0xbfa903f750bb90cd	-0.04885838375574423
188	0xbfa8c4c493061434	-0.04837621969912967
189	0x3fa509e615d317fb	0.04109114662564647
190	0x3fc0f53cd88056b2	0.13248406001428276
191	0xbfc59c9c61a9e145	-0.16884188431482464
192	0xbf9f273cfa460582	-0.030423119330867283
193	0xbfc57ba6120afc54	-0.1678359592533264
194	0xbfd14e2c4467841a	-0.27039629631150464
195	0x3fd16fc42eebe5b5	0.2724466760842817
196	0xbf8d9d660c087270	-0.01446037029477873
197	0x3fcf2bab5781478d	0.2435201813955782
198	0xbfbb7add0fc56c0c	-0.10734349856413433
199	0x3fc081587e3c224f	0.1289473167783108
200	0xbfcf65693ff213c6	-0.24528232214302487
201	0xbfbb07e7741f51b4	-0.10558935723321988
202	0x3fb295a03583fe46	0.07259560877354784
203	0x3fa94819a4d08ddd	0.04937820565126192
204	0xbfcd3f15288c2588	-0.22848762969833225
205	0x3fd004206d1cb6a5	0.2502518716381508
206	0x3fba7e7bc6cf14d6	0.10349248508198924
207	0xbfa6e71fa67e0e0c	-0.04473208339097931
208	0x3fc236780e5f2e2f	0.14228726102588626
209	0xbfc2782b1e50f679	-0.14429224949155975
210	0xbfbcf366189db9ed	-0.11308897114734125
211	0x3fa2581f14c7d17f	0.03582856300991732
212	0x3fc5450bab79cf74	0.16616960404246195
213	0xbf801579f03f120e	-0.007853462833630889
214	0xbf72c507563cfdad	-0.004582432422295763
215	0x3f9d5d55e78087b5	0.028676359419598636
216	0xbfc7201860f62317	-0.18066696867415352
217	0xbfbc7069a1ccd6e3	-0.1110902805347354
218	0xbf87ddc95a242133	-0.011653492988003755
219	0xbf8d9d68c0966062	-0.014460390450764918
220	0x3fdb604b91f66368	0.42775239233156137
221	0x3fbbadf91f9028a7	0.10812336941322319
222	0x3fcdb05127a81949	0.2319432681690137
223	0xbfcef7955e3773fc	-0.2419306478540476
224	0xbfafa765f6edc26c	-0.06182402266756956
225	0x3fa75cb85650fda8	0.045629272972742385
226	0xbfa43a3eeb9fe5de	-0.03950688005711432
227	0x3fbf55a6d372d738	0.12240069067305803
228	0xbfc0dbfee86f26cc	-0.13171373700452305
229	0x3f8e7478682a7e56	0.0148705870427072
230	0xbfc7a2f9d9401d33	-0.18466113193447029
231	0x3fb94e03ab6e5fa0	0.09884665427523354
232	0x3fbda92d7b62af30	0.11586269628849943
233	0x3fb71b175d8ba013	0.09025712999175566
234	0x3fb40a53768654ed	0.07828256267233132
235	0xbfbe7d7445bd9f8c	-0.11910177900938218
236	0xbfca46e6959134f8	-0.20528871825300832
237	0xbfc49d94fa4b2917	-0.1610590192925165
238	0x3f8728bbd388999d	0.011308162110321979
239	0x3fb808d4455ed950	0.09388472264877135
240	0x3fcd8032b1b08862	0.23047479320763659
241	0xbf6d099ef60681af	-0.0035446266849279077
242	0x3f9cd2dd0f549c6e	0.02814813047475833
243	0x3fa36ded6c80c33b	0.03794805478572135
244	0x3fa4e8778fe7654b	0.04083608276023173
245	0x3fcee4df0a5aacf7	0.24135959630562073
246	0xbfb44f0d9625f534	-0.07933125415543857
247	0x3f8d2c1ec2683470	0.014244308765251484
248	0x3fbcec2733b0246f	0.11297841083445957
249	0x3fb64b723f1798cb	0.08708871879898365
250	0xbfbdb5d120ef289e	-0.11605555585916469
251	0x3fce1c7a4747a88f	0.23524406891312252
252	0xbfb44218bb78ec42	-0.0791335542389087
253	0x3fb182ac95ec1820	0.06840017948351873
254	0xbf975f67e063d7e7	-0.02282488162105514
255	0xbfbf57b01febe575	-0.12243176249821437

model.sequential_layers.1.Linear 1.weight f8 [128, 257]
0	0x3f8fe1a98023c61a	0.015567135069861005
1	0x3fb340d1d0aba094	0.07520781845562602
2	0xbf8fe1cc7e2883a7	-0.015567395782513161
3	0xbfb249fced2a8cff	-0.07144146719160814
4	0xbf8bf4c8e0d6cb70	-0.013650483476202985
5	0xbf92ead690e6eec7	-0.018473961443062927
6	0x3fa9778faf07bd01	0.04974030505752048
7	0x3facfb2e2ad50778	0.056603853920491554
8	0xbfc79ccdccba753b	-0.18447277542592552
9	0x3fbdec2f558dd035	0.1168851455566376
10	0xbf9c1ad4ecabf5bd	-0.02744610495118648
11	0xbfb60dfc1b4cfe32	-0.08615089098474796
12	0xbfc0bb91c097e9eb	-0.1307241621396565
13	0x3fbbb34a8b79f649	0.10820451646028419
14	0x3fb6937fb1f45bd8	0.0881881532153409
15	0xbfbcf701173931f5	-0.11314398591020576
16	0xbf9456e731d5c298	-0.01986275903385834
17	0xbfc464e348ba823b	-0.15932885218809809
18	0xbfaeea1bdba070e6	-0.06037985855093257
19	0x3fb43f76af0c852e	0.07909337781577072
20	0xbfb9b4ebf967ebe7	-0.10041689719211853
21	0xbfb348f715d7b272	-0.07533211024537836
22	0x3fb241aa92f998fa	0.07131448829895595
23	0xbfba913a61d55d1d	-0.10377850426208508
24	0xbfbf11592b291e29	-0.12135846427656162
25	0xbfc45e2dc322a4e3	-0.15912410762874804
26	0x3fb264b5e368073a	0.07184922029412358
27	0xbfc59f6871a3a930	-0.16892724560541117
28	0xbfbab9f774141681	-0.10440012535044653
29	0xbfacfdf13685f0b6	-0.05662492552343805
30	0xbfc3c6760830de23	-0.15449405097909716
31	0xbfad54eb4b885415	-0.057288506479530245
32	0xbfc0f972e21c662b	-0.13261257210324237
33	0xbfaf6236c721012b	-0.061296188171129216
34	0xbf99b3d93b7cb0eb	-0.025100130325129404
35	0xbfaeb77e6e6a86c5	-0.05999369714596762
36	0xbfc1f0da407a6733	-0.14016273640009444
37	0x3f82132cb9fa342f	0.00882563536222322
38	0x3fa908f7b29ac624	0.048896542122190106
39	0xbfc04973aaa34c6d	-0.1272415717308805
40	0xbfb94195eee332e0	-0.09865700800146326
41	0x3fb7cbb682bc2c19	0.09295216266416197
42	0x3fb713c49b52f3e0	0.09014538566675823
43	0xbfc0a93fef70636e	-0.13016509238584767
44	0xbfb6bae53ccbb3a2	-0.08878929838438279
45	0x3fc120fb2e96a468	0.13381900572611305
46	0x3f76ba1d4cb5acdc	0.0055485863225428166
47	0xbfb83f92e92717e6	-0.09472006027416988
48	0x3f90f53476ec24d3	0.016560382612657087
49	0xbfa0a75509511f50	-0.03252664316874976
50	0x3fc056ac653655de	0.1276450628471783
51	0xbfb22c847282ef7d	-0.07099178119363887
52	0x3fb22f8a829bc0b2	0.07103791893655645
53	0x3f8b6930184909cd	0.013384223691109387
54	0x3fbec5e04b2fcd7d	0.12020685039151675
55	0x3fa6cc9e5ab37d31	0.04452986581031338
56	0xbfb6060a22afcefc	-0.08602965685696157
57	0x3fa5d6505e21f96a	0.04265071057396848
58	0xbfb4f6e1dc68558a	-0.08189212447208241
59	0x3fa91049decd518c	0.04895239681960381
60	0xbfa488cc07bdd6be	-0.04010617823125305
61	0xbfafa27f47f5fefa	-0.06178663018635962
62	0x3fb2f38185e02055	0.07402810591168081
63	0xbfada7a769b21b9e	-0.05791972317916037
64	0xbfc4093812c57ae9	-0.15653134266445726
65	0x3fab97e49812abbd	0.05389322620734258
66	0x3f86d0ba64548a7f	0.011140304743610272
67	0x3fa03ff6f58e9886	0.03173801181337503
68	0xbfbbbb860664b0e6	-0.1083301320656492
69	0xbfbc6760e6de845a	-0.11095243107276201
70	0xbfc30e144f8f8a6a	-0.1488671673278817
71	0xbfaae1405996cc9e	-0.05249978154770328
72	0xbfb283451a876b88	-0.07231552026443755
73	0xbfb4d46f1971b249	-0.08136648532099246
74	0x3f7bad76d3255bae	0.006757225188571176
75	0x3fb44ac279ef839b	0.0792657420820561
76	0x3faf0ec1fdd20ff0	0.06065946792026
77	0x3fb1c78fe497a7fb	0.06945132571095762
78	0xbfbc611c2ff98fe8	-0.1108567826391319
79	0xbfa37d86ef857b0c	-0.03806707071156809
80	0x3fabf13546145cd8	0.054574646763450196
81	0xbf6622a89573a75d	-0.002702073350168739
82	0xbf5a7b212902383e	-0.0016162704305631294
83	0xbfb0c95142c14523	-0.06557186012038989
84	0xbfc2ddbf4667551a	-0.1473921865241799
85	0xbfc00215477e1793	-0.12506357184264214
86	0xbfc38678da365a53	-0.15254126219652395
87	0x3fb3558c5c041fcc	0.07552411314475121
88	0xbfc7578aa5ca6fe3	-0.18235905738117628
89	0xbf949135fd4ec735	-0.020085185609509188
90	0x3f88cc5e5437c5c7	0.012108551926732226
91	0xbfba94bfe734a9cd	-0.10383223910017776
92	0x3fb1f28e70108a78	0.07010736690475905
93	0xbf941c25ca73e5f9	-0.019638624650701406
94	0x3f5827c1eabe1509	0.0014743226738301327
95	0xbfbc7c282aacb493	-0.11126948396550267
96	0x3faa97fbd1f7e630	0.051940793400671814
97	0xbf8dae12b22b76fa	-0.014492174207983311
98	0x3fc0b3504a4c0209	0.13047221782473198
99	0x3f9f00e873d97359	0.030276901312720515
100	0xbfc1e9e1b174a897	-0.13995000042752245
101	0xbfc97c299c49fbbf	-0.1991016400461074
102	0xbfc37d3a320fa7c4	-0.1522591347159602
103	0xbf98eeb2e3621f4e	-0.024348063591360707
104	0x3fabc6dd3d90fb07	0.054251588597699345
105	0xbfa6e855f3c95db2	-0.04474133110914681
106	0x3f9aad0492cc2a4e	0.026050635776338198
107	0x3fb486481dce7c33	0.08017397620868465
108	0xbfaafe1a2dabd631	-0.05271989638815134
109	0xbfb5c612280e4c63	-0.08505357244421101
110	0x3fb566b02a0087f4	0.0835981466812255
111	0xbfc80ccb1f688f1e	-0.18789042504897052
112	0x3fadcc34838963a4	0.058198586518023704
113	0x3fb8428393fed0a3	0.09476492274444807
114	0xbfc38a34e04d8868	-0.1526552291134664
115	0xbf93eb8b8f9c6dee	-0.01945322097809126
116	0x3fb4c72cda7a90e2	0.08116417249636101
117	0xbfb481d539f8acee	-0.0801060930759154
118	0xbfa9e0c011d4554e	-0.05054283349651688
119	0x3fb267c9c0b46153	0.07189618067457575
120	0xbfa582c23949bd63	-0.04201323460881203
121	0xbfa6f5d8b8e9b92b	-0.044844410488496265
122	0xbf85cab7370267df	-0.010640555731061539
123	0xbfbe448828b21688	-0.1182332133631353
124	0x3f9c55a8ddafc738	0.02767051556651909
125	0x3fafa5cffd70eff7	0.06181192368282489
126	0xbfc193447263ab69	-0.1373067434827491
127	0xbfbb6ca119b43144	-0.107126301551209
128	0x3fb66ff20610c697	0.08764565132221445
129	0x3f3a4689b97ef7db	0.00040093290726505936
130	0x3fb487db6a6de0c9	0.08019801472062506
131	0xbfb6970643ce377f	-0.08824195056351235
132	0xbfacbe75bfae87e2	-0.056140594147350745
133	0xbfb943f85f9d2537	-0.09869339308092583
134	0xbfc45d97f350f7fc	-0.15910624867132117
135	0x3f9f4cd0fbfa84a0	0.030566468600799923
136	0x3f86bfebb806a252	0.011108247331166474
137	0xbfc342d70097b65a	-0.1504772904294665
138	0x3f7a6af35eba1594	0.006449652351539287
139	0xbfb33174462911aa	-0.07497336113835354
140	0xbfa6f4f3a93d7942	-0.044837583932109584
141	0x3fb87a1665effa4e	0.09561290730196356
142	0xbfb74ee8058ebd84	-0.09104776511843765
143	0xbf91574eb0bb4ae6	-0.016934613739816216
144	0xbf8cdda2189f2f92	-0.014094606758497528
145	0xbfc1e897fc7e9141	-0.13991069630459133
146	0xbfc347e2ce63ed53	-0.1506312854543049
147	0x3fac697fc0c7a36e	0.05549239376325131
148	0xbfbbcd50905b412a	-0.10860160374000274
149	0x3fa0a38e3f2c9745	0.03249783059281567
150	0x3fb7acee2d9dc037	0.09248245824505906
151	0xbfc5588a36958a28	-0.1667645231746786
152	0xbf6ac8c17de9b53e	-0.0032695559632915086
153	0x3fb228c2b32c04be	0.07093445658030625
154	0xbfb1087e8ff25b35	-0.06653586401294549
155	0x3fb7a980e8e8d7e1	0.0924301689745728
156	0xbfc32dcdd1772f56	-0.14983532645998804
157	0x3f85737b8bd0c863	0.010474171833355144
158	0xbfc181652d95e4e8	-0.13676132894378346
159	0xbfb622348584b459	-0.08645942935682295
160	0xbfb02acb62322179	-0.06315299174651114
161	0x3f719874f93c5a81	0.0042957848816259645
162	0x3fa76fe894a1b9ce	0.045775669234774705
163	0xbfbbc98a06e307f9	-0.10854399364600899
164	0x3fb3e7589d2e31b6	0.07774881207860215
165	0x3fb9b57e0e8f5743	0.10042560439555097
166	0xbfa800162b155965	-0.04687566066665986
167	0xbfa8a15d43a52cc3	-0.048106112010452694
168	0xbf98ea69c17f2d90	-0.024331715045077085
169	0x3fb59cb737c57f80	0.08442254172905272
170	0xbfa439c9be9c05be	-0.03950338794494311
171	0x3fafcea66dc69f6e	0.062123490238547116
172	0x3f87c664f7ba64f5	0.011608876047193276
173	0x3fbb9cebae1df620	0.10786316872505397
174	0x3f9c19957fd137c7	0.027441345144602083
175	0x3fa5e7edc21022ca	0.042785100879034824
176	0xbf8d91c76cb4d88f	-0.014438207631070092
177	0xbfc701b0e56ef4de	-0.17973910525134945
178	0xbf9fb3049eec9f6e	-0.030956337165803864
179	0x3fbe199aa30a246a	0.11757818680247714
180	0xbfc25bdad44f2bf1	-0.14342818609870236
181	0xbfc3efd616196a58	-0.15575672225061754
182	0xbfbaae9065c45f88	-0.10422613606021802
183	0xbf9a21e86f8f2771	-0.025519973572762426
184	0xbfc70755341a64e0	-0.17991128009888424
185	0xbfbc76def80f5b3b	-0.1111888270964813
186	0xbfb56d1ad8b948c1	-0.08369605818851068
187	0x3fb52fea3645db7c	0.0827623732092046
188	0xbfc1462b42170952	-0.13495388724374863
189	0x3f61dd436d4f6aae	0.002180701917024428
190	0xbfc560b8683fc010	-0.16701417055401224
191	0xbfa6d53cc6c54bd3	-0.04459562231445315
192	0x3f5845a1efb5f802	0.0014814454469553877
193	0xbfc60e55154cd848	-0.17231238880202882
194	0x3fb71fe8899c1354	0.09033063277827341
195	0xbfa6b4562818c09a	-0.04434460868321928
196	0xbfbcb52670befb84	-0.11213913204754361
197	0xbfb1ec920d80ec8b	-0.07001602964094127
198	0xbfba663f3c2445ea	-0.10312266557982466
199	0x3fb5577dc453210c	0.08336626093944605
200	0xbfa196655689b516	-0.034350554288588395
201	0x3fa80f07a434fb92	0.046989668650431984
202	0x3f76e8ffb38aa76a	0.005593298753106749
203	0xbf9e591ae0b3319e	-0.029636783566091666
204	0x3fb097101600fe60	0.06480503594593179
205	0xbfb71250f8f3da43	-0.09012323453848929
206	0xbfb71bfe5f8b0e4b	-0.09027089912984214
207	0x3f83194cc364c1be	0.00932559939664734
208	0x3f9138d14ddee82d	0.016818304422237574
209	0x3f7a0283dffe9141	0.006350054871209488
210	0xbfbc5518976f333a	-0.1106734628403502
211	0x3f5c03ea0b8cb778	0.0017099176022372358
212	0xbfbc321c419ad695	-0.11013962365799508
213	0xbfb5e099e91259da	-0.08545839252688073
214	0x3fa15075ec859923	0.033816990968988735
215	0xbfc1831ce5cb01c0	-0.1368137476001845
216	0xbf91aa773b834dbe	-0.017251837737445312
217	0xbfa4b2ffec7c7e2f	-0.04042815934940013
218	0xbf5f3bcee3981b88	-0.0019063492203501304
219	0xbfbde7a1d43260ec	-0.11681567602716186
220	0x3fb70dc9931b83f8	0.09005412904254217
221	0x3fa95df935a14d39	0.04954508571304434
222	0xbfaed304066600e3	-0.06020367220026104
223	0xbfa112b2db03d493	-0.03334578441164484
224	0x3fad380b14ab6a26	0.057068201325553056
225	0x3fb4fe4814c9e3c9	0.08200502879652939
226	0xbfb67ed2fa573919	-0.08787268268426764
227	0x3fac8c7906b56580	0.05575922209636541
228	0x3fb83d595344b3b5	0.09468611033362502
229	0x3face9d2a57daeaf	0.05647142667916449
230	0xbfa1176a58cee966	-0.03338177045903272
231	0xbf38dfeeffd131f8	-0.0003795584196424613
232	0x3fa86796d235dbdf	0.04766532245678667
233	0x3f961f3c01d6eb46	0.021603524791980598
234	0xbfa8e720e486239b	-0.048638370414727926
235	0xbfb2f01093e0646b	-0.07397559747950459
236	0x3fa683ba776449c4	0.04397375781458693
237	0xbfbcde7e0178e49e	-0.11276996169989892
238	0x3fbc6cc72cdc366e	0.11103482098789083
239	0xbfbd295f46b6c6b7	-0.11391253925719523
240	0xbfb19dd045689ea7	-0.06881429380939129
241	0xbfc177b459fe32c6	-0.1364655913752328
242	0xbfc17eb4fe66ba3d	-0.13667929098069634
243	0xbfa75473fe4415f2	-0.04556620100815313
244	0x3f9b380b57667897	0.026580979547013852
245	0xbf934d0b3b22e225	-0.018848586544409813
246	0xbf42ec0d08a99349	-0.0005774558679375398
247	0xbfa24b86edda361a	-0.035732475790706
248	0xbf9e0b75ae7ee775	-0.029340590262769212
249	0xbfa245003a5e57e3	-0.035682685017647285
250	0xbfba76d1a7f551d9	-0.10337553358596753
251	0x3fb5ac9f0fb69f74	0.08466524251582347
252	0x3fa83823bae4bea6	0.047303310932304485
253	0xbfa3175e6967a261	-0.037287664763259405
254	0xbfc4bc1609402c4e	-0.16198993159955183
255	0x3f9070422ddd2833	0.01605323224001882

model.sequential_layers.0.Linear 0.weight f8 [256, 31]
0	0xbfcc601aa0915b88	-0.22168286171173812
1	0xbfced18c7dfb180c	-0.24076992179306023
2	0xbfcce5582e6661ff	-0.2257490374147579
3	0xbfc9cd30c3c4a2ee	-0.20157441672315407
4	0xbfca988ce8803f8c	-0.20778046944223794
5	0xbfbec4bc8eaa4807	-0.12018946154628916
6	0x3fbd58a7c091aedd	0.11463402224915904
7	0x3f950631bfe2769d	0.020531442009647283
8	0xbfc6dd6bdae499b8	-0.1786322420895894
9	0x3fb979117ed6bf5b	0.09950360628749648
10	0xbfb9f4293a4ea2f5	-0.10138185189738265
11	0xbfad0052916c7b53	-0.05664308571998924
12	0xbfc1cb8d70e14dcb	-0.1390244294330912
13	0xbfae44bdc8f5006f	-0.05911820486153451
14	0xbfcd8e3be2f152b5	-0.23090313512024854
15	0x3fc450f861055360	0.15872101533264082
16	0x3fc3caeba81b66ad	0.15463014324523297
17	0x3fbc05bc8d8c9cdd	0.10946253257553758
18	0x3fa953902104f961	0.049465660124485174
19	0xbf7373031a11bc9c	-0.004748355976615628
20	0xbfc81ad09b6b5860	-0.1883183249362359
21	0xbfd11b76d9e90e02	-0.2673012855559308
22	0xbfbf85816ccc8f65	-0.1231308832762444
23	0xbfd893778c828078	-0.38400067063958643
24	0xbf850316da9758e1	-0.010259798570512792
25	0x3fa935df750bdec3	0.049239142454039285
26	0x3fac2e674c07c8fb	0.055041530638748136
27	0xbfc77a66b18ad0dd	-0.18342288655333663
28	0xbf86688f2ba82574	-0.010941618461418591
29	0xbfbc3313a9d76b32	-0.1101543702747392
30	0xbfb9bdee22bc1844	-0.10055435512558214
31	0x3faabeecba0ee8ae	0.05223788996905064
32	0x3fc11b147612283a	0.13363891377622555
33	0x3fc5176cef53d14f	0.1647773903456575
34	0x3fc37d3a89e767b7	0.1522591756209388
35	0xbfc69d0314e9dd0d	-0.1766666271321146
36	0xbfa56d21bce6cde4	-0.04184823447158317
37	0x3fa646b8ee77168d	0.043508319005508424
38	0xbfbae757f2beed9e	-0.1050925223961969
39	0xbf5ccbcc451a20ca	-0.0017575735877546788
40	0xbf69f1ce101e170e	-0.0031670593897982274
41	0x3fb9dbca975a79f3	0.1010100001826471
42	0xbfad8f5417a03d98	-0.05773413456347071
43	0x3fb2b9a0add3b343	0.07314495319196816
44	0x3fb4a759108854cf	0.08067852643610539
45	0x3fc6cd915e3f4279	0.17814843274983952
46	0x3fc4f624b942c369	0.16376170202195375
47	0x3fbc838f5ce57037	0.11138244646048255
48	0x3f97f780d6b4bf84	0.023405087570778985
49	0xbfb9afe4748d2e64	-0.10034015508170452
50	0x3fc5921ca91bbebb	0.1685214830135829
51	0xbfaf44d7722f59a2	-0.06107209462031739
52	0xbfcb5bb5808110ab	-0.21373623633019653
53	0xbfbc742f9fc61b47	-0.11114785814980364
54	0x3f944d4a73ce54f1	0.019826091116176895
55	0x3fb2d1c8054d0047	0.07351350907720287
56	0xbfc1dd09e810a44d	-0.13955806571292087
57	0x3f8b11228020a017	0.01321627572549748
58	0xbfb3e0d325f451cb	-0.07764930416698872
59	0xbfa9b7dd3c526db9	-0.05023089753486993
60	0x3f7e31ca7e149f82	0.0073717031348578006
61	0xbfd9264741b47c2a	-0.3929613248491842
62	0x3faef0a8a873e628	0.060429831088139985
63	0xbfcd42fcb6eab444	-0.22860678607449547
64	0xbfc6fc64311d6b9b	-0.17957737348737343
65	0xbfbd557bfbf000a1	-0.11458563710039239
66	0xbf971a6f604f9745	-0.02256177926383109
67	0x3faa5666b4b43baf	0.051440438803289516
68	0xbfae15c74018cd2c	-0.05875990540917039
69	0xbf9a4ed678e9a6ad	-0.025691367273259647
70	0xbf92d253eb622817	-0.01838046192327888
71	0xbfc32198e774cecf	-0.14946280767036632
72	0xbfc58ce088b3b558	-0.16836172747518208
73	0x3fce132e63425ac0	0.2349603638328599
74	0x3f56f949c14455f2	0.0014022083533452548
75	0xbfa9444ecc696e3c	-0.04934927220594118
76	0xbfc4c60252933cbd	-0.16229275733937767
77	0x3f807046c1bc21d9	0.00802665022594422
78	0x3fc2bd94ff179d09	0.14641058402705934
79	0x3fcd5b38a3a0a18a	0.22934635152456578
80	0x3fc6996b32615cc6	0.17655696830727247
81	0x3fb59fb4dddea81e	0.08446817795507441
82	0x3fb48167d9cd876c	0.08009957377865157
83	0x3f73ae6cbd91c085	0.004805016296003943
84	0x3f27645d6eed192c	0.00017846718352582927
85	0xbfc144d225feefc6	-0.1349127469565003
86	0x3fc18631da5a2a22	0.13690779840210704
87	0x3fc3e96b948b75e5	0.15556092026865467
88	0x3fbd1840ed00cd9c	0.11365133081635864
89	0xbfb8a8b79b7a4dc1	-0.09632442041247825
90	0x3fb98661de9191c9	0.09970676120571577
91	0xbfb080a9c2e501ff	-0.06446324356239329
92	0xbfadcf3bc7132c24	-0.05822169118035728
93	0x3f6c0d8ae8683f6a	0.003424426369072299
94	0xbf932c56cca2030e	-0.018723827590750246
95	0x3fc356679705ae23	0.15107436060076038
96	0xbfa2b4abb908a8b3	-0.03653465875352548
97	0x3fa1fc7efcaab8f1	0.03512951692879252
98	0xbf9eb077d512b1d5	-0.029970047359414515
99	0xbfb7c7f9e3ed533f	-0.09289514364838868
100	0x3fa2525e51c23220	0.03578467128781804
101	0x3fbc1dfe01877d11	0.1098326448186422
102	0xbfc8d91422d4500a	-0.19412471485759425
103	0x3fbfe53121348796	0.12459094105409316
104	0xbfce036726bfbda7	-0.23447884933510219
105	0x3fae477acdc268e6	0.059139096848598346
106	0xbfb83f474dd3d22c	-0.09471555376132618
107	0x3fad47f8704a946d	0.057189716060101904
108	0x3fc69e936fabe913	0.17671435311042014
109	0x3fb30eb84b84f1de	0.07444335788472453
110	0xbfc60d19a5e13560	-0.17227478599162804
111	0x3fb8b164448b44b0	0.0964567820876876
112	0xbfc9e580f684ec41	-0.20231639897414946
113	0x3fc42a2d82769e25	0.15753716345101157
114	0x3fbc88b0ce0191c9	0.11146073369452049
115	0x3fc956212fd58443	0.1979409678997702
116	0xbf9fdc38fc7b4708	-0.031113520059824956
117	0x3fbbab7adae32c8f	0.10808532566004402
118	0x3fa831728887f98e	0.047252253691101406
119	0x3fa1daeca0f106b9	0.03487338509195354
120	0xbfcb7b301dbe1479	-0.21469689800520422
121	0x3fcdfded83c4fc7d	0.23431176122719313
122	0xbfc54a46e5645800	-0.16632925225047757
123	0xbf7f764874733d2d	-0.00768116285981017
124	0x3fb4d21952f0eebe	0.08133085513048408
125	0x3fc2ad4a0b70c5ae	0.14591336783045733
126	0xbfc95b2439ecca04	-0.1980939181172091
127	0xbf801012ab9c881b	-0.007843156683126342
128	0xbfca65cf6caff52f	-0.20623200232504632
129	0x3f93734f39318b5a	0.01899455820638294
130	0xbfac8f71665ae79e	-0.05578188299610008
131	0xbf89939bdb9e9253	-0.012488572730782332
132	0x3fb54e32d43cae49	0.08322446519439909
133	0x3f9868f192f049ff	0.023837828248426614
134	0x3fb0c84b132db3b9	0.06555623262620615
135	0x3f926f758899aa74	0.018003307783525505
136	0xbf9e286d7030dd84	-0.029451093647563834
137	0x3f98828177c05f7e	0.023935339864777465
138	0x3faa1edd29dabf69	0.05101672302168831
139	0x3fa1dfe4ca1d7d6e	0.034911298439278635
140	0xbfb36d0a7ef61159	-0.07588258361471868
141	0xbf8af7a9650b8b05	-0.013167689701224736
142	0x3fbe2ec4d50337cc	0.11790113640310479
143	0xbfc81b483248965c	-0.18833258109332263
144	0x3fa1d32ff5f13e47	0.03481435658670456
145	0xbfc1462948f81a3c	-0.13495365202853005
146	0x3fa6ab36cf08c940	0.044275009892219774
147	0x3fabee253ff41fab	0.05455128102954573
148	0x3fac3ca15422b058	0.05515007164044111
149	0x3faffaefe62c8dff	0.0624613731836483
150	0xbfa1b145a2bd2bf3	-0.034555603137583456
151	0x3fa557dc955c90b2	0.04168595622312078
152	0x3fb523eb9818ce25	0.0825793501215278
153	0xbfc1b4c2a9277fa8	-0.13832886943327805
154	0xbfdd20305b887274	-0.45508965433854276
155	0xbfc06fc14148023d	-0.12841048896372512
156	0x3fc29f86fac4a75a	0.14549338573970766
157	0x3fc42779c7603866	0.15745470271253054
158	0x3fafef3c742a8af2	0.06237210195583555
159	0x3faa3097f108b66a	0.051151989148235114
160	0xbf7398bdd45cde41	-0.0047843375412451325
161	0xbfa59f6c0a1dc666	-0.04223191855897994
162	0xbf9921ecaa0adb07	-0.024543474081578
163	0x3f78067e39a4a376	0.005865567271293828
164	0x3f75108d03de3520	0.005142737236281364
165	0xbfadc6aacf6114eb	-0.05815633565411268
166	0x3f912891385bc6db	0.016756314339494743
167	0xbfc7ee414cd07a29	-0.18695846796704643
168	0xbfc317cb96ff4b13	-0.14916367409622264
169	0xbfb609888b158549	-0.08608296771628433
170	0x3fc3bd630dd7bde6	0.1542171304313193
171	0x3fcd583e11085c0d	0.2292554457824
172	0xbfbda4e9dbebde53	-0.11579763049291474
173	0x3f95d9e39b01d6e4	0.021338993392837305
174	0xbf9910db6cd25605	-0.024478367344803704
175	0xbfb270dda46bc8d0	-0.07203469528375028
176	0xbfca366ffb69a60c	-0.20478629852304697
177	0x3f9cd1136e018c7a	0.02814131125377315
178	0xbfc519d611bbc9bb	-0.16485095849891515
179	0x3fa0fa4d265f9c69	0.03315964787889742
180	0xbfc111cff65bf38d	-0.13335608987099726
181	0x3fb451cb483133ee	0.07937307846550798
182	0xbfc509b00336a6d8	-0.16435814053448072
183	0xbfb3d974a1b8481b	-0.07753685901869327
184	0x3fb512dd55678070	0.08231910071435933
185	0xbfd0a7208fd71bfc	-0.26020063444997255
186	0x3fc317465e2df66d	0.14914779280291005
187	0xbf79179770bd4006	-0.006126014293684539
188	0x3f8e1b8c898c3aac	0.014700982997536492
189	0xbf8364d0f3d04bf7	-0.009469635429956809
190	0x3fc6a76b2dfdbf14	0.17698421235717687
191	0xbfc28b885d41d78e	-0.14488319924901955
192	0xbfc7f8cc0d9d30b7	-0.18728018440959257
193	0x3f9be829fd57f9eb	0.02725282295977564
194	0xbfc2ff99370a809f	-0.14842524707365087
195	0xbfb57fae500fca56	-0.08397950605994117
196	0x3fd509355d8ec117	0.3286870397232788
197	0xbfc5d9a50696e1ce	-0.17070448705432145
198	0x3fa31e4b8da9f16c	0.03734050850195811
199	0x3fc9114c1d57ea15	0.19584037239822352
200	0xbfadf69ebc59190d	-0.05852218674822227
201	0xbf875c6d489343c0	-0.01140675904972166
202	0xbf98fae5a7d8090c	-0.024394596452119763
203	0xbf6c0b1661c78c19	-0.00342325564837288
204	0xbfb28720d210d3b6	-0.07237439278180954
205	0x3fb92a6b75c1b124	0.09830352425496308
206	0xbf90a3179973c72b	-0.016247147313101323
207	0x3fb5b34b5f8a9b65	0.08476706583551914
208	0x3f87aab1a9ef6b83	0.011556041716110027
209	0x3fbc15a9b989185f	0.10970555095363597
210	0x3fb302ea3a73b7b1	0.07426322867442427
211	0x3f7bf2fcfe1ac7f1	0.006823528530434318
212	0xbfbd8f67d61c28d8	-0.11546944596571806
213	0x3fa7995a5cda9090	0.04609186538189747
214	0xbfb8dc5c8079ddad	-0.09711244713422813
215	0x3fa58cad778868a9	0.04208890995160292
216	0x3fa6e0d3d75e023b	0.04468404773706821
217	0x3fc528ab66970a1c	0.16530363568570372
218	0xbf7968c723dc02a9	-0.00620343960849882
219	0x3fcf0e67e301c43e	0.24262713035889932
220	0x3f9f944c04d8ff36	0.030839145465733263
221	0xbfac9702a8b91f4c	-0.05583961782082145
222	0xbf89073f3f27e2c2	-0.0122208539150831
223	0xbfb9a860b5c6b399	-0.10022549093146295
224	0x3f82883ceaef37e6	0.00904891578639062
225	0x3fa351c6b6d0d3f0	0.03773327809941651
226	0xbfac39f59fe189f1	-0.05512969566986559
227	0xbfb4767eb2984b75	-0.07993308887698254
228	0x3fa440982e71f5e6	0.03955531660993099
229	0xbfbc042b0405114a	-0.10943859909190681
230	0xbfc4715b2f1fb56c	-0.15970935631723238
231	0x3fc26d3d5564e883	0.14395872754704805
232	0xbfb8f94e8d1d2440	-0.09755412049447987
233	0xbfc68f01463544bd	-0.17623916557434952
234	0x3fc7464ece05b9f2	0.18183312472997631
235	0x3f954565e744c42a	0.020772545090214013
236	0xbfbbe283141aff13	-0.10892504921775652
237	0x3fbaf4b5d018cfec	0.10529648142329479
238	0xbfc8d2920dcef4e4	-0.19392610239257302
239	0x3fb0a3c4e6cd3cea	0.06499891886527434
240	0xbfc6281b5f011a0c	-0.17309896601564423
241	0x3fbd725e13438760	0.11502635927493321
242	0x3fa5fa168c2fd36f	0.04292364560379879
243	0xbfbc23ac5fc601e9	-0.10991933191508675
244	0x3fd04dbd2f6c53fd	0.25474481230895646
245	0x3fba95523072ce23	0.10384095843146972
246	0xbfcd189bd2588c9e	-0.22731349726482092
247	0xbfc06b131635bfb9	-0.1282676561781935
248	0xbfbce717da779ee5	-0.11290120204614203
249	0x3fbc1bfc1687262a	0.10980201292036243
250	0x3fc8ef75d2719d85	0.19480774665428782
251	0x3facfdb1d72106d9	0.05662303687178189
252	0x3fa1838f5bb89537	0.03420684809342805
253	0x3fa6716a07da7e66	0.04383403154247105
254	0xbfc517498be88882	-0.16477317172490663
255	0xbf98768a980b3b1e	-0.023889699487706577
