Data/Breast Cancer Winsconsin (Diagnostic)/results/models/bcw_11.onnx (onnx, 416707 bytes, 5 tensors)

model.sequential_layers.4.Linear 4.weight f8 [1, 17]
0	0xbfe0ddf4726bbd05	-0.5270941004545483
1	0xbfe2517063f14de8	-0.5724412872318085
2	0x3fe3ab21606c248a	0.614639938664497
3	0x3fdf3bae5e8fb7b6	0.48801764711867734
4	0x3fe18568c2baf5f3	0.5475353053404305
5	0xbfe2869bd01cc4b9	-0.5789317192740305
6	0x3fe13b1b39d3eeaf	0.5384651307535558
7	0xbfe5b3a60f52b422	-0.6781797694471872
8	0x3fd992fb82c43888	0.3995960976616364
9	0xbfe31df9af722ba6	-0.5974090983084934
10	0x3fd986833e0c24b7	0.3988350015575394
11	0x3fe5decee31321e1	0.6834482607892448
12	0x3fe0f73ba694a88c	0.5301798108605609
13	0xbfe1e6d73eadf033	-0.5594288086135805
14	0x3fe100652b5801a3	0.5312982412870507
15	0x3fe1cbe3d189fe5a	0.5561389057692836
16	0xbfd94ae8c8edf9db	-0.3951971018031181

model.sequential_layers.3.Linear 3.weight f8 [16, 65]
0	0xbfc2d20e283cf280	-0.14703537907361763
1	0x3fc4702653a852c1	0.159672537659068
2	0x3fc376a5009850bf	0.152058244028586
3	0xbfc3a2818d434dc1	-0.15339679143526833
4	0xbfc6243fe2d6a5c1	-0.17298124862763412
5	0xbfbb98f5959773c0	-0.1078027239049808
6	0x3fb7a94a647df2ac	0.09242691949288923
7	0xbfbcf0ec42ef2a60	-0.11305119165550925
8	0xbfccfd6b53172ab8	-0.22648374135163407
9	0xbfb4ebca187f7c01	-0.08172286127181395
10	0xbfcfa8e8d758beb4	-0.24734220995877865
11	0xbfd0ce15765bfe42	-0.26257835920839423
12	0xbfbc9121c870638d	-0.1115895380356859
13	0x3f9950ba278077c7	0.024722012196541045
14	0x3fc7a8bcd67c0394	0.18483696434853114
15	0xbfd083f9215e32c7	-0.25805500277128285
16	0xbfd538e8926adef7	-0.33159841822224173
17	0xbfce12280099aa32	-0.23492908505734672
18	0xbfb644e722595b50	-0.08698887432670444
19	0x3fb6abcac032e15b	0.08855883781769107
20	0xbf9e95f95474d386	-0.029868980197722127
21	0xbfc7198b610471eb	-0.18046705472160282
22	0xbfb1bfc29816a048	-0.06933227742286008
23	0xbfd12d9cd3823163	-0.26840897231229216
24	0x3fd788729f8d8db6	0.3677031095632758
25	0x3fbcb51495d88b11	0.11213806780191883
26	0xbfc300508bf84ece	-0.1484471019217523
27	0x3fc2f3e303197d99	0.14806783343645405
28	0xbf59469a70092a06	-0.001542712038047457
29	0x3fd1c22375a610f0	0.27747427453165496
30	0x3fd8a81e3beb5368	0.38526111461151524
31	0x3fd82a26b1e2a3ea	0.37757270213711414
32	0x3fc2629709821d3d	0.14363372768660013
33	0x3fc9cfb1e33dac38	0.20165084453341975
34	0x3fd6b0e6f1b26845	0.35454724887097583
35	0xbfb4853003d5b875	-0.08015728086113134
36	0x3fb07b52b35f04f2	0.06438176039866386
37	0xbfc6b47686dbc033	-0.17738229355700383
38	0xbfb5a377f7c04a27	-0.08452558325397118
39	0xbf56c034bc3743d8	-0.0013885989181867588
40	0xbfd1395fbafb7fc8	-0.2691268278122121
41	0xbfc274f1980eeb80	-0.1441938393089366
42	0x3fd8c5aa2fe7fbb9	0.38706450155580857
43	0xbfba13474b3ca747	-0.1018566664394288
44	0xbfc822026a30a8e5	-0.18853788552343712
45	0xbf97eda78fd5ebfa	-0.02336751761820819
46	0xbfb3d390fc7203e9	-0.07744699633805364
47	0x3fbb69dddb6c75a7	0.10708414656661223
48	0x3fc0859fae1c2561	0.12907787324392486
49	0xbfc691d77d55808c	-0.1763257371885668
50	0x3f70cbeed24d9fd2	0.004100735565636131
51	0xbf7da4025d96b189	-0.007236489525365272
52	0x3fd82b7900498ca9	0.37765336063439264
53	0x3fd73398db95ebbd	0.36252423709782616
54	0x3fbf914705d43383	0.12331050770099065
55	0xbfc72bb1cd61c29f	-0.18102095154201422
56	0xbfd24b6fc6a86296	-0.2858542861954815
57	0xbfca62505d9264df	-0.20612530297220297
58	0x3fc2e7ad9ddefb7a	0.1476952572683919
59	0xbfa568a63374f470	-0.04181403520713267
60	0xbfd05c64f9d2db4a	-0.25563930889932307
61	0xbfb6ad47631a67f9	-0.08858152551184152
62	0x3fce6a59c25c8988	0.237620563414634
63	0xbfa66b73d24d2fde	-0.043788546964236494
64	0x3fab57ed6d1691d6	0.05340520817415821
65	0x3fa132ad083fca29	0.03358975148866634
66	0x3fcdb5a66519c43d	0.23210601746134954
67	0x3fc20e1b5b4f48f7	0.14105550726396363
68	0x3fc491d37ceda5ff	0.1607002601624998
69	0xbfd1d0334fe14e02	-0.27833254624167136
70	0xbfd52bc775f472d4	-0.3307970668700311
71	0xbfd0d4e9ab95f2dc	-0.262995164455601
72	0xbfa1a5648d14b7d5	-0.034464971753876895
73	0xbfbdb524bc4e47e8	-0.11604528043088147
74	0xbfcaaa063484d4ec	-0.20831372799299375
75	0xbfd1d27b833a1508	-0.2784718305122884
76	0xbf9918ee18bcb898	-0.0245091631506332
77	0xbfc12a8f44f0e9f2	-0.13411131731284304
78	0x3fc2b501e38ebc14	0.14614890681465964
79	0x3f985b40388102d5	0.023785594414451012
80	0xbfc80a90d796fe79	-0.18782244231077863
81	0x3f9b67693c4dbbaa	0.026761669450418836
82	0x3fb509c7e55a4209	0.08218049382617933
83	0xbfcebe4373b9812b	-0.24018138075462878
84	0x3fb609506b6ad9cd	0.08607962248320362
85	0x3fd4b6050abe3e2b	0.3236096005357207
86	0xbfd3b13f894a51a0	-0.3076933708882965
87	0xbfb464c15c06309b	-0.07966240402874052
88	0x3fb2491553db1ff0	0.07142766282333901
89	0x3fd3e3c2b7d7533b	0.3107764048884751
90	0x3fd021540eefa6fa	0.2520342012272604
91	0x3fb9187f18163556	0.09803003633552029
92	0x3fcc5432de399c68	0.22131954050857705
93	0xbfda221f6b88c1d3	-0.40833268643748716
94	0x3fa7cf1b737d0f34	0.04650197777530565
95	0x3f9dcfdaa7eae899	0.029113213061216035
96	0xbfae633cdb49e0ea	-0.059350873726488576
97	0x3fa47cfdd2949f5e	0.04001610942424237
98	0xbfd2745a5439f616	-0.2883516142390773
99	0x3fc65abda57d93b9	0.1746441896495108
100	0xbfbcfbdddb75fe6d	-0.1132181797784086
101	0x3fb56045b12737fc	0.08350024771718262
102	0xbfbe3d637c57f49d	-0.11812421594364016
103	0x3fc65a71bbc3e852	0.17463514011598363
104	0x3f881367ee97310d	0.011755763977725065
105	0xbfd6ff4333985fbe	-0.35932998694033447
106	0x3fd1c4bc6dd8ecfb	0.27763281562120284
107	0x3fbe2d5988249c6e	0.1178794820194626
108	0xbfc36ed216e74fa5	-0.15181947820985645
109	0x3fa1e0aa0711ef4e	0.034917176592868956
110	0xbfad4a3cbd5be66c	-0.05720701037894291
111	0xbfcc5b4f84822a7b	-0.2215365788473099
112	0xbfbcc49b0b48e4b2	-0.11237496400362337
113	0xbfb6732be9030fef	-0.0876948779942379
114	0xbfad92c4d15976b6	-0.05776038222823614
115	0x3fc1f68d4f66535c	0.14033666970194758
116	0xbfd35bda185c4252	-0.30248119715637245
117	0x3fb96136bc0f7881	0.09913961497611191
118	0x3fd300681e7cdfb5	0.29689982392619224
119	0x3fc11b840851862e	0.13365221410917755
120	0xbfd28b4435fd8328	-0.28975014946449784
121	0xbfd6e7b5cf8734f8	-0.3578924681322202
122	0x3fc57a6319c75062	0.16779745825499776
123	0xbfa61741b4129dc9	-0.043146184188397614
124	0x3fbf5a51e5f1591a	0.12247192252957398
125	0xbfcabd38918b472c	-0.20889956576007174
126	0x3fc3756f07846d52	0.15202129237227752
127	0x3fdc7ae8da734e81	0.445001805620656
128	0x3fd221de0e135f1c	0.2833171021897998
129	0x3fbf4b3895eb7833	0.12224153194571911
130	0xbfb4c7236d652a57	-0.08116361065655418
131	0xbfbb199afe07a99d	-0.10585945798781045
132	0xbfa7d86b43745d72	-0.04657302091998873
133	0xbfb9d63a1ad19d57	-0.10092509417301208
134	0x3fbad2712cbb6079	0.10477359144295119
135	0x3fbd1f444ec8fe01	0.11375834392037378
136	0xbfae9e0ec618e9c2	-0.05979963463001382
137	0xbfcf260725e35299	-0.24334802007674197
138	0x3fd94a4de66494a6	0.3951601743631933
139	0x3fcb3ae493faae46	0.21273476815746245
140	0x3fc33fe5ba3a7b6f	0.15038749306856
141	0xbf92d5c269693c82	-0.018393552478582105
142	0x3fb6e5f6ea0495ed	0.08944647992446848
143	0xbfc2fde531938bea	-0.1483732692787208
144	0x3f9343767830dbad	0.018812037549846106
145	0xbf92be0066ed7a2d	-0.018302923471646238
146	0xbfce3ba8e51603e2	-0.23619567094649968
147	0xbfc6d14313230748	-0.17826116976180573
148	0xbfc2bc75dfe01485	-0.14637635642444394
149	0xbfd576712dd552f2	-0.33535413242252254
150	0xbf98eb6a57b874ed	-0.02433553848651553
151	0x3fb9b8f979f000fd	0.1004787371348392
152	0x3fb75860ba13ba29	0.09119228880783993
153	0xbfd163152ba95d51	-0.27167252792192637
154	0x3fc3e43a50da95d1	0.15540245960180113
155	0x3fc3ef44e7b9eff6	0.15573941530953989
156	0x3fba549918ee237e	0.10285336359642192
157	0x3fd4e67ab36ea24d	0.32656734011337535
158	0xbf94d749067ca163	-0.020352498074460167
159	0xbfcc2b7857a6c6dd	-0.22007660179001834
160	0xbfbda723e2cce7b6	-0.11583160674209023
161	0xbfc5f602383ed308	-0.171570088828638
162	0x3fc99cdb95a33d63	0.20009941870237488
163	0xbfc878647f3313df	-0.19117408953584822
164	0xbfc16dcfdd72d01e	-0.13616369545855006
165	0x3fc0ebf7c9165e0a	0.13220116919249875
166	0xbfc856a042efa79b	-0.19014361637465246
167	0x3fcd757dfbc52ac8	0.23014807504144685
168	0xbfd5256ece6cd4b3	-0.3304097190733259
169	0x3fc82978f01daf66	0.18876563763057702
170	0x3fcb0543e1a45f30	0.21109817998580516
171	0xbfc1f8d7263925f6	-0.14040650717133446
172	0xbfcb7b6106aaaad5	-0.21470272851487118
173	0x3fcdd6a3309824b2	0.2331127154614357
174	0xbfae3abd914f5dff	-0.05904190443805745
175	0xbf955f8eb03cb92d	-0.020872334963479112
176	0x3fb9a6948fad20c3	0.10019806392404278
177	0x3faa5b77b629fd6b	0.05147909258539126
178	0xbf9dba158ed7bf18	-0.029030167430334236
179	0x3fc470e61bd642e9	0.1596953998491906
180	0x3fa9e5530c85ce85	0.05057773139824654
181	0x3fbbcb8fa8998c71	0.10857484689909015
182	0xbfb285138f11cb9f	-0.07234308474453009
183	0x3fa8b007891ee566	0.04821799801670572
184	0xbfcffe99e8cab8fd	-0.2499573122672202
185	0x3fadd297c23a4e47	0.05824732061332987
186	0x3fc3f09139bbaf28	0.15577903098107382
187	0x3fb6d12577d84fad	0.0891288201894997
188	0x3fcfd429cb1e4d09	0.24866220872772996
189	0x3fb785fe74d242e2	0.09188833572467162
190	0xbfc22867dee75a71	-0.1418580854794587
191	0x3fc45a92b997766a	0.15901407301037135
192	0x3fab5def5ed0f7f0	0.053451042484525035
193	0x3fcce3892320370c	0.2256938382637873
194	0x3fc5db327e4f8a3b	0.1707518688918571
195	0xbfd5dd1d31c97e6e	-0.3416207300378805
196	0x3f9f6e815e7d4e8e	0.030694981949024362
197	0x3fa8f274f5975d59	0.04872479913654599
198	0xbfcc06007174831a	-0.21893315830040977
199	0xbfb4f458a8bf2c4b	-0.08185342902940922
200	0xbfa85a2f88e2af88	-0.0475630621525332
201	0xbfe0824e4b7a1bc8	-0.5159064745101825
202	0xbfcb999fbf9327e5	-0.21562573293914436
203	0x3fd05fb82ad2287d	0.25584224874240374
204	0x3fc874966cc57024	0.19105797110648937
205	0x3f88546a3c529b52	0.011879758802320648
206	0x3fb2a0074159c55d	0.07275433869815147
207	0xbfaf355d3a9b6666	-0.06095401134889471
208	0xbfa19a58dfe9381a	-0.034380700428855174
209	0xbfd61d15417b19f7	-0.34552508730521886
210	0xbfae10404605f94c	-0.05871773581292192
211	0xbfba3741b07e6a8b	-0.10240564879351603
212	0xbfdaa1bf70f97080	-0.4161223033204422
213	0xbfc7efee4f369fda	-0.18700960986939102
214	0xbfe1aea4010d11bb	-0.5525684376266818
215	0x3f9c885e53c98e47	0.027863954414341554
216	0x3fc30b2a301b2f13	0.14877822255072512
217	0x3fae8eb7693c68ff	0.05968259009951459
218	0xbfdcc711fa863308	-0.44965028252845274
219	0x3fd268807c14e060	0.2876282893880724
220	0x3f8f06837c170fd8	0.015149142479351882
221	0xbfa93a5a695d9250	-0.04927332435798759
222	0x3fcb25770e4df5b6	0.21208084295714763
223	0xbfa877da788a58c9	-0.047789408888250735
224	0xbfd43f6a8b3c1150	-0.3163706168854974
225	0xbfc79c850b3788b6	-0.18446410224630022
226	0x3fc4f0c1f7d1e93f	0.16359734154304736
227	0x3fccae7dd5912c5c	0.2240750592048667
228	0x3fc37bdb3a10a9fd	0.15221729598245295
229	0xbfc07be314b76382	-0.12878073226491088
230	0x3fb5c379389519a1	0.08501393920332713
231	0xbfc0be778969f528	-0.13081258973753873
232	0x3fd5fef065b3c196	0.34368524486401364
233	0xbfc1949330ee09ba	-0.13734664811279435
234	0x3fbe2a15b75e199c	0.11782966353175656
235	0x3fd581aaf5c86e17	0.3360392952178883
236	0xbfde15c70de8a15b	-0.47007919653198876
237	0xbfb420ab18307227	-0.07862347927625334
238	0xbfaa93a064fd05ff	-0.051907551124269695
239	0x3fc9a4c5d0bb0be7	0.20034096424032485
240	0x3fd32b8f6af45257	0.2995337051845914
241	0x3fa35bbfed8b8c1a	0.037809369799809825
242	0x3fc8f792764621f2	0.19505530142875177
243	0x3f85e6408625d44e	0.010693077176919055
244	0x3fbc585f639c1f1f	0.11072345907097912
245	0x3faa39836e5ba7cb	0.05122004243987951
246	0xbfa92320a785ad19	-0.04909612698505778
247	0x3f801fa95f14d959	0.00787288972297222
248	0xbfc324ccf5e417f2	-0.14956056600948348
249	0x3fd3b56c6947abc9	0.307948210537401
250	0xbf93b19f6d16d4c3	-0.019232264550471678
251	0x3fc60dd92c975ae1	0.1722976176958673
252	0x3fc2844ee6f3f86f	0.1446627261829607
253	0xbfc31149500858d2	-0.1489650383743482
254	0x3fce63314132eeb2	0.23740211185019217
255	0x3fc084e493e6f9c8	0.12905556890286918

model.sequential_layers.2.Linear 2.weight f8 [64, 129]
0	0x3fb98612e75e9dc3	0.09970205448791263
1	0x3fb33504da04da56	0.07502775500038558
2	0xbfd354a0fec45638	-0.3020403373678593
3	0xbfbb97690d02109f	-0.10777908866481532
4	0xbfc79471bdfdd033	-0.1842176606838862
5	0xbfc7f300d2b6f6ae	-0.18710336960605417
6	0xbfc6fa90cb9f3e4e	-0.17952165548784865
7	0xbf9b47e60f2f372e	-0.026641459156784446
8	0xbf9a3508c0c12be9	-0.02559293438416069
9	0x3fb84e965f5f4d26	0.09494914844917854
10	0xbfba39e590653755	-0.1024459340598843
11	0xbfd50c0c568e3d3e	-0.32886036350915393
12	0x3fc35e0a80a37bcf	0.15130740433866527
13	0x3f97a609d2292ce3	0.023094323589515475
14	0x3fa64bd387f3fc87	0.043547258706888185
15	0xbfb6ba70d76b2273	-0.08878236064186655
16	0xbf9ef4cd86195058	-0.030230723676439503
17	0xbfc755016b499b2b	-0.18228166330956105
18	0xbfa7bbadbf6aeeff	-0.04635374986307105
19	0x3f88c4e677ca1468	0.01209430745189817
20	0x3fbb62d0632f8db6	0.10697653218772171
21	0x3f9f5b7c61f571be	0.030622428397110595
22	0xbfc3d64fb2564c41	-0.15497776229730856
23	0xbfabe7c0aa4edd15	-0.05450250700908491
24	0xbfd2fcf3f19e716f	-0.2966890201148748
25	0x3fc7c607f9b56421	0.18573093121338594
26	0xbfc563501ed5b8da	-0.16709329133613587
27	0x3fc5aabc0c97f444	0.169272905492024
28	0x3fc3a8f2dbbd3e90	0.15359340409712674
29	0x3f9c62bea6704dd7	0.02772043124066478
30	0xbfab427b174f9f6f	-0.05324158343847684
31	0x3fa47043cf9dc430	0.03991901311281543
32	0x3fab0228f29480a9	0.052750854121997044
33	0xbfa52800690daad1	-0.04132081301107394
34	0xbfc97da581f09451	-0.19914692730631825
35	0x3fa6231e0e7bc308	0.043236674564360256
36	0xbf3ec0c7ae118d56	-0.0004692542552843978
37	0xbfa49e3067489f6e	-0.04026938687121527
38	0x3fb40f9d778130f8	0.07836326758951262
39	0xbfc2c34c20f0ecd2	-0.14658500297978222
40	0x3fc2dc8eb532021d	0.1473558792822737
41	0x3fbb66dd7f2c5c0f	0.10703834872070693
42	0xbfa7109af312f91c	-0.04504856316769887
43	0xbfc7e4c22c0a1055	-0.18666865492207543
44	0xbfc6a8cb5a0ac830	-0.17702619453990698
45	0xbfb8a69fa6e1c7fc	-0.09629247497812793
46	0xbfb1359055baf3a9	-0.06722356884979654
47	0x3fc4fc397052008a	0.16394727692022953
48	0xbfc067d64f5bba7f	-0.12816885828893373
49	0x3f9ec306c4a2f882	0.030040841819520832
50	0x3faf96e47b0e3a6b	0.06169809343474671
51	0xbfc284f47da06aa1	-0.14468246587860725
52	0x3fc60bfe84ed08a0	0.1722410344173726
53	0x3fc5e2f95946b727	0.17098919734183335
54	0x3f8372cc0c524c84	0.009496301771184663
55	0xbfc507f3c698aca3	-0.16430518338288377
56	0xbfaa2bd071e24bda	-0.0511155261057394
57	0x3fb2dffe6e5dc2c5	0.07373037523735622
58	0x3fa83e27598a262b	0.0473491951752972
59	0xbfa79419e49aa7a5	-0.04605179706170696
60	0xbfc704f76f456bf2	-0.1798390668216992
61	0xbfa6b1f47d54e5ca	-0.04432643918921604
62	0xbfb1e4c30bbc48ec	-0.06989687954436236
63	0x3f8d5dc44703971f	0.014339002053428694
64	0xbfba108a5b29a06a	-0.10181488729142676
65	0xbfa7c962ec077474	-0.04645833140578129
66	0x3fb268b4ccd2f0a4	0.07191019058785969
67	0x3fa57dbb6ab8951a	0.04197488477465523
68	0xbf6b0f51983c81c4	-0.0033032029767954014
69	0x3fad0bd678020c2e	0.056730940007604466
70	0xbfc5ee3abd403e0c	-0.17133268585938344
71	0xbfb063554ce94e9d	-0.06401570441931388
72	0x3fb1554b1d55a3f5	0.06770772424864886
73	0x3fb40ede48910c9e	0.07835187217374304
74	0xbfb41370294c2bda	-0.07842160232773612
75	0xbfc9eba302364ce9	-0.20250356300366626
76	0x3f9bc2f40f644d8e	0.027110875548783712
77	0x3f97dc824aad8f0a	0.023302112396222298
78	0x3fbd18fcb5696fa6	0.1136625235462235
79	0xbfc22b6986823769	-0.14194983547025267
80	0xbfd613fa6292506c	-0.3449693644154255
81	0x3fab1de736720830	0.05296251811616093
82	0x3fabcb089f9d6766	0.05428339909003803
83	0xbfb8352ecf692077	-0.09456150592552769
84	0x3fc036e7d32f00c5	0.12667558490466582
85	0xbfc2ce37eb36f6d2	-0.146918287135057
86	0xbfb5279da3fcd2f6	-0.0826357388840043
87	0x3fc6283bb1e725c9	0.17310281931558638
88	0x3fc39f97e413c13b	0.15330790173130446
89	0xbfa9060f9d716df6	-0.04887436673081062
90	0x3f91f555f4d742ec	0.017537444180393644
91	0x3fb402b5ac4d7ef9	0.07816634613618224
92	0x3fa85a4b821a5cff	0.04756389582797204
93	0xbfbaa46d91821e54	-0.1040714721913159
94	0x3fc66f2e13028fc8	0.1752679436514184
95	0x3fb6fcdff562ece7	0.08979606381301473
96	0xbfca1853721438c6	-0.20386736936820266
97	0xbfc3dace06311a60	-0.15511489202818307
98	0x3fb7c0fd288d7c87	0.09278852691703508
99	0xbfc07e5af9565b51	-0.12885605978655204
100	0xbfd1abf55a2b2435	-0.2761205082466092
101	0xbfcbef79fb42fccc	-0.2182457424987433
102	0xbf9c8fb6a5f33d0b	-0.027891973379891726
103	0xbf97a453ed390a98	-0.023087798456126934
104	0x3fc3ce711c920b83	0.15473760504763953
105	0xbfa24876d0d5134a	-0.03570910739157414
106	0x3faa38c15c986da5	0.0512142587214968
107	0xbfcbeb3652d933d1	-0.21811560674032518
108	0xbfafbf227b1e9603	-0.06200511696742341
109	0xbfa50dd164c255df	-0.041121047544190985
110	0xbfc2aea186939775	-0.14595431395644778
111	0x3fc598da5425a2b0	0.16872719868412878
112	0x3fb38a16176b0705	0.07632577964525573
113	0xbf9dcb86fa291dc2	-0.02909670736178583
114	0xbfd5b139f6bf7876	-0.33894204231717795
115	0x3fbcbf8a2bbb86f1	0.1122976643341891
116	0x3fc9363ae2b1739d	0.19696746891977748
117	0xbfc1e3b9fdd43a91	-0.13976216215128948
118	0xbfc4bfe7f28ce8ae	-0.16210650771410456
119	0xbfcec10ebfe27c25	-0.2402666508614583
120	0xbf9f037b6617cc47	-0.03028672037721616
121	0xbfb19ece32406c22	-0.06882942892882274
122	0xbf8944e04dfff617	-0.012338402157179336
123	0x3fcbcfe045785348	0.21728137390223368
124	0x3fb218d83c319b63	0.07069159955572739
125	0xbfc2415aa7e38e65	-0.14261944959354192
126	0x3fa2c5481363d7c8	0.03666138874716257
127	0x3fb042f33776e0e7	0.06352157692061021
128	0xbf786e44019d820c	-0.005964532518050191
129	0xbfc562d2130f7915	-0.1670782654827653
130	0xbf9a8aa11f203324	-0.025919454121367327
131	0x3faea236028f01c9	0.05983132153733412
132	0xbfc7d4e2771f8cf4	-0.18618422333302187
133	0xbfc8077886a2d4d4	-0.1877279908564221
134	0xbfba13dc4ac28141	-0.10186554742040689
135	0xbf9af6a6bb1c6c2d	-0.026331525011397062
136	0xbfc834ec03978b07	-0.1891150491274731
137	0x3f972fb6632462fe	0.02264294605365346
138	0x3fc3a45be5f9afbd	0.15345333794846097
139	0xbfb6f8cabecf4f91	-0.089733764252115
140	0xbfc7d88cc1d12d58	-0.18629607642865653
141	0xbfcd0ea94ba947bd	-0.22700992769619957
142	0x3f94b8d4710d33c7	0.020236319923515624
143	0xbfb15a68818d30c8	-0.06778577006224673
144	0x3fbab9c80d78dd17	0.10439730004224078
145	0xbfc1950b191f23f5	-0.1373609421409864
146	0xbfcc234733d33823	-0.2198266032268644
147	0xbfbd37896ca95bf3	-0.11412867453451252
148	0xbfbb31356de5e0ad	-0.10621961529784825
149	0xbfc3ed0a1fea67d7	-0.15567137297040176
150	0xbfb5f9bc507cd8bb	-0.08584191288977909
151	0x3fa8f44161651507	0.04873852075483325
152	0x3fcb12db3bdf56ba	0.21151295112092844
153	0xbfb5df03fa79d359	-0.08543419709333246
154	0xbfc8b01751a98973	-0.19287387359060978
155	0xbfb5cedc146a27a1	-0.08518767832188569
156	0xbfc864097dd9520c	-0.19055288929907055
157	0x3fa4ff287710edeb	0.04100920155948614
158	0xbfb9120cc665731b	-0.09793166965159765
159	0xbfc60e84a7234d49	-0.17231805954961946
160	0xbfc1acb1996adfd2	-0.13808269492233066
161	0x3fa83911f1095b7e	0.04731041018810965
162	0x3f9a0daf7504376b	0.02544283057891709
163	0x3fba8e9217f174fb	0.10373795589972083
164	0x3fb0ec04a4ac1bbe	0.06610135097808631
165	0xbfac371ed9635ac2	-0.05510803607619642
166	0x3fc3c017c601d418	0.15429970901792056
167	0x3fa38dad1509f207	0.03819027787992373
168	0xbfc9e5560e6ec578	-0.20231128411027632
169	0xbfa43ba87e1ad594	-0.039517655748038255
170	0x3fab91951370a18c	0.0538450800161768
171	0x3f924adbf0801167	0.01786368995091561
172	0xbfbabfa7c7b138e8	-0.10448692918109581
173	0xbfc3e92b9b5f9bc0	-0.15555329405398588
174	0xbf9638787d7dedf8	-0.021699793490808944
175	0xbf989b4f79bbe393	-0.024029962353754163
176	0xbfad4d3ee7cb54c3	-0.05722996310729791
177	0xbfce0693cc7e35c7	-0.23457572445879135
178	0xbfad296257e4125a	-0.05695636103522324
179	0xbfbf959905bae5b6	-0.12337643041509846
180	0xbfca3afeee396109	-0.20492540962255415
181	0x3f7e9908ffe6280d	0.007470164446553807
182	0xbfb9913457d538e6	-0.09987189430578133
183	0x3fbd86efe3ae1084	0.11534022625534318
184	0x3fb9799595806bdb	0.09951147937719844
185	0xbfc7ce13c4e6fab0	-0.18597647776001258
186	0x3fa981ab854f13cd	0.04981742861085756
187	0x3fc1d1fb93434fbb	0.1392206639344503
188	0xbf961b2a22ef570d	-0.021587999708422113
189	0xbfc0b20eaa5dbd03	-0.13043387716923158
190	0x3faac67c215bce27	0.052295569488617404
191	0x3f916f1b5843650b	0.01702540136543455
192	0x3fa779bfce87a2c2	0.045850748025093604
193	0x3fc5fa5b61d5e337	0.1717027881348032
194	0xbf94d8e5c849d3fe	-0.02035864863360714
195	0x3fc02a2d2b34fda2	0.12628712281910476
196	0xbfcff35fb6802c2e	-0.24961468135038117
197	0xbf9bcba3d241e4b1	-0.02714401217278767
198	0xbfcaa5b3e7c6df9c	-0.2081818467829607
199	0xbfcb3e0ff30e8eb6	-0.21283149116526595
200	0xbfc5f8d568b49b4b	-0.1716562997109697
201	0x3f942f5f14c4781c	0.019711957590622928
202	0xbfceffee2bbd5483	-0.24218537460061293
203	0x3fa6c96b88dffd0f	0.044505463083618683
204	0xbfc189dadf958576	-0.13701949994269186
205	0xbfc78631deba4e3b	-0.18378280043963166
206	0x3fc27729291a5f99	0.14426149851783235
207	0x3f91950f9c15dcac	0.01717018499536198
208	0xbfaacc3d588ba0c0	-0.0523394747340844
209	0xbfc48e8a19d629f6	-0.16059995900680207
210	0x3fc34fc6b90b4586	0.15087207827904708
211	0x3fcaa9491623d68a	0.20829118329099955
212	0xbfb77d02c720bfb6	-0.09175126420518506
213	0x3f9f7e14eb448af6	0.030754401073077774
214	0xbfb4e3b14f890cdd	-0.08159931365758007
215	0x3f767f86d1d904cd	0.005492712630769958
216	0x3fc6297dc3305707	0.17314121275619973
217	0x3fb2c6f49ff64510	0.07334832101175359
218	0xbfc6f889b5f79f32	-0.179459775782783
219	0xbfcedaa7483c498d	-0.24104777361987964
220	0x3fb355c114ec2fa6	0.07552725563817705
221	0xbfc579b137d34a20	-0.16777625299307974
222	0x3fa779b49cef63df	0.045850414425963264
223	0x3fc4f635837e3a88	0.16376370354233338
224	0x3fc0b74b486ca0f3	0.13059369121879846
225	0xbfaf2367018e13dd	-0.06081697362882441
226	0x3fcc515642216bf0	0.22123220662146492
227	0x3fca7f75d7422a0f	0.20701478014628136
228	0x3fc71788d3eb674e	0.18040571544298206
229	0xbfb05d14995cd53c	-0.06392029518322756
230	0x3fa21648bc3ffb6c	0.035326264362075616
231	0x3fd1e1541b7db933	0.27937796291998324
232	0x3fb6006437e6c3b1	0.08594347348004196
233	0x3fbe76d7969fa59d	0.11900088717779629
234	0x3fca76f5726ef15b	0.20675533378188046
235	0x3f9caf9228037ad6	0.028013499920116335
236	0xbfc4cfde980dffa6	-0.1625936739401343
237	0xbfc39ffa572d0e1c	-0.15331963783874947
238	0xbfc362e9f875e45e	-0.151456114119159
239	0xbfa1b70a5b8fe74e	-0.034599612881676664
240	0x3fb78ad4a825bad1	0.09196213822518053
241	0xbfc3e51a94993910	-0.15542919402873467
242	0x3f95fc7d5222db22	0.02147098363704026
243	0xbf84924f825559a7	-0.010044690289458936
244	0x3f96383af6dacdad	0.021698876683058966
245	0x3f987a7c7641f424	0.023904747693894404
246	0xbfbdc122892856d5	-0.11622825478147132
247	0xbfc15816117064d3	-0.1355006776000552
248	0x3fb58cf7d85d427a	0.08418225319224773
249	0xbf9f12361b14d6f4	-0.030342908289830953
250	0xbfb8519c7b476bd7	-0.09499528894177388
251	0xbfd0b671744a5e9d	-0.2611354480409121
252	0xbf8f9b26477c661f	-0.015432642990663102
253	0x3fc6ed8954ec89c9	0.1791240372341021
254	0x3fcbd9803b3631e8	0.21757510081478348
255	0x3fbe35aafa60652a	0.11800640690525613

model.sequential_layers.1.Linear 1.weight f8 [128, 257]
0	0xbfa86167ce5c0fa0	-0.04761814493215799
1	0x3fa29adc89175cf4	0.03633774922826119
2	0xbfbb0fc21d131188	-0.10570920190645527
3	0xbfa20b2bc5899b9e	-0.03524147783610164
4	0x3fb238851158cd36	0.07117492364414066
5	0xbfc77eeb9f89331d	-0.18356080331650385
6	0xbfbc296bca2c2015	-0.11000703512047523
7	0x3fabb6fb41409a64	0.054130412783980814
8	0x3fb400b4097193f0	0.07813573103483384
9	0x3fb71e2147cf6e38	0.09030349734478527
10	0xbfa5a2a90e43bc33	-0.04225662516716291
11	0x3f91051118269ffa	0.01662089071183457
12	0xbfbda313bf31f876	-0.11576960962153912
13	0x3f951cbe64e90863	0.020617461117815938
14	0x3fb5112834ce6556	0.08229304589476291
15	0x3f892b5077127a2a	0.01228964675311513
16	0xbfc0b10ea2992980	-0.1304033559739075
17	0x3fbda3b0444b3094	0.11577893893553642
18	0x3fbb394eb421389d	0.1063431920785853
19	0xbfba89862d1ae17c	-0.10366095162578931
20	0xbfc10098af3209de	-0.13283070139375658
21	0xbfbd72ea915f5131	-0.11503473328713622
22	0xbfa9002c08be8124	-0.04882943732013903
23	0x3fb0af482bbb49ce	0.06517458980241672
24	0x3fc16df48a3309fe	0.1361680674363725
25	0xbfc0f98d467c716e	-0.13261571828560242
26	0xbfa6f0b0b5e9728b	-0.04480507107357309
27	0xbf70d744c5ce6225	-0.004111546176226476
28	0x3fc03e497aa7b07b	0.12690084923758946
29	0xbface2cb5f5fcb6b	-0.05641780413852512
30	0xbfc13db9fc485752	-0.13469624346242398
31	0x3fb4bef41ef1cb78	0.0810387206600306
32	0x3f84f9eefdaff190	0.010242335431023958
33	0xbfc2a99a8763c6c1	-0.1458008919794818
34	0xbfa380331057b474	-0.03808745932097049
35	0xbfa0dc718a501e69	-0.03293185056105303
36	0x3fa67595e4cc4b0f	0.043865856341787184
37	0xbf91d801ac23ee65	-0.017425562030423686
38	0xbfc94eb8b1defc1e	-0.19771488843068225
39	0xbfb538c13fb38511	-0.0828972607155445
40	0xbfb6143fd6cf8212	-0.0862464808883561
41	0x3fb0a392cd7e5644	0.06499593274050947
42	0xbfc653a1171b9129	-0.17442716244034642
43	0x3fc14695527419fe	0.13496653104830608
44	0x3fb506919fd1d83c	0.08213148261879238
45	0xbfa1b390321b7290	-0.03457308398876535
46	0x3fbd847bd0ece8cc	0.11530279017179906
47	0x3f9c6b6f336f12e4	0.027753579630160355
48	0x3fbbcbf3a098d67e	0.10858080550027613
49	0xbfc15aa5762f4f35	-0.13557880659811308
50	0xbfb1b7e3bafdd84f	-0.06921218219017188
51	0xbf99c2f931f890ad	-0.025157827067361072
52	0x3fb0b57e825882df	0.06526938135403836
53	0xbfcac762262c3a6e	-0.2092096983328306
54	0x3fb5fc187490cbe4	0.08587792249527088
55	0xbfaca18948019d3a	-0.055919923820335574
56	0xbfb1d757f3e34c22	-0.06969213203710514
57	0xbfbfb061695aee8f	-0.12378510305546285
58	0x3fc099ed71169b10	0.12969749471559355
59	0x3fbcf3f986aeec79	0.11309775865713502
60	0xbfc8d728f826e942	-0.19406616322323528
61	0x3fc15e10f56a5768	0.13568317397283214
62	0x3fbc35c100686a37	0.11019521961171895
63	0x3f5859432575c218	0.0014861255384311985
64	0xbfb9a50f08d2a0aa	-0.10017484631919396
65	0xbfb66cbf1bf669f3	-0.08759684021644158
66	0xbfad1eeb0a6036a4	-0.056876511589604634
67	0xbf9e02bad41d717b	-0.029307288357232047
68	0xbfaca2381653365f	-0.055925133443093904
69	0x3fb6cab1f7e2e91e	0.08903038312829323
70	0x3fba9e39f176b2c2	0.10397684235676777
71	0x3fb50fa42ce1cee7	0.08226991744760036
72	0xbfb638991fbfa3f1	-0.08680111909019651
73	0xbfc4c20d48371392	-0.16217199350481032
74	0xbfc04685aba7766c	-0.12715216523695305
75	0xbfc013a716d90fb6	-0.12559975257511063
76	0xbfbad870ae5fa401	-0.1048651147572315
77	0xbf8f423ed72e5bfd	-0.015263071958356628
78	0x3f9bfad0cf1165d4	0.027323973310876173
79	0x3fa78d63fc551531	0.0460005994341749
80	0x3f9892be97c6a769	0.023997285855933557
81	0x3fa7fe1dd654f49f	0.046860630429798926
82	0x3fb70bde43bc1a54	0.0900248446815593
83	0x3fa5486e9bbca745	0.04156823779187716
84	0xbfbf47c858e31e36	-0.12218906564805185
85	0xbfac6a6c2a3682df	-0.05549943938536272
86	0xbfc3573eb34c3444	-0.15110000376481214
87	0xbfc2bbecd4141cd4	-0.14636001925848652
88	0x3f850c455f32af29	0.01027731129428096
89	0xbf950081714b2e4c	-0.020509741344353835
90	0x3fae3358c7baaa93	0.05898549497699892
91	0xbfb75ff330abc781	-0.09130783022172119
92	0xbfc745854563ebc4	-0.18180910003851924
93	0x3fbfacdc3b52de11	0.12373138855297607
94	0xbfbfbf90671ab7f7	-0.12401678578564189
95	0xbfbade5b3e7dba2a	-0.10495538974439769
96	0xbfc10832cf0ea25f	-0.13306269750798358
97	0xbfb3cda750f61744	-0.07735677458375984
98	0x3fb3de30187f7749	0.07760906789868928
99	0x3f7dcb6e60814ec5	0.007274085197497453
100	0x3fa666219d21de5f	0.043747950011433494
101	0x3fb408edd88e9cbf	0.07826124703443592
102	0xbf9107f733d273b3	-0.016631948984116195
103	0x3fb00d089b1c4553	0.06269887720943261
104	0x3fb1de6541587a73	0.06979973645545971
105	0xbfa12bc837779707	-0.0335371558865472
106	0x3fbc404b6501c3ac	0.11035605636585782
107	0xbfba38fdf556ccd0	-0.10243212928508005
108	0x3fba5680e334bf0d	0.10288243815443483
109	0xbf819dea7eeea783	-0.008601982115425738
110	0x3fa5ac4cc9e6ae51	0.04233016934025769
111	0xbfb0f4956e444a98	-0.06623205129680299
112	0xbfc0f59a3247573d	-0.1324951882840483
113	0x3fbd2ba9b2e67ac2	0.11394749276812902
114	0x3fac61494d712b5b	0.0554297358545088
115	0xbfb5694bf436240b	-0.08363795005983847
116	0xbfc48e196dbc13dd	-0.16058652742518023
117	0xbf976b8dfa2b96ca	-0.02287122573297643
118	0xbfc23169b85aa1a7	-0.14213296415006235
119	0xbfbbd44fca7997d9	-0.1087083691905656
120	0xbfc1fba910b21013	-0.140492566253784
121	0xbf9c169bc5441853	-0.02742999450222101
122	0x3fc1e352a4cc873d	0.13974984213660405
123	0xbfc10887a526df51	-0.13307281078391012
124	0xbfaa84994d50b5a7	-0.051792898834132566
125	0xbf70e9e827c8ebdf	-0.004129320962017651
126	0x3fb132c2483efafc	0.06718076957529812
127	0xbf92912e10735275	-0.018131942514474326
128	0x3f89d2b43c4226e1	0.012608917321148496
129	0x3fa1f8cea0d9739b	0.03510137284749889
130	0xbfb9bf027fb1c8d2	-0.10057082765141281
131	0xbfa1ea69814368b8	-0.034991547612393814
132	0xbfa4dbc47fc800a1	-0.0407391935332282
133	0xbfabc891c240f8c1	-0.054264597857114356
134	0x3f837b5a14ad2d7a	0.009512618785854288
135	0xbfaecc023e3a4484	-0.06015021333326678
136	0x3fb61a138276b30a	0.08633539137981586
137	0xbfbc0d27360a826d	-0.10957570142137181
138	0xbfb801c0a607f77f	-0.09377674153799197
139	0x3f8709d23e247106	0.011249201318201073
140	0x3fa42092b78e1e5c	0.03931101313270055
141	0xbfbc6b7784753d01	-0.11101481422268834
142	0xbfc616de7dd6160f	-0.17257290977811165
143	0xbfb20a1290fb0216	-0.07046619453013422
144	0x3fb2d1b3515d1953	0.07351227508943241
145	0x3f8410a9840a012a	0.009797405569088886
146	0xbfb239d9466790df	-0.07119520157681646
147	0xbfc5f48a2d10a548	-0.17152526092949416
148	0xbfb28f8ee52d343e	-0.07250302405482587
149	0x3fbccd303d37a227	0.11250592703402927
150	0xbfc2c64c9e80d3b0	-0.14667661418357403
151	0xbfa73bad2207a601	-0.04537716904071588
152	0xbfbd4ba6c6e5d582	-0.11443559986022048
153	0xbf9ffd29c782a361	-0.031239178468840282
154	0x3fa1eb23c97da2a6	0.03499709925273935
155	0x3fb911969b0c6edf	0.0979246262108364
156	0x3f708b0346d8aedb	0.004038822936802434
157	0xbfafe8d4f6709020	-0.06232324131295308
158	0xbfc208205cc30648	-0.14087299851785162
159	0xbf8cb972cbc47161	-0.014025589793668915
160	0x3fa0fbd3553ed3a2	0.03317127624124018
161	0xbfb8f3dbe899fa01	-0.09747099331614352
162	0x3fbb2e3d3dfb8c7b	0.10617430461165782
163	0xbfc037edb4a8594f	-0.12670680352375505
164	0xbfb80be00306dccf	-0.09393119882485056
165	0x3fb6c4991fb69e9d	0.08893734955074213
166	0x3fb62f5b42da2f00	0.08666010267387136
167	0xbfc1f6a7b971d889	-0.1403398185245275
168	0x3fbc23c6cc1fa638	0.1099209068630892
169	0x3fa2295a599fa74e	0.03547174781836181
170	0x3f8f5c6fe00a1e0d	0.015313028359073244
171	0x3fa40935b08a9c9d	0.039132764625997775
172	0xbfb3e8096d8f6c56	-0.07775935101328577
173	0xbfa9d2629f60fcd9	-0.05043323703329756
174	0x3fb9ca491e7f40e3	0.10074288363034926
175	0xbf7f421970b01d8a	-0.00763139665196578
176	0x3fb1167cd321cae6	0.06674938349332712
177	0xbfa4743ece4e0810	-0.03994938152665395
178	0xbfbb70871004524a	-0.1071857847312653
179	0xbfa20af92c6deb5b	-0.03523996989584673
180	0x3f6dc7c60dd305fe	0.0036352985613070645
181	0x3faea60f3dbfd0ca	0.059860683715585575
182	0x3faeea1a814d4e80	0.060379818233426086
183	0xbf9820be306c95d4	-0.023562404351783986
184	0x3fc029d222306adc	0.1262762705744852
185	0xbfbdcae463ab2eb1	-0.11637713845555699
186	0x3fa99c0a4405e849	0.05001861648902712
187	0xbf9819fb8bde4b02	-0.023536615764508724
188	0xbfa6f03e4a6e28c7	-0.044801661096316496
189	0xbfb466aa62d775d7	-0.0796915522873499
190	0x3fb44cae3b2e1502	0.07929505295586028
191	0xbfc5b790a08b87b0	-0.16966445769417993
192	0xbf9daef25de0c9d9	-0.028987681369651106
193	0x3f8adf38c02bff9f	0.013121074070568116
194	0xbfb83909a798aef2	-0.0946203264399477
195	0xbfb195bc02d35c93	-0.06869101590142383
196	0xbfbc6d5a1ffa89cd	-0.11104357987145548
197	0xbf942b3a34d85af8	-0.019696149325762996
198	0x3fc0752eb49f5d56	0.12857612437685856
199	0xbfb7315eff21bafe	-0.09059709290316317
200	0x3fb967ab934bac7e	0.09923813196262363
201	0xbf8f684001a0da66	-0.015335559892361416
202	0x3f9a9615d3adbf67	0.02596315483555092
203	0x3fb3b977f7e415cb	0.07704877664590197
204	0x3f8c270b04ccc535	0.013746343692761268
205	0x3fc28333027a2d33	0.14462888356170253
206	0xbf6ce8e6784daac3	-0.003529024254409792
207	0xbfc21da6b3f948d2	-0.14152988231450664
208	0xbfb122579a1fd3b3	-0.06693027031708602
209	0xbfabb09d6edf87a9	-0.05408184030944991
210	0x3fb71f91c55bfc0e	0.09032546108572623
211	0x3fb4c6f7dbf778af	0.08116101379661943
212	0x3fa8a16b90366e9b	0.04810653815658591
213	0x3fb408d305ff407e	0.0782596482888511
214	0xbfb7924aa5a72505	-0.09207598251591172
215	0x3fb9431539582b97	0.09867985391626487
216	0x3f9eddd3dad07147	0.03014307997737944
217	0xbfb82e5d978cbf7b	-0.09445748281427584
218	0xbfb2857de1892647	-0.07234942203754101
219	0x3fb692f5680e2806	0.08817991056835703
220	0xbfbd85eb180d9709	-0.11532468163713018
221	0xbfb610b99c229e1a	-0.08619270383734837
222	0xbfbf6e24c6fdcd9f	-0.12277440889538703
223	0x3fa50d1385b8c09e	0.04111538894028509
224	0x3faca387b5da7bb7	0.055935135792644024
225	0x3f9001f59803dd48	0.015632474330201235
226	0x3f99850969daf291	0.02492155750836617
227	0x3f964b982439370f	0.021772744379908334
228	0x3fbf1d69131c0663	0.12154251781978469
229	0x3fb95af59d1fbff0	0.09904418073688226
230	0xbfc14fd01b8555bf	-0.13524819701949117
231	0xbf5faa8f096e7545	-0.0019327542156369487
232	0xbfba59834da4ae7c	-0.10292835851276466
233	0x3fb351152447a383	0.07545597205866099
234	0xbfb4fc511d6ea84e	-0.08197504967270783
235	0x3fc0f6cac60f6c4d	0.1325314967242285
236	0xbfb4431e0c05aed5	-0.07914912980566709
237	0x3faff9bbb2cfcf3c	0.06245218808899586
238	0xbfab8198fedbff3d	-0.05372312651706899
239	0xbfc007043d7184cd	-0.12521412849586114
240	0x3f822019aaff6959	0.008850288897453028
241	0xbfa9d4413f7e9f05	-0.05044750118332612
242	0xbf9a807f2554a695	-0.025880800870402416
243	0xbfbddbbea210b8e3	-0.11663428742096786
244	0xbf85f38341bfc7df	-0.01071836990738356
245	0xbf8f70e3647c7f34	-0.015352036003207205
246	0x3fb6d7918d338534	0.08922681519790815
247	0xbfb1df8e04024787	-0.06981742475389129
248	0x3f81d13499ef0c34	0.008699809024511486
249	0x3fbb947a1611859c	0.10773432768612284
250	0x3fb5e4c42524ceaf	0.08552194506483589
251	0xbfc1f85c88fa1d56	-0.14039189041452954
252	0x3fa63351dfb4f233	0.043360289152108676
253	0x3fb69b6ae42aca10	0.08830898352133709
254	0xbfc2726003a7f73f	-0.14411544970055876
255	0x3fa0ca97ceb99037	0.032795661911933775

model.sequential_layers.0.Linear 0.weight f8 [256, 31]
0	0x3fc624546a696d10	0.17298369594468754
1	0x3fab841332f726a2	0.05374202725540768
2	0x3fcba5548eee1ad9	0.2159829805279603
3	0xbfa5c62daf32fa16	-0.042527606617557875
4	0xbfb2ede0663c3f0d	-0.07394220825176152
5	0xbfc35a34604b19ea	-0.15119032575439856
6	0x3fc960d7a9a27457	0.1982678964895139
7	0x3fc971981389a9ad	0.19877911523810834
8	0xbfa048e158c19e25	-0.03180603226138271
9	0x3fa23c37e19a56ba	0.035615679063238884
10	0x3fb385baa29c3245	0.07625929326986476
11	0x3fbc239b91684e76	0.10991833019243721
12	0x3f8fba5f230bbdf8	0.015492194420828817
13	0x3fb27c868cdc214e	0.07221260966264717
14	0x3fc3609a398bc857	0.15138557252754722
15	0x3fb79be08542e916	0.09222224477244753
16	0x3fc8e49e32e08784	0.1944768665717299
17	0x3fd172f925af3762	0.2726424091350649
18	0x3fb9845e9150af62	0.09967604682668488
19	0xbfb0c5e75924db13	-0.06551977087370302
20	0xbfa4dc3786491886	-0.04074262155749957
21	0xbfa7d541558e08b4	-0.04654888314600339
22	0x3fc12f02e64d63b2	0.13424717183332074
23	0xbfa4c8c0754f40da	-0.04059411460878133
24	0x3fb4027bf0b1df1b	0.07816290499056004
25	0xbf80c6a7a05497b6	-0.008191403942486502
26	0xbfa76cdaf5a91c54	-0.04575237511431199
27	0x3fb5d533c906b6ae	0.0852844587122614
28	0x3fcb38ac7f842e9d	0.21266704775222403
29	0xbf9a72e7d17e2216	-0.025828954850597517
30	0x3fcc5cba94f8c0ec	0.22157985948570713
31	0x3fba4d1714ff6f14	0.10273880255357098
32	0x3f709ca9ff6c1874	0.004055656484302717
33	0xbfb3b7aa5ad48dda	-0.07702126233612408
34	0xbfb7e7a658423dd1	-0.09337844519381312
35	0x3fa0521345e00455	0.031876184730216174
36	0x3f40f5dee7310a64	0.0005175913232807303
37	0x3fb715395ba56257	0.09016760337306927
38	0xbfc13e6d7346018a	-0.13471763733469927
39	0x3fa7228e14a23e3c	0.04518550874592761
40	0x3fb418ff7f342d25	0.07850643973886358
41	0x3fb3447b0f63029e	0.0752636826100663
42	0x3fb66e3effbd062e	0.08761972182858166
43	0x3fc4cc276c003f67	0.162480285391662
44	0xbf99c0ffce301a68	-0.02515029617281997
45	0xbfc48c96354fd248	-0.16054036715617515
46	0xbfb904fe36b17dd6	-0.09773243747030533
47	0x3fbe64d0649e3e2b	0.11872580009934867
48	0x3fc90f40eaecb061	0.19577800246168223
49	0x3fc27c73da385f58	0.14442299037249984
50	0x3fc5490fc4bc50b4	0.166292162954624
51	0x3fbb53a627e81228	0.10674513315468259
52	0xbfb5f09c854a9cb6	-0.08570268873391992
53	0xbfb2ef0eea6fb08f	-0.07396023963491614
54	0x3fa73f735698909a	0.04540596420363947
55	0x3fa5e3f673d7758b	0.04275484241564261
56	0x3fa9c360fb85da56	0.05031874723765799
57	0x3fb97a31d14a7701	0.09952079162254891
58	0x3fb79091d12813b7	0.09204970699654678
59	0x3fbf54c15ba2bd47	0.12238701331329081
60	0x3fb259caca8d7c7e	0.07168261952527819
61	0xbfd4360b8965bf0a	-0.3157986490032135
62	0x3fa85c77cbdefc1c	0.047580474506951215
63	0xbfb4845e4ededae3	-0.08014478135633456
64	0xbfc71d242165cd6d	-0.18057681685204888
65	0x3fa81d76f2fdd0fc	0.04709979740337819
66	0x3fb04c6a9f4943ce	0.06366602314780254
67	0x3fab9482fdc39a8f	0.05386742923456211
68	0x3f820e40eaa6a61f	0.008816249047259693
69	0x3fb01eb28b2b1df9	0.06296840570131924
70	0x3f96e0a5b84b0336	0.02234133660636247
71	0xbfc435e971f10dbd	-0.15789526046328986
72	0x3fc72b00540305a6	0.18099979498042024
73	0x3faa0d93dd280505	0.050884838816282175
74	0xbfbfc06c758e894b	-0.12402990217245706
75	0xbf841e14771ee9a5	-0.009822997937466502
76	0x3f9104b77bd21326	0.016619555408868746
77	0x3f68c0d2f7f0d3b5	0.0030216331938625837
78	0x3f9624f12ce719aa	0.02162529789509341
79	0xbf94d76a64215729	-0.02035299526354276
80	0xbf6a55d13060c093	-0.0032147489282792845
81	0xbf8bebe7805f3c08	-0.013633545498946034
82	0xbfc716c20d9b0c3c	-0.18038201965654987
83	0xbfc0944acd49497c	-0.12952551864379902
84	0x3f96fc57687628e0	0.022446981192424498
85	0x3fa40f2015b4e454	0.03917789711926703
86	0xbf8d2b18299c87ce	-0.014242352266197768
87	0x3faf1ec78186bf64	0.06078170257694529
88	0x3fb8bc1f37eb5c97	0.09662051310748364
89	0x3f90b99a01646756	0.016333013854001287
90	0x3fa11816a36e64d7	0.03338690514574132
91	0xbfb9eaf7b128f875	-0.10124157023617093
92	0xbfc858515631c45b	-0.19019524296485
93	0xbf43003983adc87f	-0.0005798607665907922
94	0xbfa43255d8ffeddc	-0.039446528186058066
95	0xbfb88693ce05d895	-0.0958034875855865
96	0x3fb62b487965d509	0.08659794772923503
97	0xbfb07164c7e670e1	-0.06423025017142293
98	0xbfa1c30179095349	-0.03469090082641075
99	0xbfb366ded7e6979a	-0.0757884289838259
100	0x3fc0210eb51969d7	0.12600883333909849
101	0xbfb96cc9a5a15076	-0.09931621831612056
102	0x3fc9901e767b33dd	0.19971066270082263
103	0x3fb2b24707e0849b	0.07303279821691648
104	0x3fc07691851b7d94	0.12861842154869108
105	0xbfc105344d027b5c	-0.13297132263411526
106	0x3fb79e9e69ffe630	0.09226408088570603
107	0xbfa45405c606fb00	-0.03970354120564501
108	0x3fd07bac686a23ff	0.2575484294580405
109	0x3fba0dea16955164	0.10177481700276797
110	0x3f9e1e5f286f0e56	0.029412733881839813
111	0x3fc6966a17831229	0.17646528385206864
112	0x3fc1eb5cd502bb12	0.13999519730483506
113	0xbfc507cf6316f918	-0.16430084551206714
114	0xbfc185fbd7f87b88	-0.13690135999146613
115	0x3fc49e4535f366b5	0.16108002790752143
116	0xbf9c72e87068e513	-0.027782089100786566
117	0xbfbce29032f09d54	-0.11283208125734251
118	0x3fb824486e20c93d	0.0943036335818634
119	0xbf7bb0b997d48d7e	-0.006760334942814137
120	0x3f8454d4b532e5e2	0.009927427081822541
121	0x3fb43eda37b15042	0.07908405170138713
122	0x3fa1bd81d920351c	0.034648950342765356
123	0xbfd3e661964693a3	-0.3109363524948156
124	0xbfa79911d46d128a	-0.04608970373241046
125	0x3f93742b40ce6e00	0.01899783690497081
126	0xbfafc41cb8b0c2d2	-0.062043092293952676
127	0xbfabec993f7d6c63	-0.054539479255901545
128	0x3fac569bf70f4bf0	0.055348276051198186
129	0x3f876076c6637d55	0.011414459161129523
130	0xbfb9645dcda1740c	-0.09918772001533699
131	0x3f92f1b1786011ec	0.018500111553310036
132	0xbfb2ea96ac17ed44	-0.07389203740597333
133	0xbfb3cd2223d52fcc	-0.07734883665869957
134	0x3fb099240b76a710	0.0648367431628254
135	0xbfc07f422d1247f0	-0.12888362122299624
136	0xbf9791c42a1d9de6	-0.023016991682565456
137	0x3fc1b6179d0a207d	0.1383695141596525
138	0xbfc0cb393323e782	-0.13120188710291464
139	0xbfb7074c0ebb025c	-0.08995509490615333
140	0x3fb40b757eb44a79	0.07829984992376095
141	0xbfa2cca0bc8ace19	-0.03671743680515877
142	0x3fc166956b82aa42	0.13594310521632919
143	0xbf924deeea19df9b	-0.017875416792292858
144	0xbfbfb2bc90489c19	-0.12382105371999365
145	0x3faed59e0f288e0f	0.060223521566765574
146	0xbfacb956196576b3	-0.05610150394452997
147	0xbf769b1cf5b2d9f8	-0.005519021152557084
148	0xbfb112ca229e26a1	-0.06669295640144891
149	0xbfb1c02b437da79b	-0.06933851621366076
150	0x3fce8642ddaf8b71	0.23847232651231878
151	0x3fc0c2df4561a343	0.13094702613605066
152	0x3fa8295fdfff9d58	0.04719066247326492
153	0x3fbb940741af9945	0.10772748330746136
154	0xbfdf14536c02d6dd	-0.48561559246023284
155	0x3fd1bda820d24bf2	0.27720072941991625
156	0x3fbfc05e65d6a45b	0.12402906404771967
157	0x3fc343219e638096	0.15048618539640718
158	0x3fcc38628df056a8	0.22047073298079067
159	0x3fc244f7ca735b11	0.14272973428042993
160	0xbfc0085c80f907c9	-0.12525516793726713
161	0x3fceeb5d4863976b	0.24155775103207175
162	0xbf96f0859e1f8508	-0.022401893402165945
163	0x3fa0f9dc0f067c61	0.033156277498385796
164	0xbfc11709c2e2b61c	-0.13351556793115626
165	0x3fa029a96310dd6d	0.03156785330105092
166	0xbfb2e9e77a7870b9	-0.07388159503938398
167	0x3fbf7dfd047bb809	0.12301617965178492
168	0x3fc7968a0d6b0875	0.1842815938489967
169	0x3fc62dd4e48eea17	0.17327366981574308
170	0xbf9b69eb5c1d9986	-0.026771237847606176
171	0x3fcf24c73c45748a	0.24330988352713617
172	0x3fd17e7d8c986a41	0.2733453629495309
173	0x3fc3c3f917587777	0.15441812171860267
174	0x3fb4fc469f1689f5	0.08197442420945562
175	0x3fd2d231c78b67bf	0.2940792511632217
176	0x3fd6a7b039d4e43e	0.35398488662355365
177	0x3fd24e6cdbdc7680	0.28603669615572613
178	0xbfa0de458442ab7e	-0.03294579734332269
179	0x3fb56859ecf44ebb	0.08362352404611333
180	0xbfb91fa42a519d94	-0.0981390574757966
181	0x3fcac2a1d6158f73	0.2090647025426012
182	0x3fba8e202415eebd	0.10373116379735854
183	0x3fcff040d74bac63	0.2495194483993571
184	0x3fb4bc7d2dcec3dc	0.08100111358977763
185	0x3fca85bd80a175a4	0.20720642834468805
186	0xbfa44851fa6f1a7b	-0.039614259548717855
187	0x3faee720f5b4fc46	0.060357122415091655
188	0x3f97850b8f40556e	0.02296846448742456
189	0xbfb33cf857df90b6	-0.07514907975525173
190	0xbfa6efc39ea96178	-0.04479800521648064
191	0x3fb58c6fc54b84d9	0.08417414252064094
192	0x3f86f574ded681ff	0.01121035866782538
193	0xbfa39b7165fa7bc3	-0.03829531068662775
194	0x3f9f81ad237bcfb4	0.030768113413571732
195	0x3fa3cb18776b26da	0.03865887124773133
196	0x3f9893244bf0377e	0.02399880136004339
197	0xbfc20c220c4055d3	-0.1409952697583053
198	0x3f9435a2fbd0c3fa	0.019735857600782204
199	0xbfc2c71fb2f073bb	-0.14670177685994
200	0x3fc3192695361cf6	0.14920503888809095
201	0x3fb4e7873492f309	0.08165783914132531
202	0x3fc7a7be69603ee7	0.18480663438139475
203	0xbfc50b1b62e5ebd8	-0.16440145806322337
204	0x3f8493fc734d283d	0.01004788615104612
205	0xbfb19b291bca84c8	-0.06877381256574033
206	0xbfca7c3d066ae407	-0.20691645444256343
207	0xbfd187866721d7af	-0.27389679023269314
208	0xbfb8ef1f5aca6c86	-0.09739871946878695
209	0xbfcc22abe2806c8f	-0.21980808791781611
210	0xbf9d809ffe384e68	-0.02881097783217826
211	0x3fc230208db4d1ee	0.14209372443441687
212	0xbfc83e3d07cfc76f	-0.18939936524798948
213	0xbfc52672a85bb05e	-0.16523583622563626
214	0x3f99db1c917eac7d	0.02524990690259842
215	0xbfabc1c9a9ba10b3	-0.05421285817013324
216	0x3fa619206774d663	0.043160450581507324
217	0xbfc16c99398b262f	-0.13612666425460548
218	0xbfa01e75ebbbbbd1	-0.03148239615062887
219	0x3fb8b64fee710ccf	0.09653186389282385
220	0x3fc5713ab28c8ee1	0.16751798361030182
221	0xbfa8ea54f5851c5d	-0.048662810297678695
222	0xbfc0ca22e05cd57d	-0.13116870837408703
223	0x3f9830aafe0e760a	0.023623153454186897
224	0xbfcd0b68e0849414	-0.2269106956747754
225	0xbf9ce834cf7897c3	-0.02822954670241252
226	0x3fbf58ec2beb9310	0.1224506003596384
227	0xbfb4e6f6aed08594	-0.0816492249291712
228	0x3fab104dc2907ac1	0.05285876274159796
229	0xbfae39fa1844bf72	-0.05903607889410879
230	0x3fa82ca1571af1d7	0.04721550167366544
231	0x3f7c7b1b081951f5	0.006953340141610633
232	0x3fae6a1f1faae097	0.0594033933788875
233	0x3fa2a00d3bd0f488	0.03637734751871685
234	0xbfbad901c8449658	-0.10487376345971577
235	0xbfb5e426dcec156f	-0.08551257032020997
236	0x3fb2c67748ece3c4	0.07334085016635955
237	0xbfc72f7f269145ab	-0.18113698371102535
238	0xbfa1cbcd938fa955	-0.0347580187443152
239	0x3fb5faf6c39f351b	0.08586065555501358
240	0x3fbaf750fd63449b	0.10533624826645609
241	0xbfc227c6ea433f8d	-0.14183889807327113
242	0x3f8c1f7aff257f07	0.013731919204189603
243	0x3fbd1bb3ff7a1c14	0.11370396601897453
244	0xbfb5e2deedc6153c	-0.08549302392028307
245	0x3f9041ebeafbdadc	0.01587647077300401
246	0x3fa9c29118e985d8	0.05031255177597033
247	0xbfcc0b1d91914637	-0.219089218213911
248	0x3fcbeec6d087b85a	0.21822438413750228
249	0x3fb1da10477b411e	0.0697336363330163
250	0x3fc05ed4749c787f	0.12789397901446262
251	0xbfcc05059ce9c338	-0.21890325700544522
252	0x3fbe5e525b559383	0.11862673501816627
253	0xbf85f0721488dde4	-0.010712519885699608
254	0xbfc20b7b9e12426b	-0.14097542970968688
255	0xbfadd7f75055aa62	-0.05828831535003044
