Data/Breast Cancer Winsconsin (Diagnostic)/results/models/bcw_worst.onnx (onnx, 416707 bytes, 5 tensors)

model.sequential_layers.4.Linear 4.weight f8 [1, 17]
0	0x3fdcd35846233b50	0.4503994641244633
1	0xbfe3e612178e9f1b	-0.6218347988223941
2	0x3fdaf633ee04b0eb	0.421277029456873
3	0x3fdf2ced3b4875c1	0.48711710728988683
4	0xbfe0bb3f33f78d13	-0.5228572859745405
5	0x3fe1f77e57eb06a8	0.5614616124296008
6	0xbfe300ae30489aa7	-0.5938330596007589
7	0xbfe115307dce5520	-0.5338365990780041
8	0xbfe05467a41b7af5	-0.5103033261510449
9	0x3fdf73063027c420	0.49139551832837647
10	0x3fde6f9f66822dcd	0.4755629063663179
11	0x3fdd0483d96e403f	0.45340057595695166
12	0xbfe19be1e3221484	-0.5502786098665102
13	0xbfe35f516fd6cba7	-0.6053855118137691
14	0x3fdde01b73207448	0.4668034195217996
15	0xbfe1fe992dae6d02	-0.5623289005483516
16	0xbfc2a464b2354b15	-0.14564188672610415

model.sequential_layers.3.Linear 3.weight f8 [16, 65]
0	0xbfc00fc536c6d0ac	-0.12548127340926862
1	0x3fc70dd8b45b5555	0.18011006170733404
2	0xbfb8a8a8d8036828	-0.09632354043733982
3	0xbfdce2afcb610df2	-0.45133585797540754
4	0x3fc55d5c3ae0e7ac	0.1669116294377181
5	0xbf7a9bd16da9411b	-0.006496255950495101
6	0x3fce918ff5d11e86	0.23881721022393182
7	0x3fcce1a4611f033b	0.22563605062716782
8	0x3f953859f8d8587d	0.020722776234912466
9	0xbf969b362393d4a3	-0.022076459809757264
10	0x3f841c27281386d1	0.009819322500735169
11	0xbfd2d90e0182d402	-0.29449796817363005
12	0x3fdad4937bad4d24	0.4192246158392712
13	0x3fcabbef66dda295	0.20886032603018082
14	0x3fdaf2bf066ec699	0.42106605175204376
15	0x3fb167a1f3370bd2	0.06798755824915695
16	0xbfccb091f943daa0	-0.22413849517007112
17	0xbfc550ca424dc5a7	-0.1665280174016008
18	0x3fb749ac245ea383	0.09096790206844045
19	0x3fb0749f1f9e87e7	0.06427950403170223
20	0x3fbea70e4acd0148	0.11973656965438295
21	0xbfb8e09b1cb89926	-0.09717721415708933
22	0x3fa8044967effebf	0.04690770524757459
23	0x3fd9a1964be98ca1	0.40048749364195585
24	0x3fb845a9d893425d	0.09481298005563006
25	0x3fa832381abe2cd4	0.047258141769896206
26	0xbfbffdde8fd71085	-0.12496748935433473
27	0xbfd431f8e89c02f7	-0.3155500670982713
28	0x3fcc74e251f62590	0.22231701852824104
29	0x3fc4bfaf2bcee838	0.16209973944734357
30	0xbfd0639d0f61d2ba	-0.2560799265113861
31	0xbfcbdf9e0bdeb21a	-0.21776176051697932
32	0xbfc2f52602facde2	-0.14810633798116074
33	0x3fd0c5b4e9f8e5b3	0.26206705902913113
34	0x3fb822bfcb2e5aab	0.09428023062205663
35	0x3fa5068bde80e72f	0.04106556979281916
36	0x3fcc8c1e973dccf3	0.2230261076434555
37	0xbfd1b4570a45e85f	-0.2766320801089303
38	0xbfc9a803ca5a487c	-0.20043990498067277
39	0x3fc43873139a4707	0.15797270257149185
40	0x3fc4e0bf62164231	0.16310875214959844
41	0x3fd17d7a30a0cb69	0.2732835268863512
42	0x3fcb9760dcc28fc9	0.21555720118806068
43	0x3fc57c556e2452d6	0.16785686376592562
44	0x3f9c2f68404df1b6	0.02752459423526129
45	0x3fbaa0aeb9748f95	0.10401432063787149
46	0xbfc96d0db54cfbed	-0.1986405501611154
47	0x3fd1aaa48c598150	0.27604020792025086
48	0xbf70f26f94e79212	-0.0041374548586401595
49	0xbf875881d79ee847	-0.011399282829973724
50	0xbf34e25cfed81c1d	-0.000318668083167885
51	0x3fd1feab5e6dd135	0.2811687872083611
52	0xbfbae6fa30775e07	-0.10508693393000366
53	0xbfc46255b928a310	-0.15925094166711817
54	0x3fbb02a38290816b	0.10550901353463409
55	0x3fb29bed150049ae	0.07269174349520455
56	0x3fb09c2cd33dfb22	0.06488304288175731
57	0xbfba7ed4704e4651	-0.10349776975478987
58	0xbfc2ddddb9bc140c	-0.14739581650806632
59	0xbf88b585e89e3d29	-0.0120649777998368
60	0x3fc180653773a464	0.13673081595996728
61	0x3fc43bf20b7e9414	0.15807939110996527
62	0xbfc1c12a799624e7	-0.13870745598641251
63	0x3fc0a55f75b9dcc0	0.1300467800935845
64	0x3fa25e36178c97e5	0.035875025152833286
65	0x3f964b3c43588f3a	0.02177137528464288
66	0xbf627ca7ad8372e7	-0.002256705756833777
67	0xbfa532a86d4cc24b	-0.041402114240899644
68	0xbfba438ebb1463b0	-0.10259334628462002
69	0x3f7c632c8819e0c2	0.006930517150628814
70	0xbfb62f4b85026787	-0.08665916440295805
71	0xbfd17974db10d5f8	-0.27303811448231796
72	0x3fc14b1d5d7b2c43	0.1351048189593219
73	0xbfc6a1a056cafa21	-0.17680744398053697
74	0xbfb6637cb68354fa	-0.0874555535877625
75	0x3fd08930a6635b97	0.25837341545905573
76	0x3faf6129433c773d	0.06128815599207236
77	0xbfdc1b43ce0bfc56	-0.43916411515960385
78	0xbfb3531ef4f6a4df	-0.07548707466652925
79	0xbfb144145df113ba	-0.06744506162165367
80	0x3fc76c5ede8d43d1	0.18299470774448293
81	0x3fd1306dae9d4ba3	0.2685808377474876
82	0x3fd1074b17194756	0.26607014899956505
83	0x3fd1e82ff8e8c89c	0.2797965937380782
84	0xbfb228652f96b920	-0.07092888271174447
85	0x3fba1bd787061105	0.10198733374096854
86	0xbfc35446ddb998ca	-0.15100942446151172
87	0x3f8bca62639e8a9a	0.01356961123002991
88	0xbfafd3ae4d01b4c5	-0.06216187181494485
89	0x3fd2bf6240edfb05	0.2929311403349149
90	0xbfd3cc93bd493132	-0.3093613956923661
91	0x3fbfbb791be2915f	0.12395436220919497
92	0x3fcc10dfa9241fff	0.21926494368403834
93	0xbfbeb75f94037553	-0.11998555530177173
94	0x3fd05051db01429d	0.2549023283691357
95	0x3fb5daa554b846ad	0.08536752050738512
96	0xbfc72b2a76b0c495	-0.18100481791910697
97	0x3fb29f4136ff15f4	0.0727425345677018
98	0xbfc1c3c18cf6e67b	-0.13878650076894758
99	0x3f92ac85c3ab63c0	0.018236246173589654
100	0xbf7156f56d89bb9a	-0.004233320906322025
101	0x3fcbb19b0b0f4ae4	0.2163575939180965
102	0x3fb2b5d8b58f6cdb	0.07308725769637496
103	0x3fc1ff91ecd686bf	0.14061187805514483
104	0x3fc918529c6048d1	0.19605476985504436
105	0x3fb43932d35552ad	0.07899778041366785
106	0x3fc7eac407343327	0.18685198165658187
107	0x3fc23b7188878ff4	0.14243907133561573
108	0xbfd1fa434f7d88a5	-0.2808998371384724
109	0xbfb06701fceffcc8	-0.06407177376967177
110	0xbfa57f93a7880a0c	-0.04198895855008197
111	0xbf80116b5189614d	-0.007845724511910257
112	0xbf9a2573b1d81992	-0.025533492784256824
113	0xbfca7fedccb4e6a1	-0.20702908034745796
114	0x3fcf47bb070cf28b	0.24437654346720125
115	0xbfc3249cd0a504aa	-0.14955482661938407
116	0xbfc57b79f8b674f9	-0.1678307022492971
117	0xbf8bb3aa16eaf3bc	-0.013526276420970144
118	0x3fad81d1fb24d9ae	0.05763107481691364
119	0xbfd30c7f0164d9d6	-0.297637702332762
120	0x3fbf7557e8abc2a4	0.12288426809733238
121	0x3f9bfc94a7c9562e	0.027330706349252214
122	0xbfc5bca1fb9c8e34	-0.16981911454887355
123	0x3fc1fed055c8d977	0.14058880032252905
124	0xbfd4386df5c109c6	-0.31594418525142165
125	0xbfb2182c85f85e4c	-0.07068136473423542
126	0xbfd8d923304a5453	-0.3882530185304109
127	0x3f9ef869a8f377ae	0.030244494378045488
128	0xbfd1cba09453b652	-0.27805342183169046
129	0x3fb1ada0cef3eade	0.06905560543593078
130	0xbfc0ff9ee400757d	-0.13280092366123233
131	0x3fce56b3e2c0105b	0.2370209557703927
132	0x3fd04b9350e49576	0.25461275958726703
133	0xbfa2cda7f0e2b0f7	-0.03672528090950949
134	0xbf98b13d45f67439	-0.024113614459214203
135	0x3fc536a784e3238f	0.16573041905055816
136	0xbfb0715137899a9a	-0.06422908407112474
137	0xbf8f3a4e2f13bb6d	-0.015247927486113
138	0x3fccc2a1ecdd3a54	0.22468971315034258
139	0xbfac9cbf2b74a9ea	-0.05588338284936241
140	0xbfccb0f82403d445	-0.22415067442458017
141	0xbfdd45f4a856076c	-0.45739475668971497
142	0x3fc0cf0b6e70fac7	0.13131850140231036
143	0x3f8e1efd5d9184d5	0.01470754567907521
144	0x3fd323efdfd73fa4	0.29906842097715924
145	0x3fb11527f0b7b093	0.06672906519787807
146	0x3fc6b3b12b87f39e	0.17735876679935542
147	0xbfc40b68f2f49e6d	-0.1565982042604789
148	0x3fb511cfd3da7406	0.08230303690147886
149	0xbfce0ddcaabad247	-0.23479803406157115
150	0x3fc5a21c6a4d82f4	0.16900973501744654
151	0x3fd4ae779e40a700	0.32314863638258373
152	0xbf97318d9143ba61	-0.022649967185254364
153	0x3fb64531e6132efd	0.08699333064140187
154	0xbfcf7c591823bb39	-0.24598230055513584
155	0x3fd0d38094ffa5c8	0.26290907431265653
156	0xbfcd0a6004e09fdb	-0.2268791221442815
157	0xbf7a53af038925c7	-0.006427463195515632
158	0x3fc2f7d7abc16f77	0.1481885517740655
159	0x3fd5539c718cfcd6	0.3332282170194508
160	0xbfcb71110a2374a9	-0.21438801760715379
161	0xbfc6e0e6f3ca8c8c	-0.178738469160724
162	0xbfb25e6dda689891	-0.07175337393036531
163	0xbfb245da647be07d	-0.07137837365360329
164	0xbf935fd757b37177	-0.018920292594758217
165	0xbfd430b09a481cba	-0.31547179285594107
166	0x3f92f4e8ee34b25f	0.018512382067614627
167	0xbfc3ed2dd9bd647c	-0.1556756318266571
168	0xbfd0b0b1074c135a	-0.2607843943845204
169	0xbf721d2fcadf8ed6	-0.0044223658460144834
170	0xbfcc18c63b4f8b09	-0.21950605293303507
171	0x3fd7d5e97ca35740	0.37243115588841036
172	0xbfbab38ba479899b	-0.10430214658257457
173	0x3f9c2951f00d2b0a	0.02750137355478003
174	0x3fc63dea907a6861	0.17376453451726362
175	0x3fd446de6e9c25f9	0.3168254928756081
176	0x3fb88afe6edce7bc	0.09587087828268087
177	0x3fdaeb206dee4594	0.4206009934942696
178	0x3fd4a564bf510175	0.3225948208164689
179	0xbfbb0b0dfcbc545f	-0.10563743038467653
180	0x3f68a22bdb575615	0.0030070168092872864
181	0xbfb676f17e1522f1	-0.0877524311846505
182	0x3f7ca59c861bffad	0.006993876859041776
183	0xbfc638723261d5fe	-0.17359759769503563
184	0xbfddb6c165b9ebf4	-0.4642795079632258
185	0xbfb8322772e75382	-0.09451529078735457
186	0x3fe2cdc1a6e3cbfa	0.5876167544905677
187	0x3fb1f6a84fbc3055	0.07016994425447483
188	0x3fbaa4303f5f2be7	0.10406781718408774
189	0x3fdb054e0f560a84	0.42219878671327415
190	0xbfd641e5c364b184	-0.34777206498508684
191	0x3fc28dac002276b9	0.14494848257611695
192	0xbfc8c9f015345c86	-0.1936626533067491
193	0x3fd793ee77958864	0.3684040229619596
194	0xbfb4c198af8c08bc	-0.08107904706779129
195	0xbfdc9f76b4862bee	-0.44723289136226085
196	0xbf58196de599af9f	-0.0014709065639193287
197	0xbfae5fcaa70adc53	-0.05932458199588866
198	0x3f8ad7114832b563	0.013105521217165522
199	0xbfb01115ff680c0f	-0.0627607105780472
200	0xbfc0b7ae51a939a3	-0.13060549723963985
201	0xbfbaebbc0878557e	-0.10515952307499352
202	0x3fd922b4d702aabb	0.392743310900794
203	0x3fb2919beeeb2cd4	0.07253431876158639
204	0x3fd05336fc653ad5	0.2550790276335822
205	0xbfc6d416f74705d6	-0.1783474643143978
206	0xbfd451ea6c6038ac	-0.31749973853664915
207	0xbfac4075773aacd2	-0.055179282001824995
208	0x3fd488511cf39bc5	0.3208201201181818
209	0x3fabd83d1d6edb3d	0.054384145586871636
210	0xbfcbc9c444299a59	-0.21709492996451976
211	0xbfcb7a548a21ebc6	-0.21467072243453184
212	0xbfceb319e60a4820	-0.23984073383741222
213	0xbfa8e235758cc1ed	-0.04860083637175081
214	0xbfc4ad60a2fdecee	-0.16154106100643822
215	0xbfc61722c7338356	-0.17258105017301756
216	0xbfb57a8d828fe4df	-0.08390125691939286
217	0xbfb6562030c52e94	-0.08725167456321464
218	0x3fcef4773c634933	0.24183550308823384
219	0x3fcb69dda7560543	0.21416826887802118
220	0xbfafe5341a053668	-0.06229555909758916
221	0xbfd9a06d6ba721d9	-0.400416712884661
222	0x3fac3e9771148707	0.05516503577588421
223	0x3fc52a5869a136b9	0.16535477788641176
224	0x3fcf9265c9289a89	0.246655200216271
225	0xbfcc9a802bc144f5	-0.22346498619530278
226	0xbfd208a0e571d441	-0.28177664190963375
227	0xbfc34ece95617661	-0.15084249776821237
228	0x3fbacdef3c3f11e2	0.10470481129511414
229	0x3fc8a3c92af00d17	0.19249834629599924
230	0xbfd4478524fef5f5	-0.31686524021992507
231	0xbfc491d23c5f834e	-0.16070011089234487
232	0xbfdaf4a4b5d11e89	-0.42118184810213016
233	0xbfb81b8031c51d45	-0.09416962828719473
234	0x3fcb56fa912a6499	0.2135918816391367
235	0xbfc31e7506024f8b	-0.14936697762879833
236	0x3fd6896e7784ed43	0.35213815376092245
237	0x3fd298eb581aded7	0.2905834541702296
238	0x3fbbbae01e43cb51	0.10832024325263247
239	0x3fd3bd634f639777	0.3084343219073768
240	0x3fce858c9ec622fc	0.23845060112605398
241	0x3fb9c076807d0141	0.10059300076409718
242	0x3fb5404ad96b9be3	0.0830122738658328
243	0xbfcabfa37b3c4f55	-0.20897334592211317
244	0xbfd6ae9294b56d05	-0.3544050647958133
245	0xbfb1d312a0de670a	-0.06962696483097033
246	0x3fe029a802ac3e38	0.5050849964336015
247	0x3fc86bb1119d60ee	0.19078648910613744
248	0xbfcf5234f2e9e34f	-0.24469625340477782
249	0x3fd166dc3bec290c	0.27190309383208056
250	0xbfc46c852291c120	-0.15956176937061972
251	0x3fc84a4098e4f43b	0.18976600137276187
252	0x3fc215bece18785b	0.14128861487637576
253	0xbfb97b5cb2332534	-0.09953860617237781
254	0x3fbf5bb499097a45	0.12249306427245539
255	0xbfd05897faf1ae5b	-0.2554073286653186

model.sequential_layers.2.Linear 2.weight f8 [64, 129]
0	0x3fb4c63c23b1fcee	0.0811498248240132
1	0xbfc3a2e94486b89b	-0.15340915533073915
2	0x3f62a290e0f3c461	0.002274783102273179
3	0xbf946a77c7e7ff45	-0.019937392784412884
4	0x3fa0d7778c4a023a	0.0328938826323832
5	0x3fb8e68099eb4f82	0.09726718671600845
6	0xbfd22a8e19adcdfb	-0.2838473559160943
7	0x3f9baf4a32d74ac4	0.02703586516674751
8	0xbfa77a69a0432761	-0.045855809033652724
9	0xbfc9230a7e7dda27	-0.19638186622951645
10	0xbf934f56a9f28ec6	-0.018857339976092978
11	0x3f94bb7b346d8617	0.020246434283199912
12	0xbf7e0560e614e524	-0.007329348097578934
13	0x3fb4bde8ee342443	0.08102279487151613
14	0xbfcce51c150acde7	-0.22574187304927237
15	0x3fc3f0b3e537d9cf	0.15578316395085642
16	0xbfc29bf433bb83f2	-0.1453843357658396
17	0x3fb16e88cb1bc17b	0.06809287031842885
18	0x3f830fc9e7e3e30c	0.009307458295084746
19	0xbfb6342061985c83	-0.08673288710302711
20	0xbfbda5813d5db990	-0.11580665348240005
21	0x3fb55e53964c6f14	0.08347055835150413
22	0x3fc5024b62fddeea	0.16413252194956068
23	0x3fbc22e628834830	0.10990751732904935
24	0x3fb56159f33abb6a	0.08351671398371044
25	0x3fc75295b468cb08	0.1822077876000423
26	0x3fc245e1dc67aa3c	0.14275763761482263
27	0x3fb250af6129392b	0.07154365655990051
28	0x3faac523c0304294	0.05228530617762775
29	0x3fa064d4491ec301	0.0320192660577785
30	0x3fc0e0861278f363	0.13185192014671107
31	0xbfa7c13b6c6f8db6	-0.046396119105135566
32	0x3fd3eba9f46aeaa7	0.31125878209028673
33	0xbf9a28b100d29353	-0.025545850444035633
34	0x3fbe2d73463baf72	0.11788101639439022
35	0xbfc1bdfcfca46bf7	-0.1386104806523176
36	0xbfd3ea3cbee053a3	-0.3111717094446311
37	0xbfb5a4578f8e7006	-0.08453891043467374
38	0xbfd05fb033e04af1	-0.2558403498270954
39	0xbfc185cb1e4c3319	-0.1368955514848487
40	0xbfc2b23fb2f2097a	-0.1460647224194636
41	0x3fd00cefb2c9f203	0.2507895704254965
42	0x3fc2ef1ffc12e226	0.14792251404084417
43	0x3fc0314f3dc95947	0.12650480763358926
44	0xbfbcae2a45fe8231	-0.11203254898874417
45	0x3fc106a43463e22b	0.13301518018831024
46	0x3fa4e8c8e6cfc415	0.04083850686573257
47	0x3fca26c0e4af50ab	0.20430766264201358
48	0xbfc7d19bae7ac7c1	-0.1860842325164054
49	0x3f904c26c667afcc	0.015915494785005355
50	0x3fc800954044b8b2	0.18751779211146907
51	0x3fa1888c21a7763b	0.034244898899242725
52	0xbfafd2430cb78a58	-0.06215104608761085
53	0xbfc61454afe079b3	-0.1724954470418659
54	0x3fa3e2cc212c1dad	0.03883970169959681
55	0xbf9afa4ab32454fc	-0.026345412429766832
56	0x3fbf2a6e13a3c2e2	0.12174118022427252
57	0x3fc19c67cad0acff	0.13758561518748277
58	0xbfb1a5de12873d19	-0.06893718674040307
59	0x3fc8bfa48a4f298b	0.19334847215061432
60	0x3fb558dc7f83b67f	0.08338716614863449
61	0xbfa3169382e6482a	-0.03728161785979041
62	0xbf846a604d110876	-0.009968521453746809
63	0xbfad3436bbe0ed54	-0.0570389847129841
64	0x3f911b01bed5fd67	0.016704585335444302
65	0x3faf51c947eb0892	0.06117085459619988
66	0x3fcab0e28fb2007f	0.2085231019627862
67	0x3fafc53d93018119	0.06205170077805828
68	0x3fcaaff80b723aaa	0.20849514540573938
69	0x3fc41ed639bfbd01	0.15719106502317717
70	0x3fb32b774383e8ea	0.07488198660204018
71	0xbfc841b2db48eba5	-0.18950496394412855
72	0xbfac1caecedcad75	-0.054906332732879294
73	0xbfb2b90f7191f08c	-0.07313629648882819
74	0xbf8d46e0ca86a879	-0.014295345478633191
75	0xbf93c1456f6027c5	-0.019291958735301557
76	0x3fce66b8e1c1ff25	0.23750983260469485
77	0x3fbeec7233e25b84	0.12079538122848815
78	0xbfb02b7f3612ba25	-0.06316371030946095
79	0xbfb8ee895e0f2f27	-0.09738977953309967
80	0x3fb2b3910bccd8ec	0.07305246866312459
81	0xbfc68e8d22360029	-0.176225320534287
82	0x3fd66cb81d6b7933	0.35038569329289543
83	0x3fa17c4d1632c16a	0.03415146728491687
84	0x3fb36a2bb3a00a8f	0.07583878646259222
85	0x3fc7e7e0f0644fa7	0.18676387536890823
86	0xbfc94c7371180789	-0.1976455976692331
87	0x3fbae574c5e5f555	0.10506372291088913
88	0xbf8e121feeaea41f	-0.014683007689955173
89	0x3fc3149f673d52b5	0.1490668539141972
90	0xbfd7950146b5ee33	-0.3684695425542685
91	0x3f91bcb91c7eb777	0.0173214839593849
92	0xbfd1829aa45957c7	-0.2735964398356114
93	0xbf9144edf9c3d278	-0.01686450802749781
94	0x3fc0ea47294ef1c1	0.13214959637651982
95	0x3fca51ab537941d5	0.2056173474870905
96	0x3f9c0d2a34ea08b6	0.02739396999323481
97	0xbfb80f0c360390d7	-0.09397960966777262
98	0x3fa54c46fc06ad75	0.041597574486639845
99	0x3fb020ae0ffe8552	0.06299865618213588
100	0x3f60d8c02354d73b	0.002056479711110363
101	0x3fbf20e92bdbb7a4	0.1215959293437821
102	0x3fb71201eccd493a	0.09011852294250824
103	0xbfc51ea880714693	-0.16499811431508657
104	0xbf7cd64493614954	-0.007040279268112865
105	0xbfa228da7371faa3	-0.0354679361271242
106	0x3fc10f7a4511578d	0.13328483936737393
107	0x3fc3affe25430500	0.15380837268279635
108	0x3fbb7f9c0bac31ec	0.10741591725326999
109	0xbfd029ce0d4a8822	-0.2525515680118834
110	0x3fbcb72c1eaa662f	0.11216998814270406
111	0x3fc2f94354afee56	0.14823190341108966
112	0xbfa5322073970fe9	-0.04139806185733603
113	0x3fc74b0a4f863b9f	0.18197754748368042
114	0xbfbdf1bcbdcddb6e	-0.11696986802949791
115	0x3fc1ca5e95da9bce	0.13898832623564633
116	0xbfc9d7728f26a9c1	-0.20188743581577565
117	0xbfc0ef772becfb04	-0.13230790753183197
118	0x3fbdb6b3d1bce6a8	0.11606906767419878
119	0x3f7bfa0055c2d977	0.006830216702090267
120	0x3fc905cf52cc771c	0.19548980276970773
121	0x3fcc4c4337586e3a	0.22107734873212498
122	0xbfb3b1374982cf38	-0.07692285103513263
123	0xbfca2680094e35ae	-0.20429993109102668
124	0x3fbad95f812533d0	0.10487934973680457
125	0xbfb668f2e0627974	-0.08753889063016179
126	0xbfc1ab9162fc7833	-0.13804833730040542
127	0x3fc6a19b032e4e36	0.17680680899921847
128	0x3fbfe963a2383097	0.12465498648106386
129	0xbfdcf30f1de172b2	-0.45233514707596634
130	0x3fbbf83df77c0a33	0.10925662319281386
131	0x3f960d8963d0cce0	0.021536013333570803
132	0x3fbe851c99d93b2b	0.11921862369602525
133	0x3fc6e8671e7365e0	0.17896737086157
134	0x3f851b7da441e8de	0.010306340766181806
135	0x3fbc0b8e0598c404	0.1095513118423384
136	0xbfbc805904fdf0d2	-0.11133343097566531
137	0xbfc7ee6f6230b05f	-0.18696396154826098
138	0x3fc27e48b5af0b2f	0.14447888251569327
139	0xbf784365441c19d1	-0.005923648424646947
140	0x3fd04c0709c8b8fc	0.25464034991718143
141	0x3fb6b7165f637752	0.08873119190999759
142	0xbfb609b0f9a7037f	-0.08608537764577127
143	0xbfc3e5be841b2f88	-0.15544873667238002
144	0x3f8c1e5b3da8b990	0.013729775256334148
145	0xbfa771b9aa98b72b	-0.04578952987172465
146	0xbfc69097a672374e	-0.17628760936025362
147	0x3fc163126dfc86f6	0.13583593721801152
148	0x3fc6b247ca041007	0.17731568683677798
149	0xbfcad3d80b272120	-0.20958996338436808
150	0xbfc9a13b20bc1f00	-0.20023287866955997
151	0x3fb5391c1d581a0d	0.08290267673883296
152	0x3fae120499af9e94	0.05873121620225877
153	0xbfc65ec5f7078a16	-0.17476725160584355
154	0xbfc60195f7f7e35e	-0.17192339523151196
155	0xbfc57a2943105084	-0.16779056334110376
156	0xbfbddc79cfde3dd8	-0.1166454441538386
157	0x3fba2c3a626b415b	0.10223736670309817
158	0xbfc727b9c39e467c	-0.18089983035729407
159	0x3fcce387c50ed48b	0.22569367525071402
160	0x3fcb0152d8964e70	0.21097789359611197
161	0xbf8f024b3328cd28	-0.015141093729744329
162	0xbfce105a295ccc8b	-0.23487402934697274
163	0xbfbd377b523f23c3	-0.11412783391928287
164	0x3f94ea3443252539	0.020424667928897498
165	0xbfd162e48adf89bd	-0.2716609340842771
166	0xbfc742b45be866bf	-0.18172316062628188
167	0x3fb43f702b49df45	0.07909298951005635
168	0x3fa251db741eb476	0.03578077118377447
169	0x3fc23b755ad4c05a	0.1424395268927608
170	0xbfbfd7a13b1d6c8b	-0.12438399976001528
171	0x3fc055720bdd70f3	0.12760758952470716
172	0x3f86c5cf6f49eb39	0.011119480689776405
173	0x3fbb2dc97ce80f8e	0.1061674051234702
174	0xbfcefad630c6946b	-0.24202992803217013
175	0x3fac5ea312646284	0.05540952300561222
176	0xbfc1874bb679bfd9	-0.13694139871540648
177	0x3fa455256e36b8b6	0.039712114051654465
178	0xbfc44ce1c6875d4c	-0.1585962504748103
179	0x3fbfb7e172e40e0e	0.12389954619362006
180	0xbf98e46842703df8	-0.02430880456455317
181	0xbfbf532bde6dacc4	-0.12236284428006444
182	0x3fc7790b9f656988	0.18338151247992251
183	0x3fb1eed8c849189c	0.07005076303275576
184	0x3fc747b8deeed9dd	0.18187628636742562
185	0x3fcb102d07745c2a	0.21143114913931643
186	0x3f9798cc1de52321	0.023043813061380484
187	0x3f999c153f211543	0.025009471872427424
188	0x3fc6b669eb44d38a	0.1774418257497497
189	0x3f8643437b037ddb	0.01087048262746653
190	0xbfc5230729173d76	-0.1651314688337881
191	0xbf98dd2423d480ff	-0.024281086623092026
192	0xbfc13f6d72ef48b8	-0.13474815475507795
193	0xbfb7cd018122037d	-0.09297189142854552
194	0x3fbe9fd48756a723	0.11962631515657711
195	0x3fc17d2d4243d570	0.1366325925406886
196	0xbfb501f39374b786	-0.08206102705000093
197	0xbfb11d26d7a492d8	-0.06685107006758118
198	0x3f8098bf91b4704e	0.008103844293650433
199	0x3fc5c956ce031563	0.17020688113386048
200	0x3f99d693d2d0655b	0.025232610456531784
201	0xbfc2becbdfd88a83	-0.14644764356588177
202	0xbfc092f34b0c4fa9	-0.12948456921060128
203	0xbf54d2e3a878b6b0	-0.0012709830497316492
204	0x3fa8ec329266c165	0.04867704426885914
205	0x3fc02d94afd85515	0.12639101587471005
206	0xbf81f0d4c6269719	-0.008760130211907179
207	0x3fa26e4f7da75adc	0.03599785240992556
208	0xbfc7272cf5f73e16	-0.18088304529236215
209	0xbfc06c8c41287e7c	-0.12831261807967909
210	0xbfc3da78c3036beb	-0.1551047279561709
211	0xbfb7c393e197cb60	-0.09282802827492054
212	0x3fb19caf0a24119c	0.0687970542676965
213	0xbfccbb08b2364b6d	-0.2244578237701619
214	0xbfc3f4c4cb2ede57	-0.1559072486977466
215	0xbfc9cc2aeffd90c2	-0.20154320448194168
216	0xbfcac90def893d42	-0.20926069446657364
217	0x3fac3c777bdd9dba	0.055148824568103064
218	0xbfc17130c636225f	-0.13626680067342797
219	0xbfa02567bd04a904	-0.03153537924147723
220	0x3fa5828ba64cfd1b	0.04201160817182822
221	0xbfa3285374a8a32d	-0.037417037954872924
222	0xbf9b96e667db6bda	-0.026942825402198035
223	0xbfbdaeedf98b8751	-0.11595046369941754
224	0x3fc5a27a81a94437	0.16902095156777516
225	0xbfd48c2952c6492c	-0.3210547741265539
226	0x3fba247d99437de5	0.10211930267131882
227	0xbf9d0cce203b7a0f	-0.02836916038256204
228	0x3fc20cc134121255	0.1410142425776423
229	0x3fd39774d820bda5	0.30611916643371223
230	0xbfb67e689c33cb0e	-0.08786634267361768
231	0x3fb1e5cb3537d07a	0.06991262482898888
232	0x3fa82fa6785f2835	0.04723854274159615
233	0x3faddaad0f34611c	0.05830899057963476
234	0xbfb732029b2bc6ad	-0.09060684479097843
235	0xbfa79b7923ec6444	-0.04610804141538741
236	0xbfd400a277ac6834	-0.312538735264414
237	0x3fc69a782f515d42	0.17658903418007738
238	0x3f9fe5fffe0a5592	0.031150817757028167
239	0xbfb97e55b6ffce63	-0.09958396642451244
240	0x3fb790e1b05431ec	0.09205446772484266
241	0x3fbd512982eb5c44	0.11451968618654101
242	0x3fb22efdd9f51479	0.07102953501915178
243	0x3fbe18ff49b7423a	0.11756892728522753
244	0xbfc278588495964d	-0.14429766153186777
245	0x3fc16d6503ce898a	0.13615095792654258
246	0xbfac7114c14aabf6	-0.055550240130592884
247	0xbfb4a4c078c98af4	-0.08063891362102621
248	0x3f9e618b7387e8e5	0.029668978620954873
249	0x3fa577f994220df9	0.04193096097244715
250	0x3fc7c78ee97737ce	0.1857775344819274
251	0xbfc8b7d2482b7df5	-0.19310978435440487
252	0x3fc3e084d504140d	0.15528927231949333
253	0xbfc01a0bb59aeca0	-0.12579485289993375
254	0xbfa37897670ec900	-0.0380294144919322
255	0xbf8fe9a4e2c2a2f2	-0.0155823594762565

model.sequential_layers.1.Linear 1.weight f8 [128, 257]
0	0x3f9a4234a4d232a1	0.02564317947376316
1	0xbfc01890e803a813	-0.12574969605276518
2	0xbfd4c934b7e3f2b0	-0.3247806354336644
3	0xbfc48bf2b3c677d4	-0.16052087572182805
4	0xbfc255c2f830254d	-0.14324223631437363
5	0x3f7d38c3b9a1d189	0.007134213019629584
6	0xbfd1d79aea4b7e62	-0.2787844932590585
7	0xbfda134aaf702ae0	-0.407427474333117
8	0xbfc9b219da8d7afc	-0.20074771091000077
9	0xbf9238febd64e1e5	-0.017795543966004152
10	0x3fba3d109ffb1ec8	0.10249427705559377
11	0xbfd6c652a532de3c	-0.3558546651142682
12	0xbfd080d15ff34287	-0.2578624188436511
13	0xbfc674bfe365c071	-0.17543791392700173
14	0xbf94d91deee1f675	-0.02035948534511652
15	0xbfd49c08f98765c5	-0.32202362411552726
16	0xbfcd4bc4d34941ac	-0.22887478176791143
17	0xbfb4a796e1087f72	-0.08068221086477737
18	0xbfb19ec61ce61b8d	-0.06882894712008021
19	0x3fc6d014157b27a2	0.17822505043869535
20	0xbfcbad711af7a83e	-0.21623052422302352
21	0xbfb1254fd8534074	-0.06697558432938583
22	0x3f8329ed186d3d9b	0.009357311542457938
23	0xbfb03f32dda80cba	-0.06346433555158884
24	0xbfd19b461781d9e5	-0.27510216041210206
25	0xbfc860c7e172a45f	-0.19045351513094297
26	0xbf9eaafe21475818	-0.02994916036717407
27	0x3f989ce3356884bc	0.024035978445799286
28	0xbfd210ae99a74888	-0.2822681904336908
29	0xbfcc5565134c5aa8	-0.22135604326532143
30	0x3fa484208aa23f87	0.040070549891537736
31	0xbfcbcbe3d9b0a587	-0.21715973023792065
32	0xbfbfac6db0258a53	-0.12372479963736653
33	0x3fd005a9c63cbf18	0.25034565314398227
34	0x3faaf389bfbc77be	0.05263929811029254
35	0x3f8c8f712d02f88c	0.013945469080109761
36	0xbfc1763f7e4f7182	-0.13642114322182058
37	0x3fb0d858886dc13a	0.06580117541102917
38	0x3faf1aa75bdf729e	0.06075022694105779
39	0x3fae6b20487708e9	0.05941105732519409
40	0xbfa9ec009aa0dcc6	-0.05062868011048631
41	0xbfa280125e406773	-0.03613335991413082
42	0xbfbf130cc2ddfceb	-0.12138442761896655
43	0xbfad66e77d70280e	-0.05742572218157714
44	0x3fa0f6e5725fd0eb	0.03313366910143308
45	0xbfb5dbbd75254dc4	-0.08538421735766294
46	0xbf970dd575562080	-0.022513709341666743
47	0xbfa589e93d858963	-0.04206780315395766
48	0xbfd4898977933980	-0.3208945911145733
49	0x3fc437f71c22854f	0.15795792459270294
50	0x3fb80dc25dd9a4dc	0.09395994941009483
51	0xbfa4d5d034387564	-0.040693765997484005
52	0x3fc7aa4e0b22b34e	0.1848847917912288
53	0x3fc30c2e8c4f86a2	0.14880925990205635
54	0xbfb196cfaf997adf	-0.06870744740579536
55	0x3fa6d83814c84908	0.04461837056818935
56	0xbfd090df2e1a4910	-0.2588422727796038
57	0x3fa499251668a59b	0.040230902657934574
58	0xbfd03b3425240009	-0.2536135065747663
59	0xbfd4964aa196ee80	-0.32167306690437414
60	0xbfc0f7be72f652f2	-0.13256054509533716
61	0xbfd868fa1bcc89c6	-0.38140728678459046
62	0xbf89cf3605ea309f	-0.012602254920487886
63	0x3f9f127b11cd6e53	0.03034393592984792
64	0x3fadf36738f0b42f	0.05849764413901714
65	0xbfc95635dfaa8c22	-0.19794343396378716
66	0xbfbe639631ef5c29	-0.118707072440302
67	0x3fbfacf0dced40c9	0.1237326182720181
68	0xbf73c6c56dec4618	-0.004828234871426605
69	0xbfb6ab934c6664fa	-0.0885555326007256
70	0xbfc040a73c718957	-0.12697306109755388
71	0x3fa02df1e5dca063	0.031600531873039704
72	0xbf95a91bdd022993	-0.021152911533627593
73	0xbfb1eb00d7206793	-0.06999211551774769
74	0xbfbe824e2b08b523	-0.11917580176005464
75	0xbfc4fc2686124e38	-0.16394502207241302
76	0xbfb293f5a93c0a16	-0.07257018453314176
77	0x3fb46652ca90fa14	0.0796863312288923
78	0x3fc4ef13b81b9bd5	0.1635460518802733
79	0xbfd17dd3ca800a33	-0.27330488944440673
80	0xbfb6aba28830a894	-0.0885564405913633
81	0xbfc25ba328712dc8	-0.14342154955589437
82	0x3fc04a0f90d6811f	0.12726015636599983
83	0xbfc1c40a8d16fcdd	-0.1387952031054515
84	0xbfc2afcad6cdbc54	-0.14598975647411072
85	0xbfa5f37d4740d1d1	-0.0428733014563566
86	0xbfc6230329251759	-0.17294349202182493
87	0xbfbf67df1477eb5d	-0.12267870187490133
88	0xbfc4292710ec69c8	-0.1575058777460312
89	0xbfd3fc0131ce6f97	-0.3122561441793947
90	0xbfbd5770000f27d9	-0.11461544038243633
91	0xbfc289c886faa545	-0.14482981291556932
92	0x3fd03ed013d7fa4d	0.2538337892328045
93	0xbfc74e7eb319499a	-0.18208297486360153
94	0x3fac4fa798883713	0.055295216912879884
95	0xbfd0c17d3a5f525d	-0.26180964184212546
96	0xbfc8e6a9c2f2150c	-0.1945392801173188
97	0x3fb58f104147909a	0.0842142257093336
98	0x3f747547f50fd79d	0.00499466045675048
99	0x3fc78519ccfa2886	0.18374941357280167
100	0xbfb3f2d053a1e2b7	-0.0779237941914158
101	0xbfc12be0c6e64d12	-0.13415155136008444
102	0xbfcc1fd0861064f4	-0.2197209028825352
103	0xbfcd4f4f851ce3e3	-0.22898286819125166
104	0xbfb2ab6633f64d0b	-0.07292784470182682
105	0xbfd0254786ff9e23	-0.25227535422752306
106	0xbfc83e9a6088912d	-0.1894104930262385
107	0xbfd0068e3c7aeb87	-0.25040012270226736
108	0x3fb05a9d08eefcf0	0.06388265102485824
109	0x3f9e1218a456da0b	0.02936590674445409
110	0xbfb0cdd9c0788860	-0.0656410307788362
111	0xbfb980e86a2d833f	-0.09962322799902966
112	0xbfcb3585645612c7	-0.2125708331988305
113	0x3fc7797baf4941d5	0.18339487131971902
114	0xbf9dc87a9cf84eff	-0.029085079031644586
115	0xbfc73bb44ec12518	-0.18150953145440307
116	0x3fb034c463095d68	0.063305162600377
117	0xbfb8d1a3442e6179	-0.0969488183458277
118	0x3fc09594d9695eed	0.12956486335564624
119	0xbfba783f5e2481d3	-0.10339733169940439
120	0xbfc928c8376b24f3	-0.19655707078917536
121	0xbf8e3e329612a9f1	-0.014767070011960622
122	0xbfb8b34006e8c79a	-0.09648513954814888
123	0xbfbde72c7edef818	-0.11680868241725795
124	0xbfcc708994407052	-0.22218436945775238
125	0x3fc1b1f948cdc8ba	0.1382438283431549
126	0xbfc4c6d9715a8537	-0.16231840166896358
127	0xbfb232616fc45ecf	-0.07108124712646745
128	0x3fd02f06d6bebdc1	0.2528702828521681
129	0xbfd16e5b416c34a8	-0.2723606242078156
130	0xbf90342f2b58ee0f	-0.015824067135538352
131	0xbfa9a111259c5af6	-0.050056968537480914
132	0xbfc5810ce4ea3240	-0.16800080468637368
133	0xbfb7839ba39f207b	-0.09185192818324765
134	0x3f92c7dbd8db54fd	0.018340525732885905
135	0xbfc76011cf16ded6	-0.18261931049140995
136	0xbf6cbac55fd72395	-0.003507028099850771
137	0xbfadd5d47e0085ad	-0.05827201879607045
138	0xbfc1f24a42108f94	-0.14020660615744573
139	0xbf9c4d6fc6cd9331	-0.02763914729020484
140	0xbfca609d01061a6d	-0.20607340383522246
141	0xbfb19ab52416b4d8	-0.06876690035888389
142	0xbfd124d251048c56	-0.2678724089802861
143	0xbf651a26c0cb0bfd	-0.002575946511883752
144	0x3fb863ede9a12ce3	0.09527480081412736
145	0xbfc9bc218cc6a67d	-0.20105380414797827
146	0xbfcadb9a36e70d33	-0.20982673340595567
147	0xbfa66617093768a3	-0.04374763476853729
148	0xbf95040d306c1b9c	-0.020523267822706623
149	0xbfabacb4f1b7aabb	-0.05405202341701939
150	0xbfa92c8ffac81ed4	-0.04916810928631113
151	0xbfa505b529962428	-0.04105917103431295
152	0xbfcd2f8201fee71d	-0.22801232430884336
153	0x3fb6473fd086acb0	0.08702467766731803
154	0x3fa15a6a45b4b1b6	0.033892937668813
155	0xbfc5850890403c0f	-0.16812235873700884
156	0xbfa5a1bc2a63c1af	-0.04224956529094769
157	0xbfbe9cfdecf61899	-0.11958300624073316
158	0xbfc1507b6a0cf989	-0.13526861837631213
159	0x3fb53bc866a549f5	0.0829434633826976
160	0xbfc3f46fcae9620e	-0.15589711578174142
161	0x3fbaee8883d8cb87	0.1052022287265527
162	0xbfc30223e32bb0dc	-0.1485028132659697
163	0x3fa84e0aa1ab0541	0.04747040961729932
164	0xbfb7716afc55eb21	-0.09157437000787329
165	0x3fb8701eaf182208	0.09546081328165468
166	0xbfc3cacc5c2b5096	-0.15462641239594593
167	0xbfbedcbed493824e	-0.12055580797051244
168	0x3fbb082186733815	0.10559281856987497
169	0xbfafba386534f33e	-0.06196762309489266
170	0x3fbf9a56da4c6bad	0.12344878034166014
171	0xbf9e7dd290dc9265	-0.029776849834109238
172	0xbfcdb73d06fc08ee	-0.2321544918159541
173	0x3fb9a12b47e33e78	0.10011549477644077
174	0xbfc6fdbd08272af5	-0.1796184816178862
175	0xbfcf490b4ed397f1	-0.24441663121177684
176	0xbfd296cfc8fbd6f2	-0.2904548132640762
177	0xbfd5645fff75d56f	-0.33425140330594777
178	0xbfc51d4d42b13a8f	-0.16495671993694258
179	0xbf95f83d4b038c68	-0.02145477075908922
180	0x3fc238df2d29a765	0.14236058907709573
181	0x3f90c1a0530c0fe6	0.0163636255920351
182	0xbfb987a5ff863d41	-0.09972608078372948
183	0xbfc14ca6eaee9baa	-0.1351517340783322
184	0xbfd35051e4071899	-0.30177733677226964
185	0xbfc24134a7ebdf5b	-0.14261491965566617
186	0xbfb103f17991d656	-0.06646641939172446
187	0xbfc2d683cf58ef95	-0.14717147468934103
188	0xbfd4da89d3039c2a	-0.3258385239300333
189	0xbfd5ef44b1fc849a	-0.34272878056987965
190	0xbfc9b623842c24d9	-0.20087093309147155
191	0xbfca4055778418ee	-0.20508831344358874
192	0xbfa357dcfcdda246	-0.03777971827259256
193	0xbfb00fb17948e941	-0.06273946009688293
194	0x3fc4452bb9fd0125	0.1583609254976263
195	0xbfca5c40ed948cb4	-0.20594035721396653
196	0xbfcc32cfb6392e6f	-0.22030064008355363
197	0xbfb4cbc696592736	-0.08123437090503391
198	0xbfc0f91b6eb1c67f	-0.132602147150056
199	0xbfca91261b80b31c	-0.20755459158808598
200	0x3fd4b5e927785a65	0.3236029515696031
201	0xbfaf4eaa5d3e28aa	-0.06114704502313491
202	0xbfd84465999d5cf0	-0.37917461396632657
203	0xbfc0f94ec5f54c3c	-0.13260826745917764
204	0xbfce46748069abe4	-0.2365251185431979
205	0xbfc01abe27849e25	-0.12581612519828514
206	0xbfd65674380df3d9	-0.34902673219749897
207	0xbfa67ba350714697	-0.043912032670630534
208	0x3fb3729c1a5aad0f	0.07596755641377605
209	0xbfc69d31f398ee15	-0.17667221445468387
210	0x3fa21923ac3d3961	0.03534804799584169
211	0xbfcfb5ecad8e9536	-0.2477393958517184
212	0xbfaf511d513d7713	-0.06116572968197267
213	0xbfc39e6470f7c6a8	-0.15327125087747118
214	0x3f94b47b55cc36e1	0.020219733344723493
215	0xbfd2ba4e213bac1a	-0.29262116666240134
216	0xbfd16518df9ae367	-0.2717954810755629
217	0xbfcc3c5dc762d8f9	-0.22059223399782704
218	0xbfadc8e8a2594bd5	-0.0581734369449333
219	0xbfaddbbf21c3ed52	-0.05831715857672272
220	0xbfa4d64ae8fb2f69	-0.040697422924124656
221	0xbfd3b5afa71a8bd1	-0.3079642421600371
222	0xbfc42e835e670314	-0.15766946897021994
223	0xbfb16c6e3b54ed0c	-0.06806076954392298
224	0xbfd5696f7305d646	-0.33456026299186126
225	0xbfb6d479f7b20d5e	-0.08917963311437435
226	0xbfd26cf276e54877	-0.2878996049013333
227	0xbfd0e43b6282ea39	-0.26393017406704505
228	0xbfc4e91893819471	-0.16336352541398783
229	0xbfd0a10dd030cb60	-0.25982995349038696
230	0xbfb77eb44d39f880	-0.09177710423861818
231	0xbfc74c43d203fccf	-0.18201492075602352
232	0x3fa5d27a9bcd53ea	0.04262145187264095
233	0xbfae9bb0e8e0b584	-0.05978157847162449
234	0xbfca28c726bab86b	-0.20436944380839192
235	0xbfb5118a917ef750	-0.0822989087309598
236	0x3fb7e0a7502b5a77	0.09327169139155865
237	0xbfd7d6dcee7a1871	-0.37248919762385585
238	0xbfac138a09c80e28	-0.054836572355295765
239	0xbfaae2d00a487128	-0.052511693244215174
240	0x3fb258d4e52d3ac8	0.07166796298154587
241	0xbfc04516f51f9c68	-0.1271084496395105
242	0xbfd1898362be4568	-0.2740181412019269
243	0x3fb72389a2680352	0.09038601126668525
244	0x3fbacd713aaf0f09	0.10469730074606444
245	0xbfbc0e4473173735	-0.10959270295935826
246	0xbfccf4b8af4081c9	-0.22621830517984012
247	0xbfcccb6b06f000a7	-0.22495782698388675
248	0xbfaa5f2a999b87a3	-0.05150731206028005
249	0xbfc4133fd61c267c	-0.15683744387233733
250	0xbf8393ea8794788d	-0.009559471380779417
251	0xbfbcd5c343037640	-0.11263676057884542
252	0xbfc0b9ed462d7e57	-0.13067403723379087
253	0xbfd38e63392bb374	-0.3055656488712011
254	0xbfc7f523c1c25a7f	-0.18716856919191469
255	0x3fc0b6028e4c6012	0.13055450390015771

model.sequential_layers.0.Linear 0.weight f8 [256, 31]
0	0x3f9b5605e296e3ab	0.026695339159889347
1	0x3f9c9a89a48a752f	0.027933264415527844
2	0x3fa5181e793e4319	0.0411996386529891
3	0xbfa3a3cc7e5708ae	-0.03835906069026983
4	0xbfd427b75e64e639	-0.31492408960511714
5	0x3f86d3721950f551	0.011145488164511138
6	0x3fc38bbbdc9cca75	0.1527018382272051
7	0xbfad5759a29a02d1	-0.057307053660229486
8	0xbfa94c49ddcc67c4	-0.04941016037464821
9	0xbfd10486dcb62c64	-0.265901294268309
10	0xbfc27fc6d6f010e5	-0.14452443594939904
11	0xbf84b9560ccf06da	-0.010119125619783832
12	0x3fc4e540d2d84e3a	0.16324625296748413
13	0xbfa43a126d2095d0	-0.03950555402870359
14	0xbfbeb2fd8a6b0b61	-0.11991867665623836
15	0x3fc0ad31c054c9b8	0.13028547183200856
16	0xbfb78ed28ba66cd6	-0.09202304753710008
17	0xbfa3f05f5f214cc7	-0.03894327198272545
18	0x3fc411b5780acd6e	0.15679043160853773
19	0x3fc76818fcd241c5	0.18286430687704872
20	0x3fbabeec77dd6915	0.10447576452626024
21	0x3fa80ea773bf0096	0.04698680198589604
22	0xbf6454bb9ddae70d	-0.0024818100344788986
23	0xbfc61dcfa67711a6	-0.17278476360492084
24	0xbfcbff46ba30e0be	-0.21872791377405137
25	0x3fc15482e9b73cb1	0.13539158260252784
26	0xbfb931ca8154aff7	-0.09841600091448287
27	0xbfb3e6b962048ca2	-0.07773932116519913
28	0xbfc3fe281a5cb25f	-0.15619374549113993
29	0x3fb62142278cb021	0.08644498315396777
30	0xbfbe265db3214431	-0.11777291892327992
31	0x3fb651fb622bfa2e	0.08718844553730129
32	0xbfb3e291863edae1	-0.07767591025808997
33	0xbf88e85efd198540	-0.012161962603559062
34	0x3fb1cf0e2b25967a	0.06956566384686794
35	0xbfc06643dc2255a0	-0.12812088249908715
36	0x3fad49c2df58e86c	0.05720337845237186
37	0xbfb3fc48a0432aa3	-0.07806829369216443
38	0xbfb31db97a6100e2	-0.0746723102356586
39	0x3fc38c77e29e08fb	0.1527242523698716
40	0xbfafcd67193e3397	-0.062113973456781206
41	0xbfaab8b65a9d40b5	-0.0521904931653138
42	0x3f9424cc61af5107	0.019671624624451513
43	0x3fb9be2107798286	0.10055738861547966
44	0xbfb43d05ef4b3da9	-0.07905613987099137
45	0x3f8bc5c208f25880	0.013560787103682026
46	0x3f7f83cba50a33fd	0.007694049346025797
47	0xbfcd6c95fa057b92	-0.22987627704693786
48	0xbf63bc65d1b59477	-0.0024091709762382135
49	0xbfb1b02967fd64dd	-0.06909426487745259
50	0xbfbbf2fc3657b665	-0.10917640997623719
51	0xbfac8313bbf21d1d	-0.05568753880748487
52	0xbfb3e6390a19627f	-0.07773167130052093
53	0x3fb745ee29c13951	0.09091080207256154
54	0xbf9b80927b2234ad	-0.026857651486854085
55	0x3fa2b115096847c6	0.03650727977596051
56	0xbfb1e2398c7da273	-0.06985816650343128
57	0xbfc3a8aea8c1ca50	-0.15358527412498058
58	0xbfcb6c15541f5ba0	-0.2142359410051684
59	0x3fc4dee40c812b70	0.1630520878846613
60	0x3fb01475f17d6393	0.06281220575091444
61	0xbfc80320b58a7fe9	-0.18759545196826302
62	0xbfc3e676a6a02224	-0.15547068725597157
63	0xbfccc715242bcdd4	-0.22482551828544095
64	0xbfb3486b56b0dedb	-0.07532378069378913
65	0x3fa990b4563bf999	0.04993213226952093
66	0xbfc554eecc40a7b2	-0.16665444348592257
67	0x3fad9266a4a8b46b	0.057757575607276866
68	0xbfc70ac2980735d7	-0.180015873177054
69	0xbfd3e04dfa14d456	-0.3105654661370115
70	0x3fb225d72b402be3	0.07088990026402046
71	0xbfc0d39e69cb664e	-0.13145809331654096
72	0xbfd501064a4b94ef	-0.32818753486056
73	0x3fb2bd2a6c0e570f	0.0731989396866448
74	0xbfa2eac6d5e158d1	-0.036947454079084736
75	0xbfd99a4bf87b3cac	-0.4000425268722647
76	0x3fa61f0c7a0310ba	0.04320563306240062
77	0xbfb5248553f2edd4	-0.0825885133698912
78	0x3fad674283347959	0.057428434864265916
79	0xbfbef135f8bb9f92	-0.12086808512287764
80	0x3fd05e6ac0e5c3de	0.2557627567066997
81	0x3fc435d3bcb5d269	0.15789267267577436
82	0xbfccd22596ecc62a	-0.22516317242984601
83	0xbfcd8f5ca4af51cc	-0.23093755761386914
84	0xbfca75a839806307	-0.20671561057749718
85	0xbfc20c2015951c87	-0.14099503568488478
86	0xbfd16f98437c38ed	-0.2724362048183043
87	0xbfaddec183ab4c1e	-0.05834011776246249
88	0x3fb6cd818a0b14e1	0.08907327289769597
89	0x3f87579ecde8ea87	0.011397591265553743
90	0xbf5d9b7d73f7326f	-0.0018070912482130127
91	0xbf91c49bbbc44d04	-0.01735156377351378
92	0x3fc9acedd7443a7b	0.20058987628040711
93	0xbfb72024fa8f6db7	-0.09033423535532036
94	0xbfa2611e53c7e5cc	-0.03589720509257752
95	0xbfb2ca23feaadae2	-0.07339692084756735
96	0x3fc3858fc9155344	0.15251347845573993
97	0xbf926fa1425242c1	-0.018003959343846136
98	0x3f9cd6e870937939	0.028163558837030343
99	0xbfc10fecf32e6539	-0.13329851030429454
100	0xbf98d3a783cd2852	-0.024244897288817242
101	0x3faef16aee3c3988	0.06043562086243798
102	0xbfc5078c10c3c746	-0.16429282015411156
103	0xbfa8b2dcd5b2873d	-0.0482396136151366
104	0xbfbe5d37bfbb7fe2	-0.11860989027945792
105	0xbfb42c076cc60212	-0.07879682927706025
106	0x3fb8f124b15e2d84	0.09742955522795255
107	0xbf90e791970b8e5d	-0.016508364528716835
108	0x3fba98effbc50d41	0.10389614006731042
109	0x3fa3b0e68f8b1bce	0.038459019682299464
110	0xbfac633327f13c6e	-0.05544433462693453
111	0x3fb87f55a5576de8	0.09569297110231612
112	0x3fa2a5c329efd08e	0.03642091643260513
113	0x3fc800c169708a46	0.18752305649202777
114	0x3fc0262d2c0ebb81	0.12616505290267457
115	0x3fa8ccd162e307e3	0.048437636681697226
116	0xbfb4c06fd74300f9	-0.08106135373509805
117	0xbfbdf27349f25d3f	-0.11698074870434015
118	0x3faada0080f67dc8	0.052444473021064975
119	0xbfd0c3b82ce1d57a	-0.2619457662870769
120	0xbfcf1fd41225696d	-0.24315882574121464
121	0xbfc648617057e7b8	-0.17408388124004914
122	0xbfc2c7b1e9388320	-0.14671920669300054
123	0xbfc9ace7b3ffcbd4	-0.20058914460204724
124	0xbfb54b4700e14e61	-0.08317989131438132
125	0xbfcd3c6d36b3d8e0	-0.22840657397291064
126	0x3fc70ab87c01f9b2	0.18001466803612015
127	0xbfaeff0a26edd2df	-0.06053954816062456
128	0xbfc1e262d27a4abb	-0.139721253177944
129	0xbfc3fc8e89413d92	-0.15614492132088437
130	0xbfc6a5330eab918b	-0.17691648689573145
131	0xbfa2cc740b78ab26	-0.036716104889214216
132	0xbf81cb1b4864e10b	-0.00868817629508147
133	0xbfb0ee3fc41d9fa7	-0.06613539255124455
134	0xbfc8866294e79da2	-0.1916011073183031
135	0x3f918913f0b55ffe	0.01712447315853182
136	0xbfbd8758676fc63d	-0.11534645581539223
137	0xbfca600acd04a1bb	-0.20605597506188453
138	0x3fbd149a91065bb4	0.1135956386627715
139	0xbfa903b450c27e39	-0.048856387003294484
140	0xbfa1de56f390011f	-0.034899441940071656
141	0xbfba01cedce7033f	-0.10159008877873264
142	0x3fb4294c4944327e	0.07875515736322744
143	0x3face3076d73e142	0.05641959391681663
144	0x3fa84ae26dbbb503	0.047446323294801494
145	0x3fbbcd66dd0f6a0d	0.10860293290117103
146	0xbfb4133baae6f59c	-0.07841847345749503
147	0xbfa637cc0e7cf615	-0.043394448059626146
148	0xbfa0c9df64270972	-0.032790165877957814
149	0xbf93b29c558673fe	-0.019236033172649762
150	0xbf9cb99e5dcc8fbf	-0.02805182883743362
151	0x3fc4740d5e13f87e	0.1597916325917516
152	0x3fc7eb93b46011cb	0.1868767386187201
153	0x3fb24be55973ff31	0.07147057947076686
154	0xbfd2fadf183f64a2	-0.2965619789880042
155	0xbfae79a5f8faf077	-0.05952185310658902
156	0x3fd0f6df48aa73b5	0.2650678834559657
157	0x3fb931309bdfcf99	0.09840682797931634
158	0xbfb9fcc5af50c448	-0.1015132477775903
159	0xbfc9af09cdb82dd0	-0.20065424485106442
160	0x3fce260e28a065ef	0.2355363558170178
161	0xbf985bc7a1da0dab	-0.02378761220326246
162	0xbfc670c67d3d75b2	-0.1753166305087866
163	0xbf72ac1239f582ff	-0.00455863113106214
164	0xbfaa8b70882cd40e	-0.05184508955282051
165	0xbfb5166a2f8af0ee	-0.08237327252112767
166	0x3fbf9ecacda44bab	0.12351672668982754
167	0xbfbd1344bf4bc0de	-0.11357526464758247
168	0xbfac011c7a539ad4	-0.05469597810024643
169	0xbfac5b494699bb5e	-0.055383958690859755
170	0xbf8bef7256864252	-0.013640301957623144
171	0xbfc2dae496c61f0f	-0.14730508195884126
172	0xbfcd3090f03de661	-0.22804462175899956
173	0x3fa04aa4ef636330	0.03181949064464218
174	0x3fca841400c1f456	0.20715570485109208
175	0xbfc1b2e461bc6efe	-0.1382718541361711
176	0xbfb28bb681375979	-0.07244434981052973
177	0x3fc10e9316fd0e70	0.1332572805641692
178	0xbfbfb8b28442f5c1	-0.12391200760881473
179	0xbfd4270d85597903	-0.31488359472668054
180	0x3fc15a0c41364779	0.13556054290944156
181	0xbf93275019e9d67e	-0.01870465429461498
182	0x3f9b052d88b275b2	0.02638693949540078
183	0xbfc4b703fbccdc9d	-0.16183519167836816
184	0xbfb67d8e9760eb84	-0.08785334773794601
185	0xbfc7a58dc3992b04	-0.1847397999830137
186	0xbfbf0796b06edd4c	-0.12120954329917771
187	0xbfb4273d64d40d7e	-0.07872375213269397
188	0xbfb601b8497883c0	-0.08596374314994559
189	0xbf79985fd5483996	-0.00624883112733556
190	0x3fb22ef8aa85bb65	0.07102922595161727
191	0x3fb62883cba4be14	0.08655570718541866
192	0xbf8d6254070333b5	-0.014347702468876603
193	0x3fc48987f6ba3d1a	0.16044711634865721
194	0xbf620f6cd1d87cd5	-0.0022046208748772536
195	0xbfc59b57da0f817e	-0.1688031973599315
196	0xbfbfccd53e431e4d	-0.12421925325463086
197	0x3fc760f0759af88b	0.18264585249375317
198	0xbfce6f1612298f4f	-0.23776508223374512
199	0xbf8e1b7c86bda065	-0.014700863706551279
200	0xbfb9bf7441130079	-0.10057760800100536
201	0x3f219f89e4c8331a	0.0001344543292280058
202	0xbfadf19ce9e38e68	-0.05848398547257433
203	0xbfa21bac2b453522	-0.03536737468912522
204	0xbfc7ae275facb62d	-0.1850022523080254
205	0x3f9b150fb4b25032	0.02644753017791874
206	0x3faf9518c8887fc8	0.061684393386030545
207	0xbfa315b16b354485	-0.03727487977688163
208	0x3fc18debed8537f3	0.13714360330271766
209	0x3fb6460403ff554d	0.08700585458367023
210	0x3fa6b70260c8b72b	0.04436500007100926
211	0xbfb8e215432d8590	-0.09719975366672018
212	0xbfbc45367b8ace3a	-0.11043110386054247
213	0xbfb9f5b43933f93f	-0.10140539547498849
214	0xbfb14eb0d7449e57	-0.06760697608535203
215	0xbfbefa4148d65168	-0.12100608852626282
216	0xbfc8b84fc0489063	-0.19312474144783484
217	0xbfc55c1f3711bc59	-0.166873838319108
218	0xbfcafea6c51b780c	-0.21089634537105473
219	0xbfc6ad03bbb15055	-0.1771549860446863
220	0xbfcbda0e201d4bf4	-0.21759201591575528
221	0x3f9e42fe5824da26	0.029552435045127855
222	0x3fcf64ebcc9d67fe	0.2452673672767673
223	0xbfce49dd2e43d2a4	-0.23662914999990392
224	0xbfbd854a36a5206a	-0.11531509241206242
225	0xbfac9e94ca9302b8	-0.05589737866239858
226	0xbfa6bc8ed67e1d77	-0.04440733307188343
227	0xbfc578318130f6e4	-0.1677305107895598
228	0xbfbde58ff414f033	-0.11678409298923569
229	0xbf9adf082eaaf0cc	-0.026241424415943723
230	0xbfd9301c17ab6a4c	-0.393561385264239
231	0x3fb834bd76a5e8b8	0.09455474993402191
232	0x3f9c18b8ed8c307f	0.027438058375125692
233	0x3fb19f9ece3878fd	0.06884186300928614
234	0xbfbd001400525cfb	-0.1132824421678044
235	0x3f65eca9bcb6d37b	0.002676326291942419
236	0xbfc0b647e07f25ce	-0.13056276761771674
237	0xbfd1283827023f86	-0.2680797940201888
238	0xbfcd8a35b578f845	-0.23078032837833198
239	0xbfd1a57f8a5d2a25	-0.27572620880224213
240	0xbfae34f2c16f1ebd	-0.05899771319633149
241	0xbfcda6e783b13c35	-0.2316560166386538
242	0x3fc58c85cd1e4977	0.16835091128866583
243	0xbfc03ba80954fa7c	-0.12682056861554603
244	0x3fad9b981fc7b325	0.057827714805034604
245	0x3fb15ae408c76a4d	0.06779313291864604
246	0xbfd46b4ae00cb8de	-0.3190486133561431
247	0xbfb8b736689d4194	-0.09654560140666596
248	0x3fa5a8696ab806a1	0.04230050494881011
249	0xbfc1c9de32eade49	-0.1389730213756926
250	0x3fbfbc9b65f4de15	0.1239716648022909
251	0xbfcbbd1b4bf0ef32	-0.21670857627929646
252	0x3fa62895d6a802c0	0.04327839131656708
253	0xbfb0d15de40c9423	-0.06569468324285359
254	0x3fca67dee4892c2d	0.20629488142944422
255	0x3fbca2705ff25cb1	0.11185362188767801
