Data/Breast Cancer Winsconsin (Diagnostic)/results/models/bcw_14.onnx (onnx, 416707 bytes, 5 tensors)

model.sequential_layers.4.Linear 4.weight f8 [1, 17]
0.616596204963268 -0.5170207556887295 0.46684401910330114 -0.47553838751292465 0.48579666290804574 -0.47677011358758287 -0.48636591654333333 -0.40768627759293047
0.5075118546954734 0.43954612807363386 -0.49937875311533836 0.5027663798921372 0.5505685887174459 -0.5090595344610236 -0.5071146151296922 -0.5346251071080808
-0.15032269220573646
00000000: 57f5 e4f6 27bb e33f 5d29 a11c 6f8b e0bf
00000010: af70 98bc c5e0 dd3f d813 978f 386f debf
00000020: 258b ece2 4a17 df3f 6d68 64cb 6683 debf
00000030: e754 5c82 9e20 dfbf 0989 522f 8817 dabf
00000040: c7fa 4780 893d e03f 4738 4a15 8621 dc3f
00000050: 13a6 3c4d d2f5 dfbf 0548 e584 a916 e03f
00000060: bae1 5704 429e e13f 4044 8738 374a e0bf
00000070: edc7 e96d 483a e0bf 60ca d41c a61b e1bf
00000080: 6466 6f23 c63d c3bf

model.sequential_layers.3.Linear 3.weight f8 [16, 65]
-0.19524205292512636 -0.0252736955529757 -0.09484644810476435 0.025887351538239612 0.3477776851014861 -0.1857210918932177 -0.08755976867537435 0.3062503497996643
0.3279683046156367 -0.1320363638016981 -0.16515603467161966 0.010899302887281217 -0.21852011358865242 -0.4348006739890182 -0.049047885956710426 0.42526241230336087
-0.28482785256282134 0.0785990112895158 -0.08057082348054329 0.1374961227090599 -0.030867579322095252 -0.01764101784884688 0.38495511184213843 0.12963794751937577
0.055348045463339414 0.06722786373342918 -0.1593983777515078 0.19608937129616352 -0.06796120402562493 -0.07216402549970809 -0.2568379291937076 0.2927508253714479
-0.047981290597985615 -0.13033154156891877 -0.10964221393361885 -0.216196181884957 0.006804052315817681 -0.3541900068874102 -0.19940369198209804 0.10730032568818693
0.05947673750473253 -0.13648218900695713 0.09349839425112526 -0.011395589355253031 -0.11841201838211246 0.12989853097988416 -0.37126591911865336 -0.2806073761716527
0.039660292774641684 0.35704752458556344 0.22815189167257352 0.23404114118351965 0.013798429733447961 -0.014600957140149818 -0.14149798896272583 0.05408697224546289
0.13082447688529147 -0.2822895699346915 0.0019320049190467456 -0.09142552281910077 -0.004772749530094119 0.17899310055179593 -0.0323161535024775 0.06213422016255106
0.27079970683929894 -0.13059056453331916 -0.2739257639542588 -0.3386638465572263 -0.16092209485545697 -0.07110629155611416 0.06330575424613315 -0.23149309127477175
-0.19795367072411552 -0.26623430091374317 -0.1490911797897641 0.07377789544895187 0.026648449551852943 -0.0590190372086519 0.24641580164368987 0.11465758123503539
-0.22848856471486934 0.13887648485064272 0.12827744246736847 -0.07109254165654522 -0.3999334513292877 0.25914142223037845 -0.15708799659779235 0.3926904030073294
-0.05894366649794691 0.062102739599011275 0.2725422955125402 -0.33764880256059726 0.05720953829317295 -0.12831272382962844 0.05706529817613492 0.4162412556709295
0.13842015244549236 -0.5235829165271841 -0.12976262902358343 0.17222578932973245 -0.04619113698022139 -0.21649198000045355 0.26814834129983334 0.1724617905551843
0.12125564311296166 -0.4219785103496339 -0.44723987619976546 0.1289634139205233 0.09574120817679456 0.14161056966779437 -0.056534164975444216 0.13910890711666823
0.11871700136299049 -0.27820717529020633 0.13026028171617154 0.1832926472832224 0.3463306493890023 0.032869556348374636 -0.12543769805983015 -0.19181538756777033
0.26401570642604966 -0.005938857819326966 0.16201532702580085 0.05864340985455998 -0.017288519824139682 -0.1899823703480725 0.18716323946294536 0.21232970584027522
-0.02023881742126706 0.17142259011015154 -0.2651362858888444 0.1953184382545127 0.08956372048345683 0.057774964608738016 -0.16264998761950542 0.04549270526744654
0.10473389318216236 -0.11746214895806174 0.25087319411371933 0.20328963882027057 0.16897576802052452 -0.13296095755921142 -0.050835055700443596 -0.17464629392191525
0.14996712384661243 0.025802687761485667 -0.10185082277866342 0.056875064860899466 0.13490745132820461 0.28712710457806506 0.00037552554592714185 0.07709821995100684
-0.09316250493613637 -0.14331084668593266 0.2632381529829739 -0.25280091970925966 0.07695978092817181 -0.12487517619126835 -0.13707198693948902 0.1777589414798454
0.12868292579850252 0.24017293169873988 0.116326934745083 0.05869065567795396 -0.05381526279482884 -0.22111272768943294 0.28424342924948315 -0.14693083751645422
-0.14770274799794508 0.24951354931086087 -0.32383928837487197 0.21725279805517086 0.0468729524248253 0.14293102125574764 -0.1853229861545773 0.3833933519061229
-0.3156417914376888 -0.24815666753632615 0.23796128679062561 0.4013776074117028 0.02510210900451714 -0.42029241612683815 0.08269326922383806 0.23903999326284056
0.22955317822620644 0.41534939800702925 0.06819763889101774 -0.31311674468635603 -0.15579600141997654 0.010321410104242252 0.1552027981803285 0.40480494409676004
-0.1559018929534029 -0.14992257823222582 0.16845980328564283 0.04217030165747148 -0.17663641671311792 -0.39566985808978017 -0.24098697876798789 0.024711783711487557
-0.018976826736733548 0.04235956852195318 0.008092589894048399 -0.2181887722243775 -0.22342369513415866 0.14880937433581864 0.12113689890163776 0.17664260501095944
-0.0036322551865184366 -0.16811194554486036 -0.20111474982214791 0.13130061115274314 -0.12584622974231435 0.10475420059449474 -0.33370810251865624 0.2955099593852095
-0.20494179240662466 -0.19197250759803677 0.20234949321088963 0.07526518158865517 -0.0024627855729351584 -0.09241056560510232 0.212502380190609 0.20219271896114477
-0.26029538944305347 -0.10488374758317712 -0.045348777802853464 -0.2525588753767741 -0.07222215762235315 -0.07894516192140463 -0.014797813839202579 -0.3475042327745857
-0.09808792406626207 0.1331098246668945 0.25644498590204773 0.16242693766512573 -0.2630946323201902 -0.015115908086235709 -0.05892878389772061 0.10165792074651897
0.2058585983120273 0.018089365641434263 0.16395178136159985 -0.1733960053473283 -0.4100875730379669 0.17155292541231318 -0.2506320897692563 -0.39771399846562433
-0.18970138380112178 -0.17600067756491802 0.12379839563659832 0.0894782918068784 0.1107343924497395 -0.08884276640862136 -0.3092267553620366 0.1448733228786255
00000000: 4e04 0f0c b1fd c8bf 2e78 65ff 58e1 99bf
00000010: fd70 c058 db47 b8bf 3d7a f2c0 3682 9a3f
00000020: aa86 f255 fd41 d63f 87ec ed6f b5c5 c7bf
00000030: 6cf3 e726 516a b6bf b1cc 3111 9b99 d33f
00000040: ebb7 9cc5 6efd d43f 569d 344c 91e6 c0bf
00000050: 3869 d33b d523 c5bf eebe 99ab 5f52 863f
00000060: ecd3 b092 77f8 cbbf 1cf1 c334 c6d3 dbbf
00000070: f577 3ef4 cd1c a9bf 79e7 43d6 7f37 db3f
00000080: 93d2 ef99 9e3a d2bf 0c85 fc96 101f b43f
00000090: 4c58 dc1b 4aa0 b4bf 115d 2e13 7999 c13f
000000a0: 5ac4 c72e c09b 9fbf c571 eaaa 7c10 92bf
000000b0: 798f f2c3 1aa3 d83f c548 75ec f997 c03f
000000c0: 953b 533a 9456 ac3f 2272 1d64 d835 b13f
000000d0: 0135 bd81 2a67 c4bf 67b5 67de 7419 c93f
000000e0: ebd4 afcc e765 b1bf 850d 7871 5779 b2bf
000000f0: fe98 905a 0870 d0bf 683b 36f5 6dbc d23f
00000100: 705e e0f3 0091 a8bf a77f 5636 b4ae c0bf
00000110: 211e 1b1b 8311 bcbf 83a4 5b05 51ac cbbf
00000120: decd d3e2 90de 7b3f 38b1 0990 0cab d6bf
00000130: efe3 e167 0f86 c9bf 3850 aebd 0878 bb3f
00000140: c744 e924 bc73 ae3f 4ebc 2295 3f78 c1bf
00000150: 377f 89c1 82ef b73f 5fb0 cb1c 9256 87bf
00000160: e08e 6702 4050 bebf a9b3 2ddb 83a0 c03f
00000170: d0f9 2e21 d2c2 d7bf 8f1c eba3 78f5 d1bf
00000180: 2270 d598 5a4e a43f b69d 4ddc ddd9 d63f
00000190: df8a a0c8 1434 cd3f 469f a663 0ff5 cd3f
000001a0: 1bcf 87e3 5942 8c3f a707 424b 1be7 8dbf
000001b0: f5b7 8529 9b1c c2bf 212b dea1 49b1 ab3f
000001c0: 968b de40 dbbe c03f 19c5 b745 0811 d2bf
000001d0: 8e63 5a7c 6aa7 5f3f f019 87be a967 b7bf
000001e0: 96d0 4c32 978c 73bf 6f30 8af4 3ee9 c63f
000001f0: adef d92c be8b a0bf aa09 1f77 0ed0 af3f
00000200: 0909 294b c854 d13f b71b eb0d 31b7 c0bf
00000210: 6ac8 6ded ff87 d1bf 1d41 5320 abac d5bf
00000220: ddd2 4d5f 1899 c4bf 59fa c59c 0534 b2bf
00000230: d7c0 2250 ce34 b03f 1236 23cc 90a1 cdbf
00000240: a40d f1be 8b56 c9bf 69de df97 fb09 d1bf
00000250: 0ad8 a876 6b15 c3bf f1f6 1eb0 1be3 b23f
00000260: 98db 412d bb49 9b3f 441d 4e45 be37 aebf
00000270: 9e7d a390 8d8a cf3f bc97 a401 335a bd3f
00000280: 88ec 7a00 1d3f cdbf 37f8 4e64 b4c6 c13f
00000290: 871e 1b2e 656b c03f 6885 67ed 1e33 b2bf
000002a0: e248 8279 8298 d9bf 832d 61e7 c595 d03f
000002b0: 9ba7 fd9f 751b c4bf 8aa6 97ed d621 d93f
000002c0: 907c d43f dd2d aebf 44b7 2327 eecb af3f
000002d0: 3f33 803d 5571 d13f 4001 22b9 099c d5bf
000002e0: 7a14 fa8f 914a ad3f c024 4124 8d6c c0bf
000002f0: 6f54 ceaa a937 ad3f 4691 165d b2a3 da3f
00000300: 352c ee65 c0b7 c13f 5050 e7f5 30c1 e0bf
00000310: 521b f3d3 0f9c c0bf 6578 59a2 7e0b c63f
00000320: 13e5 635d 5da6 a7bf bc5f f95a 02b6 cbbf
00000330: e800 17a9 5729 d13f 443f 1f5b 3a13 c63f
00000340: 8028 a01d 9c0a bf3f 2141 6427 b201 dbbf
00000350: 6aaf 6f00 949f dcbf fea6 9586 df81 c03f
00000360: 51b5 ffed 7e82 b83f 93dc be8e 4b20 c23f
00000370: 1737 5acb 0bf2 acbf 80fe 5217 52ce c13f
00000380: aa4e 55c6 3c64 be3f 0e93 d877 25ce d1bf
00000390: 7027 f870 5eac c03f c1df d62a 2276 c73f
000003a0: f39a 2e07 482a d63f b1c0 194b 47d4 a03f
000003b0: 7f1e 6dad 570e c0bf ce8f 3c18 688d c8bf
000003c0: eebb 2e22 a2e5 d03f 48ef c001 5853 78bf
000003d0: 4e66 8311 ebbc c43f 730b e74e 8206 ae3f
000003e0: bab5 f6ec 14b4 91bf 7713 bba1 5751 c8bf
000003f0: bddd 400c f7f4 c73f f4d1 46ab 9e2d cb3f
00000400: 7579 bc0b 7cb9 94bf 9ecb 28e9 2cf1 c53f
00000410: 1408 382f fef7 d0bf 55f1 4dd0 3100 c93f
00000420: b770 62e2 a5ed b63f 044f 0b1f ae94 ad3f
00000430: 63a2 c2fc b6d1 c4bf 8116 a9e2 d14a a73f
00000440: 7c09 0026 d7cf ba3f 09f2 4ad8 ff11 bebf
00000450: c255 0a71 4e0e d03f aaa2 2c17 6505 ca3f
00000460: 2d79 bb7a ffa0 c53f c74a 2e5a dd04 c1bf
00000470: 868e 726b 0d07 aabf bd90 614c cf5a c6bf
00000480: a6bc 326a 1f32 c33f 0782 5610 056c 9a3f
00000490: 70b1 e740 e512 babf 7425 127f ba1e ad3f
000004a0: 2d7e b8b9 a544 c13f 3d4f fd5c 4a60 d23f
000004b0: 4019 46f0 459c 383f aff6 447d b5bc b33f
000004c0: 5c05 ea77 7fd9 b7bf a5cd d683 0258 c2bf
000004d0: acc3 87d6 e4d8 d03f 1233 a3e8 e32d d0bf
000004e0: 599e 31de a2b3 b33f 53e0 d2cd d1f7 bfbf
000004f0: 022a 8d2a 938b c1bf 2c1f 1d14 cec0 c63f
00000500: 49d8 ed9e ae78 c03f 64e8 8393 fcbd ce3f
00000510: 3dc2 5f1c 9ac7 bd3f 716a 6f9d b30c ae3f
00000520: 8f78 7593 ac8d abbf 61e6 13ff 6b4d ccbf
00000530: d1ae 2e5a 0b31 d23f 911a f432 a1ce c2bf
00000540: be1a 1774 ece7 c2bf d779 195b 0ff0 cf3f
00000550: 20b8 2e6c c8b9 d4bf 0944 4e8f f0ce cb3f
00000560: c792 764b bbff a73f ec4b f04e 904b c23f
00000570: 6f90 5de2 a9b8 c7bf 1233 fc44 8489 d83f
00000580: 4c72 dea0 7933 d4bf b42a ad01 99c3 cfbf
00000590: 8a6a 3df4 8375 ce3f f884 4bb4 2bb0 d93f
000005a0: 3eab f004 5eb4 993f c761 8129 12e6 dabf
000005b0: d36b ead6 622b b53f b5fe bfcc dc98 ce3f
000005c0: 4353 96a0 ff61 cd3f 639f 36a4 1595 da3f
000005d0: f28a b384 6675 b13f 1f81 90d0 1a0a d4bf
000005e0: 9d22 7995 1ff1 c3bf bd45 c536 6423 853f
000005f0: 4e52 376f afdd c33f 7ce6 09ff 52e8 d93f
00000600: 2247 cfdd 97f4 c3bf a23e 38bd a930 c3bf
00000610: 01b6 e640 1790 c53f 3f6c f684 5897 a53f
00000620: 4c61 88a8 059c c6bf 5c8c 20ab a752 d9bf
00000630: 5f01 494c a9d8 cebf ea76 77bb 0b4e 993f
00000640: eb50 dd48 a96e 93bf 6bec f242 27b0 a53f
00000650: 4ea1 7a07 d992 803f a46f 8714 9ced cbbf
00000660: 0258 e0cb 2599 ccbf ec26 0e82 2f0c c33f
00000670: 9413 1feb d302 bf3f b518 cd91 399c c63f
00000680: f70d 9427 64c1 6dbf 524f 1736 b184 c5bf
00000690: 3f5b 9dcc 20be c9bf a344 6c5b 75ce c03f
000006a0: e6b8 88b0 ba1b c0bf cb06 acd9 2bd1 ba3f
000006b0: fe94 ae3a 795b d5bf b0e9 cc9a a2e9 d23f
000006c0: 632b fc5b 883b cabf d1ad ee1c 8e92 c8bf
000006d0: 1afa d993 96e6 c93f 0266 7335 9444 b33f
000006e0: 6d28 c5ef d52c 64bf b92a 1405 38a8 b7bf
000006f0: 51d3 9e2a 4733 cb3f 38b6 b675 73e1 c93f
00000700: a747 3dfe ada8 d0bf 1a6d c049 a9d9 babf
00000710: c955 277b f437 a7bf bdb2 83b3 ec29 d0bf
00000720: 2ed9 08bd 267d b2bf 563e a108 c035 b4bf
00000730: 5af1 eef3 504e 8ebf 3942 bf64 823d d6bf
00000740: b643 ff49 4a1c b9bf d13c dc23 be09 c13f
00000750: d909 eb3a 9869 d03f 386d a1e8 67ca c43f
00000760: 0960 64de 8ad6 d0bf e7ac 09d7 16f5 8ebf
00000770: 617c 44df e92b aebf 2454 fce4 4006 ba3f
00000780: 16df ac15 9359 ca3f 0065 57c7 0486 923f
00000790: 71d5 8839 5ffc c43f 02a6 1c1e d731 c6bf
000007a0: cb6b acf2 df3e dabf e1e9 163e 72f5 c53f
000007b0: 1ec6 382d 5b0a d0bf 5f8f 246a 2574 d9bf
000007c0: fc43 b78b 2248 c8bf 7d8a 1bb1 3087 c6bf
000007d0: 1774 8e6c 40b1 bf3f 6132 03a1 0ce8 b63f
000007e0: 1133 1dd2 1659 bc3f f310 3648 66be b6bf
000007f0: 3e00 5504 5fca d3bf 3bcc e983 358b c23f

model.sequential_layers.2.Linear 2.weight f8 [64, 129]
0.0030605600428023584 0.006803881766191394 0.20587929742561237 0.2390606857412863 0.04939150075296464 0.02490215780550362 -0.06004008485132226 0.15353161202961862
0.09898901239718362 -0.03672217422692817 -0.11524660846093292 -0.1108861094869903 0.031879645398031564 -0.09452172951094348 -0.16947817202075788 -0.148415654170313
0.05757989668184961 -0.05372756510233078 -0.04514487362102023 0.09872929778802446 -0.1426398055233077 0.08269149199405758 -0.13123732835408158 0.16131598330330998
-0.12769192768319984 0.025887151872000476 -0.0497204419406069 -0.21013855794042993 0.012252001503583895 -0.006359517676716007 -0.060535408077256415 0.19389078998815368
0.09161595996036614 -0.06646964350107157 0.07155048844162724 -0.07615582883543155 0.052259622074536445 0.1094890988473926 0.05781982636219815 0.020491337271233215
0.0063319486687159095 -0.1023433377252733 -0.22328688850330483 -0.07162394872415308 0.003486065350699247 -0.10402531958718753 0.21144296807609955 -0.14319786643725052
0.08547670402851039 -0.1259053499966534 0.12710339283084396 -0.02643700854380302 0.161022330691561 0.010319221920618139 0.07822286155858817 0.062255418408064395
0.22571484588374832 -0.0685834533132237 -0.2663935949062295 0.0007418805767862117 -0.001979414185159651 -0.1629850518282449 -0.13386104888758404 0.13688019346521296
0.09583978045288834 -0.02512288710813568 -0.015728640873878874 -0.038848553763486206 -0.06992254454645723 0.1969631485842186 -0.16865124483483115 0.15467008986798556
-0.026504503632286177 -0.11398056938819383 -0.07964608371048383 0.0016492308823954308 -0.27363837800962204 -0.03488881775204175 -0.10314831646768638 0.165959589600248
0.13260722461410823 0.17636960800410403 0.12462009372610731 0.13377417587673726 -0.1750670672224861 0.03676599358179452 -0.16129759306854044 -0.1263088484424102
-0.09074689047924006 0.13016471570425742 -0.11957227956501548 0.1873014237783274 -0.29513836277266764 0.09468325158299545 0.07364164120086937 0.07334541234111401
-0.10390404266223616 0.1487822673448886 0.0513617361344545 -0.03520497861031876 -0.15275876357557447 0.25268849235995755 0.03794638592480206 0.005788881835782449
-0.1337216605724093 -0.1703526210426868 0.1652104922322951 0.015862178632450263 0.07694673104344284 -0.17267361137252293 -0.11787289675122074 0.21980463164165945
-0.07381927627539314 -0.07745967403683791 0.058291716067489466 0.25303198392074827 0.22607912500446165 -0.012630558002648284 0.17112318094479406 -0.14626892029405264
-0.24540572249137269 0.15952039486509867 -0.18703649291914695 -0.045912848791189065 -0.20737976281241471 0.09825458016727298 -0.12312399601049878 -0.13204725938544018
0.010362103181301355 -0.08345315533139917 -0.20687026949548598 0.15002308486497104 -0.13079636642196432 -0.08393017737386806 -0.11307027215952432 0.2756524152878668
0.2428808235725072 0.09674770056984339 0.182474303104612 -0.03515361777395978 0.07868974906643222 0.1077074917537697 0.15787397469677192 0.11550753249191605
0.09770774381793457 -0.052820954950190464 -0.07823472133412829 -0.12498879055946534 0.11309917551378364 0.09165477239966084 0.004949471289478953 0.19520714748683013
0.009809312428207822 0.10944966286208907 0.10055245263969606 0.19171288230221434 0.09725849077383356 -0.001833801226136232 -0.10713016743239742 0.2984451192714394
0.16856222240735821 0.1916364724886567 0.21084304042941404 0.1188812058425813 -0.1378748181925442 0.07456791826996136 -0.0913228577386725 0.14952720633550964
0.046533502853008314 -0.15493900398514793 0.05669461004789466 -0.11251577279500047 -0.021125626764124033 0.1788538988870268 0.2015354958523972 0.148281880831804
-0.000945786872331534 0.13459571258345798 -0.05595011365677726 -0.0726190804953698 -0.0034049264855946157 -0.07254584273622242 -0.0717488521154684 -0.2686612851258534
0.17493779868803433 -0.2398509322848347 0.33393536761556525 0.4130838670377287 -0.07342902203225365 -0.17905889766762345 0.02790155850570762 0.2576962988392084
0.07071082156310506 0.023119048526516126 0.24321366183343493 0.154400182676014 -0.06420983731476894 0.13025134640798178 0.02931308335049757 0.035797979940205914
-0.05397826059505361 -0.0024692212993422725 0.15919831102187063 0.16474072687114427 -0.08003059683288642 0.16442027168301745 0.2325557685775418 0.046553338477954245
-0.08206411427811015 -0.02216341026115873 0.12536034295794807 0.14984958039490057 -0.21787873124368706 0.022439684904747716 0.12745682900011138 -0.052787802249643516
-0.03225071076473376 0.04912838753642492 0.07487328795772633 0.06393895245052152 0.10649317081319411 -0.04489863257877156 -0.1007499632204651 0.07757172944956502
-0.030832478907983598 -0.05549509594622399 -0.023951346189129787 -0.21936368148605986 -0.2895872086654055 0.14813688845431683 -0.35580215546699706 0.1749826939830373
0.06707629126122769 0.23442623288402423 0.0008994241054757419 -0.26735560031806244 0.33698375508890654 0.11298904108470821 -0.0016677569760278274 -0.14423282606856175
-0.015360277025492928 0.06250564169641608 0.19329101156334755 0.03134017284898826 0.038962849257667374 -0.1462731161326201 -0.007289368248666643 -0.013621955604931417
0.02342041375429236 -0.21771492618605193 -0.3686770503635848 0.03223822687589531 -0.27194805376896297 0.11565373659278762 0.04343004788043575 -0.09398797742294832
00000000: 762b 52a9 7512 693f 790c bf1a 63de 7b3f
00000010: 3be8 aeb8 405a ca3f 0253 8261 8a99 ce3f
00000020: 2462 dec0 d749 a93f d974 7f85 f37f 993f
00000030: 7d5f c5f1 92bd aebf 30e1 4882 eca6 c33f
00000040: 19c4 e80a 5857 b93f 8472 afb2 3fcd a2bf
00000050: 2f8b 503e cd80 bdbf d9c9 d335 0863 bcbf
00000060: d005 c964 8752 a03f bec7 0279 9332 b8bf
00000070: b085 1bf3 75b1 c5bf d01e 70be 48ff c2bf
00000080: 32ab 4fba 1c7b ad3f 9f35 04ee 2d82 abbf
00000090: 5b94 9197 3a1d a7bf 9b17 28c1 5246 b93f
000000a0: c54a ea69 0542 c2bf c19c c505 452b b53f
000000b0: eac8 a580 62cc c0bf e00d 4e8c 00a6 c43f
000000c0: b967 ae86 3558 c0bf 3212 b55a 2982 9a3f
000000d0: b4b7 2730 f574 a9bf adca fdfc d1e5 cabf
000000e0: 98c1 25ce 9317 893f 4b8a 0907 700c 7abf
000000f0: 9d37 e23b 7ffe aebf 2053 ffd4 69d1 c83f
00000100: 7448 d2bf 2474 b73f ba8d 0391 2704 b1bf
00000110: 179f deff 2151 b23f cd79 3fca f27e b3bf
00000120: a943 6cef c5c1 aa3f 8b6c d142 7a07 bc3f
00000130: cc73 926e 8f9a ad3f 449a b95d aefb 943f
00000140: 14be 3b87 87ef 793f 1b58 7e48 2c33 babf
00000150: 49a7 df2d aa94 ccbf 3570 6175 f255 b2bf
00000160: a7fc 8815 cf8e 6c3f 283a 9541 67a1 babf
00000170: 0d92 6d2c 9010 cb3f 5c3c 9ac4 4e54 c2bf
00000180: 9950 5f20 cde1 b53f 8143 50a0 aa1d c0bf
00000190: 95a5 b589 ec44 c03f 7a19 669c 4d12 9bbf
000001a0: 577b 1f36 619c c43f a790 5a85 3e22 853f
000001b0: 7994 31d8 6906 b43f 2474 1f34 f1df af3f
000001c0: af6c a55c 39e4 cc3f 01ec 0669 af8e b1bf
000001d0: b81c 7fb8 970c d1bf 557e 4c68 584f 483f
000001e0: c291 18e6 2137 60bf 266a abb5 b1dc c4bf
000001f0: 5a18 97dd 5b22 c1bf 749d 3349 4a85 c13f
00000200: 2173 b3b2 f488 b83f b9cb 0a6a d0b9 99bf
00000210: 50c5 a738 2b1b 90bf e577 d227 f5e3 a3bf
00000220: db83 14a2 71e6 b1bf 34dc d7a4 1636 c93f
00000230: 9f65 7f2e 5d96 c5bf 2781 d3c0 3acc c33f
00000240: ff84 3021 ff23 9bbf 2bd9 e6a1 d42d bdbf
00000250: 657f ca8c af63 b4bf e82f 052d 6005 5b3f
00000260: 03d6 1e8b 4a83 d1bf 8c74 7b76 f2dc a1bf
00000270: 66bd dd95 ed67 babf eb33 e5f0 293e c53f
00000280: 6c28 7706 46f9 c03f 5b67 3181 4793 c63f
00000290: d363 fa3a 1ae7 bf3f e94f 381f 831f c13f
000002a0: 10e2 2900 9968 c6bf 7bd7 1308 fed2 a23f
000002b0: 2592 9347 66a5 c4bf 98b6 a06a e32a c0bf
000002c0: 8c70 d22e 303b b7bf 827e 85c6 3ca9 c03f
000002d0: c86a 3df6 499c bebf b5a2 cf38 7ef9 c73f
000002e0: 71d4 f903 8ce3 d2bf d424 075d 293d b83f
000002f0: 31dd 94b8 2dda b23f 8714 51d3 c3c6 b23f
00000300: ee0f 2891 7499 babf 8f4a 3c1e 4c0b c33f
00000310: e130 ede1 154c aa3f 3b4d 930f 6306 a2bf
00000320: b703 de62 998d c3bf 75bd b05a 0c2c d03f
00000330: 73ca 186d b56d a33f ac39 a422 15b6 773f
00000340: 9470 7697 ca1d c1bf bd46 155c 1dce c5bf
00000350: a300 8c0e 9e25 c53f d0f4 e0c9 2c3e 903f
00000360: 2f9e 5ded c7b2 b33f e114 dd3c 2b1a c6bf
00000370: 6b9b a10c eb2c bebf 3583 34e4 8e22 cc3f
00000380: c4cd 6af1 d1e5 b2bf f53d bfae 65d4 b3bf
00000390: 8a71 466c 69d8 ad3f ed05 f20f ad31 d03f
000003a0: 2aea 1928 29f0 cc3f 20b0 69cc 0cde 89bf
000003b0: a468 df48 5de7 c53f a2c6 8aa2 f0b8 c2bf
000003c0: 6b04 2d68 7469 cfbf 26cc 7e0f 2a6b c43f
000003d0: d585 1fd2 cff0 c7bf a077 0c90 e381 a7bf
000003e0: e6d6 9089 6b8b cabf 722a 8050 3627 b93f
000003f0: 0cca 37e0 0d85 bfbf 5d1f 4bb2 ece6 c0bf
00000400: b571 40f2 b938 853f 5778 e59c 2f5d b5bf
00000410: 86b8 ff98 b97a cabf 3fee 91d9 f433 c33f
00000420: 6be6 1b72 efbd c0bf bdde f7b6 727c b5bf
00000430: a531 1361 2cf2 bcbf 1963 2e07 4aa4 d13f
00000440: 35e4 0805 b816 cf3f 3022 e911 75c4 b83f
00000450: eceb 1866 515b c73f 44b9 59ad a7ff a1bf
00000460: 6051 c5ea 0225 b43f 80db 9dda b792 bb3f
00000470: 4928 1be3 3635 c43f 6993 7ed2 e691 bd3f
00000480: e093 43ec 5f03 b93f f1ee 1b24 590b abbf
00000490: 6cb0 8ad1 3007 b4bf 91ca d1ef 43ff bfbf
000004a0: a548 094c 11f4 bc3f 0397 fae9 af76 b73f
000004b0: 6202 2295 e545 743f 8d60 333d 8cfc c83f
000004c0: c36a 9aa0 e716 843f ac07 8da2 e404 bc3f
000004d0: cabd 9e37 cebd b93f 42de da37 0c8a c83f
000004e0: 5ac6 21b5 eee5 b83f c6aa ca12 850b 5ebf
000004f0: be82 89f5 e16c bbbf 57fc ba8e b919 d33f
00000500: c953 4a68 7293 c53f 75a0 073f 8b87 c83f
00000510: 9ce4 9d9d e7fc ca3f 46f3 33ab ff6e be3f
00000520: 281a 8acd e1a5 c1bf 79df 4c12 e216 b33f
00000530: 6567 5d4f ef60 b7bf 8460 891e b523 c33f
00000540: 850f d841 3dd3 a73f e0d9 7e91 0ad5 c3bf
00000550: bfc5 0770 1307 ad3f 384e 706c d5cd bcbf
00000560: 4bd7 3cd0 f4a1 95bf f2ad 3d3f afe4 c63f
00000570: 01a8 d545 eacb c93f 2688 6192 e6fa c23f
00000580: a161 c3d7 d5fd 4ebf 7e27 ddab 6e3a c13f
00000590: df07 ba48 7ea5 acbf 780f cbff 2997 b2bf
000005a0: b047 d4fc a5e4 6bbf 1e49 0346 5d92 b2bf
000005b0: c589 5cfd 215e b2bf a047 541a bf31 d1bf
000005c0: f283 199e 5c64 c63f 7d0b 0a73 6fb3 cebf
000005d0: e5bd b872 325f d53f 1aaa db50 f76f da3f
000005e0: d8ae 3490 3ecc b2bf 0627 c5e6 66eb c6bf
000005f0: 3c64 28e5 3992 9c3f 1c23 f49d 187e d03f
00000600: 593a 16ba 1a1a b23f 9c16 5815 85ac 973f
00000610: bbeb c111 a021 cf3f 0982 8b9b 62c3 c33f
00000620: 9931 594f 0e70 b0bf 2187 8a7c 13ac c03f
00000630: 495b 57b9 3f04 9e3f fb4b 36e2 1c54 a23f
00000640: dfc4 e6df 09a3 abbf 4dba 4517 553a 64bf
00000650: 676c b539 9c60 c43f f08b 1d61 3916 c53f
00000660: 9b9c 139c e27c b4bf 89c8 d634 b90b c53f
00000670: 24b2 442e 63c4 cd3f ea9a 90d4 d6d5 a73f
00000680: abeb ff5e 2702 b5bf 7941 f548 01b2 96bf
00000690: 2420 9cc6 ce0b c03f 1bc6 8e63 452e c33f
000006a0: 0cc2 9744 73e3 cbbf 4a99 31c3 6dfa 963f
000006b0: 358a 1a60 8150 c03f 3f72 94b8 0007 abbf
000006c0: 13bb 0348 2a83 a0bf 935e 8c23 5b27 a93f
000006d0: 4257 1f53 e52a b33f 492a b79d 4d5e b03f
000006e0: b9d7 e3ed 2243 bb3f 0d34 1f1d f4fc a6bf
000006f0: dde7 1ae5 bfca b9bf 9f7d 14a9 bddb b33f
00000700: e7f1 41a2 8c92 9fbf 09d6 5a6c da69 acbf
00000710: aa58 4fa2 b386 98bf 3bd6 f4ee 1b14 ccbf
00000720: b9b3 a3c9 9888 d2bf f009 9f49 26f6 c23f
00000730: 8dee 6467 76c5 d6bf a3f5 023a d565 c63f
00000740: 3ecf 4d6d e92b b13f c5da c7c5 ad01 ce3f
00000750: bee4 228f ea78 4d3f 852f f1a9 5a1c d1bf
00000760: d8f7 d84f 2491 d53f 99e5 438c d9ec bc3f
00000770: e09d dc6a 1453 5bbf 42b0 7ca3 3876 c2bf
00000780: c51e db7b 3575 8fbf 53cf e6a6 5e00 b03f
00000790: 323e a386 c2bd c83f cff1 dfb2 d10b a03f
000007a0: 732d a446 f0f2 a33f 296c 09d5 13b9 c2bf
000007b0: 6bcd c8e3 74db 7dbf 495d a5ee d3e5 8bbf
000007c0: 7aad 885c 85fb 973f 94fa e82b 15de cbbf
000007d0: d83a 86a0 6798 d7bf f4da 3964 8781 a03f
000007e0: c581 49cf 9867 d1bf 3d83 53b8 7b9b bd3f
000007f0: a8d0 9e96 763c a63f 0aae 3f99 980f b8bf

model.sequential_layers.1.Linear 1.weight f8 [128, 257]
0.004427783125443286 -0.14754469868672232 0.07918271850922116 0.029935436968453803 -0.15036204234884734 -0.061091213439003214 -0.011920655498428771 -0.1373402205373785
-0.060098620535658294 -0.20933713786648891 -0.15175626324317235 -0.11024429111821323 -0.12827864388738144 0.06232484799067599 -0.22305327591762342 -0.15855618477756997
-0.05086265611296756 -0.10468825087023761 -0.1077237211490701 0.09862114014683937 0.03553555422153855 -0.14655893830887745 -0.056887615878541305 -0.07762912058326092
0.07008617412838997 -0.030264236563846525 -0.08016982435354283 -0.15774535038778525 0.08290278063840179 0.0014440435266305273 0.024395515929696687 -0.12485077759381441
-0.13136043893391533 -0.15725277966990822 0.21303999193684056 0.05300707154218314 0.011801806317581456 -0.01935885908777741 0.006862339686369089 0.03427690316014228
-0.021898189295076115 -0.009753524609121045 -0.14767374632467054 -0.11484260531167426 0.05062568777551581 -0.12014219932122712 -0.020373455826828354 -0.006009698629632469
0.07562880906237947 0.15249396895940953 0.14489483367401504 0.1163540472814953 -0.17575095757982254 -0.04329407394408715 -0.08837366333948178 0.10870451477231234
0.1419404899031749 -0.010358872842059242 -0.03702591277392108 -0.18513724884141564 -0.28841169902266656 -0.053952531908748276 -0.17594880404754373 0.13381918062064868
0.18672870148550555 -0.07278428443178715 -0.007778988197154935 -0.09479761270814197 -0.016106164061764572 0.09205342136748543 0.02331323331240243 0.01758127893206991
-0.10372910275746323 0.034095482905043356 0.1217097699078813 0.18464747747828691 -0.08142789343141493 -0.1368914699003437 -0.06699012018794823 0.08670655109533522
-0.08381733841591117 -0.007976811785185556 -0.1180818911026641 0.08022018458899159 -0.04222516836374526 -0.04910936704890751 0.059768408924234184 0.01704963845786216
0.1096316771820073 -0.045050297432983576 -0.07209948459206177 0.15646242578840436 0.049763740497499674 0.029928516425135207 -0.020081059999150254 -0.016223225278603478
-0.16674356375048208 0.025873360164185705 -0.19780519144108782 -0.04243363576818009 0.08592011559884347 -0.15924565947629588 -0.19044711282856525 -0.05354993130196746
0.07119207712742794 -0.14163263487978744 -0.07431122492577524 0.16212230085797885 -0.06045997948899876 -0.027091791408954093 -0.06859289228336557 0.0747503106576059
-0.06827017772893632 -0.0002798324537815244 -0.07734183559753571 -0.016943809544363475 0.06187627000950975 0.011012621087788367 -0.019537221919177616 -0.14898722471117734
0.1583389948047074 0.012502883490643251 -0.03775718004030688 0.0645131647262466 0.006185731396897634 0.023496752489450948 -0.08330209200916662 0.08109823376069429
-0.0784398167654259 0.0657872544273594 0.12626538018776343 0.0897309384537648 -0.05150961337786577 0.01931004478486186 -0.07129204366153523 0.07920618952053017
0.15146669965362167 -0.0464595667887667 -0.1209924989104454 -0.14052700283836692 0.0612308257713418 0.044941409683692576 -0.05797946031248434 -0.1420608371818475
0.08006485541290764 0.02895867171096634 -0.05807987042071026 -0.17324484666472548 -0.16429416260776075 -0.045113452094006884 0.08702641966352224 0.003282277583277109
-0.12975334563390253 -0.0761853393123598 -0.12745965998123415 -0.11280239304934535 -0.09694055775496917 0.1169199510574666 0.025835197336640907 -0.0052674016132477925
-0.11975891778608083 -0.19952757660525838 -0.1295319605583705 -0.12558714657325656 -0.06139754656078891 -0.10231199302548447 -0.05318012713431119 -0.15298634545483536
0.11507969241106997 -0.11272343014860622 0.11448278845633268 0.03235530579676775 0.05267859385906811 0.11230753065290176 -0.18646464661465706 -0.15917982424179933
0.02625272219373517 -0.10850141114288107 -0.028153651512659122 0.04935692515652638 0.03387836595684656 0.025821044966051435 -0.17927872685525176 0.10197210315335467
0.18802655762771722 -0.10518801815003495 -0.16342036728697568 0.22827213595765652 -0.12848798892412802 -0.12407469495030811 0.041734090057095254 0.06551655061615931
-0.1610327106125947 0.02349750590568208 0.13560268616812618 0.04087792370294192 -0.15913703570717688 -0.07979695919416759 0.08756407235798987 -0.10428142314957298
0.07549996066490534 -0.15573315717213498 0.0713689162336209 0.021305572136122063 -0.11300712165689877 -0.020036632926107443 0.014254557444658837 0.024546380870784725
-0.06683369200990702 -0.06316983179295496 -0.0563664849203567 -0.058795306975411916 -0.0618907655611596 -0.16437732014612916 0.04792344555568175 0.08219823122504541
-0.08517536607655793 -0.0726018617860851 0.026159600551370704 -0.15059665099250286 0.016126201934161727 -0.0035905066018794545 0.15013162440704617 0.13636211700705222
-0.10765966513942574 0.07636650799329496 0.15670422368824166 -0.004755769050473503 0.06854345550419728 0.1668167281157341 -0.1809401704425075 -0.05019078955585463
-0.05600339355438328 -0.0828411495850209 0.04084939706525526 -0.1320519573388932 -0.16077881951684958 -0.042367277040106725 -0.08078973325859834 0.043555923739759195
-0.08633569725720497 0.1203976194371329 -0.17799772356956817 -0.08943579467120182 0.01500068827696903 -0.020596287506366162 0.028421394279530506 -0.04959385036596777
-0.07663643996517928 -0.10904727392579043 0.10734038060355135 -0.07348175684389337 -0.12097232737388681 0.002447542077595683 0.024930790994690553 0.08028320583082517
00000000: c11f 7bfb dd22 723f f660 c7a3 bee2 c2bf
00000010: 75cd 6792 5145 b43f 617b 152b 65a7 9e3f
00000020: 3d5a 393b 103f c3bf 4a42 96f7 5847 afbf
00000030: efdf 194c db69 88bf 7c15 d145 5d94 c1bf
00000040: f181 7813 3fc5 aebf adc6 7c30 8fcb cabf
00000050: 0fda cbcd bf6c c3bf d965 ec48 f838 bcbf
00000060: 9dc1 2242 6f6b c0bf 663d b2df 0ae9 af3f
00000070: 4a7a aa7e 028d ccbf 7d5e 19ae 914b c4bf
00000080: 4c8f 2f89 ab0a aabf 725b c365 d9cc babf
00000090: b5b3 5623 c893 bbbf f4f9 9f2b 3c3f b93f
000000a0: a217 7456 b731 a23f e08e 7c7b 71c2 c2bf
000000b0: 51d2 7da3 5f20 adbf 1352 1f86 80df b3bf
000000c0: 8c7f c8e1 2af1 b13f f0d9 1e89 96fd 9ebf
000000d0: da7a b975 0286 b4bf 107c 81e8 ff30 c4bf
000000e0: c4e2 96db 1d39 b53f 14e0 22ee c1a8 573f
000000f0: 402f 595c 23fb 983f 3446 a576 38f6 bfbf
00000100: afcc 9a3a 6bd0 c0bf ab94 f1ec db20 c4bf
00000110: 45ee 0dfb e444 cb3f 27f8 752d be23 ab3f
00000120: 4e87 57a1 8b2b 883f 12f4 ad0a cfd2 93bf
00000130: 9895 6e48 af1b 7c3f eb74 2904 be8c a13f
00000140: 58b4 749b 7a6c 96bf 4039 bce9 a7f9 83bf
00000150: fb9b 782b f9e6 c2bf 9246 0032 5366 bdbf
00000160: 82ac aa32 9ceb a93f 6545 f4a0 a3c1 bebf
00000170: 5c50 ee79 c7dc 94bf c55d 2b31 a09d 78bf
00000180: e9ef 8edd 685c b33f a64a c220 ec84 c33f
00000190: e19f fef5 e98b c23f 75cd d4fb 60c9 bd3f
000001a0: 05e4 85e3 017f c6bf b3a2 660f a42a a6bf
000001b0: fdeb de09 a89f b6bf c7e7 df1f 0fd4 bb3f
000001c0: a161 0e21 1b2b c23f 2dfa a360 0837 85bf
000001d0: 6fe4 ef78 0ff5 a2bf 32cc 85ce 93b2 c7bf
000001e0: 7383 c557 5675 d2bf b13f 2b90 aa9f abbf
000001f0: 13c7 938b 7d85 c6bf 14ee 2ba6 fc20 c13f
00000200: db69 0de1 b9e6 c73f 0d1b 4ca9 fda1 b2bf
00000210: 74aa 713e dcdc 7fbf 0c02 5206 a844 b8bf
00000220: c01c a35f 227e 90bf 2a1d 4222 d090 b73f
00000230: 412a 909a 6cdf 973f b3ef 23a8 d300 923f
00000240: 359a fc8f fd8d babf 4c77 0990 f674 a13f
00000250: 30a8 5b19 5f28 bf3f 1871 874e 87a2 c73f
00000260: 4c25 455b 75d8 b4bf 5b63 29e1 a885 c1bf
00000270: c6c2 5cb7 4326 b1bf c9ac 4d89 6632 b63f
00000280: c587 5597 0d75 b5bf 2023 f38d 2556 80bf
00000290: 9828 8964 9d3a bebf efee 495d 4f89 b43f
000002a0: 7379 618a 899e a5bf 99fc cdea dc24 a9bf
000002b0: 90bb 5303 f799 ae3f 6d2f 57de 7575 913f
000002c0: a933 1a54 d210 bc3f 5baa 4c24 d510 a7bf
000002d0: e3a0 61a0 1c75 b2bf ee31 e8f4 f506 c43f
000002e0: b341 ed0b a27a a93f ac15 0ebd 94a5 9e3f
000002f0: 6a88 dc1f 2190 94bf 8f6a 0738 d29c 90bf
00000300: 5d3b 9064 da57 c5bf 58a2 f8ce 8b7e 9a3f
00000310: 86f7 1b36 ae51 c9bf e7d9 bf8b dcb9 a5bf
00000320: 56c9 9056 dcfe b53f b885 bd69 2962 c4bf
00000330: 0ab0 9b2c 9260 c8bf 0a3d 4a87 e56a abbf
00000340: 0122 ffda a439 b23f 8270 6da7 0421 c2bf
00000350: e82a c878 0f06 b3bf c892 116e 6cc0 c43f
00000360: 5581 3e45 9cf4 aebf 37b5 5d58 f3bd 9bbf
00000370: dc58 18c5 4d8f b1bf ece7 a31b d622 b33f
00000380: b24c a384 277a b1bf 510a c33c cf56 32bf
00000390: c007 81ae accc b3bf 0066 73cf b759 91bf
000003a0: 0aba 2d18 3fae af3f 1484 52fb c88d 863f
000003b0: c04d cac4 9001 94bf f501 d46c 0312 c3bf
000003c0: d911 2fc2 7344 c43f d686 959d 1c9b 893f
000003d0: d9b2 ecba e854 a3bf fa22 a94c ef83 b03f
000003e0: 2a02 d3a0 3556 793f 0481 045e 880f 983f
000003f0: 1925 de30 4953 b5bf c3fa c395 dac2 b43f
00000400: 6134 b6bf a114 b4bf fd56 42fa 6ed7 b03f
00000410: 6b00 43c7 7629 c03f c12a 1956 9bf8 b63f
00000420: 536b c6d1 775f aabf de52 572b 03c6 933f
00000430: b3c5 fd03 3240 b2bf 09a7 a159 db46 b43f
00000440: 8b01 b9c4 4263 c33f 8c5e e35f 8cc9 a7bf
00000450: b1b5 e149 5df9 bebf cfa5 b2f0 c9fc c1bf
00000460: 56d5 6394 a559 af3f d6ba a779 8f02 a73f
00000470: de81 c3db 7baf adbf 6984 deac 0c2f c2bf
00000480: 38b2 8e5f 217f b43f 229f bc8f 57a7 9d3f
00000490: ad96 0610 a5bc adbf 6311 501b e32c c6bf
000004a0: 187a a953 9707 c5bf c4f3 b442 1c19 a7bf
000004b0: b3c1 570a 5d47 b63f a4da 0c5c 6fe3 6a3f
000004c0: 35a8 05f4 c19b c0bf e6ff c7e4 e180 b3bf
000004d0: 02df 961f 9950 c0bf bfb6 0e1d 9ee0 bcbf
000004e0: f3ad 36ad 18d1 b8bf 73af 0a46 77ee bd3f
000004f0: ce18 96be 8a74 9a3f 82e9 9e5a 4593 75bf
00000500: 78aa 4b3b 85a8 bebf 5eb9 15a0 1e8a c9bf
00000510: 7946 31d7 8094 c0bf 9140 aa57 3d13 c0bf
00000520: f402 11cd 7f6f afbf 0a75 0868 1e31 babf
00000530: ef8f adf5 6c3a abbf 1446 3b7b 0e95 c3bf
00000540: 60db 56db dc75 bd3f 3230 fb55 71db bcbf
00000550: 33f5 5f78 be4e bd3f b696 7fe8 df90 a03f
00000560: 9bde a54b b0f8 aa3f cfac 3fb3 2fc0 bc3f
00000570: a6fa 88d3 12de c7bf 6499 a625 0160 c4bf
00000580: b723 035d fee1 9a3f c3b3 6d9c bfc6 bbbf
00000590: 9b16 0a92 4fd4 9cbf b5bd c196 4f45 a93f
000005a0: ef34 a753 8158 a13f 8400 b6fe d470 9a3f
000005b0: 061d 5bf6 9af2 c6bf 1ee3 2500 d81a ba3f
000005c0: 432f e515 4111 c83f 26ad e219 9aed babf
000005d0: 2aba 7f66 f5ea c4bf 895a 4377 0538 cd3f
000005e0: fbd0 2d5f 4b72 c0bf b99f 12f5 5bc3 bfbf
000005f0: 9dda d8af 2b5e a53f f53d 3e52 b1c5 b03f
00000600: f36a d548 b89c c4bf 7621 9ced ba0f 983f
00000610: dbc1 2bc7 6d5b c13f 1a73 dd82 f3ed a43f
00000620: 39ec f835 9a5e c4bf 7d27 0fd2 926d b4bf
00000630: 6507 155b 996a b63f 1efc 01f6 2fb2 babf
00000640: adb1 e725 f753 b33f d083 7a68 10ef c3bf
00000650: 34a3 2cb9 3b45 b23f a358 30be 20d1 953f
00000660: da41 bbe3 08ee bcbf 39f0 8eac 7b84 94bf
00000670: 6fa0 5950 7e31 8d3f 17fc 4cbc af22 993f
00000680: bc17 7449 031c b1bf 0e02 a5e9 e52b b0bf
00000690: e495 a562 11dc acbf e13f 3c21 6b1a aebf
000006a0: 23e8 047c 25b0 afbf e0a9 1de7 500a c5bf
000006b0: d31f bffe 6b89 a83f c68e e67a f10a b53f
000006c0: be40 b983 0dce b5bf 92fc ff1d 0996 b2bf
000006d0: 88d4 6013 95c9 9a3f c430 7345 c046 c3bf
000006e0: 08e6 a917 6383 903f 3cef cb8d d669 6dbf
000006f0: 2339 7658 8337 c33f e3b3 7a58 5074 c13f
00000700: e244 df74 958f bbbf d346 5766 c18c b33f
00000710: a06a f14d e20e c43f 9b34 a008 c97a 73bf
00000720: d1cf be5b 108c b13f 0b66 d723 405a c53f
00000730: 76a7 4a29 0c29 c7bf 3dd7 676f 9bb2 a9bf
00000740: 79eb 8f0f 7aac acbf ba0f 3bdc 1335 b5bf
00000750: 21c6 e950 36ea a43f c058 121b 14e7 c0bf
00000760: 0070 db7d 6694 c4bf e79b 9dea 29b1 a5bf
00000770: 14c0 32ce a2ae b4bf a8c7 0448 f64c a63f
00000780: 0472 32a4 181a b6bf 68ad ffdd 60d2 be3f
00000790: fe32 bf20 a1c8 c6bf 8b5f 34a5 43e5 b6bf
000007a0: 585d 894c aeb8 8e3f 9011 0975 3117 95bf
000007b0: e2cc bf7b 7f1a 9d3f 1321 cf7a 5d64 a9bf
000007c0: 6d12 551b 729e b3bf 63ae 3aab 85ea bbbf
000007d0: 9181 3bc0 a87a bb3f f944 7f4e b3cf b2bf
000007e0: a5b6 cadd 0af8 bebf 0e33 b925 de0c 643f
000007f0: 0643 f10f 7587 993f 5120 76af 708d b43f

model.sequential_layers.0.Linear 0.weight f8 [256, 31]
-0.005310673594616415 0.010969892592702379 0.14439157784654047 -0.012324026322235542 -0.06427114121043982 0.041565241797451975 0.011370234538763726 -0.12530049897177586
0.14242204909413017 0.013304713807307045 -0.07480234872607557 0.052913552205729436 -0.14149103159384646 0.09759226845844131 0.0211127975191197 -0.14562897444012116
0.18042617432183516 0.04493119195530835 0.06941208714133074 0.07191672511410802 -0.03726906590966152 -0.017703093813970467 0.03817281617915886 -0.16526537999357274
0.18173878182847503 0.024377349288651273 -0.0008188784446612622 0.13089138055013536 -0.140600934100435 -0.023607365551358752 -0.23683533897677214 -0.0026601413699880055
-0.07898697942453327 -0.12213456348907455 0.011233394463323413 0.07785008710535281 0.001795422666709888 0.03220069276168542 -0.04636851186023202 -0.009544494459020695
-0.03793599199168925 -0.16044526665368755 0.01680486998123912 0.05037392753037952 -0.03655276053971087 -0.12302918330878498 -0.12806103491449283 0.05586038271562395
-0.2560635226875997 0.0633125214764366 -0.16622095301412523 -0.03664449515732402 0.0010368534004357279 0.16707898001052537 0.12191715790519925 -0.014907007211352017
0.07767471727763221 -0.006833712744763837 0.07446486882357115 0.14701836660807344 0.07377875544705727 -0.1890437537237671 0.07173030964149636 0.0730933485834585
0.020594961822150534 -0.043716602490682446 -0.10172693614869249 -0.001412536630638543 0.13087458706340782 0.216899132053692 -0.18239191523288728 -0.0854364853323526
-0.188258334967302 -0.053631203430954864 -0.39426388613140156 -0.2100341272871894 0.2666444374609552 0.3044783853106008 0.22763092514205302 -0.09889777843974391
0.0885292899948436 0.14802561375253773 -0.1809534885712774 -0.041137904147204876 -0.1857097165372836 -0.1728640602178467 -0.21027560470421108 -0.07394472672088756
-0.000983744342618947 -0.11040658045184001 -0.00688656776183035 -0.0726311839617087 -0.24612197465377417 0.06412367656349387 -0.1997909482274365 0.04060984941654847
-0.07340719593171839 0.20154476289937526 0.1518020755972282 -0.14820456844739008 0.014953215035637523 -0.14123664813386183 -0.1264449396999392 -0.09454314886450363
-0.06739316948511034 -0.018573790603530916 0.04610347359449547 0.018044967984614843 -0.0663548721530954 -0.020421419611349526 -0.06121488947598223 0.007469991631133866
-0.001923676235606235 0.03061127284038588 -0.04377829941623984 0.04526173921063077 0.0842498862638179 0.06304540438158258 -0.11769887606791399 0.08378134349017714
-0.06278816816427701 0.06321873192205273 -0.011400053695818734 -0.2772126462503354 0.11156342314016844 0.07613391980423694 -0.0936171277992907 -0.21177441963257615
0.040386336365502276 0.0083129868790451 -0.2133085358604538 0.06595165441341214 -0.12472527515419424 0.051453240706473044 -0.05303436842481936 -0.0633730835987528
0.08691499040567167 -0.10651639997035738 -0.00591754908831426 0.12892883290951768 -0.10743397997840208 0.06300795087989759 -0.11468377790256795 0.20284021167704197
-0.23959132223770885 -0.04427642470724306 -0.19883224880342465 -0.22026787225507274 -0.03423046182100174 0.026424481651978474 -0.05386213233708494 -0.022163569512725044
0.05868807478175846 -0.2300294634115061 0.041384666398400084 -0.18446664935561927 -0.19672168040969223 -0.027972668247658948 0.024033492346497185 0.04695706936159178
0.04815985459137105 0.0678703072210545 -0.030479551208094147 -0.24589697203940408 -0.1158215667796327 -0.12006733862347431 -0.02445534287767196 -0.10473647449372255
-0.28565295199874524 0.016902463237435293 0.07145166607333188 0.11116521745722077 -0.00817522161060895 0.014922021496880504 0.15060981845514193 0.11090358996635225
-0.21280124623192145 -0.12102502377309911 -0.15398263372980514 -0.10799682115327323 0.03969081836988039 -0.004488342171642804 -0.2305993513657745 0.09549719408387333
0.13492616790614498 0.051477488611030076 -0.13485026475380651 0.012876090892342519 -0.1662421617211461 0.15192069547741535 0.027742306829193798 -0.07242698692571187
-0.004324427065117208 0.051729238999661344 -0.05749350608628959 0.015087321834892193 0.09433377859781715 0.005994624935436034 0.035717964546321576 -0.149779305595448
-0.045966263370702275 0.024635810471318347 -0.15666646153536187 0.07738448017137745 0.024586802696574164 -0.18224806896876217 0.12993509815567647 -0.004858761407170855
0.17095291022607007 -0.11431902501469247 0.07098235232906573 0.10354004848605666 0.07477421302935398 -0.015474907115481277 0.026522698796130943 -0.04562936267738878
-0.16063836408257662 -0.0869077320524222 0.004544414531954491 0.12832040719244792 -0.05502464630417108 -0.09698165499179585 -0.2087182035686316 -0.05162574544313541
0.12171004684603628 -0.07058916623293325 -0.05797677723902116 -0.06626198139961377 -0.22676299087093038 -0.1113412611829827 0.018876746213015858 0.09272343933814471
-0.002625999355576001 -0.12302633729315605 -0.10709634627675688 0.2436169729095311 -0.04263436046488575 0.17753722359699828 0.14120878542753387 -0.002688859511941675
0.14354265686188208 0.11487105739061401 0.007969420250003193 0.08721282675114742 0.050664921883435646 0.25991731449607625 -0.14264243490176315 -0.1756920565709581
-0.01802705487354898 -0.02010368308927628 -0.04559332600407819 -0.10450876406045963 0.08976872208768635 -0.12717593400041963 -0.17682353635105574 0.15056164048005263
00000000: d2a8 8916 a5c0 75bf 660a 690f 6277 863f
00000010: ed98 5558 6c7b c23f 1686 12d0 563d 89bf
00000020: d54f 93d1 1274 b0bf 293d 5714 0a48 a53f
00000030: bb49 ef0b 4749 873f 18cd a0c4 d809 c0bf
00000040: 1957 8bbd e23a c23f 8ded 7a75 803f 8b3f
00000050: 7d46 7129 3f26 b3bf 8c43 7a30 7c17 ab3f
00000060: 50ba afcc 601c c2bf db17 5f91 cefb b83f
00000070: 0e9c 7cdb 979e 953f e900 4961 f8a3 c2bf
00000080: a8ff 0673 3418 c73f dd64 09a0 3801 a73f
00000090: 1818 3894 fdc4 b13f 3488 666e 2269 b23f
000000a0: c20b 7856 ee14 a3bf 9547 e083 c220 92bf
000000b0: c9e1 2b2a 638b a33f 4de0 1d7d 6a27 c5bf
000000c0: 8020 2f66 3743 c73f 93ea d437 60f6 983f
000000d0: 89f1 d111 40d5 4abf 7b43 657b 0cc1 c03f
000000e0: 36cc df1e 36ff c1bf 9782 f37b 872c 98bf
000000f0: a19d b8d1 9e50 cebf a58d fa85 b8ca 65bf
00000100: 912d 709d 7d38 b4bf 6595 e5f3 3544 bfbf
00000110: 8f8c beae 8801 873f b9b5 1bba fbed b33f
00000120: c67c b468 8c6a 5d3f c9d4 a3f4 9b7c a03f
00000130: 2bfd 0114 9dbd a7bf af7e 775c 108c 83bf
00000140: ba28 e4a9 586c a3bf d9ac 8972 7889 c4bf
00000150: 898b eebb 4b35 913f b2cb a086 9cca a93f
00000160: 9b72 311e 0bb7 a2bf 48cb c32e d77e bfbf
00000170: b0c1 6cd2 4d64 c0bf 2ab1 cf69 bb99 ac3f
00000180: 2a13 e941 5863 d0bf e628 2bd9 3f35 b03f
00000190: f984 8d6a ba46 c5bf 0deb 8e38 11c3 a2bf
000001a0: b400 85dc e0fc 503f 6543 7f11 d862 c53f
000001b0: 542b 067e f635 bf3f 1fc7 a1a3 9087 8ebf
000001c0: 51f8 6e82 7de2 b33f 6dfb fbcb aafd 7bbf
000001d0: be54 4c30 2110 b33f 141b 3f72 7fd1 c23f
000001e0: a1e1 c81d 2ae3 b23f 2bda e0f1 9532 c8bf
000001f0: 55cc 0ae6 ea5c b23f d898 b8e5 3eb6 b23f
00000200: af3a f47d d816 953f b2bb fac3 0562 a6bf
00000210: 9c83 e1c7 c60a babf acfb 82a8 9b24 57bf
00000220: b84c a89b 7fc0 c03f 3ac7 59cb 59c3 cb3f
00000230: 7272 7d47 9e58 c7bf 403c 635e 2adf b5bf
00000240: 1a26 f15f d918 c8bf f3e8 8f91 8c75 abbf
00000250: 3f68 3b98 9e3b d9bf 4c06 dff5 65e2 cabf
00000260: 1587 a3d4 b310 d13f e0dd cfe8 927c d33f
00000270: 3a8c 8599 0223 cd3f 89b6 0b64 5d51 b9bf
00000280: 8315 4405 dba9 b63f 0fcc 04d9 80f2 c23f
00000290: 2260 c1e1 7b29 c7bf 625f e001 0710 a5bf
000002a0: 37dd 8903 56c5 c7bf eb0b a5d6 6820 c6bf
000002b0: 76f4 ac9e 4fea cabf a655 faa6 0aee b2bf
000002c0: 18fa dd71 1f1e 50bf d6c8 4d0c 9b43 bcbf
000002d0: d698 19f5 1635 7cbf 5409 c90f f597 b2bf
000002e0: e081 fbc3 ec80 cfbf 134f bdc5 686a b03f
000002f0: c93a 56f2 bf92 c9bf 7574 476e d0ca a43f
00000300: ff5a d161 d0ca b2bf 2b9c aa02 38cc c93f
00000310: 86d7 131b 406e c33f f9b6 4c07 5ef8 c2bf
00000320: 068c 628c ca9f 8e3f f0a4 5de0 0a14 c2bf
00000330: 58c2 6008 592f c0bf 3e14 6fd4 fa33 b8bf
00000340: ba8e e9c2 ad40 b1bf ddd5 d1fc 0105 93bf
00000350: ea05 a4de df9a a73f fcb7 674d 617a 923f
00000360: 16eb d305 a2fc b0bf 917c 7945 5ae9 94bf
00000370: f5ba a7d8 8e57 afbf 3423 1d9c da98 7e3f
00000380: e006 48a1 7b84 5fbf 9c1c f4be 8f58 9f3f
00000390: 78d4 88f8 1b6a a6bf 2ae8 56f3 8b2c a73f
000003a0: 8fdf 318a 6691 b53f d963 fb5d be23 b03f
000003b0: 7ad6 7c77 8321 bebf 1525 4eb2 b172 b53f
000003c0: a060 d7a8 e212 b0bf ff8c 1952 1a2f b03f
000003d0: 7396 5e4e e958 87bf 1fb3 6b1c dabd d1bf
000003e0: f91b d1a5 6b8f bc3f 8bec ac37 837d b33f
000003f0: db4f 3ec6 4af7 b7bf 08c4 3997 6c1b cbbf
00000400: f248 ca93 84ad a43f ab79 3836 6606 813f
00000410: af38 bdb0 b14d cbbf 6a9c d226 35e2 b03f
00000420: fc98 c5e1 feed bfbf 8e0c 3744 1458 aa3f
00000430: c2b0 e51b 5227 abbf 66d9 80e9 3739 b0bf
00000440: 5313 5391 0f40 b63f 433f 5ca6 a844 bbbf
00000450: b896 e8fc ff3c 78bf 46cd 6d70 bd80 c03f
00000460: cf81 7c16 cb80 bbbf 55c9 6a00 4a21 b03f
00000470: 5c27 7983 ea5b bdbf f6b9 bb05 abf6 c93f
00000480: 304b b5ae edaa cebf b5ec 3348 66ab a6bf
00000490: a81b 00cb 5573 c9bf 2df7 d8d5 bc31 ccbf
000004a0: eeaa 18b4 a786 a1bf 3137 09f2 040f 9b3f
000004b0: 83de c241 d193 abbf 260d e1f8 0bb2 96bf
000004c0: 67a9 b403 5d0c ae3f 3003 3cff 9a71 cdbf
000004d0: dd57 79f9 5e30 a53f d7b0 1769 9a9c c7bf
000004e0: 9e0b e30f 2d2e c9bf d6e2 38fd dda4 9cbf
000004f0: 1928 8c5e 3c9c 983f 69b5 72ca c10a a83f
00000500: 7e6d e690 68a8 a83f 6247 e2cd f25f b13f
00000510: 30c6 8a0e 0836 9fbf 0c1e 8c4e 8d79 cfbf
00000520: ce70 7d71 7ba6 bdbf e1a0 b4ac bbbc bebf
00000530: 4aff 7c47 d20a 99bf c51c a674 02d0 babf
00000540: 3dca b551 2348 d2bf 4677 4e1b e14e 913f
00000550: a998 0709 a84a b23f 3a76 6edd 5275 bc3f
00000560: d914 a4ab 2bbe 80bf c9f2 8dd2 6f8f 8e3f
00000570: 9a54 5cba 2e47 c33f 241b ea7b 2d64 bc3f
00000580: 559c 8e3c 123d cbbf a963 1af7 7efb bebf
00000590: 30bf 02f4 b3b5 c3bf 77de ecfe ada5 bbbf
000005a0: ec41 b3dd 5a52 a43f d189 722d 5e62 72bf
000005b0: e122 4c90 4784 cdbf 3e33 730d 8172 b83f
000005c0: 1c08 44bb 4245 c13f 8011 21e4 415b aa3f
000005d0: bebd 7c02 c642 c1bf 3473 43aa c75e 8a3f
000005e0: 5a82 e753 6c47 c5bf 139e 5429 2372 c33f
000005f0: ca1c 30b2 7a68 9c3f bc99 3134 938a b2bf
00000600: bf0c 198d 7db6 71bf 4543 803b 417c aa3f
00000610: a5f8 bef0 c96f adbf 9db3 eb0e 1ae6 8e3f
00000620: c358 fc2d 4226 b83f 9baf cae0 d18d 783f
00000630: ce57 3603 a049 a23f 7a34 93e1 f72b c3bf
00000640: 9b00 cbdb e388 a7bf de99 2341 213a 993f
00000650: 6f53 5688 a50d c4bf b0d4 8d23 78cf b33f
00000660: d4de fa65 482d 993f 2e70 fd9b e753 c7bf
00000670: eb30 979a b6a1 c03f cf60 7cd5 c7e6 73bf
00000680: f8da 49f3 c8e1 c53f 77ab bff9 0244 bdbf
00000690: 5bb3 d841 e62b b23f fee8 12c2 9981 ba3f
000006a0: 0b93 8b1f 6724 b33f 42cd c1df 4eb1 8fbf
000006b0: ce62 b92f c428 9b3f 2a98 df58 bb5c a7bf
000006c0: 91da 1b44 cc8f c4bf 7947 efca 953f b6bf
000006d0: 5017 b5fc 299d 723f 1686 2698 cd6c c03f
000006e0: 4765 b3c0 302c acbf 9d70 802c cad3 b8bf
000006f0: 451d 3431 47b7 cabf 97a9 9e90 b06e aabf
00000700: ea60 ccbe 6328 bf3f 831f 6cb0 2112 b2bf
00000710: be90 56d4 21af adbf 355a 1493 8bf6 b0bf
00000720: eaec ddd6 9106 cdbf 1fef 7963 dc80 bcbf
00000730: 6926 8ffe 6c54 933f 35ac 872b b9bc b73f
00000740: 7b9e 3fab 1e83 65bf 6984 386f a77e bfbf
00000750: 7e9e c788 aa6a bbbf 64cf b249 d72e cf3f
00000760: dcde c3bf 2bd4 a5bf cffb 952c 8ab9 c63f
00000770: 8fd9 a825 2113 c23f 48c0 5a75 f206 66bf
00000780: f9bf 6614 9b5f c23f 82e7 bf8a 3068 bd3f
00000790: a218 bc7a 4552 803f b219 b06e 9453 b63f
000007a0: 8266 16ad c0f0 a93f d42f 5b3b 7ca2 d03f
000007b0: 8662 7678 1b42 c2bf d8d2 91ca 137d c6bf
000007c0: ab17 802c af75 92bf cd21 9755 0f96 94bf
000007d0: 83ee 3428 0258 a7bf 51f9 c81b 16c1 babf
000007e0: de00 923d 15fb b63f 055e af0e 4d47 c0bf
000007f0: a03a e554 27a2 c6bf 7d6c f294 9a45 c33f
