Data/Breast Cancer Winsconsin (Diagnostic)/results/models/bcw_3.onnx (onnx, 416707 bytes, 5 tensors)

model.sequential_layers.4.Linear 4.weight f8 [1, 17]
00000000: 85b0 4975 ab44 eabf 01ce 8469 c887 e5bf
00000010: 617c 52a8 2ccf e43f a0f4 c9a2 e091 e53f
00000020: bccd ddc0 a08e e53f bb48 2996 31a2 e7bf
00000030: 14e2 c2af 5b2f a1bf ce11 a785 b336 e33f
00000040: 1c55 08e8 a798 e9bf 119b 4d53 4f19 e9bf
00000050: fe47 4eb0 ef95 e43f ba98 cf12 265d e33f
00000060: dc1e 9785 bf30 e53f 79f2 421b 5b1e e9bf
00000070: 1708 b0dc 117d e23f a014 c1b9 3f15 e9bf
00000080: 91a1 af18 6918 c3bf
-0.8208825388696971 -0.6728250561631627 0.6502898490470096 0.6740573100538718 0.6736606375620151 -0.7385490353429057 -0.03356443901560993 0.6004273996737142
-0.7998847514997212 -0.7843395831122014 0.6433027690384276 0.6051206939125884 0.6622006997285683 -0.7849555523349202 0.5777673063569208 -0.7838438632976654
-0.14918245034574487

model.sequential_layers.3.Linear 3.weight f8 [16, 65]
00000000: 2dbe 464e 6154 963f bedb f961 0fcb c93f
00000010: c792 95af c05b bb3f 209c 0e18 738a debf
00000020: cb1f 388a 7bf4 d1bf 9b9d 1dc4 9562 d1bf
00000030: 24d9 166b 9da0 ae3f cf2e e579 9563 a53f
00000040: 7191 63d9 adcf d3bf 2ec3 14a1 33a7 a93f
00000050: ccb6 65a5 dc99 c93f 6083 c2cf 2d32 d2bf
00000060: 48f6 e62f d3c4 a63f 3af4 8de3 850d c9bf
00000070: d88e 2e33 e7fc c53f f915 fb47 bd6b c03f
00000080: 0d6e f37c a51d d6bf eb68 c1e1 22a3 bd3f
00000090: 1bfc 5ebc 60c7 6b3f 1c16 baf9 01ae c43f
000000a0: faa8 36c3 a565 d5bf e670 2891 9e6c b33f
000000b0: 3ecd 61b5 86d9 c1bf eb7e 7745 ad9d d9bf
000000c0: f67e cd85 2f00 92bf e61a 22ea 9002 a63f
000000d0: 399a 77b4 baec c7bf d40b 5834 8f1c b13f
000000e0: d1a2 a737 ddce ad3f c164 cfe9 0c46 c53f
000000f0: 0b61 eb02 08a9 873f 78bc 3551 9e4a c33f
00000100: cd44 8757 f43d cfbf ee0b f939 a3d9 acbf
00000110: 4e45 f01a 1136 ab3f ffa1 b840 904a 993f
00000120: 7fbb 6e58 a425 953f 8922 1c96 8408 713f
00000130: bd2b a70b ea03 b93f f73e cdcd 648c cabf
00000140: abbe 7e31 a4c6 c23f 05d8 4e95 36ce c13f
00000150: 4c1b a05c a3cf 90bf 580b ef56 0c98 a23f
00000160: e91e 2a79 1753 c63f 901e 8fc0 5d45 d0bf
00000170: d0aa 1b8f d237 bc3f 46c1 9dcc ec42 c1bf
00000180: d4ff 59bc b35f b73f 474b 2eab 3fe3 b2bf
00000190: f3f7 c908 2512 c13f 0b7e e60d 13f0 c6bf
000001a0: 7cde c137 4442 9b3f 30ca 687d be2b aa3f
000001b0: 077c e4a0 7483 d5bf bd38 9a43 be24 d2bf
000001c0: a305 0552 7127 b03f 8873 7b3d c723 bbbf
000001d0: 27f7 21ac 875e acbf 121f 43a8 bb99 cebf
000001e0: 0431 fcee f116 cfbf 1025 3154 619a be3f
000001f0: af46 f1e7 d5a5 b93f 621a cd9d 1c29 d2bf
00000200: 845d 2005 c4d5 b43f 2c4a b94c 2be6 98bf
00000210: 904d c2d9 e927 c13f d367 3982 5eda a43f
00000220: 9599 1637 9de0 dfbf a3b2 24d4 2b00 cdbf
00000230: 31a6 3231 5a4f ddbf b5c0 5b5b 6055 c03f
00000240: 1c0a 7cf7 7d37 b83f 6766 113d 5e8a a7bf
00000250: 85a2 6872 1159 c03f 2b0e 3e7e 3e47 b23f
00000260: 8f6b 4d04 6bb8 a7bf 3930 c181 6a0e b13f
00000270: 465e c786 7d5e c13f e1d6 d2d8 da7a c83f
00000280: d474 13c7 a534 ca3f 79dd 98b9 01d2 abbf
00000290: 9829 a513 7945 92bf 0a10 fe7e eca5 d1bf
000002a0: 3c2b 70fc aba3 b33f dcc9 cc6f 3d95 d7bf
000002b0: 39df 987c c750 c03f f2b2 0619 9f80 d4bf
000002c0: 5fc2 4069 a769 c8bf 3fa2 161d a806 d63f
000002d0: 2c25 c313 a814 b53f 4f9b cd73 189b d4bf
000002e0: 916a 3ebd 68a1 be3f 82d9 fad5 6188 d6bf
000002f0: 3ea5 3dc1 c9d1 c33f ba3c 40a3 33ce 9bbf
00000300: c637 e176 1560 bd3f 6bc1 2d3f 14a9 dabf
00000310: 9886 ccb6 69fe a23f 7b19 1897 8d1f c73f
00000320: 7674 421b fa18 a63f b200 caf0 6591 ab3f
00000330: 401f 8f66 9d3c cabf 68f3 b491 16e6 a3bf
00000340: 3d80 88fc e157 cabf eab1 ed16 21e1 94bf
00000350: 6afa 49b1 d5e0 cd3f 8f20 52d7 e490 c23f
00000360: 1e6e b404 99e1 be3f cc2d 4c0c c209 d43f
00000370: 414d aa0e f01e c2bf 77dd ad77 b543 b8bf
00000380: 0962 5884 1b3f d8bf 3eeb 9643 7194 bf3f
00000390: e589 8fed 5283 b9bf a678 5aed 8f30 c23f
000003a0: c6cd 7fb0 9468 a13f 3e61 545f 24c0 ba3f
000003b0: af76 85b3 daef c93f d402 a199 0331 ddbf
000003c0: 8898 34d9 498c dabf 5610 9e2d 6935 54bf
000003d0: 019c 2406 5ed9 cebf b9f5 1613 f383 dabf
000003e0: 8737 0dc2 c095 d33f 76d8 51f5 4756 ccbf
000003f0: 4cc9 06af 7c46 af3f d160 1360 be0a d0bf
00000400: abb2 36fa 1f97 e0bf 5dfd 8df1 f589 c03f
00000410: 2515 f759 fd2a 7d3f 0621 ddc2 a330 c63f
00000420: 7cf7 e3db dbde dbbf 5c11 7ebf ee8a ab3f
00000430: 5c63 b5bd 5d43 95bf 8f1d 871d e2ab a63f
00000440: a962 4dfd 72e0 cf3f e2db 36ad 5796 58bf
00000450: 6f3d 07ff 9349 ad3f abb9 66c7 3db7 d0bf
00000460: e58e c5cd 73db ca3f 11d3 51bc 71d5 963f
00000470: 6956 f8f0 4b9e a73f f804 c0b1 89c1 b23f
00000480: d88b 2d9f 5603 c7bf 2f07 e7f3 c7c4 af3f
00000490: f3de f493 92e5 803f 2e46 e3ab 31c4 b7bf
000004a0: deca 71f6 391d cf3f 85e7 d094 3854 a0bf
000004b0: 66ac 6dd9 d1e0 b03f 543f 4656 601b cbbf
000004c0: 3895 7e74 788c a63f 9f76 998b 0cee ad3f
000004d0: ed7e 5f47 79eb a0bf caf4 76e6 e11d c53f
000004e0: b23c 5f1e 8d1f a0bf a9ec 021a 0478 bfbf
000004f0: 75a6 af08 e934 bb3f f98e b7a5 0c0c ba3f
00000500: 65af ba1b ad94 d4bf 7a8f 4b9e c72a cc3f
00000510: 4269 ca77 3f00 ac3f bafe 1dc9 a4ee b73f
00000520: 2ead 1e05 e87b dcbf 55e7 a76a 8188 a9bf
00000530: d2b6 ec65 f3ab c33f 08b1 4bd0 9001 c53f
00000540: dc48 dfbf 97b3 c13f 4d65 53f3 b2c3 c43f
00000550: 3dd4 335f 80c8 9ebf d8d3 fc90 2cc0 d3bf
00000560: 210a e8e4 222e 98bf 8518 58d4 b098 a0bf
00000570: a8ba 82d6 333f c23f 5ffa e2b1 54a4 663f
00000580: 457b 514a 9423 dcbf 2e03 bdb5 41bd cc3f
00000590: 34cf 44cb 25b8 c3bf 4cde 0723 8101 bb3f
000005a0: abdf a218 38e8 b73f a0ff 8ff5 57fc 843f
000005b0: 7ed9 94a4 e103 c7bf db70 6120 7e14 b7bf
000005c0: ec5b d3f4 be11 b33f d8aa a329 f00b c33f
000005d0: 60ac 79df 7720 dcbf d3ae b5d7 19ae c93f
000005e0: d46a 8d96 5931 c43f 2c37 0287 1dce b93f
000005f0: 289e 33b1 3603 b43f a26a 8a08 0d41 dabf
00000600: 60b1 7e52 5363 b43f dbf2 5b72 4164 b83f
00000610: 96f0 d94d 8656 c63f e5f8 810a ee20 a7bf
00000620: bfab ddcc 5e1c c63f 3b64 e12d 92f0 d9bf
00000630: a774 e5d3 f9e5 bc3f bd86 1385 5186 c03f
00000640: d285 f824 20f5 bb3f f6ee f42f 5f60 b73f
00000650: a7c6 b3b8 c0aa bdbf 3cd0 6af7 7f9f c93f
00000660: a910 b2aa bf52 d5bf 1b3f 0473 fb8d cb3f
00000670: aed0 94b3 bf67 853f 988f 1847 76a9 b0bf
00000680: c1bf 50bd 7057 d73f 9813 2c69 aad8 bc3f
00000690: 514d 8d34 e0d1 9abf 564e 02b2 a5bd a43f
000006a0: 91e8 aeb7 307a b63f 2f5b a283 4465 bc3f
000006b0: 68c4 6950 4292 c63f 1272 2bcf afb3 b13f
000006c0: 5228 0ddf ff24 d2bf ac02 6602 39b2 a6bf
000006d0: 1a1d 66c0 c4e8 ba3f 694c c29a b114 a33f
000006e0: 7f94 389f a89f a73f c5e7 2b88 202d a9bf
000006f0: c441 8903 8389 cebf 9329 79d0 77a4 c33f
00000700: d3b6 d82f 9213 c13f 2226 a45f 5dd2 c3bf
00000710: d041 b714 fcf8 b9bf 58c8 6ded 6b8c b13f
00000720: fc5a 780d dfee c73f 7c92 59dd a5f1 dcbf
00000730: c1c2 579a 2613 c6bf 9a98 d5ef 4011 d43f
00000740: a777 006b 9b84 ab3f 14cb 320a 6eff 8fbf
00000750: 78b2 aec3 e4a8 a33f 40cc f30e d311 c8bf
00000760: f11a 63b9 e89b a23f 95f2 7294 9bb4 aabf
00000770: d560 a1b3 d0f0 59bf d07c b805 2e12 bf3f
00000780: 0fa0 0abb 028f be3f f3b4 7f2f 4e6b c1bf
00000790: 7ddb 38d5 bd28 c93f 07f0 dbda 45c7 7abf
000007a0: b53f c292 df90 c23f 4f3e e230 d0c4 c23f
000007b0: 1228 66a8 ddbf d53f c190 e2be c575 7dbf
000007c0: 0745 048b 7d3b c5bf aa14 ff24 6b41 cc3f
000007d0: 3ae3 2dfc 2faa 773f 7285 cc95 37ed dcbf
000007e0: b79f 9fa2 1da3 99bf 64d2 5bc0 ca8f c73f
000007f0: 52b2 7b77 3cd3 98bf 908f 944b 9c8e 9fbf
0.021806259539230922 0.20150940212235285 0.10686878477788318 -0.47720029210398884 -0.2805470323369234 -0.27164215232775185 0.059819144556444465 0.04177538979510375
-0.30955072621716 0.05010377255746899 0.20000799251595536 -0.28431268013996736 0.044470405194698304 -0.1957251893144603 0.17178049086680036 0.12828794493377396
-0.3455594749663938 0.1157705117379099 0.0033909692164964095 0.16156029409118922 -0.33432907165355596 0.07587615054984873 -0.1394508729605181 -0.4002488306414153
-0.01757883314291938 0.04298832758018083 -0.18691190540194372 0.0668420317452239 0.05821887306575991 0.16620026985655126 0.011552870358557251 0.15071467366530888
-0.24407820009085981 -0.05634794314075707 0.05314687208022893 0.0246984996321391 0.02065140523671571 0.004158513942237215 0.09771597656724303 -0.2074094777003592
0.14668705384018685 0.13910562792233364 -0.01641707661476781 0.0363162857170411 0.17441075721966762 -0.25423377804370606 0.11022678369378558 -0.13485488883044122
0.09130404804636721 -0.07378004006595261 0.13336623124263233 -0.17920149019936135 0.026619974043994507 0.05111499100566552 -0.3361484118667594 -0.28349262811469683
0.0631018471949774 -0.10601468325644536 -0.055408706438340886 -0.23906655994346032 -0.24288772744365172 0.11954315476863919 0.10018669998796768 -0.28375926409026964
0.08138680577427776 -0.024315525586937323 0.13403056271327474 0.04072852458621381 -0.4980843580218786 -0.2265677247863965 -0.45796828083493596 0.12760548077449632
0.09459674160101667 -0.04597753997286418 0.12771814428676379 0.07139959890451368 -0.04632887294311338 0.06662622135007802 0.1356961162662051 0.1912492331227247
0.20473167629726297 -0.05433659926023444 -0.017843143295331737 -0.2757521858368369 0.0767161837867833 -0.36848388593639725 0.1274651869186927 -0.32035043186151235
-0.19072430266671156 0.3441562923494849 0.08234644396283802 -0.32196627911473724 0.11965040798387806 -0.3520741071364669 0.15483972488008563 -0.027153784598394216
0.11474737312639069 -0.4165697686176119 0.03709726673538433 0.18065042379039284 0.043159309222780814 0.053843675273129846 -0.2049748183037483 -0.038864808355788594
-0.20580696898196207 -0.020390049957699143 0.2334239116352877 0.14504681123458282 0.12062984814513597 0.3130955810636038 -0.14156914440227733 -0.09478315517286783
-0.3788517754015009 0.1233588018430227 -0.09966009425946927 0.14210700120469716 0.03400101332217846 0.10449435546286609 0.2026322723931364 -0.456116580990096
-0.4148125287196156 -0.0012334372645179856 -0.2410085229869026 -0.41430355896212806 0.3060151953730998 -0.22138308981419969 0.06108464848093095 -0.2506557405699939
-0.5184478651986714 0.12921022696171294 0.007121076253900048 0.17335936560471782 -0.43547722314530524 0.05379434669069624 -0.0207647940672787 0.0442801152271911
0.24903714531207768 -0.0015006881920791517 0.057201981431371667 -0.2611841628339799 0.20982215449759348 0.022298600310438014 0.046129582562724654 0.07326565351106129
-0.17978937885626922 0.062048195384262754 0.008250374927782888 -0.09283743330458868 0.24307941945479333 -0.03189255539514505 0.06593047674475513 -0.21177295887582182
0.04404045507480209 0.058456794777822944 -0.033046522104766975 0.1649744391742501 -0.031490716893693885 -0.12292504916233561 0.10627609693588076 0.10174635930848898
-0.32157447536405065 0.22005553464179767 0.05468939149177966 0.09348516378485786 -0.44506264209731483 -0.04986957957221586 0.15368502117910637 0.16411028071105016
0.13829323643455538 0.16222226029530376 -0.030061727343270162 -0.30860437544771235 -0.023613496037805718 -0.032414937897599784 0.14255378698495247 0.0027639059254334487
-0.4396715856327556 0.2245256554979504 -0.15405723977311825 0.10549170594446727 0.09338713265867564 0.010246932202789882 -0.17980595146373085 -0.09015644350569423
0.07448953129947683 0.14880182297868916 -0.43948170493849226 0.20062563927364482 0.15775604106132468 0.10080132051572538 0.07817403627597541 -0.41022039255191534
0.07964058651004313 0.09527977983448059 0.1745155220158991 -0.045173109800986024 0.17274079325883737 -0.4053082893420343 0.1128841535878161 0.129099073389673
0.1092090692768786 0.09131426735705958 -0.11588673123676561 0.20018004971427839 -0.33317557973374307 0.21527045360607464 0.010451791446577676 -0.06508578525295972
0.36471193778833927 0.11268105571441678 -0.026191237647549773 0.04050939367257615 0.08780197605566033 0.11092022145963364 0.17633847166465277 0.06914805229047996
-0.28350827009547175 -0.04432848123815822 0.10511426636923141 0.0372672559180039 0.04613997405639569 -0.049172417280672266 -0.23857152626670886 0.15345666579589742
0.13340976082093067 -0.15485732240658573 -0.10145545488126761 0.0685489134464502 0.18697727353784177 -0.45224901786995253 -0.17245943580885206 0.3135530798084659
0.053746086894747074 -0.01562391251204568 0.038397930991185214 -0.18804395895094395 0.03634574187304008 -0.05215917765733483 -0.0015832937338214244 0.12137115134872833
0.119369669594221 -0.13608720130233784 0.19655583297000226 -0.006537697668814963 0.14504618326145438 0.1466312636080027 0.33983556218356725 -0.007192394679950976
-0.1658780030052542 0.2207464151999024 0.005777537767124136 -0.45197858456420825 -0.025036299753906834 0.18407568352235437 -0.024243302147555497 -0.030817453492218372

model.sequential_layers.2.Linear 2.weight f8 [64, 129]
00000000: 487e 700f 3391 b73f 55d9 74f1 94fe bcbf
00000010: 32e7 a12f ba21 c6bf 9dac 7d88 5541 c33f
00000020: 0652 78cd 0611 5abf 8472 9d2a 1c05 7e3f
00000030: 9ae7 3abb 82f6 9ebf f317 aeb8 a20d c6bf
00000040: c34b 42da acaa c13f 689a 5b60 1641 97bf
00000050: 3024 78d0 7058 c53f 05c1 7725 2b47 c6bf
00000060: 965d b169 dc04 843f 8624 6f13 1cb1 aa3f
00000070: 72b1 beec 1a51 b7bf 1d28 b4ce 9918 c0bf
00000080: c682 8cfe 5fd0 d0bf f3aa c78e 8bf6 d5bf
00000090: c6b6 ee63 bf06 bfbf 9c7a 7c8b 90f9 c0bf
000000a0: 46c2 8ce4 fb75 b1bf b04c 470d efa9 b2bf
000000b0: b411 6794 9041 c63f 3227 0de2 0b43 b8bf
000000c0: 4332 2434 7328 b03f 7182 9103 089e b6bf
000000d0: 5e52 d78c cbb1 cd3f d23a 5998 bf76 ab3f
000000e0: ce91 36b8 4ea0 c0bf 5bfc 6450 cfbd a33f
000000f0: edee f883 070e ad3f dde3 1ef4 4ddc b83f
00000100: f82a a986 c08a bdbf 2f40 a554 790a b43f
00000110: 03e3 34a8 8033 c1bf b3ed 6ed5 2420 bfbf
00000120: 9d05 88fc a6d9 b13f 82d8 c633 9270 acbf
00000130: 954f 6ecf c6ba d03f babf e5b0 84d0 9cbf
00000140: 982c 16d0 ecad abbf 69bd 87f1 7891 d8bf
00000150: 9f38 945a afe8 c0bf 430f fb94 683d c1bf
00000160: 823b 8bb2 d5ee 87bf 159e 19ce a202 b7bf
00000170: 1a68 3fae 1a6b aa3f 1fc7 6d8a a0ce bfbf
00000180: 57b0 9e60 741a b73f bc54 4391 3b39 a8bf
00000190: 09fe a8ad 76aa c23f 888c 96eb 12ad c6bf
000001a0: 34a2 55c6 51d0 bfbf 8542 3ed1 6188 c1bf
000001b0: 205a 138f a67e 75bf 8c67 05ae c40a b5bf
000001c0: 68f5 eab6 ddd8 ac3f e291 054c 9318 a2bf
000001d0: 5793 5e9d adf2 7dbf 2523 f7a7 ad01 9a3f
000001e0: a58b 660d a298 aabf 8901 deba 03e7 bc3f
000001f0: fbcb 0081 9458 b6bf 6840 fd99 9571 b7bf
00000200: 62b4 b515 61cb abbf 8e48 0eed 6691 ae3f
00000210: 52fd 414f 26e6 adbf bd57 4519 9ff2 aa3f
00000220: 63f1 cea2 e448 9b3f f8b8 e9be 0153 a93f
00000230: 9805 11be c49a 963f 603a 31f7 7c50 c43f
00000240: fd86 b2d7 95ba c4bf 3505 7b92 8dc2 c0bf
00000250: 96da 17f2 ccae bbbf e645 5040 bd5b c43f
00000260: c067 5a7e 9b48 59bf 1e8a 2432 aaf6 c2bf
00000270: 1379 2a53 01e9 b6bf 0af4 23ec 0c13 97bf
00000280: ee73 2261 db4d c23f 4c17 2f90 1931 c03f
00000290: f61f e770 e249 d0bf e5de a2a1 fffe c0bf
000002a0: 3f8a 78d6 da89 a2bf 6dde 8866 6b8a c23f
000002b0: fb91 83e7 6005 ac3f beaf a089 7b1a c6bf
000002c0: 8447 faa8 746b b8bf a19a e3b8 1f73 d43f
000002d0: fb6c d30d 267c b7bf 5bb4 6719 5d30 9e3f
000002e0: c287 8425 bf84 babf 58d9 b36f 1b5b c1bf
000002f0: 9dc2 b233 2745 c2bf d081 ee01 8f6b 663f
00000300: bba0 2595 0fcc a9bf 848b 8deb 448a b43f
00000310: a088 c3b5 7422 ae3f 5d26 77a1 49a7 c03f
00000320: 5022 098d 8868 c43f 0c0d f54c 50da c33f
00000330: 72f3 e3cf fc88 983f 6eb8 0489 e882 c23f
00000340: c365 8075 e764 8ebf b9c4 46b7 dd90 c9bf
00000350: 6671 0106 4783 b63f ed92 1a7a 10a9 c03f
00000360: 1fd0 50c7 8a4f afbf 02c4 c19d 22f5 c23f
00000370: 35bd 631e 41bd b7bf 8ced 76af 5328 c1bf
00000380: e309 883f 5d86 893f 3e2f 719d d6d3 d6bf
00000390: 892b 3a52 f8b0 a2bf 6ee0 65cf f9b4 b4bf
000003a0: 0680 1554 cd31 6e3f 22f6 ed93 2a7a a1bf
000003b0: de97 2c49 06a1 ba3f 8080 89bf 1f5e a6bf
000003c0: 0985 aaf1 3ec6 8cbf b87b 4bcd 4b93 a83f
000003d0: 30de f7b0 d1f1 bf3f 6f86 47b2 5504 c5bf
000003e0: 15f0 15b3 fea1 883f 3c84 f3cf 267c b63f
000003f0: 6a49 1b1d 43cc b3bf 8bd2 111e a77a c4bf
00000400: b0b0 e976 f4c7 ab3f 1511 7c5d 1d6e a4bf
00000410: 7f33 6c89 49f0 bdbf d32b eab8 7575 a4bf
00000420: d8c9 75e0 092a bf3f 5b21 ccb9 631c c43f
00000430: d041 ccb5 8890 c4bf f99e 8ad8 560c be3f
00000440: f56b e1cc 375a 99bf fe08 53db f41d 6dbf
00000450: 5457 fb86 4963 bfbf 25e0 2a6e 6440 b43f
00000460: 18fe c328 b397 d5bf 18c1 dd07 ac1e 313f
00000470: 9f8e af63 9803 b1bf 2550 e83c c927 bfbf
00000480: f40a 9593 9d07 9d3f 8005 c664 f95b c73f
00000490: 14eb 597d 24ab aebf ff20 41ae 319c c0bf
000004a0: 5143 014d 7b94 643f 8db0 2d4e 20b2 ad3f
000004b0: c916 1dd0 e3ae a63f f02c 06aa e78c c1bf
000004c0: 08cb 4cc4 f862 bcbf fd07 faa5 8d1e c2bf
000004d0: ff29 49a0 bbd4 b5bf 0ee1 3785 b649 c03f
000004e0: 3228 357b db9f b13f ba0e b5f5 69c2 c5bf
000004f0: d89b ec7c 28a7 b33f a344 02bf 575c b73f
00000500: eaa5 96f5 1347 ae3f 0d6a a958 995b b93f
00000510: 6624 d2be 5986 a4bf c685 9779 6677 b5bf
00000520: 30ba 4641 a3ef a33f da1b 1e1e b111 b5bf
00000530: 4817 840c 4bff d23f 5f2a 557a 8c99 b5bf
00000540: 9390 288c 737d bbbf abe1 d7f2 8cff 94bf
00000550: 5223 309a 655e c93f 9f21 5724 1cc0 aa3f
00000560: ca46 ae41 4691 a5bf a754 0ff8 9513 90bf
00000570: 18ef 1be8 540d aa3f 9f5c f849 4822 a03f
00000580: aaf2 5efc 4656 b63f 7971 65fd a21b b5bf
00000590: 8c7a 1c8d 4ac7 c2bf 6eb8 1d0b 505d 9abf
000005a0: 8e20 b4dd 06a0 933f 1929 b953 65c5 a1bf
000005b0: c1d7 b3fb b66c 89bf 23dd dc43 3b2b b4bf
000005c0: 99d6 e74e 39a7 a0bf 6c92 20e4 b07e c2bf
000005d0: 8006 aa97 4cb9 b23f 19c5 43b5 13e7 7d3f
000005e0: 0af2 c5f3 dfd1 c03f 2859 f1cd aa57 c2bf
000005f0: c889 83a9 685f bf3f 3a3f fa1f d2fd c43f
00000600: 1456 bd9d cc9f b5bf 3fba de07 2523 b23f
00000610: 2afc 9feb 0eb7 b0bf 2b83 e8ae b528 be3f
00000620: 19f8 46f7 067e 85bf 7711 5b9f f7c4 aebf
00000630: 804e 7df8 7c23 c03f f291 a937 538e a03f
00000640: b28e 9a83 1536 b93f 9dba 374f d116 c13f
00000650: ce99 02dd aed0 903f 073d 4607 d892 c33f
00000660: 2ef7 0f22 9cc6 b5bf f749 ebaf 9e76 c1bf
00000670: 418e 2a57 848b d1bf 246d b877 9cf6 c6bf
00000680: 7b5c 28e8 6129 bebf 6d40 6c80 6c08 b7bf
00000690: 91fd 2239 46eb a8bf 998e a3a2 ccaf cbbf
000006a0: 6251 53ea 69a6 aa3f 194f ca65 373f 87bf
000006b0: 3ef7 e6e4 d3ea abbf 7cf6 c227 5565 abbf
000006c0: 84f9 0125 b0d7 b8bf 04a2 836f 8e7a c63f
000006d0: 8771 22d8 7827 933f 2d35 9ed0 aa45 c0bf
000006e0: 975c 4372 ff64 babf d3e8 6615 10d4 9e3f
000006f0: 3f4a c3b1 1a45 c4bf d743 e8c4 f11b 903f
00000700: f62b c592 dc5f c83f ee60 1926 1027 b1bf
00000710: 52c9 b592 bed1 a33f 9e8f 7983 b1fb bebf
00000720: 144c 352f ce51 c2bf a6f1 ce79 e6f0 8dbf
00000730: 8cae 3137 40ed a93f b29c c972 9d11 acbf
00000740: d000 7e9c d56a c53f 9b06 1a02 3c2b a93f
00000750: e3e5 58dd 6d99 c6bf f54e 2c19 3b30 c5bf
00000760: 550d 585a 5444 c03f efbd 05cd 2112 a63f
00000770: 90e4 90fc 7952 c6bf dcb8 6ba7 fd0c a6bf
00000780: 8196 4c3e 18b4 903f 0f7d 1e11 e4a7 a83f
00000790: 1dff daf4 226c c3bf 93c3 ce8e 2931 be3f
000007a0: ac55 043a 889e c4bf c1c7 bed3 6d35 c83f
000007b0: b049 f580 9f6c a23f ec2c c0d5 7171 b33f
000007c0: ad91 3f3c 7abf c03f beed 1990 f6f6 b63f
000007d0: 0937 98b0 1866 adbf 74b9 e510 61c4 c03f
000007e0: 81aa ccbf 3054 bebf ef3e ee0a bcf0 ad3f
000007f0: d08c eaa1 0e3a aebf df61 ed6b bfc3 c03f
0.09205931784571775 -0.11325961012776038 -0.17290427518656198 0.15043133892627206 -0.0015909735137756855 0.007329092049840672 -0.030237238576524918 -0.17229112641888342
0.138021093913805 -0.022709226256575482 0.1667614953915133 -0.17404689149362454 0.009774896598328902 0.052132489559491055 -0.09108131675629297 -0.12575075715022957
-0.26271819933212404 -0.34317292159418783 -0.1211967104888699 -0.13261610804416513 -0.06820654229955733 -0.07290548395330876 0.17387587782117253 -0.09477304714996818
0.06311721823676301 -0.08834886633986529 0.231988376398152 0.05364035353396947 -0.12989219660552326 0.03855750900628926 0.056747660503303134 0.09711157999016913
-0.11539843833558538 0.07828481976071154 -0.13438423360073423 -0.1215842267110279 0.06972736039462864 -0.05554634935417459 0.26139993912624365 -0.028139184281314768
-0.05406131782646034 -0.3838789328283015 -0.1321009819298 -0.13468653940628358 -0.011686009894587238 -0.0898839715169902 0.05159839036032583 -0.12424662952051023
0.09024741515048738 -0.04731165073614238 0.14582713584421494 -0.17715679648708638 -0.12427245227957756 -0.13697455136254547 -0.0052477365690806466 -0.08219556091844832
0.05634205682643306 -0.03534374526023833 -0.007311514074818635 0.025397027375024046 -0.05194574750500828 0.11290000259578482 -0.08728912496080447 -0.09157691010955349
-0.05428603544246681 0.059703079640841414 -0.05839652745725722 0.05263230498773861 0.026645252644571637 0.04946141677361199 0.02207477006982614 0.15870630330978752
-0.1619441321573091 -0.1309372868763973 -0.1081359950111199 0.1590496601134383 -0.0015431898586144438 -0.148152613147503 -0.08949287681977962 -0.022533609307164006
0.14300100558185086 0.12649840870124718 -0.2545095541540826 -0.13278193848031275 -0.036207998924755895 0.14484922892164623 0.05472853494737603 -0.17268318386174814
-0.09538964391165733 0.3195266061360745 -0.09173810803934039 0.029481367755512227 -0.10358805337867152 -0.13559287027573919 -0.14273538612680606 0.002736834823238811
-0.050384985882204934 0.0802348208504054 0.05885662764355115 0.1301052130132118 0.15944010626323513 0.155099904610417 0.023960066021561706 0.14462000551560855
-0.01484089686714441 -0.19973346184773336 0.08794063469526278 0.13015943491077256 -0.06115373309185678 0.1481059332177495 -0.09273154251035438 -0.13404317920308662
0.012463310719799508 -0.3566795861740849 -0.03650642398596122 -0.08088647187639861 0.0036858568497990544 -0.034135180051617434 0.10401953970412545 -0.043686859255786636
-0.014049998998702866 0.04799878006973962 0.1247836167384484 -0.1641947861199244 0.012027730789434124 0.0878319032376717 -0.0773355432568558 -0.15999306648486242
0.054259910121659316 -0.03990260854883069 -0.11694774251027516 -0.039958647558783554 0.12173520784362013 0.15711638042581452 -0.16066082836961337 0.11737578188569477
-0.0247582167433897 -0.0035543234212990207 -0.12260875268415578 0.07910754861484344 -0.3373840234853289 0.00026122760743076253 -0.06646110948309535 -0.12170083748816347
0.02834936345358137 0.18249432964880086 -0.05989946394125503 -0.12976666458622074 0.0025122078150520495 0.05799962000205126 0.044303054003234595 -0.1371125774570383
-0.11088518898467836 -0.14155741314249318 -0.0852772966692683 0.12724954132841798 0.0688454795646585 -0.16999554154800994 0.07676938104542275 0.09125278867056123
0.05913603184610479 0.09905393995851615 -0.04008751348835275 -0.08385315388252143 0.03893766567067691 -0.08230120644849084 0.29683185789359756 -0.08437421785962716
-0.1073829858001452 -0.02050609810064123 0.19819326428139533 0.052246932445601184 -0.04212398101584609 -0.015699713960050456 0.050882962545044375 0.03151155379253478
0.0872539869441861 -0.08245295225555606 -0.14670688524434572 -0.025746584585640546 0.0191651413743164 -0.03470913550389038 -0.012414388233519593 -0.07878466040425684
-0.03252581680491779 -0.1444913019087325 0.07313994124162981 0.007300450310354444 0.13140487101544834 -0.14330039077567247 0.12254957331200622 0.16399599610712717
-0.08446959353508304 0.0708487648214282 -0.06529324772417114 0.11780868072720511 -0.010494284077932335 -0.060096491053203964 0.12608301289821 0.03233585409614993
0.09848150694829874 0.1335088383488782 0.016421062697782145 0.15291881900018486 -0.08506179648972242 -0.13643249120521236 -0.27414043915107206 -0.17940097661708265
-0.11781894605552339 -0.08997228751491244 -0.04867000052899607 -0.2163024706015804 0.05205088601511211 -0.011351044458286762 -0.05452596825806076 -0.053507481673915586
-0.09704113868244774 0.1756151241782079 0.01870526141338893 -0.12712607561517456 -0.10310360469462619 0.030105830484651385 -0.15835889510943166 0.015731599467532078
0.1904254643107774 -0.0670023053184001 0.038709597977588786 -0.12102803668818615 -0.14312150292479997 -0.01461963710050258 0.05063820527797444 -0.05482189203467537
0.16732282773228357 0.04915797734885282 -0.17655728633853504 -0.16553438882021224 0.12708525096250392 0.043107086445953395 -0.17439198334048855 -0.043067862212284175
0.016312006761970203 0.048155905809148185 -0.1517375655730512 0.11793765770450042 -0.16108801682336826 0.18913052405474498 0.035984978191339834 0.0759497782566318
0.13084342901050885 0.08970585840318443 -0.057419559056240806 0.13099301648203332 -0.11847214396099483 0.05847728379660377 -0.059036690964853755 0.13097374696623285

model.sequential_layers.1.Linear 1.weight f8 [128, 257]
00000000: ab44 34b4 70db 77bf 9e83 b430 9451 b33f
00000010: ef3f d744 208f b13f 5a0b af5a 7842 873f
00000020: 4db4 f212 37f5 b6bf b2bb 8451 231d b43f
00000030: c344 de1d 2dee b7bf 9e80 8b62 f8ee b13f
00000040: 9880 b76d 67b4 9bbf f487 8a9b 2aec c0bf
00000050: 6979 7517 875d c1bf d372 1c0d 759c babf
00000060: 513b addd ebd1 b9bf eded 17dc a07f b83f
00000070: 66b9 75fa 4ed3 c2bf 5328 fde3 c76f b2bf
00000080: 696a 2fc0 11b4 b2bf fdcf 086e 64d3 b7bf
00000090: af10 4606 b57a b4bf b935 ff93 0481 c0bf
000000a0: 180e e45e 21d9 a5bf c615 372e 658c bfbf
000000b0: c3ca 86f5 350e a73f e02a c6b0 c5ad bebf
000000c0: 9256 8a79 66ac acbf 2d41 0058 046d bcbf
000000d0: 6c3f 3f8d 9d3a b33f f01b a84a 522b 7e3f
000000e0: 64e6 4f95 cd17 a4bf 0941 f4d1 51f6 b53f
000000f0: 3ebe f916 1dc3 c2bf 1b37 a8de 41c2 b7bf
00000100: 02fe 8c98 d1c6 a83f 49b2 72bc 5b96 a6bf
00000110: cfbb aa79 366c b4bf 4df8 62fd f472 9ebf
00000120: 6fad f9f1 c3a0 b83f 5436 529a a29d b3bf
00000130: 6bcf bbe4 e9d3 a23f 6e9e fc70 3528 b13f
00000140: 9563 384c 983c b6bf 8a7d f341 6b83 893f
00000150: b1da 08f1 cd9e 733f ba78 bd04 cccf b53f
00000160: 5d8f 1db7 638a b2bf d676 07fa 690c b83f
00000170: 3594 d7fb 8b9a a1bf d0e5 082a 45ac b9bf
00000180: 45e4 2f49 e0c1 bfbf c0d8 1d7f b32b 94bf
00000190: 1b5d a225 8f27 b13f 0915 5893 037b b1bf
000001a0: 83f3 4038 9112 c3bf 61a3 d7e6 872e b93f
000001b0: 23e4 eb24 30fd b13f 9a24 2395 36c9 873f
000001c0: 0b95 702a 65e4 b6bf 9fac c40d f05f 83bf
000001d0: 1731 5775 eca7 b63f fe77 83ce 289e 9c3f
000001e0: 019e 4389 92ad 983f cfca 56e2 72f2 863f
000001f0: 8e87 210b d077 abbf 85dc 3708 d709 773f
00000200: 8033 b169 0f99 863f bf94 b8cf 97c7 bb3f
00000210: b88c 7160 b2a0 b7bf 311c e62b 6eb6 82bf
00000220: 02d6 79b2 9957 ae3f d8fd 88d3 a395 bbbf
00000230: b373 a139 64db a43f 398d daac 11a3 b83f
00000240: 1ba0 cd5d 8787 a93f f207 1352 0ca6 95bf
00000250: 7e22 1bbe 8410 983f 9e97 7271 8f31 b4bf
00000260: c1cc 385b 18fd 913f d25c a0f9 46a4 c0bf
00000270: ffc3 2cae dda7 afbf a71e 4eb6 9ecf 9cbf
00000280: aba2 3031 e93a c4bf 042c 7d72 5a78 87bf
00000290: 0cf2 fea3 b5f2 723f 2e12 2be8 27f7 c0bf
000002a0: e059 cfb0 9089 c3bf b1e1 4019 8107 a9bf
000002b0: 2c50 47dc cadb 98bf 91aa d690 c0bd b0bf
000002c0: 7c52 5b50 c091 80bf d30b 8f63 30d7 bfbf
000002d0: 8224 074d 8dd8 9bbf c644 8362 c57e bebf
000002e0: 1bd3 0d4f 43de b7bf 9c0e 72bc 1d0a b6bf
000002f0: d8b2 d7cc 8d1b b6bf 1d93 5eb6 fcc2 b3bf
00000300: 16e9 f5bb 1aa9 b5bf 6dc9 1f32 7593 b6bf
00000310: a601 68aa 462f cabf ce2e 8369 5db5 b03f
00000320: ac23 8cff 3a22 b63f 0b9a d956 a35d 923f
00000330: d6c9 4d8e e1da bb3f e8c4 2b60 d9ad ac3f
00000340: d266 1197 5c89 b8bf e736 8c7d 2635 cbbf
00000350: a7c8 69d6 9e8a ad3f ec5f 9ff0 7bb9 9f3f
00000360: cd74 29e7 1f05 ac3f 0bb2 d8d5 65ad b7bf
00000370: fec0 084e 6e7f c2bf 240d edc5 a2e5 a4bf
00000380: 65c9 97b8 2369 b2bf 99c5 e709 1d72 bc3f
00000390: 2b52 bac3 5408 a3bf 7925 8900 78b7 a03f
000003a0: 151d e961 5002 9fbf 448e d75c 16ff bebf
000003b0: 9369 e5b3 46ba 8cbf fb75 d6e8 ddf6 a9bf
000003c0: c04d f3dc 90cd 993f 7cdc 7c60 8212 97bf
000003d0: 53f8 cad7 9217 a63f 024b e232 1d1e b4bf
000003e0: 8c0d 7f16 03da b43f f1a8 c5b3 1b43 b43f
000003f0: bbf2 5ea7 943d 913f a51a 5387 a99d b5bf
00000400: 8340 bb39 186b 88bf 174c 8af7 7594 a1bf
00000410: e433 af77 6831 7d3f 3b40 76ae e72b bdbf
00000420: 1388 ffb8 2b27 a73f 34d6 1472 8bff b63f
00000430: 6946 7ca3 8da7 bbbf adae 1585 5abf b53f
00000440: a79d 030b 83ef 7bbf 07dd b505 aba0 393f
00000450: 47f7 eedf d024 d1bf eee0 e129 49e5 9b3f
00000460: 873f 6951 46a2 b2bf 22bb 85c7 e648 7ebf
00000470: f2aa 1154 463a b7bf 46f6 5728 e22c c1bf
00000480: 3531 5520 9758 b7bf bc54 3c81 63d4 a5bf
00000490: 5dc1 ae0a 7aa4 bcbf 5d02 500f e3ed 9ebf
000004a0: e759 d05e 84ff b7bf 42d1 2b46 9e89 bcbf
000004b0: 8cf5 edd2 c373 c2bf 933e c70b 62f8 adbf
000004c0: e45d 7d70 c0bf 7abf 627a 16c4 f96f b2bf
000004d0: 71e6 a3c2 8769 923f b3ba 55b7 743d acbf
000004e0: 46ef 2b56 6aa0 b43f 18d7 1518 3241 b8bf
000004f0: 00af aa2e 6a51 bbbf 6023 13b0 2505 95bf
00000500: 4a12 b14b 1889 a73f c618 b4e5 fb76 b8bf
00000510: 04a4 a3be ff2e c8bf 3440 ad0e 3fac a5bf
00000520: 0893 e8b4 2728 85bf 5b67 05ed 23c8 bd3f
00000530: eadc 9e32 2a8a ae3f 3879 6a3f 313a a43f
00000540: ba0f 84e2 dbd8 b03f db95 5f7e c276 bdbf
00000550: 9615 abd6 0724 9a3f 37bc 1a59 6bc4 8ebf
00000560: e78d 087a e0d1 a5bf 7323 c384 f502 b43f
00000570: 8bb7 b94a c821 c2bf 4c4c 10f4 c5f7 bbbf
00000580: 2ae7 0f43 5a97 c5bf faec 201e b53c a9bf
00000590: 143f 6674 87eb c4bf 40cc 611d 88c6 9abf
000005a0: 9f91 ce68 8d35 59bf 5742 14ea 5a71 b03f
000005b0: 6776 7669 9057 a1bf de3b efb4 6aae b83f
000005c0: 3de4 5539 2919 583f c348 af0b f12c c0bf
000005d0: f9d8 57a4 a222 cebf 8d61 8fcd f64c b4bf
000005e0: 9113 87f7 a50c bf3f 1574 afe8 b35c aabf
000005f0: b980 caff ae01 b1bf 8dbd c66d 0e63 a53f
00000600: d706 1ce2 982a bfbf c2df 0961 7d11 b13f
00000610: b859 6aec 86f2 6e3f 2ee7 e3e3 59cb 8c3f
00000620: e03d 5eed 84f6 bdbf 8ea7 172d 0aca c1bf
00000630: af75 31a2 0923 9a3f 4a6c 6096 cbb4 99bf
00000640: 8c11 887f df40 b6bf da0a 1b66 f973 ac3f
00000650: 9e79 fae5 c7bc bcbf e14b e028 d1d7 bfbf
00000660: 6c3c 5dad 00bc c2bf d145 18e5 0d29 a1bf
00000670: 7405 697b 73d6 b43f be39 d672 e57e a83f
00000680: ce13 a47b 4b67 c0bf f6cc b960 7f57 95bf
00000690: da79 fa97 9333 a3bf 5ce1 1a7b 11e6 c0bf
000006a0: 1567 ae35 774f a0bf 53c2 117f 1c59 b13f
000006b0: ae27 0e2d 597e af3f 9943 d640 8d9e a9bf
000006c0: 554e 6861 2097 bcbf e2db 3630 070a bfbf
000006d0: 6dde cf03 2562 aa3f 4ffc bad7 112b 443f
000006e0: c769 1425 b5b0 913f 816d acce c527 8cbf
000006f0: e61c 852f 56d4 a03f fcdd 91ba e5c3 b2bf
00000700: ae88 184c 3997 953f 7955 0343 3da8 9f3f
00000710: 9383 f980 d4b2 babf 0074 837f baf9 893f
00000720: f1a2 684e aa28 b3bf d2e8 5855 3995 b8bf
00000730: a1ee f989 9cf2 84bf 4910 2389 ec57 b53f
00000740: 74f4 0e85 f90d 91bf 30b4 49a5 a3c2 a0bf
00000750: ab05 d7e2 01de bbbf 5189 643c 96d1 993f
00000760: ed86 889f 07ed a93f aa48 7d96 532e ac3f
00000770: 1e91 48ca e6ee b5bf c4de e392 5ba7 aa3f
00000780: ff43 7f07 3715 ba3f 8323 b89f ba3b bcbf
00000790: 5503 b569 d572 a8bf a2e8 5d5c c75b cfbf
000007a0: b93f 01e7 40be 913f 4d72 8687 6ad8 c6bf
000007b0: 41ac 0903 6fbd cbbf e13b da0e 2a4f b0bf
000007c0: ae67 45e8 372c c0bf bade 83c4 d5b0 963f
000007d0: 30bf f2a9 cb64 9e3f 27b1 7ab6 f40f 96bf
000007e0: 5c17 0c74 c032 c3bf 797e 0d83 834c c23f
000007f0: 3acb 329c 8e43 cfbf dd2c 8bb7 c622 b8bf
-0.005824508905122243 0.0754635447415368 0.06859018021282258 0.011357250468682235 -0.08967918598746501 0.0785696100253819 -0.09347803096013067 0.07005264669305908
-0.027055374213774103 -0.1322072276571472 -0.1356667389436084 -0.10394984788986088 -0.10085939561871028 0.09569745419860683 -0.14707362393842088 -0.07201813999304933
-0.07306014005681906 -0.09306934057605072 -0.07999736216703711 -0.12893731333171646 -0.04267219813666773 -0.12323601129818149 0.04503029462957422 -0.11983905378125881
-0.0560028098454214 -0.1110384669157198 0.07511315058149898 0.007365533305807567 -0.039244102932525476 0.08578978896935409 -0.1465793955026004 -0.09280788122142918
0.048391866561811284 -0.04411589312926318 -0.07977619619735708 -0.029735401120653916 0.09620308549499666 -0.07662407176595681 0.03677302281530966 0.0670197869154607
-0.08686210499617027 0.01245769305245294 0.004790119609018249 0.08520197978711766 -0.07242415638535023 0.09393942217090098 -0.03438222359890412 -0.10028488422621895
-0.1240520647696864 -0.01969795668943486 0.06700987500004311 -0.06828329417483671 -0.14900412794841253 0.09836625467108952 0.07026959325220665 0.011614252497013578
-0.08942253385665226 -0.009460330410169525 0.08849981179009024 0.027947080235087178 0.024099626186311344 0.01120462182266149 -0.05364847312809139 0.005624618500852501
0.011034126675576905 0.1085142976886173 -0.09229578833178465 -0.009137020792662738 0.059262087856875936 -0.10775207437926981 0.04073632434367571 0.09623823614179096
0.04986212749537363 -0.021141235837383428 0.023500513175152886 -0.07888123054234916 0.017567043845883704 -0.13001334370412693 -0.06182759047658947 -0.02813575732900966
-0.15804781820158573 -0.011460024470258297 0.00462599709856849 -0.13254259907093185 -0.15263565667437629 -0.04888537820119455 -0.02427594155763317 -0.0653953889474599
-0.008090498401920991 -0.12437727385172019 -0.027193267656717264 -0.11912187247368697 -0.09323521308926923 -0.08609186030121879 -0.08635793925322888 -0.0771940179098007
-0.08461157883531131 -0.08818752740606835 -0.204567750173749 0.06526740861880428 0.0864598153967921 0.017935325790313466 0.10880861019339902 0.05601386355363919
-0.09584597290213573 -0.21255952005633746 0.05769821517323353 0.030981003343043698 0.05472659775544173 -0.0924895903669453 -0.1445138817812292 -0.04081448236549992
-0.07191680199301727 0.11111623279409456 -0.03717293633704729 0.032649755540272225 -0.030282264686573763 -0.12107982412958856 -0.014027168622011732 -0.05071156947381535
0.0251982340676713 -0.022531544818062063 0.043148602334881624 -0.07858450405391795 0.08145160006738744 0.0791489900490523 0.0168364741473279 -0.08443698457549915
-0.011923016797851687 -0.03433579107981915 0.007127197338331979 -0.11395118722271118 0.04522072442320293 0.08983680281820555 -0.10802541009277324 0.08495107411516285
-0.006820213209926796 0.00039104628896020937 -0.26787206524374024 0.027241843396468228 -0.07278861510826405 -0.007393743020982753 -0.09073295166460207 -0.13418223352339193
-0.09119553126692355 -0.04263602211555326 -0.11188471566015808 -0.030204341706851035 -0.09374263109962265 -0.11147488797343377 -0.14415786551755294 -0.05853563684251841
-0.006530524937111679 -0.0720211127977364 0.017980691199204594 -0.055156371478792286 0.08057274440573989 -0.09474480712910027 -0.10671104087185412 -0.020527447578192137
0.04596782611819046 -0.09556555135722808 -0.1889342957358907 -0.04232976011428527 -0.010330496033085904 0.11633514916084435 0.05964786403586138 0.03950647257919332
0.06580900459454045 -0.11509337983405692 0.025528070905030363 -0.015023077637435473 -0.042616858383805405 0.07817015162721734 -0.1416559567327876 -0.10924946983895828
-0.16868141436116818 -0.0492912863996597 -0.1634377783161588 -0.026147963326774937 -0.0015386467887107192 0.06422966208288848 -0.03387118613612188 0.09641138951631897
0.0014708426072884827 -0.12637150831739605 -0.2354319860894021 -0.07929937857205101 0.12128674786715822 -0.05148851600072405 -0.0664319395532428 0.04177136507075394
-0.12174373169184648 0.06667312258821226 0.003777755281883812 0.014059736506613154 -0.11704283518906022 -0.13897826387193074 0.025524282955634522 -0.02510374169660804
-0.08692738402903027 0.05557231303602857 -0.11225556721408345 -0.12438685653641769 -0.14636238541649804 -0.033516344276118944 0.08139726412720966 0.047843141811529474
-0.12815230881838463 -0.020841589239762613 -0.03750287275510163 -0.1320211268519057 -0.03185627489365409 0.06776598074225974 0.061510836362756435 -0.05003777901141077
-0.11168100717650849 -0.12124676634890322 0.05153003379376462 0.000615485870603902 0.017275648487250963 -0.013747735376049121 0.0328700001724032 -0.07330165677000616
0.021084685582658018 0.030915219512129142 -0.1042912306670714 0.012683350578692298 -0.07483925260806835 -0.09602697690653209 -0.010228369675352513 0.08337286327429284
-0.016654871698609644 -0.03273497955965643 -0.10885631359180674 0.025213572918013686 0.05063651869228445 0.05504094326046645 -0.08567659796296254 0.05205808799831638
0.10188621457133705 -0.11028639220616125 -0.04775111117715506 -0.244988365269653 0.017327322101038798 -0.1784794961685229 -0.21671855591134384 -0.06370795118912966
-0.1263494381080909 0.0221589471047696 0.029681379554573784 -0.02154524196400689 -0.14998632112854693 0.1429600133806053 -0.2442491781890455 -0.09428064328237747

model.sequential_layers.0.Linear 0.weight f8 [256, 31]
00000000: 6773 00b5 705b b53f b4ef e53d a212 a03f
00000010: a975 4a7d 0e04 793f 7775 8638 9620 c93f
00000020: 688b 1b1c 37ad b7bf d917 8fd6 54cb af3f
00000030: 4152 702c b695 cb3f 82ea df0b 4fb5 a03f
00000040: 4300 cc48 e6e6 a43f bb4f f477 a4a2 a1bf
00000050: 8cee 2515 d9b8 c63f 26b6 50be c64a a23f
00000060: ff2a 91e8 f4ae aebf ceb3 10ef d05d 53bf
00000070: 052a 894f c48d c53f 70c1 837d db8c c1bf
00000080: ebe8 646f 9b47 a0bf 63d8 49e6 ff28 b3bf
00000090: d299 a3f2 06d7 b1bf ca36 2fe1 01cf c3bf
000000a0: fa77 3645 094f 64bf 1667 12fa 600f c63f
000000b0: 7cbd fbf4 3fc1 b33f 9cc2 2ca9 2bae cc3f
000000c0: 832d 21f1 1fdb cd3f 177f 1044 2313 793f
000000d0: 64fe 2197 8464 b73f 37e4 6e53 1cc2 9f3f
000000e0: 126d e559 79d0 663f 4240 1163 6b0c c23f
000000f0: d3b3 ac73 2d17 e8bf 6dec 9fee 7512 c4bf
00000100: f977 5f7f 0bfa c4bf a550 4ec3 fea2 c13f
00000110: fb89 2911 87e0 97bf 7e83 0a35 bedf cfbf
00000120: f940 5e5f 168f a8bf a4ab a2a2 0277 b93f
00000130: 993b e05f 4e02 b63f 4d57 3246 f40b b2bf
00000140: 2410 2b18 c580 96bf 1ec8 becb 69d9 cbbf
00000150: 1f76 2e24 bf79 a73f 25b0 3b5d 2c94 65bf
00000160: 55af 86ad 6640 cbbf b85e bee0 ab6a 9cbf
00000170: 689d d537 6f40 ccbf 9a09 4f13 be06 c3bf
00000180: 707e e849 3085 84bf 139a 0fb5 b37a c2bf
00000190: 6514 5103 fdcd babf a8ad a770 0e95 b13f
000001a0: fe78 342a f860 af3f 3109 4774 da38 bd3f
000001b0: 10cc 3b52 47e3 c33f 5286 4c2a e485 ad3f
000001c0: 6022 5b55 9141 973f 1c71 d61c a49a bcbf
000001d0: 7efa 3dcb 9cd2 c23f 5146 ec7f 3c4a 793f
000001e0: 88bc 63c2 454d c73f b7cb 6255 ff12 d0bf
000001f0: 0cf3 4e22 4edf c33f 7633 1d3c 35e2 cabf
00000200: 6024 374d 2371 cd3f 8951 f562 20e8 a33f
00000210: daef acaa 0d40 7f3f d48c 8784 7547 c63f
00000220: 9da7 5af7 1503 8cbf 1ee1 a085 63ec a2bf
00000230: 64e2 8a14 c2c3 c73f db1d 5f0d 9fb5 c13f
00000240: d209 b76c 59e3 813f 99b8 f0fa 4263 a1bf
00000250: 05f8 07cf 95d7 c5bf 6e65 ecc7 cf93 b9bf
00000260: c58b c776 8b77 aa3f f773 17d6 1545 aebf
00000270: ec17 76ec 7b91 c03f 8847 9b90 2c47 adbf
00000280: 0105 bdc9 d2d6 c53f 18fc 067c 9854 c7bf
00000290: 7983 5468 fb2d ca3f 9233 1105 54e8 d4bf
000002a0: 1e09 5737 da26 9f3f 4fe6 c4b9 5bd7 c03f
000002b0: cc42 3e46 75ab c3bf 6d57 5be3 679e cdbf
000002c0: 5b44 5357 0133 bfbf 80d8 04ed 8c52 adbf
000002d0: 47ed 7af4 abf7 b4bf 4962 016d 53f4 9c3f
000002e0: d541 9fef f30f bbbf 8da3 580d f7c8 8fbf
000002f0: f86e 537b 1d7c d2bf 6d3b 9583 d19f b6bf
00000300: 159b bc8f 3ec8 903f b0aa 0802 3676 7e3f
00000310: b9ef 50f2 8f53 ba3f 1c89 d4a1 85d6 c33f
00000320: 7e4d 4a3b da84 c4bf ea79 e803 d082 b43f
00000330: 9ce9 1349 9295 a43f 0abf 8730 0135 c03f
00000340: 68f8 aaf1 6e18 b53f 84a1 92a7 a0d9 b53f
00000350: 9d94 0979 62c8 b23f 3c54 07fd 7cd1 d4bf
00000360: a813 4d43 2bf1 b5bf b722 d8f3 e161 a8bf
00000370: 06a7 51b5 c2e0 be3f 3bba 8cfd 929e 863f
00000380: 0213 5033 6879 9a3f e453 9431 275e b83f
00000390: eb8d 89d6 ffd4 b43f 2750 f51b 53cc bf3f
000003a0: 8b95 d2fd 4a49 babf cfef 7b66 37ed 853f
000003b0: c529 ee3c fe59 a93f b9d5 1e5b d913 b1bf
000003c0: 891d 1628 a484 943f a95e 1634 3c2b abbf
000003d0: 72c5 80c5 28d2 bf3f b4f3 e735 ac9a c1bf
000003e0: ccee c1c0 79dd ac3f 9744 7a83 fc27 d0bf
000003f0: 4176 9290 0f4e c93f d84e 1672 9a0e b23f
00000400: 97db e068 ebf3 a23f 0c96 e1da 5226 993f
00000410: 8fdb 33dd 50c3 cdbf 6297 1bc0 78a4 b83f
00000420: c159 8e77 7923 c63f 6ae2 7cee 833c b5bf
00000430: a74d 068e 81f1 b2bf a51c 1aeb d3d7 c33f
00000440: 9591 08ad a4b6 45bf d30b 140f 2a1d 93bf
00000450: d62c d869 430e 89bf cf53 b463 1405 b5bf
00000460: 612f 5d02 9a83 c13f 49c2 9eb6 a179 9c3f
00000470: de10 0a88 d2bc 84bf 6018 4ac7 f827 853f
00000480: 15f4 6f62 0e9b b73f c3a6 4f70 1ad2 b33f
00000490: bfe2 ec70 e39a a4bf 3e7e f8b2 7d9f c1bf
000004a0: c53b 28ef dea6 acbf b585 679d b741 99bf
000004b0: 86cb e722 a423 b6bf 64b3 b49d 9056 a8bf
000004c0: 1f93 2424 3dbf c63f e2d5 1e0a 945e a03f
000004d0: 0dce 7ec0 78e2 c7bf ee98 2a5d 9b30 913f
000004e0: 6289 8c55 5d50 a6bf 613c 7d07 19de b93f
000004f0: e31a 173d b64a 9cbf 7921 0b50 2348 a33f
00000500: 01b1 d276 25d9 a03f 74bb b45d 34ff c7bf
00000510: c462 e7ac ccbe c0bf 64f0 d600 ab16 b63f
00000520: f9d1 143f 38f4 703f 4d22 7caa 5256 b0bf
00000530: 766d fd9d 1378 c1bf 828e e319 8a47 99bf
00000540: 4e67 2a66 cc80 c13f 4f83 c40f 7991 c6bf
00000550: af02 b366 82b0 a93f b89a 80a4 9d81 c63f
00000560: b207 d7b7 aa1c b5bf d039 8414 bb3b c33f
00000570: 5d82 eb64 e3e3 a9bf 0ef9 841d bbfb 963f
00000580: 8f8a eda7 f6a4 c63f 92d7 6480 7d9e 91bf
00000590: a9ec e41f 3f29 9a3f 1438 fe36 41ca c1bf
000005a0: 1a01 08dd 0c21 babf 7cfa 1f52 caf3 84bf
000005b0: 5af9 d8a1 5361 c2bf bdbb 7ffb 12b6 6fbf
000005c0: 4586 1d24 d289 9ebf 72be b382 ae99 d4bf
000005d0: 68b9 5bcd be34 983f 8873 f49e eb72 a8bf
000005e0: d8d4 d394 d4ff c83f 4a95 a91a 283c 703f
000005f0: c7bb 90e7 5282 b0bf 740e fa1c 4685 babf
00000600: 78f6 9e25 b9ae abbf ad10 eccc ab99 bb3f
00000610: 6bf5 9a85 7469 c3bf d333 3964 92f4 b7bf
00000620: 593e a00b d4b6 d1bf f067 71ca 231c a3bf
00000630: 0898 214b 492d a0bf 83d1 8678 c68f 98bf
00000640: 8644 b84b a27c bebf 7435 e7ee e61a c43f
00000650: 7f45 e786 c443 b7bf 9c05 b020 7aa4 ad3f
00000660: 1a39 bca8 9515 9d3f 7e7c 72e3 5407 91bf
00000670: 1fa1 4f0c bb1c 923f 6d51 7b73 e77b b3bf
00000680: 259f 1fc2 a865 c73f 822c 955e 1440 bdbf
00000690: 0e60 daaf 2d5e 97bf 231c eba6 7665 b4bf
000006a0: 6cb8 9303 6e0a a6bf 04d5 10ed 511b a33f
000006b0: 7d98 79d7 4bee b9bf 23ed 2723 2686 d1bf
000006c0: a80e a6ca 8705 aabf 26c0 3a64 3e16 c03f
000006d0: b133 a8b1 ea05 a23f 9dd1 14c3 2063 ac3f
000006e0: 3463 e079 0af8 acbf 7f2d 3ae1 18e4 933f
000006f0: fdc6 9426 a0ba a73f 26a5 9223 d919 b8bf
00000700: 5ada 44e0 5c4f b6bf c7f6 4470 cf31 b33f
00000710: 4a98 d2b1 04b2 a3bf 4ad5 e8b9 a91b 61bf
00000720: a458 4f97 4705 c4bf 53b8 94df 4142 aebf
00000730: bd73 d1b3 482a 9fbf dd5b be1d 4761 b63f
00000740: 4159 5810 945d c73f c5e1 8bd6 42c6 8a3f
00000750: 0999 7b2b 24ed b73f 6f78 15d2 e49e 993f
00000760: 39e2 df4b a3cd b7bf 4139 bbfe 3ecc c53f
00000770: 4f97 5df4 4a2d c0bf a196 8318 2924 cb3f
00000780: bdaf 8872 4071 cd3f 8997 1ba9 db49 983f
00000790: 59d6 d8e5 29b9 b23f 1790 3185 a538 a33f
000007a0: e936 c1af 6497 cfbf e17e 6c51 176f babf
000007b0: 96ae f840 009a b3bf 1463 6ddd 651f d7bf
000007c0: 5e9f 6842 6320 9c3f 1ece 9f71 7b8b af3f
000007d0: f351 f286 bd89 913f 2606 8eb1 ee69 993f
000007e0: 8f7a 6789 8e46 c23f 80aa f710 b7aa c2bf
000007f0: 99b5 2231 a3a7 c13f ea20 5db1 cf78 3bbf
0.08342651766765884 0.03139216428368688 0.006107384299551746 0.19630697021504392 -0.0924868053075848 0.06209817046287442 0.21550633592473115 0.03263327617601865
0.040824123751008766 -0.03444398845945736 0.17751611263871714 0.03572674821075976 -0.059928563489469504 -0.001182035481416255 0.16838888057311877 -0.1371111262192346
-0.031796319339678046 -0.07484435436512764 -0.06968730377011603 -0.154754862740836 -0.0024790936528935577 0.17234432421246798 0.07716750842131676 0.22406526337137656
0.23324965738207135 0.006121766812640115 0.09137753190770465 0.031013910858494333 0.0027849550380502153 0.14100401246332878 -0.7528292903203869 -0.15681337501141304
-0.163880765146075 0.1377867177622011 -0.023317442343236277 -0.24901559438606208 -0.04796667017137852 0.09947220297423925 0.08597268906326717 -0.07049490655694264
-0.021975593185530454 -0.21757242630479906 0.04585072819393709 -0.0026341310966611236 -0.21290286515192727 -0.027750669090521568 -0.22071638323107412 -0.1486432642250975
-0.010019662147043834 -0.1443695673071522 -0.10470563250517413 0.06868067026487401 0.06128669276425745 0.11414876307302248 0.155373492386929 0.05766213432640356
0.022711058459011446 -0.1117346353916599 0.14705238269739945 0.0061743129033558644 0.1820456694763133 -0.2511595090720066 0.15525223422255185 -0.21002831874138977
0.23001519460948128 0.03888035972582588 0.007629445443679795 0.17405575724760658 -0.013677760707043346 -0.03695975309568865 0.18566156390240274 0.13835514214427644
0.008734415655344305 -0.03396043122516907 -0.17064163788739975 -0.0999116767019552 0.05169330429978162 -0.05912082899497045 0.12943982168161428 -0.057183640148323056
0.17061838961129897 -0.18226915412921652 0.2045282611298054 -0.3266801881298359 0.030421647670444966 0.13157221384772064 -0.15366998605579452 -0.23139666177183518
-0.12187202817882918 -0.05727043526933162 -0.08190417021517248 0.028275779274141297 -0.1057121715559853 -0.015520029158396809 -0.2888253883699998 -0.08837613546823571
0.01638887169169852 0.0074369535146085325 0.10283755937501739 0.15498419191232748 -0.16030433554679385 0.08012104125416611 0.04020363943159852 0.12661757344857733
0.08240407371610703 0.0853519829858041 0.0733701272489093 -0.32528614721133287 -0.08571119683354189 -0.04762178517927878 0.12061707426769538 0.011044643748019492
0.025853756076702268 0.09518666229662603 0.08137511241653043 0.1242114966638047 -0.1026808614429539 0.010706360640590077 0.0495147179963911 -0.06670912241573647
0.02003723616283318 -0.05306423316795634 0.1243005258736696 -0.13753273613101913 0.05637722471234738 -0.252440575023749 0.19769472655473133 0.07053532872515278
0.037017208626301805 0.02456025563187407 -0.23252306748301207 0.0962596386922008 0.17295759523103807 -0.0829546410794905 -0.07399759023092277 0.15502404193487
-0.0006626419145204116 -0.018665940447146156 -0.012234236400237835 -0.08210875925244852 0.13682866206579106 0.02780773808598472 -0.010125775124159405 0.010330146390753636
0.0922097196889385 0.07742467157336379 -0.04024420503123371 -0.13767977942278437 -0.05596062344931555 -0.024664753896905107 -0.08648134090598888 -0.04753543782349004
0.17771114601887292 0.03197157500782645 -0.18659886740862 0.016786983071733035 -0.04358188313769308 0.10104519303171024 -0.02762875316491432 0.037659743805820996
0.032906695132028936 -0.1874757249401814 -0.1308227390534481 0.0862833859491175 0.00413915606741399 -0.06381718313435521 -0.13647694792130566 -0.024686963873036046
0.13674311626965124 -0.17631448049453488 0.05017478469517777 0.17583056003896558 -0.0824686716869383 0.15026033880026413 -0.05056677443440514 0.02244465224907182
0.17690928649524948 -0.01720615478662741 0.02554796821753472 -0.13898482499320208 -0.10206680675765192 -0.010230618125203643 -0.14359517481529843 -0.0038709994078014163
-0.029822619871430218 -0.32187998546485297 0.023638707431865497 -0.047751773027108035 0.1953073240944494 0.003963619858585796 -0.06448858407450962 -0.10359609801712982
-0.05406740745773403 0.10781358483297039 -0.15165573619553227 -0.09357562014447689 -0.2767839540037805 -0.03732406469562466 -0.03159550706986641 -0.023985959154474223
-0.11908926342609236 0.15707098641579942 -0.0908778027872099 0.057895485391792095 0.02840265123728001 -0.016629530317569856 0.017687723757178305 -0.07610937661531177
0.18278989294707873 -0.11425902661464885 -0.022820199831215908 -0.07967320990711406 -0.04304832261719657 0.037317810238542776 -0.10129236231441215 -0.27381280358504706
-0.05082344387758769 0.12567882436769756 0.03520139139809631 0.05544378644336521 -0.056579902055267445 0.01942480921438294 0.04634571524583284 -0.09414441221692424
-0.0871484801799424 0.07497879496528546 -0.03846754713713148 -0.0020883860554713795 -0.15641112220936748 -0.0590992532182645 -0.030434738135557405 0.08742184139406058
0.18254328535176437 0.013073465511738722 0.09346223889915363 0.025020194361211553 -0.09298153498083019 0.17029559553197696 -0.126382226294647 0.21204103180860037
0.23001866905667426 0.02371924609806045 0.07313787328242806 0.03754155398272035 -0.24680765706801047 -0.10325761545072566 -0.07656861864296113 -0.3612913763404759
0.02746729939295222 0.06161103975309977 0.01712700019978004 0.024818162524303265 0.1427782221716893 -0.14583481148232025 0.13792838954161082 -0.0004191882193152046
