Data/Breast Cancer Winsconsin (Diagnostic)/results/models/bcw_22.onnx (onnx, 416707 bytes, 5 tensors)

model.sequential_layers.4.Linear 4.weight f8 [1, 17]
00000000: a6cb 9cda edd7 e13f d34f 4853 5d55 e4bf
00000010: 5c21 5714 c4e1 e33f 5ee3 61e0 26d9 e2bf
00000020: e0cd aabb 3c9a e23f b714 40a7 a8aa e2bf
00000030: 3c99 568f 529d e2bf c936 169f 270c e1bf
00000040: 0879 d677 27cc e1bf c6c4 9574 f775 e33f
00000050: de34 d73d 687d e13f 2425 b67d 429f e2bf
00000060: 03b0 c8bd 80b5 e23f fd58 1a92 4a4e e3bf
00000070: 0455 a2d0 470d e4bf 0b50 79c2 ec3f e43f
00000080: a666 4a3d 8cd5 b1bf
0.5576085347914741 -0.635420477543898 0.6213093182823672 -0.5890077955692552 0.5813277879118992 -0.5833323732955681 -0.5817044066978165 -0.5327337367213768
-0.5561711636144375 0.6081502224971238 0.5465584953141407 -0.581940885095865 0.5846561152188773 -0.6033070424626029 -0.6266211581120449 0.6328033254926607
-0.0696647309909176

model.sequential_layers.3.Linear 3.weight f8 [16, 65]
00000000: 1f2f 1f9a 4a32 cabf d956 8c5e c6e6 cd3f
00000010: fb93 abc1 fe9f d3bf 7aa8 16ef 0339 823f
00000020: 6fc3 fa57 6b95 a1bf 8441 60d8 8825 863f
00000030: 880f 83b4 2b6d c73f c873 1fad 52a5 c5bf
00000040: 0faa 56a0 31df d7bf a2d9 cc99 3cde d53f
00000050: fdb5 011f f77a c53f b4cf 1edf fe34 a2bf
00000060: e25e f3f4 460d be3f e5ca 550d 248b d4bf
00000070: 88c1 8600 7b50 bd3f efe6 59c7 c5cc c5bf
00000080: 7a1e 424e c4ef d33f 3469 7b99 f66b d73f
00000090: 6005 4fad 4b37 d23f 1c4a 94d6 c702 c33f
000000a0: 586c 9bf5 282c cabf 1e1d 6f36 408f a63f
000000b0: e3ad 62cc 93b1 d7bf 71e4 049f f9bb c0bf
000000c0: eb16 f3d0 c34f b6bf 6bf2 2a8d 5af5 8c3f
000000d0: 6c53 f12d ba94 d2bf 4024 6b6d 972e d3bf
000000e0: 75e6 57e8 c2fa aebf 6613 7daf 9017 c5bf
000000f0: 4636 65cf 3804 bf3f 5e57 d675 3b94 99bf
00000100: df7a 2dc4 c6f3 ce3f 8ae5 1b0b abdb b73f
00000110: eb7a e00b c310 c6bf d2bf 9de1 7086 ae3f
00000120: 73fa 3ae9 4cb8 dabf a8f7 82b3 f457 b73f
00000130: 49d0 c6cc 6948 d2bf 88a1 1a9b 811b 973f
00000140: 97e3 053c ab73 c6bf 049d 972b 9b1d d2bf
00000150: 37d2 ed77 8cc8 9dbf 4e1b bdbb dc71 ae3f
00000160: eb78 f461 b319 d03f 7395 6baf a736 d13f
00000170: 0605 b006 db2c ce3f 5020 73aa 410c a23f
00000180: 76f8 e304 1a5a d53f dfa2 b6a1 31b8 b7bf
00000190: 9359 fdd9 2b4f d0bf 7295 bb08 8149 d03f
000001a0: 92b2 4c6e 4e2b bbbf 5996 b957 cf01 debf
000001b0: 3d6b 547e ce00 a23f 598f 94f0 2187 d23f
000001c0: 54fb fcbe 8e27 b8bf e78f 0e03 3047 c53f
000001d0: b3a6 26b8 a7af d33f 1428 875a e085 ddbf
000001e0: f9ec bbf9 6e31 ca3f 062f e00e 6225 c8bf
000001f0: f3f2 3215 fdb0 d73f d716 1ac8 d87c c2bf
00000200: 3b66 2a74 f990 d13f e443 f15f eceb d63f
00000210: 32e3 8d2c 9fef b83f 6c2f 84d1 6ffa c23f
00000220: 4f39 8d9d 5f51 983f 27b8 16e9 a8c9 b7bf
00000230: 1792 4688 6132 d1bf 8391 eb57 0220 d5bf
00000240: dedd 1f8c 8a1e c43f 0768 dd0c 5d93 9b3f
00000250: d892 3f52 9788 bd3f eed6 52b3 9a1a c43f
00000260: 0fcc 81b0 57ce c13f 89ed 3361 36b7 adbf
00000270: 99b2 d7a5 e561 a2bf fcc6 567e 2a2f 993f
00000280: 6c15 78db 98b7 bebf 73cd 30d3 d67c b9bf
00000290: e874 0bd4 a26c bfbf c273 d02b b779 c53f
000002a0: eb86 5faf ca38 933f bf14 c97b 1470 cf3f
000002b0: ae57 baa7 7b84 8bbf 1fc6 a004 dfea c23f
000002c0: e566 cafb f470 be3f dba5 b449 d2e4 c63f
000002d0: d8a8 159f ced5 c23f 8c5f 6edb 3126 cc3f
000002e0: 1cb3 6ff9 f586 c83f 5844 4668 64c9 733f
000002f0: 4ca9 7dbd 5e85 80bf ef1b dbb4 2007 d1bf
00000300: ecec 1c75 d20c b3bf f7ee 06b6 541e c3bf
00000310: a7e0 7d42 d7cb c1bf 9cc0 31d0 8305 c33f
00000320: e69c 8b7c 0c0d c3bf 65a6 295d fdd9 b7bf
00000330: 7546 2bc1 b9d0 d7bf 9626 0ad6 4a64 b23f
00000340: b11a dcae 1417 c2bf 8c4e fbf1 8101 9b3f
00000350: b143 56b9 85ce c43f 5cbb 12da 930d b1bf
00000360: 0b38 911b 15b5 c13f 13ec c66e 50ae c9bf
00000370: e1b8 dadf f8f2 b93f b916 b159 b981 b4bf
00000380: 8c78 e5bb 17bb ab3f 980a a9ed 85c3 bfbf
00000390: f140 bf95 1d4e c53f be2d 5bb2 279b c63f
000003a0: f0db ad8a 637a cdbf e9d0 8f18 c185 92bf
000003b0: a3a2 eba8 9995 b6bf e95a b4b4 5a68 d5bf
000003c0: de1d 0d64 94f3 b93f 8530 8f05 b495 c1bf
000003d0: db3a d0f4 32a6 dbbf 9b8a d7b7 b6c1 a53f
000003e0: db45 699a 3654 bb3f cab3 1b87 5dfc aabf
000003f0: 52b4 46c5 7e84 adbf 959b 3866 2a77 d03f
00000400: a978 a8b6 b92c ca3f 794a e3e2 66e2 c33f
00000410: 927a a808 080f 933f 3d48 6a27 1d19 c9bf
00000420: 28ea fd01 a000 a6bf 857d cfbd d00d c23f
00000430: b34d dede 488f c93f ee4a e0b7 8d54 cb3f
00000440: 08bd 98ea 4408 9c3f 063d 92a3 7c87 d2bf
00000450: d797 5742 3b58 e0bf a67b 82b3 f34d b43f
00000460: 0a71 69f7 76cc c0bf 5c4a 238c 88d1 ccbf
00000470: b205 a609 7d3c c23f 2076 6125 0e9d ddbf
00000480: 7762 b0d3 5699 cc3f e546 9e52 91f7 b6bf
00000490: 6f0a 634a 9f99 b83f ce2a 2fc0 e26a c2bf
000004a0: 88bf 687f cc4d d33f 7e15 0058 9169 9c3f
000004b0: b44e 79ef 1a24 9dbf 2f46 5aff 3dc6 be3f
000004c0: 3ff2 45bf 6727 d6bf 96bd e931 cf9d c5bf
000004d0: d55e 9fba be21 ac3f 67a9 7724 c010 b1bf
000004e0: 7ab3 10aa bbb9 cfbf ce35 4de0 76ae afbf
000004f0: f3da d109 1825 cbbf 7eaa 7c4c a733 ccbf
00000500: 58ac 4b17 f493 ba3f 55d2 0cbe 9b1a 8ebf
00000510: 8098 aa6b e2a8 d23f 0730 d64e 39f1 c03f
00000520: fa7c 94c0 c251 d3bf 989a a90f f801 a43f
00000530: de3f 840a a171 d8bf fd8e df8c 2e46 c23f
00000540: 98f2 e819 1990 d4bf 4ad1 e466 7a5e b73f
00000550: 95ea da78 3f34 6fbf c1d9 1331 67ce adbf
00000560: 513e 985c 6744 c03f 7ad7 3090 f56d a03f
00000570: 5894 19c0 39b8 d03f 0f46 7d08 7257 d33f
00000580: 8f11 7ee2 2e1d b83f 7179 e798 7ee1 bc3f
00000590: 5917 4a77 6b71 973f 9fb2 bf97 49ce 9f3f
000005a0: 1062 0235 4a2e bebf 6597 770f bd9e 8c3f
000005b0: 2593 dc1a ff94 b9bf e097 a0fc 0f28 c3bf
000005c0: 504f d6cd 5696 9abf 4ae2 ac72 ed3f e03f
000005d0: 36b5 35e1 c6b4 af3f 1aba e77a 73e1 c63f
000005e0: ccf6 ac42 4cc1 ae3f 268b b616 5c0c d1bf
000005f0: 2b9b 5c25 e55b c73f b023 d79e 1dc5 c63f
00000600: 2b0c a158 2245 d53f c73f 7290 d45d 8a3f
00000610: c59f 5c50 7f60 c03f 5491 af83 2a41 9c3f
00000620: 5e53 9757 eef9 b23f 2b5d 4a80 2c91 b83f
00000630: 5180 99ff d4af bd3f 3a79 eb69 0d98 cabf
00000640: f783 336a 3926 c4bf 8034 7c71 ff3e b5bf
00000650: 7e7d 558a bbeb a33f bd04 125e e218 c53f
00000660: 3bb8 15fb 7001 b4bf 7885 7060 37e3 c03f
00000670: 0ab2 c993 1a5b ce3f f28a 4239 0bda d0bf
00000680: 1cba b29d 4f31 b63f ef0d a531 50d5 c63f
00000690: 7509 050c 67ed b83f 9f21 a9d5 ff56 c4bf
000006a0: e686 6c47 c655 c23f 124b 89f0 43b6 b6bf
000006b0: 7f7b cbc7 dc30 c0bf 93b7 58cb 8ef8 d03f
000006c0: 8007 3f7e a08c c1bf 3cc1 d3fe 164b a33f
000006d0: 999d a527 2a20 a5bf cab8 576d 0576 be3f
000006e0: 06e7 b099 1209 c53f d4d9 bb9f 58a6 67bf
000006f0: 84e7 49ea ab02 a5bf 3228 e42d c788 ca3f
00000700: 6cc1 5bd3 3daf a83f a4c4 8353 5eba a83f
00000710: 8c5e 568e 9edb b03f a442 b454 690c c23f
00000720: ba91 f93e 410e d7bf ca9b 2153 1cbb b33f
00000730: 8fb7 fc8e b7f5 ad3f 3a20 cf10 8487 b63f
00000740: e906 b9e6 3a2b d6bf cb4a 3091 83b2 c23f
00000750: d607 734a 3d50 bcbf 8770 5f69 f96e bebf
00000760: d5fb 948d 2f6a b5bf f57a f7b1 e803 ddbf
00000770: 918c 2298 e8bb c43f 36be c5c4 a2a3 c3bf
00000780: 63ed 40ca 4250 cc3f 50c5 53e0 fdde d1bf
00000790: 83a2 a452 c4e6 80bf af2b 7e27 3f58 c8bf
000007a0: 0438 e07f 0ee5 d23f e27d bc42 59c9 8dbf
000007b0: 9388 c9e8 66dc c0bf 0ba8 f9a2 c87a a1bf
000007c0: 9c0a ba52 a41f ab3f 42a8 f958 8a58 c0bf
000007d0: 9d2c c9f9 21d1 b83f 46b3 7ee7 7874 b03f
000007e0: 902d 8df1 6a3f d1bf f6cf 73c2 6426 b23f
000007f0: 2bf6 dc2a 130c 9fbf 5be4 0618 79b1 d6bf
-0.2046597721622385 0.23360519043551767 -0.306640328532296 0.008897810682203511 -0.03434310387581873 0.010813778975745654 0.18301912607250537 -0.16910775616898222
-0.37299767168102077 0.34168925303984043 0.16781510366438104 -0.03556057428013962 0.11739009361496813 -0.32099248220690263 0.11450928461886722 -0.17031166299766862
0.3115092052689544 0.3659645556305293 0.28462497639346473 0.1485223577261231 -0.2044726561788106 0.04406166710355762 -0.37021346053617615 -0.13073654427151696
-0.08715461589153121 0.014139850075815382 -0.29032759176816714 -0.29971872029688384 -0.06050690733168277 -0.1647816521528071 0.12115817130435244 -0.024979523722854828
0.24181446627604594 0.09319561978545302 -0.17238653259206357 0.05961945299247841 -0.4174988057747335 0.09118584997756207 -0.2856697559138906 0.022565865604208507
-0.1754049342232775 -0.2830570150094476 -0.029085345096478057 0.05946244994861748 0.2515686470595841 0.26896087771304805 0.23574388338605717 0.035249759728288255
0.33362436750019897 -0.09265432546693429 -0.2548322323613316 0.2544863305359605 -0.10612955277310679 -0.46886046950235066 0.035162403985131686 0.2894978379647362
-0.09435360110090346 0.16623497151624564 0.3075961397504258 -0.46129616585369715 0.20463359064147094 -0.18864083982804675 0.3701775271436382 -0.14443502207375644
0.27447353691386284 0.35814961785678023 0.09740633809805102 0.14826772432604274 0.023747915259542392 -0.09292083445208786 -0.2687000113312776 -0.33007868371921506
0.15718204347625336 0.02692933455487181 0.11536546476379372 0.15706189876589555 0.13910957449442704 -0.058038424840527965 -0.03590314530797407 0.02459398647415066
-0.11998896940356979 -0.09956114440938339 -0.12275140454171984 0.16777696265572045 0.018771330789497147 0.24560791057789363 -0.013436285072469047 0.147792699107911
0.11891108653290024 0.1788580760851762 0.14714987533381563 0.21991561140452764 0.19161867789753095 0.004830734459020901 -0.008066883237650167 -0.266060043923459
-0.0744143997116457 -0.14936312568703844 -0.1390332293192433 0.14860580125560297 -0.1488357170230536 -0.09317000889282097 -0.37211459983982503 0.07184283948495315
-0.14132936990809733 0.026372938532246468 0.16255256223351247 -0.06661342691471134 0.138338697872712 -0.20063214692149298 0.1013637110251895 -0.08010443153133452
0.054161779104775126 -0.12407719661954741 0.1664463978945672 0.17660995682522967 -0.2302975108284211 -0.018088357090122385 -0.08822021841082033 -0.33449428221631067
0.10137298052460816 -0.1373810794015108 -0.43201898486669926 0.0424935435692266 0.10675374288373211 -0.05270664476652305 -0.05765148313671688 0.25727329237491264
0.20448991221286875 0.15534673765667487 0.018612027672242855 -0.19607891487663834 -0.04297351860346438 0.14104661243525754 0.19968520052189617 0.21351787069632827
0.027375294512407528 -0.28951946233515036 -0.5107704444642377 0.07931445248185173 -0.13123976784380204 -0.2251444515482771 0.14247096034163814 -0.4627108922048553
0.22342954002739976 -0.08971508280799474 0.09609408918462646 -0.1438868940734523 0.3016234630804253 0.027746459003556982 -0.028458042970966616 0.1202124355716243
-0.3461551063444723 -0.1688784593311367 0.054944954186508056 -0.06666184320753175 -0.24785562328306893 -0.06187793243462246 -0.21206951598625032 -0.22032634005275392
0.10382009094944189 -0.014699188935631083 0.291557889121016 0.1323615679688148 -0.3018652802147269 0.03907752219384014 -0.3819353678418319 0.1427667796953002
-0.32129504709500045 0.09128537189537159 -0.0038090934457078542 -0.05821535562602121 0.12708751698709134 0.032088922358908215 0.2612442375160007 0.3022122462180911
0.09419529943085635 0.11281577332508676 0.022893599658821404 0.031060361754429718 -0.11789382738277987 0.013974644693870617 -0.09992975621987606 -0.1496601089031051
-0.02596412307100532 0.5078036536934374 0.06192609309332868 0.17875522137860927 0.0600684958830989 -0.26637937753746355 0.18249191593459932 0.17789049392584166
0.3323446145552135 0.012874279649878318 0.1279448645011582 0.027592338836158817 0.07412614477591492 0.09596517688838861 0.11596423378205258 -0.2077652709185232
-0.15741651235205698 -0.08299252052911932 0.038907871853321105 0.16482190697937496 -0.07814699296952281 0.13193409165345904 0.23715526786999447 -0.263308339994338
0.08668992614796206 0.1783848040014244 0.09737247508477316 -0.15890500958108775 0.14324263083931682 -0.0887186491247969 -0.1264911628304297 0.26517076356946595
-0.13710409321179995 0.03768226490672297 -0.0412610219380511 0.11898836059092158 0.16433937553829753 -0.002886937230751155 -0.041036007260983914 0.20729913464339372
0.0482119865899929 0.04829687852350986 0.06585112547906585 0.14100376735634257 -0.36024504804506885 0.07707383184025143 0.058515297131051296 0.08800530825021805
-0.34638855487365433 0.14607281293191074 -0.11059935634241866 -0.11888083288744343 -0.0836515160235501 -0.45336358432352536 0.16198451450791088 -0.15343126876858698
0.22119936824479244 -0.27923533350902563 -0.00825265290457478 -0.19019307545053496 0.2952305077350277 -0.014544198369150278 -0.13172613493504012 -0.03413989057010277
0.052975783441998575 -0.1277020391892752 0.09694111202513729 0.06427722598773497 -0.26949571217547774 0.07089833972332812 -0.03031949948421279 -0.3545820936811361

model.sequential_layers.2.Linear 2.weight f8 [64, 129]
00000000: d217 3ab5 f0ef c5bf ff06 4157 95e4 c6bf
00000010: 36f5 ec20 cf98 c1bf 3735 92df 7d92 c13f
00000020: bd80 b087 845b c9bf 669d cf72 159c a8bf
00000030: 6ffd 0182 2fa6 bbbf 16bf d319 9de0 cb3f
00000040: 2417 9973 2d06 cabf 4256 5a2b 6388 a53f
00000050: 722e c469 4904 b4bf e7b2 efee 7dd6 cabf
00000060: 3c9d 737e 2698 c03f 052b 94a2 ac55 c03f
00000070: 03a6 e153 6c3c bcbf fb2a 6be4 3d37 9a3f
00000080: 09f2 889d cdf0 85bf 222e 54e6 aaa1 a33f
00000090: 524f 034d d102 803f c930 8711 f31a be3f
000000a0: ad3c f29d 1a03 9cbf f627 062d 9853 bbbf
000000b0: ad2f 9596 1838 b23f 53c2 a949 e1aa abbf
000000c0: 9939 a21b b5d4 c4bf 04b7 fce3 5031 c3bf
000000d0: a500 0c55 5bf8 b63f 7d59 5810 68b0 893f
000000e0: 3129 6766 e710 babf 1b88 d5fc 66ea 9ebf
000000f0: 3dd3 209f df9a c5bf 2fce aeb4 55ed a73f
00000100: 3226 25ae 702c a0bf 0694 ac6f ac53 c73f
00000110: 1a62 1d17 558c c3bf 570b cfe8 1d65 c13f
00000120: 9eb9 fffc 5469 b23f eba6 de6b 78c8 c7bf
00000130: f509 d4de 7d94 b2bf aca7 2e86 0e14 cbbf
00000140: 682f 3548 c456 963f c3e3 75a8 07a3 c53f
00000150: f007 4fa1 e3ee b2bf afa7 725f e71a 88bf
00000160: f603 aac7 9a9a 95bf 9fef 662d 9061 833f
00000170: 47e1 2ac7 6acf d8bf fe10 9052 a942 b63f
00000180: ffb7 5d1b bdfc 993f 9281 f230 d1f3 c43f
00000190: 4bf4 a9ff e40e b13f 267d add4 7597 913f
000001a0: 34bd e9c9 6c51 a73f 71dd c3cd d478 b6bf
000001b0: d39d 5bc1 7f93 aabf a4d4 862f 1c3f cebf
000001c0: 5c08 d7c2 d945 acbf ca03 4d6d c912 c2bf
000001d0: 526d 4a37 47e4 a03f 9cf5 e548 96f5 813f
000001e0: 5c01 9d6f 4fff d2bf aba4 bc51 42fc c1bf
000001f0: f101 a8a8 af26 a4bf 36e6 ccb8 9950 a5bf
00000200: 13a9 ece6 bebc c23f c060 651f 20c7 b23f
00000210: 3cb4 6a72 156f 98bf 3dfd d20d 903f c43f
00000220: fa2c 412d 5a5a d03f 2466 6fd4 0d02 cdbf
00000230: 7596 c098 2678 8b3f 2ed3 003c b61f ccbf
00000240: 3cc9 a85c dac1 d2bf 2c47 c991 9c91 aa3f
00000250: 2345 a818 cc7f 7c3f b538 c9d3 5559 bf3f
00000260: 8722 50c3 4dcb 713f f7b8 723c fc87 cbbf
00000270: 67d2 1b8d 10e4 a23f 8d5e de4b a96b c1bf
00000280: 7c5c b3ff aeee aebf 3729 1c1a eb8b c8bf
00000290: 5a9a 092b c2cf ac3f 8a5b 5838 f0d4 a3bf
000002a0: caa9 01b3 06fe a7bf c5fa 0604 71d3 93bf
000002b0: dabc 0ae2 afee c2bf e601 a0bb 3fee d03f
000002c0: 0c0c 4da0 fd5e afbf 3863 115a 2a28 b9bf
000002d0: 5414 a0c6 fd47 bebf 9d48 0f10 c14d c3bf
000002e0: bb70 5db9 7514 c53f 77d3 4c7e f938 ba3f
000002f0: c80f b6a4 0d7c cdbf a3f8 16ac de61 c2bf
00000300: b1b1 47dd 49cf 98bf 7bd0 d8f9 ea59 c2bf
00000310: d9df f6eb 7834 bdbf 32c2 47b1 5dd4 b93f
00000320: 4b32 1256 d3a0 833f 0f6d ba9b 2703 87bf
00000330: 8de4 1e62 2da7 b6bf c755 4495 1496 853f
00000340: 9920 f4ae baf4 b73f 70f9 e9af ae97 c73f
00000350: 6b9b 5727 abce cebf 1d8c 0661 8b01 c83f
00000360: 94aa 36d9 a3c3 b6bf f835 482f acbd b23f
00000370: 7647 e507 a037 973f b216 12f8 c742 b93f
00000380: 2681 8f1b b460 b8bf 18ac 2654 7b34 a63f
00000390: 03d3 8a92 eea9 9a3f 7108 f816 6f36 a5bf
000003a0: 0491 9a9c 6cf9 c03f 62c1 9337 6dcb b23f
000003b0: e0b9 ff80 2a3f c93f d2c0 0838 7283 c4bf
000003c0: a23f 787a 01d2 aebf 1348 8a05 a2e1 9a3f
000003d0: 4b22 a6ae 83ad b53f 5945 d870 8c38 953f
000003e0: a4bf d87a d3bb d5bf 44a1 f22c 5558 c4bf
000003f0: 6c92 d258 6199 b83f 5f01 c697 00dc a8bf
00000400: 95a8 f9b4 21ac 943f 8dc4 4b68 9b75 a0bf
00000410: 8f81 2856 1722 913f 6aad 7255 a751 b3bf
00000420: 9efb a8dd 3701 bcbf 5c76 43fd 8e7e d4bf
00000430: 982f d3b5 d891 c3bf 4a8f 6514 3901 bbbf
00000440: 92d3 9b63 6f16 d5bf 0a49 7ceb 4dae c0bf
00000450: 6ff6 46d6 4cb8 c53f 3df8 650a bbd8 803f
00000460: 9bf8 f830 f57f c6bf 5951 8b17 4dc4 c3bf
00000470: c42b 1f46 af61 a3bf bad8 4e7f 454c be3f
00000480: 2ddd 4668 5b60 cabf 9c91 56fa 1bdd c9bf
00000490: cdd3 2a86 ce3a c6bf 8b69 e07e ad8b b23f
000004a0: 818e b510 70e4 b73f d5c5 4d55 00ed ca3f
000004b0: 5b8d 75ab c20b cd3f 9592 2bcf 64db a03f
000004c0: 2751 ca6a 73bb a23f 3d9d 4f7a 3e7b 33bf
000004d0: b12f e831 56e8 c4bf 1a18 00cb d210 a23f
000004e0: 1859 5730 2de8 c6bf 5a68 be9a ad1f a4bf
000004f0: ea51 4f56 9e43 c63f edb3 4460 dcc5 d9bf
00000500: 5f1c 4dcd 1dc7 c5bf 8158 de49 ba2e c03f
00000510: d777 6dc1 1ce1 bb3f 884e 6538 e5f1 a13f
00000520: 6b66 7af3 b907 c1bf 25c1 9a02 1d70 923f
00000530: b805 e885 269b aa3f feb6 4ba8 6c84 51bf
00000540: da46 4b7d 53c1 9c3f 1404 cf96 521c a83f
00000550: 3fe9 090a 15ed cebf c02d f9ea ea5e a3bf
00000560: 3a36 3846 33bf d1bf b4c2 db18 4ded bbbf
00000570: 599f 7fc1 512d b13f 6e8e afad 6449 c6bf
00000580: 75cc ad04 1306 913f 0483 bd72 467a ae3f
00000590: 2c5d 69cd e382 ccbf feed 6349 fec8 c5bf
000005a0: 4b64 5792 a624 973f af69 e552 d656 c53f
000005b0: dddc a80d b022 b7bf a16c 2b02 6a2f c33f
000005c0: 5925 4ee3 b4b3 c73f 3922 0197 a28d b2bf
000005d0: 04f9 8656 a92d c03f 00c1 f81e 9fbf c43f
000005e0: 6ccb a49f 3759 c13f cb03 abed f996 a0bf
000005f0: e326 6a0c b30e 94bf eaee b6fa aff6 c03f
00000600: 3430 4a35 d0d7 b0bf e27b 5d41 6cce ba3f
00000610: 13d2 0816 9cbe a0bf 0fc7 229e 02df bc3f
00000620: 8fcc d0fb f8e5 d1bf 28d6 8eda 7415 cbbf
00000630: d141 4cf4 aacb 81bf 5ac7 9fa6 857c c0bf
00000640: 29b5 dd25 e907 b3bf f7a1 f5a0 9031 a2bf
00000650: d7fc 2970 2362 bc3f 0f85 4317 2521 b8bf
00000660: 67db df14 3f0e b23f 292a 9b60 9cea b5bf
00000670: f529 eb53 3ab0 a63f 1e5c 7e09 efb0 b6bf
00000680: a0c6 2169 17f5 a13f f972 4035 4499 b23f
00000690: cc1c 80a2 c4cf c73f 6413 a8eb 57e3 963f
000006a0: 8275 7ae4 3cf7 a8bf 30a4 f7db 3e8d c43f
000006b0: ee71 e2bb b158 b9bf 3405 8e5e cd55 cabf
000006c0: 0f6e 8db5 5698 ccbf 3c1f d642 05c1 b83f
000006d0: d6dc 44dc 33ce cfbf 1de8 ebf8 665d c5bf
000006e0: 33e3 7fc5 f72c b7bf a2ec e7ac 38bb bebf
000006f0: 3894 9548 efe7 b23f 79c4 325a a72e b6bf
00000700: 8269 86c0 9922 983f b1b2 56db 0aab c7bf
00000710: 75f6 ee05 7fc4 a8bf 6e28 bba2 b55e a93f
00000720: e1b1 e4e0 cdb8 d3bf cc88 e46e 7bc3 b9bf
00000730: 96fc 6ca4 dc04 70bf 496d f86a 95bf c3bf
00000740: d3c2 1042 995d d4bf 2803 7c06 dc99 b5bf
00000750: abc2 3b00 4d32 babf 4fed 6db9 b858 b93f
00000760: 6355 9b5c 0319 a5bf 98c3 5ac4 6fd6 b63f
00000770: 96a8 f873 0b83 923f b947 9040 9c57 c5bf
00000780: 0854 87d1 2135 d13f 0c44 5b4e f77e bc3f
00000790: a9f7 8350 7cd2 c33f 64a6 cc88 93d6 d1bf
000007a0: 9833 7150 298b babf fd96 7584 9ad3 c73f
000007b0: 3c83 f242 b995 a53f 3a77 cefa 1088 c8bf
000007c0: 50fd 4b49 bd95 bd3f eb3e 4041 21b5 c73f
000007d0: c073 03d8 04ea a13f d13b 0c5e fac7 d03f
000007e0: 3f6a 73e6 f216 b83f 55e7 23ba 60c6 903f
000007f0: 4d13 cf8c 0578 c53f 30ef b3bc 85e0 d9bf
-0.17138489579173083 -0.17885081062745908 -0.13747586353012203 0.13728307167586148 -0.19810539842092637 -0.04806582476140413 -0.10800454067247299 0.21779216538515617
-0.20331352371629763 0.04205617813310571 -0.07819041092096216 -0.20967077414333987 0.12964326071162613 0.12761457384507238 -0.11029698417555527 0.025601355616156046
-0.010713201875767646 0.038342800728141904 0.007817874109981613 0.11759871652538147 -0.027355590715669 -0.10674429988117126 0.07116845775925525 -0.054038086168365716
-0.162741316311849 -0.14994250423608702 0.0897271235116955 0.01254349994546255 -0.10182043314049306 -0.03019104879548005 -0.1687888648026731 0.04673259573555943
-0.03158905149264192 0.18224101498449857 -0.15272010449076917 0.135898340870052 0.07191973854762643 -0.1858053709705055 -0.07257830324309807 -0.2115495829760311
0.02181536379548224 0.16903777814493823 -0.07395765960885092 -0.011770064926469674 -0.021097582279711667 0.00946343077236361 -0.3876597352023236 0.08695467248623243
0.025378184123319155 0.163690709018749 0.06663352243227043 0.01717933760243997 0.04554309811362103 -0.08778123878061252 -0.05190657840085646 -0.2363009674133184
-0.055220418008972344 -0.14119832837061913 0.03299162435470272 0.008769201373747752 -0.2968329038594868 -0.14051083556231467 -0.03935765203278042 -0.04163055783142193
0.14638506198509357 0.07335091368202296 -0.02386125098080448 0.1581897799969542 0.2555146638812428 -0.22662518379984065 0.013412763153677102 -0.219717768953751
-0.29308184670221116 0.05189217834107604 0.006957814456215491 0.12245689793164412 0.00434427620076206 -0.21508744193619808 0.03689624521749551 -0.1360980625583931
-0.060414761270004086 -0.19176996970083746 0.05627257132873771 -0.03873396575743644 -0.046859940863970787 -0.019361272688679394 -0.14790915047840408 0.26454156229740844
-0.061271596734990025 -0.0982691259281524 -0.11828600024462449 -0.1508103683868897 0.1646868853666826 0.10243186315058304 -0.23034830610788348 -0.14361174967593113
-0.02422824299894594 -0.14336907577092348 -0.11408191452835527 0.10089669778950208 0.009584094108754068 -0.011236485900829622 -0.08848842282795229 0.01054016190077335
0.09357802172974274 0.184316478629579 -0.24068202420240978 0.18754713285042693 -0.08892272999825429 0.07320667414042947 0.02267313049498606 0.09867524916088646
-0.09522557900300352 0.04336915399775182 0.026038863844138237 -0.04143092303640195 0.13261182448071207 0.07341654402603617 0.19724017428184393 -0.16026141868633786
-0.06019596691123687 0.026251346195358915 0.08467886937990803 0.020723528277874468 -0.33958899494882133 -0.15894570059504975 0.09609039705771644 -0.04855348446563101
0.020187880202151638 -0.03214727066177501 0.016731609948807565 -0.07546468578464319 -0.10939358865378643 -0.32022452099577037 -0.1528883827035059 -0.1054874110027956
-0.32949433066760847 -0.1303193473655216 0.16968689406160162 0.00822588086589004 -0.17577996150243255 -0.15442813539142256 -0.037854649839196536 0.1183513103304418
-0.2060655841030238 -0.2020602199892324 -0.17366963912141245 0.07244381282399652 0.09332943351687996 0.2103577057383023 0.22692139980345413 0.032923841752368656
0.03658638647644557 -0.0002972629102359797 -0.16334035336364885 0.03528460243255456 -0.1789604650536567 -0.039304185046788745 0.17393855299327693 -0.40270146752555896
-0.17013905071709964 0.12642601591932492 0.10890369150499112 0.035048640379185036 -0.13304829014377914 0.018005803379027036 0.05196495422934383 -0.0010691701037858765
0.028081230661718283 0.04709108439374901 -0.24161017408534666 -0.03783353918387489 -0.2772949395883618 -0.10908967835326672 0.06709776853642548 -0.17411478501081795
0.016624734078004317 0.05952663565290631 -0.22274444131719784 -0.17019632895959086 0.02260074871250976 0.16671256110823893 -0.09037304242598361 0.14988446336687836
0.1851717100037529 -0.07247368036872438 0.12639347767794373 0.1620978261212329 0.13553519530395464 -0.032401857626161844 -0.019587323792200528 0.13252830259249687
-0.06579304982204875 0.10471226306752571 -0.032704236688378206 0.11277786598909877 -0.27966141311043996 -0.2115922991921917 -0.008689246731166474 -0.12880011211341974
-0.07433945822204592 -0.03553440060460738 0.11087247360591178 -0.09425575082743286 0.07052988299970551 -0.08561112745807321 0.044313261741610356 -0.08863729459550071
0.03507302435253945 0.07265116024104747 0.18602807936279075 0.022351621397337054 -0.0487612751869433 0.16056047192185607 -0.09900961720490617 -0.20574347607547738
-0.2233990084158539 0.09669525987385169 -0.2484803033382607 -0.1669129100262702 -0.09052990504995932 -0.1200442716725996 0.07385154268338645 -0.08664937927348317
0.023569490791126586 -0.1849073000897952 -0.04837414691381251 0.04955070125068138 -0.3081545540069595 -0.10063907105771647 -0.003910886653840559 -0.1542841694180004
-0.31821280910211874 -0.0843789592581855 -0.10233002906512449 0.09901003386578576 -0.04120646005109554 0.08920954269230064 0.01807802100498942 -0.1667361560108114
0.26886792623309974 0.1113123480129305 0.15486101085110462 -0.2787216983730103 -0.10368593419953098 0.18614512889615034 0.04215792600849119 -0.1916524147645136
0.11556609191392408 0.18521514593202623 0.03498854767688142 0.2622056883273532 0.09410017133942804 0.016381751404856832 0.16772527099069592 -0.4043287604142618

model.sequential_layers.1.Linear 1.weight f8 [128, 257]
00000000: 29c4 8a5c b60c c5bf f203 4940 07ad b6bf
00000010: b141 d345 131c b53f 8792 87eb b31b c33f
00000020: 3133 a682 34f2 ce3f 0aff b65f d590 d2bf
00000030: 93f2 2980 79a4 c4bf 9d01 70c7 8f2b c5bf
00000040: 6c0e 862e 31ec c13f c2d0 db6a a45a ac3f
00000050: 556f d3e0 422d a73f 0e0e 71d0 3709 b23f
00000060: 4c38 ca0d 6e58 c7bf 3b00 2b36 c608 993f
00000070: 4b99 77af e8ba d4bf 8a31 cc90 b38c bcbf
00000080: 1ac3 70a6 7997 a1bf 20c5 6f67 db7b a5bf
00000090: 081f 1464 23a5 c3bf b36e 6ff2 3cc6 cebf
000000a0: 5965 7b5e bc38 bbbf 01d1 d5e3 a5b5 c43f
000000b0: 062c 73df 2767 c43f 5d98 255d 9b2e cbbf
000000c0: ab91 4b66 832d b03f 3824 7fb8 cdd8 c5bf
000000d0: d3f7 b0fb 6e45 d6bf ce49 10cb 88d9 cdbf
000000e0: 3011 2701 ee71 93bf 45e7 1a14 e482 b33f
000000f0: de45 0a84 5e13 a8bf df23 5399 9309 a3bf
00000100: bdf4 cd42 ee0d cabf 2bd7 a859 d669 b83f
00000110: f666 741e b495 cfbf 19d5 c526 0773 c4bf
00000120: 97f2 9745 6be4 b23f cfb7 ebc4 ab9d b5bf
00000130: 10b3 227c 4f01 b03f dc99 9c13 49cf bfbf
00000140: 552c 1ed0 eec6 cdbf 9d01 3905 581e d1bf
00000150: 81ac a003 256b d4bf 2de0 2236 18d5 a6bf
00000160: cdd9 84a0 1da9 ab3f a478 5b83 cc3e b03f
00000170: ddbf 224b da5e c5bf 894a c22d 2282 a8bf
00000180: 7f0b 0004 d162 aebf a223 619b cc76 c13f
00000190: 9387 9326 6513 c2bf aa9e baa8 b06e c2bf
000001a0: 5f60 ae8a d609 babf 108a 91eb 440e cabf
000001b0: c97e a9ef cda1 bcbf c493 8824 5d37 a73f
000001c0: ecf0 bc2f d429 a13f 3d0a dc14 839e ca3f
000001d0: 7b4b ecea 9b6a a23f 8bd0 d147 8985 b33f
000001e0: 2546 ac6a a295 a9bf 52c3 91e2 b5d5 b23f
000001f0: e912 ba69 9a4a d23f 6b18 b452 06d3 c3bf
00000200: e0c9 d09b 74b7 a73f ffaa 96d6 6e18 b33f
00000210: 59c8 548e 3241 a6bf c098 f1c3 9093 773f
00000220: 31ef 1316 0ca0 c2bf d00d bb30 cbc8 be3f
00000230: c1a7 bc5c 2bb5 893f e649 f737 aeae c03f
00000240: 43f4 68d4 19c8 9f3f 5aad c331 0678 c7bf
00000250: 1a1b 5b97 a207 a03f 72e1 b14c 03ea 533f
00000260: 7100 0ddc fb3c babf db20 c711 ceb0 c33f
00000270: d26b 6ccb f9b5 933f e6a3 4fbe f646 c73f
00000280: ba46 d1f4 3b6d 533f 6565 9be2 5e20 76bf
00000290: 71a7 f76c c3f9 d2bf 434d 6b79 bdea c8bf
000002a0: cba0 f1c0 8133 a0bf 83fa 4706 c43d d3bf
000002b0: b5ae 18c3 f27b 583f 477d b7bd b323 bb3f
000002c0: ec00 426e 5972 8bbf d4da eddf 1a28 c8bf
000002d0: 1ce1 2646 ffdc ab3f 820c bcb7 acdc c43f
000002e0: 5592 8475 07ed c23f 398c faa7 b489 af3f
000002f0: fe26 f910 ce2b 9cbf d1a8 d20f 2419 bd3f
00000300: 72df 48cc 9ecb 91bf 7b0d b563 1e2f a2bf
00000310: a217 0dae 5fee ccbf e24c 22b9 d930 93bf
00000320: 8403 3fc4 2da7 c9bf a135 4326 a8be bcbf
00000330: ce22 aaab 7a86 c2bf bd08 b263 9772 b43f
00000340: 4010 9dcd 21de 963f 92ca 3c35 da35 b2bf
00000350: ce86 e320 fdc0 b5bf 1d9b 3d59 f4ff d1bf
00000360: b586 cac4 cb2e c23f 4654 9949 e68b 92bf
00000370: 02ea 53e8 b097 b0bf 3b32 26cf 18d4 563f
00000380: d0d2 664f 62dc babf fe98 ebe9 1e89 a73f
00000390: 90b0 8edd d708 c33f 164e 2c22 48da c4bf
000003a0: d74c 9ee0 9dc1 b63f 28f1 ccba ff5f c5bf
000003b0: e954 1fc9 4d8d bf3f 8bfb e548 a74f c7bf
000003c0: b7a7 e1ec dab8 c63f 3167 945c 11b7 cb3f
000003d0: 1754 5350 f9db c03f bc1a 9cdf 3a0e b63f
000003e0: 1894 53f3 c0b3 a93f 6be6 2a5e 08cc b0bf
000003f0: 6dc4 4b17 b635 c43f ec81 a55a 98b6 c3bf
00000400: e144 8629 469a b53f 1c9c a54c a052 703f
00000410: fc65 2d51 3f52 c1bf 7b5a 6e65 4100 be3f
00000420: 9dcf ec79 3c5d a73f 7166 e8b7 95f7 c5bf
00000430: a9ef 8200 ad75 953f aa4d 5ecb 9f99 c3bf
00000440: 9a5e 0ed4 f518 a13f 83e3 c28e e65d 743f
00000450: f498 6b7e 5dc7 953f 3b13 2c51 78b4 b5bf
00000460: 1e6b 69a3 dc71 a3bf e880 9b67 c4cb b4bf
00000470: 79d3 ecd7 cafb 99bf 94f2 463c c998 c13f
00000480: 31ba c8e9 b826 bebf ab9c 6b78 2836 ccbf
00000490: 92a2 921d e501 c6bf 941a e0bf de68 bebf
000004a0: 4bf5 d59c 4611 953f c105 e95a 9038 c0bf
000004b0: 7c13 20bf 8db2 c3bf 8af4 d311 e461 7abf
000004c0: 3b1d dc83 e2e6 acbf 3a4b 9f9d c214 bbbf
000004d0: 4d8d a4e6 cb52 b3bf c6fa 1026 a2e2 ba3f
000004e0: 7f03 05b6 0c7f c5bf b050 8520 0af2 c9bf
000004f0: 7156 a85e 1bee b33f e28d 137c 86ab 91bf
00000500: fb25 2e09 27de 93bf ce0a be39 e2ac c0bf
00000510: 8035 d877 9122 b7bf d1c0 471b 711a c1bf
00000520: 0080 22c3 a986 ca3f 6a50 be86 925e d0bf
00000530: 36b8 a138 282f a9bf af1a 7ad8 e6e0 90bf
00000540: c926 619b e5fc a5bf b253 4c78 ead2 98bf
00000550: 86b6 4318 2731 c13f 1311 6a32 34a4 92bf
00000560: e721 be09 3853 c7bf e415 c381 a68e 733f
00000570: ce82 32d9 a9da 96bf 8b3f 1a10 134a d0bf
00000580: 2df9 d34c 2e0a b5bf c03b 9779 d664 963f
00000590: f2de ec95 580f d2bf 8ee3 65cf 5d0f 9f3f
000005a0: 6a0a fec8 2dbd 8fbf 1a84 7dc5 a662 a6bf
000005b0: 96a3 a43d 4548 c93f 3e6c c9c5 81c8 8dbf
000005c0: 658e 4ff6 65be cbbf 913c 7c77 9dcd b8bf
000005d0: 2978 e6ff 31d9 a3bf b074 1de4 f9af b93f
000005e0: f416 ccb4 491d d0bf 732c 4d6e 4ec8 c1bf
000005f0: 9147 243f a750 c9bf 5381 270b 6906 9f3f
00000600: c971 622e 9fe5 b9bf 1b3c d999 dbd2 b5bf
00000610: 657c ec8f ab20 c6bf 989d 8d09 6037 ccbf
00000620: 2a81 52b3 3b7b b63f 2dd4 f488 ab3d adbf
00000630: 0298 90e6 8e34 983f 3da8 fd69 9e40 c2bf
00000640: 279d 2f17 6468 a53f 163c 1e03 f047 cbbf
00000650: 911b 7a40 e143 abbf b976 a881 acc9 b53f
00000660: 9396 7a00 3609 a9bf 5e06 b165 8bd9 c9bf
00000670: 334f 47f7 1c7b c6bf bb1c 581b 79a0 bbbf
00000680: 1323 cd50 b34b b53f 56fa 162e d659 a63f
00000690: b8a2 febb 51fd ccbf 87ea 6f87 4ed4 9b3f
000006a0: 9099 0a04 f8dd c9bf e71c 4442 243d bebf
000006b0: 1b49 056d 9434 d5bf 9aa0 d8f1 f7e3 94bf
000006c0: f2a9 8c47 1350 b23f a7a3 7dd6 1eb1 6abf
000006d0: d057 2dfd ebb7 b83f 9f0f f489 3191 adbf
000006e0: 311e 550a e4ff c6bf 5dfc 5c59 6eb4 c2bf
000006f0: 49d3 36fe 318d 743f 9c3d bb72 f13c d33f
00000700: 2364 9471 c6e1 bc3f 8967 d84f 444c babf
00000710: a524 09ff fe12 aa3f cbf3 e595 5896 b03f
00000720: c0fd f3cb 5fa1 cfbf d651 5b14 dd4e 82bf
00000730: e486 f457 b566 b13f b2ad e0ee 9f35 c4bf
00000740: ea78 754a 429c c03f e46e f6e7 45ad babf
00000750: 0ddf a421 27f0 be3f 4f96 8245 3565 a53f
00000760: 8cba 415c 27f7 803f 2d29 d2dd 5837 b63f
00000770: 6cb2 1459 5626 b2bf d6eb 9d3e 3cfe c33f
00000780: dd6d 9351 4567 dabf cdd9 fbc7 b7eb abbf
00000790: bd5d f287 d1c1 c03f c683 2fd7 78a5 b3bf
000007a0: ae54 6513 b514 b03f 1377 2551 7482 c1bf
000007b0: e003 da29 4001 cbbf 1a8e 0823 9d79 bebf
000007c0: 919c b2f8 06ed ce3f 659a 2f15 9848 acbf
000007d0: 80ca 2a8a 338f 713f 0b6c 6cf7 664c c63f
000007e0: 831e 1a42 6763 a6bf be64 3376 7fe4 b1bf
000007f0: c545 caf7 eb29 b43f 879f aaee 2734 cb3f
-0.16445045012145101 -0.08857770270789425 0.08245964483945191 0.14928292274921182 0.24176651362758997 -0.2900899347987297 -0.16126936681748258 -0.1653918956581152
0.14002051135695426 0.055379045528668694 0.045267190880365384 0.07045315588862186 -0.1823861663182832 0.024447533661032344 -0.3239080155894 -0.1115219334134904
-0.03435878903144936 -0.041960579277551924 -0.1534771193184883 -0.24042474591884896 -0.10633446985902618 0.1617934572674429 0.15939806376113114 -0.2123598294085153
0.06319447753373335 -0.17067882069230378 -0.34798788623072346 -0.23320112147537347 -0.01898929483447026 0.07621598711821516 -0.04702277528589226 -0.03718243834152423
-0.20355013143481485 0.09536494912103126 -0.2467560909943171 -0.15976037400438584 0.07379789780675093 -0.08443711812625952 0.06251999645855855 -0.12425667504121612
-0.23263344919209553 -0.26747704038646153 -0.3190395865846725 -0.04459453259318056 0.05402462562999553 0.06345823485341612 -0.16695717495667753 -0.04786783989506655
-0.05934765981512324 0.13643796526801305 -0.1412168920861033 -0.1440029929992666 -0.10171261678476771 -0.20356046202057643 -0.11184393979192032 0.045344267568260516
0.03352225382556803 0.20796240347415731 0.035969612528922355 0.07625635150344771 -0.049969745179748316 0.07357346326331296 0.28580341648948476 -0.15487746275192946
0.04632152940793666 0.07459156741121474 -0.043466167330181 0.005755963792671348 -0.14550925329228329 0.12025136890138488 0.012552584426504755 0.1303308270713181
0.03103676184604277 -0.18335034780407505 0.031308251358089303 0.0012154609892417148 -0.10249303934415523 0.1538331591421017 0.01924886993502268 0.1818531445744888
0.0011857114325447963 -0.005401964802979141 -0.2964943470129731 -0.1946637003771717 -0.03164296608230329 -0.30064488042254583 0.0014943953250491752 0.10601352102047655
-0.013401697804738842 -0.18872390684165075 0.054420449555836664 0.1629844567433772 0.14785855520416882 0.0615974860241057 -0.02751085260960106 0.11366486917782771
-0.017378312319322693 -0.03551573722009046 -0.2260245895251361 -0.018741037296945325 -0.2004143913491384 -0.1122841924108884 -0.14472897893963083 0.07987352546664091
0.022331741499570734 -0.071134222028187 -0.08497602513264299 -0.2812472220888809 0.14205309971753413 -0.01811179947101873 -0.06481462165894672 0.001393341281615736
-0.10492529333607625 0.04596802335236026 0.14870737379294896 -0.1629114310131718 0.08889185651632957 -0.16699215527649724 0.12324987564291558 -0.18211833056917856
0.17751633230665018 0.21652428646557945 0.13171307012694974 0.08615463217948166 0.05019953699392249 -0.0656132917310061 0.15788913857935274 -0.15400986124133398
0.08438528550893266 0.003985048455752451 -0.13532248939263514 0.11719139791817128 0.04563321102469262 -0.17161818961976708 0.0209567100107361 -0.15312573843094174
0.03339355672431772 0.004972363105644531 0.02126833042248051 -0.08478500348799127 -0.03797807211659275 -0.08123424081304942 -0.02537457411672814 0.13747516101092982
-0.11777835567111407 -0.22040277366543157 -0.17193283027633705 -0.11878769096811431 0.020573714563842754 -0.12672619284607659 -0.15388652641572864 -0.006441012284310274
-0.05644901141755062 -0.1057855257816244 -0.07548212414672158 0.10502065114358591 -0.1679397476928237 -0.2026989611428056 0.07785197316146665 -0.01725587971021792
-0.01940213197261718 -0.1302759916253166 -0.09037121940510495 -0.1336194403843423 0.20723459270539024 -0.25577223928963255 -0.04918790522866383 -0.01648293205519263
-0.042945075242256055 -0.024242080299774656 0.13431252178945757 -0.0182045131464444 -0.1822271392413903 0.004774713914405624 -0.02231850994269529 -0.2545211465121546
-0.08218659759220222 0.021869040652571448 -0.2821866478075058 0.030332055839128062 -0.015497548767375597 -0.043721400840475336 0.19751801977079414 -0.014542592857813227
-0.21674799467938324 -0.09688743750688135 -0.03876644371779065 0.10034143275466323 -0.2517875924680617 -0.13892536531270458 -0.1977738436040082 0.03029789095478581
-0.10116000063357612 -0.08524868494099318 -0.17287201430824264 -0.22043991533722074 0.08781788948045191 -0.05711113020735357 0.023637993643340856 -0.14259700942358391
0.041812064962693456 -0.21313285972834767 -0.05325225746223972 0.0851085487888338 -0.048898398931936836 -0.20195143189816894 -0.17563211511753138 -0.1079173747785828
0.08318634722412481 0.04365414917582615 -0.22648069075991883 0.027177073494366624 -0.20208645055135976 -0.11812044732879522 -0.33133421560809645 -0.020400880943413392
0.07153435227215946 -0.0032582857419822422 0.0965564244373518 -0.05774836358071344 -0.17968416695133407 -0.14613131869734533 0.005017466817140833 0.30059467510451454
0.11282005570355173 -0.10272623967503426 0.05092617858151386 0.06479409846902155 -0.24711224993369107 -0.008939482864129749 0.06797345540374128 -0.15788649715373776
0.12976864467322652 -0.10420643723631035 0.12085194178950705 0.04178778146278416 0.008283908369972857 0.08678203025389016 -0.07089748072457674 0.1561961465593799
-0.4125531479491807 -0.05453275982101822 0.13091487062477639 -0.07674365285448834 0.06281596873789638 -0.13679365122055084 -0.21097566646133625 -0.11904317956264557
0.24160849708025414 -0.05524134882562207 0.0042869580526480044 0.1742066105005907 -0.043727137393088554 -0.06989285121689456 0.0787646751362195 0.21252917436254057

model.sequential_layers.0.Linear 0.weight f8 [256, 31]
00000000: d370 0145 2a1c b83f 0ae3 6220 00cd d13f
00000010: cfd2 3897 ebec a73f 7525 0df4 8953 b8bf
00000020: d509 e7a9 e9e9 cc3f 309a 8198 08a7 a1bf
00000030: 79b1 192a a7ea c33f d19a 450c c74e c43f
00000040: a255 efdc edfa 533f aabf e186 0a64 cfbf
00000050: 750c 5aed 53c7 d63f cf99 ecfc 9882 bbbf
00000060: 5912 00f1 2a50 b73f d318 07fe 4597 d43f
00000070: d787 4fd5 7f24 be3f 9273 761b 36c8 c43f
00000080: a253 f53e 072c a4bf 0c1a 0b9c 1804 bb3f
00000090: e89a 7072 b2ed a8bf fcbd 1901 9752 c7bf
000000a0: bb53 a231 28f4 babf 25bb bd7e 2850 92bf
000000b0: c5c1 27cc 4902 c5bf 3abc a669 e33c b4bf
000000c0: 8905 94fc 853b ad3f 5768 dd0a 7a8d cf3f
000000d0: 57a8 257c f3d7 cf3f 9e4e d2c5 b1dd bd3f
000000e0: 84a8 16a0 f26d b5bf 825b 4218 7823 97bf
000000f0: 1a1c 2a24 251e b3bf 8467 d381 3718 bf3f
00000100: 57d9 b9a2 6d6e b63f 3eeb f172 1e42 96bf
00000110: a707 2ac5 387a 23bf d60c 5794 f883 ba3f
00000120: 0ae1 10a9 0141 8a3f f411 09ab 0943 c9bf
00000130: aa0b ead7 f48f a0bf 4c2f 3002 2e92 acbf
00000140: ee88 c40b 85b1 a53f ecec aa06 e3c9 b4bf
00000150: 8067 fbd8 e3ea 99bf bcca 3900 0685 81bf
00000160: 5040 ee2c d4c1 bbbf d941 0dd7 f97b bebf
00000170: c789 d44e 2cbb a43f d028 df26 477d bb3f
00000180: ee0f ff7d 60c7 b9bf f016 087f c8f8 bc3f
00000190: 0dc5 e3c4 09ab 99bf 6fab 5e0b f020 babf
000001a0: 97a5 4ade cf42 a53f e30a 4cae d6f0 943f
000001b0: 60cb a978 bb43 c9bf f96f bd73 03c9 a0bf
000001c0: 4b4c 528b 6f23 c2bf 9eef e6a5 936f a13f
000001d0: 9df1 e306 fa8d acbf d3c8 8ce3 ccd7 a03f
000001e0: 3dd9 6c5e e3aa 703f b8ca 98a6 23e8 d8bf
000001f0: aef2 b81a 5331 bbbf 8236 8a81 fd73 c23f
00000200: df15 4c2b 8c33 b0bf 5986 295c 4cca c6bf
00000210: 27b0 bb8f de06 90bf feef 54ab baad cf3f
00000220: e883 e39a 8fba c9bf f886 4520 4f9a c1bf
00000230: 3068 5c7f d846 bbbf f76e e57a c6cd cb3f
00000240: 68e6 33a5 7489 d1bf 284e 918b fe5f 803f
00000250: 0db6 f654 6b28 9c3f 5ca5 fe4e 0470 d6bf
00000260: 346c 3daf 258d c1bf aea8 da80 4d93 ce3f
00000270: d9a5 46df 37a8 bb3f 2b93 2895 3368 c23f
00000280: cfcd d92c 1313 aa3f d601 8b11 4039 c03f
00000290: aac0 79ff 25db c6bf 279f 0534 16ea d5bf
000002a0: 7ba5 5542 e13a c4bf 210f 82c9 6c7f dabf
000002b0: 055c 39e4 244c bcbf 0048 bf1b f657 aabf
000002c0: a4d4 362e 98cc a1bf 367a 4ef4 afd1 ccbf
000002d0: e4e2 5c15 0b6a c0bf 0621 a398 4038 c3bf
000002e0: 2bb1 c119 a5d6 c83f 1ab9 731b c45b 863f
000002f0: a932 4f54 f497 93bf eacd 10b6 e323 b23f
00000300: 0f42 0b9a 000b b1bf 7801 86a1 d913 b43f
00000310: cbb8 9f27 ab2f b23f 3d4b 8f3c dc26 c3bf
00000320: 2b49 d841 3b27 ca3f a1d6 c152 a19e b83f
00000330: e60a bfed 5bdd aebf ce9e 392b 9282 9ebf
00000340: e808 58c5 d61c 33bf 0a86 57c3 5666 a03f
00000350: 108a 7d94 7045 b73f 5c29 8d73 bfe5 953f
00000360: 6161 d298 4697 bc3f fa82 5cfe beeb c63f
00000370: 1c7c 8125 3f74 b2bf 1c4c c05d 1f6b c33f
00000380: 24e0 627b abec cbbf 4cfa 3a8f 8bc9 a3bf
00000390: c816 9c56 0eb6 97bf b048 bb8e 6dcc c03f
000003a0: 2b1d 4870 23a5 87bf 806a 2244 7159 a9bf
000003b0: e285 7625 fe74 9d3f e7ee c479 c0a7 b6bf
000003c0: 0e59 db89 c059 b53f 80ee 10cc ab27 8c3f
000003d0: 08e5 4023 9cd7 b33f ee0b 9700 f827 d1bf
000003e0: 5ec5 1f80 7491 933f 543f 64ad c59b a63f
000003f0: a644 504c 54fb 873f df0e 83ed 34fd b0bf
00000400: 47c0 7ef3 4f07 bc3f d322 cd4f f0c5 b13f
00000410: 712b 893d dc16 bcbf fc84 c249 a6a6 b2bf
00000420: 8ffa 544c 3f19 953f 583f 0c08 6a7e 6ebf
00000430: 20c3 b038 0de6 ad3f 13f1 7a43 9777 b9bf
00000440: 150b e938 caa4 b8bf c02a c873 c145 a93f
00000450: 0ed0 9991 39b5 b2bf fcd7 f025 4ab7 bc3f
00000460: 1d4a b22e eb5f b9bf fa0f 5386 20ac a63f
00000470: c0d6 210a e072 ac3f cf00 56e1 302a bebf
00000480: d1d8 ffec 1ed7 933f b015 fcf0 dee7 c0bf
00000490: 07b0 3bad 1a41 a43f 2c55 9d02 1ee3 9ebf
000004a0: 6cc9 3442 f152 4f3f 0c63 72a8 8212 90bf
000004b0: 04fd 7cf9 e3dc b0bf 02ea 6a1d 8829 d13f
000004c0: f523 1f32 2ca2 b13f 8e17 c53b c984 793f
000004d0: e26c 0e80 cf6c d6bf 8448 4205 59ce a2bf
000004e0: 26b8 c7e7 43fa e2bf 1041 fa38 24fb c6bf
000004f0: 7307 bc66 db7f a5bf 26ba 479c 9a93 b13f
00000500: 286b 3840 afc8 b0bf b691 e545 c76d c4bf
00000510: 3951 4c38 8e24 b4bf cbac 22eb 7e19 b0bf
00000520: df5c 81bd 283d d03f 86cc ee31 1070 97bf
00000530: cf06 83fc 3d16 b83f cf5b f95e d08a c5bf
00000540: c41d 2db4 ed02 d2bf 628f a318 cce9 98bf
00000550: dbce ff95 2942 b73f 3e75 19cb 13e3 bd3f
00000560: 168a 0025 9df6 a1bf 0829 0b3e b396 c1bf
00000570: 1685 3cbf a1ff c43f 5092 fea4 e58b cabf
00000580: 4283 2452 3396 e3bf 5399 ed24 4534 cfbf
00000590: 5a78 7445 ed2d dabf 6798 8e34 7894 b4bf
000005a0: e43d 3dd9 4d0a 943f 3320 dc19 f1da cbbf
000005b0: a018 7d8c ecae 95bf 4863 0974 8698 b7bf
000005c0: 23a1 f594 3368 adbf 5c0e d430 d81b c63f
000005d0: 1ee8 1c34 41ff c5bf a2c6 623c 8226 97bf
000005e0: 27d1 3e71 09c3 a3bf 7c68 63f4 58e5 89bf
000005f0: 9806 b1a6 e47f c93f 23f0 82e3 47b7 90bf
00000600: 2089 cd2d 2b3f c93f 1928 0e96 3310 bdbf
00000610: 2cae f430 a3e9 c3bf 70f8 e60e 9cae b2bf
00000620: d6d4 1b6f 7823 ba3f 3db1 7b5f 9bca 91bf
00000630: 86c4 edd5 5c4d b43f 4d79 22b6 4665 ae3f
00000640: 69dc 2295 96ad c53f 0a3b 1abb 2695 aebf
00000650: 4e4b 88ae c1ab c43f d74c bea8 e9fc b13f
00000660: dd23 380a e0e1 c53f 4dd7 97f4 9078 69bf
00000670: 74d9 61b8 834a bcbf a6fc 5bd7 f207 adbf
00000680: 14e5 a8cd 73ef c03f 8809 16e4 836c af3f
00000690: bb96 364b 910d b83f 9329 3fa2 e4c3 d43f
000006a0: c923 88e4 4545 be3f 9b66 6efa 6edc 98bf
000006b0: 7e5d 0b07 5775 b6bf b33e 345f f3f8 a6bf
000006c0: 5a8b f5b4 28fa c4bf 0dfd 66be 5163 be3f
000006d0: 5bc0 75d1 ea80 c3bf ddb6 0339 24d4 9a3f
000006e0: 9eab 49af 3f51 82bf 0121 e4e1 e5b2 b63f
000006f0: 5a90 a56b f40f c53f 6433 fb4b bc38 cbbf
00000700: 0925 18c8 e17b a1bf b568 b5bc 8789 a43f
00000710: 2bd8 16bc c92f 9b3f dd56 d2b4 107d c3bf
00000720: 8df7 116b f1b3 dc3f 700c e84e bd6e a9bf
00000730: a177 60e2 9e83 c0bf 9568 9c32 a30c adbf
00000740: 796a b092 4b8f c43f e711 4bf5 7ceb c0bf
00000750: 4c74 5d6c 9e42 993f 34ea f757 3213 7d3f
00000760: 4a98 89b4 c91a b2bf 8218 2cc7 4c1a c7bf
00000770: 5518 964e 81c6 ccbf 5974 3cd7 3826 b3bf
00000780: 52a7 cb3b 9da5 d4bf e812 3f9f a2e4 cbbf
00000790: 9bb7 cb65 53df b33f fde1 6990 a1f8 d3bf
000007a0: 67eb 203d db14 b1bf 55c5 7454 ae23 d2bf
000007b0: 719c 8b9d f9d9 8d3f 53bc 646e 92e8 973f
000007c0: 313b ea7c a99d b13f 4ae9 519a 44fe b1bf
000007d0: 4eb9 6e76 6c85 9cbf ad45 dbd2 4c53 a03f
000007e0: eb22 ef58 c35d 913f bb96 2e55 8d7a 8fbf
000007f0: 400a 78ce e058 b83f ceec 4c01 4086 bcbf
0.0941797655554553 0.27813723719332073 0.04672943325969003 -0.09502470215115529 0.2258884505846043 -0.03447749005936307 0.1555985408371148 0.15865409945691636
0.00121949414073206 -0.24524051271464248 0.35591600588686073 -0.10746151137264025 0.09106701263233087 0.3217329960574606 0.11774443586139625 0.16235996571495243
-0.03939840930494333 0.105531251999402 -0.04868848463984482 -0.1822079425214581 -0.10528804027337817 -0.01788390420500287 -0.16413233250160722 -0.07905408219697643
0.057094752390194854 0.2465050271083011 0.2487778049647342 0.11666403846384774 -0.0837089196053587 -0.022596241455711936 -0.07467872746393348 0.12146326942038682
0.08762250159074846 -0.021736598745046402 -0.00014860098834295935 0.1035762178571987 0.012819302532179683 -0.19735833026255956 -0.03234830032035714 -0.05580276276313487
0.04236999291085107 -0.08120554840836619 -0.02531009685376473 -0.008554503328217826 -0.10842634293499143 -0.11907922268188233 0.04049051725657509 0.10738033961311833
-0.10069850040514414 0.11317113019330427 -0.025066521303363 -0.10206508901198473 0.04152535999794365 0.02044997633766855 -0.19737952605972975 -0.032783611181656576
-0.1417064123421333 0.03405438804790538 -0.055770696011651945 0.03289642598828526 0.004069221648754171 -0.3891686560556695 -0.10622138407138479 0.14416474175634525
-0.06328655297337303 -0.17804865360362745 -0.015651204607749627 0.24748929372606193 -0.20100588858534185 -0.13752163959275499 -0.10654976949118189 0.21721726418297013
-0.2740146268184618 0.00799559462954054 0.027497937260411876 -0.35058696474387374 -0.13711997086179084 0.23887032310205342 0.10803555680345002 0.14380497725610417
0.05092677996153904 0.1267471395167507 -0.17856287931818332 -0.3424125202204657 -0.1580468725108338 -0.4140274017192827 -0.11053686687351678 -0.051452341925724454
-0.034764056817416816 -0.22514914921790002 -0.12823618453128127 -0.15015418484677684 0.19405044324538187 0.010917217338342545 -0.019134347577891706 0.07086013026201213
-0.06657413254584575 0.0784278888077149 0.07103986470585537 -0.1496234222127785 0.20432224955636377 0.09617050428809161 -0.06028258588005091 -0.029794963730096317
-0.0002916359274821715 0.03203078398270172 0.09090331673863994 0.021384231021593578 0.11168328505516946 0.1790693990706343 -0.0720862833563704 0.15170662000363755
-0.2181600906822051 -0.038647042497804124 -0.02315542605994983 0.13123864621463133 -0.011545445312562371 -0.049510516707603536 0.028766604458388197 -0.08849719021685197
0.08340075841565328 0.01374754158506808 0.07750869618111633 -0.2680644994508715 0.01910955459601859 0.04415719739529203 0.011709841326622627 -0.0663636283744
0.1094865769835006 0.06942655514024958 -0.10972382070864996 -0.07285537052895913 0.020604123147899996 -0.0037223883558751662 0.05839577977201871 -0.09948106191126653
-0.09626449479496231 0.049360318549664495 -0.07307777218539988 0.11217177797593075 -0.09911985292482269 0.04428197517111694 0.0555639278763187 -0.11783128262868846
0.019375308242126025 -0.13207613722640366 0.03955920567190679 -0.030163258466321327 0.0009559324284167787 -0.015695611506632054 -0.06587052193662052 0.2681598937303137
0.06888080810234938 0.006230150287881998 -0.3503912687826426 -0.03673055829234875 -0.5930499579387785 -0.17953923017604057 -0.041991096773940216 0.06865850749429878
-0.06556220357780929 -0.15960017121245834 -0.07868279337373431 -0.06288903465854216 0.2537328577649997 -0.022888424918801074 0.0940893880351965 -0.16829876553921827
-0.28142874331794254 -0.02432936573394729 0.09085330879298274 0.11674617489321279 -0.035084639326914566 -0.13741150407287983 0.16405126416888355 -0.20739431911819617
-0.6120850185726356 -0.24378265669947527 -0.40905315191947056 -0.0803904655755062 0.01957055700705536 -0.21761907351197038 -0.021175094675776607 -0.09217109997679274
-0.05743561929085874 0.17272474655338754 -0.17185225529266374 -0.022607836661967647 -0.03859738833799247 -0.01264447685064262 0.19921548976167425 -0.016324160824965028
0.19724025474995077 -0.11352846539935547 -0.15556754961413455 -0.07297683109115538 0.1021037360440745 -0.017374446585493464 0.07930546019430737 0.059366426213488845
0.16935999185600117 -0.05973168405500047 0.16149159452523992 0.07026539201460778 0.17095566271771548 -0.0031092482720351034 -0.11051200152892254 -0.05670126799486157
0.13230750600795516 0.06137478026632254 0.09395702444325142 0.3244563660088257 0.11824452237500717 -0.024278387103186288 -0.08772796556455906 -0.04486809289130402
-0.1638842471685063 0.11870299242490408 -0.15237174251115246 0.026199880580796687 -0.008944032227381101 0.08866726651115543 0.16454940086544206 -0.2126689311029636
-0.03414826934392507 0.04011177233287936 0.026549484353118807 -0.1522541888158945 0.4484828515631925 -0.049673000223287356 -0.12901674321704795 -0.05673704140481665
0.16062302267603792 -0.1321865270348461 0.0246681932106763 0.007098385481635595 -0.07072125108388252 -0.1804901096840617 -0.22480789506170376 -0.07480197195805384
-0.3226082881870883 -0.21791489387228258 0.07762643084762859 -0.31205023863688536 -0.06672449343106522 -0.28342779395741974 0.014575910683062273 0.023348129260906635
0.0688119821518114 -0.07028607146813673 -0.027852720955416736 0.03188552926952624 0.016959240248783407 -0.015370468294189412 0.09510617295021806 -0.11142349273443417
