Data/Breast Cancer Winsconsin (Diagnostic)/results/models/bcw_7.onnx (onnx, 416707 bytes, 5 tensors)

model.sequential_layers.4.Linear 4.weight f8 [1, 17]
00000000: a0f3 b6e7 354b e6bf 11c3 c30c 8970 e33f
00000010: 7786 2367 cbd1 e1bf 2b57 4acb ac82 e13f
00000020: 5bb5 bba6 db6e e6bf 751c 7a44 3f80 e5bf
00000030: 3909 910e 754d e33f 54a8 8b97 e33d e6bf
00000040: a826 2a06 4551 e33f 92f4 3880 6d89 e4bf
00000050: 9076 6d12 5f9d e6bf f14d 45c1 d0c8 e5bf
00000060: 8ce7 613a 747e e23f de23 7acd 7f05 e5bf
00000070: 9dd9 2ca8 dc2c e33f e625 3955 6228 e43f
00000080: 334e 88a3 f809 9cbf
-0.6966809774090628 0.6074872254667715 -0.5568596853665458 0.5472015352740746 -0.7010324722774998 -0.6719051682893126 0.6032052311423178 -0.6950548133729719
0.6036706085589758 -0.641775846895728 -0.7067103729165911 -0.6807636046236764 0.5779362812311191 -0.6569212926125336 0.5992263111755168 0.6299297012821483
-0.027381787282207703

model.sequential_layers.3.Linear 3.weight f8 [16, 65]
00000000: 9152 ab21 004c c7bf 4737 00ca b47b c3bf
00000010: f319 602d c438 c13f 51f0 5ae3 cc29 d23f
00000020: a4a6 f72c ad08 d7bf bb59 339a 66ca cf3f
00000030: 2984 d848 0d0e d2bf aeb2 c608 2bf3 83bf
00000040: 96af 432a 1b7f c53f e657 70f4 b58d a73f
00000050: e594 d767 86b3 dcbf ca44 0bf6 5dc1 c3bf
00000060: d6e5 f65d 9ef5 cabf 2d9e fdfc c579 c13f
00000070: 26e6 71ab 0168 c03f 50dc 1d77 b466 9dbf
00000080: 6b95 d456 e9db a53f b2a9 3010 6c87 8a3f
00000090: 2153 7476 6cf4 d43f 891f c8a3 59bd d7bf
000000a0: 4f47 396f 74ca b53f 6e14 d426 0fea bb3f
000000b0: 551c 7258 3cf6 b33f 4df7 836d e4b5 d03f
000000c0: 6b1f 6ce6 9255 aa3f fd6e 14fa b5ab cbbf
000000d0: 461f 3eed e3e2 b23f b6fc ac05 cd24 6c3f
000000e0: 5587 8f9a 2dd7 833f aab4 4e56 3398 95bf
000000f0: e58d 1c65 cca3 ac3f edfc d7eb 2452 cd3f
00000100: 4fc0 fdac d6d5 b4bf 85ad 0e3f 43fa a53f
00000110: 1393 a8f9 803f abbf 5652 a3ce 959b be3f
00000120: e119 cd27 a443 8ebf 722c 2ebf 0ad2 b93f
00000130: be47 d4d9 db11 be3f 53c7 19ff 114f c9bf
00000140: 181f 7f71 1bbc bb3f 0242 4555 a44b 92bf
00000150: 504a aaee 89a0 cabf 3cd9 321c 8819 c03f
00000160: 640f ba07 4bb0 d43f c774 cc9d aa7f 943f
00000170: ef31 a424 004c b13f f4a0 1219 defc cbbf
00000180: 5e50 443e 55fb c33f 648f 56f0 76ba bd3f
00000190: e16b c6e3 4c0f dabf f8a4 9eef fa5b bf3f
000001a0: 786f fdde 8daa bb3f 4548 4502 22ab bb3f
000001b0: 2ecd 4f2c 28c9 a73f ff1d 139b 3b39 b43f
000001c0: de76 172a 51ae bbbf d4b4 61f9 024e 9e3f
000001d0: 9454 0d1d 0c5c c6bf c63c b099 ccac bd3f
000001e0: c4a7 59c2 f932 cabf 56f3 441f a77e d43f
000001f0: 8961 5f37 2863 c33f 638a b5f4 88a9 77bf
00000200: 7d84 4055 43db c33f bc9c 0123 89aa 9dbf
00000210: 2979 a249 fb3c be3f ab46 f7f1 982f c5bf
00000220: 14ae 2db2 814f d13f 431e e92f 18ee ce3f
00000230: 470d 304a 7f77 c63f f8e3 a07d 152c a93f
00000240: 0d0c 116f 6728 c3bf 029b 5e5c c505 d5bf
00000250: bfc3 e097 2cf8 97bf f79b 1bdf 3cbd 843f
00000260: 3ff5 bdbf a053 b23f 8f0a 9bbd 8a03 b63f
00000270: 1505 9c87 3546 b83f 5beb 71e8 1581 e2bf
00000280: c7ee 6fb2 1b4c a93f c904 16b1 bba9 d03f
00000290: e16a 3e79 6321 b5bf aa08 731a f67e c2bf
000002a0: 6f90 cf74 efdb b63f d8b4 639c d6e0 d5bf
000002b0: 2526 50fd b570 d13f 123f 344b f66e d4bf
000002c0: 4761 dbe5 f9c3 d03f f982 1674 5ade c3bf
000002d0: 7314 ee7d d844 d23f a87f 2d50 a30a cebf
000002e0: de60 8a69 1f5b c7bf b521 7f4c 85f5 bb3f
000002f0: 7524 83b2 f0ed b0bf 3984 fb6c 17a5 b83f
00000300: 825b 8849 9ffe b1bf 5e85 afc6 aea9 aebf
00000310: defa f2d5 212f d2bf 9923 8c76 fed6 963f
00000320: 01dd 4c73 ab85 e2bf 7cc0 07fc 9942 a73f
00000330: 7fb6 5951 c12b dabf 15a3 20d0 10cb cbbf
00000340: 0406 8b71 b2fe d1bf 9aed ce40 17c7 ccbf
00000350: 8790 e001 2d53 cabf 067c 9288 daea d43f
00000360: ae1f ede5 32b6 c93f b45c b1ff 28e5 9e3f
00000370: 82e6 3f24 e76b cebf 9938 1721 94d2 a6bf
00000380: fc19 1e93 e329 7abf 55d5 9152 a3f1 d7bf
00000390: c09e 6b5d 49c5 d1bf c2d9 93d9 d143 78bf
000003a0: bdfe b9fd 22cb 9d3f 8d5a ac61 16d0 cdbf
000003b0: 6f39 62e8 80b3 d93f 4c9b 17dd 89f9 d8bf
000003c0: 6765 8c01 ca01 cfbf 5b8c 65a3 7755 ab3f
000003d0: 7e97 b859 fa4b d63f b28a b66a 1d8c 9f3f
000003e0: 5b10 b3fd 9c89 b33f e495 1ec4 927b bd3f
000003f0: d62d 0da4 2b92 a83f 4c95 5ad1 bb08 c8bf
00000400: f70c 49ab 5cde d03f c59e 9f16 b6b5 b83f
00000410: fc8f b0a7 eb93 cfbf 9650 de02 3a0e cb3f
00000420: e626 dff3 3438 74bf 8fe5 3030 4ad6 873f
00000430: dd5a f330 ad3d dbbf e91d 1db0 4c1b c73f
00000440: 5d40 9d25 c17e d0bf 6a00 1e0c 5d05 573f
00000450: d5d4 e24c d5dc cb3f d11c 80d0 63de cb3f
00000460: 6345 2a25 b9e1 d1bf 3b49 45ca 4092 d4bf
00000470: 6460 c135 ed11 d5bf 5e2b fcaf 57fe bb3f
00000480: eb65 929e fb0b 32bf e551 35bb 54a5 c73f
00000490: 2f28 ae0a 3459 cbbf d9d6 2c3c e86a b83f
000004a0: 63a8 de24 7f63 c93f 5b15 cc37 864c e1bf
000004b0: bca3 c2ba d2a2 b5bf 87a4 8204 6ae4 b03f
000004c0: ea7c a44f f5f8 a63f 9f8d 4342 e859 c13f
000004d0: f78e 2a21 a017 d13f 9d51 eb52 d5e4 c1bf
000004e0: f3b3 9a59 152e 82bf eccb ede4 2376 b53f
000004f0: 2e4b 75d4 9ba1 b4bf e21b 4b6c ae9c 7ebf
00000500: c2dc b41e e120 90bf 51e1 d646 65b6 c63f
00000510: 2225 2750 802a c83f dab3 b375 9e1f c83f
00000520: 7371 6b28 ed5b c93f 43b5 a6f8 1083 a33f
00000530: 26c5 c93b ca6d d53f 313e 55ed 2cd1 9bbf
00000540: 608e 44b3 5ed6 c93f 1297 07c0 17ce b1bf
00000550: 8e60 da4e 6f93 d4bf b98f 0e55 3817 c63f
00000560: 1eac c9fb 78dd aabf 7698 9c16 6d60 b3bf
00000570: 670a 8c17 8321 b3bf 79ae 9f48 0019 9d3f
00000580: 2760 56eb 3ed5 b33f 2a26 e0af 4d4e c73f
00000590: d455 7381 c761 8e3f 4de1 f636 1710 b33f
000005a0: a83c 4d0c 8e27 d8bf 3741 51c3 e281 bc3f
000005b0: fa47 d957 ba72 93bf ec67 f831 e27e bfbf
000005c0: cea4 533d 1aaa b13f ec80 cba2 7e4e b73f
000005d0: 2a3e 4046 8e76 d6bf 7fc4 50c4 1881 bd3f
000005e0: 8d56 ff59 34d0 d3bf 1bfb 2057 56db ce3f
000005f0: 8304 5f4a 882b d0bf 1040 a854 a00a b2bf
00000600: 2382 ac1c 7dd7 c83f 9812 3bc0 da5f abbf
00000610: 7fb1 8e0b 6a4a ce3f d659 57b6 479c b13f
00000620: 3283 d84d 8fbc a9bf 047a e543 52e8 973f
00000630: 9a70 4b21 a231 d73f ee12 7f51 4d01 cd3f
00000640: bede cce9 9398 c03f 6a5c eed3 0797 cc3f
00000650: 064f e2fc f3d6 cf3f a61c 5dfe cd47 983f
00000660: 6357 3748 4337 d13f 2497 482d 73c2 a13f
00000670: b3b9 6e12 fc4a a53f 6de3 2d11 746d acbf
00000680: 3805 d866 ff9e bd3f 2172 8374 0132 d7bf
00000690: fcc1 76d3 e99d ca3f 5218 2fbb 319c b03f
000006a0: 8eab f431 2a6b e3bf 5ec1 a263 7bee c8bf
000006b0: daad 1140 f281 9dbf 3b65 1d64 a215 e9bf
000006c0: 0e6b e617 f3ee c13f b5c5 3a72 827a e5bf
000006d0: 6f21 fcf5 7b49 d43f be6f dbe3 3d66 d1bf
000006e0: eeab 2202 20aa d33f 5e7c 421e 508b e4bf
000006f0: 99b6 32bb e50a d1bf 3cb1 02c1 b13b b53f
00000700: 0e62 13dc 7b77 cc3f d5fe abc8 b730 c83f
00000710: 2ec9 0978 6036 c9bf ffa7 7566 630b d33f
00000720: efa2 47e8 09fb be3f ec63 7bf4 34e2 d1bf
00000730: 0ae5 dba4 88c3 d2bf fdc7 88a8 4062 ca3f
00000740: 00c9 99f9 7a3b e6bf c9e3 bf73 a819 d8bf
00000750: 4005 9d6b 1a5b be3f cf05 6e56 63c1 c13f
00000760: 0b01 d2ca 8ca6 ddbf 4c20 836b 89a8 b83f
00000770: ff14 1f60 0eed bc3f fd04 1dff 4b2b b83f
00000780: d039 37a3 aa2d e6bf 3e97 db11 d0e2 a93f
00000790: a191 cc4d 4c57 b63f 32c5 d840 beac c1bf
000007a0: 0b19 1828 3d8d c7bf 1d33 70c5 013c c63f
000007b0: 39fa af4a 189c 6fbf 374e b605 41d7 e0bf
000007c0: 50f4 92b4 3cb5 c93f cb88 a5fc 92b7 d6bf
000007d0: 645b 6f34 0d66 cabf f2f8 a64c 5e1d acbf
000007e0: a564 4d73 7cb1 c13f ddfc e6d3 f197 cd3f
000007f0: 4da4 b729 0f8a d63f f4f9 3c5d a1ac 803f
-0.18200685161595634 -0.15221271384546695 0.13454487052531725 0.28380129053744435 -0.3599045695433267 0.24836428193402846 -0.2821076594719352 -0.009741150098159092
0.16794147075358684 0.04600304230568479 -0.44845733776885616 -0.15433859361522756 -0.21062068546397822 0.13652872899113913 0.12817402716955079 -0.028712100763609805
0.04269341645184962 0.01295360969932777 0.32741843765079365 -0.3709320163184136 0.08512046542571493 0.10904020975074655 0.07797600898094122 0.26110182471153537
0.0514341264989174 -0.21617769919327393 0.07377457181985134 0.0034355167712472835 0.009687763480488757 -0.021088411467350333 0.055937182753293326 0.2290693427639562
-0.08138791774195052 0.042924977729252446 -0.05321887061680832 0.11956154150841178 -0.014777452911983015 0.10086123626222035 0.11746000354858574 -0.19772553402031665
0.10833903809463796 -0.017866676048756254 -0.20802425530981106 0.12577916504751296 0.3232600760895734 0.02001825893522804 0.0675659264999877 -0.2186544058251979
0.15610757389424895 0.11612647407178894 -0.407183859287839 0.12249725675669143 0.1080712003144394 0.10808003001628304 0.04645658055224043 0.07899830375674098
-0.10812861707332952 0.02959446570496456 -0.17468406122739977 0.11591795684965964 -0.20468065252071999 0.32023027471205034 0.15146353439082486 -0.00577691553493995
0.15512887633034103 -0.02897085453187452 0.1181180052539942 -0.16551505865804947 0.27047769928205523 0.24164106692681928 0.17552176592298904 0.0491644588332249
-0.14967053340123507 -0.3284772302671827 -0.023407646913429888 0.010126567419730377 0.07158856087877029 0.08599154595416734 0.09482130585458422 -0.5782575168553693
0.04940878441990786 0.26035969060474123 -0.08254071912817153 -0.1444995526454183 0.08929344751192202 -0.3418480422249792 0.27250432717900913 -0.31927258819722326
0.26196143576591563 -0.15522318523746728 0.2854520063195373 -0.23469964423111134 -0.18246834424349506 0.10921509854882212 -0.06613067968568649 0.09626909647660477
-0.07029147668104765 -0.059888326409928125 -0.28412671941252465 0.022304512010154907 -0.578817105479999 0.04543000413457407 -0.4089206022680187 -0.217134572624922
-0.28117047393979555 -0.22482577003925713 -0.20566332427654663 0.3268343290055217 0.20087276675098792 0.03017105160355689 -0.23766793508530176 -0.044575337447541226
-0.006387604678713018 -0.37412341178363323 -0.27766641734204356 -0.005924052931041536 0.02909521745323106 -0.23291282433702457 0.4015810269710504 -0.3902306231597563
-0.24224209857565457 0.05338643903339665 0.34838732492277547 0.030807933462379374 0.07631856149515796 0.11516682899544822 0.04799019219953109 -0.1877665302501249
0.2635718987186943 0.0965226941331095 -0.24670167625401962 0.21137166156825477 -0.00493641552561439 0.011639194102928822 -0.42563943653423825 0.18052061652473064
-0.2577364795042792 0.0014050873437270414 0.21767679456903602 0.21772430115399868 -0.2794020522061002 -0.3214265799807838 -0.32921915292309323 0.10934970900067983
-0.0002753724389293599 0.18473300114659633 -0.2136597683095842 0.09538127392883257 0.1983488969829664 -0.5405913438595847 -0.08451573428705123 0.0659853230487376
0.04486815068434587 0.1355562518648243 0.267066986454878 -0.13979593800344228 -0.008876959607130508 0.08383392657360361 -0.08059095322577711 -0.0074736417197476
-0.015750424861121777 0.17744127234414944 0.18879703439441992 0.18846493479887166 0.198117871032888 0.03810933146756181 0.3348260482662958 -0.02716512869420579
0.20185455087004112 -0.06955097616409159 -0.3214987058686426 0.17258361962478633 -0.05247095178204851 -0.0756900959209775 -0.0747301037299991 0.028415684158899588
0.07747262235204798 0.1820771321074955 0.014834936750427831 0.07446427432922072 -0.37741423798883966 0.11135689991465801 -0.01899233971773382 -0.12302983970621967
0.06900180814013199 0.09104148363576642 -0.3509860693020267 0.11525111000880094 -0.309582794082737 0.24106864218080024 -0.25265700590905044 -0.07047464434458584
0.19407619381037575 -0.05346568676535418 0.23664594234777422 0.0687908954781514 -0.0502667219664147 0.02334717311293312 0.362404377474158 0.22660223464313084
0.12965630451230042 0.2233590874500096 0.24874734733440834 0.023711413049821183 0.26899797489510585 0.034686660077836856 0.04158771252638207 -0.055522563073231314
0.11570736180148777 -0.36242710474269485 0.20794413400064105 0.06488333530350701 -0.6068316436479664 -0.19477789273288243 -0.0288160182575846 -0.7838909106605237
0.14010466258044868 -0.6712047797247381 0.31698512098275605 -0.27186534167935494 0.30725860794581095 -0.6420059767732587 -0.2662901237589295 0.08294211351557562
0.22239635702023047 0.18898675249510313 -0.19697194920770172 0.29757008558101455 0.12101804657835279 -0.27943157077021286 -0.29318443393238225 0.20612343053068108
-0.6947607874883772 -0.3765660410277261 0.11857762458113985 0.13871423454479134 -0.46329040342972466 0.09632166743097165 0.11299218985285008 0.09441065767625285
-0.6930745303923747 0.05055856912603794 0.08726956271545429 -0.1380842033991399 -0.18399776895257278 0.17370626583615315 -0.003858611531085712 -0.5262761222424562
0.20084341828433816 -0.3549544780017981 -0.2062393671064583 -0.05491156278320543 0.13822894697185464 0.23119948241035262 0.35217646669349706 0.008141766221908299

model.sequential_layers.2.Linear 2.weight f8 [64, 129]
00000000: 26c0 f7ca 4011 b9bf 9029 1cdf b6ac a9bf
00000010: f72d a7a8 d643 833f 654d 49a6 343b c13f
00000020: 5c07 4395 58bd a83f 2bb4 8a19 b81f d3bf
00000030: 6b04 c007 0137 8c3f 6035 24dd 3679 b63f
00000040: be28 a096 6488 b93f ae54 fd48 84ab bcbf
00000050: 8251 ac8e a6be a73f c738 52ba 0fd7 9abf
00000060: f4af fdc1 0ea5 b23f 1e78 2412 21eb 8f3f
00000070: 0cd2 6b2a fccb bdbf ed45 68fe 4d49 b8bf
00000080: be3a c268 558a a63f a995 22a9 2b1c c8bf
00000090: b5eb d91a affb c53f 4bbb 286e 06f7 a53f
000000a0: bfb3 b856 8747 983f b290 d8cd c14c bd3f
000000b0: c741 5ae9 798b a0bf 549f 5fdc f530 d0bf
000000c0: deeb f4a3 5e55 b9bf 44c7 a5ac b5f4 aebf
000000d0: 4b85 41fe 0541 bd3f d9f9 f11c 7129 9f3f
000000e0: f14a 0430 2d81 c13f 47b6 44cb 6bfa 65bf
000000f0: cf02 7e1a c48c 9d3f 6473 61e2 62b9 a03f
00000100: fcca 7fc7 4c9d b53f b789 9573 312e adbf
00000110: e5b1 5177 2f99 b23f 86fc 2900 e2c4 bdbf
00000120: 6b3d 054d 810d c1bf 64f1 e4b6 c18d a63f
00000130: 5871 6e20 e886 b03f fd56 cf83 1b3c ccbf
00000140: a87e c819 7f2a cb3f c111 f834 39d1 c6bf
00000150: 5d12 bf8d b365 93bf 521c 9ffe 1a8d 813f
00000160: ff11 397c 7885 cdbf 258f 63ee 69a5 d03f
00000170: 711b 15f2 c6ef b8bf c685 fec0 9b57 b7bf
00000180: 723a d7c1 19e7 8e3f e555 ed04 fabb d13f
00000190: 57e3 385e 2d08 b53f effe 86e0 f815 c0bf
000001a0: ab68 367a 5cd5 d03f 6f25 717b bc70 ba3f
000001b0: 7dec a104 07b5 b93f 406d 05cc ce0b bdbf
000001c0: 4cb1 851f 1121 8bbf a290 7e20 e596 c73f
000001d0: eaca 3a2b ef58 c53f 5a9d 76e8 8fa8 9b3f
000001e0: 90ec f55d bb3d cd3f fd7c 350f 69a8 cdbf
000001f0: 2c9b fb38 d6fa c83f e1b5 8a92 632e a8bf
00000200: afaf e33a 801d cdbf cfd9 2c4c 8d0d d2bf
00000210: 65b8 cba1 6427 c3bf 4172 0178 2605 c3bf
00000220: a224 fedc fe4e b93f 2561 e6a0 8035 c33f
00000230: be0f 1593 8db0 b7bf c14c e25c e74b b9bf
00000240: b4c2 65b1 201b a2bf 197f b358 b2c9 d1bf
00000250: 6e21 85c6 a65f c9bf c84d ea25 df5d c9bf
00000260: f902 829e a107 96bf a56b 8d87 1883 a53f
00000270: c64a e55c 4fe6 bdbf ee80 32be ea66 d63f
00000280: bbc8 d606 ceb3 b6bf 9726 30c4 7fca c03f
00000290: 907b c486 e1be 92bf 52b1 3764 5b8b ae3f
000002a0: aece 640c 766e 8dbf b8a3 55e2 7e5e b93f
000002b0: 9a1d 1f9f fbe3 b73f 851f 2462 0389 b13f
000002c0: d9f2 774c edd0 bf3f 60dd 6ea3 a2f1 c5bf
000002d0: b93f 9863 d1e3 af3f cc70 1c25 a72f c93f
000002e0: fbc0 169f c9a8 a5bf 773d f3b6 2739 b5bf
000002f0: 78e5 0bd8 28d5 b93f e92b 99d9 e036 c1bf
00000300: 9ea8 269d 817b a73f 499f 8825 fbc4 a23f
00000310: 75f9 952e 050a d03f ae01 99e0 074c c1bf
00000320: d7b4 4983 deda c13f 604d 915e b626 c2bf
00000330: 2691 735e 18c6 c8bf 21d6 4f07 3420 c33f
00000340: 091b 3e87 bf9c b63f 29e7 103e ef0a acbf
00000350: 4c7f df28 6102 c1bf b5eb 57ce 860b d5bf
00000360: 835c 1df0 48fd bfbf 4962 0392 cd8b 843f
00000370: 5f75 459f c37e b3bf 6565 c016 855f c33f
00000380: f493 66e3 92e2 d2bf e1f1 acd9 bb5e a13f
00000390: 31e6 fb47 a742 bf3f 9299 8b35 50ff c7bf
000003a0: 091d 2cf7 9b75 b93f bf1a 043a 0646 ab3f
000003b0: 72d5 bb11 cd68 bcbf 5b13 4b4b af34 c43f
000003c0: fd2d b40a a87c c63f 88f9 a03f eaff c63f
000003d0: f32a 11bf be2b bbbf 4759 90c8 7727 a73f
000003e0: 11d4 1a1f 02d8 9cbf fdd1 8003 0f8b acbf
000003f0: 4ed0 e946 3767 bb3f 010f c600 741b 7c3f
00000400: cd9d 8507 6e29 b6bf 7f5e a5e2 5357 b7bf
00000410: ff60 12ad 4092 bf3f 6948 ac5c 94ff c3bf
00000420: 058e 30e2 9eb5 a4bf 619f c277 8266 98bf
00000430: 8cd0 2528 aa86 bf3f f321 5aba d677 c7bf
00000440: c924 77ed 3457 c4bf d963 5cf7 223d b73f
00000450: ff30 447b df29 933f 46d0 6609 8975 bd3f
00000460: 3289 9f87 16c3 b9bf eb7e 46b1 31e9 b7bf
00000470: 0cca a787 f139 ccbf 89a2 f8e0 b77b cdbf
00000480: 392a 2b70 e154 a0bf 73a9 4acd 732e bfbf
00000490: 5f7a c470 7066 b9bf 3e28 cfb5 2710 bc3f
000004a0: 766d 0a86 1c7a c8bf 2b17 8904 ec8c 6a3f
000004b0: 7bcf 50df e645 c23f 8455 35c9 835e b4bf
000004c0: 3a27 9e5d 1b8d c23f 868a 67b3 a923 a5bf
000004d0: 65e2 5e5a 5c45 cbbf 7b32 2d92 c166 c2bf
000004e0: 5d26 bfec ee35 bf3f 56a2 4810 4b5f 803f
000004f0: 3371 0efb 3238 b63f e5e7 519f 39ab b1bf
00000500: 6aea 9c7c 9bcc d2bf 5f48 f3ba b73d c7bf
00000510: d851 1c29 bd25 a7bf 9761 ba59 f136 b6bf
00000520: 05e4 5f8b f81c cbbf 8f37 9a8f 8ad2 c4bf
00000530: a450 0a81 6b76 b1bf 9727 6d17 a3b2 bbbf
00000540: e2d0 1d1c 4283 c6bf d89f 469d 5caf b93f
00000550: 89e4 21d2 7fe3 c73f ac40 665e 33be b03f
00000560: fd24 d193 5907 50bf 9ba1 7ed1 90a7 8bbf
00000570: 7592 2245 68f5 a8bf f36b e626 3fa4 c93f
00000580: 5491 de61 5b53 b4bf 7961 4015 41ff b5bf
00000590: d8a4 b921 e811 b0bf 0f13 555b 276f b2bf
000005a0: e0fd da84 2c71 953f e214 b4c5 7101 b53f
000005b0: a2bf 482c 9546 bebf c2ba 5c94 1a5d 97bf
000005c0: 1102 917a 1fba c03f d69c b4ec 6b92 b23f
000005d0: b184 34c4 9e45 91bf 9d05 cdab af15 cfbf
000005e0: f281 bccf 959e b83f 87c3 2798 8f32 d0bf
000005f0: 4b82 6814 4912 b3bf 8f09 bba2 010f b6bf
00000600: 0d20 662f 4138 c6bf fec6 6380 1f22 7f3f
00000610: 0ad9 df28 13de b83f 4f32 31c9 fbe0 c2bf
00000620: 7ba5 0157 f612 c23f 364a ea0f bcc2 bbbf
00000630: 5acb bfa5 e583 b3bf a85a b2dd 5351 c3bf
00000640: dba4 b1a6 bd62 b23f 090f cf5b 8ced a43f
00000650: a35a 800c 6d10 cbbf 2ccd 141c e6b7 973f
00000660: a7cc 57bd 89f5 c93f 99cf e062 ce68 843f
00000670: ed1e 6ce1 d916 60bf 11b6 d125 0839 a33f
00000680: b596 8c6b 062b 913f 3fbf acb4 73ce a93f
00000690: 7df1 a32e 361b c73f 9fab 2478 a403 c6bf
000006a0: 16c5 4a17 0cfb b5bf f49b aaf6 3669 c53f
000006b0: 59c3 ac66 14cb 623f 912e ea3b 4f02 c8bf
000006c0: de4d c96b dde8 cabf 38fb 31a2 4de3 a3bf
000006d0: 67b5 62ac 6299 d03f b383 d7fa f9e2 b6bf
000006e0: e4de e0ec 64f1 b43f 1575 a1ad 08b6 b6bf
000006f0: dcc0 20d4 5e0a 5cbf 6c9f 416f 80fc bc3f
00000700: 0e92 b1b9 e9fe c6bf be1e c689 0456 b33f
00000710: 8d11 5cfa 42c4 a13f 21b1 b2b4 9f4f ac3f
00000720: a7a2 314a 39e4 a63f 7dcb f8e0 c5ad b7bf
00000730: eee8 3c6d 1ab6 d3bf b115 c748 83f2 c2bf
00000740: 5edf 24e6 409e c63f 6c93 8bbb 4b32 92bf
00000750: 73e3 17c2 286d b63f a401 d49b a204 d33f
00000760: ae13 879c 4698 ce3f 598b 160a 0f04 b43f
00000770: a329 87fb 98d3 893f be03 28ff 9238 c0bf
00000780: a4d7 a1dc 78da bfbf 59e4 afc0 c449 a83f
00000790: 59fe 0a30 8f83 c23f 4d2d df80 ea94 babf
000007a0: 1b6f 5b44 7e60 c53f 6aaa 907e 0ce2 a23f
000007b0: 9c20 c100 e0d2 b93f 5d6b 54d0 44ff d2bf
000007c0: 1520 1db3 a9c6 b43f 61b7 0f38 55b4 9cbf
000007d0: 6265 1ecd bc24 aa3f 0a21 a27c 22af b2bf
000007e0: 76a0 09f1 6631 c6bf f188 027a 9f28 b3bf
000007f0: 996a 1927 de84 983f 3e05 bb14 8512 b63f
-0.09791951136844598 -0.050145830855473084 0.00940673544109581 0.13461931342554148 0.048319595547140465 -0.29881098264997047 0.013776786850941932 0.08778708361588405
0.09973744084723798 -0.1119921377370072 0.04637642375579089 -0.026211019274847282 0.07283107982738085 0.015585192075885653 -0.1163938144271201 -0.09486854039302957
0.04402415183823426 -0.18835969694661728 0.17174328623863536 0.04290027708736107 0.023710360210475786 0.11445246959243852 -0.03231411908666675 -0.2529883052907185
-0.09895888808107098 -0.06046073658479981 0.11427342851086057 0.030431525603939 0.13675465435570502 -0.0026828866340540577 0.028857292286832256 0.032664384970053445
0.08443145628534049 -0.05699305091799849 0.07264992392601462 -0.11628544334415566 -0.13322464237942752 0.04405026776882684 0.06455851356299058 -0.2205843347170954
0.21223438986725296 -0.17825999342325186 -0.018942647482406694 0.008569918532783802 -0.23063570085118099 0.26009605674902253 -0.09740870866981567 -0.09118054830334818
0.015089226940202514 0.2770981834522373 0.08215602445933477 -0.12567053759811794 0.2630225366098197 0.10328271878929284 0.10041850913141732 -0.11346142273889814
-0.01324666383217079 0.18429245077743867 0.16677655802558117 0.027010201037822902 0.228446408156604 -0.23170197718261668 0.19515493185391486 -0.047228919638069085
-0.22746279597720107 -0.2820771449945853 -0.14963968181786239 -0.14859467372561322 0.09886162658053135 0.15007026535455129 -0.09253773537517326 -0.09881444947886832
-0.035363217978447464 -0.277935587522721 -0.19823155110703844 -0.19817723609285864 -0.021513486194183227 0.04201580671971009 -0.11679550188027141 0.3500315530200301
-0.0886811033913401 0.13117978171822095 -0.018306278086238914 0.0596569595180393 -0.014370844128826245 0.09909813905473086 0.09332249293139797 0.0684969057657537
0.12428172223003332 -0.17143662433748386 0.06228498783832443 0.19676675140443078 -0.04230337206843334 -0.08290336815411146 0.10090880655834222 -0.1344872534267261
0.04586415332171721 0.036659096080539806 0.2506115870418378 -0.13513277498897253 0.13949185762923008 -0.1418064080959125 -0.19354538547407535 0.1494202647879073
0.08832928706952371 -0.05477092392579969 -0.13288511749032705 -0.32882852698065373 -0.12495857107329482 0.010032278078527261 -0.07615301741085066 0.1513525353519
-0.29507896620844964 0.03392588646099504 0.12211080081387916 -0.187479044099018 0.09945082458954259 0.05326861818507699 -0.11097413714363372 0.15785781074932967
0.17567921183250226 0.17968490702510231 -0.10613624729846176 0.04522299121178946 -0.028167756222234944 -0.055748433282506206 0.10704370003969751 0.006862118851475919
-0.08656966861382571 -0.09117626460408167 0.12332538819680748 -0.15623716855094763 -0.04044815550903639 -0.02382854324301265 0.12314856987160477 -0.18334468936178858
-0.15891133875837785 0.09077662028393209 0.018714420221884073 0.11507469634563092 -0.10063305674660653 -0.09340200975429595 -0.22051829456138738 -0.2303380821697554
-0.031897587721307415 -0.12180255662921073 -0.09921934846031764 0.10962150753690111 -0.19122654480893758 0.003241024944403833 0.14275823501668214 -0.07956718122780698
0.14493124076062164 -0.04128771128650492 -0.21305422222737316 -0.14376086843039446 0.12191670684765073 0.007994257387580788 0.08679503087336542 -0.06901893748900496
-0.2937382428096159 -0.18157097462114088 -0.04520980002249403 -0.08677586022020588 -0.2118216209926517 -0.16267520915829123 -0.06821319485090044 -0.10819453546460377
-0.1758806836402363 0.1003320583319004 0.18663022766466877 0.06540223173783727 -0.0009783148555178583 -0.013503199952382519 -0.048747309150063346 0.2003249111120052
-0.07939692630185863 -0.08592612046084537 -0.0627732355439038 -0.07200857143204707 0.020939536675312342 0.08205329014534216 -0.11826450663715929 -0.022816100411712233
0.13068002209367127 0.07254671601241411 -0.016867142415439577 -0.24284931076730923 0.09616981813133643 -0.25308599337500265 -0.07449776409385682 -0.08616647932925602
-0.17359175505066596 0.007600901654073898 0.09713859317693987 -0.14749095271908394 0.1412036824070063 -0.10844016445688784 -0.0762313394223332 -0.15091942143472648
0.07181916541744064 0.04087484951699422 -0.21143878088397114 0.02316245600122817 0.20280572648298298 0.009965526955148895 -0.001964021251641293 0.03754449330959287
0.016765690149574925 0.05040322857382628 0.1805179336296411 -0.17198615900391886 -0.0858619267335324 0.16727339786777373 0.0022941015680761176 -0.18757048059011486
-0.21023147356991861 -0.03884356121942861 0.2593619044735846 -0.08940088628834424 0.08180838378109062 -0.08871511687307916 -0.0017114568768299898 0.11322787014216623
-0.1796543270785524 0.07553127635594145 0.03470048242710098 0.055294981773245995 0.04470995932280646 -0.09249531500317505 -0.30798969905630613 -0.14802590421292686
0.17670451390744807 -0.017769988366939257 0.08760313738447482 0.29715790956108834 0.23902208941413278 0.07818693157473201 0.012610621620201828 -0.12672650774768884
-0.12442736994293441 0.04743780948769744 0.1446398720345197 -0.10383477827342809 0.16700723970176842 0.03688086552604804 0.10087394731920302 -0.29683037132934037
0.08115635512251658 -0.028031665369716467 0.051061534918697374 -0.0729848436623152 -0.17338263291754047 -0.07483860710866332 0.02394435037272533 0.08622009044758713

model.sequential_layers.1.Linear 1.weight f8 [128, 257]
00000000: b242 d770 b234 b4bf 906c a2f5 c415 b33f
00000010: c1e6 f8c1 aae8 8c3f ec40 fd11 32b0 b0bf
00000020: b96c 6609 a62f a03f 27fb a4e6 a234 c3bf
00000030: acb1 18ee b3a4 bebf f538 fa1e acba b0bf
00000040: fa19 675a e8d5 bcbf 1c95 13bb b2f7 98bf
00000050: d091 7cf9 49a7 c33f 956b d67c 5fb2 acbf
00000060: 128a dd36 6252 a43f 68b3 a6d7 5206 893f
00000070: 63bc ea06 ae4c 353f 3c0e 6231 2c68 ad3f
00000080: 0c53 f708 373f c1bf 8cdf d0c7 d639 af3f
00000090: 10c7 89e3 b061 adbf 8413 7d69 7f75 b8bf
000000a0: a423 0790 999c d1bf 92f7 9311 d88d a5bf
000000b0: 95b4 c4c3 f19d bebf 6056 a94f 51c3 ba3f
000000c0: 6c33 bae2 787a b7bf 288f 2592 6846 bd3f
000000d0: 0fc5 f6b1 00a5 a9bf bd60 c9da a2fc b0bf
000000e0: a372 a266 18d4 b33f 8225 467f e3d1 b9bf
000000f0: ea32 041c 9cf6 aa3f 6bf8 ad46 431c c0bf
00000100: 7d48 dbb5 41a3 b33f a1b7 155c a2f4 a33f
00000110: 187e bf53 d6a2 ad3f f96d 2927 96f2 3f3f
00000120: 9e79 46b7 62e9 b6bf d841 7f1f 6b97 c0bf
00000130: 327a 90c9 86cc b5bf e5c1 70f4 4eaf b1bf
00000140: 5ef7 a462 90f8 cebf 287a 01db 62e4 c0bf
00000150: 52ca adc5 d7d4 773f 5a12 784f 4cac ad3f
00000160: cf88 6317 eb2c 9f3f e4fa 5c0a cc08 b03f
00000170: 8552 7b48 0048 b83f 7a9e e080 0271 9bbf
00000180: 3a2c 35a0 bc3d b9bf 0fe4 1674 766a b7bf
00000190: 62df 54a2 afdf b53f 10fa fe08 368a 9a3f
000001a0: 424b 02cb d336 883f 6c44 5e22 3a50 b43f
000001b0: b8e9 ca33 1a94 c1bf 4b46 2a4c 1cd2 a4bf
000001c0: f4ea 8d65 64c1 b5bf 7392 ecd0 397c b63f
000001d0: 3930 e9e5 4280 c2bf 687d 6511 19cf c4bf
000001e0: 7705 0019 6674 bfbf e36b 9212 3eaa a13f
000001f0: ca9e 1e28 08ae c4bf 8880 a6ee 9f83 7e3f
00000200: 8dae 033a 072d b7bf 74f5 a174 2876 a63f
00000210: 9bda f9d0 04d4 c7bf 8178 0730 5dec c9bf
00000220: 1d8b 67d6 12b0 51bf 3ea5 588b 9cd1 653f
00000230: dd6a 6a90 fbf5 bbbf 3932 1aef 283b 9f3f
00000240: af78 332d 7ae8 663f c6d4 9293 1cdc b2bf
00000250: afc8 463c f9a8 9e3f 387e 4de3 5a0f 2ebf
00000260: 692e 9e73 f611 abbf ebba 4219 693e a9bf
00000270: a062 a71c d108 a6bf 8fd9 54f3 10df c1bf
00000280: 58f7 d0fa 4cb8 9a3f 3e18 c83a 3c81 913f
00000290: e5af 15db 3a57 a23f ebad 990b 4e54 b8bf
000002a0: f988 a651 ca7c 6bbf 131c 472d 5910 c03f
000002b0: 0d09 47e6 e785 aebf 3408 f685 5091 b33f
000002c0: 13ff b080 ef47 b0bf 6559 dd36 a7d5 95bf
000002d0: 9518 a065 7e71 c1bf e488 b9b1 a64b a43f
000002e0: b3cc aa86 9c43 c3bf 06c2 eb2d c879 b13f
000002f0: eb09 1cae a633 b9bf 0df1 c2b5 cd04 9c3f
00000300: 107a 7eac 9883 ab3f 92cd c6a9 4f60 acbf
00000310: 45be 2b77 6d2b bb3f 11c4 30a2 0566 b93f
00000320: 3305 7332 1d53 89bf de07 ad8e 18ca a53f
00000330: f949 75d9 2985 babf c6bf 9084 0a1f bcbf
00000340: da93 80bc e2f9 973f 26a4 4b35 2ac3 c6bf
00000350: 41cb 6ad5 7a9b c8bf 5850 2396 891a b73f
00000360: 0e74 bd71 9e29 b4bf 00ce 0ea9 d047 88bf
00000370: a306 4677 6785 b23f b07a b15f 14a9 94bf
00000380: 08a2 d714 9703 6c3f 30ba 1649 807a 8f3f
00000390: 2401 d9e1 4692 8cbf d753 5c45 48b2 733f
000003a0: 8e74 f1bf e804 b5bf 4d36 93f9 d141 a5bf
000003b0: 8ee7 4822 30e3 9b3f a74b b4f9 2cc3 82bf
000003c0: 3d51 a022 9120 adbf 9102 c318 4d85 d3bf
000003d0: a17d 5072 b865 c23f d690 b846 f07e ab3f
000003e0: c240 4364 0b18 aebf db34 8977 7b7c be3f
000003f0: 668d 7b68 9f8d a43f 104a eaae 04ea c33f
00000400: 6b8a 0872 56e5 b1bf b4b5 1f5d 85c8 bcbf
00000410: 00fe f659 e69b b3bf e32a 6d4f 94a6 c8bf
00000420: d8dd 81cd 0741 bebf 5afd a522 3af1 c1bf
00000430: 69cb e39a 33dd 7fbf a92f 3252 503e c4bf
00000440: 3149 5b21 6fba c5bf 168f 2eae 688b 76bf
00000450: 8051 6a7b e83c 933f 7268 13c3 e32d b6bf
00000460: 7755 5ca5 2347 aa3f dfb7 76fb a896 bdbf
00000470: 98da caee fe11 a43f 5dc9 d739 b474 b23f
00000480: a206 2775 2768 aabf e16d d7ab e843 ab3f
00000490: 5d39 4a7d 092a b4bf 9e7d 7bb7 a7d4 bdbf
000004a0: 3bd9 27be 13c9 ae3f 6c5e 9c45 ebf8 b2bf
000004b0: 8956 516a 9b1d 923f 6a54 e05d d855 90bf
000004c0: b275 d5a6 decc 94bf 8005 8b4f 72f2 a2bf
000004d0: 22cd be33 760d a6bf a7c6 4be3 e277 bfbf
000004e0: 69e5 64c8 f109 9b3f e0ec 47ef e3d5 b73f
000004f0: 398f f052 a99a c03f af0b b92f d7e1 aabf
00000500: 17fa 5256 4c5e a8bf 702b 0512 9087 4fbf
00000510: 4912 8cfc c088 a1bf 703c bebb 89e1 7b3f
00000520: 769c 8633 add5 cebf 08f7 df1e a617 b2bf
00000530: 19f6 6dd3 f9ad a7bf 0c1c c852 c967 59bf
00000540: 92bf cb5a 5095 a5bf 112a 8054 6bf8 963f
00000550: 4ae5 dba8 a692 b7bf 6705 8d31 5cd0 bb3f
00000560: 95be 4884 9e01 98bf 9673 3f83 b698 b1bf
00000570: bde4 a5b1 b3eb b0bf 4c3d b8dc eeda 96bf
00000580: e132 92b4 2cb5 bdbf 9656 df9d 86fc 773f
00000590: f8bf 8258 e00d c3bf 3f67 71a7 0eca 613f
000005a0: 3590 1cc9 ca43 b5bf a7ed cfab 466a 803f
000005b0: 9583 9d3e 29a2 adbf 1606 7d71 77bc bb3f
000005c0: 913b e69e 3c2a 6ebf cb0d 9a67 b151 b83f
000005d0: 2390 f711 b596 bc3f 7557 641f f30e b0bf
000005e0: 73b1 1bee 39ee bc3f e138 a298 ce00 adbf
000005f0: 769a 474d 7f7f c3bf 8fc9 8aa9 e573 b4bf
00000600: a16c 4dd4 b13b a5bf f37f 839b 39b1 9bbf
00000610: 7a20 73e8 6259 933f 8d16 5f09 6885 ab3f
00000620: 6681 8c4e 0695 983f 680a 0031 147c abbf
00000630: 44f8 2dad 3d0b bebf 3206 689f 9389 93bf
00000640: c656 4aec d1ef 743f ff2e 96d3 46e3 b43f
00000650: f28f afa9 0196 983f 1dfc 11c0 0b4e c2bf
00000660: 7956 eb31 a018 b43f 2ee8 d459 1bba ba3f
00000670: c7b0 4a63 1daa 70bf bc74 10f1 8948 a9bf
00000680: 1552 b553 72cb 8fbf 7c14 5f78 12a3 9bbf
00000690: 3445 8706 974d b2bf cae5 0a7d 6e81 a43f
000006a0: 3d1d 1a62 6459 903f 455d 428c bef1 a7bf
000006b0: eac0 f411 9a75 b53f dc10 d997 65e1 c2bf
000006c0: bd25 8d03 369c bcbf e121 79eb 112e cbbf
000006d0: b459 07bf d799 a8bf c776 61e5 1bd2 b9bf
000006e0: 4690 8b7b 1239 93bf b030 6357 dc1f c3bf
000006f0: 7c4d 8d9a f641 cabf 895e 237a 4bd8 c4bf
00000700: f540 c80e 38b3 c6bf 3079 6b68 d242 c0bf
00000710: aea1 8035 dd2a c0bf 2e87 6b9e 9780 b03f
00000720: b9b2 019d b028 aabf 0e65 1645 2448 a0bf
00000730: 435f a013 46a7 b3bf 56c0 53fa 8c1d b4bf
00000740: 856d 1e13 2af6 a7bf b05b db83 d200 bcbf
00000750: b17e 3f6f e991 a23f 9c3a 73ca 2677 a8bf
00000760: c524 8da7 b881 a7bf 22d8 6fa1 bb77 b9bf
00000770: f6bf 288d 9b12 993f b716 85ed b1a0 babf
00000780: bd1d 6024 0fdf b7bf a441 f684 a699 b2bf
00000790: 1490 322a 1140 85bf ea6e 9e8b 8906 96bf
000007a0: 841c c1c8 c717 c5bf a62d 7b2d 2faf c3bf
000007b0: e438 70ec 199e b4bf ef5d b6d3 6981 863f
000007c0: b9b1 6844 bfa5 cbbf d16c a2bc 870b b1bf
000007d0: 4d7f 44b4 6fbd a53f 7b0d db9a ab07 bbbf
000007e0: a199 d37c b33b 8fbf 61cd 46bc e13d b8bf
000007f0: 0c90 3988 4c8e c3bf b174 4484 d91f c1bf
-0.07892909293083042 0.07455092427192 0.014115652126850066 -0.06518853129569252 0.031613529822800364 -0.15004383336960211 -0.11970066607381707 -0.0653483939770217
-0.11263897139642856 -0.024382393520587006 0.1535427540012635 -0.056048377980196275 0.0396910373663283 0.012219092565681058 0.00032500504213834306 0.057435399082376354
-0.13474166810797106 0.06098815144690581 -0.05738594796720353 -0.09554287267117273 -0.2751830965540256 -0.0420978089768901 -0.1195975401830814 0.10454281039104663
-0.09171252761207221 0.11435559814486551 -0.05008699581538611 -0.06635492173643605 0.07745506768919568 -0.10085889680171614 0.05266273347851842 -0.1258625121226403
0.07670984926088127 0.0389757859619373 0.05788297436060591 0.0004874817451871734 -0.08949868177885498 -0.12962092435783634 -0.08515207692151064 -0.06908124416145929
-0.24196057144757338 -0.13196979230538486 0.00581821714409843 0.05795515508728917 0.03044478731397576 0.06263423207290547 0.09484864968846736 -0.02679828559499107
-0.0985982791072936 -0.09146824201788227 0.08544442856952864 0.02591785840899702 0.011823324807016204 0.07934916819637444 -0.1373322251218505 -0.04066551618337807
-0.08498218039850852 0.08783303595243712 -0.14453922487371232 -0.16257012700496465 -0.1228698550258026 0.03450197197636109 -0.16156103095021584 0.007449745879427046
-0.09053082624785187 0.043870224225410676 -0.1861578007116876 -0.20252575726675917 -0.0010795768699771232 0.0026634271150852975 -0.1092221477105499 0.03049911460270691
0.0027964006672923296 -0.07367113688345048 0.029941458038316323 -0.0002293394515175838 -0.052871419538033156 -0.04930427964551661 -0.04303601717737604 -0.13961994058054158
0.02609367638455437 0.017094555938477855 0.03582176136373486 -0.09503639014445013 -0.0033554030935231097 0.12549891196087568 -0.05961537061695497 0.07643607397588498
-0.06359764949683848 -0.021322834705040167 -0.1362760540216114 0.0396396724652435 -0.1505008370928401 0.06826449509731711 -0.0984443831512533 0.027362074107018453
0.05373837571754703 -0.05542229602306316 0.10613140258259886 0.09921298227051546 -0.012365558721628566 0.04255749456071077 -0.10359441336667165 -0.10984864937267877
0.023414175753845835 -0.1778309593421749 -0.19224486752281147 0.09024867930867353 -0.07876005436760655 -0.011855726393924293 0.07234808599425917 -0.020176237431196398
0.003419680672539952 0.015370371084682949 -0.013950876014064813 0.004808695133552163 -0.08210615812409314 -0.04151779338426973 0.027233841030671217 -0.009161330576295713
-0.05688909099277104 -0.30501105707302495 0.1437292631317009 0.05370283950131387 -0.05877719496641155 0.11908694904669252 0.04014299536154446 0.15557917156964196
-0.06990566524522428 -0.11243470691234486 -0.07659759231955121 -0.1925835979294198 -0.11817978636997084 -0.14017416660133614 -0.00777931364267457 -0.15815166486242774
-0.1697520172952607 -0.005504044444851327 0.01878703358905076 -0.08663772118180349 0.05132399934351899 -0.11558014048816244 0.039199797296011585 0.072093261834913
-0.0515758829601627 0.05325247857737359 -0.07876643475376484 -0.11652610997724941 0.06012784668193879 -0.07411070298655326 0.017691067089194355 -0.01595247338271514
-0.020312766010979373 -0.03700597020134477 -0.0430714548268958 -0.1229230694696307 0.02640512261971165 0.09310745803661602 0.12971989202298476 -0.052504276824513745
-0.047594438111890174 -0.0009622052639682698 -0.03424647410250665 0.006806886692984113 -0.24089589134129924 -0.07067335370808447 -0.04624920564581831 -0.0015506235168929487
-0.04215479954098024 0.02243201926470745 -0.09208146688969979 0.10864807328927882 -0.02344367678068567 -0.06873646454137225 -0.06609652602300549 -0.022319538327846986
-0.11604575546716546 0.005856061788980368 -0.1488609726125103 0.002171543713797158 -0.08306567583036968 0.008015205496113632 -0.05787781609865942 0.10834452172004946
-0.0036822494504983945 0.09499653605785523 0.11167461098335756 -0.06272811428456555 0.11301004470050717 -0.05664678204731089 -0.15232840798781283 -0.07989344968044619
-0.04147105900366311 -0.02704324733429071 0.01889566940079177 0.05375218500516352 0.024005983871690083 -0.05368102167269201 -0.11735902288452943 -0.01907950077475657
0.005111522685771147 0.08159296670617876 0.02400972936801788 -0.14300677183561641 0.07850075930340407 0.10440226500659897 -0.004068484112092991 -0.049381552387992994
-0.015524762324880684 -0.026989258381736367 -0.07149642857918509 0.040049984706864786 0.015966003883048464 -0.04676623785160897 0.08382571161633093 -0.1475035659260645
-0.11175859057143263 -0.21234344480241332 -0.04804872710126365 -0.1008622584353943 -0.018772400656317488 -0.14940981165853406 -0.2051380400322208 -0.1628507944467297
-0.1773443290881073 -0.1270392427313225 -0.1263081084482684 0.06446216218639897 -0.051091689267967984 -0.031800397332697114 -0.0767711446682116 -0.07857590781691334
-0.046799959977955864 -0.10938754767572223 0.03626946909912244 -0.04778405400576455 -0.04591157002739402 -0.0994832295544659 0.024485044947311928 -0.10401451157403128
-0.09324736249992945 -0.07265702005520908 -0.010376104450479352 -0.021509312769565726 -0.16478822042902064 -0.15378370018730186 -0.08053743383809181 0.010989023946236435
-0.21599570122033443 -0.06658218722661792 0.042460909610098165 -0.10558578997284045 -0.015250589606193911 -0.09469424101444225 -0.15278011943439684 -0.13378447492951787

model.sequential_layers.0.Linear 0.weight f8 [256, 31]
00000000: efb8 0d6d 11d5 b03f 56bb 09b8 db8e ad3f
00000010: 9b4d 4d05 31b0 983f 9dee 49d4 9947 b3bf
00000020: 4ee5 a7d4 644e b1bf 2467 d749 adc5 c2bf
00000030: 5935 de25 7b45 a53f dc94 5bda 34fe a73f
00000040: a84b e44c b194 933f 7f4f 98cb 35c1 a2bf
00000050: 24ca 4384 5e3c 933f 7b3f 2046 b253 663f
00000060: 4bce 3265 1dbd a43f 18d8 57fb 50c5 ae3f
00000070: 1676 d4bc c0f7 9e3f 9bd3 faa2 ec43 a13f
00000080: 88f5 6118 63f0 c33f 65ed 5115 b8cd cbbf
00000090: 45ba be9e f575 c13f 1eef 37f1 4cfb 9d3f
000000a0: c6b0 6a23 7fc7 c33f c492 6b48 2215 b8bf
000000b0: 694f cdb7 964f a1bf bae4 eee0 fe6a b83f
000000c0: 93e9 3234 63dd 84bf a21a 7ac7 38d8 b73f
000000d0: d021 e658 4a2c b0bf df5e db97 635d b0bf
000000e0: d78e d2bb 137a adbf 45dc 9080 a719 c23f
000000f0: a061 953f 7b03 abbf e967 0114 d39a a9bf
00000100: 2542 28a9 433a debf 2be5 2e28 4e76 773f
00000110: ba70 319c 7784 b8bf 3876 e566 3b66 b23f
00000120: c811 45c0 90bb c13f e6b5 0a74 193c babf
00000130: 6de9 298c e17d c3bf c152 6057 47a7 b0bf
00000140: 0908 fb8c 8f59 acbf c71e 8f2f aa85 b6bf
00000150: da72 628a d0cd b53f 8529 4dcf 2b50 a7bf
00000160: ff38 4f09 a204 ccbf 0f3a 3cac 43f1 a73f
00000170: 42b1 d62a 0d85 cd3f 018d d5bf d42d c73f
00000180: c345 fdb7 469c a1bf f4ac 6227 a2a0 b1bf
00000190: 69c8 55db 9182 a4bf 27b2 3b47 3502 c7bf
000001a0: 7865 449d f8fa d4bf 5253 4135 3872 d4bf
000001b0: f3f8 a63a 44ae debf 53b9 7f58 a01c 97bf
000001c0: c360 e839 827e c6bf cb17 1005 9f35 c6bf
000001d0: a729 2547 3c71 9dbf 6d9e 6ff2 f1ec b8bf
000001e0: 07d6 fa5f 616a 35bf 1b90 94b1 2ae9 c03f
000001f0: 9c1e 729d 2ea2 9ebf d26c d54a b13c a63f
00000200: a0a3 f467 f04f b93f 101e 2c41 1d83 9e3f
00000210: 5a81 37b8 7651 bbbf aebd 3c59 6258 b9bf
00000220: c742 9899 d2f4 bebf 03d9 ba4d 513f c03f
00000230: df55 cd75 1ecb b23f ca6e c649 c7c0 d13f
00000240: ce1e 642d a760 c03f 0ad2 72a7 7124 aa3f
00000250: f345 434f 257d bfbf cbb0 93f0 2659 ac3f
00000260: 5713 53a9 ccdd b73f 11af 7776 c8c3 bbbf
00000270: f669 778b 5427 bbbf 2932 d7b1 ca56 a63f
00000280: 5bb7 4501 7aa9 9c3f c65a 261a a98a c03f
00000290: 223f d9ea c1f5 b1bf e572 aa1e 4581 a43f
000002a0: 0833 6654 aa31 a43f d5fb ce5d 4e59 c7bf
000002b0: 1872 ddf2 821f a13f 7747 591c 5396 cabf
000002c0: 538d 9a5c 5240 aa3f aa02 2cfe accb b8bf
000002d0: 86f8 1a56 4e5b c0bf 3fa1 7c8a 14e6 b13f
000002e0: 618f 5b7a 4f96 a5bf a3d8 50f2 b76e ac3f
000002f0: ecb5 bf59 00d3 a93f ee2b ac8b 21d5 c83f
00000300: 2c35 9eca b7e9 a03f 3777 165a a2ab c33f
00000310: bfd3 3734 707f c23f 6ad9 e26b 7501 cc3f
00000320: ab6c 1b20 a9bb 87bf c817 8d42 549e bd3f
00000330: 6988 5cc1 28cc bbbf 6215 b5a9 94c8 ca3f
00000340: 8bad fd56 4236 843f 1c2f 4c90 caf8 a4bf
00000350: afcd 0291 70e8 9e3f 0bc0 f427 5a58 bbbf
00000360: 2275 9d7c e050 a0bf 3c80 39af a089 c1bf
00000370: 45b6 b1c2 357f cd3f d15d c764 c39d ce3f
00000380: 4778 4b04 46a2 cebf f366 67df be68 b53f
00000390: 17f3 4bfe 6809 c93f b70d f460 fa26 d13f
000003a0: 57e8 99e7 ea64 bc3f 344c b0f7 c681 c43f
000003b0: cc8c d671 9888 b73f 7943 1ca9 b337 c53f
000003c0: 1cf0 f361 6fc4 c43f db01 110e eaa5 c33f
000003d0: 5c65 5982 760e c8bf 9ba2 8e00 912a bcbf
000003e0: 67c5 0b53 8944 b53f 76a0 f3a2 2927 a33f
000003f0: 8f0d 45f0 fb09 c33f 3b14 63f0 107f 8ebf
00000400: 0675 3f9d fe0a a9bf 2003 ea2a e551 a7bf
00000410: ada4 237e bccd b23f 9133 fd29 f95f 90bf
00000420: 2300 82ba 83b1 b3bf f00a 0963 a171 b63f
00000430: ba78 c3f2 3de9 bcbf 450d 29cd 1e74 b43f
00000440: d3be 3d73 6154 b83f 1cee 2345 7430 78bf
00000450: 33d2 3e96 a860 82bf 46ef ef5c b251 be3f
00000460: be22 50ac 9637 9ebf e3db b333 80a1 a13f
00000470: d2ee 42b2 d012 91bf cad0 371b 8fa7 bf3f
00000480: 8fb6 3f69 75aa 83bf efe7 4f4b e26c 803f
00000490: 2352 4b5f fab6 c03f c0da 4b34 3427 aa3f
000004a0: bb92 fa47 733c b5bf 42ed 5e44 14f4 a1bf
000004b0: d45a 3a3f fa61 c0bf 569f ed99 a8ed b73f
000004c0: 0d98 787b 13d1 933f 6258 8ce2 0eb3 693f
000004d0: 9d31 fdd7 e7d5 c5bf 1c30 6526 afb0 bb3f
000004e0: 0147 05af 335b c4bf 3b05 fe4a c546 aabf
000004f0: 2996 0aaa c9e1 b53f 2403 4088 098f c73f
00000500: 8872 2e16 e59f 853f e22e 106a ade2 993f
00000510: 2d53 a0fe d965 bebf ccf3 cdf4 7ed3 b1bf
00000520: 42c9 198a ed4e a5bf 4759 cf0b 61d4 c0bf
00000530: bab6 abed d050 b63f 468f d5ae de2b c03f
00000540: dcaf a7bf 4eba bd3f ff75 f61a 8b96 923f
00000550: 59a4 55e9 bc5f b13f 814a e23e 2c7e 8fbf
00000560: 2e56 a7db 3d65 733f f822 8e96 2e58 a7bf
00000570: 9add 692e 0a1a bebf 6ff4 e13a 7163 a83f
00000580: b02b 2f27 6263 ba3f c2cb 1aad 96aa a53f
00000590: 0ad8 11bf 3dcf a9bf a801 7644 8d13 bbbf
000005a0: dbda d14a 3999 aa3f 3241 3927 0fc7 c0bf
000005b0: 414b ea1d 51f8 a93f 3e4b 2100 be43 76bf
000005c0: a158 c64d 6c3a b83f 36f3 5d03 7fc9 e1bf
000005d0: 530b 9ba0 fac5 af3f 08a6 4b29 35ee a93f
000005e0: 9d80 868b f14b bfbf 6253 c44e f41a ad3f
000005f0: 3caf 5293 720e a2bf 4093 fd02 959b b93f
00000600: 59e5 f5a7 a990 b1bf 1bfb 795a d14a 97bf
00000610: b0ef 28be 6326 81bf d5d3 024e 6927 8c3f
00000620: fae7 27f6 de43 c2bf 6001 42b3 1ca9 b8bf
00000630: 1075 9da4 0776 b0bf 8049 595a 72f1 ad3f
00000640: 484b f9d2 0fb8 983f 4c1c fce8 0d55 bb3f
00000650: 887b 76bb d6a7 a0bf 61e9 6708 51d2 afbf
00000660: ca30 d81b 85a7 bebf 3d83 bc28 bed9 82bf
00000670: e5a1 91c7 fcaa c03f 0546 bcfb 583c b8bf
00000680: c330 e5d2 8662 c3bf 465d 85fc 19b4 bf3f
00000690: 4092 5d80 d7c0 813f 2915 defd 93b3 92bf
000006a0: 621c c5b1 10b9 b2bf 982c 2baf d670 95bf
000006b0: 60a5 f3f9 8a77 c03f 408c 24ef f965 c3bf
000006c0: fff7 95a7 8884 d8bf 5911 f606 0fba b7bf
000006d0: b70e e0b2 c4fc c5bf fb63 329c 1dbc 80bf
000006e0: 5944 65f1 265c 9a3f 7a1b 1789 f935 cd3f
000006f0: 926a 8974 b37b adbf a702 646a 0331 323f
00000700: 3e29 1bb6 ad5e c2bf ca70 7225 6fe9 c3bf
00000710: 40da 3839 93ec b8bf d273 e37c 4b89 a3bf
00000720: 8a2f 2f23 0373 b53f d1e6 be2e cc55 a83f
00000730: 6cbb 0698 5732 ae3f 53e1 ba9c 196e c5bf
00000740: d920 0a08 4963 6cbf 8d63 db5f d856 b23f
00000750: dea9 e494 67e1 a33f cb83 696c 5c54 b53f
00000760: 97d1 d9d9 dfba bd3f 3bcf c177 5ae8 cdbf
00000770: 689f 5125 9622 9dbf bfed 3471 02da bbbf
00000780: 7e98 2a01 0463 c8bf fcfc a5ef 2b15 9bbf
00000790: f0ba 1c9a 7f03 bd3f 285c 2bff 8651 b0bf
000007a0: eaf5 ea06 05f3 a5bf ac3c f1ca fe63 b4bf
000007b0: da47 7b66 ff08 b2bf aace 8e0c e6b7 d7bf
000007c0: 070f 8062 c2ab c43f 0678 2448 6984 c73f
000007d0: 432e d654 1a82 b63f 4762 823c 8de6 ce3f
000007e0: 1a12 82b1 ead5 afbf afc9 41c7 e481 b13f
000007f0: ac4e 2b23 b4df 99bf a0c4 ff92 5054 abbf
0.06575116074029429 0.05773054715688512 0.024109617184263504 -0.07531129296142543 -0.06760244552414926 -0.14665762048280684 0.04154572331672552 0.046861316351888255
0.019121904676534435 -0.03663032636919094 0.018784977743914535 0.002725456420200998 0.040505331614806815 0.06009915416863992 0.030241977238906946 0.03372134675502211
0.155773531823723 -0.2172155479528143 0.13641233683797985 0.02927894804268682 0.15452565411886193 -0.09407247798987856 -0.033810338913695066 0.09538262359173447
-0.010187888174517911 0.09314303274195848 -0.06317581816086393 -0.06392500359958884 -0.057571999242353726 0.14140790727262434 -0.052760936271343484 -0.05000934237678207
-0.47230617064727404 0.0057280591017215094 -0.09577128947552441 0.07187243711583668 0.1385365427796741 -0.10247954447796523 -0.1522790846245913 -0.06505247004708804
-0.055370794257683605 -0.08797706280813165 0.08517173174409312 -0.04553353219542359 -0.21889138655246396 0.046762575888454554 0.23062290755968645 0.18108615271476228
-0.034395418128621034 -0.06885732137259365 -0.04005866815977372 -0.1797548864191338 -0.3278180633365859 -0.3194714088506788 -0.4793863842750305 -0.022570138360543734
-0.17573573901677805 -0.1735113882752429 -0.028752271501881 -0.09736549538467339 -0.00032677533452427115 0.13211568518556835 -0.029915550574996716 0.04343179739472593
0.09887602365473791 0.0297970362690006 -0.10671178815346619 -0.09900488546985883 -0.12092319726822175 0.12693229957012173 0.07341184974696756 0.27739126400568337
0.12794961658823073 0.05105929535912786 -0.12300332245947469 0.05536767660837113 0.09322814115428223 -0.10845616237901036 -0.10606888203566442 0.04363091870218156
0.02799025185361557 0.12923158432814413 -0.07015621169670941 0.0400487518247468 0.03944141655219907 -0.18241290646071087 0.03344353880558887 -0.2077125442906966
0.05127198582092753 -0.09685784535759959 -0.12778643802989026 0.06991699582124954 -0.04216240280746209 0.05553221543270694 0.050437937694237295 0.19400424308727743
0.03303312633861774 0.15367535971466292 0.1445141081782406 0.2187945153033966 -0.011588403026897195 0.11569716095718185 -0.10858397217501338 0.2092462376260001
0.00986911609626053 -0.04096062671132314 0.030183562136426974 -0.10681689715852387 -0.031867041789818154 -0.13701256328477196 0.23044464117576716 0.23918955250586163
-0.23932719430644253 0.08362954096028456 0.19559967438535672 0.2680040308771043 0.11091488031698425 0.1602104863564776 0.09192803172350067 0.16576238400787327
0.1622447231565055 0.1535008019145739 -0.1879413734884946 -0.11002451194384337 0.08307703282823341 0.037408162252007424 0.1487421916191178 -0.014890796981840029
-0.04891200704126146 -0.04554668568471798 0.07345178680010873 -0.01599110907345708 -0.07692740729726259 0.08767136257032937 -0.11293399025768994 0.07989685543821164
0.09503754676347435 -0.005905584506986663 -0.008973424039006783 0.11843409317947104 -0.02950892855372688 0.03443527823576866 -0.01667333686849199 0.12365049757483174
-0.009602467798653506 0.008020179675430198 0.1305840459159678 0.051080352195574275 -0.08295364863676984 -0.035065301271482344 -0.12799003684332055 0.09347013242733956
0.01935224953754049 0.003137139389205721 -0.17059038206424484 0.10816473662743004 -0.15903326078346683 -0.05132118740494681 0.0854764976635002 0.18405265000185367
0.01055888151113861 0.02527876815660946 -0.1187416311880269 -0.0696334216754188 -0.041617797000883985 -0.13148129536302575 0.0871706562281486 0.12633880173518203
0.11612407855108081 0.018152402420687604 0.06786709496158617 -0.01537737433344444 0.004735223420046659 -0.04559465015251435 -0.11758483536856659 0.04763368457586458
0.10307897049567205 0.04231711257070671 -0.050409249853075336 -0.10576708718691086 0.051950254805822126 -0.1310748044511541 0.050722632314452294 -0.0054356977362484665
0.09464146517561513 -0.5558466974031038 0.06205733500021062 0.050645505228953225 -0.12225255638486705 0.0568462701941488 -0.03526647613884257 0.10003024409304562
-0.06861362791632554 -0.022746344706770488 -0.008374003639907673 0.013747046178062586 -0.14269625682192083 -0.09633044601833296 -0.06430099266932054 0.05848271706476549
0.024139640094584608 0.1067665761766971 -0.03253050840725452 -0.06215146281825202 -0.1197436516742442 -0.009204373949218353 0.13021812195371676 -0.09467083116421555
-0.15144429490681519 0.12384188094198575 0.008668597798256461 -0.01826316105827633 -0.07313637104117413 -0.02093825763840282 0.12864815907168303 -0.15154956986325097
-0.38308922162821085 -0.09268278045607782 -0.17177637800351928 -0.008171302155732354 0.025742157443634592 0.2282096785913515 -0.05758438870971817 0.00027757962597267167
-0.14351436035060233 -0.15556134537189897 -0.09735984942458575 -0.03815685176389362 0.0837861977481095 0.04752958365084015 0.05897783022680056 -0.16742248680908264
-0.003465311660253528 0.07163765278109065 0.038829075742188954 0.08331849715024402 0.11613272732376455 -0.23365336272729018 -0.02845224955345263 -0.10879531158291565
-0.19052171761467557 -0.02644795084188177 0.11333463203912308 -0.06374400834771221 -0.04286971768804533 -0.07965080694815424 -0.0704497933577665 -0.3705992815623441
0.16149167832929143 0.18372837088185195 0.08792271205145945 0.24141087965542082 -0.062178930443256245 0.06838827004120306 -0.025267424246364342 -0.05337764543936285
