Data/Breast Cancer Winsconsin (Diagnostic)/results/models/bcw_10.onnx (onnx, 416707 bytes, 5 tensors)

model.sequential_layers.4.Linear 4.weight f8 [1, 17]
0	0x3fe1f0cb05f1a67f	0.5606436840145789
1	0x3f921d8924e8d89f	0.017690794828205566
2	0xbfe1951265ff9eab	-0.5494472496183865
3	0xbfe0462c2065d056	-0.5085659630553987
4	0x3fe2546c1fc737d9	0.5728054638545884
5	0xbfe19be5e626ecdf	-0.5502805228383315
6	0xbfe019f7d6403ef8	-0.5031699356640891
7	0x3fe200ee0974d54a	0.5626135048575318
8	0xbfe402f455c26846	-0.6253606486309387
9	0x3fe39bdec6f5874a	0.6127771268768154
10	0xbfdf9c9b4128538b	-0.49393349993743446
11	0xbfe08902870721d1	-0.5167248379958044
12	0x3fe1cdd831a08c88	0.5563775033264315
13	0xbfe309293c17432b	-0.5948682950639513
14	0x3fe407ff59b40f1e	0.6259762527483621
15	0xbfe0dfc482a63151	-0.5273153831235878
16	0xbf875a3bd7cca55e	-0.011402575991797444

model.sequential_layers.3.Linear 3.weight f8 [16, 65]
0	0x3fce146c5d8a789f	0.2349982697241488
1	0x3f88f8e46e212a02	0.01219347439850527
2	0xbfca83d44103b425	-0.2071481053784804
3	0xbfcaa5a80ec2e2df	-0.20818043442502351
4	0x3fcb317c768e3763	0.21244769848675124
5	0xbfa08cb80faf6234	-0.032323600687679394
6	0xbfc7d9484ea6e8e0	-0.18631843414715998
7	0x3fd2e14305fd1f38	0.29499888977851496
8	0x3fd526f8a1f7d5ee	0.3305036145896726
9	0xbfb29ddce38e052b	-0.0727212958863858
10	0x3fb5eddff52ea60a	0.08566093192953175
11	0x3fc4b4992fade2b3	0.16176142528617773
12	0x3fc9a34c34958a47	0.20029594962677974
13	0x3fcf392c8e9a7a3b	0.2439323135667609
14	0x3f820b7aac2093a2	0.008810957315356142
15	0xbfa8e39d8762dab9	-0.048611567284230835
16	0x3fc0724f7b517ffb	0.12848847886471035
17	0x3fca0d25b044ed61	0.2035262213411029
18	0xbf98ab67d7fbd750	-0.024091360623933966
19	0xbfb30addca48a2cd	-0.07438455761497238
20	0xbf8f5dba6bb7f99c	-0.01531549111586799
21	0x3fb6d43e9c239cf3	0.0891760951231964
22	0x3fc103107f7178d4	0.13290601942839564
23	0xbfc7c8a31a2ef6ba	-0.18581045893181686
24	0xbfbd311e64da5b03	-0.11403074228506331
25	0xbfa900ed880c9140	-0.048835203988604636
26	0xbfd71237be0b0274	-0.3604869228256924
27	0x3fd7be42c92c6dc2	0.370987602671189
28	0x3fc644bfa8ae8a4f	0.17397304283538736
29	0xbfb306dfedb50c8c	-0.07432364991568557
30	0xbfa9d5679f4ed463	-0.05045627422024592
31	0xbfd43139fd34e14e	-0.31550454833224684
32	0x3fcda307016efbac	0.2315377003669402
33	0xbf99aba67d05dac9	-0.025068856602468857
34	0xbf556e00e4a49ed5	-0.001307965156749737
35	0xbfd9b19a7863fe73	-0.40146505123991644
36	0xbfd2084dff7e9661	-0.2817568774283697
37	0xbf58ed8abb7d423c	-0.0015214781578444378
38	0x3fbbca2d627964ac	0.10855373052744949
39	0x3fc2b983abf608c0	0.14628644844566985
40	0x3fcfb3f8c9ae5fbf	0.24767980430328682
41	0x3fbf2620c5de16f2	0.12167553740263395
42	0x3fc0abaf72bb307c	0.13023942091092866
43	0xbfdbb0e49ff79940	-0.4326716959170831
44	0x3fd4854f8562d228	0.32063663507440987
45	0x3fcabc46f6d1b210	0.20887076427187923
46	0xbfccd6451ba3ee02	-0.22528900003077018
47	0xbfb59531fa5bff14	-0.08430778848923765
48	0xbf8b8c138fec01be	-0.013450768308303714
49	0xbf910dffe527a1c3	-0.016654966699123152
50	0xbfd9795c4379a4f7	-0.39803225125667957
51	0xbfc7b07d87508a67	-0.1850735579219702
52	0xbfc40426a459bd01	-0.15637667679718706
53	0xbf84795dd245bda5	-0.009997113208298833
54	0x3fb3dcab33dfdc1d	0.07758588806596874
55	0xbfd066c780ea3cad	-0.25627315129618006
56	0x3fc86d445edbc40b	0.1908345664192271
57	0x3fc1cee138fd4dca	0.13912596972168806
58	0xbfd94ea77eb9a686	-0.3954256761122469
59	0x3fcb33f062ae1697	0.212522552665338
60	0x3f86340ad5a35de8	0.010841450352400764
61	0xbfcb2fc2cb7ab935	-0.21239504752652186
62	0x3fc71e3ff73d04cb	0.18061065265832207
63	0xbfd86f7c5f4de6ff	-0.3818045550066102
64	0x3facb58a5fafca90	0.056072544270041935
65	0x3fb275a264dd2691	0.07210745775696582
66	0x3f922023c12bcc72	0.017700728097178993
67	0x3fc10815f4e6f5b6	0.1330592580615481
68	0xbfb22fc3c500a6db	-0.07104133185989829
69	0x3f7265b08a7a540b	0.0044915100221674205
70	0xbfd1dada953734d3	-0.27898277828064727
71	0xbfc618f29d761d48	-0.1726363438467422
72	0x3fbc9a4819f4fb6e	0.11172915109362488
73	0x3f946a342acfd1a6	0.019936385262512644
74	0xbfd6136d95465a3b	-0.34493579461687646
75	0x3fc95128c5f6214c	0.1977892843826886
76	0xbfce45b11e301c88	-0.23650182699222833
77	0xbfd1bdcbb6300f9a	-0.2772092131783609
78	0xbfb98474228d9b83	-0.09967733234007707
79	0xbf98d81edfc9d5ec	-0.02426193467041131
80	0xbfcd52c4be94cd37	-0.2290883951733151
81	0xbfccd44c25e5f14b	-0.22522880411623655
82	0xbfcc4a2f28600442	-0.22101392241896362
83	0xbfd60ed8afd48c90	-0.3446561543552855
84	0x3fb1a2b023472aa0	0.06888867245940355
85	0xbfc26a830fe77ef9	-0.1438754871041892
86	0xbfc80177e9a2ab01	-0.18754481227855282
87	0x3fb48625d213ffed	0.08017193201885649
88	0x3fc02fc7d299c53a	0.1264581468890727
89	0xbfd80ff638c8cc9a	-0.3759742311987765
90	0xbfc44bed70cc5aed	-0.15856712348678262
91	0xbfc44961c3d90772	-0.15848943770293605
92	0xbf5843ed8af8ad1e	-0.0014810390238249658
93	0x3fc8ccf4b82eab60	0.19375475877071846
94	0xbfe027bf9fc5984e	-0.5048521156829879
95	0xbfb56be2d932fcdb	-0.08367746165002947
96	0xbfe0eb8ac79c1a68	-0.5287526987675166
97	0x3f93491f3d9ffab7	0.018833625923430044
98	0xbfbe3925348079b4	-0.11805946857246036
99	0xbfd6dbf428a3dfdc	-0.35717491120112554
100	0xbfcda6961e7637b5	-0.2316463135470578
101	0x3fa132f0e10c9f77	0.03359177348312319
102	0xbfc36785f437fbbd	-0.15159677910557248
103	0xbfc0d557eac0511f	-0.1315107246633795
104	0xbfcb8cf434b2c853	-0.21523907254374083
105	0x3f715c41b11017c2	0.0042383733825825404
106	0xbfd228983dece43b	-0.28372770354650684
107	0x3fcd1f1cdfe68196	0.22751198704373782
108	0x3fb2a60a2dc0fa00	0.07284606568371288
109	0xbfc430824b2c1c16	-0.15773037596247325
110	0xbfc7bc04d65bbdd9	-0.18542538134305067
111	0xbfdd9b6b383bfed5	-0.4626110123790402
112	0xbfc88e1b8067c044	-0.19183677453793468
113	0xbfccb4d0777d0a7d	-0.22426801523586795
114	0xbfcaa1af89041fb3	-0.20805925550689394
115	0xbfd2555d5b7c6820	-0.2864602464120498
116	0x3fd3c6b5b69a029d	0.30900328476131184
117	0xbfa6aeb05e1cdb97	-0.04430152081334098
118	0xbfc83d571c00dfdc	-0.18937195651392258
119	0xbfc139e71330f3f1	-0.1345795482356205
120	0x3fc6469bbee3e27f	0.1740297967987949
121	0xbfd4295bded46ee9	-0.31502434502338744
122	0x3fb3ddc13fd15fac	0.07760246093800899
123	0xbfb1290e468b48d2	-0.06703271124141288
124	0xbfd51d85a610022c	-0.3299268838600564
125	0xbfd29de41383537d	-0.29088689714017574
126	0xbfb815ca2b7b24bd	-0.09408248483227317
127	0xbfc13009730d5af7	-0.1342784702089472
128	0xbfc0f0c110742bb1	-0.13234723380477711
129	0xbfaacf06f61390bb	-0.05236074212896954
130	0x3f99c4b0d76d184c	0.025164378307885024
131	0x3fdb21049854f6b1	0.42389025570069366
132	0xbf8c1e2e3af8d2c8	-0.013729439902001941
133	0xbfa05a4197aeee06	-0.03193860031703015
134	0xbfa77a1c15f75db3	-0.04585349815505015
135	0xbf922e10fbf4f918	-0.017753854158621157
136	0x3fa45080ed08146c	0.03967669385387115
137	0xbfa50242519c52e2	-0.04103286024306897
138	0xbfd3be5be5066065	-0.30849358907426555
139	0x3fc610bff78b185a	0.17238616549565472
140	0x3fb6a352fc606e26	0.0884296289590841
141	0x3fae2c29ef669e6c	0.058930693124520456
142	0xbfcf0b5d3f51dd64	-0.24253430930887554
143	0x3fbbab11a21b4d26	0.1080790539520434
144	0xbfa1c44d84744c2e	-0.03470079652665735
145	0x3fd345b099408a0f	0.30112853017831837
146	0x3fc6935fb1bcb2b8	0.17637249163217006
147	0xbfd8a009522783e4	-0.3847678472794185
148	0xbfc534addd6be270	-0.16567014037697758
149	0xbfd39a5f93d2377a	-0.30629720149669704
150	0x3fbb308c5b055649	0.10620953771771115
151	0x3fc009a96355a284	0.12529485082929537
152	0x3fa45f3719d01aee	0.039788934613218405
153	0x3fc6e0a13fb774c7	0.1787301598659836
154	0x3f61285dfc19572f	0.0020944438590885443
155	0x3f44555f0b36a6c5	0.0006205286103313159
156	0x3faad03617e2a614	0.05236977616852925
157	0x3fd72e21a833c5e0	0.3621906416511518
158	0xbfd719766240d7b5	-0.3609291038040923
159	0x3fb5a4c1625811ee	0.08454521800019396
160	0xbfd24d322412e1ff	-0.285961661556513
161	0x3fc81f66e77e3b29	0.18845831206677957
162	0xbfc07d3ac457376c	-0.12882170283267713
163	0x3fc506817dabbecb	0.16426104198716582
164	0x3fcdd061b4cd6efa	0.2329218037437995
165	0x3fcc52932b0d47e0	0.22126998521940688
166	0x3fbf97f57ac0cdb8	0.12341245886709984
167	0x3fc8270612a9bfc0	0.18869090949328715
168	0x3fc2a002a7c821ec	0.145508129048053
169	0xbfd9d39760308e75	-0.4035395087578089
170	0x3fb01c2709114214	0.0629295727860682
171	0x3fc28a53b14dc9fe	0.144846402715828
172	0x3fb943de94282c48	0.0986918555938
173	0x3fc2e0c81e456318	0.14748479345396315
174	0x3fcc159849f604f4	0.21940902339341728
175	0x3fb0473e07a7fca5	0.06358707129401127
176	0x3fc1490ae49d5bb6	0.135041581753027
177	0x3fbdad5d4c9ce79d	0.11592658157760956
178	0x3fd0d2b0e6bd9b72	0.26285955937640104
179	0x3f5a3ec8589eb486	0.001601882601316691
180	0x3f81d2d8632ea701	0.008702936674882535
181	0xbfcf5613724e43ae	-0.24481432992300028
182	0xbf7d773bd8ac3991	-0.007193788313783493
183	0xbfcf388d41e65e19	-0.2439133235718465
184	0x3fb457080940917b	0.07945299363979601
185	0xbf74453d5f75572e	-0.004948844659642222
186	0x3fc8e5cd8f81c829	0.19451303012061885
187	0x3fd063dc1635c04d	0.2560949532407946
188	0x3fc3b49a6b566b43	0.1539490722760438
189	0xbfda2ee311c021d2	-0.40911175473641237
190	0xbfced2e084bf2569	-0.2408104561020921
191	0xbfa26f8672d10726	-0.036007119670570284
192	0xbfd01be3a103b57e	-0.25170222019263366
193	0x3fa14d20d9dfca9c	0.03379156741711606
194	0x3fc8323addf5d263	0.18903289640333573
195	0x3fb48798e314fbe5	0.08019404930108427
196	0xbfd1543d43661d94	-0.27076655942843186
197	0x3fd66056ac17d03f	0.34963003927191844
198	0x3fd0754c2047dcc8	0.2571592631570181
199	0x3fb14c449c9376bd	0.0675700075402927
200	0x3fd03e6df3c7dff8	0.25381039435114827
201	0xbfc62e94cd3557c5	-0.1732965471261975
202	0xbfcd65117fafbcb6	-0.22964686140719487
203	0xbfc89a1cede01a82	-0.1922031556607245
204	0x3fb0b10e90b9e761	0.06520167382578058
205	0x3f9eb1f9decd769f	0.029975799773970576
206	0xbfb9f7096b38c05c	-0.10142573230473445
207	0xbfc7d8e82bef1744	-0.18630697388851492
208	0xbfc3a698d3bc2d32	-0.15352163637758448
209	0xbfb042da29f6d432	-0.06352008366123199
210	0xbfbe9500789c7da3	-0.11946108765231726
211	0xbfac0096b452fd41	-0.054691991340855235
212	0xbfdb2b0800e3bf6a	-0.42450141989592416
213	0xbfcb7fc4f1f43eb8	-0.21483671011127625
214	0x3fc0a1dabd671d89	0.12993940590079614
215	0xbfd3bbb336584d18	-0.3083313017570659
216	0x3fc1e1bcdd3953c0	0.13970146943998252
217	0xbf810e6c14ab4497	-0.008328289395111361
218	0x3fd3005c3f14cbb2	0.2968969932582538
219	0x3fce9ceb1ad6adc5	0.23916376886823634
220	0xbf76cfe77f017ef8	-0.005569366723733309
221	0xbfc98256bf3abce2	-0.19929012620330072
222	0x3fcacba712cdf164	0.20933998506724116
223	0xbfd31a1578dc9e9d	-0.29846703341397945
224	0x3fd1139e9b543077	0.26682248276552606
225	0xbfc87d8836aa0c93	-0.19133093518403096
226	0x3faf052ceec937a6	0.06058636107319097
227	0xbfbca893740c5596	-0.11194726546485465
228	0x3fce86619bb51ca9	0.23847599127677668
229	0x3fade869858230d5	0.05841378931754241
230	0xbfcfada6b14b0aeb	-0.24748691231624007
231	0x3fad99fcc3c711c0	0.05781545534003696
232	0x3fd2a924762348c4	0.2915736344995248
233	0x3fda119c74b7d9de	0.4073248996568547
234	0xbfd503bb8d76b665	-0.3283528214913985
235	0xbfb8362dccae89da	-0.09457670447458302
236	0x3fd28cce08ed9735	0.2898440444172253
237	0xbfca54c159838114	-0.20571152563844264
238	0x3fc6ce68fb31ce88	0.17817413583144437
239	0xbfd0ee37e7bf12d8	-0.26453969603998706
240	0x3fc0d1f7128a0556	0.13140762715560567
241	0x3fc9c4775d40d200	0.20130817464236372
242	0x3fd079b49ac9343d	0.25742831340614086
243	0x3fa833ec51ed8929	0.04727114200683708
244	0xbfbd3c098975ff5b	-0.11419734579066924
245	0xbfbc20f1f6b9a21b	-0.10987770341456164
246	0xbfccd00cc4333ea7	-0.22509917812430055
247	0xbfc523455a8fd0c8	-0.16513888284646883
248	0xbf8aacdb365da34b	-0.013025009724246714
249	0xbf9e4e89422665e4	-0.029596466696238624
250	0x3fd974a32b6ab694	0.3977439807884846
251	0xbfb4f8a26ff5fd86	-0.08191886170788196
252	0x3fab1903e5a7a994	0.05292522600560115
253	0x3fd62a42e2bbfe68	0.34632942335153993
254	0xbfc91f808f7ae91a	-0.19627387052407458
255	0xbfcfe0abc928d216	-0.24904391596068426

model.sequential_layers.2.Linear 2.weight f8 [64, 129]
0	0xbfc9a2b2905bca75	-0.200277634131982
1	0xbfc5e037d49aec01	-0.17090509301291948
2	0xbfc2d0e9514d8609	-0.14700046987404417
3	0xbfaa7655c21aa327	-0.051684074348776136
4	0x3fb7304b49d024ba	0.09058065940930052
5	0x3fd7221bdd951f37	0.36145683897892716
6	0x3fb96793855eec14	0.09923669820902631
7	0xbf92f2d75b82b360	-0.018504490814552965
8	0x3f9a6060bce1cafa	0.025758277443354217
9	0xbfb531711490b4ab	-0.08278567077714409
10	0x3fc5c1768d04dfa8	0.16996652494139863
11	0xbfc286def8e3796d	-0.1447409358288029
12	0x3fc9de057260cf17	0.20208805165167895
13	0xbf92eea512055171	-0.018488482689762834
14	0xbfa3bfc0da0b7370	-0.038572336785114625
15	0xbfbbca5cff26dbac	-0.1085565684250997
16	0xbfad0d0294719cc1	-0.05673988401468356
17	0x3fae9c3190612fa0	0.05978541266867343
18	0xbfba43666dc3ca56	-0.10259094409756506
19	0x3f79c8f304e826ad	0.006295155805227698
20	0x3fc89be4f7ab935a	0.19225751965782473
21	0xbfbabcf3804dd3de	-0.1044456661455366
22	0xbf787e783016c29e	-0.005979985698488703
23	0xbfb93ce283f8e2b8	-0.09858527872064371
24	0xbfb3807e5d6f3310	-0.07617940693962688
25	0xbfbb72439fb59eb2	-0.10721228264957963
26	0x3f9bcff70fd50cb6	0.02716051134235605
27	0x3fb835e7d87a47be	0.09457253489588788
28	0x3fc109cac74931e2	0.1331113312793511
29	0xbfcdbc319f438ee5	-0.2323057201057203
30	0x3fc2578dbd24e715	0.14329692588381052
31	0x3fc87e4578591a9f	0.1913534963261627
32	0x3fb8af1b715f56f5	0.0964219238079201
33	0x3fa4bb05c6bd5d70	0.04048936892530264
34	0x3fb8f0a0b52bba61	0.09742168830028099
35	0xbfa9ae2442609afb	-0.050156720259385744
36	0xbfc5547b82b2e84b	-0.16664070016651275
37	0x3fc5cb7dd6256e91	0.17027256924017256
38	0x3faf15944bed0798	0.06071151186780738
39	0x3fa6ebaa8e93547a	0.04476674070762328
40	0xbfacfb25a2ff381f	-0.056603599688614496
41	0xbfc6d956938718b5	-0.17850763514997472
42	0xbfe47c1ada9598c9	-0.6401495236612159
43	0x3f9218c528b341d7	0.01767261563219499
44	0x3fc0e1a716f3e06f	0.13188637371763742
45	0xbfdeab48025ce13c	-0.4792041800569853
46	0x3fb827d22d499957	0.09435762029315718
47	0xbfcddeef581bfc56	-0.2333659343930516
48	0xbfc1a301b0d7539f	-0.137787066791728
49	0xbfa56458de92a8ff	-0.04178121296838987
50	0xbf7e84e8d88cb7c3	-0.007450971178327439
51	0xbfbd22f5dd940722	-0.11381470355629777
52	0x3f83ecb595fea695	0.009728830947852965
53	0x3f84f04490e43bb8	0.010223899528254296
54	0xbfd7e23fd73c5ddd	-0.37318416613694955
55	0xbfd156bd845db241	-0.2709192078243952
56	0xbfbd12f1a77a530d	-0.11357031191648677
57	0xbfb433291a1369f3	-0.07890564810387683
58	0x3fba0f508b188488	0.10179618259327772
59	0x3fc6fce6bd75641c	0.17959293604761306
60	0x3fb507be44619aa2	0.08214940232719894
61	0x3fcfcc865729badb	0.24842910057073805
62	0x3fd32fe1c1f869fe	0.29979747717302974
63	0x3f97259089fbf4ed	0.022604235097777915
64	0xbfb6893b4d2cc499	-0.08803148874428003
65	0xbfc4934b93796430	-0.16074509335411014
66	0xbfb38d3aa7d86d05	-0.07637373540676513
67	0xbfa39c0cddc89e2d	-0.03829994399376022
68	0x3fc14abf91fd6a03	0.13509363773739844
69	0x3fa39beb221a0328	0.03829893866805484
70	0xbfbc5ca08f9d20cd	-0.1107883787746033
71	0xbfb79c78a174c6ba	-0.09223131124306408
72	0xbf9b8a8707a29ac2	-0.026895627823843034
73	0x3fbf382b9a2cbdaa	0.12195084108383605
74	0x3fbb99cbcbfd2fb3	0.10781549196434419
75	0xbfbd5530437ae673	-0.11458112380469192
76	0x3fc76e93f6d29a06	0.18306207229507282
77	0xbfb71c381cf6485e	-0.09027434069710824
78	0xbfd72c46c67026dd	-0.3620774209854128
79	0xbfb1d572d0620786	-0.06966321551774798
80	0x3fc4fc3dad862a38	0.16394778225760986
81	0xbfd5ddcb670ad80e	-0.3416622644684829
82	0xbfa503d8663f0a97	-0.04104496238826021
83	0xbfdd431664f228a8	-0.4572196946907163
84	0xbfa44b62d7c44aaf	-0.03963765033599508
85	0x3f94ff45de13a914	0.020505038909427745
86	0xbfce36fc22cfbe18	-0.23605300617008207
87	0x3fba266e52fc6b4b	0.10214890981698692
88	0x3fb8201c14574a63	0.0942399549160569
89	0x3f8f62f6ffc351a5	0.015325479202524426
90	0x3fa0577be86c4401	0.031917450067460613
91	0xbfb4132e5e902695	-0.07841768082303198
92	0xbfafaac1af8d4272	-0.06184964435545205
93	0xbfc3e7cadb9f9fce	-0.15551124309354097
94	0x3fb52a6e3edad92f	0.08267869028609164
95	0xbfc5b31b88a6e3f6	-0.16952842876869995
96	0xbfb90ac5e15a2540	-0.09782063247452744
97	0xbfda4cd20c6b104e	-0.41093875134197766
98	0x3fbb9633812610a4	0.1077606382660315
99	0xbf88fc15e98c94d7	-0.012199565114836037
100	0x3fa4fcb87245592d	0.040990604352077
101	0x3fa0799e3b599296	0.0321778724144554
102	0x3fd5b4e2d5cdb833	0.33916540984398863
103	0x3fbc06cd8caec662	0.10947880444180094
104	0x3fa3c9ea33edce77	0.03864986308954326
105	0xbfc31ef0db64ef9c	-0.14938173973666558
106	0x3fa32061f0705151	0.037356434441024995
107	0x3fc4873c5950f080	0.16037706719533062
108	0x3fab6c51089cdcdd	0.0535607646001439
109	0xbfc2fa1538582fe1	-0.14825692416377392
110	0x3fd08352dc75c348	0.2580153611116214
111	0x3fc74ad31b8859c5	0.18197096676222038
112	0xbfb4893f11c16cf7	-0.08021921332822389
113	0xbfaf5bc17aaed968	-0.06124691603274607
114	0xbfb32638d40a61ef	-0.07480197121402175
115	0xbfd186d5a021819e	-0.27385464322835584
116	0x3f9d7433bbc72913	0.02876358827214982
117	0xbfb68a2a3ab29456	-0.08804572995229995
118	0xbfb5704d21019ea5	-0.08374483161753206
119	0xbfc85cab58e03145	-0.19032804336201017
120	0x3f9cae96ebbc3dc9	0.02800975621999927
121	0xbfbff8a579e13d57	-0.12488779283125005
122	0xbfc3af31297256ad	-0.15378393672715643
123	0x3fd8c101df9df161	0.3867802318343561
124	0xbfd7afcd12343262	-0.37010504510616304
125	0x3fa7c7fe335ab8f7	0.04644770028004246
126	0x3fb2e0f1fed312be	0.07374489280034432
127	0x3fb850efbae17642	0.09498499214665748
128	0xbf9a8d268a31cd03	-0.025929071602559094
129	0xbfd5facc30de7eed	-0.3434324719655553
130	0xbf817c437412a657	-0.00853779504753331
131	0xbfa551f1d7945b25	-0.04164081341348539
132	0x3fc2dc9ab7501068	0.14735731077974212
133	0x3fb1522d0fcff1e0	0.06766015659372426
134	0xbfc5f597413dd751	-0.1715573376238191
135	0xbfa75287b751ab49	-0.04555153000622753
136	0x3fc2118ef690f645	0.1411608413636022
137	0xbfbf118d4de9cc35	-0.12136157180957315
138	0xbfc30f52f1cc3e77	-0.14890515142950608
139	0xbfbe90323312b7eb	-0.11938775774862591
140	0x3fbd71e8b4836a4d	0.11501936347068771
141	0x3facd0d6e7d395ef	0.056280818747648335
142	0xbfc0bea3afa838dd	-0.13081785275466631
143	0xbfb23c34edb92d26	-0.07123118213455779
144	0xbfca77bb8ea166c0	-0.20677895035151117
145	0x3fa9d65fcce06f8b	0.05046367050110153
146	0x3fc4d02b2976648e	0.1626028015569187
147	0xbfc18e7ed721f4f2	-0.13716111664317726
148	0x3fdb1934ed34a84b	0.42341349758737995
149	0x3fd1f34fc8156126	0.28047556437879206
150	0x3fad9b4ac1505c94	0.05782540902890179
151	0x3fba7aa97e383c4b	0.10343417483839905
152	0xbfc656d9b29a885b	-0.1745254633033849
153	0x3fcad06bd0df4fbd	0.2094855089077309
154	0x3f74b544fd257948	0.005055684554774516
155	0x3fa053a0d776cd47	0.03188803320099481
156	0x3fc47ca4508c459c	0.16005376751904243
157	0xbfc1664ed0945abf	-0.13593468842073794
158	0xbfc6b08c727208a7	-0.17726283634335013
159	0x3f5b314aa1523094	0.0016597012338790728
160	0xbfab9c2ffa602d92	-0.05392599040359437
161	0xbfbd9c98786ce885	-0.1156707090384846
162	0xbfb60b00c146d218	-0.08610539168041276
163	0xbfc0e7de95d6c749	-0.13207609478336682
164	0x3fb6b356869ad257	0.0886739805817539
165	0xbf87367991241a60	-0.011334371320583958
166	0x3fc2f2dcd5b37af3	0.14803657946227808
167	0xbfa69f316f543d22	-0.04418329700467384
168	0x3fc317d72ffd98e3	0.14916505664149957
169	0xbfba70cb5201359f	-0.10328360321110218
170	0x3fb74258dd436eee	0.09085612680376773
171	0x3f90bde359b637bf	0.01634936556870747
172	0xbfb46564a9c5ed02	-0.0796721376881813
173	0xbfc22bc1422d812e	-0.14196029406867566
174	0x3fbf19f5dd07dd8e	0.1214898743272583
175	0xbfb39de71adfaa0c	-0.0766281548127738
176	0x3fc0b8fee309430b	0.1306456192565054
177	0x3fc3dff17565d8fe	0.1552717040282871
178	0xbfae89926f45724c	-0.059643341143531176
179	0xbfd41991b218baaf	-0.31406061546560243
180	0xbfaa214bee48a8c0	-0.05103528293359849
181	0x3fc58d7afdf4c9d0	0.16838014030652326
182	0xbfc1bb9e441f8b8a	-0.13853815389947172
183	0xbfaff2ba796fbc4e	-0.062398745845592005
184	0xbfc3e089c510c676	-0.15528986093845604
185	0xbf90113a89db3e66	-0.01569072214516467
186	0xbfd14e38d3fdc917	-0.27039929106025923
187	0x3fb128fd98d15414	0.06703171711826911
188	0x3fb88389c55e4770	0.09575711315690483
189	0x3fb8cf14c416942d	0.09690980708417447
190	0xbfb17065ad97d432	-0.06812129486191124
191	0x3fb4ffda92c31d0a	0.08202901919422714
192	0xbf7597c05825b4ce	-0.005271674485226542
193	0xbfb3cd442958a006	-0.07735086450031767
194	0xbf977f9d21e461bb	-0.02294774550782262
195	0x3fbe89e43fc88f1d	0.11929155881130922
196	0xbf7ec78fb54e7fcc	-0.007514535293836343
197	0x3fa3c2d6e26ddb54	0.038595881595873266
198	0xbfc76edcf680d3d5	-0.18307077442446365
199	0xbfbbda73004e1893	-0.10880202062080206
200	0xbfd79d5eb1a749eb	-0.36898009633037415
201	0x3fb168ded6c0f594	0.06800644629489333
202	0x3fc0c8e57d408925	0.13113087287735783
203	0xbfb85fea4428b8ce	-0.09521354831733506
204	0xbfba62ed7f39266e	-0.10307201725040624
205	0xbfc2aa52796a008c	-0.1458228199808257
206	0xbfb15b18e14f52e8	-0.06779628277520156
207	0x3fceba34dd053bb4	0.2400575713349703
208	0x3fca5d3a3f7e26da	0.20597007847054877
209	0xbfb0b836f333e38b	-0.0653108924633569
210	0x3f9f7dc6ed14bad9	0.03075323888804857
211	0xbfc16a0515d39f02	-0.13604796949152137
212	0xbfaef1290053123f	-0.06043365601502559
213	0xbfc36f3781857cc0	-0.15183156799591835
214	0xbfbca0fe9339c588	-0.11183158010842054
215	0x3fbaeec2547b1fa1	0.10520567476771571
216	0xbfcac683030b924f	-0.20918309830371348
217	0x3fcd5ea8af472cfa	0.22945126112458764
218	0x3fc2542cee54fbae	0.14319383275321002
219	0x3fc481e4f26f9f7d	0.16021406018921516
220	0xbfd5cb15dfa1c3c4	-0.34052035178234186
221	0x3f989eb07ae83fd1	0.02404285192648087
222	0xbfaaee06905fc58e	-0.052597241519730095
223	0xbfaf3b1e314242fc	-0.060997909081498464
224	0x3fba608d62d2e16a	0.10303577101411113
225	0x3fbcc84eb610bfb7	0.11243144936520265
226	0x3fbe48e3d52299d2	0.11829971269126041
227	0x3f68f56cf5a406be	0.003046715556707407
228	0xbfc4e2612aa030b1	-0.16315855580649477
229	0xbfc1571c6bc8159f	-0.13547091734669167
230	0xbfa2616d798e804c	-0.035899563873727475
231	0x3fd210d9778f3c36	0.28227841068013804
232	0xbfb2e8d3f71d244f	-0.07386517317822093
233	0xbfa94ea38faa84d5	-0.04942809227692072
234	0xbf9c08fb6a6ba6b1	-0.027378013964073748
235	0xbfd427ef5c70bb13	-0.31493743922594425
236	0x3f824f11b701c925	0.008939875028066322
237	0x3fa924e3b4e5892c	0.049109569389445745
238	0xbfb477ce1571b3be	-0.07995307944811622
239	0xbfca23eb6fca2bf6	-0.20422118147357055
240	0xbfd08a8a513d8f10	-0.2584558289874943
241	0xbfcc556001a72c46	-0.22135543900216897
242	0xbfcaae30620e954b	-0.20844082630098124
243	0x3fd8a8d4a5e4ccc1	0.38530460548936324
244	0x3fc04947f44a54d2	0.1272363608192451
245	0xbf7d785c928ac5e7	-0.007194863902144167
246	0xbfa9bc4fb3651e2f	-0.050264826439669334
247	0xbfd0287cc2e15c8a	-0.25247115165024836
248	0x3faf4649f09def7d	0.06108313619821979
249	0x3fb073cdae6f83b3	0.06426702030832025
250	0xbfc62c1695637971	-0.17322046560634477
251	0xbf7032d163686a10	-0.003954713748067565
252	0xbfbfb5a77af6efd8	-0.12386557342591631
253	0x3fb3f8ee37d00582	0.07801712858783641
254	0x3faba9abf911fb7f	0.05402886786850213
255	0xbfc06c27c6309297	-0.12830063988908044

model.sequential_layers.1.Linear 1.weight f8 [128, 257]
0	0xbf6cd8debbd0231e	-0.0035213804499146925
1	0x3fc38ae591ab3bf3	0.15267629254091694
2	0x3fc545164a61e48e	0.16617087013199633
3	0xbfcf7842f3b69846	-0.2458575906759412
4	0x3fcdf92253de25bc	0.23416546912294034
5	0x3fbf41d75e80fb72	0.12209840829107835
6	0x3fc912ea37f7e2db	0.19588973744227797
7	0xbfa0aa5d0a01d846	-0.0325497698512867
8	0x3fb319caff166c67	0.07461231925701527
9	0xbfa9a7e498937f22	-0.050109046578425756
10	0x3fc27193c0278ba0	0.1440910995725888
11	0xbfc558792c56f0bd	-0.16676249184627592
12	0xbfc63da485403f8b	-0.17375618463892936
13	0xbfc75e7a890e35e6	-0.18257075969852038
14	0xbfaa366a845409b1	-0.05119641175589907
15	0x3fc890f1e8719279	0.19192336892878695
16	0xbf94c67a99775b30	-0.020288386933169977
17	0xbfcc7e03f805e908	-0.22259568796636864
18	0x3fb6fd6720a6bff7	0.08980412051346308
19	0xbfcd9cbfbb16bc49	-0.23134609828182054
20	0x3fb62e4f2f1b2a82	0.08664412403155988
21	0xbfc793fc4dd28f2c	-0.184203660964266
22	0x3fa60488c2af79b1	0.043003343358339115
23	0x3fc62f78a47b55c5	0.17332370787941734
24	0xbfba0554225eeb72	-0.10164380873804449
25	0xbfc83d5a81056ddc	-0.18937236118186618
26	0x3fab5378f69d0693	0.053371219734356455
27	0x3fc61a7b5d67b6fa	0.1726831632690205
28	0xbfb2d027867903df	-0.0734886840155151
29	0xbfb58a246ba9c1e3	-0.08413913372510921
30	0xbfbfac9cdc87f4d6	-0.12372761138972818
31	0xbfc38490ae4c2b95	-0.15248306761381217
32	0xbfccfd12c6870a9c	-0.22647318547941075
33	0x3fc5be436a7d08cb	0.1698688764536825
34	0xbfab6ab6fab9fefe	-0.053548544031398734
35	0xbfa549a4303c5ff7	-0.04157746399704359
36	0xbfc919bf762efeaf	-0.19609826346094425
37	0xbfb527bb1ac26e1c	-0.08263749507244039
38	0xbfb6f7fc5dbe8fac	-0.08972146309548518
39	0xbfd34d726ca9af8f	-0.3016019879494189
40	0xbfc39ca15667bdde	-0.15321747511869338
41	0xbfa688ae80a51ef5	-0.044011548236594956
42	0x3fc1cc2619178869	0.13904262757484112
43	0x3fc9b6765860221a	0.20088080706797556
44	0xbf9b1ac980b4e33f	-0.026469372254015907
45	0xbfc2c0c746fddf48	-0.14650813070670154
46	0xbfb269cf0eb37f5a	-0.07192701443591201
47	0x3fcec9b9d88ebd80	0.24053118776417293
48	0xbfba66b26092ee63	-0.10312952859651996
49	0x3f96451773d23e50	0.021747938579720405
50	0x3fa3fb79b374e06a	0.0390279799998446
51	0x3fc2a5584d453ddb	0.14567092678997437
52	0xbfce42bf950c3e44	-0.2364119985363563
53	0xbfb9858cae168d8f	-0.09969405412862485
54	0xbfccefceedd0f240	-0.22606836902731864
55	0xbfb632af86df6be9	-0.08671090166846764
56	0xbf828798a8cbb523	-0.009047691966282806
57	0xbfb2075f712ba378	-0.07042500031424292
58	0xbfc996ec3548f274	-0.19991829492382218
59	0xbfcd922850876fed	-0.23102287227709387
60	0x3fd371450fffba21	0.3037884384383763
61	0xbfaf2bab5e8ad061	-0.06088004616813759
62	0x3f92313870b9100b	0.017765886192378882
63	0xbfc1eb5e9907dfe5	-0.13999540779309352
64	0x3f7b9165e96696cf	0.006730459301626814
65	0xbfb1f75d6d4928cd	-0.07018073957547984
66	0xbfc26b1d0d65cb53	-0.14389384416753134
67	0x3faf93f73f5e8f39	0.06167576454688945
68	0xbfc0169a2cc04637	-0.12568976578818233
69	0xbfd05d8f937624fc	-0.25571050072228707
70	0xbfda088857f005af	-0.4067707880750175
71	0xbfbf446094d284b8	-0.1221371043525491
72	0x3fcabf9ec9568298	0.20897278624490379
73	0xbf9dee0f10cdef98	-0.029228434944783638
74	0x3f93a7a48ae351e6	0.019194193818138937
75	0xbf6483b10db00312	-0.002504201705506034
76	0xbfc532b834058f19	-0.165610337640026
77	0xbfb578cd6560a39d	-0.08387454724346673
78	0xbf89ea9feaec71ef	-0.012654542309570053
79	0x3f945986a3dc0ae6	0.019872764350121218
80	0xbfa5b2f63fa3b618	-0.04238099600648243
81	0xbfb9669cc2a54ba3	-0.09922199012844017
82	0x3fbae15161761ff5	0.10500057820729565
83	0xbf99ebb1e6d51204	-0.02531316729916179
84	0xbf6e98dd639a1dfe	-0.003735000992324932
85	0xbfc39ab61ea8cf9b	-0.1531589173988522
86	0xbfa27831603b66eb	-0.036073248860430805
87	0xbfb2b30e3b1faed4	-0.07304467147303778
88	0xbfc67f3116aab63f	-0.17575658423213444
89	0xbfd646b3158414fd	-0.3480651579014447
90	0xbfc4a00da27792b0	-0.16113443787539472
91	0xbfe2cbaac2cddabd	-0.5873616986053417
92	0x3fbcd0b4a79eba48	0.11255959598813903
93	0x3faf62237769de15	0.061295612646912336
94	0xbfb33f5073d0c2ab	-0.07518484904791005
95	0xbfc8fbc92a6e5ec2	-0.1951838929351109
96	0xbfbe361f725beaf0	-0.1180133489796551
97	0xbfd64f8dfc6294fc	-0.34860562941533124
98	0xbfc6a5f6074544cf	-0.1769397292614827
99	0x3fb862bb9f05dd06	0.09525654442210305
100	0x3fc614d3296d29bd	0.1725105240132744
101	0x3f4bca3ca41fb463	0.0008480831240810334
102	0xbfc82209f9a377b0	-0.1885387867868622
103	0x3fc4638aec15c916	0.1592878010520244
104	0xbfc5e6a8d75cadef	-0.1711016704151542
105	0xbfaf9d289f078ba8	-0.06174590054776924
106	0xbfc60ac109a15d44	-0.17220318765860487
107	0x3f98978b2241edd2	0.024015592542566307
108	0x3fa7aee8b9ef5c2f	0.04625632543291435
109	0x3faeed2362f075da	0.06040297110324007
110	0xbfc2a52ab46162f9	-0.14566549117696306
111	0xbfc8a85f389f0686	-0.19263830437380508
112	0xbfc4c8c07f361775	-0.16237646304596934
113	0xbfb05d73cfcb8855	-0.06392597029801668
114	0xbfc42bcd7c56a3f8	-0.1575867516633307
115	0x3fa7b2cb13bd7c10	0.046285959396065945
116	0xbfb6aa69c83b2d02	-0.08853779924827523
117	0x3fb7fb0fa7519874	0.09367463908128731
118	0x3fae9daba4f00bcb	0.05979668033980764
119	0x3f89eb843ecee532	0.012656243483308491
120	0xbf7f2f08c75002c1	-0.007613214770572697
121	0xbfbda5c5cc7a3b40	-0.11581073991895341
122	0xbf6ccdce990e7a82	-0.003516105185965402
123	0x3fbe86722a2def0f	0.119238982484543
124	0xbfd6787dc8a616a9	-0.3511042079411291
125	0xbfbbdaa8c18e5e68	-0.10880522466174514
126	0xbfcb793615bd660e	-0.21463657437816192
127	0x3fb599d0f577aeb7	0.08437829964503406
128	0x3fb696c1b056193a	0.0882378631123161
129	0xbfb8441ed4c23aa3	-0.09478943533234001
130	0x3f86908e24db8d86	0.011017904758267926
131	0xbfa852d5c2484cc4	-0.047506980863681686
132	0x3fbcc052f219ca2f	0.11230963144934301
133	0xbfce19f8561d00b5	-0.23516754345656002
134	0xbfcd213088e39bc4	-0.2275753658679759
135	0xbfbf8484958feb61	-0.12311581279202023
136	0x3fb6c9a32f614aea	0.08901424319018827
137	0x3fd0b41a7dcc6949	0.26099264416702234
138	0x3fc7d09dabce0b8f	0.18605395211133355
139	0xbfbee6210f9fd0aa	-0.12069899207546322
140	0xbfb31d770b65da61	-0.07466835048931265
141	0xbfd0fc11c5127d51	-0.2653850960286564
142	0xbfbd7522fd5f8708	-0.11506861387126943
143	0x3fad6e6bb8ed5f5c	0.057483068775296714
144	0x3f76c8a78da6fc6b	0.005562452798073196
145	0xbfc07540a8ae07f5	-0.1285782645828132
146	0xbfb1982974ce6bb8	-0.06872805692402906
147	0xbfc5ac6ddeae9f91	-0.16932462094450476
148	0xbfd22fcd55b1d15d	-0.28416760796178214
149	0xbf69dbccc59a6497	-0.0031565665675086885
150	0x3fbfa6d0d24ccc0f	0.12363915571477001
151	0x3f9e7764ef477c96	0.029752328018613904
152	0xbfb84c65a652fe40	-0.094915726763241
153	0xbf9b760313176ab4	-0.026817367592097255
154	0xbfbdcd7cb8b362f2	-0.11641673573775416
155	0xbf94e325bd78314c	-0.020397748650837585
156	0x3fc368f47890dab1	0.15164047133449324
157	0xbfcb1cdf31cb06dc	-0.2118185990457765
158	0xbfb1f4ffcd9426bf	-0.07014464158069254
159	0x3fc422e101045203	0.1573144202199189
160	0xbfa8365dc061b3c2	-0.047289781316841153
161	0x3fa5a8184dbeca2d	0.04229808758772822
162	0x3fbcb34563c38cf1	0.11211045919076291
163	0x3f89c53354e22a27	0.012583161380708209
164	0xbfc5ebafbb58bdb9	-0.17125507972512624
165	0xbfb68edf9d41d5ab	-0.08811757649694722
166	0x3f6de7498b86fd29	0.0036503254343355396
167	0xbfcb87af42950ab4	-0.21507826567729682
168	0x3fb6f653d8235a33	0.08969615961846315
169	0xbfd23abec0999bd9	-0.2848355179652891
170	0xbfa57f8516982c5c	-0.04198852444468379
171	0x3fac78a2a1390dd2	0.05560787408878877
172	0xbf6a3b1dc6ebac8d	-0.0032020169813811784
173	0xbf656a0e94527b3a	-0.0026140484574876085
174	0xbfc1ff1957b5a050	-0.14059750349702194
175	0xbfc79299e800b667	-0.18416141346226597
176	0x3fb4ce5024415e4b	0.08127308735981235
177	0x3f91dd1915d996ac	0.01744498439656776
178	0x3fbb887e13207cce	0.10755145995107115
179	0x3f9927428be42ac0	0.024563827312742204
180	0xbfa7e71b8259c40e	-0.04668508497423583
181	0x3fa9ba5772169e70	0.0502497984664928
182	0xbfe00c9973015ee2	-0.5015380140493699
183	0x3fd08e2503c4bbef	0.258675817184609
184	0xbfb0acc7d2b244cd	-0.06513642209962996
185	0x3fa0931f47232b17	0.03237245314956832
186	0xbfccf30ba115f25e	-0.22616715779794822
187	0xbfbe2cb4d034bf29	-0.11786966403155631
188	0x3fa9f2ffd89c469e	0.050682063285546905
189	0x3fa185711032fbeb	0.03422120402091607
190	0x3fce4bbe58db2d8b	0.2366865095012652
191	0xbfd33f9e45e59293	-0.3007579500756858
192	0xbfb3ef5054e4788d	-0.07787038872308667
193	0xbfa7a854cc9311c2	-0.046206140491935624
194	0xbfda2e1b77c75bda	-0.4090641660417852
195	0xbfbd022a23b8d52e	-0.11331427929038249
196	0x3fcaa93b3c38d969	0.20828953209429393
197	0x3f9aac19d94ed058	0.026047138107699958
198	0xbf618ad3665cb88e	-0.0021413926032414826
199	0x3fc7a92c9914449e	0.18485028719490953
200	0x3fc039164555588d	0.12674215684336723
201	0x3fcba3d2bb59030d	0.21593698642575312
202	0x3fa9cfdf3e4aa778	0.05041406283755995
203	0xbf942cf6e42be2b5	-0.0197027756466663
204	0xbfb1f724c7e838e4	-0.07017736321015239
205	0xbfc82c488ef27d44	-0.18885142307133596
206	0xbf95cf89ed2db1de	-0.021299510098673362
207	0x3fcbc03d449ebb62	0.2168041787203619
208	0xbfc94e22c732ba24	-0.19769701696846298
209	0xbfd284ebddfdaada	-0.28936287573621444
210	0xbfd06c62ffdb0fe1	-0.2566154001799515
211	0xbfaf8874d6b79b4c	-0.06158795472202047
212	0xbfb3bebff572f096	-0.07712936155707192
213	0x3f925aa277be50a3	0.01792386871200392
214	0xbfcaf4ed10271377	-0.21059954918578302
215	0x3f93f5bd0eff7071	0.01949210552253117
216	0x3fc5b158ce20ee02	0.16947469773172946
217	0xbfc17045ca6318f6	-0.13623878843481635
218	0xbfcfa0fc0a36cc44	-0.2471003579972565
219	0xbfb118e44c6a9b7b	-0.06678606858859652
220	0xbf967aefe234e2c9	-0.021953342610887803
221	0xbfc60bce3b533a16	-0.17223527809842726
222	0xbfd2354acb698e13	-0.28450269569859293
223	0x3fc9f80f8af95037	0.20288271222909923
224	0xbfc00fad406cf1a7	-0.12547841687945757
225	0xbfae96e75a4d3870	-0.05974505402865382
226	0xbfb1e70a18858404	-0.06993163202925251
227	0xbfd1f86ab9d408f4	-0.2807871641854398
228	0xbfb5dd2234ed0713	-0.08540548126350371
229	0x3fc463db2b4ca732	0.15929736723165316
230	0x3fa7b663046ca6c8	0.046313375749674146
231	0xbfd4460fff007060	-0.31677627470504
232	0xbfa13b40c6e6a59d	-0.03365518978109636
233	0xbfa7e081ea1cab83	-0.04663473112881091
234	0x3f9feb9c8dfaac77	0.031172224202844902
235	0x3f740f2e567b0af1	0.004897290236558703
236	0xbfba91ee47b9bf0e	-0.10378922701943002
237	0x3fc24f24231a355b	0.14304019655211672
238	0xbfc03cc9bd4a287d	-0.1268551038995759
239	0xbfd26c30c9ff587d	-0.28785342909157646
240	0x3fb580267d8559ea	0.08398666920161416
241	0xbfa139fd8b4f8a09	-0.03364555669374531
242	0xbf88b9dce30bebc8	-0.012073255232726413
243	0x3fa3a5660f9f7f10	0.03837126675330016
244	0xbfb90c8abab31bd2	-0.09784762437912711
245	0xbf8278bf6a31aa4f	-0.009019370487483828
246	0xbfaf6dfee4eb2853	-0.06138607544342336
247	0x3fad2dd98c58f3b1	0.056990431196460085
248	0x3fbb36e05626e246	0.10630609610860473
249	0xbfc34a4d646491c3	-0.15070502664560878
250	0xbfb197eb9e1a9692	-0.06872437105138321
251	0x3fb86cfe859eda9f	0.09541311990947542
252	0x3fc1378c8fc89f30	0.13450772305190517
253	0xbf4b52507541134a	-0.000833787237305297
254	0xbfc30aec4dbe191b	-0.14877084537528948
255	0xbfd201bc08160d7c	-0.28135586537992885

model.sequential_layers.0.Linear 0.weight f8 [256, 31]
0	0xbfbc50501ae80d04	-0.11060047776122778
1	0xbfbf1f1e10ac327f	-0.12156856448218355
2	0xbfc10aab0c20f52b	-0.13313806621764832
3	0xbf5e8b2bd0a2dc40	-0.0018642356758798023
4	0x3f9bebf8a77b2639	0.027267346594078232
5	0xbfa2ce6f6d3616a2	-0.036731226045089174
6	0xbfb982abc4341989	-0.09965013065457219
7	0xbfae0df0333fc382	-0.058700090652457085
8	0x3fc115beac89690a	0.13347609924932896
9	0xbfa0e955948bc9dc	-0.03303019941622029
10	0x3fcae1f551efe3fc	0.2100206995089876
11	0xbf9d180642dca40e	-0.028411958533215702
12	0xbf994adb582bfa23	-0.024699618584231097
13	0x3fcd1496ec6fd7aa	0.22719084305543663
14	0xbfc1b7598c704bf7	-0.13840789182049182
15	0xbfa34c6526c53dea	-0.037692223532413596
16	0xbf92195d440063ab	-0.017674882197841118
17	0x3f9bc96446a95cce	0.027135435879554852
18	0xbfc3219e26b1a193	-0.14946343316411212
19	0x3f7e0e9623346dfb	0.007338129496271768
20	0xbfc79c8367486cc5	-0.18446390669928384
21	0xbf99d5c6feb17fee	-0.025229558272599144
22	0xbfc9bb6c7f323028	-0.2010322209429216
23	0xbf63a202cf7c999c	-0.002396588792083777
24	0xbfbe7ff3fdc8b83f	-0.11913990922832428
25	0x3fc1051787736fbf	0.13296789277853624
26	0x3f906369b027e756	0.01600422990484359
27	0x3fb6b1fdcd6f849d	0.08865343347089767
28	0xbfb7903936a7a9ad	-0.09204442581509538
29	0x3fc52ad9d8465664	0.16537020740786368
30	0xbfc584ed2342826f	-0.16811908933324868
31	0x3fa6d254a0f0fe5f	0.04457344498268578
32	0xbfa4b299502d0648	-0.04042510131558835
33	0xbfb14234b3dc0b96	-0.06741647139646853
34	0x3fb178bdecc2c373	0.0682486250905308
35	0x3fb9021a642b1b0c	0.09768834062115789
36	0x3fc6cc99964800db	0.17811889493896768
37	0xbf70d2d3770ee855	-0.004107309375223596
38	0x3fb75e13401840e8	0.09127922358334539
39	0x3fc0b6ce7c31dcd9	0.13057881416509678
40	0x3f84c5ec2499eb38	0.010143132082921377
41	0xbfaeea01c7bc497b	-0.06037908137490696
42	0xbf918f30bb2d54b0	-0.017147790359861304
43	0x3f81e68762da6711	0.008740480140932346
44	0xbfad2581e27034ff	-0.05692678345813284
45	0x3f54ee4e37efb49e	0.0012775195934822468
46	0x3fcaa617350951ee	0.20819368447941095
47	0xbf984ac851747375	-0.023722772571193446
48	0x3faa0c345c89ee19	0.0508743632280721
49	0x3fa294a8d35b58df	0.036290431785958914
50	0xbfd05543fb64c6a0	-0.25520419645463654
51	0xbfc584c04e9e801d	-0.16811374510598479
52	0xbfd3950d552c9c06	-0.30597241704748546
53	0xbfb743ccd734d7b9	-0.09087829832137019
54	0x3fc083c00eb8a60b	0.12902069777310063
55	0xbf9c83b6f027b8c6	-0.02784620133200446
56	0xbfaadd2a31e5a84c	-0.0524686036977334
57	0xbfa51370cc238d4f	-0.041163945121093996
58	0xbfc54cd6daeaf1da	-0.16640744866698648
59	0xbfb3359eb368a12d	-0.07503692512603229
60	0xbfc2e874f3dddfb8	-0.14771901996186698
61	0xbfd01855a735075f	-0.2514852650530112
62	0x3f9b7a49629a28cf	0.02683367409057596
63	0xbfb6f6efcd135f63	-0.08970545536737755
64	0xbfc7b756620e2f13	-0.18528251445638286
65	0x3fa8971d478c9f05	0.04802791117100295
66	0xbfb1798efde4b574	-0.06826108645028289
67	0xbfa45ad91c0f6425	-0.039755615878398744
68	0xbfb9923a3c96a64e	-0.09988750437937563
69	0xbfa2ba33d42d325a	-0.03657686200185557
70	0x3faf72ef29030f96	0.06142375350603328
71	0x3fbcde1f306c30bb	0.11276431019013249
72	0x3f80941192de6f50	0.008094918531973555
73	0x3fa4b7f6bf97bf84	0.04046603287485964
74	0xbf95ffe8b6a4e793	-0.021484028003420596
75	0xbf9cc0d18e6a2bd2	-0.028079294507317894
76	0x3fa8a735b359536e	0.04815070928876862
77	0x3fb7497fd1f5fea9	0.09096526027678443
78	0x3fc10519d6354692	0.13296816787128712
79	0xbfc57f4847b2ba30	-0.1679468488777771
80	0xbfa41db1b0359bd3	-0.03928904796594392
81	0x3fa79baef49dc2b1	0.04610964523351891
82	0xbfc488d594455e63	-0.16042585124772576
83	0x3f82508d5b2c2cad	0.008942703575959799
84	0xbf924dfec58c5004	-0.017875653083208945
85	0x3fc1883c1ebdb24a	0.13697005749726748
86	0xbfba5df6c7a2d847	-0.10299627660683185
87	0xbfa0888d0842d112	-0.03229180074541395
88	0xbfc30323b6fff645	-0.14853331027545572
89	0xbfaf8447efb005bf	-0.061556098946322184
90	0xbfb6e4040e1c4ae6	-0.08941674561019006
91	0xbf8fba61bedca0ac	-0.01549221385683127
92	0xbfc94cdd059dfa5f	-0.1976581838061575
93	0x3fc0f399f5794acb	0.1324341248133208
94	0xbfaf0bdb11e4e8d3	-0.0606373271316031
95	0x3fc4a664a710acef	0.16132791669347266
96	0x3fc424a97a26e353	0.15736883606384797
97	0x3fc0b58d386e92c4	0.13054051642861542
98	0xbf7c5d1df924b9c3	-0.006924740870358939
99	0x3fbb671d20522bda	0.10704214133345094
100	0x3fa85d3852580851	0.04758621220754889
101	0xbfa2668a24d1bef0	-0.03593856524900996
102	0x3f9f0dc25b4b8917	0.03032592470379666
103	0xbf884faf743e427f	-0.011870737776719096
104	0xbfad84040b2a44e6	-0.05764782558720487
105	0xbfafc1a65a3976d1	-0.06202430583355823
106	0xbfc51d7defdad956	-0.16496252261795047
107	0xbfc0bc3a7b85a577	-0.13074427634573357
108	0x3fce0885c4cc23dd	0.23463508710145123
109	0x3fc24f3a6a9744c8	0.14304285244592152
110	0xbfa0a9b5d1f23413	-0.032544786337077046
111	0xbf46d8fa4912f451	-0.000697252473535701
112	0x3fb29bc92522a28e	0.0726896014845215
113	0x3fca5f6610c8f85a	0.2060363370855523
114	0xbfc6f83e6a1d4463	-0.1794507997642852
115	0xbf9acf97a7045d0f	-0.026182527130996166
116	0x3fb12f1d18259650	0.06712514724275676
117	0xbfa95e4ebdc99b4f	-0.04954763476125967
118	0x3fb3929a08444898	0.0764557142431691
119	0xbfbc1fe82493b171	-0.10986185925475468
120	0xbfc6442e2bf5b6b6	-0.17395569941020533
121	0xbfc2c4cade07a811	-0.14663062897972215
122	0xbfc8e26d1d79d99d	-0.19440998019463232
123	0xbf94bad83aae1fb4	-0.02024400575785963
124	0xbf53ee284d8671c8	-0.0012164491255140953
125	0xbfc58a5a617c13ce	-0.16828470001214985
126	0xbf5d98c0d6e145fe	-0.001806438750936556
127	0xbfa142859ac38a70	-0.03371064676482127
128	0x3fb5f38c48aeb5d1	0.08574749731516042
129	0x3fc8bd5846919fc4	0.19327834554428425
130	0xbfc4ffedb406ba2a	-0.16406031885476696
131	0x3fc3646d29fbe022	0.15150227117533271
132	0xbfa45cc4ca39b8e8	-0.039770269094207056
133	0x3f7f7b99da2b3f99	0.007686234460109542
134	0x3fbdb1f86564759e	0.11599686122322914
135	0xbfbd152d707413e5	-0.11360439296193155
136	0x3fc12584370c5e8f	0.13395741165071626
137	0xbfbd94285ffb04db	-0.11554195731425258
138	0xbfd2280c2d6d7c74	-0.28369430958077335
139	0xbfb06e7445a57e12	-0.06418539715149787
140	0xbfcacbd1585d45fb	-0.20934502424874765
141	0x3fc3416a36f8e7ab	0.15043380436128237
142	0xbfc21b98d4110ef2	-0.14146719317260864
143	0xbfc2221baf0511ff	-0.14166589780701597
144	0xbfb967cadefd397e	-0.09923999733039143
145	0x3fabee74e032d647	0.05455365406798456
146	0xbfb5a96c6657ccb3	-0.08461644648177717
147	0xbf8315d96392a1c8	-0.009319017745227934
148	0x3f9057d46d4cbb1a	0.01596004407036409
149	0x3fb245a4522f3587	0.07137515074210486
150	0xbfb0838e8feab2d7	-0.06450739873498477
151	0xbfa0cce90c08a05f	-0.03281334182639805
152	0xbfbd420eee1d8a25	-0.11428921998371118
153	0xbfcdd1dc7fb3d637	-0.23296695933793085
154	0xbf95a30fd64356cb	-0.021129844143465342
155	0xbfc28a8d346f0408	-0.14485325870740007
156	0xbfbc6af6d0772027	-0.11100714292035772
157	0xbf7e4c2d90fa821e	-0.007396867745825845
158	0xbfc712d6b3053aac	-0.18026241055709613
159	0xbfb299bcf05bb84a	-0.0726583563625535
160	0x3fb6344b5206724e	0.086735446477584
161	0x3fbeca1c49fd06e4	0.12027146154744234
162	0xbf4f37657ea38b89	-0.0009526486949450334
163	0xbf8d09fd7be45944	-0.014179210990317721
164	0xbfcc9dd9b5cb96c0	-0.22356721283647651
165	0xbf8644acb2ab083f	-0.010873173906819853
166	0x3fd1dd37c4b53d4a	0.27912706575167034
167	0xbfbae618d20d46d5	-0.10507350090235985
168	0x3fac19f97761dc4a	0.05488566953948089
169	0xbfbf2aa6424ec685	-0.12174452895012607
170	0xbf9b243cbb03a14d	-0.026505421556892107
171	0xbfb8ef37d41ab784	-0.09740017822579544
172	0xbfbce48007a977ad	-0.11286163508472553
173	0x3fcfec70dd92bbcd	0.24940310305598104
174	0xbfc0ff796b4ae02e	-0.1327964567078665
175	0xbfb8a1b3468efe36	-0.09621735069867374
176	0xbfbeef214849b98d	-0.12083633437007375
177	0xbfb58a30ecf4c20d	-0.08413987908421224
178	0x3fb0c202badac02e	0.06546036779286687
179	0xbfaf0383eb0f6a52	-0.06057369465243724
180	0x3fb6ee0efe4b5d9e	0.08956998546943004
181	0x3fc4f5b678320358	0.16374855870165095
182	0x3f811f2ff71d2fdb	0.008360266426869536
183	0x3fb2fd5543bb9473	0.07417805579787444
184	0xbfa6d04dfe86a128	-0.04455798847203801
185	0xbfd42f4d4c963840	-0.3153870819013527
186	0x3f9f959c89c7feb1	0.030844159993647483
187	0x3fcad3cc3709cc39	0.20958855330863616
188	0xbfbadc394d8b1c37	-0.10492284911298176
189	0x3fbcf13bae1a4918	0.11305592537454279
190	0xbf99939ee784bb38	-0.024977190857664783
191	0xbf89198bed1a37f0	-0.012255757497111802
192	0xbfa694f902d29c48	-0.044105321497504735
193	0x3fa8262c48f5dc5e	0.04716623678808028
194	0x3fb8e51f213ebb26	0.09724611817976533
195	0x3fc0226da249ead9	0.1260506670403945
196	0x3fbeb0142c590650	0.11987424929341128
197	0x3fa627e0370c225b	0.04327297851529429
198	0x3fc2cd84c7abfd2c	0.14689693212128796
199	0x3fb9bdec13823b63	0.10055423237120702
200	0xbfc83b32ef3e5a9e	-0.18930660898032142
201	0xbfbe2a44f5f3be49	-0.11783247952166066
202	0xbfc95d6a0878125d	-0.1981632748940169
203	0x3fc44e066243b97a	0.15863113210748364
204	0xbfc1bc97c083519e	-0.13856789493605687
205	0xbfa1ecf0e8e6ff91	-0.03501084178014858
206	0xbfc452a97c9efea5	-0.1587726458073934
207	0xbfba7b219cd490be	-0.1034413345228726
208	0xbf711e5c3f73ece0	-0.004179344504559895
209	0x3f6b9ea7afd60db8	0.0033715510496123667
210	0x3f86e4b68975dcaf	0.011178422994574026
211	0xbfbdaff5142077d9	-0.11596614591004996
212	0x3f9f6f96aa16bf92	0.030699113971138177
213	0x3fa935792150ea54	0.04923609286966682
214	0xbfac88c1a5135a04	-0.055730868721799026
215	0x3f68ea529e08bf64	0.0030414212817716935
216	0xbfd6febb7bae1a64	-0.359297629147852
217	0x3fba531bc2ed9bc2	0.10283063420284491
218	0x3fa4799ff8f5405e	0.03999042429006815
219	0x3fa9ac55462b7e4b	0.05014292222562896
220	0xbfc4367bff5fedbe	-0.15791273087948626
221	0xbfb0e3b87a139392	-0.06597474079496937
222	0x3fc05e38e93b96f3	0.12787543667143772
223	0x3fc9bfe0ef61a6fc	0.2011681717734105
224	0xbfc4a31c2be6d6d1	-0.1612277235378117
225	0x3f857d7ab510b3ee	0.010493239069626594
226	0xbfb214e323b1ab61	-0.07063121434627596
227	0xbfa6d9b46b9f34fd	-0.044629705560149426
228	0xbf8518e8d19d1c86	-0.010301417252448052
229	0x3faecd19bb9dd91e	0.060158542778412136
230	0xbfb06c3696c6e461	-0.06415120297505573
231	0xbfbcebc5e06f11e1	-0.11297260979978986
232	0x3f7a4a908ab5b233	0.0064187666097095695
233	0xbfc5067ef1d60539	-0.16426073845290448
234	0xbfb5f877191f2bb5	-0.08582252848934398
235	0x3f9639945dfdc036	0.021704023587006037
236	0xbfc36147a360843c	-0.1514062450160355
237	0xbfa95f52b1afd9bf	-0.049555381956384086
238	0xbfb0d96713dd794b	-0.06581730113018584
239	0x3fc29330de36f541	0.14511690950704728
240	0xbf60834886e57d7a	-0.0020157257596761765
241	0x3fbc223dccfcdc91	0.10989748243888388
242	0xbfae2e4b143d6b45	-0.05894693967885315
243	0xbfbf3acec5520ada	-0.12199108426470265
244	0xbf7804f92cdfb022	-0.005864117947549404
245	0x3fc43d2162a09d1d	0.158115552099141
246	0x3fc84755cc6c17c8	0.18967697602800926
247	0xbfa0e41cfe0614b5	-0.03299036599040887
248	0xbfbaf5da9cb96d4e	-0.1053139336230988
249	0xbf9ffa59ee968eaa	-0.031228451907408562
250	0xbfbdc613367bbe53	-0.1163036354080245
251	0xbfb26729c106af66	-0.07188664400626762
252	0x3fa6b99eed17c7eb	0.044384924356464094
253	0x3fa23acdb3d18218	0.035604885292517874
254	0x3fc35a6c3746e3a4	0.15119698237483903
255	0xbfc6bf2a37966347	-0.17770889009696075
