Data/Breast Cancer Winsconsin (Diagnostic)/results/models/bcw_6.onnx (onnx, 416707 bytes, 5 tensors)

model.sequential_layers.4.Linear 4.weight f8 [1, 17]
00000000: 4dcc 7ebe a5f6 e1bf b8f7 d6b3 938e e03f
00000010: b4b0 34b5 93a2 e2bf bae4 4448 7fff e1bf
00000020: 1fa4 6a03 c8fe e13f 8904 725c 4e15 e3bf
00000030: ae07 3926 21da dd3f f680 874b 98a7 db3f
00000040: 4472 6c3c 5238 df3f f0d6 a3a7 144b d23f
00000050: a5ee e0c9 8de1 dd3f 3760 358e cd9d e3bf
00000060: ed47 d2b5 4eeb e33f 2e37 9fff f90d dd3f
00000070: 85f6 4925 4320 df3f 0147 b4e9 88c6 e23f
00000080: dbef c523 4016 d6bf
-0.5613583298312591 0.5174044144148331 -0.5823458232093999 -0.5624386226183085 0.5623512331704922 -0.5963508420537816 0.4664385674733421 0.4321041810599263
0.48781257534736633 0.285832561217247 0.4668917151900394 -0.6130130555639032 0.6224740554046072 0.4539780613239256 0.48634413377281077 0.5867352070365258
-0.345108065542943

model.sequential_layers.3.Linear 3.weight f8 [16, 65]
00000000: faad 100d 42a1 a13f a317 d567 c3dd d4bf
00000010: b541 d051 8dce d03f e668 42ce 4c18 b73f
00000020: 208d c87b b549 9b3f 28aa c586 b978 99bf
00000030: d744 e84a f7ff c7bf fc3c bae3 88f0 b53f
00000040: c045 38e9 ce25 cabf edc4 e7b0 a6e7 b43f
00000050: d1c0 418d e38b b2bf a846 e99c 8dca c03f
00000060: e86d 7a58 4cd3 c5bf 1ff9 73c5 279f cebf
00000070: 0acc 9af5 c82a a23f 8568 e6a0 d08e a43f
00000080: 836e 1381 3cba c5bf 1e67 d787 1883 7a3f
00000090: 3605 442a 3b92 cbbf bfbf 485b ad5b c33f
000000a0: 83e1 c710 0bd7 d0bf 3e59 a074 532a c1bf
000000b0: 1164 1005 fbce b43f 34bc 99a5 4750 ddbf
000000c0: a686 19dd 2771 a43f 773a 4a5b f6da c53f
000000d0: 564b a183 afd7 d0bf b2ef 48bb 5959 d0bf
000000e0: e12e e50a 567e ba3f 2f43 37d9 e585 cdbf
000000f0: 6c92 66d8 2628 c43f 7596 715a eb29 cbbf
00000100: efb1 d7f2 faed cc3f 1b33 d56c aca9 b63f
00000110: efbe a80a 50d2 c23f e152 8ad9 8a12 a33f
00000120: dd53 91f8 2e37 c53f aaff 3073 8401 c73f
00000130: 43bc 8170 0396 c63f 00ba b505 d48d d9bf
00000140: 25d9 0dbe b06d d6bf 0118 49c2 7ec7 a03f
00000150: 6722 7f8f 4dcc b4bf 2fc8 8f22 bac5 c13f
00000160: e1cb a552 b228 b53f bd21 c15a 21ab c2bf
00000170: 197d 40c9 7865 c53f 48af 3d0c 4013 cf3f
00000180: 1eed 86fd d160 c7bf 7937 e2ab 0bb9 c53f
00000190: bc0b 684e 7a51 d6bf 4435 2012 c5e9 c2bf
000001a0: f82f 20fc 1260 c6bf 1520 788f 3aa0 c93f
000001b0: 36be 7d46 9a6e cabf 26c8 7cb5 a5f6 be3f
000001c0: 1960 f3a4 42b3 d3bf ed4c 296d b792 d3bf
000001d0: e386 e55a a6bd b0bf 82c1 a312 bfba b23f
000001e0: 373f a1c1 d459 c93f 00bb 77e0 2676 c33f
000001f0: 7382 f2bd a409 c53f 1eda 3694 0536 a23f
00000200: 8ef1 e094 8f2a c53f 3414 dff3 e9b9 c13f
00000210: d780 2550 4771 ca3f abea 328b fb02 923f
00000220: 1bdd 0932 f544 cabf fe9e 8549 cb16 aebf
00000230: 95f9 e749 2845 a6bf fe21 bea9 60fc bebf
00000240: 2156 8ed4 101e bbbf 15ce a909 818b c8bf
00000250: e382 58f1 8489 90bf 611b f76a 3588 b23f
00000260: 1b6e fb57 c788 b63f f416 4e9f 3722 d33f
00000270: 1af2 1235 2ae0 b8bf 0691 35d2 ce05 c23f
00000280: 945c 8e2a 2974 c6bf 317d 2614 a5e1 c13f
00000290: 8c7a 2e51 7906 d2bf 4a25 46c0 6a87 a43f
000002a0: ee4e 14aa e58b b53f 8b8e e7a7 d836 d3bf
000002b0: 47e0 dab9 ec86 d03f 00a4 a0e8 eb5b a43f
000002c0: 3d59 45af f3b4 d33f 5971 e35f 7737 d23f
000002d0: 6209 8a65 4355 9ebf bf10 b73e 12da d13f
000002e0: 87d0 f3e4 3639 d53f cb85 4e0a 1ba3 a93f
000002f0: 55b5 f066 51d4 b0bf 65e2 9d9a 875a 813f
00000300: 4366 f4a0 81f0 be3f 60f2 276d eef4 923f
00000310: 071c b2d1 38fc cebf bc10 1bb0 bf97 d0bf
00000320: ec08 ca7e 6d35 d2bf 639e 8eb4 7f08 c7bf
00000330: fd78 8049 266f 823f a3dc 0485 09ee cd3f
00000340: 8575 9491 2fd0 5ebf 7bd6 6f0a 1880 d13f
00000350: 46ce 40e0 059b d0bf e802 350a eb19 d2bf
00000360: 84d9 aac0 3d33 ab3f 5e15 56ec c032 b23f
00000370: c63f 2a13 f09d c8bf 677c 423e 2489 e0bf
00000380: baa4 56ed 4854 d2bf 67b7 77ae 5b9d d8bf
00000390: 3915 bebc beef 9dbf eb26 0b0a 4bf1 d43f
000003a0: 5ee2 7700 7676 b3bf 4e35 3b9f 64c6 b0bf
000003b0: cf24 814d 8cbe 993f 5607 6794 2fbb c0bf
000003c0: c9f1 5776 5e0a c4bf 4bfe 899a c03e c53f
000003d0: fb2b 1a22 4d17 ae3f beb2 ef60 c5fb a73f
000003e0: 2efa 17cc d430 cbbf 66b6 a485 501d bd3f
000003f0: 02e2 0573 bfe4 883f b5e7 18ef 21ae c1bf
00000400: 0321 90ee 419b b7bf 3809 ad10 e150 b4bf
00000410: 3055 a509 21f8 a23f d49e 47bd af87 cebf
00000420: 3f43 6503 5907 c5bf e8e3 34bb 5577 953f
00000430: 7cec da8d 8d12 98bf 3b66 20a0 390d c63f
00000440: ba04 8937 2d97 98bf 9301 def3 76d6 bd3f
00000450: cb53 8dd9 954e b5bf 3859 d620 6242 d73f
00000460: c286 df9e 0ebd c63f 4ad8 9f69 62fb cd3f
00000470: bcaf 9d04 5482 cabf 81dd aac6 c353 ba3f
00000480: 3a00 a148 b920 cebf 6156 a0e1 8eb0 d13f
00000490: 70f3 64f9 7d58 d9bf a055 aab0 abd3 be3f
000004a0: ecc1 ce1f 92e1 cdbf c88d fc49 e210 9b3f
000004b0: a273 be0d 6c2b e1bf 05bb 483a 9184 dcbf
000004c0: d1c8 b2b8 f5fe c03f 4574 3d71 81c2 dbbf
000004d0: 50e7 907f c78c a93f 84f6 beb9 4664 a33f
000004e0: b601 438f be6b c03f 41ae ca93 cdc5 a53f
000004f0: 9b64 2dae 9897 c73f 1c76 20f4 8462 6c3f
00000500: 0603 8d8e 759e be3f a68e f42e 3f43 cfbf
00000510: 2864 02e5 5067 bfbf 02c6 3149 5d83 a93f
00000520: 67df ddd5 8073 c23f 1625 5c86 976f 7b3f
00000530: b639 37f3 1e20 d73f 61ff 26fe 7ca5 c53f
00000540: 6a9b eb04 33a4 c23f d256 892e 8b8d dabf
00000550: c907 94f8 9754 d6bf 2f44 ad56 9b34 cc3f
00000560: 5e87 b8b2 21a6 c43f 5d83 641d ff23 b73f
00000570: f771 4713 594d bc3f c9ec 94ba 9801 af3f
00000580: 960a ef63 b530 c3bf b1cc 9de8 669a d13f
00000590: 653d d426 472a c03f 622e da54 760e c43f
000005a0: 56ef e2ad b7d8 c3bf 5fd1 4a7c 0f1b be3f
000005b0: d4d5 9058 ce67 abbf 0440 4052 d690 d03f
000005c0: 68b4 89e8 22b6 e0bf a831 ba8d d3d5 c03f
000005d0: 223b 5a86 aea9 c13f f9b6 c8f6 5fb4 e3bf
000005e0: 41f8 37d4 cd01 63bf e49d 686c 6e05 c13f
000005f0: d1d1 0d14 0d5c d1bf ad40 1b9d 6ce2 9c3f
00000600: 3d7a 522b 3141 c73f 3c11 8fb8 aff2 be3f
00000610: 9db9 ff74 963e ce3f e10b f6d5 ecfb d33f
00000620: 3e4e b89a 5c73 c03f 6453 c291 0181 cc3f
00000630: a681 9480 75fb b93f 2293 9aa7 c163 c5bf
00000640: 9756 823b 8087 d13f c516 d13a acf3 b73f
00000650: 02e0 679f df4c c93f e0b9 93b0 c1ab a93f
00000660: b5ed b5f4 6a24 b2bf e4d0 a6fb 6fec bf3f
00000670: d0a5 d52c 807e d23f 3482 cdb2 88df b4bf
00000680: 050d ed36 844a 453f a581 1664 379f c9bf
00000690: 1902 a0e5 566d d23f 4871 6919 4c04 b9bf
000006a0: a3dc 6d23 6b0c d03f 1a8a 5379 5c39 bc3f
000006b0: 49f9 6f8b 2a81 c3bf 377a 16d7 25c4 dfbf
000006c0: 8a61 cfcb 1b2e d5bf b5ef 54c8 a825 ba3f
000006d0: 016a ccdf dc95 cb3f 6394 c34e f707 9e3f
000006e0: 58c6 1982 f420 d03f e3db b7a5 5bf0 bebf
000006f0: e261 5a0f ffaa d7bf 91a4 f450 799f d33f
00000700: de61 5953 01fa c2bf 1872 03a7 ab6b be3f
00000710: ddf1 0280 4301 d8bf 459a 6010 88f1 b73f
00000720: 4820 e78a dfee bf3f a8a3 890a fd8a b63f
00000730: 6154 cb34 405d c43f 93aa 3d55 ad5d bb3f
00000740: ea5d 2267 d389 d53f 02f9 5c16 9b26 c03f
00000750: 2778 62f4 98d3 d5bf 8209 0c90 9741 d7bf
00000760: 9ece 10d9 27c7 c03f f266 dd80 d3bd 7bbf
00000770: 1c99 9c57 2340 a43f d608 3808 c82d b63f
00000780: 64b9 9967 297d d4bf 28df 999d 74ff 90bf
00000790: 0475 4d98 1556 afbf 3647 309e 0e47 a53f
000007a0: 3e1b d5e7 0484 b93f 20ee 9709 6b6a 67bf
000007b0: 0ef9 e969 6960 d23f cccc c6f8 e687 d8bf
000007c0: e4cf 3d3c 35f0 d4bf 602a 5eff e920 cfbf
000007d0: 665d 5297 4b1f a23f 47f8 b674 fab3 d6bf
000007e0: efac c5a9 a3c2 dbbf f5c8 0be2 ab64 d8bf
000007f0: 4e1d 9a6b 6361 d03f 849d 010f dfae b2bf
0.034433425993793024 -0.3260353578556254 0.2626069354019152 0.09021453891401485 0.026648364715709083 -0.024874590731466167 -0.18749896199782398 0.08570151862862824
-0.2042788161057114 0.0816597158334564 -0.07244703482297445 0.13118143235856405 -0.17051081009127178 -0.23923203603039497 0.035482673626937425 0.04015209163772319
-0.16974598219427514 0.006472678969169169 -0.21540011943583587 0.1512352653239741 -0.2631251968264438 -0.13410418696066445 0.08128327249177426 -0.4580248944466263
0.03992580961199836 0.17074470002667727 -0.2631644044351352 -0.25545352258245224 0.10349023595807295 -0.23064873796695326 0.1574753338474183 -0.21221677700230016
0.22601258142039124 0.08852651269007732 0.14704323311297382 0.037250842147079195 0.16574656617254294 0.17973380684452184 0.17645304673667014 -0.3992815070877498
-0.3504449707028406 0.03277202722215123 -0.0812424159368078 0.1388466519125031 0.08265223043217375 -0.1458474820267507 0.16715917422059404 0.2427749690790455
-0.1826422202992512 0.16970964329487595 -0.34872300774457776 -0.1477590883736558 -0.17480695067240481 0.20020229344686472 -0.20650032464935614 0.12095103913159785
-0.3078161822172674 -0.30582986507688653 -0.06539382666735664 0.0731620235926638 0.19805392698844468 0.15204320869766974 0.16435679697771696 0.03556840357071088
0.16536135453669626 0.13848614127906134 0.20658198750880416 0.017589502688432884 -0.20522942488944626 -0.05876765511021452 -0.043496378919360236 -0.12103847641095197
-0.1059275168357421 -0.19175732585755215 -0.016149594526839627 0.07239087926346378 0.08802457712175064 0.2989634566987285 -0.0971704845023357 0.1408022428905797
-0.17541994646009995 0.13969863399413776 -0.28164513519178835 0.04009564969153219 0.0841659107430208 -0.30022255322385466 0.2582351508131108 0.03976380552951042
0.3079194270734609 0.28463539470773963 -0.029622128555737766 0.27893501400491155 0.3316170917380607 0.05007252217115939 -0.06573971522512541 0.008473452955272973
0.12085733584935902 0.01851246396289452 -0.24207220305490315 -0.25926201055359477 -0.284510968988015 -0.17994686428322657 0.009001063459490139 0.23382681841915084
-0.001880690053730789 0.2734432317659878 -0.2594618501636642 -0.2828319167784188 0.053125314492194625 0.07108693857124623 -0.19231987891953234 -0.5167409149179435
-0.2863943403013526 -0.384604378107602 -0.029234867353371306 0.3272273634034792 -0.07602632056649258 -0.06552723777277444 0.025140945654389676 -0.13071245905126244
-0.15656643656246974 0.1659775499901904 0.0587715248230651 0.04684273536972715 -0.21242771115790177 0.11372855437067528 0.012155051896784567 -0.13812660383865497
-0.09221279215137561 -0.0793591180527401 0.03704932444331133 -0.23851582281280648 -0.16428673425482462 0.020963038970169295 -0.023508273871567273 0.17227859800986942
-0.02401419307193884 0.11655372098721832 -0.08323036729173265 0.3634267159153697 0.17764456517675425 0.23423414380494229 -0.20710230088604742 0.10284064865378718
-0.23537365003903848 0.27640125306911584 -0.3960261283389661 0.12041733801955568 -0.23344637444598904 0.02643159462526315 -0.5365505474506913 -0.44559126560027124
0.1327807571265738 -0.43374668177222403 0.049902185747170535 0.03787442223936657 0.12828809733583818 0.04252474240396654 0.18431385521652008 0.00346494643691987
0.11960539560551461 -0.2442397097848829 -0.12267022696541174 0.04983035582052865 0.14414987986287572 0.006698219198150631 0.36133550406966763 0.16911280069143245
0.14563596477747903 -0.41488914055422044 -0.34891318583697434 0.22035543186442072 0.1613199350986702 0.09039301364511006 0.11055523605995875 0.06055905606850726
-0.14992396716668982 0.2750489493984772 0.126290220221999 0.15669135230233439 -0.1550511931471827 0.11760041031340539 -0.05352635222554239 0.2588401606781192
-0.5222334424739872 0.13152546329764658 0.13799077568224855 -0.6157684154511279 -0.0023201961610075654 0.1329782513941914 -0.2712433524932552 0.028207490052239482
0.18167700400677403 0.1208906007369181 0.2362850257190531 0.31225129027023796 0.1285205607861019 0.22268695466177768 0.10149320973551443 -0.1671068256738631
0.27389531909407466 0.09356190143543149 0.19765849383816209 0.05013852386933926 -0.07086819147473629 0.12470149892652987 0.2889709890210641 -0.08153585782339051
0.0006497521952514579 -0.20017139803986797 0.28792354988402874 -0.09772182102591842 0.2507579656589291 0.11025026285236841 -0.15237933929888417 -0.4963469124285526
-0.3309392443020661 0.10213713541901266 0.21551094939862028 0.029327263052341467 0.2520114202990036 -0.12085507198194949 -0.3698117875988186 0.3066085138876327
-0.14825455255301184 0.11883042170979541 -0.3750771284210524 0.09352922820890182 0.1247386659734967 0.08805829531924181 0.1590957887443976 0.10689814883304853
0.3365372187776915 0.12617815582229502 -0.34103988519371103 -0.36337842051593594 0.13107774828823876 -0.00677282923228416 0.03955183453062913 0.08663606835037582
-0.32013926617846367 -0.016599485511022 -0.06120364650880997 0.041557747659807395 0.09967070255252694 -0.002858361299102233 0.28713450759086434 -0.383294814058172
-0.32716112978891787 -0.2431919571793797 0.035395014020816615 -0.3547350063125844 -0.433754840653548 -0.38114449572380177 0.2559441138077617 -0.07298082462658867

model.sequential_layers.2.Linear 2.weight f8 [64, 129]
00000000: 4d06 ad20 6a57 a1bf fd40 0704 ca87 c33f
00000010: 029c 33ed 015a cebf 5b96 ba73 1e9d c93f
00000020: b1f9 10fb f8b6 b6bf f3ec aa54 252c 9bbf
00000030: de51 3146 de0e bfbf e56d 7036 969e 9ebf
00000040: 7fec dc59 a19e c63f 5d41 cdd9 914a b23f
00000050: 37a2 3fee 455f a5bf 2bbb 86bd 5545 b9bf
00000060: 6876 97c3 bc01 c43f de9b 1d88 7d67 aabf
00000070: 176e ae5a 87de c13f a18c 0123 a138 d1bf
00000080: 12fe 2b56 4751 8ebf 1981 39e2 0cac 7abf
00000090: 00cb d8c7 0471 c13f 6a22 c876 9c1f c4bf
000000a0: 3164 beb0 589e c83f c86d 90c0 b96b b5bf
000000b0: a483 7f9b fa02 abbf 7696 1c51 de06 ca3f
000000c0: 0a8a 3524 cc15 be3f ea70 2b4c d30e ae3f
000000d0: d990 7411 7b28 9c3f 180b a8c0 30f3 b03f
000000e0: abe8 2d7e 26f2 bbbf 91eb c59c ecf5 cbbf
000000f0: 2a24 faa1 f205 ad3f 8307 0995 6bf8 bdbf
00000100: 0daf 039f a634 b03f e463 f1db 6777 c6bf
00000110: 5d7c c6d7 30ff c2bf 5e6d 3350 6368 cbbf
00000120: 48ff f789 ddcc c9bf 6e56 bcf8 9ef7 d1bf
00000130: 59a9 b724 6977 c63f 8fb0 335d 292f 953f
00000140: 8275 0343 de21 bd3f 78ac d099 80e9 b93f
00000150: 4ad2 de6e c74f c6bf 12b5 f912 eb51 d23f
00000160: 4495 7515 76b8 c13f dcdd 5f93 95a2 a93f
00000170: 53f1 b570 f13f c43f eed5 0a1e 3078 b9bf
00000180: 7553 dd10 052d c93f 205b 3e2a 4cb1 9cbf
00000190: 5c1f b19d 5796 d4bf f5ec df93 4bbc b0bf
000001a0: da21 90c1 4feb ad3f 80c7 748a dcb4 b2bf
000001b0: cb9c 2375 ec43 b3bf e7fd 16e7 90ef c43f
000001c0: 52b4 d3e2 3c12 cdbf a79b cc43 ce4f d0bf
000001d0: 4fdf 8fe3 25fa aa3f a295 2158 929d ac3f
000001e0: 3c3a 3103 86e3 bfbf 3508 0404 4c87 a9bf
000001f0: f75a c0b4 7017 bcbf 5216 1267 f131 c9bf
00000200: 4c44 39e0 4b6c cc3f a59e aa18 8612 b1bf
00000210: 1b28 d98e 64ed c0bf 2c60 d8f2 e5f6 b43f
00000220: d399 0b25 9401 853f b68d 9987 4444 a6bf
00000230: 9eb1 e93b e68e 833f b9f0 d572 b319 d03f
00000240: 78cc 189b 5bc0 b13f 1446 8206 2393 a3bf
00000250: 0c64 199c 6769 c73f 0519 3719 b932 b0bf
00000260: 9a0b 4f37 5dc6 a6bf c904 22e6 40ac a3bf
00000270: 8d90 bfa0 4648 c43f 6973 ed12 509e 9dbf
00000280: dd09 a674 a674 bd3f cb00 7178 644a c1bf
00000290: ac91 fbe8 08f7 c13f 73a9 dc80 a9bb b93f
000002a0: 22f8 b9f0 15b9 c2bf 2e8a 9452 034b b83f
000002b0: 17e0 2cf2 b7b4 d1bf 3c6e fbae 0d30 cbbf
000002c0: daa8 623f 94a5 9bbf 55bb c70d 580c b83f
000002d0: 0dd3 e94f 30fa c4bf 9fc5 e5fd 8d8d b43f
000002e0: 6406 a9cf 57e7 9dbf 58da 1696 d581 c03f
000002f0: b3a0 da17 6168 bdbf 210f 9372 4de1 c73f
00000300: 2c9b d534 4848 c43f cd88 ec85 a0db be3f
00000310: e868 7d0c 17d1 903f ddb1 aebf f3a3 c13f
00000320: 5a9e a471 8058 cbbf 2747 6740 7be3 b23f
00000330: 8563 2304 d111 c6bf 749b 3a79 c9a5 c13f
00000340: 93db 1508 2b85 9d3f 819d 36d8 3aff 7cbf
00000350: e6af 4320 a4db c43f 2bf2 f7a8 0f86 b03f
00000360: 5dd4 af20 0276 bcbf 4ae7 a3b6 da69 c53f
00000370: da8a 0c61 58d5 a73f a625 68e9 9c57 9a3f
00000380: d96a 3fea bfc0 c1bf f28a cd57 3166 753f
00000390: 893d 0cb9 aca9 b43f 6c7d cf62 2466 acbf
000003a0: fcce 9e4a 67cf bf3f 31c2 31cf 5f38 be3f
000003b0: 49ae a3ac 77ea b53f f0db 5c3d fbff d7bf
000003c0: 0b29 4122 73f7 c13f 3f75 9a25 531f c43f
000003d0: 6135 25f0 a49e c5bf b3a4 e0a2 ab68 a83f
000003e0: 818e 2da3 4421 92bf 24fe 7eda 7699 9ebf
000003f0: a2e0 5710 6c53 b6bf eca0 6142 79a2 c13f
00000400: 89a1 74b3 77aa e2bf 2f20 5df2 adf8 c5bf
00000410: 1c0e 1069 1588 b13f 2783 0e73 0bb0 bcbf
00000420: 82cc e08f ba88 b73f e9a4 f87a fee9 753f
00000430: 5900 c3ce ebd0 cdbf d747 10bf 666c c73f
00000440: ea2a 8e2b f996 c73f 6c19 9ee2 f40b c13f
00000450: f901 7ced f1b6 c5bf dfca cf5c 77f0 c3bf
00000460: 4a90 8416 7f64 b93f af29 6532 d333 933f
00000470: ef85 ea28 6e55 d33f 4cf6 36df 6aea b1bf
00000480: b814 c591 8827 c6bf ce40 d1aa 8e6a bdbf
00000490: 2956 1917 1577 c6bf 763a d8ab cbeb a8bf
000004a0: c41f 245b 0d7b b2bf 492a a965 9cc5 b3bf
000004b0: 387a 7f9c f63c 90bf 4c70 5511 933c cbbf
000004c0: 96f7 c86f 9b8c a73f 75ab 5282 ec56 a1bf
000004d0: 72eb f5d7 c047 ae3f 796e c487 1017 883f
000004e0: a07a c99d 5f7c c9bf fcb6 d826 cb41 cfbf
000004f0: f1e4 284d 3394 c7bf b5c5 95a6 a181 c8bf
00000500: f90f 7729 a73e cb3f 5d5d ed3c 77ac b83f
00000510: 3c8b 00ff 46b1 a33f c4f9 f762 7e36 b1bf
00000520: 0455 2ee2 a5c8 9ebf 48fb 0cce 8209 be3f
00000530: e409 10f8 0209 d2bf 1ab8 989b b693 bbbf
00000540: 7ec8 12ef 67db c83f ee4a f300 3204 abbf
00000550: 2343 f0f8 ec12 9dbf 9fae cbd4 988f c2bf
00000560: 9b16 3f6b 1f7a ce3f 0bcf 6eb0 0039 c23f
00000570: 6e74 5d67 1286 b4bf 4ce7 7da7 981d c33f
00000580: 0f1e 0df9 4fe5 c43f 744a 4148 8e9c d8bf
00000590: 2ac6 f7b5 5b9d b03f 0076 711f 2952 b33f
000005a0: 41f2 2485 0dd0 c3bf 2636 e1b4 323c b1bf
000005b0: 7013 118d 3b60 c5bf 4749 10ed 040e c6bf
000005c0: 40fa a2ab fa2f c83f 977f fac3 9104 aabf
000005d0: 9169 b963 5859 c1bf 0239 6d82 2c9f c73f
000005e0: 7eae 0924 932f bbbf 05e3 6aef 2489 b93f
000005f0: b524 547e f5b7 bc3f d4c3 aa0c fefd ae3f
00000600: bf51 355c 005e a2bf 997d 4115 0def 933f
00000610: 59cb 4297 8efc 773f 1062 59e1 1c25 cabf
00000620: 15d5 eff4 ef1a c1bf 080c e9da 310a b03f
00000630: 87f1 8cc7 b4f1 d2bf e130 1283 b718 cabf
00000640: 77b0 ac7f 3bcb ae3f bdcb 354d 855e b9bf
00000650: 06f5 47e1 1cd3 c43f dc7e c6ea ad42 b43f
00000660: 6a88 08c7 a5b1 cfbf acb7 2759 ec68 aa3f
00000670: 6a9d 6e8f d9e5 a3bf 1433 7eaa 5ac9 c2bf
00000680: 0603 fa03 e23e bcbf 7de7 3af7 9871 c83f
00000690: 46ca 5604 c927 c2bf c07c 7899 28fd c73f
000006a0: 84ea b855 6ec9 c4bf b6d0 0f7b 2f00 c53f
000006b0: bd45 2b9f 4c7a c33f 3a31 6935 6722 c73f
000006c0: 1d1c a08a bae5 933f 1dc4 1612 a97c b8bf
000006d0: b627 ef56 dc49 6dbf ce0d 5b0c a882 c13f
000006e0: 7d71 3e70 300f 49bf 7046 1ed6 fd28 c43f
000006f0: bd02 6f7c d944 bb3f c8bb 0682 86a1 c0bf
00000700: e88a 5672 612f d03f dbfa 70de f2d8 c6bf
00000710: 41d4 fdb8 cae8 9b3f 0e7f 216c 5af1 463f
00000720: 1f93 d4cc ffd4 c5bf 5e92 8fb5 850a a33f
00000730: 21d1 e7c5 e414 943f dfa4 0f7f 2004 a93f
00000740: 85ed 1f89 8070 b13f e7bd 0146 3539 be3f
00000750: 29e3 28a8 c669 b63f 8ca6 fefd 8dea ad3f
00000760: b7df fb33 1e78 863f e4b0 fb10 2eb5 d7bf
00000770: 1cfc d4c4 aec5 c13f 9509 6417 f1d4 cb3f
00000780: a993 5385 0e70 76bf 0edb 658b dc0c c9bf
00000790: 1325 bcd2 5ab2 c13f 9c16 d7df e91f af3f
000007a0: b189 ee91 f1c3 cd3f 8027 b956 9370 c13f
000007b0: cc6f be25 c041 993f f7b3 2e15 5f23 c0bf
000007c0: 482d 11ba 700f dc3f cc4d 0cfa 1966 af3f
000007d0: f8a0 e324 c38f cbbf ee8c 5001 5420 c7bf
000007e0: ac5b e782 e2cd c33f b700 33d7 e020 bc3f
000007f0: c909 9e5e 6fc4 74bf d0e8 4843 8f55 95bf
-0.03387004517436463 0.1525814551992041 -0.2371218116961416 0.20010738993475993 -0.08872944001720985 -0.026535590450959167 -0.12132062162101628 -0.029901835510924974
0.17671601188508032 0.07145034377504574 -0.04174250157649733 -0.0987142169676473 0.1563030200040203 -0.05157081877296553 0.1396035378246416 -0.2690813867431619
-0.014803464238410977 -0.0065117362279070385 0.1362615562262235 -0.15721469688311923 0.19233235006393692 -0.08367501212381179 -0.05275710247202106 0.20333460770159534
0.11752010234844348 0.058706858680780474 0.027498171749486076 0.06621079162145482 -0.10916367130804143 -0.21844251303613452 0.056686002991291964 -0.11707184208446901
0.06330338842570545 -0.17551897277260686 -0.14841280494599376 -0.21412316719111407 -0.20156449543719135 -0.2807385853824148 0.17551912587016252 0.02068771964415866
0.11379803787300172 0.10121921305896986 -0.17430966294854705 0.2862498936945751 0.13844181106393638 0.050068544616745675 0.1582013893456727 -0.0994901727052235
0.196686394915243 -0.02802008636316622 -0.32167616271589394 -0.06537315712187193 0.05843590963201324 -0.07307222728993956 -0.07525518283692915 0.16356097491914953
-0.227119074588162 -0.25487095471401705 0.052689727810444446 0.05588967634029564 -0.12456548288285146 -0.04986035870571507 -0.10973266995311436 -0.19683663876291974
0.22205494354651234 -0.06668890096863807 -0.13224465346348854 0.08189236811483686 0.010256917362721751 -0.043489591171943884 0.009549902633090575 0.25156866278099305
0.06934139763397862 -0.03823193983511089 0.18290419694929516 -0.06327397218328563 -0.044482148171957905 -0.03842356499900174 0.1584556851295286 -0.02892422786259222
0.11506119106164854 -0.135082777795111 0.14035140396221146 0.10051974674266777 -0.14627336744519065 0.09489460722083073 -0.2766551842682942 -0.21240397495317775
-0.026998821610200043 0.09393835388594358 -0.16388515378971427 0.08028495262785505 -0.029202816056800876 0.1289622290475616 -0.11487395126698878 0.1865631875463061
0.1584558732967819 0.12053874272945393 0.0164226151822299 0.13781592235080967 -0.21363835858322738 0.0737835914835868 -0.17241871549665802 0.13787191790944642
0.028828308456890616 -0.007079343663839111 0.16295291495714465 0.06454561114510031 -0.11117566392916119 0.16729291837674004 0.0465495699375162 0.02572484182932091
-0.13869475305440096 0.00522441172219844 0.0807140304352655 -0.05546678262885049 0.12425847598825251 0.11804770286995205 0.0856089397890908 -0.3749988650556011
0.14036406681618305 0.1572059568033328 -0.16890393949362717 0.0476735721898164 -0.01770503278693392 -0.029882294736806383 -0.08721042059903764 0.137770802891516
-0.5833090310089101 -0.1716515954415185 0.06848272147185991 -0.11206122931481542 0.09193006527566364 0.005350107253925909 -0.23293826671397502 0.18299564675595434
0.18429484011388492 0.13317738595305728 -0.16964553924482553 -0.15577594787426727 0.09918970393897655 0.018752384138943586 0.3020892524310445 -0.06998317670419246
-0.1730814658896287 -0.11490718527170715 -0.17550910594825211 -0.04867397759163776 -0.07219012713551282 -0.0772340534396473 -0.015857556630971298 -0.21278608652471787
0.04599462260783509 -0.033866301449356685 0.059141184198742716 0.01176274217919303 -0.1991080780453176 -0.24419536015323462 -0.18421021716657252 -0.19145603784595058
0.212849517103791 0.09638161885719883 0.038461893680752784 -0.06723775783755231 -0.03006228631018805 0.11733262568030256 -0.2818000242697549 -0.10772267626518364
0.1941957394934128 -0.05276638280488109 -0.028392508214952216 -0.14500723257457523 0.23810188995974077 0.14236458411107153 -0.0801707746845339 0.14934070757208884
0.1632480588980205 -0.38455540710598446 0.06490109627318277 0.07547242181450287 -0.1547867679709203 -0.06732479969033331 -0.16699928653738594 -0.1723028333222578
0.18896420841879724 -0.050816111729772455 -0.13553910130833605 0.1845451008652575 -0.10619468335942803 0.09974890561251122 0.11218199094959654 0.0605315580809315
-0.03587342382039393 0.019466595098831616 0.005856091495092774 -0.2042575931871089 -0.13363456210905925 0.06265555948725432 -0.29600257384643 -0.20387929820970555
0.060144290290140505 -0.09909852156651673 0.1626926517491613 0.0791424463445724 -0.24760887354301825 0.05158175075835855 -0.03886299014930723 -0.146769841431159
-0.11033451649747059 0.1909667212656209 -0.14183914863459018 0.18741328710254912 -0.1623971861425454 0.16406816014171505 0.1521697785561126 0.18073740108446562
0.019431032858872144 -0.09565216724037424 -0.003575258589511211 0.1367998180704561 -0.0007647501483805521 0.157500962781842 0.10651931083612971 -0.12992936467114036
0.2528918854315365 -0.17849574910538632 0.027255218068109825 0.0007001582637364571 -0.17056272031290917 0.037189653790652186 0.01961095292968296 0.04885961104430136
0.0681228956963676 0.11806042632246481 0.08755151372396298 0.05843013501664726 0.010971294366285507 -0.3704333463526963 0.13884529696403625 0.21743596689345837
-0.005477959367657195 -0.19570500189339451 0.13825545587341334 0.06079035623001269 0.23254222512794123 0.13624803289922838 0.02466488104219859 -0.1260794499807216
0.4384424035130974 0.06132584740967281 -0.2153247766611981 -0.18067407669250407 0.15472060577186875 0.10987668279540484 -0.005070147550102219 -0.02083419655011981

model.sequential_layers.1.Linear 1.weight f8 [128, 257]
00000000: 591e a0e8 af70 b63f 2968 9645 b319 b13f
00000010: 7ae8 43d5 c56e c9bf a16d b718 7518 acbf
00000020: 58da c62e 65a5 6dbf da41 fdbd f332 a0bf
00000030: 312a 6324 a6c7 c5bf c7ee 10d0 64ab c2bf
00000040: 0a40 edcd 251e b8bf f8ec 7727 baab a0bf
00000050: 2e94 2f14 df0e ae3f 50a7 b3ab 5193 c8bf
00000060: e8a9 49e7 6b07 903f 6cf3 c6d7 5db2 c3bf
00000070: 6900 bc7b bdf2 bcbf c4d4 943b 7300 aa3f
00000080: b863 fcf8 6381 c7bf 2dc7 fdef 0959 afbf
00000090: 7768 4d25 81f6 9f3f 1313 851d 706a a5bf
000000a0: 031e 7512 b71c 5c3f 89ce db57 855a c1bf
000000b0: da68 1d50 33f3 b5bf 9d1d 4f92 5c6c a53f
000000c0: 4b95 a7b3 8a36 c8bf 83f2 82f4 8185 b2bf
000000d0: 8981 5603 52a6 bbbf 7b1c b10d db52 a23f
000000e0: b9d8 8dc1 cab4 92bf 0f18 6592 327d db3f
000000f0: e6a7 cabe 9fcd bb3f d174 e65d 005d a3bf
00000100: 1b0e 3c12 70b5 c3bf f9a6 4b0a 3968 b63f
00000110: f36f eb12 8515 b2bf af02 7a33 ffc8 af3f
00000120: af74 be8b 2e7e 793f 5bd5 6353 22f1 9cbf
00000130: fa15 fca2 bc28 cabf edc1 81aa a682 5cbf
00000140: 50a2 832d 1989 773f 5eae 9e63 7860 adbf
00000150: e341 b685 0473 b43f 7bef f5a7 d32f a43f
00000160: 9722 22e6 29db 7ebf 66aa 61b6 2dbf a6bf
00000170: 40f6 53c2 47c5 c9bf 5927 939c bbad b23f
00000180: 2aff 8b8c 7a1f b33f 6ac7 5a21 ee36 c5bf
00000190: e546 4898 0b21 60bf 0a89 576e 707e a6bf
000001a0: 3d42 1f8c be77 d13f 2fd1 6722 8a7b 8b3f
000001b0: 6860 f4ff c684 c3bf 2f37 f3ad 86be 933f
000001c0: 96d2 d709 92db 9bbf 04c5 6021 3f46 c63f
000001d0: ff2b e0e4 6b83 90bf 3be7 d318 c995 c7bf
000001e0: d33f dcaf bfa3 d2bf dccb 38eb 4e41 b8bf
000001f0: ca81 1425 caf0 b5bf 3305 26c5 02ef c0bf
00000200: 5bc4 d50b d44e a6bf 67fa 4edb 31ef c63f
00000210: c5bf 9c8d 3b8d c53f 6c39 d92a 0d01 c2bf
00000220: ae30 e69b 3025 b5bf c433 a7a6 9f32 a0bf
00000230: a0da f009 b608 263f cf5a a704 3670 c53f
00000240: 73f0 9a5a 085c c1bf 07d8 5ed5 64f0 c3bf
00000250: 2ca9 2e5e fcbd b2bf 8c5d 05b0 6ab8 c6bf
00000260: 9c6a 84cc be56 d3bf a58c 9074 7eca b6bf
00000270: 6f7d 66fa a826 cbbf 6a44 4bcd 2e75 b13f
00000280: e086 0dd2 5782 bdbf 3fe4 68e6 1be2 c03f
00000290: 7c26 88f4 5a33 c8bf ab1f 3b0f 9578 b83f
000002a0: 79cc c1f3 24c9 9fbf 73bd ff13 b710 cfbf
000002b0: ba07 0497 df19 c0bf be62 ee1e fe61 c6bf
000002c0: 4fac efca 8a1b b2bf 6481 e325 adb4 c13f
000002d0: 7737 a93f 2421 c23f e26e 5cfd 0520 b83f
000002e0: 234b e6fe 8835 c9bf b343 2c2e e9d8 a03f
000002f0: f579 5172 b11e bb3f ddd4 74aa 5de8 d6bf
00000300: 5bd7 0c3e dd66 c0bf 03f9 0ed4 cd6a b73f
00000310: 38be 11e1 efc5 bc3f fc6f a112 a40e bdbf
00000320: 9eb3 fed8 186c cbbf 3c6a d2d0 87d7 b1bf
00000330: 947f 825f 26c0 bdbf 9a6d d5b8 765d a1bf
00000340: e087 fd62 5bd2 78bf 8f0d 323d 1382 c0bf
00000350: 52d2 b776 101a b2bf 8c31 a116 b204 693f
00000360: b97a b0a4 7486 b2bf 21f1 029f 2429 b3bf
00000370: 16be dd91 8175 b93f f70b 4614 4343 cb3f
00000380: 2d1e 7804 00a2 c8bf 5541 97e9 ad66 c3bf
00000390: b386 b22b b17b c83f c9e6 8c2f 81bb b8bf
000003a0: 05b4 9207 5946 aabf 6ac6 76a4 b81c 8ebf
000003b0: abaa c96b 3e46 ad3f e66e 42eb 9203 b73f
000003c0: b8b1 df34 39eb b4bf ff29 fec3 4b6b b1bf
000003d0: 164c 1d27 3894 b23f 3160 60c8 ce01 823f
000003e0: 9d79 0d9f 2e68 96bf bb88 8ba5 420a 9fbf
000003f0: 4884 ca66 4e79 d4bf 82b3 2a90 fc53 a23f
00000400: 3cec 2158 89f6 bc3f d5a9 470d f073 c0bf
00000410: 33e7 2122 0fa3 c63f 6dd8 11f3 2d34 d7bf
00000420: d231 2221 4678 b5bf eeb3 07bb f655 61bf
00000430: 701e 4f09 79fb b0bf 7a21 26e5 a91d 8abf
00000440: 49fa 717d a136 a23f c21b 1ae3 bc6f b7bf
00000450: f5ab 37df aef6 cebf fe7a c84a 017c 98bf
00000460: f7fb f26f 9ad3 b13f d7a2 9b7e c6e8 a73f
00000470: 0a95 169c 96ab 9cbf 44b5 00e8 98fb d1bf
00000480: 8404 a100 2cac c53f 164b 33c5 c393 cc3f
00000490: 6b20 658b 7f01 c4bf 3f27 18b9 c8b2 9ebf
000004a0: f19a a297 1d12 b7bf cb69 8a5e e7d7 b6bf
000004b0: a4aa 6c6a 2c23 c23f 8f25 a541 0d7f b9bf
000004c0: 65ed b519 b31a c9bf f2ad 0f0a 7e48 b03f
000004d0: 424b 804d daa1 983f 9ab8 fbfd 9c69 bbbf
000004e0: a0ea 937f e6e7 913f 92d0 5231 0179 a23f
000004f0: 9d89 055a c84b b03f 3120 2f26 491f c5bf
00000500: b3ba 80f7 0200 bb3f d11e 9520 bff4 c7bf
00000510: 6930 5c7a baf0 a5bf fdae 4949 027b b93f
00000520: 429f f213 4101 bfbf 8632 33fa bcff c13f
00000530: b59c baad b03b c6bf 3781 e235 03db c03f
00000540: 263f d736 fc4f b43f 402d 3a9c 73d6 acbf
00000550: fbd0 f764 ab93 c53f cb44 2b61 f1d8 bc3f
00000560: 1382 1081 5d94 b83f f004 b0ec ec4d c33f
00000570: eb4b 1c0f 2d5b babf a5ef 65e0 8789 adbf
00000580: ee2a 7fe3 0e6f 9f3f bf1a 613a 40bc b93f
00000590: d78b 5014 c61d c0bf cdd2 5313 2afa c8bf
000005a0: 0f8f c915 43d7 bcbf d7b2 12fb ad22 abbf
000005b0: 7fe4 d4fe 0aab b9bf 3f73 edc8 5c64 ab3f
000005c0: 0008 1af0 b37a d0bf c365 479d 1fc3 823f
000005d0: e083 5b9c f3f0 b2bf 96e3 2c8a 458e c43f
000005e0: 02a6 d47c f711 7fbf 64ad 1ce7 7fbb bfbf
000005f0: f46a c742 a06d b03f 2c42 324b 495b a63f
00000600: dda7 3771 1ed6 afbf 8f56 bd3c 082c cbbf
00000610: 50ad 4b15 e9f0 b9bf 8cd4 3014 1c9b cebf
00000620: 8622 83a9 d1fc c93f dc5d 1aa6 6c2e b5bf
00000630: 7f43 8085 776b c03f e676 9ef4 8446 c8bf
00000640: b723 8a71 ae7e cbbf a282 596f 5290 c0bf
00000650: 498b 8a20 72fe 733f 6fcd d86a debe 9f3f
00000660: 4ca0 1492 0ab8 c7bf 8119 0270 20d6 bfbf
00000670: fbbf f6b2 80e3 c03f ce5c db3a b2f2 bdbf
00000680: 21b3 a02c 9303 c0bf d6b1 ee03 2b5b c9bf
00000690: efd2 e64d 6ed9 c3bf 6ff5 7e26 4991 d03f
000006a0: 3ac3 2a68 7aae 913f ea91 7be9 89e8 c03f
000006b0: 97f4 561f 978b c4bf 730a 622e 753e cdbf
000006c0: ed5e 080e 406d a83f 7807 a2f4 97b2 b43f
000006d0: ced7 acc0 ed52 c73f d499 7b99 c0fd c1bf
000006e0: f3fc 966a 43e6 923f ef8e 11ad b99d a43f
000006f0: 5ce8 f509 1cfa d4bf 54d2 7fae cb38 c53f
00000700: 3577 532d 1e2e a8bf 68c1 1c9a 7b94 d1bf
00000710: 61dd dc38 dd7f b7bf 1c0e 8bad 238e 9dbf
00000720: a37f 135a 913e d53f 92a1 568d 3e43 b93f
00000730: 1e08 7621 30f0 a73f 8ce0 84cf 3dde d0bf
00000740: 42d4 9294 f81c b5bf 58b0 4a5e d5b2 c6bf
00000750: 85b8 ed09 bfdb cfbf eea7 5098 315b 723f
00000760: 74a0 1aec c5d3 c9bf b94d 5c40 8906 dabf
00000770: d8b4 27a1 3121 a83f 82b3 969a 8c4e 8a3f
00000780: cfe0 cd2e 830a a93f 665f e64a 6ea1 adbf
00000790: f523 1b5d 92fa a93f 9ca8 de6e f6f3 b1bf
000007a0: a1f9 59e3 c8d6 a63f 57b1 9466 ab80 b23f
000007b0: 2e44 aa8a 2a4d a4bf 5f83 5a7d 9244 b53f
000007c0: cbf3 edc5 edfc b0bf 4a21 79db fc9c cbbf
000007d0: 0bc5 eeed 39af d2bf de3c 571f 1e9e d0bf
000007e0: bf03 e115 32cf b0bf 778b 191f 75cd c8bf
000007f0: e49b af6e 9307 a1bf 1da8 0d31 d240 c3bf
0.08765696935017199 0.06679840516008596 -0.19869301713316984 -0.05487409521785059 -0.0036189056611093777 -0.03163873380856659 -0.1701553037331265 -0.14585552367667828
-0.0942100169897914 -0.03256017429154129 0.05870720979127274 -0.19199581989169667 0.015653310767825973 -0.1538808158492445 -0.11307892104014318 0.05078468420325913
-0.18363618524088365 -0.06122618727284954 0.031213777448421767 -0.041827682116979535 0.001715830594393953 -0.13557497777911845 -0.08574219423227039 0.0418423584556493
-0.18916448375891046 -0.07234966487426146 -0.10800659734241526 0.03578838865410546 -0.01826779180870439 0.4295164518010787 0.1086063233184685 -0.03781891962283058
-0.15397454157219745 0.08752781392436394 -0.07064086639314819 0.06208035949112422 0.006223851985763292 -0.028263603534431563 -0.20436819036710557 -0.0017401340101309518
0.0057459815509238316 -0.057376634750963204 0.07988003029300432 0.0394273893861898 -0.007533229511076065 -0.04442732669197795 -0.20133301724119868 0.07296345303180142
0.0746990769512165 -0.16573883656161154 -0.001968882223317136 -0.04393340441653677 0.2729336136226584 0.013419226813291189 -0.15248954293997774 0.01928148686129488
-0.027204782343647503 0.17401875619683704 -0.016126333088362085 -0.18425859176914536 -0.2912444322000713 -0.0947465252182122 -0.08570540814662944 -0.13229403139488624
-0.043570162243562215 0.1791746445505453 0.16837257780707496 -0.14065708725179193 -0.08259872251636821 -0.03163622769680033 0.00016810629037574288 0.16748690821869736
-0.13562111305316513 -0.15577373903732925 -0.07321145343181418 -0.1775029525258386 -0.30216951343906273 -0.08902731271568827 -0.21211731173114454 0.06819431793270928
-0.11527012708895823 0.13190029859996064 -0.18906723918944468 0.09558993932580388 -0.031040742280719933 -0.24269760586274067 -0.12578959344688007 -0.1748654986411306
-0.07073275999543792 0.13832630491288989 0.14163640125701324 0.09423863826344417 -0.19694626280087232 0.03290489853510028 0.10593709031079597 -0.35793248792772464
-0.1281391671160986 0.091473449966518 0.11239527935844584 -0.11350465254639625 -0.21423636050658684 -0.06969498489562737 -0.11621322471410017 -0.03391619688292309
-0.00605998704836172 -0.1289695786291358 -0.0707102098311421 0.003053996876621839 -0.07236413021790157 -0.0748465431415224 0.0994492512816055 0.21299017419741492
-0.1924438497373883 -0.15157102495005384 0.19127478250179805 -0.09661109362505295 -0.05131796090550015 -0.01470321895507994 0.05717654290932236 0.0898982834209466
-0.08171422520508187 -0.06804345641118202 0.07257414774839818 0.008792510499958524 -0.021881798227121874 -0.030312577585285477 -0.3199039462870741 0.03579701671456005
0.11313684846565847 -0.1285381378978189 0.17685116926787145 -0.36255978333736644 -0.08386648472714534 -0.0021161860424769785 -0.06633717038413933 -0.012751891427584584
0.035573050082338194 -0.09154873413545686 -0.24190317057886515 -0.023910541715049576 0.06963505967267723 0.046697810130188415 -0.02799830749213065 -0.2809812799121867
0.1693167689391296 0.22325942162441298 -0.15629572206876516 -0.029978882119429114 -0.09012017204313928 -0.08923193033334724 0.14169841000087502 -0.09959490635551148
-0.19612730746653564 0.06360614534030853 0.024054919224066447 -0.10708028031123931 0.017486192261439215 0.036079442282614185 0.06365635106843688 -0.16501726498086236
0.10546892683553714 -0.18715657320921378 -0.042852237164056124 0.09953321732762883 -0.12111288773541865 0.14061701027675982 -0.17369659884318414 0.1316837323293016
0.07934547747504136 -0.056323635884008016 0.1685690157897922 0.11268528578081598 0.09601387406338117 0.1508155971242 -0.10295373553189761 -0.057689901487690855
0.030697090754794702 0.10052873063350896 -0.12590862266469457 -0.19513441032144954 -0.11265963823239765 -0.052998959444584486 -0.1002661583087434 0.053500079657828874
-0.2574891896002782 0.00916123102881528 -0.07398912970849336 0.16059178587763928 -0.007585493801607781 -0.12395476715453452 0.06417276029916846 0.0436652092258821
-0.06218047267959979 -0.21228125539589768 -0.10133225221550402 -0.2391085718715299 0.20302792336430658 -0.0827396302723779 0.128279628931093 -0.18965208000456996
-0.2148035101311316 -0.12940435826296431 0.004881330307997819 0.031001544257561017 -0.18530399449196222 -0.1243610642869495 0.13194283235998214 -0.1169845002835814
-0.1251090972813467 -0.19809472743999262 -0.15507296375076104 0.2588675380646554 0.017267143829204225 0.13209651852152088 -0.16050995855576808 -0.22846855892938187
0.04770851298616017 0.08085012171252781 0.18221828372924026 -0.14055640692022442 0.01845650995323651 0.040265848518883256 -0.32776547405922485 0.16579576511834893
-0.0472268514947544 -0.27468767213851786 -0.09179480207682424 -0.028862531153903345 0.33194383427143687 0.09868231726307489 0.046754364094354836 -0.26356454148800235
-0.08247331263812988 -0.17733256439294354 -0.24889362320704236 0.0044815003684934695 -0.20177530315891412 -0.40664893422328025 0.04712824909425145 0.012845133273765578
0.04890832849827264 -0.057872244494489064 0.050739835610848084 -0.07012882429867989 0.04460742736135904 0.0722758412782175 -0.039651231219189106 0.08307757912053891
-0.06635938722861494 -0.21572838512862297 -0.2919449637948481 -0.259650736433242 -0.0656615546622694 -0.19377006548446804 -0.033260924588652846 -0.15041568179305012

model.sequential_layers.0.Linear 0.weight f8 [256, 31]
00000000: b689 1076 d5a3 bbbf f385 48b7 6d71 b5bf
00000010: 5924 e6ae 41ac b0bf b2bc 2602 6797 bcbf
00000020: 0148 5f3f 97fb b7bf baf8 b0ed 790c 8f3f
00000030: b950 731d 958b c23f a6b6 4153 f97a b4bf
00000040: d230 50fa 7a38 c33f f90d c63f e5a2 c03f
00000050: ba35 ee09 bad3 c2bf 6680 b65f f657 be3f
00000060: c1fc 9f34 170c c13f 6156 974c b63e a13f
00000070: c46b f3f4 0ab5 aebf 7d21 cc0e df2f c23f
00000080: 2e22 597c 5d2b a4bf fb6a e490 c646 c7bf
00000090: b471 c32f 9956 b0bf 47b9 1e88 8ea4 a23f
000000a0: c062 c567 57b8 62bf 4d1a 4d14 08a3 b93f
000000b0: 5d2f 6526 fd20 90bf 707c 5f0c 8e29 a33f
000000c0: 8507 5ca9 bc9b c53f b392 aaa9 17ed c43f
000000d0: 4ccc 12d8 98c7 9e3f 6fcb 41cd 248f a5bf
000000e0: 5ecf beda e2b1 acbf cfa4 0c91 164d ca3f
000000f0: 254e f0a6 c880 953f 018d dfa7 f05a b8bf
00000100: b958 33ab e8ad b4bf 5162 54cd d6f7 b33f
00000110: 0437 dd31 5f75 b23f 7fb2 4e1f 5f54 983f
00000120: d80c 0f2c 39fa c0bf 13eb 7da9 1239 a4bf
00000130: f3ab 28b2 6782 b7bf 9573 efd6 cdf2 c43f
00000140: 3e3c 2ee1 f6f9 ce3f 726a b70e c9f1 57bf
00000150: 9921 f456 9c96 c6bf b463 fef8 7ac8 a23f
00000160: 1289 6ee8 d89d c83f 445b 083c 071c 853f
00000170: 135c 6a5a 86f1 a9bf 1da5 ac91 f5d7 ad3f
00000180: 02e3 aedd b4ff c53f d36a 8269 987b aabf
00000190: cb30 0531 c598 843f 2b00 3c50 245e b93f
000001a0: 5897 d0b5 e672 b63f 183c d9be 9c4a b5bf
000001b0: 8ba4 e5e8 9349 a9bf 182d e765 bc73 943f
000001c0: c4c0 c1de 0890 c4bf 6632 1a57 55fc be3f
000001d0: 1334 1152 5fdb c5bf a982 c5e0 1e0d a4bf
000001e0: 1d0c b586 3ee8 b93f 6b82 b09e 53e9 d3bf
000001f0: 44d2 2480 87ea a03f dc57 af3b 2881 c63f
00000200: fc89 0ccf c725 b2bf 8d81 f431 00c1 a4bf
00000210: cccc 7ee6 7343 cfbf e4bc 865a 7b58 aa3f
00000220: d275 42f7 29e2 b5bf 3945 2432 58cd b43f
00000230: b9f3 e4c4 ea8c b53f 9978 4347 8356 b83f
00000240: 6015 c6c9 4d4d 52bf 1fea 5f47 55ed c33f
00000250: 34f1 9c9d a3f0 b5bf 1af1 cd09 59a1 c33f
00000260: 7c98 708f 0c1a b33f 4722 5c7c 21d2 c03f
00000270: 9532 3161 285e 6ebf 8829 c13c 06bc 9ebf
00000280: 737c 9d01 d2cd ab3f 91c0 6d94 9f21 b03f
00000290: f081 e8ea df45 813f 22a5 301f 21e2 a4bf
000002a0: a6f4 3bea e65c abbf d46d 0438 6506 b83f
000002b0: 10c6 7626 8b46 bcbf 3034 4d2b ce81 b03f
000002c0: ca54 266b 15dc bbbf 3343 be62 5bd9 9dbf
000002d0: e9db 5483 88cb c3bf 4aa4 d730 eba9 acbf
000002e0: 987b a8c3 4129 cebf 4321 db02 0026 67bf
000002f0: a3ed a161 5959 b43f 0c5a 5581 b6ab 7ebf
00000300: 6ae9 4a4f 90f6 cc3f 0818 c968 593e b0bf
00000310: 8b1c c395 d34f cdbf 8378 d36f 9947 95bf
00000320: edbe df11 a95c acbf fe0d d9c6 3c8e b1bf
00000330: b81f 7ca5 513b b23f 62b3 9dda 78cc c13f
00000340: 3ff8 d71b d0ae cf3f 9e7c 316b 51db b1bf
00000350: 8940 408f c2c6 a4bf cdc1 9ef8 65fa 973f
00000360: c25a 3f37 3882 c1bf d947 f636 b755 81bf
00000370: 1b0e 4037 a176 a5bf 1945 0a0c 8762 553f
00000380: 8024 34cd 802b 9b3f 43b4 b031 627a a63f
00000390: 1f6e 0ee0 4582 ac3f e2a2 f342 6ff6 be3f
000003a0: 139b cfc4 a475 b0bf 98b9 6fa7 d923 ca3f
000003b0: e56d fbc9 a5ad 7abf 4506 2279 7f4b 943f
000003c0: e1f0 422e e4dd a2bf 3524 1a7f 171b b63f
000003d0: 5181 2b28 a981 bb3f a8d7 197f 1393 a4bf
000003e0: 1d77 f4b0 a24e 733f 9d6d d608 9dcf b13f
000003f0: d1cf a1be f03e a0bf 0f18 b17e 08de c0bf
00000400: 4d18 dc49 027b a7bf 9c2a 0ed0 0c79 c13f
00000410: d0bd dfdf 713d b2bf 3062 2cc2 e122 c1bf
00000420: 0050 b2bd 144e 7ebf 7a98 6027 21dd aa3f
00000430: f301 6cdd 743a cb3f c995 41b6 e45e b6bf
00000440: 6ccb 12fa 7ed2 b4bf d1c5 445c 33c8 a03f
00000450: 7fdc 8fe4 b25e c6bf fd85 1146 5f88 b13f
00000460: 4a1a 1a9c 7616 c13f fc35 bcd5 99d1 bc3f
00000470: 67a9 6e78 fd2e a9bf 320d 7a81 8250 993f
00000480: 903c a8da fffe c43f 77dc 9c31 6b5a c2bf
00000490: adfc 1352 2bb1 bebf 6924 0614 1ad1 b03f
000004a0: 68ae 97fa 041a 843f 724f ab94 7bc9 bb3f
000004b0: 9a47 16c6 0e1b b6bf ca68 52c0 43ba b73f
000004c0: 2372 0db2 7f1f c1bf 6def 2433 c61b b3bf
000004d0: c102 3388 6ebc c73f 380e 3c6c d55c a3bf
000004e0: 8330 1e05 c376 d9bf c65b c403 b7d7 b8bf
000004f0: 942b 2ce7 229d bc3f 26d0 f57a b363 a53f
00000500: 3f1f 3dcc 2dd9 c2bf 4af4 b101 867a c7bf
00000510: a3f1 2561 a773 d5bf 4b0f 41c3 d6c1 aa3f
00000520: e552 1d13 c7fc 87bf 91e3 0466 5ea7 b2bf
00000530: 44e2 cbc8 47b8 b4bf 1f05 0e3d a4bb 853f
00000540: 869e 2eee 244e cebf 7e11 5d43 87f9 8a3f
00000550: 3426 5792 ff0d c13f 3804 ce11 948c c33f
00000560: 2aca 74f3 bbc4 b9bf 55f4 ee07 d8d5 b83f
00000570: 2a54 b270 70b6 63bf b9d3 68e6 ccd0 a43f
00000580: 260c 0961 f92e d1bf c85b 06b2 d254 a3bf
00000590: 34a8 8005 8161 ccbf 1d73 0db0 07f1 c83f
000005a0: fc94 0c64 279f c8bf 527d bee9 683a c33f
000005b0: a771 4435 9492 b3bf a41c dd13 a33a c13f
000005c0: f6e6 7704 fa47 acbf de66 d525 c7b9 b0bf
000005d0: 43b7 ac71 31fc 8b3f 11d8 95e5 2d26 ac3f
000005e0: 14d5 a322 2161 bb3f dd78 cbcb 8202 aabf
000005f0: 02a6 e462 696b b83f c99a 1075 bb7c ba3f
00000600: aef6 7215 398c c9bf 98f6 84ea 9b37 b23f
00000610: 3510 079f 08d7 d03f 8057 dcd8 a95a c03f
00000620: b2c3 cdb6 e2c0 a93f 99f9 7358 b6b7 bb3f
00000630: 19ef 052b ec60 a8bf f62b 4f72 1fea b23f
00000640: f139 3dcc 6a5a b7bf 8b5c d2c4 5a73 aebf
00000650: 3252 1795 b315 95bf 996c c214 f458 babf
00000660: 528c 1536 2a70 c63f bd9d b392 55b4 a63f
00000670: 6010 c9a9 63bf b2bf d44c bfa6 6fc2 bc3f
00000680: 9eb3 1e78 b319 b4bf af74 086d 9150 c03f
00000690: b7d4 e6ff 518a b1bf af6a 84af 7df4 b9bf
000006a0: b139 2f23 2c5d a9bf 92f3 706c 5071 a5bf
000006b0: 228c 9627 f14f c53f cf50 3ff0 d3f3 ba3f
000006c0: 2bfe 6e99 d869 d2bf 66d4 033b 60ca 643f
000006d0: d9e0 6872 88b7 bb3f b126 61b5 dcf8 bc3f
000006e0: ed45 4d28 44b5 803f 155a cf10 c38d b1bf
000006f0: a56b 25f6 224b 7c3f e482 1a6d 00a2 b8bf
00000700: 773e 56ce 3220 b63f 1f08 b543 1b7f 9a3f
00000710: af21 78c4 8234 b8bf bab2 c60a 15a9 c3bf
00000720: eaef bb32 809d bdbf 8ced a9a8 b882 bd3f
00000730: 77da 7570 9e2e babf 4ee6 4369 7fc5 afbf
00000740: 0193 2a3c ab95 a53f 2927 1bba efcc abbf
00000750: 91db f6df 6284 9b3f 59cd 534e 1c58 c33f
00000760: 3ab9 fad1 6140 b0bf 6a6b 6cf7 82f9 a23f
00000770: f5ed 158e a28b ac3f 931b d6c8 3985 c0bf
00000780: c58e 52fa 0cea c0bf 9c46 f90b ce87 bebf
00000790: aa5b de6a c55e bfbf 7fc9 e89f cd85 a0bf
000007a0: 0d55 dc42 46cf c2bf 39d0 57a6 fdb4 b9bf
000007b0: 9ee8 7c3f 2bfb c03f c8a0 e1a1 1917 c4bf
000007c0: 280c d19e f51b c43f 8d2c 700c 7c14 c4bf
000007d0: cb80 7c6c affa 90bf 841c bea3 4360 9d3f
000007e0: fa39 b872 d386 b6bf 8911 9ac3 24ad bcbf
000007f0: 8044 740f 63ca b0bf 618c c558 ebaa a0bf
-0.10796865589558177 -0.08376203274431031 -0.06512842674250531 -0.11168521692774183 -0.09368272111103694 0.015160515371573136 0.14488471925745275 -0.08000143320688355
0.15016114446951306 0.1299711762804774 -0.14708638653648426 0.11852969967594759 0.13318147725656185 0.03368158039999681 -0.05997499694941369 0.14208591673401463
-0.03939335005685894 -0.18184740137879615 -0.06382138649082131 0.03641171847935936 -0.0022851664672710326 0.10014391418108311 -0.015750842541179966 0.03742641354596621
0.16881521481996856 0.16348548683631278 0.030058277309489775 -0.04210772519663563 -0.05604466362220138 0.20547754366388069 0.02099908369934957 -0.09513763521640685
-0.08077863864613989 0.07800047409944823 0.07210345237146149 0.023759352002957087 -0.13263620997722714 -0.03949793166153461 -0.09183357333738211 0.16365979189768312
0.2420033072962457 -0.0014614547206891729 -0.17647127385886277 0.03668579377626405 0.1923171172066494 0.01030736591296278 -0.05067081311897694 0.058288263351935245
0.17186604332325578 -0.051724207763262385 0.010057011183242889 0.09909274062010869 0.08769075335348242 -0.0831697431506061 -0.049389478854956335 0.01997274753538844
-0.16064558865355683 0.12103780151864782 -0.1707572127074007 -0.0391626023654273 0.1012000159144439 -0.31111612793941984 0.033039316551740444 0.1758165637426704
-0.0708889847269702 -0.0405349789600705 -0.24424599413541725 0.05145631294305433 -0.085482237688175 0.08125830864107265 0.08418147379866427 0.09507008066018087
-0.0011170634889777417 0.15568033204165574 -0.08570311162924754 0.15336144427045256 0.07461622716854949 0.13141268322239538 -0.003707007280843231 -0.030014131029284324
0.05430465955463939 0.0630130517363361 0.008434056621866554 -0.04078773027169748 -0.053443161099474154 0.09384758584604153 -0.11045140923558727 0.0644806724278204
-0.10882696023903118 -0.029149463559920718 -0.1546488419787402 -0.05598387690754032 -0.23563406041736523 -0.002825737020291681 0.07948835977179285 -0.007487976942988538
0.22627452727995073 -0.06345137413254076 -0.22899861157040777 -0.020780942392655277 -0.0553944429701668 -0.06857662062343903 0.07121763506086054 0.13905249285326265
0.24752236709167794 -0.06975277773880115 -0.0405789184443402 0.023416131305283906 -0.13678648660307685 -0.008464270939644013 -0.041920698160563506 0.0013052290743512161
0.026533138775481024 0.04390246254511301 0.05568140373290142 0.12094779381335344 -0.06429509930567816 0.20421906161886905 -0.006513259518864588 0.019819251793256738
-0.03684914650645666 0.08635088780478457 0.10744721632682298 -0.040184602036716754 0.004713664543741361 0.06957417932283368 -0.031730197210805174 -0.13177591501352068
-0.0458603587303946 0.13650665434791598 -0.07125007358239732 -0.13387701016542186 -0.007398682612933527 0.052468334252169194 0.2127214509164471 -0.08738545846571023
-0.08133691411312122 0.03277740956617559 -0.17476497802974575 0.06848712406783615 0.13349802610555833 0.11257325618881703 -0.049186631156163334 0.024721182968744766
0.16403196503276662 -0.14338436052796386 -0.1198908877740787 0.06569064129702586 0.009815253159977291 0.10854313258761097 -0.08635036789044506 0.09268592305525938
-0.13377376741381494 -0.07464255093230827 0.1854379811320737 -0.037817639791708435 -0.39787364482686643 -0.09704154817551033 0.11177271026478613 0.04177628398875326
-0.14725277397723777 -0.183426619365408 -0.3351839493477888 0.05226012357209572 -0.011712603827314047 -0.0728663443632185 -0.08093689586883906 0.01061180411648138
-0.2367597735403601 0.013171250098488182 0.13323969502953192 0.1527276122033372 -0.10065817540888902 0.09701299852072627 -0.0024063297365253438 0.04065552055946093
-0.2684920737849005 -0.03775652335314522 -0.22172558563880929 0.1948556527740032 -0.19235699067318268 0.15022002614294167 -0.07645536709282529 0.1346019598952114
-0.055236638112502165 -0.06533474610969445 0.013664613992286362 0.05497878482394481 0.10695082755758661 -0.05080040681581164 0.09538897194274656 0.10346576316861013
-0.19959176585500898 0.07116102672167768 0.26312461404836834 0.12776682938482153 0.05029972535601902 0.1082719770383619 -0.047614460231640794 0.07388493099931268
-0.09122340666110752 -0.059473835493173054 -0.0205905971286759 -0.10291982180426586 0.17529800072506646 0.044344591291344916 -0.07323286910201565 0.11234186001756835
-0.0785171669255775 0.12745874236944618 -0.06851685044860543 -0.10138688597764188 -0.04953897408960318 -0.041880143392041394 0.16650213654529106 0.10528301825917484
-0.28771033271547947 0.0025379065992817028 0.1082692412682066 0.11317233494005553 0.008158237914957811 -0.06856936607741944 0.006907593315498871 -0.09622194923077704
0.08642880952378983 0.02587549782516174 -0.09455125137913599 -0.15359747911624827 -0.11568452108980379 0.11527589910286035 -0.10227384801496862 -0.062053662872085455
0.042157507986564376 -0.05429791590502326 0.02687220088929682 0.15112642120912304 -0.06348239304017947 0.03705987234407966 0.05575283035701865 -0.12906572634184652
-0.132142660358218 -0.11925971786811335 -0.12253984316917746 -0.03227083756464121 -0.1469505144565705 -0.10041795073613081 0.13266506767269431 -0.15695495991099606
0.1571032548400535 -0.1568751393063831 -0.01658128833435128 0.028687531346375042 -0.08799478102466898 -0.11201696181712441 -0.06558817984866216 -0.03255401095045652
