Data/Breast Cancer Winsconsin (Diagnostic)/results/models/bcw_8.onnx (onnx, 416707 bytes, 5 tensors)

model.sequential_layers.4.Linear 4.weight f8 [1, 17]
0	0x3fdccc26f12c989e	0.44996045639198623
1	0x3fdd271d35dc2d79	0.45551233539364194
2	0xbfe3cbcdb8f99b87	-0.6186283695977729
3	0x3fdb626fcdbdb10a	0.42788310138600194
4	0x3fde6f955b8af9dc	0.4755605119679822
5	0x3fdb92676020d37a	0.4308107794525352
6	0xbfe2aa0d7627ddea	-0.5832583720902538
7	0x3fde63612485d3e5	0.4748156410853979
8	0x3fe0223e2fa3c434	0.5041800432646881
9	0x3fe790d2b0852445	0.7364285895975021
10	0xbfe501fdc81d8456	-0.6564930828573192
11	0x3fe7f240e913c72f	0.7483219673433491
12	0x3fdde2c9ee3753b1	0.46696708930295033
13	0x3fe61d7780c0d169	0.6910970225058409
14	0x3fe0722e2238eb74	0.513938013878358
15	0xbfe566620e46a899	-0.6687479285076449
16	0xbfe070b1367feb46	-0.5137563766905735

model.sequential_layers.3.Linear 3.weight f8 [16, 65]
0	0xbfbbe9f455ee21e1	-0.10903861139207251
1	0x3fbdaff050779acc	0.1159658619359149
2	0xbfc9ed99933b77ba	-0.2025634735973066
3	0xbfcaa0a530441326	-0.208027504508345
4	0xbfc9ca2d5a3e3c13	-0.20148245722199984
5	0xbfd29b3cc3012d2e	-0.29072493594567816
6	0xbfc79bafbaceae7a	-0.18443867322399737
7	0xbfb3eef0075edbd1	-0.07786464862770905
8	0xbfd0419bfd9b0a9a	-0.2540044762246595
9	0xbfbbb0348b062ec7	-0.10815742868561094
10	0xbfb3c7ce8167cb51	-0.07726755770981454
11	0x3f7d373ce749316d	0.0071327570954732135
12	0x3f9e745f4a881d88	0.029740799831441872
13	0x3fa0456f3b6489ad	0.03177974319466457
14	0xbf74e31b09fed76f	-0.0050993972981155785
15	0x3fd8c84f57e998c1	0.38722594819263284
16	0xbfc33e18491d1be6	-0.15033248491292212
17	0x3fb2eb43afcf789b	0.07390234987494397
18	0xbfd245bcd3e8324a	-0.28550644582791007
19	0x3fbe55ad1c30ed48	0.1184948152376154
20	0xbfb36daa8923b287	-0.07589212272768907
21	0xbfce1d68238f097a	-0.23527242409006616
22	0xbfd64c96292cf979	-0.3484244730097071
23	0xbfd9c48311a69f66	-0.40261913989751574
24	0xbf86be3a10bce7c9	-0.011105016361046343
25	0x3fbfcb63036790c9	0.12419718583220453
26	0xbfcc19850eca7ee6	-0.2195288011762308
27	0xbfc1a74c40261fe8	-0.13791802532455155
28	0xbfc99fec2d3f2b90	-0.20019294938387278
29	0xbfd65d733a6f9dbc	-0.3494537420906132
30	0xbfbd618e2c95c2f2	-0.11476982677937622
31	0x3fc870480182b734	0.1909265525222793
32	0xbfcc0579851117ee	-0.2189170741787047
33	0x3f9484783e1eb191	0.02003658179425966
34	0xbfbb6411f0683b19	-0.10699569815936306
35	0xbf5de8c401f80c25	-0.001825515187989132
36	0x3fd32700d791c361	0.29925557185838697
37	0xbfd05c35ae5149dc	-0.25562803290554625
38	0xbfb9592f35171f79	-0.09901709600592125
39	0xbf75e4d8cf40b736	-0.005345198547770205
40	0x3fd0026eb8caa5f6	0.25014846845678507
41	0xbfdcb7f08766e4fb	-0.4487267801556098
42	0xbf9984a0bfbc6402	-0.024919997885351826
43	0x3fd077b4defbd80f	0.2573063066078029
44	0xbfbcb5549255d3b7	-0.11214188168180682
45	0xbfcbae3ca5a638cf	-0.21625478828759134
46	0xbfb5768349651c10	-0.08383961240643623
47	0xbfbc0a6678f22e50	-0.10953369572433158
48	0x3fdb311f1f279006	0.42487314264712983
49	0xbfc74cd8b5578c7f	-0.18203266958798633
50	0x3fc80a762656ed29	0.18781926033066412
51	0xbf9fbc4bcea066a4	-0.030991730200276138
52	0x3fd126a6f6597349	0.26798414285240263
53	0xbfc4ddcd8b9ad293	-0.16301888767852243
54	0xbfb5da9c8cf3cc8a	-0.08536699715823395
55	0xbf8f03ceecc55ec7	-0.015143982506443788
56	0xbfb9ddd4ad373db7	-0.1010411188974477
57	0x3fd030cb1621bec1	0.25297810708341834
58	0x3fd19897ec8e2c91	0.27493856526479826
59	0xbfb202ef15b79a79	-0.07035726814465616
60	0x3fb7862cfb7757ba	0.09189110888777821
61	0x3fc2cb0f05f14ed3	0.14682185926596122
62	0x3fb492ec5256f3a8	0.08036686907048696
63	0xbfb096396d1ebdad	-0.06479224123062606
64	0x3fd204278c1116ab	0.2815035693969132
65	0xbf9a5166be383755	-0.02570114646919504
66	0x3f968e945ff27637	0.02202827296843265
67	0x3f5ca523278e4a01	0.0017483561807450922
68	0x3fb75845cb39e034	0.09119068347524789
69	0xbfc8ba9f027acf54	-0.193195224963001
70	0xbfc500a451242583	-0.16408208810780076
71	0xbf9733de3afadade	-0.022658798551414054
72	0x3fb7536a24600a1d	0.09111655605378428
73	0xbfd2765711eac2a2	-0.28847290754041854
74	0xbfbc3608ae3d353c	-0.1101994920147335
75	0xbfc3c35468b7ce48	-0.15439849007781192
76	0xbf831044594a8936	-0.009308370566320261
77	0xbfd360a5726084e0	-0.3027738205874595
78	0x3fbb34f84dc1b186	0.10627700708727703
79	0x3fc4dfe5aca9f17f	0.1630827992520487
80	0xbf6853b38c0a888a	-0.0029695994165460137
81	0xbfcf7abe429e905d	-0.2459333253183357
82	0x3fbf207e4f11f4ec	0.1215895598451941
83	0x3fc9354f0ebf9874	0.19693935604226775
84	0xbfc138377e9ff112	-0.13452809985017972
85	0x3fb218208fb964ff	0.07068065174953019
86	0xbf7c2c8770d75694	-0.006878403726167232
87	0x3fc8787a2a6c3a6d	0.19117667266296526
88	0xbfcc268a089be9b3	-0.2199261228596022
89	0xbf9a80050749dea0	-0.025878981180055605
90	0x3fbb75e7a65a2e28	0.10726783572516096
91	0xbfd67c2c6f970ca3	-0.35132895371880063
92	0xbfd0fd5aeb68f532	-0.2654635714460084
93	0x3fc4a74b5e918aad	0.16135542028049113
94	0xbfaf2df9f32a4fba	-0.060897646840345
95	0x3fb8e3d38a808362	0.09722635394474602
96	0x3fc80e55e6e74641	0.18793748640614363
97	0x3fca66a12e1def2a	0.20625700713923695
98	0x3fc99b7e887f4415	0.20005780854128888
99	0x3fa6f79f9330fb67	0.044857966153805155
100	0x3fc022c0ffe0e098	0.12606060499252147
101	0x3fd3fc3071155c8c	0.31226740878396053
102	0xbfc522988b573f4f	-0.16511828235388257
103	0xbfab78eb95ccc45e	-0.05365692332851134
104	0xbfcb05546d44f2aa	-0.2111001523534431
105	0x3fccef20e891d419	0.2260476241678198
106	0xbf85a1e224d41916	-0.010562674282948364
107	0xbfc6953de35fabcd	-0.17642949678642453
108	0xbf6334dc7c2c90d3	-0.0023445421551447714
109	0x3fb69c89dd15c5ee	0.08832608840545905
110	0xbfbc3fabded54ceb	-0.11034654798759262
111	0xbfc5cc1f255ca4ea	-0.17029179882346251
112	0x3f7d4add2957a47c	0.007151473915180447
113	0x3fd58ecbac0464dd	0.3368405513625257
114	0xbfd1bcce276f7587	-0.27714876032936114
115	0x3fc00df96d038be4	0.1254264623922544
116	0x3fb94326bea72602	0.0986808982335319
117	0x3fc11ee783ff22bd	0.133755626155354
118	0xbfb864c4ae2214db	-0.09528760196015489
119	0xbfc4523db6a9574f	-0.15875979823129646
120	0xbfc23ef8aa59f109	-0.14254673307358015
121	0xbfa364cd1389cb27	-0.03787842620376685
122	0x3fb89c75f176a2f0	0.09613740105727309
123	0x3fc0edc2a2f78732	0.1322558685051774
124	0x3fcb5b4e3b7c28a7	0.21372392563381945
125	0x3f6b0b524ee1321d	0.0033012969570676135
126	0x3fc41e2cf14de04a	0.15717088491851633
127	0x3fd00005335def7e	0.25000123993208223
128	0x3fa47057e0868b57	0.03991961112776348
129	0xbf79cecd1d25f84a	-0.0063007366428547516
130	0x3fc64b56ab2d844a	0.174174150069151
131	0xbfda0ed1b8392062	-0.40715449324171094
132	0xbfc6962b3749374b	-0.1764577884627506
133	0x3fd60fb64934cfa4	0.3447089877038201
134	0x3fd37b51b37f597d	0.3044018032936931
135	0x3fc117ed0a86ce72	0.13354266180032287
136	0x3fb3da74b7fb2515	0.07755212299084165
137	0xbfc576de9ab01074	-0.16769011071312756
138	0x3fa05e1e0a98665c	0.03196805838906577
139	0xbfc1d4b9b7920f48	-0.1393043657627635
140	0x3fc38d37ced5d534	0.15274713134173512
141	0x3fa7b6cdbe540d46	0.04631655643791048
142	0x3faf20ced03dc481	0.060797179145887455
143	0x3fa2d24ea34633fc	0.036760766440330855
144	0xbfc2138212d3b1e1	-0.14122033995899044
145	0xbfc9e0f3da180523	-0.20217750691521372
146	0x3fd15c9db61f5637	0.27127783570663005
147	0x3fc766e4b28abe44	0.18282755582684918
148	0xbfb8ab6fc00241e3	-0.09636591375079422
149	0xbfd8763da2ae4d0c	-0.3822168434791855
150	0xbfcafbf0e17301f0	-0.21081362732185438
151	0x3fbef7acc48039bd	0.12096671864876547
152	0xbfd55d86c16b9d21	-0.3338333977576032
153	0x3f898f6aaa392d23	0.012480576820186834
154	0xbfbc46d77cb2cbf5	-0.11045595926661618
155	0xbfb7b5537eed3476	-0.09261056755822658
156	0x3fc1bbe525004b86	0.13854660326668639
157	0x3fc87f6b1ee32bbc	0.1913885021989169
158	0xbfc0ecdfc1c47b2e	-0.13222882233909544
159	0xbfcf8ce4073cf356	-0.24648714402601496
160	0xbfbafa2fe434a215	-0.10538005181718575
161	0x3f9fcc13818f087c	0.031051926405560412
162	0x3f99dc2d12f1e36f	0.025253967553428177
163	0xbfce8cf72def76ec	-0.23867692702236043
164	0xbfd1f58a73392f9c	-0.28061162235530346
165	0xbfb96f750498b248	-0.09935695039957537
166	0xbfd17be96315e3bd	-0.27318796802824946
167	0x3fcdf873c23e6965	0.2341446588951143
168	0x3fc011dd3976dce7	0.12554517084001945
169	0xbfc2a95c9843842a	-0.14579350886109071
170	0x3f705957326049a3	0.003991451847485203
171	0x3fbc06db725545f1	0.10947963277182972
172	0x3fc6426e1716644c	0.1739022839290406
173	0xbfd134d35462bbfc	-0.26884921303548004
174	0x3fd3142b0edc4c78	0.29810596896385944
175	0x3fba17d618cd1c38	0.10192621331690155
176	0x3fa02702fa40deb7	0.031547635124693434
177	0xbf9300f07d856b27	-0.018558271084980007
178	0x3fcba2d8cf31697d	0.21590719334455946
179	0x3fc43716647a8946	0.15793113619026594
180	0x3fc9217fb107ca3d	0.19633480209411572
181	0xbfd8990978aa0479	-0.3843406370506908
182	0x3fa4201319715581	0.03930720983104675
183	0x3fc99aa9e3e3cf67	0.20003245952068058
184	0x3fce3b80fac20ed7	0.23619091266674871
185	0x3fc866a7b23a802e	0.19063278391422628
186	0x3fb49698fa52bdda	0.08042293654829483
187	0x3fc2ac184b2378d8	0.14587691944956904
188	0xbf9aef9f47438f41	-0.026304711079219393
189	0x3fd015d527432abe	0.251332558004531
190	0x3fd439d3cf164e36	0.31602950309136035
191	0xbfd0ef360c8d4757	-0.2646002886368612
192	0x3fabed34f97fa1c2	0.0545441202701258
193	0x3fc4e0e4e39787e8	0.16311322319876287
194	0x3fd10fd1994a797e	0.2665904995900731
195	0xbfd5818f864412be	-0.3360327540579354
196	0x3fc95b20410cb8ae	0.1980934445977644
197	0xbfc5a21f0fb2c419	-0.16901005045431886
198	0xbfc441d51a19904a	-0.15825904631049276
199	0xbfcb7aa65f70b451	-0.21468047771614576
200	0xbfb141b82163c5f1	-0.06740904631785562
201	0xbfaa39eb0654ba9a	-0.05122312977106454
202	0x3fbc70aa0a92dfc6	0.11109411962649948
203	0xbfce41162bdbefd7	-0.23636128560599332
204	0x3fcceaa46705d433	0.22591071157845163
205	0x3fb1ff834112a20e	0.07030506457034155
206	0x3fc2b88b1a5a9290	0.14625681673819146
207	0x3f8211185df5e829	0.008821668975304746
208	0x3fba7717d10e4ca6	0.1033797154798771
209	0x3fd2c45731e6c07b	0.29323367951565843
210	0xbfe2bc7e74be317b	-0.5855095176826092
211	0xbfbc034a3cfad04b	-0.10942520130885318
212	0xbfc98c001d1ebe52	-0.19958497449759932
213	0xbfa785a1e3112e7e	-0.045941409080652015
214	0x3fd592d54c7b95df	0.3370869871999655
215	0xbf882d1153c3a60d	-0.011804709786207313
216	0xbfc45d508b55824a	-0.15909773639124786
217	0x3fce243b62362624	0.23548071189388609
218	0xbfc2a8dea282ec64	-0.1457784932625571
219	0x3fb61e7166200cca	0.08640202277460954
220	0x3fc72de14f0257ee	0.18108764989727838
221	0x3fa6455a798c7d9f	0.04349787458181286
222	0xbfd314e4195b77bd	-0.2981500861768572
223	0xbfa3886c0f9d3c67	-0.03815019312480033
224	0x3fdc9354307bcf2a	0.4464922402832935
225	0x3fb9c9abc062e766	0.10073350378925525
226	0x3fbe141a74bf7699	0.11749425268450366
227	0x3fb9e6fed32d3d32	0.10118096023255843
228	0xbfb0365a5e5dd275	-0.06332936099881599
229	0x3fc613f272148cf9	0.1724837357552145
230	0xbfbfd8b05aec8c7b	-0.12440016002487823
231	0x3fb116a53b508428	0.066751791936
232	0xbfc7091a6e2735fb	-0.17996530893871907
233	0x3fdccccbf552b027	0.44999979932140594
234	0x3f902baa800bd9a0	0.015791572633099826
235	0x3f5116935b550e20	0.001042980101673481
236	0xbfc2fc37b03f9ce8	-0.14832206827052308
237	0x3fcf28561d5accd1	0.24341846879324305
238	0xbfcf7e29abfe1930	-0.246037682514904
239	0xbfced8d2d1778764	-0.24099192836643646
240	0x3fa7351b10631ef6	0.04532703948058085
241	0xbfbcdb70b4d21e55	-0.11272339262551985
242	0x3fd27a019e1b1483	0.2886966747285628
243	0x3fa2b533302bc070	0.036538695936429444
244	0xbfbb8431518cee9d	-0.10748584977130311
245	0x3fc35f47f7a3692b	0.1513452490970136
246	0x3fd7ce43abdf8a0d	0.37196437630169116
247	0xbf9f7af544fb9e24	-0.030742485366230934
248	0xbfaa499f28142ecd	-0.05134293903583185
249	0x3f8930c0c3c75839	0.012300020193759408
250	0xbfcaa565ce559c30	-0.2081725366108187
251	0xbfc6e35d607da083	-0.17881362163030098
252	0xbfbfaac3e43d9ed2	-0.12369942018778637
253	0x3fcb693868fdcca8	0.2141485703137722
254	0x3fc54cec4495e06b	0.16641000126742553
255	0x3fc3f39b9f862707	0.15587182320842194

model.sequential_layers.2.Linear 2.weight f8 [64, 129]
0	0x3fb65602c9e6195b	0.08724992207689779
1	0xbfa4ee4007f954ea	-0.04088020417536049
2	0x3f92ae1e562a3d3d	0.01824233437451749
3	0xbfaa206c7633c0e2	-0.05102862303636059
4	0xbfbe8bfeaf92aaa3	-0.11932365213821554
5	0xbfa0b3731384a238	-0.03261909116037426
6	0xbfc3d4ab26f9f1e2	-0.15492762950078914
7	0xbf9ad12a37923bf0	-0.02618852581195691
8	0x3fc67e9c687e3240	0.17573886015124351
9	0x3fafe696eb2b84bd	0.06230613346793621
10	0x3fbb58d0de83bd47	0.10682397301183243
11	0xbfbcd6a3b08d0a3c	-0.11265013752294178
12	0xbfa0e227ef62fcc2	-0.032975433322911765
13	0xbfa8ef7174ec7ce7	-0.04870180656711814
14	0xbfc284e50f47155f	-0.14468062635402654
15	0xbfa0d4a8eb8ce1c7	-0.03287246585245245
16	0xbfadfa15a2ab6f3b	-0.05854861841882416
17	0x3f9cf61d844ce301	0.02828260536191163
18	0xbfb68a1727e1d2c8	-0.08804459308323509
19	0x3fb0040bab2cbafe	0.06256173066206469
20	0x3f6c6923469b1323	0.0034681023579160738
21	0xbfc22befbbf24f04	-0.14196583439899524
22	0xbfc068503fe3b308	-0.12818339461900785
23	0x3fa022bd9a5c54ab	0.03151505002294049
24	0x3fb07b64e77bebbe	0.0643828454157491
25	0x3fc69d1212d3098d	0.1766684142986147
26	0x3f9ada40fef50016	0.026223197518675155
27	0xbfbf5bc0ff2bfc73	-0.12249380330830366
28	0xbfc82e53edd848df	-0.1889138137199273
29	0x3fb9882b7559fa41	0.09973403563524476
30	0xbfcd8f6a05d5575d	-0.23093915257293932
31	0xbfb757372fd8dd16	-0.09117455404417671
32	0xbfd13ee117fae43d	-0.26946284620095523
33	0xbfb74ec4c77807ec	-0.09104566449971657
34	0x3fb96a5979cbd38b	0.09927901481189687
35	0x3fb0e91275bc8765	0.06605639814781979
36	0xbfb2e14c7b1c3381	-0.07375028615588343
37	0xbf86dc5bc9ffa522	-0.01116248808098647
38	0xbfa6433f349925ef	-0.04348180310314464
39	0xbfa3f9d124d078a2	-0.0390153272094136
40	0x3fa7777e128924e4	0.04583353019968131
41	0x3fc432157c1a4eda	0.1577784400911842
42	0x3fb79ff01d492ef9	0.09228420939433225
43	0xbfc54454c99fd3ea	-0.16614780278146607
44	0x3fba89f6e4b1417a	0.10366767009077718
45	0xbfb6351eacdae798	-0.0867480442056191
46	0x3fb5ff7aee5bed34	0.08592956847490002
47	0xbfac66bd30228619	-0.05547133648475384
48	0x3fa42ec9fd0d5a1d	0.03941947187438564
49	0x3fc010dbe3a4a25a	0.12551449408899168
50	0x3f9d235636bb7df5	0.028455111590003985
51	0xbf98fe067d90803a	-0.024406529821249225
52	0x3fc4a46dad07b45f	0.16126795719847828
53	0xbfc05aa0daf215c4	-0.12776575747208885
54	0xbfc7fa0b487f36d0	-0.18731823959244887
55	0xbf9cdf79455d8e6b	-0.028196234568339678
56	0x3fc62c78d9c1c644	0.17323217995321916
57	0x3fb14c6b04f99930	0.06757229682407195
58	0xbfc3ffdc95f5545f	-0.15624577829535988
59	0xbfd3f5a0669c5a2d	-0.31186685581761503
60	0xbf9494d05627439f	-0.020098929651627292
61	0x3fb229085653b835	0.07093860728829855
62	0xbfc5328a4e7288f4	-0.16560486631812632
63	0xbfb77b8144e524d5	-0.09172828609475243
64	0xbfbf9acb8ccf3028	-0.123455736043241
65	0xbfc7fffb4cd98e48	-0.18749943973954175
66	0xbfd171e59ee81742	-0.27257671850417264
67	0x3fd1c595afffb86f	0.27768461406129225
68	0xbfd40e3868ff8447	-0.3133679414150418
69	0xbfc20fe0ee896482	-0.14110957763003645
70	0xbfd0cd619dc990cc	-0.2625354805843585
71	0x3f9a1625a1294b9a	0.025475109063630798
72	0xbfc5669da2b226ce	-0.16719408458839385
73	0xbfc6c909cc9b7a00	-0.1780102013644438
74	0x3f9e301fcadd2911	0.02948045421298057
75	0x3fc603670ffa882c	0.17197883873183295
76	0xbfc03a5096c3721d	-0.12677962647912092
77	0x3fb36b50fc9f7a1a	0.07585626761963518
78	0xbfc2b468fc84c428	-0.14613067941675806
79	0xbfca1117a14b3720	-0.20364661575006782
80	0x3fa274bf4cae979b	0.03604696093616085
81	0xbfcb7bfa4fe54ebb	-0.21472100163611238
82	0xbfcb7419130823cb	-0.21448052815710947
83	0x3fbf5a1754749ea3	0.12246843158629388
84	0x3fb338d2b9161a16	0.07508580225667347
85	0xbfd11ceebede3082	-0.267390905756436
86	0x3fb0724e5ca9de16	0.06424417269033031
87	0xbf973a0afd3c70b4	-0.02268235369329892
88	0x3fad154d7053654c	0.05680315014042012
89	0xbfc07016cd43af95	-0.1284206869380539
90	0x3fc8776dee44b43a	0.19114469656179428
91	0xbfc344c4793f1a09	-0.15053611679304904
92	0xbfc77979d577f617	-0.18339465068122315
93	0x3fc65c1b1dbf4e1e	0.17468584969047724
94	0xbfcbc9e3a28b4cb4	-0.2170986694023661
95	0xbfa511e66f62e167	-0.04115219220824678
96	0xbfb92e40137eb39a	-0.09836197353315726
97	0xbfbfabb07222aeea	-0.12371351992140558
98	0xbfaa49a795453a94	-0.05134319016598457
99	0xbfa0b800dae6715d	-0.03265383407708342
100	0xbfc64e604650c857	-0.17426684792877964
101	0x3f5535b22920aef3	0.0012945403909822544
102	0x3f7bfec36b98d722	0.006834758148718286
103	0xbfa3cc3222c9995c	-0.038667265650291965
104	0xbfc3aa58cf2d30c3	-0.15363607517281794
105	0xbfb4f61b374cabb9	-0.08188028431020102
106	0xbfc1cad1413e338f	-0.13900199590389348
107	0xbfb5be96ba494202	-0.08493940399171865
108	0xbfb3d57a6ec43488	-0.07747616962679349
109	0x3f7aa8ff35c3e7f0	0.006508824266569832
110	0xbf6461fef22f7180	-0.002488134328343772
111	0xbf815f189d62a093	-0.008482162764565515
112	0xbfadc161198c2751	-0.05811599194392037
113	0xbfcc16a64196f9a3	-0.2194412060034213
114	0xbfc137c36f6f3f72	-0.13451426449909892
115	0xbfc27b4692715aa5	-0.14438707495238137
116	0xbf9028390ffef78b	-0.01577843818790074
117	0xbf795adec142e83a	-0.00619017614024569
118	0xbfacd68d5ba63c58	-0.056324403226533704
119	0xbfaa100475540891	-0.0509034531805962
120	0x3fc77e1542ae5ae1	0.18353524928962542
121	0x3fc0df9b0c349227	0.13182390304531674
122	0x3fa9c4c32d27bee0	0.05032930303775429
123	0xbf8babe670f43bf1	-0.013511467287143449
124	0x3fb1bc0ecac5a262	0.06927578402031423
125	0xbf9a5f1ccf2d4097	-0.025753450532022795
126	0xbfb2f7f35c2f03ea	-0.07409592629029729
127	0xbfc00750e029b8dd	-0.12522326417405952
128	0x3fc30419188ca0dd	0.14856256197641118
129	0x3fc046a65a68e248	0.127156061311114
130	0xbfb3c23e553c1046	-0.07718267041133328
131	0x3fb39b82de8587fd	0.07659166271835711
132	0xbf974cc8d15956a0	-0.022753846910140596
133	0x3fb2bec7daa8a7df	0.07322358215665713
134	0xbfd09bbc705fb668	-0.2595053765679496
135	0x3f794c1f78714acc	0.006176112109715869
136	0xbfa476048ee252d6	-0.0399629043978728
137	0x3fb474c6fccde46d	0.07990688011149567
138	0xbfc9c75da5742505	-0.20139666155618144
139	0xbfcb891040f1e6fe	-0.21512034579409794
140	0x3fc609666784aa1f	0.17216186575508716
141	0xbfcc0eb5151ebbec	-0.21919883280995067
142	0x3fbf06050dc5940d	0.12118560396409368
143	0x3fc6b95d47031b02	0.1775318714846535
144	0xbfca8c28ccfe4f6d	-0.2074023247665723
145	0x3fd0f4ea23d9a7b3	0.2649484014606244
146	0xbfd3b771f51b69d3	-0.30807160316694854
147	0x3fcdbf24e40b3b21	0.23239575514750135
148	0x3fa5c5f7c93c5d90	0.04252600032321674
149	0xbfb7b97b507f18ca	-0.09267397608991526
150	0x3fc50bbdb4c49030	0.16442080809167825
151	0xbfc879c94119f3a2	-0.19121661833551423
152	0xbfd2618c794dec03	-0.28720390173083404
153	0x3fb8c05e59983f15	0.09668531119700348
154	0xbf82be70e0e95d23	-0.009152299751049647
155	0x3fc70a01e718fd1f	0.1799929026037512
156	0xbfb1b7134e902358	-0.06919975917857124
157	0x3f9c83f03da15959	0.027847055207837233
158	0xbfa8316b48c5d524	-0.04725203765239375
159	0x3fc2722c30cb0e25	0.14410927183608738
160	0xbf9a953db39854b5	-0.025959934317218287
161	0xbfa37e29103dfef4	-0.03807190249699302
162	0x3fa59560449f0ca9	0.04215527379667467
163	0xbfd1cd2753e95626	-0.27814658350448196
164	0xbfce228ebba99255	-0.2354296127624759
165	0xbfa02034a08183d1	-0.031495709031112214
166	0x3f9bbea71e306496	0.027094470231621225
167	0x3faa31076ce1307c	0.051155311623547
168	0x3f8dd8cdf19457e6	0.014573677954597696
169	0x3f7410f06eaf350e	0.004898966969404185
170	0x3fbbf74bba343aa9	0.1092421846007975
171	0xbfc2d5cd13b2d725	-0.14714969121785618
172	0xbfc5a0589b723917	-0.16895587530275044
173	0x3fc68ae87195854e	0.17611413522812785
174	0xbf9a26e53143dd58	-0.025538998729613155
175	0x3fa2969eea025fc3	0.036305395188889665
176	0x3fc270912b89bf47	0.14406027437098087
177	0x3fa4bd0a59128df5	0.04050476395903139
178	0xbfc1d2b153cc4edc	-0.1392423304720215
179	0xbfcb9ce3704a764f	-0.21572535498573805
180	0xbfc3bbf8c080cdb0	-0.1541739406544429
181	0x3fcb4782b8c55191	0.21311983129511394
182	0xbfb1bfe5e8e1cdff	-0.06933438239666855
183	0xbfd5a39dc8440d8e	-0.33811134869775905
184	0x3fc063640a003209	0.12803316582029847
185	0xbfc5dafb788eb509	-0.17074530970186455
186	0xbf8eeffdc646ce14	-0.015106184590741235
187	0x3fc22b5adc344d36	0.14194808723605384
188	0xbfd08c14a6012441	-0.2585498448502826
189	0xbfce2ddc60abe860	-0.23577456207550807
190	0x3fc97f6002b72f6c	0.19919967777820646
191	0xbfb33edde25a8f17	-0.07517802025045871
192	0x3fa6d243dddc2018	0.044572945435050026
193	0x3fd3e16cde030199	0.3106338661273412
194	0xbf9d98486040ac79	-0.028901224970621506
195	0x3faf3ebb290258ff	0.06102547526931978
196	0x3f6a583262d69095	0.0032158836463214804
197	0x3fa7159503e9f959	0.045086533286837045
198	0x3fae49c17af7ea69	0.05915646196441033
199	0x3fcbb814ac98b46d	0.21655519893230082
200	0xbfcf2b7ffce35af8	-0.24351501319934932
201	0x3fc351bc3192094f	0.15093185825760222
202	0xbfc6f98f4c4ef4ef	-0.17949095941541013
203	0xbf9d9e543f001bfe	-0.028924290032616533
204	0xbfcf77901b38a8f9	-0.2458362706104891
205	0x3f93c812de85b3c6	0.019317908126527582
206	0x3fc299c29a14659b	0.14531738780423784
207	0x3fc35886dc094b72	0.15113912338219
208	0x3fc8166c82231d37	0.18818432192186105
209	0xbfc7c61b8c3dac75	-0.18573326442433183
210	0x3fb131dd8ef31aad	0.06716713657361124
211	0xbfb7943d235025f2	-0.09210569488654821
212	0x3f9f824de9710e6e	0.03077050912203421
213	0xbfa8bf16f58a23f7	-0.04833289859113415
214	0x3fb8dcce45ad76d4	0.09711922837365289
215	0xbfb834d25ba6ca76	-0.09455599534593681
216	0x3fb0cba537af4b38	0.06560738191118964
217	0xbfc0060b7f6842f5	-0.1251844760995692
218	0x3fb1aaa65c0db3a3	0.06901015994453856
219	0x3fc8353a35affb8c	0.18912437077957767
220	0x3fd00bb74adc23c3	0.25071508703745965
221	0x3fa968a7e6c41968	0.04962658588378838
222	0x3fcb5f82a15feb86	0.21385224227546135
223	0xbfaf518ece0f8aa9	-0.06116911187543412
224	0x3fb7ecf8b1906264	0.09345964751299501
225	0x3fc1f647d14de62e	0.14032838554321486
226	0xbfb811c45231f062	-0.09402110106197051
227	0xbfbf04dbf2a586e6	-0.12116789506901746
228	0x3f6af1826679a92d	0.003288988769601839
229	0x3fc77e1d71fb97ce	0.18353622499051742
230	0xbfb73d70438411c0	-0.09078122757279683
231	0x3fc9f4081608c914	0.2027597529973454
232	0xbf97f93c1ac5bc52	-0.023411692747171316
233	0xbfc7a33407aa9ac8	-0.18466806768738864
234	0x3fc6aae925f893b5	0.17709078172734186
235	0xbfa66a4c44486e05	-0.04377973874599309
236	0x3fc0584f7a2ab1ee	0.12769502129721338
237	0x3f8efd5de2453d1c	0.01513169619343429
238	0x3fa37c8e3845696f	0.03805965840247693
239	0x3fba6b90f32633b6	0.10320383011112608
240	0x3fcdb1aa03324d3c	0.23198437839583075
241	0xbfd41f20342b7ab8	-0.31439976782523216
242	0xbfb27c7f46df8f59	-0.07221217613510812
243	0xbfca4e58f10b7302	-0.20551597375642677
244	0xbfb823b87bd8dabc	-0.0942950537072233
245	0x3f97e938ab4978f2	0.023350606398133196
246	0xbfb7f671d692648c	-0.0936041973931358
247	0xbfb381223fe490c0	-0.07618917522319446
248	0xbfb40ebbfa417b0f	-0.07834982738266326
249	0xbfc811f7cc6b9935	-0.18804833871326712
250	0x3fbc5ac1da218984	0.11075984549964885
251	0xbfc865568df5b830	-0.190592593494729
252	0x3fba751c570530de	0.1033494675113533
253	0x3fa4367c68294635	0.0394781949186264
254	0x3fc9b6fa66e4f40b	0.20089654945505261
255	0x3fb063c085858c17	0.06402209529692048

model.sequential_layers.1.Linear 1.weight f8 [128, 257]
0	0x3fb8e85a08318df5	0.09729540538824451
1	0x3fb6ec10a493ab2b	0.0895395662115958
2	0x3f9a622826d55d47	0.02576506363888356
3	0x3fb46f5a17de61b6	0.07982409556132705
4	0xbfbe92d91fe7fc52	-0.11942822483978091
5	0x3fba2bc568268678	0.10223039429413372
6	0x3f9b775f4124e2bf	0.026822555876807593
7	0x3f91b2bc3b692719	0.01728338348974665
8	0x3f920f28782fcb58	0.017635948501218607
9	0xbfceacff3dac625a	-0.23965445052523898
10	0xbfb626c127e1e946	-0.08652884696667681
11	0xbfb7b6ebc9b7fb46	-0.09263490366718682
12	0x3fc1fb83caf9152b	0.14048812304296496
13	0xbfb7bbbc19b81c38	-0.09270835521611864
14	0xbfbb6e9bd4f36c88	-0.10715650509830443
15	0x3fadd731e660d62f	0.05828243195757598
16	0xbfceb0470d3bda42	-0.23975456377202603
17	0xbfc7b13bdd1fdd4f	-0.18509624764531415
18	0xbfb93feef565ad79	-0.098631796752377
19	0xbfc049ca2b859674	-0.12725188374604424
20	0xbfafed394df658c0	-0.06235674931228763
21	0x3f99847a646223b9	0.02491942632380859
22	0xbfcb5b514312aa9c	-0.21372428679508892
23	0xbfab1d1ad9c51f49	-0.05295642765355397
24	0xbfbf2450082d1f00	-0.12164783668151458
25	0x3f928715182f089c	0.018093423462922517
26	0xbfbc884296528370	-0.11145416421869725
27	0xbfa1780654baf9d8	-0.03411884102159818
28	0xbfae3773e02bcf48	-0.059016820063247766
29	0xbf9443b8edf31dff	-0.019789590380950624
30	0xbfa8dcd1483e97bd	-0.04855970389262108
31	0xbfc161b7498c7493	-0.1357945546268736
32	0xbfc08bc611ad4d99	-0.12926555503018447
33	0x3f982e7f6f0387d4	0.02361487498354349
34	0x3faa80e884136c79	0.05176474201444931
35	0x3f9f0808a512b12b	0.030304083895928684
36	0xbfb6b90b579bf660	-0.088761052025768
37	0xbfc0ead07fd6c3b9	-0.13216596834311448
38	0xbfc2643f8175ebe0	-0.14368432828254551
39	0xbfc2602508ebee7d	-0.14355910239816075
40	0x3fc5ee2371d6dafc	0.17132990892942945
41	0xbf4b5a40687c8204	-0.0008347334378165376
42	0xbfc812cb81babe79	-0.1880735763020203
43	0xbf97391953393adb	-0.0226787526174189
44	0xbfbc81e2b04639e8	-0.11135689548084537
45	0xbfb0f1117d98fc8b	-0.06617841068599455
46	0xbf97b089401f3fbb	-0.023134369410229044
47	0xbfa34ccad48b593d	-0.03769525379691394
48	0xbfca95d6caccda69	-0.20769772436479464
49	0xbfc4cb8720c423e5	-0.16246117687140252
50	0x3f98751a4ae5ae2d	0.023884211369859343
51	0xbfcce3386768fac4	-0.22568421410865913
52	0xbf970bcb67d88bbe	-0.02250593015027013
53	0xbfbcb8968e42fcd7	-0.11219159100709263
54	0xbfc21b12083c7556	-0.1414511242118503
55	0xbfc565c8a2795185	-0.16716869290634065
56	0x3fad0ac10ef51106	0.05672267253479117
57	0xbfc844603d34ff24	-0.18958666790603573
58	0x3fb45d844cd99093	0.07955195308892575
59	0x3fc121415ebc69e1	0.13382737279682913
60	0xbfcbc77df07c90ab	-0.21702551119336042
61	0xbfb1ade7d7da04d7	-0.06905983943763104
62	0x3fb6a7885f27dfb3	0.08849384616030313
63	0xbfc2a2e5576aef40	-0.14559618729060197
64	0xbf9f742b995c403b	-0.03071659205949138
65	0x3fb1437125f70a9b	0.0674353330314638
66	0x3faa8019a51e5613	0.05175857678038311
67	0xbfb2e51fcca526a5	-0.07380865808695576
68	0x3facba3a2c68777f	0.05610830108729114
69	0xbfb0aa35c749344d	-0.0650971995866751
70	0xbfb716e281773a98	-0.0901929441526853
71	0x3fa3b0ec3b3f0139	0.03845918868273874
72	0x3fb13dc985014b9d	0.06734904763406609
73	0xbfbca33a9b3606f8	-0.11186567582447171
74	0xbfbfac7e8790e9af	-0.12372580346792604
75	0x3f8fbe4ea5cad29e	0.015499700960711234
76	0xbfcc4f5aa487094c	-0.22117169412201532
77	0xbf9dbf9b8cc37a67	-0.02905123755123853
78	0xbfac92c84e0fc1b1	-0.05580736115360042
79	0xbfc2ce6f1a637b9c	-0.14692486561304186
80	0xbfae763533d2e601	-0.059495604110860974
81	0xbfa322307fc0b900	-0.0373702197979231
82	0xbfc0ba369657918e	-0.13068277684136514
83	0xbfb02b9de76e223f	-0.063165539742962
84	0xbf6a4d499d24d66f	-0.0032106817026498684
85	0xbfb26fd3fe33321d	-0.07201886135153086
86	0x3fb1f6e30f8fe61e	0.07017344598707395
87	0x3f90fb5a08504b3d	0.016583830602097328
88	0x3fb9d7fbd20bc2eb	0.10095189931940822
89	0x3f7978eaf4f96995	0.006218831825743361
90	0x3f990ddbf6319afe	0.024466931249118133
91	0xbfc4b14ea74da04d	-0.16166098755934613
92	0xbfb4917b676b8403	-0.0803448798647111
93	0xbfa561c5fafe25ac	-0.04176157654644483
94	0x3fbad6662c4043f2	0.10483397083613946
95	0x3faeacd8bfc628f9	0.05991246548644997
96	0xbfc93c6053ef5f5e	-0.1971550378645998
97	0x3f83665c22c34c65	0.009472579775694887
98	0xbfbe5fd51481c095	-0.11864978552489654
99	0x3f18be9db3f84b84	9.439313452501262e-05
100	0xbfc00c3660aa8a64	-0.12537269325283085
101	0xbf7e069959e84fbe	-0.007330512073639937
102	0x3fa09e01d0f326e3	0.03245549846321951
103	0x3fa19a197095b533	0.03437880992246747
104	0xbfbaa0653910698f	-0.10400993960539594
105	0xbfbfd022ca966f01	-0.12426965185153095
106	0x3f7f20fc8f2e20fc	0.007599817809826211
107	0x3fbd86089dd92646	0.11532644132344058
108	0x3fa4794d2886e696	0.039987956235063724
109	0xbfba900c68ecf9c8	-0.1037605053106524
110	0xbfcc120ae7d0a3ad	-0.21930061644641566
111	0xbf945565b505b52e	-0.019857014821743117
112	0x3fb07bae1c37140a	0.06438720883222984
113	0xbf81df3f5bf96a1f	-0.008726592058498515
114	0x3f8f3bbfe3fc013c	0.015250682015449095
115	0xbfac4d0364d1fde9	-0.05527506452289883
116	0x3fb7831f2a433d92	0.09184450895121746
117	0xbfc74809c6a6812c	-0.1818859310124109
118	0x3fbf6352a94cf92e	0.12260929711644472
119	0xbf93fb95ecf5cf07	-0.01951441057958816
120	0x3fa6aef8cd6e6b04	0.04430367953974293
121	0x3fa728c0fbf9e47b	0.04523280216103217
122	0xbf97e736fd9aa3f4	-0.02334295199276322
123	0x3f9d3f5848632376	0.02856195394341251
124	0x3fb0651f474a772c	0.06404300203800223
125	0xbf9cad5d274447f4	-0.028005080720568246
126	0xbfc92869740cbd60	-0.19654577414028562
127	0xbfb9b42da8aa391f	-0.10040555351063006
128	0x3fab9d4e68915db4	0.053934526695850776
129	0xbfc13f3b53431f9c	-0.13474217954194223
130	0xbfb47a45f4f0b598	-0.07999074201571543
131	0xbfb0c24c9267cc0b	-0.06546476911880476
132	0x3f7c59a4c80520a3	0.006921428372443614
133	0xbfc7d5a74b44f023	-0.18620768714197408
134	0xbfa7956e51e69ef3	-0.046061942575134206
135	0xbfc4052086d28949	-0.15640646536946637
136	0xbf9d0c9bd975dabc	-0.02836841120503196
137	0xbfbbb8e6e821b152	-0.10829013030315096
138	0x3fbf47dffefde0d7	0.12219047522910685
139	0xbf6a4a4f996339b5	-0.0032092623397154915
140	0xbfc08fadada10a28	-0.12938471773129945
141	0xbfa449cb3ba243f5	-0.03962550261451973
142	0xbf74ed30dd5c3b5c	-0.005109015348138648
143	0xbfc5a396cc17e5a6	-0.16905484166617873
144	0x3fa0241ff7a0f4f0	0.03152561090289818
145	0xbfb1939bc01f9c90	-0.06865857544436182
146	0xbfc5830a076e7ca8	-0.1680614982878741
147	0xbfcfcfa4587ac82f	-0.2485242301968937
148	0x3faa23756eac50dc	0.05105177856435869
149	0xbfbd4b71127e89c6	-0.1144323988105845
150	0x3f97f9dbd5db504a	0.023414072921539998
151	0x3faa41d3ee42a324	0.05128347667170477
152	0xbfc6c3d8f4dab02d	-0.17785179096006357
153	0xbfc8ccec7935c71e	-0.193753775772671
154	0x3fa8954bce1ea56c	0.04801403895482789
155	0x3fb09e8a29088439	0.0649191236666561
156	0x3f7e141c765a4852	0.007343398266714445
157	0x3fb5e903f4717310	0.08558678357935556
158	0x3f7b368bf17f7f50	0.006643816617696377
159	0x3fb025b44e65138d	0.0630753222840907
160	0xbfc006eb1614383e	-0.12521112993312217
161	0x3fa60222306119dc	0.04298502770011556
162	0xbfc1cbb907ee3f0f	-0.13902962577093844
163	0x3fa6617c621a1370	0.04371250817806682
164	0x3fae8e7a5ae5b2cc	0.059680770488602514
165	0xbfbfc60c69107035	-0.12411572995228044
166	0xbf8f14d4a8ec9888	-0.015176450162084146
167	0xbfc079ffa1a1f6dc	-0.12872310058803904
168	0x3fb475e3ab4bc4bc	0.07992384845762762
169	0xbfc4b139f0ffbfb8	-0.1616585184815429
170	0x3fc9f051fff4d312	0.20264649389141504
171	0xbf2ca3304fa1ef95	-0.00021848644957233863
172	0x3fa8b1f923525a96	0.048232827722292246
173	0xbfab2628ed9972af	-0.053025511745294344
174	0x3fb9ed3b8ee72dba	0.10127613295406138
175	0x3f8bc8e6c794d25e	0.013566782918681127
176	0x3fbd1db7293c5f9e	0.11373467213377217
177	0xbfc70a7f82351c21	-0.1800078759935966
178	0xbf9c18be969a5c42	-0.027438142721248455
179	0xbfabc94fc687dc66	-0.054270260796266
180	0x3f9c93ab2d4e4e92	0.027907061233760695
181	0xbfa1173af6bd3ff9	-0.03338035833314729
182	0xbfbdc984ad1f9697	-0.11635617472310354
183	0x3fbe35592e50a225	0.11800153141724275
184	0x3fc8d4d9c141b6c4	0.1939956849704939
185	0xbfc63147ba27dbe2	-0.1733789118731855
186	0x3fc78c8ef0d8814a	0.18397700080914553
187	0x3fac1e4f7e1344f1	0.05491875089649934
188	0xbfb7bb4204b6f2c7	-0.0927010785589558
189	0xbfb91a209da2b21f	-0.09805492256663982
190	0xbfaef529d078fb73	-0.06046419782477743
191	0xbfb85e9a5bce9a6c	-0.09519352666266351
192	0xbfc9f7ccd71a58dc	-0.20287476065704524
193	0xbfaa4896a816f46d	-0.05133505632282085
194	0xbf9e8b3f8020cb61	-0.02982806415111428
195	0xbfab012e24cca51e	-0.052743379585374436
196	0xbf917f94011e8535	-0.017088234489738247
197	0xbfb768c68af08bd6	-0.09144249813156988
198	0xbfabbe1514ed3d35	-0.054184588245897926
199	0x3f6940c46880d6f1	0.0030826412294356832
200	0x3fa242588f009b89	0.035662429291099924
201	0xbfb3eae89751e2a3	-0.07780317015011433
202	0xbfc447877861d5aa	-0.15843289735827898
203	0x3fc41775296c1804	0.15696587107248672
204	0xbf548c7d34f0346b	-0.0012541983339844586
205	0xbfc6cd531184bfad	-0.17814100604436814
206	0xbfcd9b744cb2c5b0	-0.2313065886024055
207	0x3f6069fab416678d	0.0020036598732077805
208	0xbfa7eb5654f3d37e	-0.04671735560433542
209	0x3fc85b83905ef6c3	0.19029278325426988
210	0xbf5d90dd2cab50c2	-0.0018045577914352216
211	0xbfae52bf4539172f	-0.05922506065375754
212	0xbfc33afab038ad7d	-0.15023740391312038
213	0xbfbd543fca79a041	-0.11456679051627906
214	0xbfc46988741ecd45	-0.15947061223924144
215	0xbfaee1952e22cb24	-0.06031480968649408
216	0x3fb0471e07b48230	0.06358516395676683
217	0xbfbc4a40d600ae46	-0.11050801491426751
218	0x3fc076f687882c91	0.1286304628159525
219	0x3f7863a099cd257f	0.005954387041876229
220	0x3f6e17672091ba01	0.0036732687190614848
221	0xbfc3f5e42a346299	-0.15594150601170467
222	0xbf9cff00621870d5	-0.028316503512642328
223	0xbfb755f19aff3409	-0.0911551478777285
224	0x3f74dd2d3c992093	0.005093743043808402
225	0xbfa96bcdc70a893a	-0.04965060286237351
226	0xbfc5b947bb597364	-0.1697168030540538
227	0xbfb2fce9fba514b7	-0.07417166131661444
228	0xbfa98f562818fe32	-0.04992169608567244
229	0xbfb79d331d986d35	-0.09224242661041589
230	0x3fa485010edad7b1	0.04007724100431121
231	0x3f881917fda249c9	0.011766612460893182
232	0xbfac63f97a2b309d	-0.05545024505917804
233	0xbfbae26243addec4	-0.10501684334110012
234	0x3faa0d1dd0ed1841	0.05088132071846064
235	0xbf63f3b1146bac95	-0.002435537203714209
236	0xbfca14692af4e57f	-0.20374788854114098
237	0xbfaecb51935df541	-0.060144948233736624
238	0xbfb3312b88c57159	-0.07496902550832853
239	0xbfaf8d37361d60c6	-0.06162426505642453
240	0xbf874fa38336b202	-0.011382367555449417
241	0xbfc8aa8355b07f99	-0.19270364460043934
242	0xbfa2c9ba8c230cf0	-0.036695317846829556
243	0xbfabc4348d6fb95c	-0.05423130251425576
244	0x3fadbcb6b695f3f5	0.05808039645032884
245	0xbfc49f1237b21e88	-0.16110446662445477
246	0x3fb4297b9981ed86	0.07875797746412702
247	0xbfb955f207db873e	-0.09896767322382247
248	0xbfb2153b94818319	-0.07063648582108008
249	0x3fa7e1d3be1823fb	0.04664479918944405
250	0x3fa43dbfbfd8f945	0.03953360764397699
251	0xbfac12d6d175e5f8	-0.054831231182969675
252	0xbfb541cac4fc4655	-0.08303515729155582
253	0xbfb5811489be7ad6	-0.08400085795299658
254	0xbfb879d2c96068a1	-0.09560887733860791
255	0x3fc462ce1ab2be64	0.15926529220222385

model.sequential_layers.0.Linear 0.weight f8 [256, 31]
0	0xbfba135ba9ede71b	-0.10185788057961213
1	0xbfbb656436b4428d	-0.10701586089659028
2	0xbfacd4352749b7ae	-0.056306515737431936
3	0x3f943b75da663858	0.019758073287043793
4	0xbf95b0481eb4ee3d	-0.021180273889724644
5	0x3fb44b98e301c6bc	0.07927852193986501
6	0x3fa70b09b12821a8	0.04500608718450688
7	0x3fcd28220e28f517	0.2277872628346038
8	0x3f65edd40ffc41db	0.002676881966074724
9	0x3f7a636266a977bd	0.006442436579701946
10	0x3fd157a012907a61	0.27097322285582065
11	0x3fc0537494f11ecc	0.12754685661842868
12	0x3fb0d1c6e83659a2	0.06570094269986851
13	0x3fbe4603269e8bf1	0.11825580304007112
14	0xbfb25f54b7959541	-0.07176713449515139
15	0xbfb12c67a2dfba6e	-0.06708381391920579
16	0x3f8281db96d5a824	0.009036746540648073
17	0xbf94268b8dd6a0ae	-0.019678288013580562
18	0xbfba3f0094b71672	-0.10252383833639003
19	0xbfb1599b820a7fc2	-0.0677735512240352
20	0x3fa299ff3bef76e2	0.036331153932889895
21	0xbf95810e14f2187e	-0.02100011828272174
22	0xbfbd59af7b575e91	-0.11464974175702937
23	0xbfb807734509a1cc	-0.09386368213166135
24	0xbf96c4b69dc1f1b9	-0.022234776858100356
25	0xbfbfb965e7e178d9	-0.12392270003462914
26	0x3fbdd514b2207549	0.11653260563658309
27	0x3f49f64879848860	0.0007922986870065978
28	0x3f977d1dbfe5f75b	0.02293821796182925
29	0xbfc1686c15c7a952	-0.1359992128703405
30	0xbfd666e1e4ad4fe4	-0.3500294430898505
31	0xbfc0d8fac4e2fe10	-0.13162169087989684
32	0xbfc61e64cd53753c	-0.1728025438850781
33	0x3fad4c1a5cd700c3	0.05722124465273872
34	0x3fc663e304b1ec2b	0.17492330292938738
35	0xbfb1e289d6475858	-0.06986295205510495
36	0xbfaa7f6f88dd9624	-0.05175350709650342
37	0x3fc233ffec7c9c35	0.14221190497593886
38	0xbf9d869d5c72c746	-0.028833826797103577
39	0x3fa3dfc6a9660050	0.03881665056087569
40	0x3fb5a584ccfb1d02	0.08455686573426038
41	0xbf839a538c84c8bd	-0.009571697927274742
42	0x3fa3b08e323f6c63	0.03845638621688676
43	0xbfbb151d66879b6b	-0.10579093697707058
44	0xbfa8970428200d1e	-0.04802716245469639
45	0x3fbad9bb0205341d	0.1048848037655294
46	0xbfc00ae1d6014342	-0.1253320975252113
47	0xbfb1f493902a2573	-0.07013818997997649
48	0x3f9543231ab8d860	0.02076392031286678
49	0x3fac1199d0f1c508	0.05482178378668762
50	0x3f9e79b16502f846	0.029761096754320947
51	0xbfa1b8c783afbedf	-0.03461287958623215
52	0x3fad0ee64d8f80bc	0.056754300086824
53	0xbfbe25c9af78d29e	-0.11776409658416262
54	0x3fc531884097caa1	0.16557410386993346
55	0x3fb13ef4a29cc920	0.06736687631636018
56	0xbfb2b3449843ee75	-0.07304791181007338
57	0x3fa035d0b81a2b90	0.03166057822553292
58	0x3fc47010fd73b960	0.15966999412143945
59	0x3fbb06c3ae618990	0.1055719662413479
60	0xbfc02a8346230724	-0.12629738735818663
61	0xbfcbc25154e08675	-0.21686760563266075
62	0xbfb422955439600d	-0.07865269953015304
63	0xbfb74bd617ff284b	-0.09100092016083854
64	0xbfb824275655b714	-0.09430166108878907
65	0xbfbe27a48b729e2d	-0.11779240040288448
66	0x3fba2b278720430d	0.10222098397231268
67	0xbfb4af48d317b5d7	-0.08079962876919154
68	0x3fabb3014ac7e6db	0.05410007512905476
69	0xbfbc599ff98af1b4	-0.11074256746628103
70	0xbf86a0404a4d2e86	-0.011047842280866204
71	0x3f935a49429e18f6	0.01889910191632623
72	0xbfc0ab4ddbb3bc04	-0.13022778728142737
73	0xbfcf0ff119a9ddb7	-0.2426740050611735
74	0xbfaa85a5458c5dec	-0.051800884952338894
75	0x3f78a9a7c46d2edf	0.006021170941334224
76	0x3fb24052f6633c8c	0.071294007447465
77	0xbfd1bd4ae106aefc	-0.27717849707799735
78	0x3f7b920bea4a20da	0.0067310777127504665
79	0xbfce1c136fc002dc	-0.23523180920167064
80	0xbfc2e927cd6b4789	-0.14774034052112153
81	0xbfa59897fb08907a	-0.04217982234357094
82	0x3fbcc3e377fae291	0.11236402205657671
83	0x3fd134a5b2536b5a	0.26883833326944784
84	0x3fcdfcbb442bff50	0.23427525356964418
85	0x3fca8f1311db5d03	0.20749128696363792
86	0xbf94906b1c291d09	-0.020082162469660356
87	0x3fb9b9d9efdd6966	0.10049211603237537
88	0xbf92eec660bdd894	-0.018488979010236564
89	0x3fc7be290d12796d	0.1854907335118229
90	0x3fc3ce1609928efc	0.15472674815566012
91	0x3fba2d701dea2490	0.10225582819306767
92	0xbfc686d44dd3325f	-0.17598966407821856
93	0x3fb13c6184c4768d	0.06732758990662031
94	0x3fcf3b319964cf14	0.24399394979411027
95	0x3fb77fdd0e282940	0.09179479213358821
96	0x3fb74902dee2b66d	0.09095781270544885
97	0x3fc0094f9ef3ce8a	0.12528414975496488
98	0xbfc96dd80f923e26	-0.19866467247310132
99	0xbfba4662b93c2a4d	-0.10263649961795203
100	0x3fa379a263b5d3c2	0.038037371322310345
101	0x3f9aa3ea5bb7f94f	0.02601591286474419
102	0xbf997c02bd0271cb	-0.024887125765063616
103	0x3fbd71b18095e4b8	0.11501607312483741
104	0xbfa040dc653194a9	-0.03174484954141949
105	0x3f8a7f83c42c25ef	0.01293852751179522
106	0xbfb5080401f018dc	-0.08215355918227679
107	0x3fc4a313daf21c24	0.16122673216543248
108	0xbfc63dae35650a39	-0.17375733954584563
109	0xbfa08b74ac46ac56	-0.03231396296481452
110	0x3fb1a2b843a73e74	0.06888915683452429
111	0xbfb4358001af32e6	-0.0789413456070168
112	0x3fbb0fc65cd6ab33	0.10570945517126233
113	0x3fbe8088a6907eff	0.11914877001299472
114	0xbfb40daf6b734db9	-0.07833382008839508
115	0x3fae5370dfc01ad2	0.05923035365417707
116	0xbfc41c858729087f	-0.15712040996192297
117	0x3fcd097a873decf0	0.22685176471336588
118	0xbfabd86ce122cb00	-0.05438556907883729
119	0xbfb5d4d0a4f7a250	-0.08527854945681068
120	0x3f85039c64b796fe	0.010260793517726349
121	0x3fb495430482fb60	0.0804025541319624
122	0x3f8a69ab531da744	0.012896860574716514
123	0xbfb100ebac3ceec6	-0.0664202971938109
124	0xbfbdd0b667856bb5	-0.11646595027325087
125	0x3fb637cebe850098	0.08678905631404843
126	0x3fc0f368064306d9	0.13242817216637695
127	0x3fbbabf395799fc2	0.10809252166075026
128	0x3fbad1c54c52a91a	0.1047633467993915
129	0x3f9d421f64fdddeb	0.028572550334016993
130	0xbfc73e3c85d52f27	-0.18158680472185404
131	0x3fb8368aa0ac7ab9	0.09458223746012608
132	0x3fba880182c1c91f	0.10363778536137545
133	0xbfb48b56a6a016eb	-0.0802511364746256
134	0xbfc1b7d408613d4d	-0.1384224930684276
135	0x3f84c3a1abe8f703	0.010138762530114592
136	0x3fb541ffbef17fac	0.08303831493094432
137	0xbfc14a24fa9de06d	-0.13507520901817163
138	0xbf95dc80d96f91e6	-0.021348965903500793
139	0x3fb904823657b844	0.09772504641270624
140	0xbf9e5c6f3bc71a88	-0.029649484656852937
141	0xbf8a5dadb7318a2b	-0.012873990204927818
142	0x3fcad3374d999fd4	0.20957080163066044
143	0xbfa4015f9328a3fa	-0.039072977746691565
144	0xbfb1696ba3d817d1	-0.06801483869648385
145	0xbfbc1d48ef9018a7	-0.10982185219481498
146	0xbfbc60bed434288f	-0.1108512180400416
147	0xbfa93dfde79185e4	-0.04930108501208588
148	0xbfb5fc46373296bb	-0.08588065002057992
149	0x3f9e392e600347b7	0.029515003786236806
150	0x3fb98dbddd25e938	0.09981905602572716
151	0xbf3aff3810e6e99a	-0.0004119407539310505
152	0xbfc2298697dcceed	-0.14189226546442715
153	0x3f9c3e348712a012	0.02758104395311995
154	0xbfd019b37a7eea45	-0.2515686699149778
155	0xbfac5cd231058bd5	-0.055395668491449314
156	0x3fb53a9d428f3eb4	0.08292563319195773
157	0xbfc95fbaba71829d	-0.19823392966920475
158	0xbfc150bb844e7ed4	-0.13527625999721826
159	0xbfbaf476bcb45cb8	-0.10529272181553295
160	0x3fa3e9152d247e99	0.03888765502983666
161	0xbfb296ba188bddd3	-0.07261241053844651
162	0xbf937f9a4a4af047	-0.019041453155964196
163	0xbfbbc128355c3d49	-0.10841609289876887
164	0x3fbabc8f5d90497b	0.10443969759243103
165	0xbfa6b96c5d0a5fa9	-0.04438341747044145
166	0x3f9b40c03e85fc59	0.026614192787289024
167	0xbf9b15533784a57a	-0.026448536170538862
168	0x3fbe60c02eb842e3	0.11866379871959114
169	0x3f93c6fa7e96ee40	0.019313730217375147
170	0x3f90c3404300563c	0.016369823541103154
171	0x3f9bc2e686ae4b56	0.02711067387606233
172	0x3fb587e1c5cd2fc9	0.08410464362276494
173	0xbf8a7229ddeab22c	-0.012913062176573474
174	0x3fc2440f11875a73	0.1427019916142914
175	0xbfafe61d7b2c9048	-0.062302514348886506
176	0xbfc689e06a1c44ee	-0.1760826604955023
177	0xbfbb56286ecd2eaf	-0.10678341584314908
178	0x3fbb5bd32ece85e8	0.10686988728277635
179	0x3fa465a5ba74cc3f	0.039838007937213586
180	0x3fb7c586d14608a3	0.09285776719301224
181	0xbfaeb5143ddacda0	-0.05997527365743882
182	0xbfcc02880036bf56	-0.21882724771921386
183	0x3f93035c2040837d	0.01856750437594056
184	0xbfc05eb18e7172b6	-0.12788981871826416
185	0xbfcb166a49e68e5c	-0.21162155731609544
186	0x3fa51f467594fcdc	0.04125423608138032
187	0xbfc9f1e1fe319a6b	-0.2026941767864686
188	0x3fabe9de14fee9b9	0.05451864248557876
189	0x3fc487f97fc2377d	0.16039961565223484
190	0xbfa895e8819d4cb4	-0.0480187090130583
191	0x3fb849d732e03f23	0.09487671844567251
192	0xbf9ca2fa1f153bf2	-0.02796545805659529
193	0xbfbebd43f01511fe	-0.12007546054253024
194	0x3fc455a1fd86dc72	0.1588633048938593
195	0xbfbac26213551928	-0.10452855083449164
196	0xbfb44860b83e66dd	-0.07922939775599099
197	0x3fbb0823ac01409b	0.10559294652307687
198	0xbfae2511835853ae	-0.05887655952771041
199	0x3f83f1525b389be3	0.009737628373001022
200	0x3fa371562af25f1e	0.03797406458141793
201	0x3faf5c74e0a9876b	0.061252262520396915
202	0x3fb64f38e7f0303e	0.08714633619837373
203	0xbfb770eac82a275a	-0.09156672846634475
204	0x3faca3d35603b20f	0.05593738961201577
205	0xbfbdeb3ef44b7d29	-0.11687081779699739
206	0xbf96cf3b53f6d7dd	-0.022274901389856317
207	0xbfa5f293e4a47aaf	-0.04286634603544336
208	0xbfb2edd84da0ea2a	-0.07394172568539462
209	0xbf9d05267656fadc	-0.028339959118734423
210	0xbfb0814dae646f8c	-0.06447301395058797
211	0x3fcdd8b71e1ac80b	0.23317612619354153
212	0x3faaaeacad25f983	0.052113910805007733
213	0x3f98b248eace8aa5	0.02411760266444198
214	0x3f9ba0aa0d54f9a8	0.026980073035923674
215	0xbf9d5ecf7cab0bd2	-0.028681985839977227
216	0xbfd4b85515dfd0b3	-0.32375075470123277
217	0xbfa03d14271c6ca7	-0.031715993665977486
218	0x3fbb363f67574b87	0.10629650376294651
219	0xbfbf1f632b9d9526	-0.12157268347580849
220	0xbfbc62dea56a7b8d	-0.11088363207316672
221	0xbf9074c8bd6f9b45	-0.016070496141675567
222	0x3fb73906198e5674	0.09071386455465263
223	0xbf981926ab957d00	-0.023533443663265707
224	0xbfb9df2d59a7a4a3	-0.1010616630443502
225	0x3fc05f308732a6cb	0.12790495492418183
226	0xbfbbe9536458a13a	-0.10902901840075155
227	0x3fc14e8b053c8ab4	0.1352094436234289
228	0xbfa27f3abe70e7ba	-0.036126933810421716
229	0x3fb8b66ed68da07a	0.09653370607486692
230	0xbfa20d85c29ad140	-0.03525941849275904
231	0xbf9a07102bd062bc	-0.025417568849749314
232	0x3fa508920f6648ed	0.0410810130880622
233	0x3f94544ded366dc5	0.019852845767315736
234	0x3f9222228e204894	0.01770833961934011
235	0x3fc159d55df2582d	0.135553999779121
236	0xbf97ff0766d901ab	-0.023433795597385714
237	0xbf7a0f0a9c1023b5	-0.006362000888665277
238	0xbfa5e5f584b6b380	-0.04277007336654659
239	0xbfc5bc7f1734c754	-0.16981495507348632
240	0xbfc160315c2940a2	-0.13574807167106423
241	0x3f9f747357c0676f	0.030717661124163905
242	0x3f9abbb4d6c1bd53	0.026106668098177476
243	0x3fca9ca57c5ff561	0.20790546963682302
244	0x3fad6e2af05ed3a9	0.05748113807877726
245	0x3fbc0fca278cd0a5	0.10961593118264774
246	0x3fb9f0712adb581a	0.10132510467823899
247	0x3fba3ac6dd7d5dcb	0.10245936305488283
248	0x3fab8fdab288127d	0.053831896108055034
249	0x3fc754752146b060	0.1822649395447824
250	0x3f60975cec8130e0	0.002025300495040225
251	0xbf8278fa96b0aade	-0.009019811366746063
252	0xbfc9a88f84ee5302	-0.20045656195420497
253	0x3fd0c4ede0d4ad26	0.2620196052182159
254	0xbfc2d6c1b4849122	-0.14717885317180285
255	0xbfc9bf64d2907df4	-0.20115337640252984
