Data/Breast Cancer Winsconsin (Diagnostic)/results/models/bcw_18.onnx (onnx, 416707 bytes, 5 tensors)

model.sequential_layers.4.Linear 4.weight f8 [1, 17]
-0.5851724042050154 0.4749324221069961 -0.5868050518943966 -0.5633271771700044 0.4533264085116562 0.46939612039329504 0.4893117939172133 -0.5468546632631603
-0.5491124859935338 0.5221509529882199 -0.5911833819122259 -0.5363994256412867 0.6167829272085799 0.5305485821192493 -0.5162755029639053 0.526276222691345
-0.1441381799461396
00000000: a9a1 527a bbb9 e2bf 8b9d 30f5 4a65 de3f
00000010: d272 6063 1bc7 e2bf d294 5cb7 c606 e2bf
00000020: f01f bec4 4c03 dd3f c057 7d06 960a de3f
00000030: 3bfa 1a6a e250 df3f f62b cc59 d57f e1bf
00000040: 0b5c 2559 5492 e1bf c11b 55ea 75b5 e03f
00000050: d40d 6869 f9ea e2bf ce1e d720 2f2a e1bf
00000060: a8f1 a28c afbc e33f e885 2405 41fa e03f
00000070: ef96 1e34 5485 e0bf 4be5 a33b 41d7 e03f
00000080: fe9f 7cb0 1e73 c2bf

model.sequential_layers.3.Linear 3.weight f8 [16, 65]
-0.08234124364239881 -0.3224034977457724 0.16119678682296537 -0.24987165015361204 -0.026317762181858266 0.23899205468204301 0.10636175490443048 0.32428443584311634
0.03254951381571013 0.08535112703966044 -0.02339300503818104 -0.1875003981244151 -0.2980510728095281 0.16155705080103488 0.011850509419381415 0.07937228267491486
-0.08688517886580939 0.1957031839274876 -0.00925012709752182 -0.23844115855368617 0.09399531294972752 0.12170875253666469 0.04261189706522677 -0.3116717283150869
-0.19698220088319543 0.1517202540397141 -0.1034532071476969 0.005855415980614945 -0.2634877962094078 0.18843602521524322 0.10708836824761252 0.12666109173008983
0.2118928048447537 0.04507813855657437 0.25371478790118984 -0.07780897204787826 -0.07655367813637506 0.15785365432315887 -0.22214144962674315 0.05216720719605289
-0.034845330771302384 -0.4418060028474592 0.04645696804549302 0.12059251045832262 -0.20919831284071486 -0.3323100913969886 0.01403169538692412 0.022265296605289878
0.052773665576335 0.22421216385864826 -0.07151361539236512 0.060954767574239864 0.14536346826894847 -0.2285876761761469 0.21325971018250417 -0.16387923359224557
0.1534010675776535 -0.026901946842297807 0.06081462972572668 -0.05672003663087585 -0.010795632340730967 -0.12143581233774396 -0.3259420222479491 -0.08655406518815566
0.17422054720773203 -0.13229541084119656 0.18036120092048716 0.18093167816517822 -0.03876228534993111 0.2684002501826013 0.00016435794221267042 -0.17239950927286454
0.32621192316950387 0.10210313054097873 0.009540730895343621 -0.18620101207134523 -0.024548628978765218 0.035253910176396196 0.10346088508282024 -0.24250862990406472
0.011138458312078273 0.08203121241426749 0.003262787094591939 -0.11644575539539755 -0.13525653104634167 -0.2860060070086198 -0.022250886752258277 -0.3052129150313063
0.07639705737115379 0.03597518655440895 -0.2582438297733611 -0.062155574129352 0.1418779660023437 0.303044860599003 0.19277021873158068 0.0644543853422947
0.17049022395998073 0.2659552105058858 -0.33975676900484253 0.14783365939839996 0.15581274905383175 0.10711724828027779 -0.04813366212765703 -0.05021096310907321
-0.01838726120338315 0.21617400245496154 0.14962811237708393 -0.3631320653840879 -0.18392578920732122 -0.059974271648402494 0.23794510697311844 -0.21709962210262188
-0.030575273379562774 -0.05390285007885969 -0.08774001867043793 0.06637847770210673 0.07519702080837173 -0.06519473971893767 0.17963970237954902 -0.15137601315116664
0.27105376557320776 -0.22426436821952567 0.3678931194863437 -0.21475498243047808 -0.17670171624630288 -0.30236324177513235 0.25578689894039264 0.10210834767876782
0.30595093827826664 0.2159978545935744 -0.0878685411652049 -0.29951869295837047 -0.09870753107754421 -0.2623696932009921 -0.06777966090429254 -0.10251114580246341
-0.011728675454071382 0.20026567731628456 -0.384868341312924 0.18574433735116744 -0.03569179619905475 -0.4179584013033363 -0.06655110342129626 0.05161745698210002
0.09747808018380423 0.23249855131783437 -0.11219482821431537 0.06757895411119912 0.15635008927053154 0.07720533644375326 0.15284307442209746 0.27529657371627736
0.1843536265272425 -0.4160984757631156 -0.07370842483496082 0.04006621329077618 0.01739022153117382 -0.03226913833905055 -0.36887239926562726 0.012973581585106864
-0.1939128995123152 0.3046037118818992 0.015824738867102728 -0.1177104256711933 -0.04007631965454612 0.08716216609073749 0.05436304701618768 -0.01475667535702947
-0.04166488023491659 0.12433833338632988 0.1321778681083252 -0.2764537310642409 -0.06988611508004913 0.08055266946319464 -0.33615131384964275 0.1977298714133308
0.09183578607324672 -0.29874353226132977 -0.31666674131539163 -0.3031387129462517 -0.2265931703371467 0.21983646122940986 -0.17379247192774933 -0.053298501250084195
0.3894383172980233 -0.11758189789841274 0.012775159358440289 0.2477707929543397 0.36745398863523754 -0.04864466516921841 0.0776759141077583 -0.0029461708547524833
-0.1001658531266936 -0.25561763250027003 0.2455458115295861 0.23522593758698782 -0.2499753149028637 0.08123355117985634 -0.047088004950908646 -0.27690235059354434
0.20810696340102902 0.08447436315221543 0.23431386685396946 -0.176017566641767 0.010258578746291441 0.2007117547673414 0.010680290744341162 -0.10707539628886509
-0.06735753836478724 0.18631835836704722 0.08065263462862025 -0.15692730233229463 0.03911451043580423 -0.27716787922240776 0.1761215812296269 0.019755009264781433
0.055297713604459967 0.06753905819598276 -0.3648639127311553 -0.23038568791583816 0.055418221045012137 0.12727672914182506 -0.1480754746121972 -0.37477035683448773
-0.11635939451282558 -0.28798563465472365 0.16395542864202406 0.21493004510257446 0.05768283381752998 0.12794586389291007 0.06861383110204794 0.1768828108378958
-0.027449647816684318 0.007785461897182628 0.15916400358778995 0.05460322391723595 -0.09897509151145789 0.047431239541680464 0.13069882408685835 -0.33808817842050654
0.15250112842601657 -0.04857270044232 -0.09322289051502565 0.03498268382263601 0.04869111078270047 -0.1306586752268773 -0.01489336766376102 0.17923778222620576
-0.12977224711978025 -0.049635472262158795 -0.15415353053098735 0.08852484920911884 0.015495531183804995 0.0015867826779220589 0.14012803030332985 0.14904261901583063
00000000: a85a 8ed4 5014 b5bf 55c8 bb47 42a2 d4bf
00000010: 61fd cfa7 18a2 c43f 91bc cd52 cbfb cfbf
00000020: 8efc 7f1f 0bf3 9abf f17d 6ea9 4a97 ce3f
00000030: 1215 dc22 863a bb3f 5912 a381 13c1 d43f
00000040: 5ea8 ad72 54aa a03f aae4 4f4b 92d9 b53f
00000050: 1169 60fe 55f4 97bf 3c36 f756 0300 c8bf
00000060: fd4b 90ce 4413 d3bf c877 d0c4 e6ad c43f
00000070: 596e 2d73 1445 883f 4431 4cee bd51 b43f
00000080: e15a bc69 1b3e b6bf 6687 584b cd0c c93f
00000090: 800c f10a bbf1 82bf 5314 0169 3d85 cebf
000000a0: 60ab 18ab 1310 b83f b02c c807 4e28 bf3f
000000b0: 279f a100 3ad1 a53f bfde 0cfa 6df2 d3bf
000000c0: 99fd 5777 b636 c9bf abe5 9ebc 916b c33f
000000d0: a89c 5dcd e87b babf b76c 4242 d9fb 773f
000000e0: 4954 e7ea fbdc d0bf 9606 d8f2 ab1e c83f
000000f0: e3ce 67af 246a bb3f a604 543f 6e36 c03f
00000100: 5070 88ad 4d1f cb3f fde6 ba55 7b14 a73f
00000110: 1c05 23f3 dc3c d03f 9ef0 47ee 49eb b3bf
00000120: 3af7 fb97 0599 b3bf 8b9f 6f6d 8c34 c43f
00000130: 72cf 9d8a 216f ccbf e851 a901 a9b5 aa3f
00000140: e37e 2948 3fd7 a1bf 2601 5aaf 8c46 dcbf
00000150: ad79 da2c 35c9 a73f e69f 8f98 26df be3f
00000160: 5fbe 03a4 02c7 cabf d592 ab8b 9144 d5bf
00000170: e3ab 5a46 a6bc 8c3f 4497 05c3 b6cc 963f
00000180: af15 7b5f 2605 ab3f 67b3 91f3 fbb2 cc3f
00000190: c834 545f b74e b2bf 3b85 889a 7635 af3f
000001a0: 3ac7 1f27 459b c23f f6fb b868 5c42 cdbf
000001b0: cee6 641c 184c cb3f bdd8 62a6 fef9 c4bf
000001c0: e570 356c a5a2 c33f 53ac 8b17 2f8c 9bbf
000001d0: 2ca8 945b 1823 af3f ac0e b79c 680a adbf
000001e0: 6ea0 be3e 051c 86bf 13c6 8dda 6a16 bfbf
000001f0: 669c 7ced 3bdc d4bf b7a8 513f 6828 b6bf
00000200: 0f33 46e0 db4c c63f 3ca6 7c57 0eef c0bf
00000210: 09dc b569 1316 c73f b9d1 43ec c428 c73f
00000220: 53d7 ca77 a6d8 a3bf 7c70 313e 782d d13f
00000230: a60b 29f9 ef8a 253f 0932 16e7 2f11 c6bf
00000240: 9a02 65f9 a7e0 d43f 0f23 7e46 6e23 ba3f
00000250: db4b 6739 178a 833f 3d0d aa4c 6fd5 c7bf
00000260: e671 809a 4623 99bf 5b09 87ee cc0c a23f
00000270: af8e d89d 697c ba3f dbc5 37d5 850a cfbf
00000280: c206 6d91 c2cf 863f d10c 925e ffff b43f
00000290: 0ac3 ae7b 8fba 6a3f 4566 2e97 63cf bdbf
000002a0: 920c b504 1650 c1bf bef0 a323 ec4d d2bf
000002b0: 5fbd a1bb efc8 96bf 1815 18c0 9b88 d3bf
000002c0: 2a74 ebee c18e b33f 87f7 6ff3 566b a23f
000002d0: db4d d120 1187 d0bf 9da1 4cfc dad2 afbf
000002e0: 7864 00a4 0e29 c23f 1797 5f45 1665 d33f
000002f0: de25 8ccc b1ac c83f 0c02 2125 1580 b03f
00000300: 0d11 19a8 9fd2 c53f 74b5 d400 6905 d13f
00000310: 721b de2c 93be d5bf d79b 2e9e 36ec c23f
00000320: 4a37 be12 acf1 c33f bf88 3336 096c bb3f
00000330: b299 59b1 f9a4 a8bf fb83 e858 40b5 a9bf
00000340: 154c 2036 1cd4 92bf cc0d 65f7 96ab cb3f
00000350: 8f63 9c94 0327 c33f a307 3d46 8e3d d7bf
00000360: e2a9 c458 e18a c7bf 4ca1 a99e f2b4 aebf
00000370: 88ac 583a fc74 ce3f dbcd 73a0 ebc9 cbbf
00000380: 7d09 eddc 1f4f 9fbf 07f2 7f84 2799 abbf
00000390: 0a6e bd3e 2176 b6bf 4a89 e30e 2efe b03f
000003a0: 26eb 20a9 1c40 b33f 43cd f63a 9ab0 b0bf
000003b0: 5e44 640b 6ffe c63f 4b0a f108 4a60 c3bf
000003c0: 910d a6e4 f158 d13f 7c9a 94df b1b4 ccbf
000003d0: 4b81 2795 8f8b d73f 1492 185d 177d cbbf
000003e0: 8664 366e 299e c6bf 75f3 bb5a eb59 d3bf
000003f0: 7c6e 6c03 d05e d03f bdcc edcd c523 ba3f
00000400: 9d7b 853e b394 d33f 0227 be54 d1a5 cb3f
00000410: 5edb a67e 8d7e b6bf ddff b273 502b d3bf
00000420: 1cd2 d891 e544 b9bf cea0 f040 aaca d0bf
00000430: e7fb ea02 025a b1bf 0d73 b2a2 2b3e babf
00000440: ae4c 012c 3405 88bf 79d8 4a43 4ea2 c93f
00000450: 061b cdd2 aea1 d8bf 0b94 2b6f 78c6 c73f
00000460: d524 d2f2 3146 a2bf e6eb 2b98 d4bf dabf
00000470: d309 b53c 7e09 b1bf c817 4873 9a6d aa3f
00000480: c15f 77ce 52f4 b83f 5884 2335 83c2 cd3f
00000490: 78f8 f5dd ccb8 bcbf 4334 ceb5 da4c b13f
000004a0: ed61 129c 4703 c43f cf43 1a9b bac3 b33f
000004b0: 7910 08a3 5c90 c33f 24fc 3385 759e d13f
000004c0: 47b0 6a4e e698 c73f 9b5a 5480 5ba1 dabf
000004d0: bc17 1b2a 8ede b2bf cd52 8407 8f83 a43f
000004e0: 3381 fc02 bece 913f 6132 ac9b 9485 a0bf
000004f0: 0f8c cffa 9a9b d7bf 00ce f5a4 e491 8a3f
00000500: 59c6 d64c 23d2 c8bf 3d78 3191 a07e d33f
00000510: d097 9b3f 5c34 903f 8af0 a73c 4522 bebf
00000520: 5948 8524 e284 a4bf aae8 ce7c 4250 b63f
00000530: 7343 172a 79d5 ab3f a7f4 7270 bf38 8ebf
00000540: d65e 0064 1955 a5bf fc8e 8813 a3d4 bf3f
00000550: 80df 6352 34eb c03f 4bcc 71fd 6ab1 d1bf
00000560: 0e9b b672 0ee4 b1bf e22d f388 199f b43f
00000570: 2777 dfcc 8083 d5bf 25ce 9461 364f c93f
00000580: e87b c9d1 8c82 b73f 3a0d 3d31 9d1e d3bf
00000590: 4c8d 6b94 4444 d4bf 1c5d 90ea 9f66 d3bf
000005a0: 0a29 0c48 0101 cdbf 966e b9e5 9923 cc3f
000005b0: 4a3f 9ceb d43e c6bf a300 97ef f049 abbf
000005c0: 8bac 26b1 8eec d83f 7546 13e6 d819 bebf
000005d0: 325f 2add dc29 8a3f c549 520e f4b6 cf3f
000005e0: 4947 febb 5d84 d73f d2a6 0d1c f4e7 a8bf
000005f0: 2f9c c796 91e2 b33f 33e2 066f 9122 68bf
00000600: 12e7 5a27 78a4 b9bf a2a7 f70e 0a5c d0bf
00000610: b03c 188f 0b6e cf3f cfb3 8d2e e21b ce3f
00000620: 3b55 28ed 30ff cfbf f2c9 a7d5 b8cb b43f
00000630: 8898 9842 eb1b a8bf f306 ffa2 c4b8 d1bf
00000640: fe4a f0bc 3fa3 ca3f 56d5 16a3 1ca0 b53f
00000650: 678c 912d fffd cd3f daba 1f5e be87 c6bf
00000660: 8306 c021 7302 853f 2902 533b ecb0 c93f
00000670: b573 ab5b 8cdf 853f 9054 440d 4b69 bbbf
00000680: 9b73 6af8 573e b1bf 235a eaab 47d9 c73f
00000690: efef 10ac a6a5 b43f 5af0 ae9f 3116 c4bf
000006a0: 6add 3d2e d106 a43f 49c3 3058 1ebd d1bf
000006b0: 9222 c0e7 268b c63f 97cc e53a a83a 943f
000006c0: ca0f f35e fb4f ac3f e385 275e 3d4a b13f
000006d0: 31f0 2a2b ee59 d7bf 8151 8839 477d cdbf
000006e0: 8e4d fbed c65f ac3f d75d 9a96 9a4a c03f
000006f0: c547 661c 23f4 c2bf eb51 87ce 3cfc d7bf
00000700: 9dd3 03b2 bac9 bdbf 75d4 a34c 5b6e d2bf
00000710: ac73 02d2 7dfc c43f b259 52e5 d382 cb3f
00000720: c8e3 92b9 9a88 ad3f d00c 8ab2 8760 c03f
00000730: d4f5 a210 ad90 b13f 0cfc e28f 18a4 c63f
00000740: b633 a3ae c21b 9cbf e1f2 b803 a6e3 7f3f
00000750: f913 0e6f 7c5f c43f 731d f629 f4f4 ab3f
00000760: a80a 297d 6e56 b9bf 1cd0 474d e848 a83f
00000770: 4a13 8a33 bdba c03f 0cbd 5e99 3ca3 d5bf
00000780: e3ae 982f 2885 c33f 639f c15f 85de a8bf
00000790: e128 0092 74dd b7bf 6d99 e315 40e9 a13f
000007a0: 2cd1 d590 0aee a83f 3ae1 8468 6cb9 c0bf
000007b0: f662 58f8 6980 8ebf 733f 6f7e 43f1 c63f
000007c0: d268 a782 609c c0bf 1ecb 2c14 d269 a9bf
000007d0: 88c5 188a 4dbb c3bf 0f8b 3c84 90a9 b63f
000007e0: 0a46 59fd 1ebc 8f3f f83e 48ed 72ff 593f
000007f0: efed b31d b7ef c13f 0d0c 311b d413 c33f

model.sequential_layers.2.Linear 2.weight f8 [64, 129]
0.10842886882183629 -0.10565613824722984 0.07444149046155484 0.06895445492120034 -0.11467896760800594 0.10255930614325698 -0.029704878505332842 0.05768031216784862
-0.04156677662338923 0.025866507193990078 -0.004916022426947913 0.017020507526904444 0.051475196361062237 -0.34987895425299026 0.08316908924688508 0.029388723020550244
-0.01567570828277476 -0.08676150693919009 -0.09189704991751593 -0.2104279026328419 -0.17438192988561133 -0.21435778615007203 0.005793192648270908 0.019971153603862195
-0.007098803963190096 0.06132961995894741 -0.2859030839730436 -0.09263015387812501 0.20634138419706355 0.05639614718653325 0.10827530967209856 0.09782469570295324
0.0811836998268728 0.1941946612646578 -0.03781421981015884 0.1862105930230183 0.01611217791113877 -0.07238364712386208 0.1859200972738923 -0.18143760386976035
-0.20826892709452313 -0.22575855399271647 -0.11965874722983194 0.015770203059585503 0.21375829746774216 0.053438730226046866 -0.08229958855443777 -0.03780122143030461
0.052338585114090765 -0.08908779674041288 0.15558414128769485 -0.27230500534529145 -0.09084622364148448 -0.06290635912453768 0.2081791536507883 0.03687051252252599
0.21213052192746906 -0.27547442850543075 0.04847365553778184 -0.1568334584099447 -0.045550897232991536 -0.1999673049717334 -0.1575644840160036 -0.1553735992522764
0.1193278211325977 0.06105124061310475 0.15775880468280676 0.05906053115440565 -0.020871375100340553 -0.09144816492044942 -0.1861089576708749 0.11169126494604538
-0.013709106803159208 0.19816255757153356 -0.0012145235496444488 -0.14267203964987624 -0.058493231592872126 0.1269957900453405 -0.17347533755872546 -0.29196400447574944
-0.17495189494190846 0.044396654939050845 0.18834394612176084 0.15344459963057633 -0.05463176681452315 -0.16178108762934573 -0.16670673295275784 -0.013191717609499342
-0.19619597997880395 -0.18022754673011313 0.020826557323779783 -0.19397398046752695 -0.01744594352166764 -0.1408852850878593 0.017320151365405254 0.25053361718136485
-0.190555947521121 -0.05572350712910224 0.07308080317673633 -0.23548969030527692 0.015663489302072783 -0.04685535090336607 0.2637162938271484 -0.29519960686256524
0.03735923892839021 0.05016854554457337 0.034292514215948186 -0.019993952225760534 -0.16084278632714663 0.19018375322686135 -0.14635049345034726 -0.004515690666816293
0.14396094411574994 -0.025947121564653994 -0.14517228227809942 -0.09281378990089105 -0.11688967932843662 0.0546863625202529 0.11400150360094433 -0.17998832966722766
0.04918132284086799 -0.07485848487391092 -0.02962493887509115 0.22219180379353218 -0.17082535578431912 0.0036046637085793477 -0.11511990963308487 0.14909887962096152
-0.11190374069982098 0.07284592485620381 0.063079502999955 -0.006655667877143733 -0.00561304258848136 0.009660487554239702 -0.16213278447726298 0.028031246510165527
0.05257922951354401 -0.06828544325492224 -0.23697921584340126 0.23449139274647796 -0.03842573334135103 -0.013539221509143414 -0.006438683272750405 0.031752037794353864
0.15148462867004023 -0.23950239283079336 0.12357482230060118 -0.15242781542096084 -0.2044676136822296 -0.1520772451756001 0.1806579548269311 0.23747313354746954
-0.03686848335643327 -0.17451283625857736 0.17445684990046484 0.16243020355100216 0.13818101505844035 0.16507152398595534 -0.32367578751728343 0.13782543677207768
0.1470669935700936 0.048745330910788934 0.11623329056632944 0.08563109210889816 -0.006963568879268985 -0.45901330492391085 -0.1639268664973311 -0.21078844496514307
0.14955084033976174 0.12577967851275437 -0.0802302629367257 0.04622961677363765 0.021683934878537852 -0.1563736244632088 0.20157971453482415 -0.155113261990848
-0.12841792849655667 -0.10136755822702533 -0.1817647018471507 0.006763344273246662 -0.21775970687815346 -0.026775250961823756 -0.06225337862820753 0.059077383364965715
-0.04699010131013368 -0.08597261828273783 -0.15849834200734914 -0.06932156499294645 -0.12939643823880242 -0.13689253550734276 0.21879973693133425 -0.23413371437061767
0.08743685062004787 -0.08217446893144863 0.11426264090605272 0.043466335030615366 0.0054897680335102405 0.10561784891981103 -0.05489466976970978 -0.24074862158389235
0.02945908356507618 0.15131347564598946 0.014441948342851287 -0.16577310064423523 0.1335620132610299 -0.10583654399127561 0.1424096529057795 0.08600240152642119
0.19873652041849768 -0.09392201882266647 0.17912487834084512 -0.16035145255781777 0.06107906809597773 0.014697858930728828 0.029915995651113237 0.07254537755962377
-0.17968260609019687 -0.23355961524253188 0.04451438612240662 0.0016139938605343027 0.1410949543041968 0.0028052722990175288 9.192183699086483e-05 -0.09781664611307675
0.05532222220017129 0.046008816364117 0.11723336797965814 -0.15244249502603557 0.0551185196870833 -0.13565144327173262 0.0779530444368032 -0.09023598592267675
0.0008617720732040288 0.07611070225890186 0.16094111183767987 -0.22484574430552326 0.04352294625175644 0.14744098141374454 0.12795602883861726 -0.04057702807915636
-0.014733878865755497 0.09253897960348605 -0.27534445855873324 -0.11410635302297777 -0.0280530850060001 -0.1315100313410129 -0.1065410354709243 -0.0304240928574962
-0.206409694191768 -0.1397490232349784 -0.08724353189375711 -0.1802972972892147 0.16348002944064535 -0.0645582467115846 -0.2415367803113214 -0.011871778658573705
00000000: 2535 888d fec1 bb3f dfbc 64da 470c bbbf
00000010: ab74 fff6 980e b33f d8d0 ccc8 ffa6 b13f
00000020: 8c59 6acf 995b bdbf 4c26 c9a1 5341 ba3f
00000030: b625 d9a6 f46a 9ebf 1e99 c41c 4688 ad3f
00000040: 0c2b 6594 3d48 a5bf 7ef9 d6e9 bf7c 9a3f
00000050: 9f63 cdb8 d222 74bf e5eb c1ec d26d 913f
00000060: e014 daf9 f45a aa3f 47d1 84b2 6a64 d6bf
00000070: 737d 5ac6 914a b53f 3355 fad0 1318 9e3f
00000080: 4024 aaf9 4a0d 90bf f301 db8a 0036 b6bf
00000090: ca9e fea7 9086 b7bf aea9 fc2f 4def cabf
000000a0: d99f efa6 2552 c6bf a729 9470 1370 cbbf
000000b0: 5c86 6b4f 9aba 773f 2e30 5e6e 5173 943f
000000c0: 1e47 cdad a213 7dbf 36e4 ff8f 9866 af3f
000000d0: 4b58 df72 3c4c d2bf b8ad 8719 9cb6 b7bf
000000e0: 7e08 78fc 6469 ca3f 59b8 92af f4df ac3f
000000f0: 0285 0142 eeb7 bb3f c60b c90c 0a0b b93f
00000100: e985 b977 74c8 b43f a441 98e3 5edb c83f
00000110: 2c18 d1aa 625c a3bf c2ef 99ab bfd5 c73f
00000120: ed5e c8f4 b57f 903f 6c85 2915 bc87 b2bf
00000130: def1 bad0 3acc c73f 034f 71ef 5839 c7bf
00000140: 1b6e 5263 8ea8 cabf 9f71 1803 a8e5 ccbf
00000150: 384f 08a6 f4a1 bebf 959c 9169 1026 903f
00000160: 1ab1 6f90 6e5c cb3f 243f 523d 525c ab3f
00000170: f1c8 50f9 9511 b5bf ae82 9583 ae5a a3bf
00000180: c592 c47e 1fcc aa3f 5f07 7935 75ce b6bf
00000190: a9ae 4d5f 2eea c33f 3eb0 1ff9 716d d1bf
000001a0: e459 81b7 b241 b7bf 687b 2693 a11a b0bf
000001b0: dbcd 5150 9da5 ca3f e827 f11a b1e0 a23f
000001c0: d4b8 14cb 1727 cb3f d92a 547f 5fa1 d1bf
000001d0: 0233 81fa 89d1 a83f 6907 6567 1e13 c4bf
000001e0: 8e9b d67b 7252 a7bf a7b9 8f55 8798 c9bf
000001f0: 920f eeb0 122b c4bf a6a4 b937 48e3 c3bf
00000200: 4377 44a1 448c be3f a184 a0b3 1b42 af3f
00000210: fb64 62c5 7031 c43f 9bca 9593 2e3d ae3f
00000220: e4fe e945 4e5f 95bf bbcf 9c9d 2569 b7bf
00000230: fd32 5817 6bd2 c7bf d52f 317a cc97 bc3f
00000240: 12f9 032b 8513 8cbf b8dd 0704 645d c93f
00000250: baad 42bb 14e6 53bf 5ac7 2cd0 1343 c2bf
00000260: 611d 7529 d3f2 adbf cab9 7ce6 6541 c03f
00000270: b817 bd9a 7034 c6bf 5c48 b5ca 89af d2bf
00000280: 6909 93dd d264 c6bf bcb0 078a 28bb a63f
00000290: d70b 7f88 a71b c83f 34a0 9498 12a4 c33f
000002a0: c907 95e7 b1f8 abbf 585b 3d20 3eb5 c4bf
000002b0: 880d 076f a556 c5bf 06db af5d 4204 8bbf
000002c0: 16cd ce2a f31c c9bf a1a6 853d b211 c7bf
000002d0: 3a28 609a 8e53 953f 3205 31af 23d4 c8bf
000002e0: 4763 7e73 59dd 91bf aa51 f86d 8708 c2bf
000002f0: ec69 b4ae 5fbc 913f 45ec 1527 be08 d03f
00000300: 43ac 5425 2364 c8bf 41d0 79a1 ca87 acbf
00000310: e507 9c6b 6cb5 b23f b502 34b3 8624 cebf
00000320: 2fb2 2cf9 160a 903f 298d 8baf 6cfd a7bf
00000330: 473c 5a4e bae0 d03f d712 51e4 8ce4 d2bf
00000340: ef40 cd0a c020 a33f 8cbc cd0c b1af a93f
00000350: b637 1cd6 c98e a13f a9af b56b 4b79 94bf
00000360: 4f4b 8915 7f96 c4bf f981 2bf4 f057 c83f
00000370: c1b4 8feb 9cbb c2bf 49aa b97b 0b7f 72bf
00000380: 6270 70ed 4f6d c23f 2c9e 2eda e191 9abf
00000390: 68c6 555e 0195 c2bf 07fd 3d00 a5c2 b7bf
000003a0: bf9f f465 7bec bdbf 5a95 1fd5 d9ff ab3f
000003b0: 922f a9d9 332f bd3f 648c ca8a db09 c7bf
000003c0: 25e1 595a 4b2e a93f 128f 5cf8 ec29 b3bf
000003d0: 8e43 75fe ff55 9ebf 8fc1 5df1 c770 cc3f
000003e0: 60ea 35f2 9add c5bf cdc3 b917 8787 6d3f
000003f0: 6319 fe96 7f78 bdbf 86cf eb0d ac15 c33f
00000400: 6615 9b3a b9a5 bcbf 2a7e e7d0 07a6 b23f
00000410: 17c8 6e72 fa25 b03f 4c8e d83d f942 7bbf
00000420: 61cb 93a5 b3fd 76bf 9ef9 deb0 e0c8 833f
00000430: b439 785f c4c0 c4bf ffed 1b1c 39b4 9c3f
00000440: 134a 6b2e aaeb aa3f 0fa0 92a1 277b b1bf
00000450: 7287 f0be 5555 cebf 1612 855f d003 ce3f
00000460: 5145 0da8 89ac a3bf 71b4 c28c 73ba 8bbf
00000470: 5f4b 5fe1 725f 7abf 3ff3 d097 cd41 a03f
00000480: f904 fe2a d963 c33f f9d0 42b0 03a8 cebf
00000490: 2cdd 637c 99a2 bf3f 90eb 1d31 c182 c3bf
000004a0: 7e9c eda8 fe2b cabf 615b 3f65 4477 c3bf
000004b0: 9638 dfc3 cc1f c73f 3fec 2107 8565 ce3f
000004c0: 87ba 8904 6de0 a2bf cb3c 3bc6 6f56 c6bf
000004d0: e05d 7120 9a54 c63f b92c 114e 83ca c43f
000004e0: a752 4d5e eaaf c13f a3a1 824e 1021 c53f
000004f0: a633 79a6 1ab7 d4bf 471a bf8f 43a4 c13f
00000500: 2530 da5b 17d3 c23f 1267 30e4 25f5 a83f
00000510: 7e58 b005 77c1 bd3f 26e4 2054 ebeb b53f
00000520: 9534 99c9 d485 7cbf c3ee 4457 7960 ddbf
00000530: 8b59 4539 8efb c4bf 85ff bfa2 1dfb cabf
00000540: bc9e 2c60 7b24 c33f ab59 db6a 8c19 c03f
00000550: ac74 7673 f889 b4bf 6b7c 4c88 68ab a73f
00000560: 4b8f 9b3c 5034 963f 4863 8309 0d04 c4bf
00000570: 2867 bb34 5dcd c93f e999 b659 c0da c3bf
00000580: 7d6f 8ea9 ff6f c0bf 05e0 756b 39f3 b9bf
00000590: 0a17 00d5 1044 c7bf 0c64 7167 e1b3 7b3f
000005a0: c3cf b6d1 8cdf cbbf 3f95 e4ac f86a 9bbf
000005b0: bb1c 8cc2 acdf afbf 71b8 f80a 643f ae3f
000005c0: 7dba b928 160f a8bf c037 e02f 4d02 b6bf
000005d0: 1826 b275 ac49 c4bf d45f 8dde 0ebf b1bf
000005e0: 602e 3aff 0f90 c0bf fa07 89d1 b185 c1bf
000005f0: 7c2a 3f39 a101 cc3f 7f70 0ef3 17f8 cdbf
00000600: 15db e0ed 4262 b63f 0772 a0d0 6209 b5bf
00000610: 3d99 d801 5140 bd3f 10f0 dd2e 3841 a63f
00000620: 2e33 aa62 707c 763f 6505 fc76 c509 bb3f
00000630: 6d70 c576 271b acbf 5144 21d0 d9d0 cebf
00000640: 59b4 eda1 852a 9e3f a6fb ab6e 3d5e c33f
00000650: 81a4 957e bd93 8d3f ac68 e98e 0d38 c5bf
00000660: 5cd6 785f 8f18 c13f 9f08 2a8f 1a18 bbbf
00000670: 72b9 eec0 7a3a c23f e4f5 eedd 4004 b63f
00000680: b9f0 dbc3 3270 c93f d7b7 37ff 450b b8bf
00000690: 3cdc 2f63 90ed c63f cf0b 4d7a 6586 c4bf
000006a0: cf7f e26f c145 af3f 3cfb 6d3b e919 8e3f
000006b0: bd94 cb7b 4ca2 9e3f d934 1878 5592 b23f
000006c0: 12a2 68f2 d6ff c6bf b806 910e 48e5 cdbf
000006d0: 1bcb 31f1 96ca a63f 3742 34b6 9471 5a3f
000006e0: 6ffe 2e43 660f c23f 3c20 fb18 15fb 663f
000006f0: 4dd1 7822 c518 183f c260 0f00 830a b9bf
00000700: e6fd 2ebe 3153 ac3f 5d1d 39b3 778e a73f
00000710: 0afa 7889 0103 be3f d427 5455 3c83 c3bf
00000720: 367f eb9e 7e38 ac3f e8ee 40c8 065d c1bf
00000730: eacd 7a10 bbf4 b33f 85d0 75a0 b419 b7bf
00000740: b67f 7d6f 113d 4c3f 13dc 13b1 fd7b b33f
00000750: 035d f6e5 b799 c43f a3ef 37cf bec7 ccbf
00000760: 8ec0 8dbd a348 a63f 018f a198 58df c23f
00000770: e90c 98f7 dc60 c03f 5840 2321 83c6 a4bf
00000780: 3e21 f9be cb2c 8ebf 1b8f 0073 a2b0 b73f
00000790: e840 295d 3e9f d1bf 8fe0 7fee 1236 bdbf
000007a0: ba57 9caa f2b9 9cbf a050 da19 52d5 c0bf
000007b0: 9893 07f7 4546 bbbf 506a 554f 7e27 9fbf
000007c0: c3c4 1003 a26b cabf 3c99 38c6 4be3 c1bf
000007d0: a86e 4594 9755 b6bf f709 b559 fb13 c7bf
000007e0: 8193 ffe1 e9ec c43f 0f38 50a6 e386 b0bf
000007f0: 03f0 1b5e adea cebf c6e0 ab28 3b50 88bf

model.sequential_layers.1.Linear 1.weight f8 [128, 257]
-0.11938174244196564 -0.12161115408894262 0.08128865845304634 -0.2841239853640315 0.13394218025524912 0.09131551442316066 -0.009453519629215524 0.0899088264337574
-0.03398488591060464 -0.23304935092311727 -0.03699556633631078 -0.08978305855951589 0.3185738009201379 -0.2354478924543745 0.01040943808570183 -0.13458889506471666
-0.26871900494565965 0.018969268495055196 0.10704360180503203 0.008594540838708439 0.1682809799767667 0.031859366045743964 0.09486312651906151 -0.2017888495827519
0.05089718439940725 0.060718020082350166 0.050737733627054235 0.1314989727341887 -0.06023899195475671 -0.11769301961765964 -0.08049072872267628 0.016146160229577072
0.10016995888042998 -0.17971572160251928 -0.04482590237934476 -0.1533958795175872 0.03623568733196405 0.0960731782715413 -0.10796564755843835 0.12479490261786917
0.014947758468860286 0.20422975595811219 0.10926258632633831 0.03807521639334514 -0.03853588926110188 0.010504736499238342 -0.2598265980164058 0.13035904623722422
-0.15341745110282842 -0.08426655687332321 0.13327320711907226 0.09627621352732535 -0.3022350134049539 0.09186327662119158 -0.03709865368296681 -0.1691761079107873
0.11341750149497719 0.17025356826134302 0.09080862713200089 -0.036926570823312396 -0.054303127477729675 -0.1913360106464287 -0.10313733703788984 -0.19531106302182735
0.03656452623295861 -0.20570357784596227 -0.08057275840839463 -0.1880543912559153 -0.11443705459455843 0.11183509537561441 0.054560385547782954 -0.22723650010383115
0.055379197319516196 -0.13458761527106058 -0.16041888012752753 -0.10465152508946335 0.1700746074624851 0.15919404599718454 0.1373919849550288 0.2159574242149035
0.0507641550270219 -0.11856264370017226 -0.206528058617876 -0.053703764739307505 -0.15970574801653104 0.28887407780954066 -0.06540738727712654 -0.18192129813663402
-0.1558815228303644 -0.11458377174574239 -0.24853432684272575 -0.08144297422363517 -0.01881238880656109 0.23500599926787247 0.02077892361097221 -0.6161224327831027
-0.09808014520997886 0.017883104349191627 0.0034510810114401665 0.053262914125137215 -0.07226508553771177 0.07905088017862746 -0.15636813569553695 -0.03557116800232332
0.07071094518315488 0.08374140491540326 -0.11579546340651337 0.11700583027093507 -0.05284834851740008 0.03756632050592492 0.027676296004338113 0.04143581290012338
-0.09599036611196177 -0.09807250290183536 -0.07758989750044648 -0.02021699616037064 -0.01684046861170114 -0.05649675196337906 0.06569732585285955 -0.03867956312313532
0.08207822912677339 0.16637022941651586 -0.0920339442404208 0.0030149586678381007 0.026623746084228538 0.0022779017870592495 0.01420524463204627 -0.07102066694642244
-0.1708481010170703 -0.046613395992328575 0.1544396959292329 -0.04385794869455804 -0.23404302559123477 -0.12471591439963134 0.1522615805908432 -0.1405374768957329
-0.056427026351892506 -0.15049522057817386 -0.18446162231491578 -0.13969055902930613 -0.13937135038675427 0.08936267545160424 -0.1320149814002675 -0.14778849381564477
-0.2667429578211592 -0.04274770294379358 -0.1233255317278701 -0.22843920005021853 0.09922186664321347 0.03661516272818586 -0.05326532320522339 0.05649222819209323
-0.09330353898782565 -0.04645299249231972 0.00730089267129854 -0.07725925468584799 -0.04718272495492697 0.002543730667658482 0.0751049055804698 -0.017776847307394695
-0.0704094668774628 0.07562247069879542 -0.03368484280390341 -0.040244325843109524 0.15031338283798168 0.19369946319045883 0.008800483793769485 -0.07981850287077945
0.13982267342323224 0.012432627343370218 -0.12830430318272742 0.15500079364489622 0.030281157718533094 0.13305730930669085 -0.07018044738003355 0.008967275053129864
0.1959481143747805 -0.12918482714964052 -0.011009875314397717 0.0785132766851496 0.052198288230163196 0.04185095915558809 -0.25351933651157516 -0.2780523869575751
-0.06558516740092085 0.10102128828051868 0.02771215219693414 0.1242127086523088 -0.1069800896074608 -0.006490171629376785 -0.0033820221022810874 -0.052363153368246235
0.16752133777936276 0.2036953124285622 -0.09136537486208603 -0.12152709217387359 -0.03500548400481736 -0.14489820329863748 -0.07226264091851775 -0.06382916722148953
-0.02605266595465545 -0.09292845138950341 -0.15666509430038286 -0.09423998288104883 0.09389593886249631 0.02684599057299904 -0.036780151664346776 -0.06200179494518397
0.08714742486706523 -0.18788839190114257 0.03208469158151649 0.1979574633940108 -0.017412509730215454 -0.17434184250621923 0.0583730935310137 0.025638230317019044
-0.21609251096225277 -0.09783809057785889 0.2597653366822768 -0.03225827469693875 -0.011922407462857946 -0.16341640223585313 -0.11121329323393131 0.09585500787653459
-0.08681862065672828 0.006749928836200254 -0.018791236785592965 0.06367301029677742 -0.13172027698522235 0.05959213786000933 -0.04897594698322086 -0.11440635160306896
-0.01317826188094583 0.16968744455514376 -0.14190130161719153 0.011850169961099104 -0.017832771851650758 -0.10879044973300697 -0.02168530143012666 -0.06239011539199383
0.07399075578919795 -0.26812732517250637 -0.14472809750934618 -0.19237742560891735 -0.0406894268210556 -0.012662759464529607 -0.061310283837898015 0.04308380668546021
-0.20857376696586719 0.03376192425294094 0.06746193995206472 -0.08320297843661471 0.017898498614175248 0.0743354348859156 0.158015615855708 0.11407359381281756
00000000: d019 8747 cd8f bebf 1f0d a499 e821 bfbf
00000010: b06f 9761 55cf b43f e273 495e 162f d2bf
00000020: 5e28 e071 0425 c13f b89c 101c 7460 b73f
00000030: 5ad9 1ded 5d5c 83bf 479c 27cd 4304 b73f
00000040: 7cb3 168b 7766 a1bf f7ce 48a6 8fd4 cdbf
00000050: 36dd 0537 15f1 a2bf 337b 3fc4 05fc b6bf
00000060: 3e1f 145e 8363 d43f 0d78 0013 2823 cebf
00000070: 81bf 2e21 8b51 853f 0697 5a7b 353a c1bf
00000080: 8d89 8332 b132 d1bf 5edf 420f ae6c 933f
00000090: 20a8 ffa0 3567 bb3f eb71 9cbe 039a 813f
000000a0: 63ff c42c 3b8a c53f 18bc 79ee de4f a03f
000000b0: dae4 fe29 f348 b83f 94e3 d38e 37d4 c9bf
000000c0: 3d6a e81c 320f aa3f 5029 10ad 6e16 af3f
000000d0: 1ee5 33d5 4bfa a93f 7aeb ac55 f5d4 c03f
000000e0: 1485 c728 a5d7 aebf 87af 3936 2121 bebf
000000f0: 09bf 7e57 0a9b b4bf e86a 9178 9e88 903f
00000100: 66e0 6e09 bda4 b93f ed0f 6ebd ec00 c7bf
00000110: 6948 77b1 6bf3 a6bf ba41 efe6 79a2 c3bf
00000120: 63e6 13e8 7b8d a23f caf4 b276 4098 b83f
00000130: 54de 5afd a2a3 bbbf 4f85 7309 8ff2 bf3f
00000140: ae97 2d2e ee9c 8e3f 4be6 5a5d 3324 ca3f
00000150: 1eb0 f202 a2f8 bb3f 0624 6542 987e a33f
00000160: 248a 32e0 f9ba a3bf 8615 bddd 8183 853f
00000170: 3321 47bd ffa0 d0bf 02cf 29f0 9aaf c03f
00000180: 6ba8 8fdb 2ea3 c3bf d2dd ea39 7e92 b5bf
00000190: a635 01b1 180f c13f 0c8a 7bd4 8ea5 b83f
000001a0: 0df2 9186 d157 d3bf 739a ca08 5a84 b73f
000001b0: 8d83 9640 98fe a2bf 24e6 5e0d 90a7 c5bf
000001c0: 7f07 b7eb ed08 bd3f ced9 da71 deca c53f
000001d0: 9802 baf3 3b3f b73f 7e40 141c 0ae8 a2bf
000001e0: 7dbb 2c99 9ecd abbf ac02 23ca b27d c8bf
000001f0: 1f03 9361 3567 babf 29e5 1cf2 f3ff c8bf
00000200: 6484 bae8 95b8 a23f 6c61 c2ad 7e54 cabf
00000210: 3104 5092 6aa0 b4bf ad1b 2892 2a12 c8bf
00000220: 6727 ef2e bf4b bdbf 0fed 2e8d 39a1 bc3f
00000230: 3d75 2bbf 56ef ab3f 6da4 33ec 1516 cdbf
00000240: 4a6b bb82 a95a ac3f 4196 04bf 2a3a c1bf
00000250: aa82 e719 9b88 c4bf 545b bc3d 71ca babf
00000260: 7a38 7736 01c5 c53f 4f4e a372 7860 c43f
00000270: c4a3 0e81 0f96 c13f 9c6b 2a2d 7ea4 cb3f
00000280: 3dde 4c63 c2fd a93f cb33 3815 1f5a bebf
00000290: d22d bcec 826f cabf 426e 7452 0f7f abbf
000002a0: 7c6b 5bea 3c71 c4bf 2caa 36b3 e97c d23f
000002b0: 0da6 45dd 89be b0bf afaa f874 3249 c7bf
000002c0: 35b5 4dfd ecf3 c3bf f6df 4cb0 5c55 bdbf
000002d0: 6687 dc0a f9cf cfbf 448c c75e 72d9 b4bf
000002e0: 5b3a bc0a 8e43 93bf 6c12 9c34 ad14 ce3f
000002f0: 9dbb 6bf5 1147 953f 1255 6464 46b7 e3bf
00000300: 8f54 10c8 c71b b9bf c7ab 52d1 f24f 923f
00000310: a836 8f02 7145 6c3f 56a5 83d4 4645 ab3f
00000320: fcf0 06f3 f67f b2bf 0654 16b1 ad3c b43f
00000330: fb72 79fe de03 c4bf 9441 8056 6236 a2bf
00000340: fee8 07cd 1c1a b23f bfc8 6ea3 1370 b53f
00000350: f82b 5b80 c5a4 bdbf 6b7a 7416 18f4 bd3f
00000360: a347 0f51 f00e abbf 830c 028c e43b a33f
00000370: 2b29 dac8 2c57 9c3f a812 942a 1337 a53f
00000380: c893 2e1b d392 b8bf daa9 9990 471b b9bf
00000390: 5cb0 4378 eedc b3bf fe1e 54a5 c3b3 94bf
000003a0: 720c bfb7 a03e 91bf a99f 066c 24ed acbf
000003b0: 0502 f939 8ad1 b03f ba5d 46c5 cecd a3bf
000003c0: 6d26 d02d 1403 b53f 269c 2fa3 9e4b c53f
000003d0: 426e a25c 898f b7bf 3caa 119c d3b2 683f
000003e0: 9642 ea5a 4143 9b3f 3fb5 b935 1ba9 623f
000003f0: 29b3 02a9 a317 8d3f 83ff df11 692e b2bf
00000400: d5db 39bf 59de c5bf 8b62 af06 b6dd a7bf
00000410: d030 9c11 aec4 c33f bd23 a08e 8c74 a6bf
00000420: 23b8 6232 1ff5 cdbf 661c a3d5 61ed bfbf
00000430: a197 89b6 4e7d c33f 6394 90cd 21fd c1bf
00000440: 0875 95d1 00e4 acbf 4335 4b69 6d43 c3bf
00000450: 5fd6 9a3d 709c c7bf 3ba0 4b57 61e1 c1bf
00000460: 2b8a f49f ebd6 c1bf 3736 8ce8 78e0 b63f
00000470: fd1c d9ed dde5 c0bf c5e6 d4bd bbea c2bf
00000480: 92ee 110e 5112 d1bf add4 3ee4 06e3 a5bf
00000490: 8173 8815 4392 bfbf 1388 abe6 7e3d cdbf
000004a0: 54da 47b0 9a66 b93f fd19 e9fc 38bf a23f
000004b0: a3c7 5aaa 9745 abbf 035d 20a1 8cec ac3f
000004c0: 02c4 8da0 bde2 b7bf f197 1cc7 afc8 a7bf
000004d0: 17cc 1374 8ae7 7d3f b465 3034 43c7 b3bf
000004e0: b732 3c89 5528 a8bf 49ab e000 97d6 643f
000004f0: c1be 3c39 133a b33f 3db7 3e07 1834 92bf
00000500: 8c47 91d5 5a06 b2bf b579 7e86 fe5b b33f
00000510: a465 6dc4 233f a1bf 9c02 b17e e79a a4bf
00000520: 685a b80b 783d c33f 7cf0 d3dd 24cb c83f
00000530: 2c6e aaf0 fc05 823f 1318 7243 fc6e b4bf
00000540: fac8 cb98 b5e5 c13f 2dbb befe 4676 893f
00000550: 938d 0d81 466c c0bf 2e89 c7e5 10d7 c33f
00000560: 372f 5818 0602 9f3f aea5 fb9b 0508 c13f
00000570: 5dde 5086 58f7 b1bf 330e b348 6f5d 823f
00000580: 26ed 79eb d314 c93f 98a1 dfdf 2089 c0bf
00000590: 975a 4473 588c 86bf c61d aa33 7219 b43f
000005a0: 9722 b6e9 bbb9 aa3f 8c4b c229 7d6d a53f
000005b0: 2522 ce2a a939 d0bf 71ae 233d 9ccb d1bf
000005c0: acf2 1685 30ca b0bf 7657 5df9 87dc b93f
000005d0: c4e8 8c0d 9360 9c3f 1ec4 6871 67cc bf3f
000005e0: eceb 2f12 0c63 bbbf db2f 4c2e 7095 7abf
000005f0: c64f 5b4a 9db4 6bbf 3ccf 76de 57cf aabf
00000600: 0980 92d5 5671 c53f ac55 9d20 b012 ca3f
00000610: 05fa 04a1 b863 b7bf d0fa 7646 661c bfbf
00000620: 6a72 f621 3dec a1bf f159 353a 068c c2bf
00000630: 48b6 77ef cd7f b2bf 5549 bfb9 1b57 b0bf
00000640: 93d4 fed0 8cad 9abf cdf9 95b3 28ca b7bf
00000650: 7ff2 3810 9a0d c4bf d71f 738c 1c20 b8bf
00000660: 5442 a472 9009 b83f 95b5 28ee 837d 9b3f
00000670: cfa0 1419 d9d4 a2bf 0e6d 2a03 b3be afbf
00000680: d412 bc2b 4b4f b63f 5bb8 4111 ba0c c8bf
00000690: dff7 169a 676d a03f dd60 a38f ab56 c93f
000006a0: dd89 54bf 95d4 91bf 75bd f15f d550 c6bf
000006b0: 0d36 5dff 13e3 ad3f 7ba5 f482 e840 9a3f
000006c0: a327 bf5d eba8 cbbf e2c1 55c7 ea0b b9bf
000006d0: e5d3 6bca fe9f d03f 8f8d b215 2884 a0bf
000006e0: 22f7 2371 c66a 88bf fad1 9d23 d4ea c4bf
000006f0: 2cf8 5171 7978 bcbf 52cf fc2b f489 b83f
00000700: df8b 67c0 be39 b6bf d400 a139 d0a5 7b3f
00000710: cf34 c88d 023e 93bf c9ce dcd8 df4c b03f
00000720: 4f90 efc4 35dc c0bf a838 6a56 dc82 ae3f
00000730: d4c8 2a15 6013 a9bf f500 9712 bc49 bdbf
00000740: 3ad1 5f5e 34fd 8abf e9fc 7374 51b8 c53f
00000750: 6153 da64 d229 c2bf 7ccd 7ae3 e644 883f
00000760: 5b77 990f c142 92bf ee6b b8df b0d9 bbbf
00000770: d401 c9f1 ab34 96bf 3591 67e2 98f1 afbf
00000780: 5428 52e4 0ef1 b23f 6ee9 3183 ff28 d1bf
00000790: 62b6 ce46 7386 c2bf fc4e bdcf d29f c8bf
000007a0: 2295 fa9a 3ed5 a4bf e1d8 37ce eeee 89bf
000007b0: 1b08 fcbf 0f64 afbf a308 67a9 140f a63f
000007c0: a101 f691 8bb2 cabf f766 0831 3e49 a13f
000007d0: 179f d189 2f45 b13f 57a7 5057 ca4c b5bf
000007e0: bf12 c8e8 fb53 923f 94d9 c4a5 a507 b33f
000007f0: b0c4 2d0f db39 c43f a863 c352 ed33 bd3f

model.sequential_layers.0.Linear 0.weight f8 [256, 31]
-0.14290068357974198 0.10341022092794734 0.09839504648891843 0.012492073370876459 -0.055492948378835394 -0.05092087400357094 0.032515072437818676 -0.00020158087646627914
-0.2590719076605958 0.25467905452171624 -0.10956032428919792 -0.04243235008555722 -0.17774489405242175 -0.13237212762740094 0.032171810176040726 0.14174532321417407
0.06018327651722379 0.055926435398787944 0.0029580711760750123 0.2124151204550323 -0.069131270903293 -0.11205053658316338 -0.2669328769731972 0.0004699343367524001
-0.08848848340388153 -0.03516313108995963 -0.0459556791678809 -0.15403816431593875 0.114285608389584 -0.06442866953906445 -0.21984417466336892 0.029055232535870737
0.00845117149680525 0.021725793973752256 0.10008832331549414 -0.038640599563294964 -0.07206490555024388 -0.11585335738353067 -0.025282344150913946 0.06096225239317224
-0.004783053625220568 0.049722373623537174 0.10626135584922074 -0.07088115256144138 0.13524845830897583 0.02870102045967085 0.05416206036121007 0.11755784256429647
-0.11894204946361207 -0.07481316646629596 0.13711009479103592 -0.11961357133890768 -0.03762321616042081 0.08791194428484157 0.047901291191946825 0.06742081425790102
0.05179273488581967 -0.08536322033289269 -0.08619580551790287 -0.008510532462386413 0.16671132677603423 -0.2540261464190505 0.11772668625242269 0.1497520084137088
-0.0778705369341532 0.04519296808278059 0.09240344620130692 0.04496281511292659 -0.0586816813121245 0.21340420562611767 -0.08991438132525525 0.10578665322136462
0.08166960186430534 -0.13290038243122423 0.12301632034072923 -0.023244917406231008 0.03483290335450661 -0.01920937319192328 0.01926066385846261 -0.05515175801546588
0.0376944691089097 -0.08927249410800404 -0.09483650917256939 0.10663373268964943 -0.015701022541563928 0.11013005938558443 0.13747496813238136 0.11338808224068976
-0.15387120571566465 -0.00794209324815298 0.05885432205766487 0.1432134867483517 -0.36187498010913194 -0.07911560888798005 0.08838374431823975 -0.03422594306776941
-0.15740136506466704 -0.2534512860466263 -0.1575863666285939 0.08027378791727055 -0.08784363677157452 -0.1906870722701541 0.14210393994426493 -0.07071268330444903
-0.1818014792926975 -0.16843361322215952 -0.0754736597787029 -0.015186791883050263 -0.052696895916722705 0.2678692917595877 -0.010769237499060268 0.003518274260494285
0.2407359578121375 -0.023541898762492453 -0.02767310519004667 -0.07358651473132523 -0.21139481052842315 -0.05203745894750592 -0.03702045408134618 -0.05132587701219466
-0.28812155196724326 -0.1353497572370744 0.029939982361834025 -0.16799324730267 -0.2540856436901893 -0.12226875280068711 -0.007104131223913207 -0.06936021400243601
0.08812677645662581 0.018037129479709604 0.06971369412037405 -0.06474565433959376 0.09327109179498086 0.08012418102736221 0.17738245042327014 0.037950495317725624
0.08201223048849325 0.14281677553390631 -0.19302687794374798 -0.08962710731439924 -0.30996175400531256 -0.04931708356158165 -0.14916390260025097 -0.2072622903658671
-0.06650829512130964 0.1003068509109945 -0.07955277583023843 0.15610470584087266 -0.07823205612121692 0.14592060293325057 0.05295402564170016 0.1965066777243624
-0.08019241224213638 0.13501252707274414 -0.20161616031416615 -0.02976019272595271 0.11265489038441164 -0.13195488177247577 0.08713544560163436 -0.030691584439385904
-0.08808581235278978 0.16717145213337453 0.03391163099942327 -0.09490739399765773 -0.04269948882033875 0.11126950549420042 -0.2504241710923767 -0.10570882539997871
0.07568775759102848 0.04434560916446116 0.11541528918094285 0.08810526972235543 0.037274853071878195 0.05482093604193395 -0.16211265356056265 -0.09539429845950834
-0.019780549685939477 0.09344263330453353 0.10895724352280563 -0.025657039268124016 -0.07094565738268961 -0.06327881491855043 0.07620064609303782 0.14691707158117534
0.018608844816779 -0.16863784995469497 -0.2032649984465282 -0.03673349645198908 -0.14438249510175707 -0.14239902760898 -0.16543203890023586 0.2378514251168479
-0.09220060786725648 -0.17453611197049498 -0.09839528783164067 0.0431148824250872 -0.22270934025954586 -0.03910597697444589 -0.12420976242958554 -0.34322422375654005
-0.017676508325174946 0.17943374820720748 0.02425829576895813 -0.022869680478001732 -0.025847354830660647 -0.0956688105557607 -0.18970694279853634 -0.24295470747965722
-0.16143376191741632 0.00752194864057768 0.21695077579395117 0.037619700279278 -0.07554682394886078 0.0772035030067736 0.07295538086341856 -0.1409343170442801
-0.34694311055342325 -0.05471711319842075 0.23188275453768367 0.10145056406555791 0.012028420586618694 0.07355077755579219 -0.15394649951619035 -0.022132739961576133
0.18858644448098522 -0.02885951550748341 0.0317277993676107 0.024026832583665846 -0.11044879760402289 -0.06247769777461958 -0.0017473911814369096 0.039961408197336096
-0.016518178330220824 -0.05544144130302688 0.13718302322993814 0.18307955319862304 0.018986776151456747 0.013094378995793785 0.07843611129148309 -0.07334925746504457
-0.06139461074902613 0.09009726213107212 0.060879595602705505 0.06221523906594733 -0.056264693459424 -0.05744893043990268 -0.13889976070802662 -0.3551801604525505
0.008603626214983773 -0.120467794960019 -0.10950219430528144 -0.09943423738470333 -0.07910831437793774 0.017508188941521775 0.1479006403509049 0.04657198603224072
00000000: 5988 46d1 914a c2bf c529 f59c 1779 ba3f
00000010: 3b20 c2f2 6a30 b93f 0f7a b2b4 7195 893f
00000020: a834 e45c 9269 acbf c2e2 0e01 4d12 aabf
00000030: 9cb8 7ec9 d0a5 a03f b051 398b ee6b 2abf
00000040: dbbb ad56 a294 d0bf fe67 8960 a94c d03f
00000050: e7e1 c239 250c bcbf 3edd d167 b1b9 a5bf
00000060: b739 7e3d 58c0 c6bf 55e3 87e3 91f1 c0bf
00000070: 6b51 1ed1 d278 a03f 076d c8f3 b524 c23f
00000080: 13b1 d0a8 57d0 ae3f b00f 0ac6 63a2 ac3f
00000090: a945 bc5e 863b 683f b4df c32d 6b30 cb3f
000000a0: 731a a943 96b2 b1bf 6cba 1f0e 58af bcbf
000000b0: c5ee 34a2 6d15 d1bf 5deb 8c9b 30cc 3e3f
000000c0: d3d4 4a66 2ea7 b6bf 43d8 1ce4 e600 a2bf
000000d0: 50db 2eb6 8087 a7bf 8852 09c7 85b7 c3bf
000000e0: 4fcd 6f56 d241 bd3f b856 98b4 657e b0bf
000000f0: 9498 329a da23 ccbf a4b3 13a6 a7c0 9d3f
00000100: 2488 8809 d94e 813f b539 635a 493f 963f
00000110: 52fd 596b 639f b93f 7828 d85e b3c8 a3bf
00000120: 8512 877c d872 b2bf 9a14 18cd 90a8 bdbf
00000130: 2c75 2d65 9de3 99bf 946a a3c0 7136 af3f
00000140: 734c 532e 6597 73bf 5367 2f01 3675 a93f
00000150: 2376 33b8 f133 bb3f 2b78 2768 4425 b2bf
00000160: 8dbf a24c d24f c13f a8c7 f1e0 cc63 9d3f
00000170: 7fe9 de2b 21bb ab3f 50b4 3351 4518 be3f
00000180: e7bf 9074 fc72 bebf 166f 48a7 f426 b3bf
00000190: 561b 8ad6 d28c c13f 6ef1 0eb9 fe9e bebf
000001a0: d96c f5a5 5943 a3bf 4594 a1ad 6581 b63f
000001b0: 2b0f 369e 8486 a83f 27b0 4e90 7d42 b13f
000001c0: 8b8e 02cd 9384 aa3f 916b 9c2f 5dda b5bf
000001d0: f273 c0a5 ed10 b6bf fbab c754 f86d 81bf
000001e0: 661b 30f8 cb56 c53f fcb7 cce1 f641 d0bf
000001f0: 6213 520b 5623 be3f 53d7 52e5 122b c33f
00000200: 0d43 74d1 52ef b3bf 2c74 d95f 8823 a73f
00000210: 38e9 7893 c0a7 b73f 1669 e4b8 5d05 a73f
00000220: c340 387c 860b aebf c21b ff39 d450 cb3f
00000230: 4467 3bff a004 b7bf d965 f087 d514 bb3f
00000240: e5a3 158d 4ce8 b43f 0f81 1536 e102 c1bf
00000250: 5cd9 bc60 ff7d bf3f fb5f 3b00 84cd 97bf
00000260: 8ff4 7649 9ed5 a13f 9f3b 8b36 9fab 93bf
00000270: 2642 7c45 11b9 933f fd95 fce9 d93c acbf
00000280: cd2d 2080 b04c a33f 9d50 a0ea 8fda b6bf
00000290: e2ec 5c99 3447 b8bf 646d 8d2a 594c bb3f
000002a0: c4b0 51c9 ed13 90bf 8a1c 5ecb 7b31 bc3f
000002b0: 1cd8 129e c798 c13f 19dc fa58 0007 bd3f
000002c0: a224 2c3a 0db2 c3bf bfcd 19b6 f143 80bf
000002d0: 568d ee58 2722 ae3f 1114 f7cc d154 c23f
000002e0: c1cc 33ad f528 d7bf 8ee9 c6a8 eb40 b4bf
000002f0: 1c49 582b 51a0 b63f 4439 4d14 1086 a1bf
00000300: 4f35 a659 ba25 c4bf fdc2 2cbe 8b38 d0bf
00000310: 2f8e 7b41 ca2b c4bf dea9 d4ad d28c b43f
00000320: 437a 18ab eb7c b6bf 67cc 9519 6f68 c8bf
00000330: 37c0 583f 7630 c23f c97b 34f6 391a b2bf
00000340: 6b99 f657 4545 c7bf 7f0b 2b8e 3b8f c5bf
00000350: 607e 75e4 3d52 b3bf 3839 c0b3 401a 8fbf
00000360: c646 2069 16fb aabf 7772 ed3d c524 d13f
00000370: 19fc e396 2e0e 86bf 8aca 631c 5bd2 6c3f
00000380: 6f1e e394 6fd0 ce3f bd24 1515 5e1b 98bf
00000390: ae7f 14a7 5656 9cbf 1d9a 32da 90d6 b2bf
000003a0: b9c0 e132 fc0e cbbf e565 b160 a7a4 aabf
000003b0: a7f9 1f4f 58f4 a2bf f96a 69a6 6247 aabf
000003c0: 7736 be60 9570 d2bf 3b69 6d0e 2453 c1bf
000003d0: bcfa 5834 96a8 9e3f 4291 8e7f cd80 c5bf
000003e0: 0514 826e f042 d0bf 5c06 9a46 014d bfbf
000003f0: a006 5fb4 3819 7dbf cbb5 c84a 97c1 b1bf
00000400: f079 c8f6 798f b63f 6491 ea44 5378 923f
00000410: 1592 54b4 c1d8 b13f 5659 f2d3 2b93 b0bf
00000420: b2f1 eb40 9de0 b73f 2a9d 21b1 0483 b43f
00000430: 87e4 b9d7 77b4 c63f 5c65 8350 3f6e a33f
00000440: 97f1 d1e7 c0fe b43f a280 1ef2 d147 c23f
00000450: 8d39 02d0 1ab5 c8bf fe1b c056 cdf1 b6bf
00000460: dcab 1dd3 69d6 d3bf 57eb 0fba 1640 a9bf
00000470: 1ab6 b481 cd17 c3bf d560 681b 9287 cabf
00000480: 1170 7508 b006 b1bf 6c3b 3ab4 b5ad b93f
00000490: 6634 7f1a 925d b4bf b84b 2b2f 3dfb c33f
000004a0: 441a 8a1a 0407 b4bf cb98 b4bc 86ad c23f
000004b0: 1132 a540 ca1c ab3f a5c8 227d 2127 c93f
000004c0: aaa2 f76b 7d87 b4bf bcf3 292a 1748 c13f
000004d0: e77c 72ef 8ece c9bf b128 ecb9 7479 9ebf
000004e0: c57d ef6d f3d6 bc3f 7e52 e1c6 e5e3 c0bf
000004f0: aa70 2e31 824e b63f 1ee5 b75d 9d6d 9fbf
00000500: b8fc 4bb3 ca8c b6bf 126c dec7 df65 c53f
00000510: 0d6e 3184 dd5c a13f c357 5ed9 d94b b8bf
00000520: 881b 1418 b5dc a5bf 46c2 2387 287c bc3f
00000530: 040f 3e1a f306 d0bf cfd1 fdcb bb0f bbbf
00000540: 85a0 8fdb 4560 b33f 1e45 2aba 77b4 a63f
00000550: 8493 7d3c db8b bd3f 0f12 1024 118e b63f
00000560: 1458 d085 b015 a33f 7157 df5e 7d11 ac3f
00000570: 02bb a780 1bc0 c4bf 7ac3 1bc0 c26b b8bf
00000580: 27f7 fd37 5a41 94bf f257 183e dbeb b73f
00000590: fdbe 9735 9fe4 bb3f 606e 46c2 d645 9abf
000005a0: bd7a 409e 7e29 b2bf e5d4 9a58 0a33 b0bf
000005b0: c356 e7b2 e281 b33f 8e26 d5b8 2dce c23f
000005c0: 531c 9e6f 320e 933f 6f2a 36d1 ec95 c5bf
000005d0: 07ea 5f64 9604 cabf 2fa9 db9b bbce a2bf
000005e0: bdd8 4927 207b c2bf da08 489f 213a c2bf
000005f0: 1dc0 6486 e02c c5bf 8d88 175e ea71 ce3f
00000600: 5810 7683 759a b7bf c32f 7106 3357 c6bf
00000610: 5a41 51ff 6e30 b9bf 2f28 f963 2713 a63f
00000620: 9ed8 765a bd81 ccbf 37e3 5dd8 b205 a4bf
00000630: b49f 7a03 36cc bfbf 46ad 0ebc 62f7 d5bf
00000640: 5709 a864 ca19 92bf b8a0 2c60 aff7 c63f
00000650: c7fe efab 2ad7 983f ba56 e446 266b 97bf
00000660: 1241 be9e ba77 9abf e78e 954c c07d b8bf
00000670: e269 922d 5148 c8bf 6166 84cd 2319 cfbf
00000680: 2ce9 f38b dca9 c4bf a695 9db6 55cf 7e3f
00000690: 943c 7003 0bc5 cb3f 4507 c5ac e342 a33f
000006a0: 9e51 2d62 0957 b3bf a9fc 8cd8 9bc3 b33f
000006b0: c727 e02e 34ad b23f 7a6d 4bbd 220a c2bf
000006c0: d790 59e0 5034 d6bf 9eff 6fa7 e103 acbf
000006d0: a374 9f87 55ae cd3f d483 d206 aaf8 b93f
000006e0: c723 5648 5ba2 883f 3f8f 3248 39d4 b23f
000006f0: 59bb 60d6 84b4 c3bf 972e 3909 f7a9 96bf
00000700: 5ee3 c1c1 9923 c83f d6d6 214d 598d 9dbf
00000710: 2ddd 5049 a03e a03f b378 b170 7d9a 983f
00000720: 4d80 9755 5f46 bcbf e7bc 57a9 13fd afbf
00000730: 07d7 90fe 16a1 5cbf 648c 9e5a d275 a43f
00000740: 7a05 df2e 24ea 90bf 63ad 7a12 d262 acbf
00000750: 1c64 2b9b 368f c13f ddf5 c69a 266f c73f
00000760: e806 82fa 4471 933f 780c 63cc 39d1 8a3f
00000770: a084 d294 6314 b43f 558d ff55 04c7 b2bf
00000780: d7ab a24a 1d6f afbf 65e5 4f3a 9d10 b73f
00000790: 60f3 3640 9c2b af3f d7be 3302 adda af3f
000007a0: 24c7 a7d4 b9ce acbf 68ef db3a f269 adbf
000007b0: bee3 d4a4 77c7 c1bf 2e3b 5591 45bb d6bf
000007c0: fa4d c329 c79e 813f 6e13 9337 fad6 bebf
000007d0: d2a4 61f7 5508 bcbf 3685 abad 8574 b9bf
000007e0: 474d 1847 7140 b4bf 6d02 aaab aaed 913f
000007f0: 08ab ae7e 68ee c23f e823 d689 48d8 a73f
