Data/Breast Cancer Winsconsin (Diagnostic)/results/models/bcw_19.onnx (onnx, 416707 bytes, 5 tensors)

model.sequential_layers.4.Linear 4.weight f8 [1, 17]
000000 16 65 7b 74 18 0a e0 3f d0 fb f1 21 de 5b e1 3f
       0.50123236418145 0.5424643195145737
000010 19 dd e4 b4 e0 ca e1 3f 75 84 f6 e9 8d 8b df 3f
       0.5560153515897667 0.4928927216333883
000020 55 56 90 5e 02 e3 e0 3f c1 cf b7 27 9f ea df 3f
       0.527711090750652 0.49869517210686004
000030 be 4a f2 17 19 71 e5 3f e3 30 5a 90 d2 72 e7 bf
       0.6700559108451996 -0.7327664203053498
000040 f5 59 06 84 da 9f e4 bf e9 21 21 c1 8a aa e3 bf
       -0.6445133761033605 -0.6145681163844162
000050 0e 78 b3 a2 75 08 e4 bf b7 02 a6 3e 54 d6 e1 3f
       -0.6260326555018325 0.5574132178881744
000060 3f eb bc 86 00 ac e1 3f 44 f9 0d a5 ab 2f e5 bf
       0.5522463447190161 -0.6620691512796744
000070 b9 27 5b af ca 48 df 3f 75 d7 6f 6a 02 a4 e0 3f
       0.48881785511604964 0.5200206831784572
000080 25 67 15 c4 b7 02 d8 bf
       -0.37516588352956354

model.sequential_layers.3.Linear 3.weight f8 [16, 65]
000000 4f 89 f3 a0 86 bf c2 3f 65 bf 1f 0c a7 f9 c9 bf
       0.14646990641547084 -0.20293129055016404
000010 a4 43 a2 27 66 14 c6 bf 76 79 30 90 60 0b 98 3f
       -0.17249752936598128 0.02348090057432147
000020 04 4f e1 e5 5b 74 ba 3f 59 ef 99 99 65 84 ad 3f
       0.10333799707705899 0.05765073299423191
000030 93 00 5c 13 3c de c9 3f e7 8e 65 8d 46 53 9b bf
       0.2020945639160386 -0.026684858684702297
000040 06 2f 19 a3 27 83 b4 3f 04 b1 72 4e 0e 41 d3 bf
       0.08012626392263308 -0.30084569607676337
000050 af 1b ab 76 57 a0 b0 bf 8b d2 5c cc 15 be b1 3f
       -0.06494661948373336 0.0693067192012881
000060 33 a4 fa 7c b3 54 c5 bf 50 d5 16 35 50 ed 9c 3f
       -0.16664737322324327 0.02824902843504634
000070 cd 77 0d a4 76 97 b0 bf 5a d6 e7 12 47 1d 1e 3f
       -0.0648111486929956 0.00011487718868593549
000080 fc 8f 05 a2 ad 74 ba bf 54 f8 21 2d 0b 80 cb bf
       -0.10334286885841942 -0.21484508231873412
000090 0d 28 3f 71 55 18 bf 3f b2 6f 5b a7 36 20 ae bf
       0.1214650536996091 -0.0588395194333481
0000a0 81 fc 96 dc d7 02 c4 bf 8d 5f 08 99 03 ee c6 3f
       -0.15633676787362918 0.17913861248302645
0000b0 8a 77 e3 36 7f f6 bc 3f 90 0a 64 51 1f a8 99 3f
       0.11313624467899622 0.025055398314189292
0000c0 37 2b 73 71 3c 4e c7 bf 02 bc 3e 33 0d da bf bf
       -0.18207507648033935 -0.12442095280742652
0000d0 19 54 0e c1 6f cd 98 bf f1 98 62 66 6f bb a1 bf
       -0.024221178205682124 -0.03463314175432853
0000e0 8b a4 f8 fe f4 3d a2 3f e9 e8 5b 12 2d be c9 3f
       0.03562894451563022 0.20111621281086592
0000f0 40 38 2c 5c b4 dd d1 3f ca 57 7f 58 72 03 c1 3f
       0.2791567707180356 0.1329176838032125
000100 4d ac a2 2a af 69 a5 3f f6 22 20 61 c3 fd c9 3f
       0.04182193179561775 0.20305673830468834
000110 3c 63 a6 a4 13 d9 d2 bf 18 d6 75 c7 5b c0 8c 3f
       -0.29449931220146985 0.014038769745393018
000120 7b 6a a1 f7 47 af da 3f 93 cd f6 ae c0 cd cc 3f
       0.4169483106867699 0.22502907317321483
000130 f0 89 24 0b 58 aa d9 3f 8c d3 38 14 18 3b c1 3f
       0.4010219677749367 0.1346159075489165
000140 ee 12 99 ee 59 10 d2 3f 28 a2 33 07 b4 7a d4 bf
       0.28224800396519256 -0.3199892111138376
000150 64 2c 12 e3 86 e5 b4 bf b4 b7 09 c3 f2 ec bd bf
       -0.08162730258679712 -0.11689679395359925
000160 74 66 c5 3e 0d 55 91 bf 32 74 5e 7d 09 40 d0 3f
       -0.016926009136432232 0.253908512526155
000170 ff 48 24 8b 0a 5a b2 3f 14 eb 78 46 96 80 81 3f
       0.07168641945853337 0.008546041513104487
000180 7d a6 7e 90 d7 f7 82 bf 4c 8f d8 b7 79 8f e0 bf
       -0.009261783692483089 -0.5175140944233845
000190 b9 77 c2 9d c8 9c db 3f 66 7f d4 94 c3 df dd 3f
       0.4314443150159338 0.4667824700754778
0001a0 f6 c9 e2 d1 09 fd dc bf 81 16 88 09 a3 7c d4 bf
       -0.45294423576993326 -0.32010723048038164
0001b0 86 88 07 fd e7 2f d1 bf e9 5f c5 99 fc e6 c3 3f
       -0.2685489626875398 0.15548665531491615
0001c0 be 59 6d 3d a6 81 d1 3f 45 10 d0 13 44 e0 b5 3f
       0.2735381698488729 0.08545327647885965
0001d0 dc ad 92 89 c4 25 ad 3f 24 d2 84 95 a4 8b aa bf
       0.05692876986844528 -0.05184664082699822
0001e0 d0 cd 63 2a 4b 97 57 bf 6c 89 70 8c af de b4 bf
       -0.0014398798026008415 -0.08152291468335243
0001f0 24 e8 78 45 d3 d8 a5 bf a4 9c e5 5b 39 7a ba 3f
       -0.042669870596413056 0.10342749112679656
000200 4c 46 fc db fc e9 b6 3f 37 0d b2 38 22 10 d3 3f
       0.08950786944139927 0.29785972153350165
000210 86 15 e2 41 bd b5 c3 bf 05 44 5e 41 a8 a7 ba 3f
       -0.1539837428755783 0.10412074657348576
000220 b5 01 45 09 ba e4 d6 bf 5f ea 9b ee 28 06 c9 bf
       -0.35771037011366086 -0.19550048495132707
000230 ee 79 47 55 dd 37 c0 3f bb c0 71 db 7b ff b0 bf
       0.12670485176108975 -0.06639837367561345
000240 90 ba ab fb 9a 7a de bf 02 5c 6d 54 95 0d b8 bf
       -0.47623323991039346 -0.0939572650071199
000250 18 d6 c3 3a 48 4e cc bf 99 3a 1a f3 e0 d3 d3 3f
       -0.22113898152717648 0.30980705013727455
000260 e9 4e dc 65 2e 48 b6 3f e8 6f 55 56 d5 19 ba bf
       0.08703889834242386 -0.10195668561703963
000270 5d fd e0 79 6c 00 c7 3f 90 9c 35 28 cc 8c d2 3f
       0.17970043135754113 0.28984359671307747
000280 1b b2 74 01 5d bb c1 bf 71 a0 49 80 87 16 c8 bf
       -0.1385303742512328 -0.18818753971141036
000290 26 2e 07 c9 e2 ce be bf 89 0d 07 54 26 0a d8 3f
       -0.12034432800208403 0.3756194897252603
0002a0 04 71 dd 30 f7 40 d0 bf ee 95 a8 61 ed 51 d2 bf
       -0.25396518489812103 -0.2862504438110979
0002b0 af 60 9b 3e 6e 93 e0 3f 19 20 b3 e0 fa da d6 3f
       0.5179969046394229 0.35711547797518645
0002c0 bc 74 8f 86 3d ac d4 3f b4 2d fb 07 94 7e 9e 3f
       0.32301271572744006 0.02977973269189045
0002d0 e0 e4 ee 87 c6 28 bc 3f eb 0c cb 5c cc 64 c4 bf
       0.10999718493157529 -0.15932611971775343
0002e0 dc 0d 50 5e 19 1a c3 3f 25 c0 8b 95 61 5b c5 3f
       0.1492339811812674 0.16685123254819803
0002f0 11 2c c4 ce d4 7d c8 bf 42 91 00 39 e0 4f bd 3f
       -0.19134006591806998 0.11450005904822994
000300 bc ab e0 7d 20 3a cc 3f 83 06 fa f2 47 e1 c0 3f
       0.2205238928448504 0.13187503208250825
000310 fa 52 3e 18 d9 41 b8 bf 7b 3e 95 37 c7 c3 bb 3f
       -0.09475476114159767 0.10845608813291989
000320 59 61 1d 8f 1e 6a d3 bf 3b aa ba bb 76 00 c4 3f
       -0.303352012405886 0.1562641541143693
000330 40 f1 80 46 dd 74 ca 3f 2e f3 b0 4c 31 4c b2 bf
       0.20669141714632566 -0.07147510645240793
000340 d2 b4 0f be 2d ee cd 3f 8c 72 dd 64 1c 7c c7 3f
       0.23383113651599402 0.18347506451654672
000350 d3 90 8c d4 25 ab d0 bf d1 f5 e8 16 64 06 cf 3f
       -0.2604460311579377 0.24238253706600557
000360 f3 35 4a 89 68 e0 cd bf 24 d1 d2 7d c2 72 98 bf
       -0.2334108991966982 -0.023875273637444697
000370 6a a6 e3 51 a5 f3 b3 bf a6 cd f7 10 3f b6 c4 3f
       -0.0779364895749041 0.1618117173053239
000380 52 5a 9a 20 36 df 9e bf 7a 50 b5 25 e4 27 ad bf
       -0.03014835905067976 -0.05694497070604228
000390 d2 d8 16 8f 22 0f a9 bf 45 37 5d 0f 03 8d d5 3f
       -0.048943595854710545 0.3367316865959434
0003a0 f1 a0 ae 4a 51 86 c3 bf fb 16 75 4a 6f b0 ce 3f
       -0.1525365461977866 0.23975936065306044
0003b0 c2 3c 3f 43 3f 95 b2 3f 42 b4 7c 61 a8 14 cf 3f
       0.0725898303201005 0.2428179241191249
0003c0 d2 2f e6 0e 29 2e ba bf 48 57 1e 03 9a 89 c1 bf
       -0.10226685155629348 -0.13701176788588953
0003d0 7f ca b7 13 51 b5 b7 bf 58 32 68 61 c0 37 92 bf
       -0.09261042338747848 -0.01779080004239328
0003e0 47 a7 cc c4 b9 fb d3 3f 38 0d 4e af 0f 15 ce 3f
       0.31223911493963324 0.23501773891266864
0003f0 c4 63 27 3f 70 70 ac bf 5e 03 39 f6 43 9d 95 3f
       -0.05554533739968506 0.021107732680550988
000400 32 2b f5 94 13 98 96 3f 56 60 7c 34 74 9e c2 bf
       0.022064500776916414 -0.14546063006196402
000410 58 41 81 b6 2f 69 81 bf 3c e2 92 c0 93 4c c3 bf
       -0.008501408345325132 -0.15077444937721107
000420 09 ea 87 bb 48 a0 c6 3f e6 96 4d 23 f9 f2 ce bf
       0.17676648289473487 -0.24178995345862758
000430 47 5f 99 6c bb 76 c1 3f 7c 89 bd 74 c8 dd c7 3f
       0.1364359169262974 0.18645578098501037
000440 9b 91 7f 65 40 1d 95 3f a0 b7 d7 7c c1 1d c8 bf
       0.020619398302999064 -0.18840807529289538
000450 82 0f 04 1b 9d e0 d1 bf c5 37 17 7e eb 36 d4 bf
       -0.27933433187740075 -0.3158520442346993
000460 e4 23 d4 af 53 4b cd 3f 38 0a 7b ab 77 f7 c3 3f
       0.22886129460701377 0.15598960755421998
000470 7c e1 74 fc 66 63 d3 bf 22 65 4f 28 82 5e b5 bf
       -0.30294203428231703 -0.08347333416113092
000480 56 c4 07 14 c2 87 c6 3f 3e b7 99 25 a9 f5 c3 bf
       0.17601800897640157 -0.1559344705196341
000490 2f 91 ab d9 8d 43 c0 bf 52 38 b2 e1 26 24 cc bf
       -0.12706158760477979 -0.21985326786347287
0004a0 d2 8c 32 8a ba ab af 3f 3e 60 5a 1d 71 f8 cb 3f
       0.06185706078510979 0.21851934369328946
0004b0 b6 e9 21 9c 84 35 b1 bf 94 68 1e 28 f5 fd bf bf
       -0.0672228699858469 -0.1249688361116646
0004c0 b8 8b c8 cc 5a 4f 99 bf 75 3b 59 72 6c 83 d0 3f
       -0.024716776608453478 0.2580214611706915
0004d0 fd 44 c2 e3 5f fb db bf 38 59 c8 38 14 b0 c1 bf
       -0.43721768610073736 -0.13818600437725492
0004e0 60 d9 af 5e f6 05 d8 bf 2c c9 42 75 45 23 bb bf
       -0.3753639149357664 -0.10600694763960367
0004f0 9c a9 94 26 c3 bd c3 bf ee cd a5 e7 37 41 cf 3f
       -0.1542285860426319 0.24417780695840413
000500 b8 87 34 04 cf e1 b1 bf 5a 9f 5e 1a 6a 98 b3 3f
       -0.06985181667962947 0.07654441016950156
000510 14 77 bd e2 e0 8b 9a 3f d8 2d 10 6c 09 79 c9 3f
       0.02592421897804005 0.19900625015757956
000520 f0 a3 d3 c6 05 8f cd bf 44 22 75 33 e3 cc b6 bf
       -0.23092720230422925 -0.08906383520400946
000530 dd 4b dc a6 8e 2c cb 3f 6e 7d 27 4d 47 b9 b0 3f
       0.2122972788571066 0.06532712587021702
000540 24 2f bc dc 5b 4b d1 3f 12 16 ea 6f ff c5 b5 bf
       0.2702245383850246 -0.08505245668683184
000550 91 76 86 53 b6 16 d2 bf 9d 66 97 d2 55 13 cf 3f
       -0.28263624340784427 0.24277756483825366
000560 34 24 96 57 96 c5 c3 bf a3 e0 4d 41 4a 84 a4 3f
       -0.15446738506969526 0.04007179305239219
000570 f4 c8 e3 4c fd 1e cb bf 89 fd e0 7d 76 9b a7 3f
       -0.21188322309860264 0.0461079624806145
000580 de 4c 26 83 00 07 b0 3f 46 ce eb 7c 27 cc c1 bf
       0.0626068420590857 -0.13904279327072028
000590 f8 a1 e0 15 82 14 cd bf d4 d9 3a 09 77 b5 d7 bf
       -0.22718835895763312 -0.37045074368816455
0005a0 cf 12 33 eb bc c8 a8 3f 68 6f cd 66 16 19 ae bf
       0.04840650912368504 -0.05878515248215771
0005b0 d1 36 f1 f7 03 6e 82 bf b4 c5 9f a1 42 ae d9 bf
       -0.00899890041742016 -0.4012610033379034
0005c0 31 c5 23 df 1f c9 77 bf 11 00 84 ce d8 1a aa bf
       -0.0058070416437073094 -0.05098607560103131
0005d0 7e c4 aa ad 24 ac 82 3f 54 9f 7c 9f 92 51 29 3f
       0.00911739974012193 0.00019316592055784265
0005e0 df 26 e2 78 a3 91 cb 3f d4 d8 a7 5f 6a 9c 61 3f
       0.21538203623304406 0.0021497800455519776
0005f0 ce 71 82 da b4 fb 46 3f 30 f0 42 8f 9a 44 c5 bf
       0.0007013924669255157 -0.16615612025441484
000600 f2 9f 91 9e 9b 0c c9 3f fe ce 4d 9e b9 ce ab 3f
       0.1956972622167537 0.05431156213208331
000610 e8 9b 90 bf 2c b6 d3 3f bb 9b 92 d7 74 0e bb 3f
       0.30799406726367673 0.10568933737759682
000620 c2 5e 3b 91 15 6b a5 bf d8 34 85 ef 6e 03 b8 3f
       -0.041832612970833974 0.09380238864578716
000630 68 c5 40 fc d9 94 94 bf f4 9f fe b3 5c 28 b4 bf
       -0.020099073430349362 -0.07874087709808447
000640 58 01 b9 62 e8 1d b1 3f 5d c4 fa 77 41 90 bf 3f
       0.06686260614606476 0.1232949178618283
000650 32 6d 21 32 03 cf c6 3f b7 d5 d0 cb 80 45 cd bf
       0.17819251964361055 -0.22868356658879715
000660 72 70 d3 3e 12 2f d9 bf 0e f2 e2 20 b6 86 c0 bf
       -0.3934980023893849 -0.12911106687342094
000670 20 7b 07 91 36 38 c2 bf a3 70 63 fa b2 cb d5 bf
       -0.14234048921113018 -0.3405578084182343
000680 2e 39 df 1d 08 44 c7 3f 3f 3c af 11 d5 58 c2 3f
       0.18176366289703466 0.14333594668866742
000690 93 16 b5 eb 49 35 c1 3f c4 33 cd c8 f1 95 95 bf
       0.1344387436785622 -0.021079805260615606
0006a0 19 80 53 a2 f2 4c ce bf 12 c0 cc 4b 35 8a b6 3f
       -0.23672326017458614 0.08804638958531566
0006b0 fe f8 94 c2 a9 ca d5 3f 6c 8d b1 a7 12 56 c4 bf
       0.3404945755209069 -0.15887673557436288
0006c0 31 eb bb d0 26 73 bb 3f 2f f6 ab e2 69 21 d6 3f
       0.10722582431837392 0.3457894052115504
0006d0 a7 92 c7 cc f4 e6 bb 3f af af c8 30 0e fb c5 bf
       0.10899286269666196 -0.1717241037562167
0006e0 50 41 23 5b 86 68 b0 bf 08 fd e3 a3 e6 1b c8 3f
       -0.06409492230455283 0.18835146906347
0006f0 2a 73 e0 76 7d bc c1 bf 87 c1 c6 2d c3 f5 d5 3f
       -0.13856476120499767 0.34312514753676066
000700 c5 23 d6 de 87 ee aa 3f 1f 96 dd c0 39 a0 d2 3f
       0.05260109515354076 0.2910293944790698
000710 5a ea 71 e0 4b 28 ca 3f 23 a6 a5 3a 26 ad d2 bf
       0.20435474833705564 -0.29181819655659264
000720 59 ba 78 e7 e4 5f cc 3f 43 68 fe 94 bc d8 c0 3f
       0.22167645742725275 0.1316142776020702
000730 83 39 b2 08 ee 89 cd bf 69 74 98 82 86 40 c6 3f
       -0.23077178406351714 0.1738441598580807
000740 71 76 db 6e f2 27 90 bf ac eb f2 23 26 15 d6 bf
       -0.01577738572711102 -0.34504083166728594
000750 5a 5f 92 51 58 25 bf bf 2a f7 ac 94 ee 9f c9 3f
       -0.12166358939645985 0.200193235965281
000760 68 f1 69 77 e6 82 b8 bf 50 2b 62 4f bc d4 bb 3f
       -0.09574737944962453 0.10871483743737298
000770 8c ed b1 9a a6 ae ad bf 73 7d 71 c0 a8 04 d3 bf
       -0.05797310484282567 -0.29715937417309773
000780 52 2b 4d ad a2 60 d5 3f 80 c8 2c 70 4b 97 6b 3f
       0.33402316020935985 0.003368041362954932
000790 d4 23 0b 1a 29 19 d3 bf 40 4c 17 ac c2 35 a5 3f
       -0.298410678322907 0.04142578459472945
0007a0 f8 fc b5 83 0c f9 be bf 79 89 e7 3e ec 9e c4 bf
       -0.12098768439863139 -0.16109994002824715
0007b0 92 1d 98 8a e1 8a 85 bf a5 e2 2c 32 20 f0 99 3f
       -0.010518800775584567 0.02533006960149699
0007c0 cc cb 90 17 1e be cd bf fb b4 5d 9c c1 b6 ad 3f
       -0.23236442709602867 0.05803494485631152
0007d0 a6 4c 97 ca 67 2a c6 3f bd 9a a5 a5 bb a1 b6 bf
       0.1731691111768658 -0.08840534967530807
0007e0 ca 5c d4 e7 fa 00 d9 3f b9 bf ad 75 1c 20 da 3f
       0.39068482055286025 0.40820991031705095
0007f0 39 c2 c5 56 5f 9d cf 3f 42 ce 7e 83 97 bd c5 3f
       0.24699012505472398 0.16984838410063402

model.sequential_layers.2.Linear 2.weight f8 [64, 129]
000000 23 36 8c 11 89 73 b1 3f 2e b0 36 ec dd a1 a8 3f
       0.06816918066416426 0.0481099463316642
000010 c2 06 62 14 82 26 cc bf b3 00 aa f3 98 a3 c1 3f
       -0.21992517466792633 0.1378050985113127
000020 92 45 09 82 05 ff be 3f 02 77 70 85 b0 b4 be bf
       0.12107881951057767 -0.11994460351749228
000030 d0 05 b0 04 d3 61 bb 3f dc 79 31 8e 31 1f cb 3f
       0.1069614302105244 0.21188945239096213
000040 a0 1e a8 23 85 74 81 bf 04 55 0d eb a0 e8 a5 bf
       -0.008523025656372696 -0.042790440266495394
000050 21 6f 42 2b f1 3d c8 3f 9f 11 7f fc 2b f1 c3 3f
       0.189390321848685 0.15579747990535694
000060 4a c6 05 cb a9 b7 ae 3f 15 9a 65 ca da e2 93 bf
       0.05999498942663857 -0.019420069316220607
000070 a6 4d ce df 49 92 d1 bf b9 1f eb 2e c7 ea bd 3f
       -0.27455374580423564 0.11686367888898887
000080 ef 4f a1 f8 65 a0 ba 3f 0c 61 d7 04 9f 8a b9 bf
       0.10400998420783457 -0.099771441156353
000090 11 40 cb 35 83 b7 bd 3f 17 4d 1c 16 21 4b 92 3f
       0.11608142913178222 0.017864720320244745
0000a0 f0 db fd 9a e8 30 c5 3f 09 0a dc 08 56 b9 c4 3f
       0.1655550724787811 0.16190600807756564
0000b0 e3 cb 00 a2 df bd 94 3f 41 52 30 56 ce 7a a6 bf
       0.02025556017197151 -0.04390568544491603
0000c0 37 6c 12 fc ea a6 a7 3f fe f1 7e 48 c0 80 c2 3f
       0.046195357580665 0.14455417194211856
0000d0 1d a2 d3 a6 af 05 74 bf 5c 4d ac 09 ab a0 c6 3f
       -0.004888235225032148 0.17677820179288062
0000e0 81 19 67 e9 77 36 ba 3f 1f 8e 17 ff 86 e9 c3 3f
       0.1023936219054118 0.15556418853439966
0000f0 f0 35 f2 98 a5 32 c1 3f 4e 61 02 68 e3 b4 92 bf
       0.13435811966012023 -0.01826815912554141
000100 e7 b8 c2 05 68 28 ba bf 96 b0 8e 5f 1c b4 bd 3f
       -0.10217905178680874 0.11602952320999046
000110 80 e8 77 ab c2 6c c0 bf 9c be 30 2e 44 5a d2 3f
       -0.12831910488586473 0.28675941954404904
000120 32 14 c8 0a 9c 50 a7 3f e5 60 a8 a3 73 2c c4 bf
       0.04553687697993104 -0.15760655871486687
000130 1d 42 67 25 55 fa 92 3f ce 25 fd 72 21 77 ac 3f
       0.01853306809226939 0.05559639481232247
000140 cc f1 02 a5 7c b1 a0 bf fa 12 26 aa de a5 a8 bf
       -0.03260411752987444 -0.04814048602114514
000150 f2 b5 dd b9 1f 18 82 3f f4 d8 9b 5a b3 d2 a1 bf
       0.00883507524460023 -0.03481064301552009
000160 38 f0 99 1a de ec ba 3f 68 b6 3f 6f 81 82 ad 3f
       0.10517681264349299 0.05763630373972434
000170 f2 07 e0 52 63 46 92 bf 3d d8 ae 4d 38 cc d3 3f
       -0.017846633847518896 0.3093395956633492
000180 d4 52 70 b3 46 1e b5 bf 15 cc 9c 6e dd 5e c8 3f
       -0.08249322777585216 0.19039504910469476
000190 9e ce e0 f6 4a 96 cc 3f 58 4b d3 4e 3a b1 95 bf
       0.22333657316777517 -0.021183882771605184
0001a0 13 2f e7 b1 19 7d b4 bf 20 85 62 d5 6f 0b c8 bf
       -0.08003388017021633 -0.1878490249555762
0001b0 7a ff 68 dc e2 72 84 3f 24 68 f6 ab f2 dd ad bf
       0.009984752990135116 -0.058333953372496944
0001c0 cb a8 db 39 5d 33 a3 bf 78 d5 0f 2a 93 ca b3 bf
       -0.037501252472638656 -0.07730979706669483
0001d0 c2 b1 34 ea 24 af a5 3f 4f 3f 6a c6 f6 f7 b7 bf
       0.04235186919172264 -0.09362737983815105
0001e0 0c 34 46 ae ab 2a a4 bf e1 d6 b5 f3 ef 9d d3 bf
       -0.03938805105563156 -0.3065147285445687
0001f0 83 cf 3f 2a b0 75 9d bf 45 a1 d7 82 de a1 c0 bf
       -0.02876925714367885 -0.12993985546860123
000200 57 87 90 35 1c ed b2 bf ce 04 ac 94 a4 0b c8 3f
       -0.07393051440933839 0.18785531291363217
000210 9f d6 9d c4 2a ee c6 bf 96 31 d7 8d fb be c5 bf
       -0.17914328194062976 -0.1698908274251038
000220 72 21 72 15 bc 3f b0 3f 27 78 c5 88 b8 5d c1 bf
       0.06347251437740001 -0.13567263296403206
000230 73 d7 f4 68 6a 92 a3 3f c8 ac bb 84 89 3f c2 3f
       0.038226437866270134 0.14256400090321208
000240 25 31 c3 d0 2c 14 ae bf e9 3e ea a8 1f fc 61 bf
       -0.05874767349596003 -0.0021954172473853573
000250 53 2f 72 89 49 47 c8 3f 52 a6 3d 58 18 d7 c6 bf
       0.18967551432830962 -0.17843918141015763
000260 74 6e 70 c1 7d 0f a5 3f 82 c2 9a b0 50 ba a6 3f
       0.04113381372755223 0.044390222128076764
000270 9a dc 03 67 9a 28 c4 bf 81 0f e8 8a b7 06 80 3f
       -0.15748910932572785 0.007825311590756947
000280 dc bb cd e0 ab 6e b6 3f 3d ac a2 3b 7d 0b c0 bf
       0.0876262115323096 -0.1253506222904849
000290 37 36 90 48 61 b9 d0 3f 23 c5 68 8e cc 1c b5 bf
       0.2613146980882876 -0.0824706885985234
0002a0 99 60 33 93 48 44 a6 bf 57 10 62 4d 56 5a c9 3f
       -0.04348971173175293 0.19806937006444755
0002b0 32 81 2c 10 0b 7e 6b 3f 6a b6 cd 13 1a c7 d2 3f
       0.003356000526210456 0.2934022134203135
0002c0 11 f4 89 ca 85 2d c2 3f 6a 22 e5 c0 d7 f2 b1 bf
       0.14201424016565103 -0.07011173686363184
0002d0 f7 80 77 b8 0c 09 70 bf 64 69 da 2e 05 ee c4 3f
       -0.003914880456676643 0.1635138014579055
0002e0 b9 a4 e4 56 cc 7b cb bf f4 de c7 7e 39 71 af 3f
       -0.21471552126721408 0.061410710073628666
0002f0 c0 11 73 b3 f6 7b 9e 3f 53 dc 2a dd a9 8b c9 bf
       0.029769758894660603 -0.19957469271841663
000300 88 1a e9 aa 27 85 c2 bf 72 d2 d6 e8 ea 4b d5 bf
       -0.14468856663934937 -0.33275864351461515
000310 93 67 5d c8 bc 0f ac 3f 8b e3 f3 b5 96 ec c8 bf
       0.05480756708011749 -0.19472011455925683
000320 ee 97 a7 3e 18 0c c8 bf a0 18 f5 79 10 ce c0 3f
       -0.1878691011362998 0.13128858523322595
000330 15 4d 2f 7f df e0 bf 3f 72 f1 cb 31 d8 1b b4 3f
       0.12452504019829676 0.07854987350214573
000340 8e 9a 4f 2e 2b 7d ad bf cb b3 13 dd 98 d2 bf 3f
       -0.05759558620757331 0.12430720708262226
000350 c0 c9 2d 74 3d 91 cb bf a6 43 6c 03 16 67 cd 3f
       -0.21536987469478497 0.2297084347451605
000360 04 2a f5 f2 d1 dc c7 bf 08 d6 e0 27 43 ff c9 bf
       -0.18642639506499858 -0.20310248801403952
000370 ad d8 9f d4 2b 32 c1 bf 3e fb 39 ed d8 b4 bc 3f
       -0.13434360391665248 0.11213451186811782
000380 ad 4b d7 35 94 58 bb 3f 36 e3 e9 c0 5e 3e 8b bf
       0.10682035746076109 -0.013302555334335869
000390 a2 f0 e0 71 0a 75 c3 bf 02 36 c7 f5 0d 36 c2 3f
       -0.1520093017624094 0.1422746133888922
0003a0 b5 26 9d e4 b8 4d c1 bf cc 39 98 81 02 e3 bd bf
       -0.13518439448153222 -0.11674514450007861
0003b0 2a 95 98 42 b5 cf b0 3f 60 9f 74 e2 16 52 c6 bf
       0.06566937328223746 -0.17438016946220625
0003c0 a1 1f ca 16 04 d5 cf bf aa 1d 03 73 84 2d d0 bf
       -0.24868823158999212 -0.252778160397123
0003d0 74 b3 51 95 df 21 5f 3f 0d 89 dd 82 90 47 cc bf
       0.001900165885014374 -0.22093397512350813
0003e0 ce 69 b8 18 f6 27 8e 3f 8b be c1 06 e9 c7 77 3f
       0.014724657658963827 0.005805883654928966
0003f0 8e 82 08 43 36 36 c4 3f d9 74 81 f6 83 37 c3 3f
       0.15790441773517155 0.15013169800196272
000400 df a9 70 5e b1 cb d5 3f 9d 6e cf f6 8c 31 c3 bf
       0.34055742476144063 -0.14994966555865555
000410 a9 e0 fc a4 22 c4 b1 bf db 21 c5 84 d9 22 a3 3f
       -0.06939903762838874 0.03737525697448848
000420 f9 ca e2 a8 51 c0 b8 3f c8 76 0f f0 a5 dd b2 3f
       0.09668455479804185 0.07369458304261933
000430 1f 66 83 50 10 53 bd 3f c1 f5 7e a5 4c 4c bf bf
       0.11454870191246201 -0.12225798645427856
000440 7f 39 de 51 01 f7 b5 3f 7f d8 35 7b 25 7f a3 bf
       0.0858002495644765 -0.03807942513496786
000450 93 99 b6 92 f3 91 c6 bf ea 9c 09 69 80 e6 b9 3f
       -0.17632908500418107 0.10117342533486676
000460 62 c8 89 da 0a a1 bf 3f 1c e1 c2 bf 25 14 98 bf
       0.12355106196790325 -0.023514356450250337
000470 6f e4 5b e8 f4 07 cc bf 63 82 9e b1 09 a5 d3 3f
       -0.2189928183140952 0.3069481119692112
000480 a4 6f 3c ed ec e0 d1 3f da 99 7d 8b 20 05 b0 bf
       0.2793533627279834 -0.06257823377163821
000490 be f7 1a 52 0b 9f cc bf d7 49 94 04 59 d9 a0 bf
       -0.22360364445733966 -0.032908231553068816
0004a0 af 65 b1 2c 52 e6 94 3f 31 99 bf 4f e5 67 bd 3f
       0.02040985486778418 0.11486657330496965
0004b0 c4 26 66 0c 0f 58 2e bf d9 75 19 88 dd f7 c7 3f
       -0.0002315061921758702 0.1872517504261129
0004c0 44 4c 46 bb 19 29 bc 3f c1 62 34 fb a6 2e c1 bf
       0.11000214407094783 -0.13423621431208768
0004d0 56 b8 b1 4d 9d 98 c4 bf 56 11 d0 bc 0d 81 ca bf
       -0.1609074239126495 -0.20706340522168415
0004e0 b8 e0 74 c0 1a f1 c4 bf 65 7a d0 bb 14 81 bf bf
       -0.16360792538921998 -0.1230633696108981
0004f0 66 4f 3e 7d 53 cc b8 bf 9b 3b 58 79 7c 43 7b bf
       -0.09686776931476757 -0.006656156755993427
000500 09 c4 c8 4c b9 19 c7 bf 7c 36 7c f7 09 bb b4 bf
       -0.18047252892714052 -0.08097898761863037
000510 f8 8c ab da 48 06 9f 3f 6c 89 3d 82 ee d7 c3 3f
       0.03029741129547589 0.15502721175569023
000520 c7 5c d6 c7 07 d7 c5 bf 98 d6 57 fb 27 62 c6 3f
       -0.17062470681842098 0.17487048885930245
000530 5b f3 fe 02 c1 37 b7 3f 48 67 c1 00 a0 78 bd bf
       0.09069448779241666 -0.11512184160656347
000540 8b 34 00 05 f8 be c2 bf a3 f0 c9 d8 fa 6e a7 bf
       -0.14645290607623837 -0.04576858421657561
000550 31 2d b1 63 af 94 ac bf 04 41 23 50 e9 a1 bd bf
       -0.055821877402730265 -0.11575182157980995
000560 32 86 b7 90 6b b0 c6 3f 01 9a 41 af fc 89 cf 3f
       0.17725891653303588 0.24639853055414565
000570 39 22 bd d1 57 34 92 3f b1 62 e8 49 70 4b ae 3f
       0.017777797867241516 0.05916930105394636
000580 d0 35 de 10 98 45 bd bf 79 df c7 22 70 d1 bd 3f
       -0.11434317027870766 0.11647702073230261
000590 6d 9d 5f c3 3b f4 b5 3f b0 6b fb f0 a7 b6 b2 bf
       0.08575795669422855 -0.07309960969307272
0005a0 4f 9f 51 c8 0c 45 c0 bf d3 56 7b c4 b5 0d c0 bf
       -0.12710723668282717 -0.12541839689099862
0005b0 93 d5 f0 b2 d2 f5 bc bf f3 b2 80 2a d7 34 c0 3f
       -0.1131259619586074 0.12661256385162964
0005c0 62 42 87 6a 6a 64 c1 bf e7 a9 49 dc 28 df c3 3f
       -0.13587694360332409 0.1552477908729337
0005d0 f2 3c d2 e9 08 9f c0 3f 3e 98 5c 99 4e 9a 92 3f
       0.12985335747769217 0.018166759596305086
0005e0 00 96 cb cf d2 d1 cc 3f 4c a7 0e 46 08 15 bf bf
       0.2251533045411378 -0.12141467771894304
0005f0 38 05 8c e8 65 3f bc bf 54 f6 b1 c7 90 f0 c5 3f
       -0.11034237792411694 0.17140397787800288
000600 fd 70 04 82 22 4e b2 3f 34 f9 05 c3 1a 80 c4 3f
       0.07150474237682043 0.160159440256345
000610 16 58 29 a7 88 af ab 3f 82 37 d6 8e ea cb c6 bf
       0.054073591618973335 -0.17809802984669082
000620 c5 c2 2e d7 34 c9 ca bf ee 6d 74 9a e9 9e bc 3f
       -0.20926533228841585 0.11179981251591872
000630 a1 70 c1 57 bf 43 b4 3f 76 a0 f5 74 76 9c bb 3f
       0.07915874378653821 0.10785618167358443
000640 03 25 6a c9 55 c6 b5 3f df 8c 90 0b 29 df b2 3f
       0.08505760352467821 0.07371765644397808
000650 ce da ac 83 34 79 ca bf 6b c9 ff 9a 95 47 b8 3f
       -0.20682388715223116 0.09484229120406489
000660 20 d8 99 a8 29 42 be bf c7 0d b8 f2 8e 19 c0 3f
       -0.11819706312402944 0.12577998019706468
000670 5d c8 1f 5c 8b 7d b8 3f d6 d4 6f 85 02 7c ce 3f
       0.09566565512776166 0.23815948024245043
000680 ed 54 55 cc 10 74 b4 3f cd c6 fa e6 49 3a c2 3f
       0.07989602078062648 0.1424038293676432
000690 92 f1 82 7c b5 72 67 3f 8e 96 ed ca 01 2e c4 bf
       0.002862314668247553 -0.15765402229878983
0006a0 21 3d e4 47 4d 8f b0 3f 0d 20 bb 5a 93 36 c7 3f
       0.06468661313214287 0.18135301523420858
0006b0 4c bc c8 5d 7f 98 c0 bf 91 e2 38 5e 6a b0 c5 bf
       -0.12965385512640848 -0.16944627381032665
0006c0 68 5a 3b 5a a8 9a b0 bf dc 41 f0 7f 6c d4 7a 3f
       -0.06485988810468657 0.006550239398180637
0006d0 dd 13 3e 04 8a 95 a0 3f 32 93 f9 1e ed 11 ba bf
       0.03239089299953666 -0.1018360329267807
0006e0 93 ca 48 d6 43 e9 c5 bf 0f 67 a7 b8 49 36 ce 3f
       -0.171181182509447 0.23603173748306758
0006f0 27 07 63 72 0b 8f c0 3f f2 7f f4 7e ae 60 cb bf
       0.12936537823957758 -0.21388798903444656
000700 5b d3 5a d7 96 7a 95 3f ad a2 7f e4 a1 5f 9f 3f
       0.020975453275883776 0.030638246127554215
000710 db e8 4d 5e 46 9f 98 bf b2 7c ae 06 7d 64 c8 3f
       -0.02404508543575266 0.19056666208505174
000720 76 7c 52 7a e0 30 c5 bf 9d cb 1d 76 0d 31 d0 bf
       -0.1655541035915779 -0.25299393210223703
000730 c4 81 e0 04 0e a5 ca 3f 73 fc ee ae c2 ad c2 3f
       0.20816207159169953 0.14592774907757508
000740 48 ca a7 e1 fc e3 c1 bf 9b 41 64 0c df 29 98 3f
       -0.13977013605433997 0.02359722626812442
000750 66 24 44 bf 0d 4f c7 bf b4 c4 87 f9 bf f4 c9 bf
       -0.18210002745789494 -0.20278167423342597
000760 4d f9 3c 12 43 c9 c6 3f 70 73 fd 3c 00 45 cd bf
       0.17801702871833883 -0.2286682412913268
000770 6d cc a8 ee 40 29 b9 bf b4 17 42 ff 1f 42 7e bf
       -0.09828573061604269 -0.007387280453377377
000780 1f a2 cf 2e fa ee 92 bf 47 c0 fa 0c b9 d2 be bf
       -0.018489750964279957 -0.12040287558443295
000790 b9 47 59 44 83 64 b3 3f 75 8e e6 39 bb ef 8a 3f
       0.07575245302839918 0.013152563766943385
0007a0 12 49 71 05 78 af c2 3f 7c a2 cc ef e2 05 c3 bf
       0.14597988382099253 -0.1486171408553395
0007b0 1a 29 80 88 ee 2b c2 bf e7 95 2a 9f 48 25 ca 3f
       -0.14196569123334585 0.20426280757708
0007c0 e0 a2 34 a3 98 c8 ca bf 72 be 8c a5 dc f0 c1 3f
       -0.2092467114355463 0.1401630218838253
0007d0 d3 44 be f1 c1 8f b7 3f 7a f5 6d 1b 00 73 ae 3f
       0.09203731681761278 0.059471133564310955
0007e0 d4 e9 6d 9c a3 a9 bb 3f 98 8a d3 ae ce 27 72 bf
       0.10805723733020695 -0.004432494502199312
0007f0 6c 6a 48 d0 11 d7 c6 bf 23 76 89 e4 a0 d0 c1 3f
       -0.17843840284406853 0.1391793361571426

model.sequential_layers.1.Linear 1.weight f8 [128, 257]
000000 ce 93 ba 02 7b b9 a2 bf bd 22 0a b5 83 eb b6 bf
       -0.03657135399161114 -0.08953116578971794
000010 55 95 e8 d2 ba 66 8f 3f 9e 90 7f 78 1c 70 7c 3f
       0.015332660256783962 0.00694285508504691
000020 20 33 7f c6 53 ce b3 bf a4 a5 2f cd 76 09 c6 bf
       -0.07736705394854626 -0.17216382044652534
000030 ce 74 af 39 e3 72 9d bf 5c f9 65 27 78 eb ca bf
       -0.028758573909603062 -0.21031095432040103
000040 14 20 78 ca 67 f1 b9 bf c3 03 bd c9 80 4c 90 3f
       -0.10133980458351771 0.015916836083537122
000050 62 fc 6f b7 aa bc b2 bf 4f 5d 86 75 60 27 ca bf
       -0.07319132784322016 -0.20432668436545007
000060 a2 7a f1 50 97 da b0 bf cd 3c b8 3c 21 4c a4 3f
       -0.06583543516306148 0.03964332452971462
000070 18 4a 5f 67 c5 bd b9 bf f2 dd 7d a5 5c 85 c6 bf
       -0.10055192731605478 -0.17594488220832677
000080 1e 80 98 1d 03 68 be bf c9 e2 35 15 61 06 a7 3f
       -0.11877459976722135 0.044970544661685326
000090 7a 54 8d cf f3 02 94 3f 90 39 6f c6 0c 85 b4 3f
       0.019542512457821883 0.08015518040267566
0000a0 88 6a b4 43 41 8a c8 bf 96 9f 34 ed 2c 26 b5 3f
       -0.1917192059125521 0.08261376181746835
0000b0 ba e7 ec d0 ff e7 81 bf 39 b9 3c 1e af 25 c0 bf
       -0.008743284762761639 -0.12615002609659046
0000c0 ff ef c3 03 a1 7f b7 bf e0 a8 53 4c 33 1b bc bf
       -0.09179121343544237 -0.10979004491278799
0000d0 c7 18 9a 46 8c b5 a9 3f 37 c6 c0 16 b3 15 ba bf
       0.05021322595443816 -0.10189360909932864
0000e0 6e f0 df d3 bd 88 a6 bf 18 9b 82 d0 2e 8c b2 3f
       -0.04401200496064993 0.07245152082996886
0000f0 0f f3 a1 a0 ed 54 c7 bf 0a c9 c4 6a 68 8f ba 3f
       -0.18227930396451383 0.10375073057801756
000100 c3 27 e4 c5 d3 4b c3 bf ed d0 1b 53 32 99 c0 bf
       -0.15075156366975592 -0.1296751886180866
000110 27 27 0f 84 88 3b 91 3f 3f 17 d5 12 cb a4 9a bf
       0.016828663883450858 -0.026019261383473987
000120 f0 8b 7e 55 cb 30 a0 3f ab f8 18 d2 9f ae cf bf
       0.0316222707617938 -0.24751661070508155
000130 e9 5d 17 32 e1 0c 89 bf c7 31 e6 bf 3c e3 a1 3f
       -0.012231597272076082 0.034936808037943794
000140 ac 4d 99 86 4a 0b c0 bf 82 2f 59 b2 ab 53 aa 3f
       -0.12534457752427153 0.051419606705706236
000150 d6 80 16 5e fe 7d 7d 3f 22 55 93 9e df 6e c5 bf
       0.007200235007445785 -0.16744609110779957
000160 5d 60 2c ac e5 c1 b3 bf 3c 15 82 7c ae df c0 bf
       -0.07717738583994689 -0.13182622031687596
000170 10 ac d0 7f 5b 26 6e bf 54 34 9b a5 88 d8 87 bf
       -0.003680399617697734 -0.011643474153425405
000180 e1 90 3b d5 ce 65 ad bf ad 29 f8 c9 ca 16 bf bf
       -0.057417357949619115 -0.12144153052228175
000190 02 df 78 53 62 85 c9 bf 46 46 dd 68 32 5b b2 3f
       -0.19938305927075112 0.0717040544525612
0001a0 5f ec 56 7f b9 a8 ad bf 8a 83 34 0c 74 d0 8b bf
       -0.05792789153516575 -0.01358118688819034
0001b0 ad 5d 33 ae 04 1a cd bf 4e 1d ce 3c 81 3c c2 bf
       -0.22735651498690626 -0.14247146100044933
0001c0 7a 73 e6 f5 5a 1f 9f 3f 5e 0d 77 c8 fa f7 a5 3f
       0.030393048533017254 0.04290755936701872
0001d0 18 60 c4 9a 34 b5 b5 bf 61 9a 3d 45 58 f6 b4 bf
       -0.0847962262963623 -0.08188392343945729
0001e0 97 4f 27 90 b0 87 ae 3f 6c fc 30 18 00 13 b6 bf
       0.059628980252141854 -0.08622742262467548
0001f0 9a a1 a2 8f 68 65 69 3f 75 08 06 f9 7a 27 b6 3f
       0.0031001131256582328 0.08653992252041738
000200 75 5f 2c 7b ab dc 9b bf 74 16 41 dc 15 0a 49 3f
       -0.027208976166633165 0.000764141725547686
000210 0e 7f 85 93 f3 ea bb bf 97 19 4d f7 44 2d b5 bf
       -0.10905382491682422 -0.08272200620294821
000220 bd 8a c8 ca c1 ec ba bf e3 f9 a9 52 1f b8 94 bf
       -0.1051751251293735 -0.0202336210445483
000230 41 54 46 5e 1b 79 b9 3f 81 17 13 c2 5d f1 b0 bf
       0.0995041947520159 -0.06618295658253538
000240 d4 ad de 69 9c b1 ba bf cd 1a ac 85 dc f8 b4 bf
       -0.10427262863839043 -0.0819223238323545
000250 45 b0 72 6c 29 87 ae 3f a8 42 7b 52 8a 3d 97 3f
       0.05962495278194572 0.022695695194502236
000260 e6 2c 72 ab fb 96 a1 3f c1 0b 8b fb 51 09 b1 bf
       0.0343550345215478 -0.06654846564474239
000270 d3 42 5f 31 eb ac b5 bf ff 65 4d 4d d0 1e 7d 3f
       -0.08466978030561316 0.007109464339771331
000280 0c c2 0c 0a 90 9b 89 bf 47 56 25 bb e0 36 a8 3f
       -0.012503743464180615 0.04729368481154644
000290 1d 3a f4 af 68 a1 c5 bf 49 09 55 bd dc cb cc bf
       -0.1689883097792099 -0.22497138256773955
0002a0 41 92 2f b9 3a da b9 bf 5e 78 2e 0b c0 c2 a7 bf
       -0.1009861662019569 -0.04640770088666167
0002b0 cd 98 a1 fc 20 f7 a3 bf 53 91 f0 f3 d6 33 9e 3f
       -0.03899481853368201 0.029494627608202716
0002c0 d7 c9 47 f4 f0 8f b9 3f fc 38 39 58 db cf bb 3f
       0.09985261882665185 0.1086403932942836
0002d0 e8 98 a2 7b be 03 9b bf 45 c9 09 b1 36 9d c4 bf
       -0.026381470008936342 -0.1610477795071096
0002e0 7f 29 f4 fd e9 6f 97 bf 1a a3 a6 e9 e0 16 c1 bf
       -0.022887855649096785 -0.13351069840180046
0002f0 7e 2f 55 be fd 7a b7 bf ee 1e cd e2 a2 3b a4 3f
       -0.09172044655605124 0.03951748865671144
000300 ca 21 d4 a3 32 70 bf 3f 4a 43 6d b1 16 09 c0 bf
       0.1228057527515666 -0.12527736342829093
000310 4c bf 09 1c a4 c1 8c 3f 5b 8d 6c be 74 34 b7 bf
       0.014041215997366095 -0.09064416550659386
000320 7d c2 80 85 81 40 38 bf 7e d2 79 27 41 23 b2 3f
       -0.0003700557913388981 0.07085044111028968
000330 0a 3a 0f cf 66 1c ca bf 5b 26 eb 6b f3 81 a0 bf
       -0.20399174795461789 -0.032241446422244656
000340 c7 44 0b 88 ed dd b6 bf a0 56 d2 2b 07 87 b6 bf
       -0.08932385035884059 -0.08799786395897025
000350 1d 45 06 69 68 e6 bf 3f 1c 54 85 af 52 55 c2 bf
       0.12460949482035173 -0.14322885103561667
000360 66 68 83 95 0c 8a c0 3f 54 f8 8c c7 7b 60 a6 bf
       0.12921292591528583 -0.04370486079140848
000370 96 81 a6 0c c5 26 76 bf 9e 10 fe 9f 01 d9 9b bf
       -0.005408067440299999 -0.027195001020587577
000380 68 1a cb 05 b0 40 c7 bf e2 13 91 e4 a7 89 c7 bf
       -0.18166160853270985 -0.18388842258914823
000390 12 a8 13 95 6c 2f b6 bf 7c 73 1e b2 4c 07 c0 bf
       -0.08666113509721665 -0.12522276589598025
0003a0 85 ec 96 e8 c6 0b a0 bf ac 99 f7 50 8a 3d c8 bf
       -0.03133985127666342 -0.18937806085086828
0003b0 12 36 69 a2 e5 5d a6 3f a4 a4 9f a5 73 28 c3 bf
       0.04368512733035969 -0.1496719893177999
0003c0 0a 99 8a 84 e8 84 a0 bf 83 23 db 3a 26 a2 a0 3f
       -0.03226400964676841 0.03248710125405465
0003d0 75 4e f2 0c 64 ac c3 bf c1 38 1a 04 e9 76 aa bf
       -0.15369845039514343 -0.05168846297338937
0003e0 bd 47 8b de c7 34 b6 bf 59 15 c0 c7 12 2c b1 3f
       -0.08674287017063782 0.06707875611035287
0003f0 0f 74 c8 d8 25 cb 76 3f c8 8e b0 81 91 14 ba bf
       0.005564830626579655 -0.10187634865047379
000400 f7 1a 2b 6d f3 39 a1 bf b5 22 3f 31 3c a2 94 3f
       -0.033645255161493574 0.020150127893233633
000410 5b f1 f7 44 1b a8 ca bf 27 cc 05 89 e4 99 c8 bf
       -0.20825520389179072 -0.19219643297728448
000420 1d 8c 11 06 8a 2e a0 bf e6 13 8a 63 80 b9 a2 3f
       -0.03160506557539853 0.03657151427345422
000430 7e c7 3c 7a 25 a3 93 3f e3 d6 f0 cf 46 eb b6 bf
       0.019177041612415284 -0.08952753616980717
000440 4e 79 24 b2 21 7f b2 bf 44 20 8f f6 f3 58 8b 3f
       -0.07225237464124243 0.013353258096586391
000450 96 14 c3 c8 34 06 b1 3f d4 bb 76 16 e0 50 b9 3f
       0.06650094891945665 0.09889030979569152
000460 c3 aa ae 0e 07 b4 bd bf d3 c4 62 be fe 28 62 3f
       -0.11602825268225118 0.0022168136084351558
000470 3f 06 7d fe a6 2b b1 3f 35 42 83 cc 6f 79 9a bf
       0.06707233155341273 -0.025853869302240724
000480 64 31 45 ff 97 57 c7 bf 36 0c 68 b8 5e d3 a9 bf
       -0.18236064876908664 -0.050440750132132825
000490 d4 48 97 27 62 2d ba 3f db 78 36 9d 7f 06 c3 bf
       0.10225499598098803 -0.14863581825642921
0004a0 8e b8 9b 00 0a bf a4 bf de e7 38 6d 9d 74 a5 bf
       -0.0405200124495063 -0.04190532644538768
0004b0 7d ae 4b 09 29 5c a2 3f f0 a1 83 99 24 ce c7 bf
       0.0358593772742468 -0.18597848411378903
0004c0 8f 4d ab 82 53 83 c9 bf 00 a9 ce bd 9a f3 ba bf
       -0.19932025795297334 -0.10527960905043088
0004d0 60 ba 7b 7c c6 ee 9e bf 48 ce 5a 39 53 25 b3 3f
       -0.03020773062501758 0.07478828573476293
0004e0 b2 94 43 04 59 39 72 3f a1 71 89 81 5b 7f cd bf
       0.004449222298920906 -0.23044914078753911
0004f0 62 aa 27 e0 65 a8 a2 bf 88 8c 50 eb 2f 57 c5 bf
       -0.036441024410881054 -0.1667232417104041
000500 be fb e1 a3 48 28 99 bf 10 c6 67 1d a1 82 a7 3f
       -0.024567732813462355 0.04591849788620206
000510 14 fb a8 54 be 50 c3 3f fa 8f 88 1d e4 1d ac 3f
       0.15090159543793702 0.05491555080905637
000520 30 b8 d0 e1 78 bb b3 bf ad d4 bc 57 9a 36 b1 3f
       -0.07707934868878463 0.06723942415267699
000530 31 a7 12 be c7 fe b3 3f ea 26 6c db 85 d8 c3 bf
       0.07810638800097248 -0.15504525388705953
000540 fb 96 27 89 a5 78 b2 bf 96 5b 2f 9b 3a 49 b4 bf
       -0.0721534213876928 -0.07924238480278087
000550 1d ef 86 3a d8 c8 54 3f a9 0b 58 15 74 72 c3 bf
       0.0012685882194167282 -0.15193034212287884
000560 d2 c4 12 31 0b 32 ba bf c8 1b 6b 7d 99 e0 c1 bf
       -0.10232610652998922 -0.13966673492379145
000570 60 21 e8 32 9a ea a8 bf 7b c2 9a 52 cc a4 96 bf
       -0.04866487380428697 -0.02211302999666252
000580 9a 72 18 8a 7d 17 ae bf d3 50 d3 09 7e cc 92 3f
       -0.058772967440949134 0.018358201360414505
000590 55 b5 41 52 63 a4 bd bf 2a 5a 88 57 58 d7 c0 bf
       -0.11578961141795692 -0.13157181047491068
0005a0 c4 e6 21 fb 57 af a2 3f 50 58 63 21 e2 63 a4 bf
       0.03649401608067884 -0.03982454927033585
0005b0 d8 2a e9 58 42 3a a3 3f ba d7 0b 0a b5 0a ab 3f
       0.03755385718667065 0.05281606433520332
0005c0 ec 07 4e f7 51 89 b3 3f aa a7 7e df 84 84 b3 bf
       0.07631408965792702 -0.07624083000578588
0005d0 c4 00 8e fb 3c 90 c5 bf eb 98 ae f8 c9 9f a7 3f
       -0.1684643009466581 0.046140967947666166
0005e0 05 e9 51 8a 3d 9a cb bf c4 8f e1 14 86 39 91 3f
       -0.2156445432081641 0.016820998215180585
0005f0 22 d9 03 94 40 0f 68 3f 17 63 32 a2 77 01 c0 3f
       0.0029369603436136963 0.12504477901236363
000600 89 57 c2 d2 44 0d 95 3f 49 0b 66 a1 b1 47 bb bf
       0.02055842911121134 -0.10656271162410492
000610 34 83 1c 19 c5 a6 c5 bf 74 d9 e0 dc 2f f1 85 bf
       -0.16915191389218764 -0.010713933876200989
000620 3a 81 29 a1 3e 74 a3 3f 8f b8 4d 3e c8 e6 a1 bf
       0.037996251271354045 -0.03496385345975838
000630 1f 37 95 40 b4 2b 80 bf d0 03 3d 5f f1 93 b8 bf
       -0.00789585897532735 -0.09600742888598224
000640 46 7c f1 d3 97 19 c2 bf 05 68 b6 ed 1f 60 b6 bf
       -0.14140603874963825 -0.08740424684074817
000650 fc 2b 5f f7 f1 1f ad 3f 80 32 df 36 4c 3d c0 bf
       0.056884347388027806 -0.12687065772333384
000660 ae 9b 59 06 67 ce 9b 3f bc 3b 6e 1c 39 c8 ad 3f
       0.02715455032594221 0.05816820594838343
000670 61 6e 9f 62 24 dc c1 bf 14 fe 51 ec 45 4a a6 3f
       -0.1395307046467336 0.04353540906685907
000680 3f cb a8 ad d9 1b c1 bf 70 7c f7 88 85 25 bd bf
       -0.1336624238916446 -0.11385378450312245
000690 78 28 d6 1b 35 17 a9 bf 02 a9 dc 4f 5d 6c ab 3f
       -0.04900518383790681 0.053561130522512115
0006a0 38 61 d6 e0 09 89 c1 bf 0c 64 9d 90 4e 42 bc bf
       -0.13699458578481383 -0.11038676291117627
0006b0 0f 3c 12 0a 02 65 72 3f fe c0 80 c2 54 fd c2 3f
       0.004490859953093298 0.14835605141843894
0006c0 1c d2 55 c9 d3 a4 9a 3f 3b b0 90 bd 0f f1 c0 bf
       0.026019391215827622 -0.13235661274063823
0006d0 40 b7 67 a5 83 a6 b5 bf ad f4 31 a5 ce a6 b8 bf
       -0.08457205570422577 -0.09629527600368944
0006e0 16 9c 44 a7 92 6a a4 bf 2e 09 7e 2e 74 1f c1 bf
       -0.03987558643193993 -0.13377239484914
0006f0 f2 54 a7 19 11 84 bf bf 3a 16 5f 3d 84 2c 74 3f
       -0.12310892940816467 0.004925266801313161
000700 e9 16 c2 31 5c 2b b5 bf 8d d9 ae ea e6 9d aa 3f
       -0.08269287314223174 0.051985946796253214
000710 98 e5 d8 ff 78 19 bc bf 3b 69 99 0b b8 b4 c6 bf
       -0.10976368185301622 -0.1773901039731046
000720 01 3e 2f 2f ac f5 aa 3f 2a 4e f9 29 cc fe c5 bf
       0.052655583152610326 -0.1718383030844149
000730 b4 0f 20 cb 31 97 b6 bf 6d 33 43 95 c9 84 ab bf
       -0.08824454506981178 -0.0537474627213673
000740 a5 ce fa e5 ec 8a c6 bf b5 9f 0e d8 e4 ea ab bf
       -0.17611466626623443 -0.05452647340217657
000750 da ec a7 4e 77 a2 9c 3f af e7 ba 73 fb 8e 5f 3f
       0.02796350877359264 0.0019261794649722932
000760 bf c8 89 8d 4c f6 ac bf 4b 62 2d 9a ca 89 a1 bf
       -0.056566612508406326 -0.03425439006850136
000770 b8 03 70 33 96 a9 57 bf 7a 42 31 c4 1a 58 92 3f
       -0.0014442412191330977 0.017914217209467932
000780 e3 7f 85 ca e5 bf a6 bf 42 70 11 cc 19 7a cc bf
       -0.04443281266389911 -0.22247621979011184
000790 a9 75 eb 4e 38 d2 9a 3f 90 41 00 37 81 08 a3 bf
       0.026192550484542974 -0.037174261058797176
0007a0 e4 19 28 68 3b 97 9f bf 69 52 de 11 3c 28 c6 bf
       -0.03085034201833449 -0.17310286400301614
0007b0 f8 f1 c3 87 dc 0c c1 3f 2d 6d b9 e7 7a b9 92 3f
       0.13320500020189718 0.018285675423937043
0007c0 3f dd df 94 22 a7 a4 bf fb 0c 7e 4d 46 e1 bb bf
       -0.04033763949694923 -0.10890616790679879
0007d0 f1 64 b2 1a 88 e2 b9 bf 44 69 9c 94 51 38 5a 3f
       -0.10111284877565986 0.0016003414807018316
0007e0 a0 08 a5 47 51 d9 b9 3f 11 3e a5 69 aa e0 c8 bf
       0.10097225188386227 -0.19435625227423306
0007f0 53 8a 5c 36 2b c2 a1 bf 47 f4 ef 87 8e e0 a2 bf
       -0.03468451536743502 -0.03686948212996604
