Data/Breast Cancer Winsconsin (Diagnostic)/results/models/bcw_13.onnx (onnx, 416707 bytes, 5 tensors)

model.sequential_layers.4.Linear 4.weight f8 [1, 17]
000000 d7 a4 c3 f7 12 3d e2 bf 19 ed d0 29 20 b0 e3 bf
       -0.5699553336281963 -0.6152497116776515
000010 a7 9d cb 41 e7 6a e2 bf 4a a2 ab b2 ba f9 e2 bf
       -0.5755497250619798 -0.5929845323235636
000020 bb d9 46 fb 45 1d e2 bf 0b be 76 4a 1f f8 e2 bf
       -0.5660734088658538 -0.5927883581516097
000030 ea f0 be e1 8c f6 e0 3f a8 5c 7f 48 bb b6 e0 bf
       0.5300964745615862 -0.5223061004607148
000040 b3 18 85 47 10 b6 df 3f 54 76 82 c4 9a 58 e1 3f
       0.4954872797428706 0.5420659864500501
000050 d9 a0 79 31 06 19 e2 bf ac 22 3a 71 6b 3d df 3f
       -0.565554710990024 0.4881237607701603
000060 64 66 4e d6 08 89 e1 3f ad bc e4 fd 0f 65 df 3f
       0.5479778466862624 0.4905433635166883
000070 31 cf a4 8c e6 75 e4 bf 79 19 91 76 37 01 e1 3f
       -0.6393921610783534 0.5313985172040666
000080 ca cd 22 20 a4 04 b9 bf
       -0.09772706780022769

model.sequential_layers.3.Linear 3.weight f8 [16, 65]
000000 a6 be 6c ba cb da b2 3f db 6a 28 ea 97 b7 a4 bf
       0.07365105916391687 -0.04046320660946431
000010 a7 6c 71 4a b3 12 b0 3f 1f b1 a9 44 61 71 c5 bf
       0.06278534476716634 -0.1675225816028467
000020 18 9d b3 7e 02 2a d0 bf 6d 33 08 1e 5a a9 aa 3f
       -0.25256407139973325 0.05207330338098513
000030 45 94 76 97 b1 56 c9 bf b9 7f d3 4f 1d 30 94 bf
       -0.19795818229354914 -0.01971479224891912
000040 56 0c c7 93 dc b9 bf bf e9 19 4a 6f 2d b4 bd 3f
       -0.12392977340555097 0.116030540151861
000050 69 01 65 29 22 b8 81 3f 69 a0 58 8e 79 d8 cd 3f
       0.008651987922917841 0.2331687874841493
000060 03 5c 8e 23 6e 40 b9 bf 0c 51 cb d4 b9 f8 8a 3f
       -0.09863937728947296 0.013169719511474408
000070 8b b4 5d 8c c5 62 c0 bf f4 cd 18 a5 d6 54 dd 3f
       -0.12801427224932058 0.4583031284593908
000080 fd d0 70 54 99 de c0 bf 29 dd aa 05 95 2c a3 bf
       -0.13179318068581117 -0.037449509565187285
000090 a5 a5 b9 29 27 1a c0 3f 8f 7d da d0 e1 37 d1 3f
       0.12579812562334527 0.26903577228400705
0000a0 4a a3 c1 d3 12 16 da bf a9 71 7c e5 de ee de 3f
       -0.40759726218543746 0.4833295098376547
0000b0 e7 eb bc 83 64 d2 c2 3f 9b 4e 0e eb 7c 58 c5 bf
       0.1470456736804799 -0.1667629382833312
0000c0 76 af b6 9d 8a 3d aa 3f 6d f2 4f 99 21 e7 ca 3f
       0.05125077414717698 0.21017856584502984
0000d0 48 f7 e9 f7 90 92 94 3f 71 d4 11 2d 44 1d d7 bf
       0.020090355998483106 -0.3611612739690094
0000e0 45 a4 d7 7d 60 da d9 bf 55 d1 2b c2 d8 2a ca 3f
       -0.40395366944591543 0.20443257790578664
0000f0 31 d0 b9 74 98 04 ba 3f d7 16 bc 53 f5 04 7b bf
       0.10163262223960669 -0.006596525486889346
000100 6a 24 25 e9 99 4c b2 3f 9b 56 5d 8a 02 7c b1 bf
       0.07148134176272128 -0.06829849126855907
000110 0e 0e 0c 1a dc e8 bb bf 77 a8 33 72 d7 74 a3 bf
       -0.10902190814891119 -0.03800080555977641
000120 72 a0 e1 c2 5f de 94 3f d5 7f 6b 5e 84 59 b9 bf
       0.020379539746869964 -0.09902217202352344
000130 23 d6 09 dd 16 6b d3 3f c4 07 07 f4 77 48 d5 3f
       0.3034112127855641 0.3325481303291975
000140 3d 1e 22 fe cb 5d e5 3f 96 cd 65 22 19 16 b6 bf
       0.6676998103657251 -0.08627469148432562
000150 7d 81 95 72 6c c2 b9 bf df 45 73 e9 56 0c bd 3f
       -0.10062291905842886 0.11346953582258078
000160 a4 2f 1a 1d 6a 4c a2 3f f3 9f f6 15 97 40 d4 3f
       0.03573924641850049 0.3164422716604342
000170 67 9e 95 16 58 7d a6 bf b7 b9 44 f5 06 be bd bf
       -0.04392504954995218 -0.11618083465575678
000180 fc 1b 49 8f 4c de ce bf 88 5a db 88 56 b9 c1 bf
       -0.241159028972305 -0.13846856768096338
000190 b0 3c 7d 4f 54 24 75 bf 02 d8 97 d1 5b 6b d5 3f
       -0.0051615994814959015 0.3346776530082708
0001a0 3d d8 63 38 f8 5f a9 3f 52 64 36 b7 d1 cd d6 bf
       0.049560315021083025 -0.3563122071441899
0001b0 93 fc 39 4f d8 ef d2 3f 4f d0 16 03 5f a2 d3 bf
       0.2958889745422734 -0.30678534795447815
0001c0 72 f5 98 32 ef ea d6 bf 0e 86 d6 ba 2b 65 b3 bf
       -0.35808925572549477 -0.07576249419664569
0001d0 9c c6 c1 bf 18 8e 7a 3f 28 26 32 24 d8 72 d4 3f
       0.006483170200327539 0.3195095399356398
0001e0 54 77 13 bc 46 81 ac 3f 5b 04 55 29 f8 b8 c5 3f
       0.05567379995203106 0.16970731752556642
0001f0 38 f3 89 dd 7b 7d d3 bf 33 df be 4e 26 c9 c5 bf
       -0.3045339263406279 -0.17020109982490225
000200 c6 bc 23 da 92 63 c9 bf 6c f9 6c c5 77 ae a8 3f
       -0.198351246369816 0.04820608410817581
000210 e7 30 09 d6 f5 5a d4 bf d8 6a 62 38 d0 a0 d3 bf
       -0.3180517759508476 -0.30669026857655757
000220 33 8b 1e b1 42 22 d0 3f da 86 01 02 aa d0 d4 3f
       0.2520910958939339 0.32523584552664675
000230 f7 ac 95 e4 6b bf b2 3f b6 7f 10 e4 8a 44 cf 3f
       0.07323335962944443 0.24427925239524279
000240 94 6f 67 ec 5b 08 b2 3f fb 59 ca bf 47 0f b9 3f
       0.07044004937728082 0.0978894084204071
000250 71 12 0d 17 19 69 cb 3f 2e 34 73 bb 3c 71 b1 3f
       0.21414483666935127 0.06813411308685666
000260 6c 51 95 49 ba 0a b8 bf 95 0a f7 cb 0c cd ba 3f
       -0.09391369148699419 0.10469131450285325
000270 3f 45 2c a7 b0 c2 c0 3f cc fb 74 67 b9 41 d6 bf
       0.13094146883717347 -0.34776148894519276
000280 2d e1 96 17 b9 58 c8 3f 92 2c c4 a9 c4 ae c0 3f
       0.19020761157822488 0.13033350266809812
000290 ad b7 fd 50 9f 48 bf 3f 3b d7 df 25 24 09 8a bf
       0.12220187880822549 -0.012712747960886275
0002a0 a2 37 e8 db dd 04 c1 bf 3f 36 e0 1a 9f e9 d7 bf
       -0.13296101796771348 -0.3736341249903922
0002b0 74 32 47 e9 52 d5 94 bf 7d 7f 16 5e fd 51 b4 bf
       -0.020345015991369356 -0.07937606379573299
0002c0 67 dd 64 57 e9 31 b7 3f 65 2c 07 48 4f 93 70 bf
       0.09060533889429721 -0.004046735470590955
0002d0 2a 40 9e b0 2c c8 90 bf 2a 86 eb 70 97 e7 af 3f
       -0.01638860538474788 0.06231377843301929
0002e0 4c 38 f6 27 0f 6f c5 bf b2 26 be 20 9f 23 b5 bf
       -0.16745175791987987 -0.08257479237922885
0002f0 44 4c 50 34 1e 53 96 bf 3a ff a6 cf 88 04 c9 bf
       -0.02180144495293869 -0.1954508794715311
000300 f2 f0 b7 79 25 60 ae bf ab b4 86 38 a2 5d b6 bf
       -0.059327288730829056 -0.08736623649629631
000310 75 16 30 45 2b 42 d1 3f d5 61 36 01 dd fc ba bf
       0.26966363674760113 -0.10542088775253629
000320 18 22 44 8a 68 af b8 3f f3 df 67 d4 4e 1c cc 3f
       0.09642651916158973 0.21961388942122503
000330 e9 41 27 0b 28 51 b2 3f b4 0b 5b c0 45 53 b1 bf
       0.07155084869669505 -0.06767688699896618
000340 4d 7d 2c 3a 86 c2 82 3f 1d a6 94 ef c6 47 a8 3f
       0.009160088205645645 0.047422615762411115
000350 d3 fc f6 50 0e c2 c5 3f 41 e0 fa eb a1 17 b7 3f
       0.1699846167884745 0.09020435343961798
000360 5e fb 44 5b f2 96 c4 3f d5 fb e9 b4 4b e9 cd bf
       0.16085652786747578 -0.23368212064448693
000370 aa c0 4f 40 21 5c 9a 3f a0 8c 5a 08 99 00 b8 bf
       0.025742072630180836 -0.09375912145564991
000380 4b 64 53 3a d9 79 bf bf b3 3a 4b 34 5b e3 d7 bf
       -0.12295301126450046 -0.3732517252619047
000390 f3 e2 c8 34 ec 76 d5 bf fb 16 e6 ea f9 8a bf 3f
       -0.33538346438176275 0.12321435913881011
0003a0 87 52 5a aa 6c 16 b1 3f f7 0f 08 7a fb 2e d1 bf
       0.06674842032436788 -0.2684925739015393
0003b0 70 55 53 7c 22 8b 93 bf 5b c1 fb 8d 5b b5 be 3f
       -0.019085444296100318 0.11995479790107792
0003c0 80 60 5c 4a 53 b9 c9 bf 20 35 c9 ba 90 33 d3 bf
       -0.20096818095112567 -0.3000222992021282
0003d0 be f4 41 cb bf a2 97 bf 57 40 9f e5 89 34 cb bf
       -0.023081776409971104 -0.21254085266127973
0003e0 5d a9 4a 16 32 fa b3 3f 50 38 64 2b c2 b8 bf bf
       0.07803643268804224 -0.12391294059145364
0003f0 0b 19 d6 50 e1 4c c3 3f 3f f2 84 ff 46 78 9e 3f
       0.15078369566999358 0.029755696626340585
000400 81 76 17 ce ad 9b ab 3f 99 c8 be e6 2f 69 bd 3f
       0.05392211094634281 0.11488627799443164
000410 d2 69 c9 7a 0b 7f b2 bf 42 05 43 2f fa e2 ca bf
       -0.07225105045055294 -0.21005179698662785
000420 b7 04 18 f5 77 5a d2 bf 27 ad 88 fd 06 55 c9 3f
       -0.28677176413482236 0.19790732745728087
000430 52 bd 35 7f 5c e7 bc 3f 45 10 93 e0 3d d5 c9 3f
       0.1129052935191244 0.201820120482923
000440 b3 83 9d bb e2 f4 ac bf 62 8c 93 2f 5d ec c8 3f
       -0.05655582943177908 0.19471325705589765
000450 22 a0 64 1a d9 ef d0 bf e6 8b a9 36 c8 3a b9 3f
       -0.2646391637558755 0.09855319342163646
000460 a4 e3 52 20 b3 2f c6 3f e9 c2 0c 47 33 40 c1 3f
       0.1733306796866404 0.13477173775893128
000470 ca 29 f9 8d 12 7d c7 3f 10 a0 5e e5 6c 85 c7 3f
       0.18350440914430372 0.1837593193024536
000480 5c 51 2b 8d 48 28 ce bf 33 96 7d 31 b2 50 c6 3f
       -0.2356043519308838 0.17433764854938402
000490 31 4b 53 68 1f 58 c8 3f cb 9f bc 0b 68 65 cc 3f
       0.19018929094326034 0.22184467862211785
0004a0 99 5a e7 16 b0 7f cc bf 51 1d b7 9e 40 6f b8 3f
       -0.22264672392221455 0.0954475772369865
0004b0 16 0a 5d fc 49 99 d7 bf 96 66 4a f5 aa cc ba 3f
       -0.3687310184942886 0.10468548286953658
0004c0 ef d0 80 fe c8 61 b0 bf a2 88 a0 25 07 c5 d2 3f
       -0.06399208272415867 0.29327562975425725
0004d0 a0 57 11 f0 3c 02 c9 bf 0e 50 cc d4 69 41 b8 3f
       -0.19538079950387743 0.0947481293226817
0004e0 50 14 9a 33 d7 dd bd bf a8 ac d1 0e a1 bc d7 bf
       -0.11666626939593638 -0.37088800856754256
0004f0 93 96 05 ed 02 49 b7 bf df 63 00 6a ea a4 b8 3f
       -0.09095781599679702 0.09626641357353048
000500 61 1c 9f 20 bf 60 aa 3f c2 cf ec 0a ff c2 d0 3f
       0.05151936791622159 0.26190162722491206
000510 d8 7f b5 bd 7e 11 a5 bf fa 5c 21 8b bc f0 b0 3f
       -0.04114910188468429 0.06617334744202089
000520 87 0a 35 ea 9f 26 a7 bf a7 ab 47 10 9f c7 b4 3f
       -0.04521655782675276 0.08117097995243104
000530 61 2b 43 09 1c c7 c3 3f ec 6e b6 fb 2c 4d b0 3f
       0.15451384022011452 0.06367760796859628
000540 1d 56 08 55 83 8f b3 3f 19 68 b6 3c 20 74 b1 bf
       0.07640858484258968 -0.0681781910156193
000550 40 5a 4d 9e ce 65 b1 3f e4 a0 bf 07 4c f5 d2 3f
       0.06795970310972965 0.2962217403096601
000560 18 47 ba 1a a8 40 b9 bf 88 8b 6b 77 e8 2a 91 3f
       -0.09864283230333759 0.016765243805717783
000570 8a 80 22 08 6d d7 d0 3f 9c f8 17 71 e8 71 d1 3f
       0.2631485537949706 0.27257739109325896
000580 a1 86 4d c8 09 80 b1 bf 45 6f 48 f8 f1 7d aa bf
       -0.0683599580784411 -0.05174213558004096
000590 6d b1 43 a4 60 3d d2 bf 79 8b a8 b4 73 4b cc bf
       -0.28499618569801194 -0.2210526115532863
0005a0 80 15 77 0b 55 1e 8f bf e1 62 0c 3a d1 be c0 bf
       -0.01519457284201553 -0.13082328161615123
0005b0 2c 1e 2a 2c 6c 4f a5 3f 6b c5 c2 0b 52 92 b9 bf
       0.041621570960213766 -0.099888923522277
0005c0 b4 41 fd 4d ac 3e be 3f 77 8f ac 1f c6 e4 a9 3f
       0.11814381507907151 0.05057353150030413
0005d0 04 59 08 cd 1d d8 d2 bf 21 c6 2a 7f f3 35 8e 3f
       -0.29444069884029056 0.014751341169673417
0005e0 26 9f 86 2c 96 79 bd 3f f9 51 14 ed 14 7e 80 3f
       0.11513651454026483 0.008052981839264272
0005f0 ea dd 26 e4 61 5c d0 bf 46 64 cf 18 b4 a4 d6 bf
       -0.25563857346011665 -0.35380270407546666
000600 85 a3 ef 89 da dd bb bf 3f 23 7a 57 3a d4 d3 bf
       -0.10885396831112189 -0.3098283628719862
000610 ee ba 2c ec 44 9f aa 3f 21 3b 82 73 bd e5 d0 3f
       0.051996377782748 0.2640222194685738
000620 72 f1 7e c2 56 7f a8 bf 41 e7 97 f4 e3 69 d3 bf
       -0.047846518747493585 -0.3033380402190354
000630 0b ec 56 b5 4d b0 be bf 4f 0d 48 03 66 04 a8 bf
       -0.11987767865404934 -0.04690855779701996
000640 8b 38 fc 1c 99 42 ae 3f 1a ee fe 0a 2f b2 cd 3f
       0.0591018531687136 0.23200023686318688
000650 a7 4a 11 e7 96 68 b2 3f 3e f1 f6 57 96 a9 b1 3f
       0.07190840855882162 0.06899394652913757
000660 31 f5 d7 08 67 f0 cb 3f 06 ab 7f 9e dd 6a 9d 3f
       0.21827400142493894 0.02872797279261887
000670 3c 1c f3 2c 15 5f c2 3f bd 2c 18 a7 94 e0 cf 3f
       0.14352669424826725 0.24904115828426213
000680 57 5c 06 4d 4f 84 a5 bf 7b 93 e9 e0 e7 88 bb bf
       -0.04202506842846592 -0.10755776635194352
000690 80 6b b1 87 f8 b5 ca 3f 53 b1 62 13 6b 0d c6 3f
       0.20867830873143234 0.17228449293669232
0006a0 f2 c7 6f 11 f9 16 c6 3f 47 25 36 99 84 98 d1 3f
       0.17257607795141855 0.2749339576917759
0006b0 e8 e1 59 1f 52 87 82 bf e9 b6 2f 49 c0 a5 8d bf
       -0.00904716642547583 -0.014476301415892805
0006c0 72 1f b1 ec a4 8c 9e 3f f4 c7 a7 21 93 01 d3 bf
       0.029833390184904336 -0.29697111403140686
0006d0 94 c8 0c ea 96 74 b3 3f e7 cc 68 cf dc 86 bf 3f
       0.07599776472196346 0.12315158904748423
0006e0 54 5c 67 6e 41 d0 cb bf 7e 72 46 10 86 f1 9f 3f
       -0.21729295626457434 0.031194777243956022
0006f0 c4 e5 31 0e 19 7f c6 bf 04 6d ad b8 20 4e bb bf
       -0.17575371926413486 -0.10666088589407613
000700 e2 5a 80 e6 86 f9 96 3f 3a 7a 08 c6 93 ed c2 bf
       0.02243624479168716 -0.14787528199754424
000710 0b 45 93 04 b2 22 c9 3f e8 9c 7e c4 f7 d2 d0 bf
       0.1963713190403172 -0.2628764552013778
000720 b6 b8 0e 47 1e b6 b8 3f 09 0a b3 73 c6 a4 d7 bf
       0.09652890429308311 -0.369432080257099
000730 8e 63 cf 69 3a 71 bf 3f 85 eb 2b fe 26 7d c8 3f
       0.12282147486929615 0.19131934557648492
000740 82 ed b1 6d 4d c5 bb bf 49 37 5a 62 a8 82 d0 bf
       -0.10847934654332472 -0.2579747162316051
000750 d3 28 c3 0b 3b 0a b2 3f a1 c4 32 ca 35 5b a3 bf
       0.07046860730330033 -0.03780525296441196
000760 f8 c9 ff f6 9d ad b6 3f 44 17 6b 23 df 32 bb 3f
       0.08858668594601926 0.10624498953538103
000770 4c 05 e2 1c 06 23 ac 3f 48 ed ee 4f 54 28 cb 3f
       0.0549547109849394 0.21216825392716943
000780 83 41 c8 45 ac 0b da 3f 00 2e fe 12 c6 f5 b7 bf
       0.40696245970413986 -0.09359395946210469
000790 1f 5e b7 9c 28 7e c2 bf 47 99 d1 59 6d 9c c4 bf
       -0.14447505619203668 -0.1610237778251735
0007a0 14 09 1f 8c 3c 6e d4 bf c5 68 0f 15 27 1a b7 bf
       -0.3192283028003129 -0.0902428080002294
0007b0 6e 88 d1 8d cf 5d aa bf 59 35 ed 0e 26 1c d6 bf
       -0.051496969281985425 -0.345468058182481
0007c0 6b d5 7b 0a 89 3e d4 bf 78 fe 5d ce bf bd be 3f
       -0.3163168527965669 0.12008284366856425
0007d0 3c d4 8b 98 d3 02 ce bf 4b bb 52 79 82 05 b9 bf
       -0.23446125935120843 -0.09774032079688515
0007e0 46 4f dc ae 1e bc d6 3f 43 f7 6b 44 ea 3f b8 bf
       0.3552319247839829 -0.09472526712849309
0007f0 25 16 50 7a 8b 93 ad 3f 77 f6 a7 80 88 ec d0 bf
       0.05776630275799403 -0.2644368416220923

model.sequential_layers.2.Linear 2.weight f8 [64, 129]
000000 8e 6a 52 d0 09 9c c1 bf e3 19 60 05 c2 72 c1 3f
       -0.13757441207856796 0.1363146330115362
000010 e9 ec 32 41 a2 94 d1 bf 24 ce d8 93 7d fa d2 bf
       -0.27469688765604744 -0.296538729078039
000020 4c 00 d0 49 a8 b0 c9 bf f1 d2 72 67 04 1f cc bf
       -0.2007036552822704 -0.21969656993100942
000030 9d af 09 c4 0d 5f c0 3f 7e d3 6d c6 74 c6 ac 3f
       0.12790081092987018 0.05620160028676134
000040 b1 d7 1b cd 1f 7b cc 3f 70 26 96 d9 06 c7 b6 bf
       0.22250745310856027 -0.08897440731211659
000050 15 da 24 e5 10 76 b2 bf ad e0 e0 66 2c 57 bf bf
       -0.0721140441354254 -0.12242391120605829
000060 0f 6c 44 5a a4 82 ac bf 4d 9c 46 05 3f 5e ca bf
       -0.05568421937842782 -0.20600116498573798
000070 a2 e2 d1 27 40 98 b6 bf 58 c4 fb 30 af bc b1 3f
       -0.08826065990605028 0.06928534456143731
000080 52 80 e2 16 20 6b b4 3f 95 8a a7 e5 6d 20 95 bf
       0.07975960310659616 -0.020631520406718968
000090 3c 5c 11 12 11 d8 be bf 1b 29 ca 2d 22 ed b8 3f
       -0.12048441592320186 0.0973683702269778
0000a0 5b b8 ab 67 b1 bf ca bf 65 38 27 8b 41 54 c3 3f
       -0.2089750057415952 0.15100878996458103
0000b0 ba b5 27 b3 09 91 c0 3f 12 99 48 54 d5 bc c1 bf
       0.12942620513733322 -0.13857523551377732
0000c0 7b a3 73 62 6b 4f b2 bf 56 e6 3c 25 f0 f5 76 bf
       -0.07152434495550423 -0.0056056385690737755
0000d0 c8 6b d6 da 7d f7 b6 3f a8 7e 59 a7 ef 06 ba 3f
       0.08971392243112952 0.10166833720858881
0000e0 7b 06 f9 99 79 05 c9 3f 80 15 68 08 fc 96 9a 3f
       0.195479583913812 0.025966585171791845
0000f0 09 2c f6 4f 39 09 8e 3f 3c 55 a2 d3 f4 77 bb 3f
       0.01466603064797846 0.10729913870666946
000100 b0 22 cd 05 88 0a 9d 3f 34 1d f7 d1 e0 fc a1 bf
       0.02836048636825933 -0.035132432585266576
000110 27 0d 6b 5e 2f b6 c0 bf 81 69 45 12 f6 32 93 3f
       -0.1305598460222452 0.018749089112455323
000120 03 d7 a4 ee 70 bb bb 3f 54 ee 09 07 19 37 a3 3f
       0.10832887483851654 0.03752973757670178
000130 a7 5a 7c b7 98 c5 c3 3f ef 82 1c 36 51 21 83 3f
       0.1544676681448511 0.009340891326759386
000140 73 1f 52 24 7f 18 a8 3f 8b 6f 57 da c5 28 b3 bf
       0.04706189459198997 -0.07484089451412339
000150 8f fc a7 e6 19 8b b0 bf 82 96 ef a9 d3 85 c1 bf
       -0.06462251549963781 -0.13689657018328566
000160 b1 7e 9c 60 53 47 a0 3f 85 02 70 31 8f d3 a5 3f
       0.03179417185151346 0.04262969473348214
000170 1a 6a 96 39 bf 6e b5 bf f4 e6 7d da 8d e6 aa 3f
       -0.08372111469217494 0.052540238305438
000180 26 9b 9d 20 30 77 b5 bf 34 59 79 e7 c4 dd ba bf
       -0.08384991451530918 -0.10494642878743293
000190 db 80 50 9a 79 03 cb bf d4 9f 4b 62 c5 0f 88 3f
       -0.21104354891668362 0.011748830854642657
0001a0 43 fa bb a8 c2 61 87 bf cc e7 6c 51 86 fc bc 3f
       -0.01141693189083271 0.11322822082448097
0001b0 15 da 81 84 a4 21 a4 3f 1a 50 bd 4a 6c 68 b6 bf
       0.03931917302627511 -0.08753086876578245
0001c0 58 24 65 db aa 65 c3 bf fd 75 27 08 31 50 c2 bf
       -0.15154014313364672 -0.14307225130225723
0001d0 77 56 27 e9 df 08 92 bf 93 fc a4 7b 28 da a8 3f
       -0.01761197910840059 0.04853941449481982
0001e0 6e ef dc 68 ee 20 c5 3f 00 f6 78 1c 04 95 88 bf
       0.16506748314156588 -0.01200297557727037
0001f0 75 02 3e b9 15 c1 c1 bf df 47 f9 f3 aa 3e c0 bf
       -0.13870498223333852 -0.12691246903210548
000200 b1 df 2d ce 95 52 a6 bf 89 07 6c 01 ba 29 98 bf
       -0.04359882490001555 -0.02359667428664339
000210 e6 8a df 92 b9 eb cf bf 01 c5 cd e6 9d 18 d4 bf
       -0.2493812529711114 -0.31400249041969636
000220 f3 85 bf 89 16 9c c0 bf f1 80 95 bf 61 aa ba bf
       -0.12976342893584522 -0.10416232039779395
000230 e3 91 e0 cd 63 f1 b1 bf 60 6d 52 8e 78 56 b3 bf
       -0.07008956695842232 -0.07553819155366659
000240 18 34 c6 10 37 ee c0 bf 2f 64 bd 97 2c 7f b4 bf
       -0.13226974791578594 -0.08006552414498523
000250 6b fa e0 51 f6 87 d6 bf b1 99 84 db 4d 0a a2 3f
       -0.35204847331980343 0.035234864279391494
000260 1c 4e 29 3d 21 ef d1 bf d2 0a d5 c4 59 7b c6 bf
       -0.28022032711780454 -0.17563936339327896
000270 13 46 1a 82 c3 41 bc bf 3e 52 16 b5 ad 26 b7 bf
       -0.11037847448667319 -0.09043393775056871
000280 08 44 ee 2d 8c 16 8e bf 7f 37 fa de 33 bb b4 bf
       -0.014691443587965494 -0.08098148530754477
000290 13 97 f8 2f 57 eb a6 bf d6 3a f8 a2 16 53 c2 3f
       -0.04476425610145731 0.1431606574774011
0002a0 f0 27 ca 70 85 71 ac bf 4b 40 7d 8d fd c9 b6 bf
       -0.055553598421354766 -0.08901962951972668
0002b0 35 59 35 52 30 80 b4 3f 04 09 ad 7e 56 12 c2 bf
       0.08008100516358214 -0.1411846273932228
0002c0 93 b6 7a a0 57 30 c0 bf d8 9a 99 03 ca 1e b8 bf
       -0.12647528968721086 -0.09421980464831436
0002d0 af c1 c8 13 ad 69 c1 bf 5a 75 66 b5 62 b5 c2 3f
       -0.13603747812295583 0.14616044862206473
0002e0 94 8e d2 63 b2 9e c3 bf 90 2e a3 f0 89 c0 d4 bf
       -0.15328054308075834 -0.32425163745640706
0002f0 9e 91 dc e5 a9 c5 c2 3f 5a 26 7c 81 c4 6c c2 bf
       0.14665721629820622 -0.1439443237543852
000300 1c 6b 14 ba 49 7f c6 3f 68 24 84 71 c7 79 b3 bf
       0.1757595213501525 -0.07607695123091818
000310 8a ac 3f 5c 9d 0d b1 bf 43 0f 4e 7e aa 8f 92 3f
       -0.0666139936653726 0.018126167258301306
000320 2d a7 62 6b 4e 22 c5 3f 9c 1f bd b4 59 dd 8b bf
       0.16510944598604152 -0.01360578615971502
000330 5f a9 69 a8 2f 5a 9a bf ba 58 aa cf 61 7a b9 bf
       -0.025734657911394062 -0.09952365226704077
000340 f6 6e a2 29 96 17 ca 3f 6f 3e 5f cb 78 8a c7 bf
       0.2038448050778851 -0.18391332559848503
000350 6f 26 34 f1 7c 37 b8 3f eb 64 1b 4e fb 94 a9 bf
       0.09459668053400504 -0.04996476486639686
000360 74 a6 e3 2a 3a 16 b4 bf 1a 1e 8d db ef 93 aa bf
       -0.07846416041470566 -0.05190991931027274
000370 09 85 c6 e6 94 99 ab bf d6 b4 2d 59 e9 f6 c7 bf
       -0.05390610997279494 -0.18722264151020934
000380 c5 6d a9 59 fa cc cb 3f b4 f9 5f d0 72 30 b8 bf
       0.21719293001193143 -0.0944892653205674
000390 39 e6 30 36 4a 49 d0 bf 69 c5 42 e4 53 cd 41 3f
       -0.2544732598504172 0.0005432757975737781
0003a0 e1 6f 2e c3 dd 08 97 bf 79 f5 73 8f d6 80 c7 bf
       -0.022494759595801276 -0.18361932758845592
0003b0 37 78 db 2a ee 20 ce bf 99 34 df e4 2e 39 aa 3f
       -0.2353799542679 0.05121752303930655
0003c0 6a 25 ca 56 61 07 c4 bf 8c 9a b0 03 e6 98 a9 bf
       -0.15647522676253384 -0.0499946479324552
0003d0 ab f9 dd d2 14 3b bb bf 1e 72 97 c6 fd a9 d3 3f
       -0.1063702597439035 0.30725044625958897
0003e0 1b aa fa 51 f2 fd 91 bf 33 13 a1 34 13 07 c8 bf
       -0.017570291761027073 -0.18771591253075712
0003f0 19 e0 97 7a dd 4a c2 3f 8e de 10 f1 8f 95 a3 bf
       0.14290970312117748 -0.038250444581021545
000400 f3 25 19 4f d5 28 c6 3f 36 53 32 57 a7 24 96 bf
       0.1731211315366604 -0.021624197670990962
000410 c3 0e 05 66 e7 8b ab bf 93 de 5e 2c b6 5c 84 bf
       -0.05380175705297809 -0.009942458371241336
000420 19 1b 1e f2 9d 3e e5 bf fc 6d 21 56 f9 15 a3 bf
       -0.6638936737880129 -0.0372770230903505
000430 21 61 eb 11 6d 04 c2 3f 0d 2a 0e 2e 11 53 a8 bf
       0.14076007246945557 -0.047508751747120305
000440 63 35 8a ea 16 fc c9 3f 02 94 7f 1f a7 1f a0 3f
       0.20300566150801122 0.0314914918851983
000450 13 f8 5b a4 c0 67 bd bf 58 e2 65 8c c5 ea ad bf
       -0.11486438763310529 -0.05843179072229948
000460 08 59 2b c6 5a ef 26 3f 5f 18 3a 73 1c 85 b6 3f
       0.0001749800022341002 0.08796861470372751
000470 e7 7e c4 49 75 be c1 bf 74 a2 24 35 d9 21 cd bf
       -0.13862482168132503 -0.22759547324064366
000480 29 2c bf da 5c 5e 92 3f 6a 08 3d fd c8 ea c0 bf
       0.017938090182536257 -0.13216507306248398
000490 89 5b f2 bd fe e2 bf bf 1c 03 37 50 d6 82 b6 3f
       -0.12455742013331252 0.08793391664859168
0004a0 b0 ff 4e b8 26 7c cb bf 5c c4 fc d9 2e 02 aa bf
       -0.21472629546587774 -0.05079790507296231
0004b0 8c 7c b4 e8 70 30 c7 3f 0b 25 05 1b fe d9 c7 3f
       0.1811658035521514 0.1863401061948838
0004c0 f5 d3 5a e8 fc 05 d1 3f 6d 33 33 3e 5c 5e d1 bf
       0.2659904736604511 -0.2713842971250447
0004d0 4c a8 e2 26 a4 7f 65 bf 8b b4 b7 5c 98 39 c9 3f
       -0.002624340638324651 0.19707016494013305
0004e0 da 85 c2 90 20 10 c6 bf e2 53 1f d4 0e 49 c3 bf
       -0.17236716335632601 -0.15066705091035631
0004f0 c6 e0 1e 10 f3 e4 70 bf ed 0d bf ad 54 6d b7 bf
       -0.004124593224269007 -0.09151200525143795
000500 f8 51 9f 04 3a 7d b0 bf ae f2 b5 03 d5 c7 95 bf
       -0.06441080677843292 -0.021270111419186825
000510 7c e1 de 0e 3d 9c 96 3f 80 7f 5c 01 da 3f c8 3f
       0.022080377609854804 0.18944859568091132
000520 25 1b 99 fb 0c 96 76 3f dd 93 05 ac e6 1e d1 bf
       0.005514193262178312 -0.26751105116846735
000530 e2 26 6f 74 93 7e a6 3f 15 1d 4d 23 17 3d d1 3f
       0.04393444820705185 0.2693536610353971
000540 bc 17 51 f9 e4 27 bc bf a8 f7 a8 23 21 4e d5 bf
       -0.10998374068102995 -0.3328936432116003
000550 8a 86 78 db f9 a7 90 3f 0b 45 15 fd d8 25 9e 3f
       0.01626577760737872 0.029441252181020377
000560 c7 c2 4e 45 07 89 c2 bf 35 15 72 ce 2d 6d c9 bf
       -0.14480677494204583 -0.19864437656739545
000570 d4 da e1 24 48 cd c8 3f de 62 cc f7 c3 fe 7a bf
       0.19376470375910648 -0.006590619563916459
000580 72 11 58 b3 e6 f8 80 3f b2 29 2f 36 89 e6 d3 3f
       0.008287241314072633 0.3109457997458335
000590 80 aa 30 d4 dd a7 c3 bf e2 05 f7 35 56 fd c5 3f
       -0.1535603796085816 0.17179372439390678
0005a0 f3 a2 6a ba cd b5 c6 3f c8 2d f6 3d 15 ab a5 3f
       0.17742320635195305 0.042320884526897695
0005b0 d2 c8 28 7d 7e 50 88 bf 1f 9e 47 64 00 b7 c2 bf
       -0.011872280306395675 -0.1462097634932755
0005c0 26 92 49 2f 42 e4 b0 3f b1 75 a7 5c 22 f1 c9 3f
       0.06598294882275776 0.20267133258941564
0005d0 5b a5 b1 4a 66 e4 b5 bf 96 6f 0e 70 b7 56 bd bf
       -0.08551635097105274 -0.11460443959953034
0005e0 33 4d b2 78 53 fc b9 3f 82 aa 5d 29 4f 94 cc 3f
       0.10150644013110792 0.22327603835886484
0005f0 47 d1 a8 33 ed 03 b3 bf 1b b1 b5 6d 42 77 7f bf
       -0.0742786646959007 -0.007682094084298786
000600 e3 09 96 4e c9 8f c5 3f c7 1f ca 57 77 98 c5 bf
       0.16845051133357378 -0.1687153986606502
000610 1e 59 e8 40 c0 e3 9b 3f 32 cf 70 01 b2 0e a1 bf
       0.027235988580366237 -0.03331524150453759
000620 b8 08 19 f8 8d 18 92 bf aa f7 f9 82 8d a8 c9 bf
       -0.017671793239295325 -0.20045632262548213
000630 99 17 4b 8f 73 f0 c2 3f d2 55 49 73 52 9e a2 bf
       0.1479629945444543 -0.036364151547484305
000640 74 b0 37 42 7d b8 c8 bf 6d af 60 2e 38 51 c0 3f
       -0.193130166371137 0.12747862114462852
000650 72 44 79 66 e4 78 c7 bf da 02 47 73 39 24 a9 bf
       -0.18337683681105293 -0.049104495355555236
000660 61 83 0c fb d8 1d b8 bf 11 2b 8f 2d ca e5 d2 bf
       -0.09420543793795623 -0.29527525376458735
000670 fd 21 1f 8b 26 d1 a3 bf f5 6a 40 0f 9b d7 b3 3f
       -0.03870506714116926 0.07750863191942499
000680 90 05 f3 b3 78 19 c3 3f 1a 2b 1f a9 7e 70 c0 bf
       0.14921482836329547 -0.12843306787393588
000690 f8 a3 0d f6 83 b4 55 3f 11 40 f7 5d a2 b2 bc 3f
       0.0013247765238821856 0.11210074228370127
0006a0 6b 0f 9b e2 df d5 c1 3f 8f f4 a4 91 fb 34 bf bf
       0.13933943333369866 -0.12190220170755793
0006b0 f1 3e 11 92 cc 21 7e bf d3 d8 e0 90 d3 bf b9 bf
       -0.00735645208722223 -0.10058328902309492
0006c0 41 af da 86 66 75 c1 3f 0c 6f 61 2f f1 73 72 3f
       0.13639527878455662 0.004505102280827133
0006d0 b8 64 b4 e1 a7 28 80 bf 52 84 50 1a e5 f7 c8 3f
       -0.007890044761142398 0.19506515297783494
0006e0 d0 84 47 8d 49 8b d2 bf 40 cc b7 24 b4 84 c0 bf
       -0.2897514228516913 -0.12904979508275183
0006f0 10 ef ae 55 ba 81 d0 bf 22 38 0f c0 0d 35 b3 bf
       -0.25791796081078733 -0.07502828539802
000700 49 da 36 03 7c 12 b3 bf d6 e1 63 09 a6 b9 ae bf
       -0.0745007999274573 -0.06001013626695666
000710 0a 4a 7a f3 92 25 b6 3f 4b e8 91 a5 5c a7 bf bf
       0.08651083416251751 -0.12364748995051504
000720 db 2f 60 c7 51 f5 c2 bf db ca b8 9b 37 a5 c0 bf
       -0.1481115554346378 -0.13004202941518525
000730 bd 52 cf c4 86 b1 c6 3f 50 41 cf 0f b7 11 ba bf
       0.17729267701965581 -0.10183281074501349
000740 a4 f8 e1 a8 a7 4a 86 3f 07 34 89 6c 0d 19 b3 bf
       0.010884580460921285 -0.07460101985743971
000750 1b 15 8c 76 dd 32 a9 bf ca 2e f5 91 b0 0c b8 3f
       -0.049216194840520276 0.09394362986966623
000760 cc 65 8d 1b a4 eb c6 3f 7c 6b d0 de b7 6c c1 bf
       0.1790661940129169 -0.1361303174934071
000770 49 e3 8c d0 6a 92 b2 3f c5 b1 11 0d a8 e0 d5 3f
       0.07254664985238181 0.34183694149285443
000780 da 60 37 d5 a7 72 cc 3f d4 4d 19 f4 dc 2d b4 3f
       0.22224901114419177 0.078824815363354
000790 02 da e0 19 0b 48 ad bf 90 47 3c 02 11 cc be bf
       -0.05719027224442998 -0.12030130676819639
0007a0 e9 32 c7 f5 5b 5b c3 bf ae c1 e4 e9 1d 31 c4 3f
       -0.15122556210408014 0.15774892731270768
0007b0 45 19 d7 98 6e c9 af bf 75 a6 96 55 46 39 d0 3f
       -0.06208367934918838 0.25349577291726827
0007c0 34 50 4f 70 e7 8c ba bf b7 01 8b 1f 79 8d 94 bf
       -0.10371252529086022 -0.020070927191001533
0007d0 a0 ab 08 98 50 d3 aa 3f 38 dc 0c fc dd 17 cc bf
       0.05239345413095653 -0.21947836691990275
0007e0 0c a2 cc 88 28 b0 b1 bf 70 a5 d5 44 74 df b3 bf
       -0.06909421291187118 -0.07762839012652534
0007f0 12 67 89 38 93 44 c9 3f 55 9f da 10 d6 0d c1 3f
       0.19740524540502996 0.13323474715184128

model.sequential_layers.1.Linear 1.weight f8 [128, 257]
000000 41 86 84 72 22 f0 95 3f 15 c5 82 23 ad 28 a4 3f
       0.0214238531490365 0.03937283571702658
000010 9d b1 9d fb 9d 6e a0 bf 15 98 4d 58 54 1f c9 bf
       -0.032093941655008985 -0.19626859962153334
000020 10 86 15 6a 33 5a c4 bf c5 df 86 3e 1c d3 b0 3f
       -0.1590027111042649 0.0657212879804084
000030 8a 13 d1 fa 90 84 c5 bf 89 6d db 04 1a a0 a5 bf
       -0.16810810324582476 -0.04223710355082761
000040 e1 85 cb 98 6d 6f a9 3f e9 49 0f bb 6e 89 c3 bf
       0.049678254033789455 -0.15263160833144632
000050 2b d8 8e 0d b4 18 bb bf cc a1 fd 8d fd 1d c6 bf
       -0.10584569293027417 -0.1727902358354768
000060 f9 a1 ad e8 e3 db b7 3f d8 95 18 8d 38 33 c3 bf
       0.09319900923367887 -0.1500006379075518
000070 8f 26 47 57 5f 6e c2 bf fe 47 ec 09 0d 38 ca bf
       -0.14399329911821154 -0.20483553871650878
000080 f4 85 b1 f7 a4 a7 c1 bf 30 7d 35 22 46 4f c2 bf
       -0.1379286012116122 -0.14304424925192327
000090 0d 48 06 f9 37 40 b3 bf f6 1f 94 66 f7 b1 9d bf
       -0.07519864873600586 -0.02899920047369161
0000a0 e0 46 b7 c7 ce 76 ae bf e0 01 19 25 2a 98 a0 bf
       -0.05950018108309307 -0.032410923985029205
0000b0 6b 50 89 9f 97 6d b5 3f 0a 1e a6 91 7b cf c3 bf
       0.0837034954541324 -0.1547693692375421
0000c0 db 6a cd cc b0 61 ad 3f 49 41 40 32 79 8e 91 3f
       0.05738594532041016 0.01714505547721615
0000d0 87 a2 47 77 df 18 84 bf cd a3 43 55 d9 43 b6 bf
       -0.00981306631816038 -0.08697279292722655
0000e0 b9 ca e9 f9 80 e9 74 bf c8 08 9f 69 37 6e b7 bf
       -0.005105499089597281 -0.09152551964419608
0000f0 79 c2 71 3e a9 12 b3 3f cd b5 4f b3 94 20 a2 bf
       0.07450349592705575 -0.03540482224330397
000100 2f 76 01 4d f6 a7 b2 bf 18 0d 51 37 6b a2 be bf
       -0.07287539844534117 -0.11966581440451696
000110 2c 13 2e 6b 64 65 d0 bf 85 27 6b eb 06 57 ad 3f
       -0.2561884924582951 0.05730458854448187
000120 65 fa af 29 ca c0 c0 bf b2 95 af 0c ca b1 b8 bf
       -0.13088347468870434 -0.09646284875596825
000130 cf e2 ed b8 df 98 82 bf e1 06 b1 3d c0 ca b0 3f
       -0.009080646353809922 0.06559373384609614
000140 b9 d7 32 cf ac 49 5c 3f ae b8 3f eb 1e 75 b1 3f
       0.0017265498725413787 0.0681933712328113
000150 84 42 0e 3c c2 35 a1 3f 3e 33 10 d3 54 6b c9 bf
       0.03361327155210339 -0.19858799272369682
000160 24 68 70 c6 73 1b 96 bf 0b 45 e7 40 4a e7 b4 bf
       -0.021589097010384375 -0.08165420612865064
000170 ac 98 d3 ad 8d 79 37 3f 4d 97 9a 88 29 8f c3 3f
       0.0003581972976704022 0.15280646486388108
000180 cd 71 b5 2f 86 7b bc bf df f7 6d 72 30 f4 c3 bf
       -0.1112598291851505 -0.15588956439381627
000190 25 ac e9 50 ad a0 ba 3f 95 00 30 5f ff bc 9c 3f
       0.10401423669252148 0.02806471842268417
0001a0 7d e0 c9 bd d6 81 98 bf ca e0 4a a3 84 91 b0 bf
       -0.023932795842910515 -0.06472043024666899
0001b0 33 3f 0e d9 d7 d3 b9 bf 97 90 58 a1 7f dc b9 3f
       -0.10088872002802134 0.10102079094991932
0001c0 8c 61 33 a8 a9 2b 9a 3f 92 f1 2f 8c 51 7f b9 3f
       0.025557185069233365 0.0995989768270589
0001d0 17 5e 0e 6b 38 95 c9 bf 49 20 13 37 42 d4 c2 3f
       -0.19986634471273199 0.14710262002177135
0001e0 f0 cd 54 2c ca 33 95 3f b0 b9 5e 3a fd fa bc bf
       0.02070537467552741 -0.1132047908310827
0001f0 a1 53 0a 1a 89 04 6e 3f b7 91 dc 5e 29 68 b4 bf
       0.003664272095486657 -0.07971437993962281
000200 8c 59 2c 22 19 1c c0 bf 6a 76 06 93 99 59 d2 bf
       -0.12585748833289434 -0.28671874387678165
000210 b0 48 c8 c5 4c bd b5 bf 97 12 45 e5 a0 f1 9b bf
       -0.08491973713560941 -0.027288927072066285
000220 4a f2 01 b9 cc 24 c9 bf f2 c1 98 c6 97 61 a9 bf
       -0.19643553765844707 -0.04957269953991163
000230 2b 02 57 8c 67 d1 aa bf db 2f c1 24 fc 44 b2 3f
       -0.05237887943394911 0.07136512658433906
000240 db 06 d0 f0 eb 20 b5 3f e2 c5 8f d2 04 26 b1 3f
       0.08253359441007595 0.06698637142815003
000250 57 2e 64 a3 2c e5 bf 3f 69 3d 9e 0d fd 23 c8 bf
       0.12459067334219164 -0.18859828152606475
000260 86 48 57 8e 07 a8 6d bf 9e c8 58 dc 72 4f c8 bf
       -0.0036201617792608913 -0.18992458113786354
000270 52 68 0c 7e 80 ef b4 bf 92 4a fd cd 3e 1a 8c bf
       -0.08177950932841441 -0.013721933995531264
000280 b1 00 5f a5 4b bd ad bf 35 af bc b3 f5 b0 b6 3f
       -0.058084834992315655 0.08863769186126265
000290 c7 18 c2 f6 a2 4a b0 3f 0b 1d 79 22 e9 7e b6 bf
       0.06363886379594695 -0.08787400333050159
0002a0 1f af a1 3c e6 04 b6 3f f8 34 d4 96 af d4 c1 3f
       0.08601225834143776 0.1393031584233666
0002b0 ac 82 f7 9a 3a 9c c3 bf 08 b4 df b9 16 cc a5 3f
       -0.15320522848835105 0.042572698774030526
0002c0 ca 3f 5e 42 12 74 bc bf 9b df b0 01 9a b6 bd 3f
       -0.11114610786739756 0.11606752911836653
0002d0 7a c0 1e b2 23 de ba bf 28 8e a2 e3 81 7e 98 bf
       -0.10495207880626536 -0.02392008735536258
0002e0 cb 13 71 a1 cd e2 aa bf f7 b4 12 36 5f 43 c3 bf
       -0.0525116214344404 -0.15049352779661948
0002f0 ab 1a e3 2a 68 f5 c1 bf a9 87 29 bf dd 69 b9 bf
       -0.14030172437761243 -0.09927163998648204
000300 ea 7e ae b3 5d e8 c1 bf 04 0d a6 9c 83 0d b8 3f
       -0.13990374825970459 0.09395620893888085
000310 76 f5 b3 4d ab 9a a1 bf 34 d7 8e 2d ea 07 b2 bf
       -0.03438315700075638 -0.07043326961760671
000320 8d 0d b3 14 7e 03 72 3f 08 6d a0 09 f8 c0 a4 3f
       0.00439786196074311 0.0405347358466433
000330 7b b0 46 0f 06 cb 89 bf 13 7b 51 4d 60 c9 bc 3f
       -0.012594268170538428 0.11244775664952682
000340 b1 aa 5a 5b 95 c6 b8 bf d2 79 e0 36 fa 3c c5 bf
       -0.09678014259649605 -0.16592338256391642
000350 00 b8 c6 db f9 f2 b6 3f fb fa 44 07 65 6c b9 3f
       0.08964501968031868 0.09931022098042412
000360 25 8c d8 f2 55 31 8e 3f a5 3c 02 6f 6a d9 9c bf
       0.014742537950104115 -0.028173125291286145
000370 1a 5b 76 1b 34 29 c8 bf e0 05 61 a0 71 4b ae 3f
       -0.18875743237432446 0.05916934092284598
000380 f2 aa 77 6c 2a 19 ab 3f cd a3 a1 b6 66 c4 6a 3f
       0.052926374188094885 0.0032674795266314006
000390 2c c9 ad 03 33 e0 be 3f 62 44 bc dd 5f e9 a1 bf
       0.12060850944343277 -0.03498363095980818
0003a0 c0 96 c6 81 56 3f 70 3f 17 f9 7e f6 0d f4 91 bf
       0.003966653745384796 -0.017532556695862924
0003b0 6c de 40 8d 4c 5e b7 3f a3 35 3a 83 1e ab 9d 3f
       0.09128263901299655 0.028973080405696582
0003c0 ba cd 95 a6 5d 72 b1 bf da 1b 3f 90 f6 a6 be bf
       -0.06815133397122156 -0.11973515531199955
0003d0 52 73 55 8f f1 48 87 3f 84 6d e8 4f 54 32 c1 bf
       0.011369597613048708 -0.13434842969659766
0003e0 e5 71 30 9c 5e 55 cc bf 12 3a 21 5a 0c 58 96 bf
       -0.22135527254512435 -0.021820252419553716
0003f0 40 11 05 b4 5d e9 be bf 4d 0d bc aa 63 c6 b4 3f
       -0.12074838299765123 0.08115218084644944
000400 c4 f8 2a 55 d9 ed 9a bf e5 89 fe 45 eb 5c a7 3f
       -0.02629794676135401 0.04563079099104409
000410 0f 62 86 f7 7f c4 bc 3f 4d 14 23 f0 30 c5 cf bf
       0.11237335007752612 -0.24820529675904127
000420 f3 46 c3 35 40 66 bf bf 59 8c 08 bc 22 89 a6 bf
       -0.12265397369926827 -0.04401501221971022
000430 f9 db fe e3 fb d9 c5 bf c6 a1 2a 5b 78 42 af bf
       -0.17071484215350077 -0.061054001930930066
000440 b8 3d 3e f0 06 f5 ba bf f3 c0 0f a0 33 5f c7 bf
       -0.10530131688414357 -0.1825928241301039
000450 6f 5e 08 06 f9 ba b3 bf f3 78 f7 1b f5 63 97 3f
       -0.07707172772676939 0.022842244941664935
000460 d6 e2 4b bf 61 43 b7 3f 5c 36 fe ad f1 f1 c4 bf
       0.09087191505740164 -0.163633546788719
000470 d2 0c 96 ec f9 ea b8 3f 5d e7 43 1f 8b dc a0 3f
       0.09733545328167573 0.03293261295944092
000480 fe c7 fe 74 5f b8 ca bf f8 2b 58 3d 6d 2b a8 bf
       -0.208751613737661 -0.04720631955941451
000490 5e dc 2b cb 5e 22 78 bf 66 bc a7 18 30 72 b5 bf
       -0.005892153060577858 -0.08377361871656461
0004a0 58 6e 18 5d f3 46 bf bf 0d db cb fb 2f e4 4d 3f
       -0.12217637083852517 0.0009122118277379035
0004b0 05 b1 fb 8b b7 07 c7 bf 5c eb bb cf c2 b5 c3 bf
       -0.17992300353160587 -0.15398440497650767
0004c0 a7 0e 00 5c 2e 99 c2 bf 48 9c c6 74 73 52 9a bf
       -0.14529971592138688 -0.025705150606566002
0004d0 e9 da 5a a6 08 38 9d 3f a4 6a 04 bb b8 70 8c bf
       0.028534064439294324 -0.013886874396623235
0004e0 19 5c 6b 57 3b 4e 37 bf dd 9e 89 69 be 73 b5 bf
       -0.0003556151272454136 -0.08379736019707758
0004f0 3c fe 10 2d 80 cf cb bf b9 f4 56 cb 99 b8 ad 3f
       -0.2172699184466057 0.058049017020928635
000500 e7 68 34 89 53 e0 b3 3f 72 4f 66 04 10 b8 b2 bf
       0.07764169788098095 -0.07312107188618969
000510 1e 34 b5 c5 27 ca b5 3f c2 89 b7 46 08 2a c9 bf
       0.08511589600421174 -0.1965952248857104
000520 b8 92 3e 37 2f 59 a5 bf 9f 49 40 35 63 18 ad bf
       -0.04169604825373113 -0.056826687097913046
000530 51 07 51 9f cf cb b1 3f 6c d9 89 45 7d 6c a4 bf
       0.06951615943492341 -0.039890207995017274
000540 44 a4 44 e4 f7 23 c3 bf 59 f1 81 df ee bc c4 3f
       -0.149535166224526 0.16201578057724467
000550 c1 05 93 fe 09 87 c3 3f 74 27 3f a3 10 b6 c1 bf
       0.15255856447588026 -0.1383686825850493
000560 c2 f5 c9 bd 5e be bd 3f 10 f8 a0 ff 36 a5 96 3f
       0.11618606694715708 0.022114619591086238
000570 a9 f2 86 d3 75 99 ad bf 44 e1 3e ff 2c 23 c8 bf
       -0.05781143386000071 -0.18857347930112145
000580 ba b6 13 4f 5f 98 81 bf c7 52 ba 18 e5 7d 67 bf
       -0.00859140834878801 -0.0028676485579331753
000590 94 41 62 66 48 00 a5 3f cb 83 5a 21 b8 8e b1 3f
       0.04101778268625647 0.06858397306724766
0005a0 8a 1b eb 01 ba 2b b7 bf 03 91 4f 28 89 b3 7f bf
       -0.09051096484027546 -0.007739578029007046
0005b0 ba e5 97 33 be dd bf bf 77 39 ba 86 e0 b8 c2 bf
       -0.1244772792778325 -0.14626699999321222
0005c0 af 8f 5f f0 6f 8d 9f bf f0 60 67 39 6a e3 83 bf
       -0.030812977834912377 -0.00971110332186284
0005d0 3d 17 e1 18 86 71 c8 bf 69 08 52 45 d3 59 ab 3f
       -0.19096447195823343 0.05341968747326648
0005e0 45 08 9e fe 0a b8 af bf 69 34 90 94 b6 43 87 3f
       -0.06195101125833039 0.011359621437828165
0005f0 06 73 73 0f 3c d6 7e 3f 58 5b 06 83 3e 3f b2 3f
       0.007528528795970107 0.07127752970550938
000600 bf 0a 01 b4 99 dd b4 3f bb c1 28 19 ff 60 b7 bf
       0.08150635380392666 -0.09132379879225187
000610 17 4e 03 f1 57 c2 94 3f 1d 2b 02 0b 0e be b3 bf
       0.020272611699352874 -0.0771187569500111
000620 e0 d5 06 5e 00 3e c3 bf ee f2 f5 e6 2a 73 aa 3f
       -0.15032963362834462 0.051659908956002684
000630 92 a2 14 29 9a 86 97 3f ee c5 45 7e 5b 8c c3 bf
       0.022974404103623565 -0.15272086778308797
000640 99 fc 62 0a 00 ef bd bf bf 51 29 32 64 40 97 3f
       -0.11692810300427182 0.022706571160897356
000650 23 23 64 90 ba b5 b2 3f c9 55 a5 22 e5 95 92 bf
       0.07308546090292771 -0.018149929275144836
000660 25 03 2c 3c 4b cd c1 bf 76 8a 0d 63 37 da c1 bf
       -0.13907757223207642 -0.13947193466727342
000670 1f da 79 d2 eb 88 c2 bf eb 99 e3 8f 74 d2 b2 3f
       -0.14480350281856233 0.07352379334370311
000680 00 04 18 bd 8d c4 a9 3f dd 9a 75 f4 75 95 c2 bf
       0.05032771046899853 -0.14518618046277867
000690 e6 d0 2d a3 be 69 b1 3f ff e8 5e 10 7c b5 98 3f
       0.06801978572713416 0.024129808901968804
0006a0 0a b9 e0 7c b2 f5 b6 bf 30 e6 b7 ff 9d 2d a5 bf
       -0.08968654202246654 -0.041363656488055844
0006b0 0f 61 bd 9f 03 3f b7 3f 32 84 67 49 8e b7 a3 3f
       0.09080526971718349 0.0385097946743901
0006c0 66 a5 2b 19 c5 93 c4 3f 18 4c d6 50 df f7 cc bf
       0.16075957993534046 -0.22631446311115222
0006d0 ab 85 fb a2 cf eb c5 3f 41 f0 97 5c 8b 68 bb bf
       0.17125888307695666 -0.10706397066673025
0006e0 b7 31 20 f2 25 f1 b6 3f 31 b9 f0 c6 59 1a 98 bf
       0.0896171299102154 -0.02353801991210353
0006f0 6d 36 56 cb 34 3f af bf 93 a7 29 28 18 0e bc 3f
       -0.06102910024774819 0.10959006290945998
000700 c0 1e 33 86 aa 22 9e bf b2 69 2c aa a2 ec bb bf
       -0.029429115715884135 -0.1090795197928063
000710 4b 5f 4e f4 2e 11 b7 bf 96 18 7c ff 04 60 c4 bf
       -0.09010594810967835 -0.15918028330651585
000720 00 8a a8 b1 0e d7 bb 3f 94 18 62 dc 16 d1 a3 3f
       0.10875026547777367 0.03870459976410348
000730 48 f2 4d 36 d9 99 c7 bf 34 70 ed d6 80 91 b7 3f
       -0.18438258315645073 0.09206395385030036
000740 51 5e 62 ff ce a6 bf 3f 3f 27 98 b2 d0 e0 aa bf
       0.12363904700247842 -0.05249645404917524
000750 80 4b af 8f ad 0f a4 3f 25 5c ca 86 b0 0b 99 bf
       0.039182113446847744 -0.024458654620129878
000760 f7 5d 98 f5 f4 ac 94 bf d6 92 d3 4d 1e af a6 3f
       -0.02019102810853998 0.044304797172832686
000770 49 88 60 a4 4c 60 a0 3f f1 e1 8e 19 9c cc 98 bf
       0.03198470598751208 -0.024218024311013
000780 8c 20 44 55 1f b4 ba bf 35 0a 77 6a 6c 05 c3 bf
       -0.10431094962780402 -0.1486030120705252
000790 3c b2 8d d1 c8 55 bf 3f a0 36 6c 2f fd 37 95 bf
       0.12240271678974407 -0.020721393603756355
0007a0 cc 17 8f 93 76 57 b1 3f aa c5 b2 92 4d 23 a8 bf
       0.0677408323527679 -0.04714434066535074
0007b0 75 d9 1c 49 b2 4b b6 bf 15 4a b1 95 ee 38 b3 bf
       -0.08709253582933292 -0.0750874629459662
0007c0 ab 8f 37 4e 1d d5 98 bf db a3 16 0d 6e 6f be 3f
       -0.024250467204083453 0.11888778514425218
0007d0 f3 6f 3e 36 13 c7 c7 bf 65 8d 0b c6 6b df b8 3f
       -0.18576278828265877 0.09715913376890269
0007e0 23 29 c9 14 cf 0d b7 bf f5 53 bd b6 b4 b2 b6 bf
       -0.09005445725884846 -0.08866433583655449
0007f0 bd d2 a9 e9 b3 83 c0 bf 57 05 50 31 c2 65 c5 bf
       -0.12901925000519113 -0.16716792495575802
