Data/Breast Cancer Winsconsin (Diagnostic)/results/models/bcw_15.onnx (onnx, 416707 bytes, 5 tensors)

model.sequential_layers.4.Linear 4.weight f8 [1, 17]
00000000: 4503 e15b a4c2 e2bf 25da 6ae6 97bd de3f
00000010: e097 b4d6 55a7 e6bf ac25 1695 ee79 e3bf
00000020: 890d c8ef ba1b e3bf ca8c f4b9 4eb6 debf
00000030: 0a59 e739 f2b9 df3f ac9b f4e1 f37b e13f
00000040: b757 bfe5 afd8 e13f 7596 9161 86b9 e0bf
00000050: 5f2c 0a01 0c79 e1bf b505 c3b0 5dd2 e03f
00000060: da14 6400 292b dfbf a692 a398 5411 e0bf
00000070: 5010 2811 a7e7 dd3f c345 f4ec dddf e5bf
00000080: 2d78 47df 7be1 9bbf
-0.5862600130568373 0.48032186032961227 -0.7079266732659981 -0.6086342727514213 -0.5971350367766927 -0.4798771682710138 0.49572425512941776 0.54638094074186
0.5577010619406256 -0.5226470857275688 -0.5460262317950643 0.5256794407252331 -0.48700928724458736 -0.5021155339460008 0.4672639529746947 -0.6835775020610345
-0.02722734022415112

model.sequential_layers.3.Linear 3.weight f8 [16, 65]
00000000: e2a3 263e 393e c03f 580d 614a 83e4 d23f
00000010: e29d c849 c8b9 d13f ccfd 4559 a8c2 d8bf
00000020: f97c d7c2 de30 7e3f 5b39 181c 064d a1bf
00000030: d019 e2d6 9257 cb3f 6406 b201 76eb aa3f
00000040: 0344 32bf a196 a8bf 3f3d d1a0 19dd ddbf
00000050: 89ad 8a4c e8ee b2bf 74ff 46e2 790f c8bf
00000060: d3d8 843c b625 bf3f 7682 5552 6391 6e3f
00000070: 66e1 9d82 5a00 c43f c4ec 1075 a043 ac3f
00000080: 6ba0 77a8 334a 893f 1d5a 3f84 fe66 cabf
00000090: f74a faf1 c5fa c83f 096a 071c b23d d23f
000000a0: c30d 7a86 3ab5 c13f 4ddb d80a 72de c93f
000000b0: 10a1 fdb3 98a4 c1bf be2b d10e 2c31 c13f
000000c0: 4175 3924 54fa d0bf 6138 43af d543 a7bf
000000d0: 71aa b29b f1f6 bbbf 3c6b fd64 45b4 ca3f
000000e0: d257 35ac dc5d b83f 9245 d406 621f 6abf
000000f0: 19a8 2346 a938 c7bf 56db 2e3c 7a98 c53f
00000100: 1b26 aa2c 1b9f ca3f f000 b809 8efc d33f
00000110: c4bc ebd3 c481 d2bf b67f 782d c135 bfbf
00000120: be63 cb48 6a7b 943f 6820 9419 2d2c 893f
00000130: eb9f 278d 93f7 ccbf 6c12 0537 fd9a a43f
00000140: 1eb1 ce4e 0f8f c23f f92c 175c 8ccd b13f
00000150: eb9f 288a a3b1 b8bf 6fa9 645e a548 b03f
00000160: bf02 34c5 8b8b bd3f 46eb 5588 75c0 9f3f
00000170: 6ac7 c9ed 100f d7bf c369 288e 1903 d2bf
00000180: bc73 0543 f2b3 c7bf 69a9 470e a1e3 d03f
00000190: 11f3 79ef 4bff b8bf e8ad 13f9 4d49 c13f
000001a0: dfe0 1e32 92c9 b53f 6ecd 9f9a 8ddb d4bf
000001b0: fade 1897 fb7c d43f 7843 f18d c8a9 d2bf
000001c0: 8a41 64ff 9bf5 ce3f 8511 dc0d b370 9a3f
000001d0: 119a 22c3 e2c7 d23f da00 5000 b714 c43f
000001e0: 77eb f66e 66ee ce3f 6791 c945 58da b1bf
000001f0: 9169 6b1c e94e ccbf fa39 8058 8c52 cebf
00000200: 605e 054f 52f0 c43f 45b9 67da cb88 d83f
00000210: c72d d3cc 8737 c0bf 0b13 0ae7 8d45 a53f
00000220: f227 5991 0c78 cc3f 857f ce29 a56c dcbf
00000230: 4006 78ae fd42 babf 9be2 0ea3 0943 bd3f
00000240: 41aa 1f3c ae41 d6bf afee fae0 1517 e0bf
00000250: 5d3a aa70 f098 ce3f fa73 6150 eb91 583f
00000260: 5f35 9b2a 0257 c43f 8069 2657 d162 ddbf
00000270: 804c 0cda 78fd dabf f63c cdd1 3898 cabf
00000280: e492 1ca6 ee84 b13f 9cee 9421 2454 c93f
00000290: 3dc1 c02f 1c6a a53f b9c9 b2fe 7020 cbbf
000002a0: 803f d015 24f9 afbf 4fb1 9b1d 5ece cd3f
000002b0: efd0 fdfe 34bc acbf 0c46 f91e b2f7 c53f
000002c0: 7ab4 20e6 9daa c43f 9ec6 b140 c5e8 be3f
000002d0: f706 5cec ec22 babf 49f3 b7fe 29c6 cf3f
000002e0: 004e c433 e06c d63f b141 dfc7 0c5a cfbf
000002f0: afa3 9977 25c4 d9bf 6128 b078 46ed b2bf
00000300: c9da 946d 9f9d c1bf e943 5f41 f8df b4bf
00000310: 25c5 3d26 d337 d83f fa9e 1824 7e7c d33f
00000320: ecd1 8ff0 3819 d53f 35b0 29af 8cb5 b8bf
00000330: f790 4eec 3150 d4bf 9d9f e781 bce5 c6bf
00000340: 73b8 6e25 1627 ab3f f4e6 6d88 4e2f c23f
00000350: 515f 1bfd b869 9cbf dd02 cede badf c0bf
00000360: 033b d356 dcdc d4bf 9cb1 b02d 6b12 a7bf
00000370: c2bf 818e a350 c53f 8773 6fc9 9d55 a03f
00000380: 10ce c55f 40da bbbf b4fb 3d0b 57d2 ad3f
00000390: 623a 5188 f8e9 bcbf 87fe f792 b413 d33f
000003a0: d790 c835 6b38 ddbf aa9d 1e57 7249 c9bf
000003b0: 99ec 400b cffa cb3f cd86 9b07 c015 be3f
000003c0: 567e 7ef3 bb3b d13f f99d a5c3 6cc2 d6bf
000003d0: 3057 2562 da25 c9bf 7e51 48e4 59c7 cebf
000003e0: 5c13 4a72 ab10 cfbf 2b58 ae3c 0b6f 703f
000003f0: 8ba0 b017 198f c4bf 5d31 5645 58a1 583f
00000400: e236 9722 3bbf be3f 7dfd e21b 5666 d03f
00000410: 373d ae35 6035 97bf ab44 9797 75ea c0bf
00000420: aa8d fbb2 39d8 b03f 82da 1a50 b6ad b4bf
00000430: 4548 38a9 8797 b43f ca55 0da5 8b69 b13f
00000440: 5215 f7cf 040b c4bf 674b edcc a74b c23f
00000450: a576 26c5 56cd af3f cb5b 70d4 7ea4 d4bf
00000460: d117 9ebf 9db6 ba3f 3af1 9b89 275a aa3f
00000470: c0b6 adba 6aca c33f 5f24 204e 4825 bcbf
00000480: 2f7b 9c4e 6380 d13f bd6b 7df1 7d07 c1bf
00000490: 1d94 b147 c35f cabf 1464 1075 ff49 ad3f
000004a0: 3607 a142 d09c d13f 4c5e 6101 8a05 c93f
000004b0: d092 4f34 c168 89bf db7a dc98 331e b9bf
000004c0: 148d bd36 709a c2bf ba54 729f 0d7c d1bf
000004d0: c826 323c 321c bbbf c797 bbb9 8958 b53f
000004e0: d3eb 45fa 8a46 d6bf 2a17 e4d3 0765 cb3f
000004f0: a9b7 b264 802d b7bf 1207 8b46 0944 bcbf
00000500: 0e10 b43f 4cfe d0bf 7936 562d 853e c73f
00000510: f061 2271 2688 90bf 9527 a64e 783b b93f
00000520: 97af 89e2 b251 c3bf 2721 8ec7 f63f ca3f
00000530: d279 c307 8d6a dc3f 7173 3f4d f762 c6bf
00000540: daa6 e482 2b3c adbf 3e3d 73ed 6652 ac3f
00000550: 1fd1 7d7d cba3 a5bf 8df6 7f3e 3c7e bc3f
00000560: af33 5c9a 7080 a7bf 7717 3375 02a0 b63f
00000570: 87ec 8220 08d5 c4bf 1557 69b6 9129 c93f
00000580: 1f6c 2942 3197 c2bf 091b e40d 9b5d d8bf
00000590: 1701 2d60 2f0f c33f 05c3 9908 da73 a5bf
000005a0: cc1b 2da1 3f49 c43f 56e6 7a03 2643 b1bf
000005b0: 9181 68a2 c6ec b43f fda3 ce88 ad37 d3bf
000005c0: d989 f16c 75eb b93f b691 f765 c901 9d3f
000005d0: c602 70cf 0f8b 8d3f a6dd 50f0 3245 d43f
000005e0: 53b7 1db0 cd5e cbbf 3f45 fa76 191e bd3f
000005f0: 9ef1 35bf d59b bb3f 1f5c 2d0f 88a4 c33f
00000600: 552c 9e95 a8d3 57bf 22cf caf0 6494 cabf
00000610: 609b 579b da77 adbf fc98 41a5 fb4f c8bf
00000620: 2ce3 fbe0 9c5c b73f 2a5b 4333 4c2c c53f
00000630: 8695 a65d 529f d7bf 6c24 01c6 d5c0 a3bf
00000640: e0d9 4038 7067 c63f 1ce3 088b 2123 9dbf
00000650: 883f 95de dc5f b53f 6f2f 6882 c81f c33f
00000660: 0826 b4c5 1b55 cdbf 3bde 4542 b418 b8bf
00000670: 6e7e 9501 1125 97bf 5698 aba9 e1ab c43f
00000680: 071f c56d 3ac0 a13f 5034 000f 536e d03f
00000690: a416 739a 192d ca3f 3fd3 4cc8 d27d c03f
000006a0: 6db7 d18c 4db9 aebf 51ad aecd 7670 c0bf
000006b0: 520f 6880 3b7d c73f 01c8 0ed5 613f bfbf
000006c0: b32e 3930 a6a1 c4bf 48b4 c616 8f2d 883f
000006d0: c535 a964 e1d1 c33f 3dfc 7d09 7cf4 d4bf
000006e0: 9295 8a19 8256 a93f 2491 bb8c 81aa d8bf
000006f0: 29ca 889f 686a ba3f 3808 e794 3b5e c23f
00000700: da1d d2d2 cdb3 bd3f da16 0bf1 632d cebf
00000710: 131a fc92 8893 543f 6253 5aa5 1a3a c13f
00000720: b053 48f7 16a5 cb3f 1a47 7875 a31c cfbf
00000730: 547f 0230 f1f3 c13f cad4 42b0 054d c33f
00000740: 62ef c12b 753d c43f 22fe 30e2 c655 78bf
00000750: ec8c bc8f f286 c8bf f3b5 ed7f 4930 a53f
00000760: 466c 58d7 0b5e d13f 4194 6ef5 0dfb c4bf
00000770: 54f9 011e 9523 963f c8e1 ac75 4b8a a7bf
00000780: 76c6 24b4 324b bd3f 8ffb c6ce a2fd d1bf
00000790: 9918 0e42 ecf7 dabf afdd 01b2 42b4 c1bf
000007a0: 9e00 22a4 b43c be3f 16a5 be0d db61 b93f
000007b0: 778a 727e 27a2 b4bf 69f7 1710 ecc3 bc3f
000007c0: 913a 68f4 b9de 713f 7803 f645 b2e7 c23f
000007d0: 35de 0376 dc49 b7bf ad3e dc5d 8e99 d0bf
000007e0: 98e4 7551 50c0 bc3f 54e2 9db2 5b00 903f
000007f0: 379f 1af0 7838 a5bf bb55 86a8 c383 d13f
0.12689891371454026 0.2951973177298064 0.27696425633845767 -0.3868809577761254 0.007370824966954397 -0.03379077046348541 0.2136100339159399 0.0525776745862572
-0.04802422961177657 -0.4666198797685474 -0.0739579378957186 -0.18797229336450594 0.12166918733132386 0.0037314357638680807 0.1562607896592098 0.05520345143346497
0.012348559931482058 -0.20626813371082245 0.19515299144094175 0.28501560914233487 0.13834315840004593 0.2021009972538316 -0.13783558643923088 0.13431311343660285
-0.2652788499597883 -0.04543941273151187 -0.10923681308001122 0.208626436530574 0.09518222050004901 -0.0031887926658177934 -0.18141666340608323 0.16871574343323442
0.20798053437128847 0.312289723864537 -0.2891704625644247 -0.1219139801037262 0.020002041523955454 0.012291290610406416 -0.22630543129275735 0.04024497315052575
0.14499083850876898 0.06954266784957842 -0.09646055338873764 0.06360848955651986 0.11541055264025156 0.03100761074663729 -0.3602945634985334 -0.28143919832805525
-0.18517902634166983 0.26389337915920535 -0.09764551731673189 0.13504957830387743 0.08510698054931563 -0.3259004602434378 0.32012834315854344 -0.291612757316265
0.24187040300649826 0.02582053920834106 0.2934500604264097 0.156882167008013 0.24165039461317026 -0.06973792747300465 -0.22115816009211334 -0.23689417191822298
0.16358403070875038 0.38334938362722354 -0.126694655429999 0.04154628224663356 0.22241360756953515 -0.4441311748760131 -0.10258470067494674 0.11430416327392338
-0.34775882598356495 -0.5028180498261089 0.23904233456819926 0.0014996335971979567 0.15890528755555075 -0.45915635596033866 -0.42172070783380633 -0.20777044529174987
0.0684346347375811 0.19788028373465216 0.04182518084451423 -0.2119275325436101 -0.06244766966130921 0.23286034055434832 -0.056123405577553125 0.17162157547367973
0.16145681130129558 0.12073929624036814 -0.10209542055602215 0.24823498666219226 0.35039525084832235 -0.24493560561542219 -0.40259682349875 -0.07393303343283854
-0.13762276507050888 -0.0815425071334769 0.37840727552891656 0.30447343373315017 0.32966445438731173 -0.09652022625385899 -0.317394715088326 -0.17888599722868728
0.05303258139552804 0.1420686880263059 -0.02774704975931225 -0.1318276966012694 -0.3259802673245959 -0.0450623982690985 0.16652340372411173 0.03190320094993298
-0.10879900301170431 0.05824539196236547 -0.11294511154231082 0.298077720188282 -0.4565685296277144 -0.19755391363035574 0.21859157609455762 0.11751938043337447
0.2692708852646083 -0.35561675172945645 -0.19646768371847534 -0.2404587139759648 -0.2426962192586427 0.004012149710339623 -0.16061700493560624 0.0015033113498673291
0.12010545343874982 0.25624611590679774 -0.022664550091176152 -0.13215513135813714 0.06579933757489323 -0.08077563720403627 0.08043716317504941 0.0680167463263707
-0.15658626703786155 0.14293382173726885 0.062113486829941146 -0.3225400042151107 0.10434900215304245 0.051469073818199054 0.1546147738949255 -0.10994388491975958
0.2734611766517671 -0.1330411366605783 -0.20604744911830233 0.0572051840210365 0.2751961374925601 0.1954815394153563 -0.012406834992313348 -0.09811708909954169
-0.14533808396218062 -0.2731966073127513 -0.1058989903414399 0.08338223251811804 -0.34805559578643147 0.21402070852507765 -0.09053804834795066 -0.11041315052264292
-0.26552110882789826 0.18159546579083832 -0.01614437165753374 0.0985636894239675 -0.15093074857156516 0.20507702583223272 0.4440033508125484 -0.17489520332210476
-0.05709968540970829 0.05531617783128205 -0.04226528078916857 0.11130119825244318 -0.04590179332999555 0.08837905274694245 -0.16275121295425185 0.1965810909920768
-0.14523902636105476 -0.3807132373480476 0.14890091129382974 -0.04189950327861961 0.158485368441886 -0.06743085465395757 0.08173791375202756 -0.30027330741955877
0.10124906453851369 0.028327128265930056 0.014425395505896953 0.3167235705218111 -0.21383067225854777 0.11374053148963002 0.10784660261373921 0.1534586023433073
-0.0014542719204395833 -0.20765363461907166 -0.05755503793971317 -0.18994088715698598 0.09125690930148939 0.16541435721475156 -0.3690992273862651 -0.038580589695421746
0.1750316881823002 -0.028454326735501842 0.0834939998069314 0.14940744750526444 -0.2291598048544048 -0.09412695520392671 -0.02260233471076705 0.16149540695841108
0.03466971006360891 0.25673366990014745 0.20450134316904667 0.12883982448843231 -0.060007499160618184 -0.12843213122446653 0.18350929040763703 -0.1220608849678513
-0.16118314127594643 0.011805646784376247 0.15484254279219392 -0.32742215086904364 0.04948813020500177 -0.38540686362672916 0.10318616766816348 0.14350075502994897
0.11602484127990156 -0.23576020497983202 0.001255877850725566 0.13458569597119224 0.21597563814489495 -0.24306147800285133 0.14025702327944123 0.15078803164002458
0.15812554012870367 -0.005941178215891381 -0.1916182710493567 0.0413840263998785 0.27136512784790445 -0.1639115761182968 0.021620111423993407 -0.04597698031870184
0.11442868135488901 -0.2811057109174095 -0.42138201189698915 -0.13831361476671364 0.11811379439496014 0.09914940915645717 -0.08059927785010666 0.11236453431044215
0.004362799058539439 0.1476958123785399 -0.09097078210094696 -0.2593723217587279 0.11230947483808718 0.01562636640253097 -0.041446475324220015 0.2736672540425748

model.sequential_layers.2.Linear 2.weight f8 [64, 129]
00000000: f55c d2f0 38e4 c4bf fae9 5a4a d1f7 c53f
00000010: 9fdb ccaa 74ea ac3f a658 5270 f495 cabf
00000020: 9af1 bd24 0fa1 873f d19a 00ba 5700 c3bf
00000030: 1bb4 e404 0942 c23f 4963 20f0 577a bfbf
00000040: f283 9080 63a9 9a3f fa26 b7a9 e766 b9bf
00000050: 7357 c4db 2ee2 963f b930 6b99 b187 c9bf
00000060: 8d1c 35c5 3017 b73f 2ff6 ae36 5fc4 983f
00000070: d0b3 c44d 9dd7 b03f 1c8a b4c2 8ef4 ba3f
00000080: 60cf 111d 5a8f af3f 7da7 149e 7534 bd3f
00000090: 1b80 b8be 9b01 c83f 435a 70ea 1779 bdbf
000000a0: c45e 2bca 79ac c0bf 78b3 9cba 2a53 a63f
000000b0: 4671 ff4d 4706 bc3f 9786 c966 408a 993f
000000c0: 4513 af5a 7f40 90bf c45c 42de e893 cfbf
000000d0: 4e77 4a38 50b7 99bf 1e71 70f3 7192 c43f
000000e0: c624 798b f003 d3bf 187c 1d8b 8f2d adbf
000000f0: 4739 0f89 2a50 c03f de5a 5a00 3256 bebf
00000100: 4102 ca9f 6e49 cebf d1e0 8691 48de 82bf
00000110: 8f44 7998 d4cf a83f 034e 389d 9fb5 c6bf
00000120: 4670 359f fb7f bebf b7ad 1f5b 1faa babf
00000130: 311d 9ecd 049c c3bf b7d5 010c 1ff1 9cbf
00000140: d3d9 52b9 1070 afbf 2694 2f94 94a5 bbbf
00000150: e267 2851 bedf bebf b0e9 763b cef0 b8bf
00000160: 4ce5 6acd 45cf 91bf 1dea df84 1e8e be3f
00000170: c807 7c2d 3d63 a9bf 6321 ed60 c9fc b83f
00000180: 38c9 70a4 2807 c9bf ca18 8c76 1102 acbf
00000190: 4c62 dbce f457 bc3f 9a19 f7cc 7b97 babf
000001a0: d44b a21b 6a16 a43f 3460 726a 9360 cc3f
000001b0: 1f25 beaa ff88 a4bf ddcd fcbd 6741 8a3f
000001c0: 00cc 4fb8 244b b23f d50c f546 3aa3 bc3f
000001d0: 1d20 227c 4622 a4bf 62a9 0917 080d c83f
000001e0: 9758 767c 24d1 a63f 7b08 ba15 9810 c8bf
000001f0: 0c67 cf89 1929 cf3f 1bd5 d1e6 59a9 b93f
00000200: d1fd d9da 1705 bc3f 243c 9d24 9ee4 ac3f
00000210: edbe 31f5 f0a6 cb3f 6275 99bc a4bb 9abf
00000220: f767 ff1f 3381 c1bf 2f54 74ed 6c5b a53f
00000230: 3512 65b2 7571 c0bf 2451 323d eab2 be3f
00000240: 5407 6ac2 66eb 92bf 5b0a 6c1c be36 a23f
00000250: 6f03 628a de5d c9bf abf5 d88e cf48 c7bf
00000260: 51da 8309 5f21 9abf 289e ea6d d5eb ba3f
00000270: c1a4 512a 3cd9 bb3f 2c5e be15 8b27 d1bf
00000280: e41d d3e3 9c0e b5bf 81f5 c50a a3a4 aa3f
00000290: c7f9 4675 2e26 c43f 918e bf4b 99a5 b63f
000002a0: 04fd 4773 d530 aa3f 65f5 5b62 371d a43f
000002b0: 0939 e93e aced c93f 8e02 1dde 39e4 b4bf
000002c0: 5ea0 0648 2118 c1bf 3980 df15 d85b b33f
000002d0: 1c5e 7800 d4c8 b5bf 3a0a 28a1 e804 a93f
000002e0: 9b04 0566 aec4 a5bf c013 a0b9 b5c0 bf3f
000002f0: a999 ed5f d0fe c73f d6c3 f806 ce1f c1bf
00000300: c02c 70da be51 c7bf 7b19 d272 4820 c03f
00000310: 71d8 322d 43da c9bf ec2a 8244 8a31 8c3f
00000320: 23e5 d23a 0500 b33f 88c4 f662 e457 c53f
00000330: 2584 a4b3 9c66 b73f 28c1 3583 515e c43f
00000340: 2d4f d3d1 1411 c63f 87ef 6b90 a7a0 aabf
00000350: f986 c43b 61cc 8fbf c582 21fa 0949 d9bf
00000360: 78b2 f790 e9ba bfbf 4dbb 1a0b e49f a43f
00000370: 8f4d a7f7 76f7 b43f e787 614e 0900 c83f
00000380: 237f a6aa ce45 abbf d684 701a 4310 b3bf
00000390: 228f 0e49 31d1 9b3f b3fe 31bf 74f6 b13f
000003a0: 78ed 5615 54a6 c43f 75f7 ffff cd97 aabf
000003b0: b126 0034 4f49 ca3f 8f92 12f4 7316 c6bf
000003c0: e6b1 19ad d68f c5bf ae48 bfea 7a3f bebf
000003d0: 8840 5998 6ae0 bb3f a31b e914 b18a c5bf
000003e0: 9e8b 1de1 d8a6 b9bf b7a4 f8de aa02 a0bf
000003f0: 0654 35e9 c0d4 c1bf 99b0 04fc 5d14 af3f
00000400: 8dbd 3acd ef54 b63f c3e8 8d0a 63b5 873f
00000410: 208e 696f 5c4d c1bf 082d b21d b752 b1bf
00000420: 1b0e 5917 8f96 a03f 66b9 2764 3d9c a1bf
00000430: 6cde 2913 bb71 8f3f b8d6 2e16 43cf c2bf
00000440: 9152 bfdc f01f c8bf c091 4218 a444 bb3f
00000450: eaae 5e6c fe49 6cbf 4dea 9b6f 4a67 bdbf
00000460: 0ea3 5ba5 e19b cabf 29aa d452 3504 c03f
00000470: 9764 d793 db32 c6bf d11d da99 17e6 b03f
00000480: 40e4 59ff 5c41 be3f e3bc 1564 7eec c6bf
00000490: 6266 dd51 d933 c03f c805 141c cce9 b83f
000004a0: 53f6 2def 34cc d0bf 26fc dfa5 f0a0 c73f
000004b0: 1ebc d147 3fd8 d6bf 1f3b 0178 1bab cebf
000004c0: 42e4 e3ce 0248 cbbf fee7 da2d fd95 d8bf
000004d0: c26e bb72 c627 be3f 415a d6ea 7bac cc3f
000004e0: 6a8c 73a3 858e a13f 8d5a 1aed af2e c9bf
000004f0: eace db65 cfa8 c1bf a5b8 502f 0f66 b4bf
00000500: f692 7cb6 b4cc b63f 06b0 58b0 654e b53f
00000510: b770 0d51 96c3 93bf 18c4 e838 3bc3 c93f
00000520: 981e b472 8022 bcbf d2ae 87b4 9920 d2bf
00000530: c52e 5c0e b91b cd3f 90e8 e375 16bd 9c3f
00000540: e2a6 67d7 78b3 c93f eb49 2abd 75c2 9d3f
00000550: ac79 92cb dec9 aebf 18c6 be82 b305 c03f
00000560: e304 b5a6 50bb 903f c73f 49ba 88cc cabf
00000570: 916d 8e7d de97 ba3f 5378 afa1 0da2 2fbf
00000580: e001 8bd8 d109 993f 82a6 d97c 2282 c6bf
00000590: df04 68b5 11d9 ca3f 89a0 cebe dd05 b8bf
000005a0: 4c94 49d3 9aed c13f 9c22 e54c 66ac b3bf
000005b0: 0b41 5d07 7631 c8bf 9d6e 0f0d 3ffd c5bf
000005c0: 5f43 8764 297b 973f f34b 3695 3af8 c13f
000005d0: 8111 3e8c 1e96 8c3f 3aa6 a809 ddb6 c73f
000005e0: 0176 97b5 5653 a7bf 504c 7b5a 0d96 b7bf
000005f0: 1f8e f3ad 9d56 c0bf 5856 b026 e607 c13f
00000600: 4917 64c0 c613 973f 43a6 c15b 6551 9d3f
00000610: 8a53 4257 6e91 c23f ea35 4d30 554e b4bf
00000620: 20b7 2c1a 0974 98bf a63d 9ceb 1637 b6bf
00000630: 0e8b 88d0 7f79 a03f d630 bbe0 99fb c2bf
00000640: 99c8 cb78 50ea c73f 109b a400 0fcc b93f
00000650: 1098 bb38 b4a6 c03f 9bc0 52d0 0823 c3bf
00000660: 73e5 6419 ab79 bc3f a934 c08e 6291 c1bf
00000670: cc1c b24d 9f18 c63f ca1e 951d 8fb5 b8bf
00000680: c5a5 799b 986e cb3f d8ff ac00 e7d0 81bf
00000690: 60c8 de04 162a c0bf e8cc 41b6 e225 c3bf
000006a0: 5224 cc5f cf89 c9bf 070d d514 146a b93f
000006b0: ccf4 8680 e69a c83f f41b 5e75 8098 c13f
000006c0: fcb1 deab a87c c9bf 374a 4271 23d1 bebf
000006d0: cfb8 dc67 cc91 be3f 5ba3 4cb4 1304 ba3f
000006e0: 222b a099 0227 c5bf 42d1 0da4 531f bc3f
000006f0: 9484 87dc 760c b4bf 5e81 9bd4 1e40 cbbf
00000700: 4a41 69e0 8104 d0bf 4990 0a30 da56 91bf
00000710: 7f21 b091 4737 ccbf da03 5070 f6a6 c23f
00000720: a828 3451 9104 c0bf 73ff 2b82 4c83 c63f
00000730: 36a1 8fa9 6c11 bdbf 32dc b363 767a a93f
00000740: 2f8c 6819 86b2 d1bf e74c 1a4b a7d5 acbf
00000750: 1bd4 6157 694c bfbf 4f3e b2d2 2c9f c3bf
00000760: fe66 48e1 8666 9fbf f0c8 d6aa 1f0d d5bf
00000770: 942e 5a72 d734 b2bf df38 6d08 6bbd c6bf
00000780: 79a1 93f1 533d c53f 74ce 7820 1290 d3bf
00000790: 2801 4205 3fa4 6c3f 934a c8cd b896 b3bf
000007a0: 6da5 d9fb a089 9abf 1a02 23c1 deb3 b53f
000007b0: 5d29 eba0 1081 c5bf 2c8e 6625 133b a5bf
000007c0: 0703 f984 e1af cebf 782d ef7f 18fd ba3f
000007d0: 5096 ff67 6b54 b93f 577f 4250 3763 a1bf
000007e0: 7eec 12dd 8bd2 b13f e715 66cd b2bd cbbf
000007f0: a2ec 8255 cadd 633f 87c7 d046 07f8 b83f
-0.16321479567407207 0.17162529116269792 0.05647625527347277 -0.20770125851112659 0.011537664707923768 -0.1484479578222904 0.14264023531851042 -0.1229605637785315
0.026036791536288413 -0.0992264546722729 0.022347194827566818 -0.1994535445322805 0.09019760908732817 0.02418659945737128 0.06579001568452658 0.10529415372415268
0.06164056401112705 0.11408171758071535 0.18754908382925425 -0.11512898896794703 -0.13026354190400558 0.04360326316814328 0.10947080282443719 0.024941450379975718
-0.01587103835096861 -0.246701344037069 -0.02511334746906551 0.1607191504161926 -0.29711545582229026 -0.05698822568114553 0.12744647686344932 -0.11850273617379112
-0.23661597063257214 -0.009213034573676645 0.04846062051059007 -0.1774177091289034 -0.11914036404545056 -0.1041583631010131 -0.15319881477282984 -0.028263554675921756
-0.06140186559916896 -0.1079953061849471 -0.12060155373947581 -0.0974244017769823 -0.017392244970982504 0.11935606712351228 -0.049585258295351375 0.0976072179447605
-0.1955309679920647 -0.05470327922925973 0.11071710634440385 -0.10387395624193232 0.039233508942878054 0.22169726083370878 -0.04010771712553151 0.012820063100298757
0.07145909786031268 0.11186565620760132 -0.039324000027648 0.18789769291772546 0.04456438082995467 -0.18800641117929104 0.24344176510822313 0.10024034390683705
0.10945271580748474 0.05643171498251601 0.21603214237574467 -0.026106428157040347 -0.136755362151973 0.04171314619649313 -0.12846251688655888 0.11991752618843471
-0.018476110092257983 0.03557390305470128 -0.19817716366744828 -0.1819095084664871 -0.025517926173927844 0.10516103681094846 0.10878349335839045 -0.2680385315265734
-0.08225422441602565 0.05203732973584874 0.15741520620754398 0.0884643373424814 0.0511538222526671 0.03928540301965703 0.20256569930865734 -0.08160745308578951
-0.13354888932122128 0.07562017950067536 -0.08509564410666609 0.04886557547799382 -0.0425161838088652 0.12403426915996274 0.18746380504599117 -0.13378310528199105
-0.18218217531134506 0.12598519903640323 -0.2019733401008952 0.013766365256989009 0.07421906171920915 0.16674475509856657 0.09140948663527178 0.15912836939561115
0.1723962807214944 -0.05200694692572854 -0.015526542316880209 -0.3950829451260172 -0.12394580640074959 0.04028236995269783 0.08190101190785114 0.18750110938259398
-0.053266962367386726 -0.07446689029213202 0.02716519363788373 0.070166870764292 0.1613259414860797 -0.05193942785261544 0.20536222495166137 -0.1725602094421856
-0.16845210506598035 -0.11815613013394241 0.10889307231377832 -0.16829503556274714 -0.10020213600141267 -0.03127035114113979 -0.13930522334217715 0.060702263845400846
0.08723353157505738 0.011576436767189674 -0.1351733726506703 -0.0676683852672576 0.03239867362983891 -0.03439514014813731 0.015353642961812151 -0.1469501360240224
-0.18847475794486404 0.10651612846647307 -0.003453251762911215 -0.1148573420031564 -0.20788212370032294 0.12512842697590656 -0.1734270545846683 0.06601092821266909
0.1181848643699519 -0.17909221541365303 0.12658230302149592 0.09731746373656514 -0.26246379239441814 0.18459899997103085 -0.3569486810073971 -0.23959678039178642
-0.21313510038433675 -0.38415460088765474 0.1177944212062654 0.224013795534761 0.03429048176055789 -0.1967372806290836 -0.13796417687955592 -0.07968230157050245
0.08906106429328617 0.08322749667485149 -0.019300793358852455 0.20127048758288946 -0.10990145492916736 -0.28323977117427745 0.22740853501487926 0.028065062470866098
0.20078955190483955 0.02906211821625419 -0.060133898115270895 0.12517398723643747 0.01633955018519807 -0.20936688514711774 0.1038798386129456 -0.00024134079362076125
0.024451521722541503 -0.17584639640999816 0.20974942548494988 -0.0938395109975564 0.14006362263458738 -0.07684935929604325 -0.18900943145354918 -0.17179096353253423
0.022930762062802198 0.14038784299609083 0.013958204893932404 0.18526804896946364 -0.04555769888586881 -0.09213336428665397 -0.12764330857963643 0.13305355919935624
0.0225363783765922 0.028630813336724136 0.14506320248315446 -0.07932026318777444 -0.023880140516829518 -0.08677809955792401 0.03217696590970408 -0.14830325577930265
0.18683820627444872 0.10076993718812965 0.13008740205913272 -0.14950666591676484 0.11123151178334982 -0.1372492978120239 0.17262641233194242 -0.09652037117222814
0.21431262580453683 -0.008699230869410643 -0.12628436315350466 -0.14959367656010802 -0.19951812913521622 0.09927487858390203 0.19222718501797542 0.13746648531761674
-0.19911678688130496 -0.12037869944678269 0.11941220794389838 0.10162470962371854 -0.16525299550297584 0.10985300784324628 -0.0783151901628279 -0.212894300281742
-0.2502751056208764 -0.01693287771435362 -0.2204369984976999 0.1457202957535902 -0.12513939347292546 0.17588192325637983 -0.1135471261947075 0.04976243941376203
-0.2765212295655059 -0.05631754676610417 -0.12225969680169195 -0.1532951382437084 -0.03066454648987981 -0.3289260071134228 -0.07111879865459009 -0.17765558158357117
0.16593407912956673 -0.30566838427623755 0.0034962874288454633 -0.0765185835264595 -0.025915637370791545 0.08477585044148164 -0.1680012498603202 -0.0414663298754728
-0.23974246018226372 0.10542443393130962 0.09894439019225243 -0.033960083529790346 0.06961893222153212 -0.21672663716542148 0.0024250938259605262 0.09753461340804224

model.sequential_layers.1.Linear 1.weight f8 [128, 257]
00000000: 3b5b 07b3 8ec4 cdbf 731a 9673 675e c43f
00000010: f357 5bc2 3fee b4bf 3256 6755 1cb8 cdbf
00000020: d5a0 a017 1426 953f 9224 fc17 251f a03f
00000030: 8561 6e86 953c bfbf 78d4 c424 9a14 cb3f
00000040: a12d 4db1 91f5 c4bf db39 7290 cb50 bcbf
00000050: 2b5e ddcd feb9 b23f 8fc2 b6b5 f0d1 bebf
00000060: d4fc 5008 1c97 bcbf bd1c 3405 f88d bdbf
00000070: 2cb1 51eb 3fe4 b0bf a3e2 fa3b b5b5 b3bf
00000080: d549 4766 3e74 aa3f f172 a8d5 c0e7 b7bf
00000090: a329 bbb9 8b9e abbf 158e 107e ea17 c3bf
000000a0: 1908 8814 f648 adbf 96f8 af66 43e0 843f
000000b0: 222e 203c 7bc7 cc3f 21aa 1aca 7b9c bb3f
000000c0: d77f 2b1d 7f0a a2bf 71b5 f02c 8dc3 bbbf
000000d0: 66ca f2f3 9027 b4bf 9a16 99a6 2196 a9bf
000000e0: ab50 492a 0883 b5bf f9c2 cbc9 30b9 a4bf
000000f0: 7b8c f8c7 2f3e c4bf 168d 6c23 6ef2 ba3f
00000100: 9b52 789b 104b 9cbf 64b2 13c9 dcfe b8bf
00000110: 7c6d 306f 531a a7bf 6665 0e3e 6abc a8bf
00000120: 8532 a35d 06fb c0bf e8a5 ac47 04e2 bfbf
00000130: 4c78 9029 e7d9 afbf 86fa 87b6 4260 a8bf
00000140: cb0a e631 0e27 b0bf 6e7a 5541 cb46 a7bf
00000150: 10df 1225 f5c6 b4bf 6bf2 10bc 2682 b4bf
00000160: 6644 641c 2c5e c6bf 611a eaa1 41d9 b53f
00000170: 3d4c 1685 851e ac3f dada 0d1d cc4b ad3f
00000180: 040d f4f2 b610 b33f 1385 7e92 7dd0 a8bf
00000190: 2b8f 324e 3c5e 98bf 23ae bfbb 5fc7 c0bf
000001a0: 7278 4768 f826 b53f 6a71 dc72 daff a63f
000001b0: df9c 520c 2212 bc3f 1dad 3f8d b0f8 cabf
000001c0: 9c8f 7224 38e8 9ebf a56a 182d c2bb c33f
000001d0: 1752 801e b8f6 6f3f 603b ea60 c122 b7bf
000001e0: e296 b582 a210 853f 066c c3bd 1cba a73f
000001f0: baea 7354 ab05 b83f 32b2 bc37 2e17 c0bf
00000200: 43e7 bde3 f747 c7bf fdf4 5fed 8c58 88bf
00000210: d8fa 945b 1a0f b7bf 0d6d f787 c0c0 c7bf
00000220: 23c5 4737 f7e5 90bf 727d 4d82 57d0 c2bf
00000230: bb3c 7e83 f117 c0bf 1648 8849 cf28 b6bf
00000240: d68d e2c5 3de5 b4bf ffed e2a6 9738 b7bf
00000250: 7683 b0a0 347b babf 48c0 1fd3 8dd1 b9bf
00000260: 7c6b 9d00 0189 c3bf aaa0 8124 48e9 c4bf
00000270: 886b 0f6e a4ac 7c3f 97ff 89b5 34ea c5bf
00000280: bd68 fd84 6efc 8fbf 9bee 88f5 b2dd a63f
00000290: 04c3 30bf bc48 a93f b7f6 04c5 24b9 adbf
000002a0: eb13 dfc3 e56c c7bf f407 79dd 2b5f bfbf
000002b0: 0391 ddfc a050 abbf 90bb 8f29 f702 c63f
000002c0: 4a5d d75d 7b6e be3f 47ae 2106 89de 973f
000002d0: d4f3 1915 d77e c1bf c9b2 6761 7160 ae3f
000002e0: 8f76 a2d0 2bf0 b33f a855 d7fe ca92 b9bf
000002f0: 2c4f b935 6d2f b8bf 85d5 f52e 8f6a 8c3f
00000300: 531f 3429 0cd0 98bf c9aa c13e a871 b0bf
00000310: fa88 5007 bf75 b2bf 9e31 8515 3f28 bdbf
00000320: 4dba 5266 58b8 b2bf aaaa b9be dd4d 96bf
00000330: c13c 2994 fc71 c1bf da5f 9e77 180d c2bf
00000340: 6c75 6f23 5b60 bbbf 1e8e 060b eb36 973f
00000350: 420f d1ac 6d2c c3bf 7863 e1f5 84da a53f
00000360: 4bb5 5fbf 406d b5bf 9e1f f4b7 6ebc b7bf
00000370: 87cf 869c b017 b93f 8668 bfb0 7ee0 c23f
00000380: c240 4e0d 6d85 a2bf 817e 31f9 c70c afbf
00000390: 53ac 1508 5f4b 693f 06f2 cbf4 721c a33f
000003a0: 59ed 2bb9 5f47 9d3f eed2 f1c4 e5fc adbf
000003b0: 0625 2c03 622e a83f ac63 5a98 cd07 9ebf
000003c0: 07b7 a386 732b cbbf 450e cfb0 a784 a3bf
000003d0: b49a 34e9 dae3 bc3f ba8e 10ef eec5 693f
000003e0: 7d29 de12 3b4f a73f dc59 5afa 7c9a a73f
000003f0: 2bdf 3d0e 3733 bd3f e125 8057 8a16 b33f
00000400: 4f19 c7db 6df8 c2bf b8f3 fbd1 06bb 643f
00000410: ca20 5f65 b0e8 b5bf 179d abbd 9236 b33f
00000420: 7d8c b44f 0a17 ba3f 7857 73ed 1776 b2bf
00000430: e6a5 9b2c 723f 9a3f 050d 3cdf 5754 8a3f
00000440: 3691 60e2 18aa 933f 6fe3 0c21 6e6b b0bf
00000450: e76e 2c3e 42c6 ccbf 1fb4 426c f9ac 96bf
00000460: 48a0 e9f1 9400 913f 6c93 ef93 0b42 cfbf
00000470: e00e 01de dda8 b1bf c12d 6d06 bc62 adbf
00000480: 4d40 462f 6da2 62bf fd81 7825 aef2 903f
00000490: 2009 6979 fb99 c13f fe21 82de b154 923f
000004a0: 5ca4 e034 6c82 ccbf e10f 460e a3a4 b1bf
000004b0: de8b a8ce 16e1 7b3f c5f2 1469 a011 babf
000004c0: 1f14 5319 822d aa3f 5319 9496 11c0 b2bf
000004d0: 6c38 a752 7d11 c8bf da82 434a 79fc a43f
000004e0: f4a9 017f 6056 b53f 8b7a 59a1 515c c1bf
000004f0: 0068 ba84 ced9 ac3f 483f ad7c 4372 a43f
00000500: 4dd2 eb73 ff67 c3bf c9d0 a23c 20d4 abbf
00000510: e107 0395 07e5 9c3f 4a8a dc94 3560 a6bf
00000520: a833 1622 6fdc cabf fc1f 49dd af02 a0bf
00000530: f297 172a 87c7 9ebf 54f2 0eee a9a1 9dbf
00000540: df15 cff3 febb c6bf eaf1 7eb7 ceed c6bf
00000550: a704 6898 f37d b03f a756 b937 09f7 b3bf
00000560: 1210 2124 23af a3bf 8c9d 400e a35d b0bf
00000570: 6e30 0ce3 ff37 b6bf 7a38 9f67 1009 64bf
00000580: d9ed 78bc d4c9 cbbf c75c 3531 dc3c bdbf
00000590: 033e 3ddf 804e c0bf 0b02 5381 8199 c1bf
000005a0: a82f b4b2 177b a53f 3426 0aec 2d60 b6bf
000005b0: 08dc eecd 4a05 c9bf 1be7 a572 5ef4 c2bf
000005c0: 1230 2135 26e3 c2bf 9325 b73e a597 a1bf
000005d0: ac01 fd0f 76d5 c7bf 719c d4e5 b77f cfbf
000005e0: ef20 8f9c 702a 73bf 1169 e227 f657 b0bf
000005f0: f1a2 2eec 8ce1 c4bf 6c46 70af 1ae9 afbf
00000600: 1579 9da6 2a81 bfbf 0c63 e18d 9628 c3bf
00000610: fc59 0ffd 03cc b53f 72a1 f24c d0ba c7bf
00000620: 7f2d cdab 21f6 c3bf 23bb b135 0eed c5bf
00000630: bbe9 2e83 30b1 c8bf d165 7f46 4b40 bcbf
00000640: 0ef4 808f 33ff bdbf 9c9a 4ac1 952b 95bf
00000650: 426b 9cd1 0d8a c1bf 3f90 e47b 476a 89bf
00000660: 5154 45ad dd87 973f c5ad 556d 648d c7bf
00000670: ca65 2058 9b96 bfbf ee73 3bbd 5386 bbbf
00000680: 7961 b259 6949 c3bf 46bf 4b6e c6aa cabf
00000690: f86a b197 3c34 b7bf 4197 3afa fd39 cabf
000006a0: 45b5 61e4 63ae c6bf 0ba8 6e66 254a b43f
000006b0: d97a 73a3 6aeb cfbf 229a fef0 323f b33f
000006c0: e7da 5308 4c37 7b3f 5e46 b089 6025 a13f
000006d0: 3471 5eff 1691 cdbf 15d3 54b6 07f9 75bf
000006e0: 9f86 e41a b3cb c7bf 0bce b2b2 8679 9b3f
000006f0: b9a9 0af4 6c58 b5bf 9765 0ee8 349e b83f
00000700: e322 4171 c09b abbf 86cc ea8e 6383 ccbf
00000710: bdc2 3ee6 73f1 af3f ec97 e239 a1f3 a93f
00000720: 21e7 ebc7 d46f 89bf e0ee ec49 e350 c8bf
00000730: b6ba 80be 6c0e bbbf eae2 64ff 590a a6bf
00000740: 6888 b044 7357 c53f 1322 a7dc 7438 96bf
00000750: 229a 932f ca24 c4bf f00f 0e96 78a3 a63f
00000760: 1151 b3aa ac89 b5bf 5c36 876a ce17 9dbf
00000770: f1e6 6f50 eced b7bf 4e75 92af fae1 bcbf
00000780: 8d84 a93b f8b4 c0bf 489f a612 ce48 b3bf
00000790: afcc a3f0 3dbb a33f a609 12e9 283e aabf
000007a0: dd77 eb38 6a4b a73f 9afc 7e7d be62 ab3f
000007b0: 75c1 5835 9ae5 cdbf c8bc 4a8b d043 cabf
000007c0: 0300 36ac 530e b73f 2ff0 a207 4a78 cbbf
000007d0: a4af 0b76 a40e bdbf bc35 6e7c 63de acbf
000007e0: 108b a0d1 823d 9e3f 685a 142c 2056 cabf
000007f0: 8e69 2c77 ee8d cdbf b850 6bb9 05b2 b8bf
-0.2325609563983678 0.15913098472465811 -0.0817603921417172 -0.2321811120042852 0.020653070394616464 0.03148761670861079 -0.12201818973551866 0.21156622691492877
-0.1637441745500441 -0.11060783649939003 0.07315056348795028 -0.12039093433737434 -0.11168074801479416 -0.11544752242126584 -0.06598281378837062 -0.07699139322620367
0.05166811941639408 -0.09338002411136494 -0.053943983480695644 -0.14916735797406547 -0.057197275167723834 0.010193373271246291 0.22483768878770244 0.10785649952109867
-0.035236332236081296 -0.10845262858557249 -0.07872873264094835 -0.04997353705088621 -0.08403063804991244 -0.0404753919918956 -0.1581477857990626 0.10526169171184949
-0.027630099763046628 -0.09763889226059913 -0.04512272579469376 -0.04831249244234463 -0.13266067096846626 -0.12454249143470231 -0.06220934278847831 -0.04760941007770207
-0.06309593885638802 -0.045461990094499125 -0.08116085200424217 -0.08011095134220063 -0.17474891077339122 0.085346319227122 0.054920361038192735 0.05721891264595565
0.07447379523732783 -0.04846565640697 -0.023796980164333775 -0.13108441035670734 0.08262589021566827 0.04492075588334184 0.10965168763015097 -0.21071440598402882
-0.030182721352175798 0.15416743471071928 0.0039018245770512483 -0.09037407508934114 0.010285634626323984 0.0463417989392028 0.09383650600276897 -0.1257074138788013
-0.18188379879193847 -0.011887646669487934 -0.09007420287978662 -0.18556982649793277 -0.01650224947838298 -0.1469830881351118 -0.12573069496690956 -0.08656020684455287
-0.0816229446523303 -0.09070728134513927 -0.10344246790965692 -0.1008537903251191 -0.1526185276987596 -0.16336919577157022 0.007000582031618026 -0.17120989670001727
-0.015618194039849315 0.044660179588814596 0.049383066500359646 -0.05805315880796285 -0.18301078857453432 -0.1225459495263122 -0.05334952437149989 0.17196549920433002
0.11887332001730502 0.023309842108956393 -0.1366833546670977 0.05932955087687259 0.07788347095125857 -0.09989613267619879 -0.09447367250077993 0.013875120754827783
-0.024231138243549676 -0.0642342713560239 -0.07210916451052532 -0.11389536166570344 -0.07312538622020633 -0.02178141094774825 -0.13629109606197257 -0.1410246452403488
-0.10693902602311817 0.02267043356699904 -0.14979334772407965 0.04268279553861637 -0.08369831726277714 -0.09271900168471212 0.09801772901010795 0.14747604017503962
-0.03617420947478102 -0.06064438740645262 0.00308769760947806 0.037326424009709355 0.028592582394577935 -0.05857008008107366 0.04722887314535211 -0.02932664148702073
-0.2122635276240816 -0.038121452649218436 0.11285179322713185 0.0031461397816359956 0.04552635770149303 0.046100526390705915 0.11406272981355119 0.0745626891731699
-0.14820645552954168 0.0025305875022909284 -0.08558180308239396 0.07505147104858555 0.10191406675271426 -0.07211446330197002 0.02563265225663782 0.012856184482649366
0.019203556839913115 -0.06413925463574598 -0.2248003772336837 -0.02214421962041879 0.016603781953023394 -0.24420304034643026 -0.0689829508783606 -0.057393909248812054
-0.0022747166169168388 0.016550751721412727 0.13751166752087673 0.017901210027533303 -0.2227301843825299 -0.06891841028669844 0.006806458559853261 -0.10183146062349653
0.05112845000397947 -0.07324323583825292 -0.18803373847771654 0.04098872214831824 0.08334925747627847 -0.13562984827418165 0.056349233343283345 0.039934262246446084
-0.15161126289571528 -0.054352767373900664 0.028217428655587077 -0.043702768727844246 -0.2098521152915087 -0.03127049995651984 -0.030058013862706852 -0.028937010912829145
-0.17761217980129992 -0.1791323085761996 0.06442186804635473 -0.07798822031449025 -0.038445566330239114 -0.06392878625830728 -0.08679198544649733 -0.002445728340695172
-0.21709689333680052 -0.11420990182283496 -0.12739573383667854 -0.13749712767277375 0.04195474678462513 -0.08740508091627747 -0.19547400527309855 -0.14808254812287988
-0.14755704492779437 -0.03436008825844818 -0.1862018182819275 -0.24608515474503492 -0.0046791457070371875 -0.06384218667736642 -0.1631332543595572 -0.06232531920990145
-0.12306467597725075 -0.1496761505866505 0.08514428070279928 -0.18538860089507697 -0.1559488381266014 -0.17129685994901775 -0.19290739446098634 -0.11035604926237076
-0.11717531445988547 -0.020674076006481287 -0.13702557310974767 -0.01240974280205631 0.022979224873172225 -0.1840024503575092 -0.12339182759787728 -0.10751841897895506
-0.1506778419468551 -0.20833664308110594 -0.0906408186287243 -0.20489477842527928 -0.177196966661919 0.07925637961184877 -0.24937184315691388 0.07518309005408999
0.0066445322056469585 0.03348828964966509 -0.23099029034791274 -0.005364446760087534 -0.18590391934508418 0.02683077302635976 -0.08338051755951072 0.0961640421432065
-0.0539226663827941 -0.22275967100504007 0.062389013153170116 0.05068687278371428 -0.012420332289810045 -0.1899685011829808 -0.10568885470341169 -0.043047726083789886
0.16673127035125224 -0.021699739425260555 -0.15737273524355638 0.04421593505597332 -0.08413199584476085 -0.02841112637707109 -0.09347416843220537 -0.11282316957882196
-0.13052275574867558 -0.07532966571181732 0.03853791773317405 -0.051255491686805585 0.045497245262353415 0.05348773271497827 -0.2335694084627097 -0.20519453812946709
0.09006236032837482 -0.21460843441843866 -0.11350467569326256 -0.05638419050147145 0.029531520886062756 -0.20575334694213443 -0.23089390582101682 -0.09646640564762066

model.sequential_layers.0.Linear 0.weight f8 [256, 31]
00000000: ab15 348a 1bd5 acbf 3049 a456 e7d9 d1bf
00000010: e14e 53c3 2f38 c23f 7189 7110 59d2 ca3f
00000020: bf18 66e3 8bb0 c03f 7b43 8eff d33d 963f
00000030: 5be6 055f cc69 bcbf e9a1 bbab 069b b5bf
00000040: 6766 a9f9 47a8 8c3f 4f77 d2dd d39e 82bf
00000050: 0e5e 87bd 774d a0bf bb29 7726 27b8 c93f
00000060: 5bc9 beed e1d2 ccbf 6485 5a17 0030 c0bf
00000070: 0ed5 84ba def3 b13f 2f50 882e e2f6 c03f
00000080: e2c6 a265 bdd4 c9bf c128 d236 37a3 883f
00000090: 503d 80d2 abb3 af3f 427b b842 50fc c43f
000000a0: 5532 5632 3dd8 b83f 4fd6 cc91 d177 b6bf
000000b0: 6796 5cb5 be74 c3bf 5c88 fe90 d718 c2bf
000000c0: fec1 4de1 2a42 c1bf 7757 4df4 f808 b1bf
000000d0: 1ce4 be74 83dc c7bf a6e3 56c9 8f4a c03f
000000e0: 87d1 405e eb90 b1bf 4da1 1ec5 b1e7 94bf
000000f0: 56ab 57d7 45bd a6bf 100a 5911 fde9 583f
00000100: 185b 3525 e446 d3bf 2e85 56dc 466b b53f
00000110: 735a 7e8a ecc2 b63f 51c8 f81e eafc c7bf
00000120: e5b0 6dac d730 bcbf 2a31 2308 bc07 b13f
00000130: f73f 0d77 d6d0 ba3f 9063 13c8 75f4 93bf
00000140: dc41 1b9f b193 cabf e3a2 ada1 2da7 bebf
00000150: dfff 070c bdd3 c23f b553 1efb 92bb 8abf
00000160: de62 05ae 372e c3bf 6aed abef ed3c cebf
00000170: 19f3 b67f 6643 b33f 83c8 6976 38cb b43f
00000180: d98c c804 5fad af3f 3176 2b42 34f8 863f
00000190: bd5c d261 dd44 a4bf 9c60 9b14 d830 c7bf
000001a0: c57d 613d cfca 9e3f 462d c87b 4d0c c0bf
000001b0: 9220 46a7 2378 cebf 7245 ad60 3282 a43f
000001c0: 6d1c 4230 409c 93bf e833 3dfe 1183 a33f
000001d0: 2ced 89d0 696e ba3f 8754 6f35 10b8 c1bf
000001e0: f113 29c6 c78e b0bf c9fb 42e4 1024 a8bf
000001f0: 1b3c 826a 7790 a6bf 2c3b 3798 c1a3 ac3f
00000200: bd8b 049b 0205 b6bf 82e2 2005 3eef c73f
00000210: e857 e01e 3e48 a23f bb6b 4457 c5ac 963f
00000220: 7f0e 8785 087d 8cbf 1169 faf5 f58c a43f
00000230: 6e43 5165 e30a 6e3f 5a49 2a04 83fa c7bf
00000240: d52f 9559 ee2d bb3f 963b 632e 759f ad3f
00000250: 8478 47a6 104f c0bf a9d4 4929 5742 b13f
00000260: 834a 47c7 8db6 af3f 7662 e81d 3c27 babf
00000270: 6a34 5382 edea b6bf 5eb4 1d01 f349 b33f
00000280: b3e4 d6ff cb9b 83bf 8513 775c b476 c63f
00000290: 3573 914d 9180 97bf e0d6 702b 7d0a d03f
000002a0: 6092 cd66 1855 c83f 8a88 f90a 5707 a83f
000002b0: eca2 bbff 6467 913f c6b3 32e6 5445 a2bf
000002c0: ed30 9193 9a75 c33f d1cb a4b6 e453 bf3f
000002d0: 9034 874d fdb9 c43f d5cc f04a d7a1 bc3f
000002e0: 4ce5 d3f7 6a8c b3bf 250a be9c c7a4 a83f
000002f0: e695 4e97 37aa b13f 4314 75ff 445b bbbf
00000300: 4173 74ed be9f 8bbf e1ff d47b f7ea b2bf
00000310: f52b bf29 3e99 acbf 0b4f 8543 7e21 bb3f
00000320: 802e 4583 cb88 bebf 9757 8df4 93e0 b3bf
00000330: a519 8b37 f6eb c83f 9a01 1378 3ade bf3f
00000340: 8f37 17dd bd3f b83f 2b63 d325 a9c8 a3bf
00000350: 661d 1f9d 3fd6 c2bf a05b 0dd6 6302 c83f
00000360: 8ec5 3c53 b006 c23f 6aaf 48f2 c321 b9bf
00000370: 0a80 a4fd 8ccf a4bf c728 9a00 cdd3 53bf
00000380: cb32 e1af 3cf7 993f ebf3 2215 4522 c4bf
00000390: 5090 0a2f 6091 b3bf 2e8f b792 bf01 bc3f
000003a0: b5f4 6a26 033d 533f 4b43 3ee3 59f6 bd3f
000003b0: bc13 3bc4 8b7c c53f 1be0 cf41 6f9f ac3f
000003c0: b82a 9983 56f4 903f 3660 b414 27ee c1bf
000003d0: 7590 ea4c 367d 763f 4cdd 4d98 afa3 c6bf
000003e0: 26d6 460a 61e7 b2bf 2372 d311 5491 c2bf
000003f0: d9a9 60c9 d2a5 b13f ef4a 1d82 074f a03f
00000400: b6db 4021 6d7b b1bf a873 d970 242d c23f
00000410: 12f6 56a8 1e04 bdbf 3fc3 83c3 702d bdbf
00000420: 5fcb 46fc d6b6 96bf db90 f22c 83ea b3bf
00000430: ebcc 074c 929f c33f 6709 1cd3 0223 94bf
00000440: 7557 0839 5753 c43f 36da 89ce 92e7 94bf
00000450: 6a6f 11b3 1d04 b43f db8d c9b6 0c8c 6e3f
00000460: 97f2 f977 0441 a4bf c4ad d09b c2f7 9ebf
00000470: 089b 4008 df0c b9bf b11b 24b2 7140 c2bf
00000480: dcdc abc9 4fe8 b5bf 5dab 731b 5d64 92bf
00000490: 8417 506b 88d1 b9bf 546f 176a b0d8 a33f
000004a0: 0a7f 0a8e 3a88 a1bf 119b 8417 7380 babf
000004b0: d8c9 459b 87b3 953f 9c0e dd51 7144 c23f
000004c0: a037 f05f 67e2 b3bf e13a 01b1 376d c03f
000004d0: 4b73 6b31 5316 c3bf bf69 2b70 96f2 693f
000004e0: 9c57 1c6e e395 b83f 3710 9852 7ea4 c1bf
000004f0: 6ee0 d60d 29d2 85bf 9759 ee62 bb91 b33f
00000500: ffe2 42cf e0e7 c33f e46f ba6b 92c1 c43f
00000510: 7816 1f0a 1712 b83f 24ef a03d 4967 9b3f
00000520: a204 6b12 9333 b0bf ca89 5b48 6d7e bdbf
00000530: 1245 9caa 2576 9ebf 0678 bf93 cac3 b4bf
00000540: c1fc d8dc a88d be3f d720 0fda 9ee1 bdbf
00000550: 36fc b922 d0e6 c6bf a3e9 2cf2 a706 c43f
00000560: de25 0dd6 a027 c33f 5eec 565f ba6e ce3f
00000570: 8eca d12d 8461 923f 6a0e f403 b11c bcbf
00000580: faab dd93 dab5 b43f d40d 5383 1121 b63f
00000590: 74b0 f069 7ed1 b0bf 6065 ce00 0e89 91bf
000005a0: 1a72 64dc ad4f b4bf 449a a77b 5b99 b63f
000005b0: 10c9 40f0 589d b8bf 61de f77f d59c 96bf
000005c0: 4312 9a61 8a26 b7bf a271 3f01 be97 d7bf
000005d0: cca8 8c64 6c4e acbf 3f97 c2d7 f49a c1bf
000005e0: a4a8 7fe8 4b4a cf3f e4a2 1083 e9ec 503f
000005f0: a06d a035 29a0 89bf d93f 3406 007a b3bf
00000600: 5152 a787 bd8f b9bf 5299 8528 e202 bb3f
00000610: 3f1a 287b 7ddd 7c3f e5a8 7b63 c272 babf
00000620: 0e9d 7e72 5e56 b33f d0c3 11ad 9587 c03f
00000630: 9283 c20a 6a2d b93f 6291 5b64 3d36 c7bf
00000640: eb50 501c 0317 c93f 369e 1134 f96b c73f
00000650: ef87 6980 9882 b8bf 68d0 693b 6487 b0bf
00000660: 261e d71b 4940 8c3f 52bc fce2 fa12 b73f
00000670: 1026 646b 76f1 c1bf e7e2 0500 63fd bebf
00000680: 63dc d731 0801 a2bf d43e 6ab1 74e6 ac3f
00000690: 9ddb 657c c774 c5bf c053 1a95 4e3d b53f
000006a0: 2c42 6feb 85e5 a73f b38b 2ab8 3d75 89bf
000006b0: 594f 0788 2b56 acbf b15f 7dad d88f c3bf
000006c0: a325 093e 7fb4 ac3f 5d35 13c2 53f1 a33f
000006d0: 4b13 95be 4e01 ce3f 1883 de1d b2bb bcbf
000006e0: e35e a72c 9bb1 aebf 86ac 08e1 77ae b4bf
000006f0: 6685 d260 1608 b6bf 6e1f 2e46 7ba7 a1bf
00000700: b3d8 bd31 c921 c63f fcf6 16c1 7cbc 5ebf
00000710: 0bb7 19b4 eb58 a4bf 171a 771f e90c ca3f
00000720: 23c3 90ae 1897 d2bf a3aa 9afa 1d66 c83f
00000730: b783 99da 7963 a23f f1df e916 4a7f bcbf
00000740: 7ac1 62b8 fcae cabf 089a 1e2e 11c8 a5bf
00000750: 1768 e8e3 801a be3f 91bb 5787 837c c9bf
00000760: c6b5 7cba 58c5 a53f 6817 0f3b 4456 cc3f
00000770: 64fb bdd4 aba7 c93f b097 80a1 5974 c53f
00000780: 136b a013 cef8 a6bf 3170 c98a d5be 413f
00000790: 6019 303d 0f13 b63f 922c 9545 a31b cc3f
000007a0: 297c d7ad 2053 c03f 353a 1bb7 7bc7 a13f
000007b0: e40c daaa e24e 923f 19bd 96a6 2348 c03f
000007c0: aa8a aa76 a5c3 c03f 1bf2 b897 d52e 7b3f
000007d0: 3c6e 000c a506 bf3f bf03 9034 30ef b7bf
000007e0: 1a06 60e8 6e47 9f3f b246 3432 621e b8bf
000007f0: dd06 d9be 0cc5 bcbf 5562 a687 c9c3 b6bf
-0.05631338178686048 -0.27892478428943246 0.1423396781670965 0.209544308690123 0.13038776973207253 0.021720230553515556 -0.11098935432337369 -0.08439675991724695
0.013992845827647217 -0.009092002112364076 -0.03184103191932418 0.20093240144917765 -0.22518562420516272 -0.12646485462486645 0.07012741140063758 0.13253428718656
-0.20180480444610455 0.012030059204580447 0.0619176573237562 0.16394999749987887 0.09704954604075884 -0.08776578721593718 -0.15200027328062335 -0.141383119390471
-0.13483177186164136 -0.06654315914542318 -0.18641703796836928 0.12727544146562514 -0.06861754466155477 -0.02041509404776436 -0.04441278699581257 0.0015206309666530061
-0.3012018550265778 0.08366816405625307 0.08891180401983849 -0.1874058390836262 -0.1101202770202608 0.0665242690913074 0.10474911123787921 -0.019487228714612892
-0.20763225811835084 -0.1197384376261073 0.14708674514258654 -0.013053081787612312 -0.14984794613953673 -0.23623441889490532 0.07524719827683803 0.08122589961002018
0.061869592031394034 0.011215599316922372 -0.03958789652932058 -0.18117810255239852 0.030070531960857644 -0.12537544769325332 -0.23804135959312994 0.04005582265984743
-0.01915073675675354 0.03810936192039788 0.10324727383879367 -0.13842966660618947 -0.06467865550901288 -0.047150161613437165 -0.044070941688112174 0.05593686087705971
-0.08601394924748625 0.18698859453595068 0.03570741774471725 0.02214344353806628 -0.01391035706990995 0.040137945438987306 0.0036673013042122704 -0.18733251288774505
0.10616960227088097 0.05785719100241875 -0.12741287345028607 0.06741852529542548 0.06193965013121263 -0.10216117601556526 -0.08952221328509471 0.0753471257900897
-0.009574502701854426 0.175497574948306 -0.022951383933434506 0.2506401943422656 0.1900969030349584 0.04693099984139433 0.016995981320095874 -0.035685208416317546
0.15202648358752616 0.12237386187625467 0.16192594800523752 0.11184449748616328 -0.07636135626298318 0.04813216961249037 0.06900355762498797 -0.10686141239882922
-0.013488284703777277 -0.07389780781977563 -0.05585664996723231 0.10597981594520094 -0.11927482561912406 -0.07764553757200897 0.19470098220899704 0.1244846861982353
0.09472262046548806 -0.03864029490222828 -0.14716334506941137 0.1875729365517289 0.14082912506414086 -0.09817146935591628 -0.04064598652098546 -0.001210165212258961
0.025357197031825856 -0.15729583293969482 -0.07643700741260884 0.10940167743643478 0.0011742144358060484 0.11704026983194386 0.16786334115582047 0.055903889449780496
0.016557075292704865 -0.14008034239736994 0.0054905053245058915 -0.17687029778219665 -0.07384306431671259 -0.1450600707093069 0.06893651405758962 0.03185294593153808
-0.06828958570336749 0.1420026350996555 -0.11334411249023216 -0.11397461674984032 -0.02218185343526657 -0.07779712531425124 0.1533072348825962 -0.01966480649481053
0.15879335675043263 -0.02041463266001583 0.07818780538349093 0.0037288902588430268 -0.039558543820907115 -0.030242005119516482 -0.0978526492259385 -0.14259167860310876
-0.08557604478470487 -0.017960982132460546 -0.10085346813147394 0.038762581778171296 -0.034242467726697326 -0.10352248500985818 0.021192664005363543 0.14271370408288397
-0.07767339794392436 0.1283330549508355 -0.14911880410263686 0.0031674326176986674 0.09603711546182442 -0.13783244164381056 -0.010654755339473545 0.0764424435168166
0.15551385994128705 0.16215734729928422 0.09402603146653543 0.02676119269038603 -0.06328696441325346 -0.1152103711752154 -0.029747570551141918 -0.08111253840567664
0.11934905425822519 -0.11672394584377642 -0.17891885467176544 0.15645312619183213 0.14964685870863453 0.23775415091754132 0.017950120255088957 -0.10981279703633509
0.08089986906058746 0.08644208389437519 -0.0656966217654274 -0.017124384688576355 -0.07934080725358009 0.0882775475398399 -0.09615093102982919 -0.022082649169503536
-0.0904318321500535 -0.36863660928590936 -0.055285823129752026 -0.13754139456903577 0.24445484974359488 0.0010330467596394938 -0.012512514065796065 -0.07608032371012942
-0.099849553698115 0.10551274766257748 0.007047166977378227 -0.10331358841691303 0.07553663535383157 0.12913771582273492 0.09834921610537453 -0.18134276771810237
0.1960147751093538 0.18298258821890706 -0.09574273238243312 -0.06456591082116037 0.013794490015143056 0.09013336221390603 -0.14018135303221912 -0.12105387449799886
-0.03516412361562329 0.05644573846541126 -0.1676263196383986 0.08296672001081529 0.046672997464728944 -0.012430650885397165 -0.05534492526535812 -0.15282734366587428
0.05606458313247777 0.038950555268096855 0.23441490464952106 -0.11223901013591975 -0.05994877739038686 -0.08078717464438698 -0.08606090415789466 -0.03448090774241917
0.17290606430805652 -0.001875993566826605 -0.03974091123096287 0.20351900135411036 -0.29047219321641843 0.19061636673480561 0.03591519158795314 -0.1113172822896329
-0.20846518519602936 -0.04254201591475143 0.11759191097408493 -0.19911235912828976 0.04252126003698779 0.22138264545190656 0.20042941940115633 0.16761322389464572
-0.04486698140700276 0.0005415480314456875 0.08622832530827429 0.2195934381255467 0.12753685463300826 0.034725061513757906 0.017879048994029825 0.1272015155241
0.13097065252539625 0.006636461588240407 0.1211951402951223 -0.09349347384706073 0.030545933659601322 -0.09421361661614006 -0.11238174113625683 -0.08892497598424971
