Data/Breast Cancer Winsconsin (Diagnostic)/results/models/bcw_0.onnx (onnx, 416707 bytes, 5 tensors)

model.sequential_layers.4.Linear 4.weight f8 [1, 17]
0	0xbfe37760205d6d77	-0.6083222038391075
1	0xbfe29c6aa4c11656	-0.5815938203674687
2	0x3fe2bbb208cbbc1d	0.5854120418351872
3	0x3fe2f25e4f163e70	0.5920859856286835
4	0x3fe47db71277d2d7	0.6403460846618952
5	0x3fe0a6ea6830e4ba	0.5203754458408618
6	0xbfe0c47991d28a1e	-0.5239837501615658
7	0xbfe330e72b30c1e2	-0.5997196048320428
8	0xbfe20078a0168fa0	-0.5625575186463614
9	0xbfe35ca153cc7c41	-0.605057395619845
10	0xbfe1eae585585926	-0.5599238972088514
11	0x3fe1bb19e67ce7f3	0.5540894986836505
12	0xbfe1d1a898ba8f6c	-0.5568430884345452
13	0xbfe2d0d6181d2373	-0.5879927130673493
14	0x3fe30ca44ecaf49c	0.5952931918069626
15	0xbfe60dde43d62f13	-0.689192898267239
16	0xbf95b6df5f36787b	-0.02120541590340295

model.sequential_layers.3.Linear 3.weight f8 [16, 65]
0	0xbfba22fe22246282	-0.10209644635723161
1	0xbfc56c9e7e309ac1	-0.1673772922669823
2	0xbfcce6c3f1cb2342	-0.22579240137408801
3	0xbfc990c564449b42	-0.1997305621709647
4	0xbfbf58c0eee076bb	-0.1224480231471387
5	0xbfcd52facaa70b50	-0.22909483809606934
6	0x3f8abd7b9ee23de7	0.013056722437140912
7	0xbfd07fe8751748f1	-0.25780688700355286
8	0x3fb9b026f247f843	0.10034411826197336
9	0x3fd5c949bfb6b322	0.34041064950979394
10	0xbfb210bab5d32343	-0.07056776942330338
11	0x3fda8baeb66ca761	0.41477554144750256
12	0xbf7eeb520773184b	-0.0075486377965657365
13	0xbfd455dbda2540c5	-0.31774040511392015
14	0xbfce93840d3bc165	-0.23887682577288696
15	0x3fc8087ae2118878	0.18775878942966862
16	0xbf830abc177dfbe5	-0.009297818629191166
17	0xbfb81d432c20c13f	-0.09419650866835115
18	0x3fc6653c9598f287	0.1749644976097395
19	0xbfb10bab4fb356f1	-0.06658430763067337
20	0xbfd519cd233e1c9c	-0.3296997875372172
21	0xbfc01eda333356a9	-0.12594153881098194
22	0xbfafbabb371f013c	-0.06197152183404106
23	0xbfb4c4775696a127	-0.08112283576941036
24	0x3fca662f50f0621f	0.20624343349551652
25	0x3fcc613605f0bef4	0.22171664514598144
26	0xbfc07b130df193c9	-0.12875593357889972
27	0x3fb5afd438d1f2a7	0.0847141875000924
28	0xbfc1ea1185bb8ff3	-0.13995570211329741
29	0xbfabc4ebb0be2f00	-0.054236760449468235
30	0xbfa4418d63f17a38	-0.03956262440691599
31	0x3fd5701ec07ea427	0.33496826933202545
32	0xbfa687a1078eb21a	-0.04400351731542092
33	0x3fa45fe94995f966	0.03979424498810395
34	0x3fb341efcf0df9ee	0.07522486500781841
35	0x3fc9e486490498f3	0.2022865158589365
36	0xbfa87667901edc0d	-0.047778354971733085
37	0xbfc82815183b57b9	-0.18872321780389514
38	0xbfd21179267e008c	-0.2823164821529722
39	0x3fc42d265f6166d8	0.15762786538362294
40	0xbfdaa5b4d367c8d7	-0.41636391301211745
41	0xbfb6568d3e708a8e	-0.08725817465214389
42	0xbfc0fac521f17a6c	-0.1326528945673603
43	0x3fa3dc64dc3ecfd3	0.03879084766904808
44	0x3fa39e00e0c12da7	0.03831484550081692
45	0x3f9bf3a7393e967d	0.027296650761533748
46	0xbfaa977d4aba009e	-0.05193702256383513
47	0xbfa040f5c9c36d28	-0.031745606307334306
48	0x3fb8f8d4d6779bb8	0.09754686580673322
49	0x3fc604c463742b06	0.17202048164502787
50	0x3fb8f43bdee903b0	0.09747671310562
51	0xbfcd1579bda23e12	-0.22721788176976127
52	0x3facbf98792718d3	0.056149258412504864
53	0xbfa6562a6d3d8956	-0.04362614234448141
54	0x3fb8a09ae1e46f7a	0.09620063795995107
55	0xbfc8eee09be6b0f2	-0.19478995907173374
56	0x3fc3b190390eb877	0.15385630403529024
57	0xbf92a0a71a0cd85b	-0.018190966572739203
58	0xbfaf5fd9ea61b998	-0.06127816187005236
59	0x3fc3bb237af964f3	0.15414851669883198
60	0xbfc000cd4d8495b3	-0.1250244740014473
61	0x3fd020c8834fc175	0.2520009310092271
62	0xbfce7748e944abc2	-0.2380152834897143
63	0xbfcba9cf4f183922	-0.2161196838573654
64	0xbfad44b76a22a9b2	-0.05716489000890891
65	0x3faa3e3e19578935	0.05125612315511533
66	0x3fc7acd3c393c74a	0.18496176767035372
67	0xbfb1477c2d26ac6f	-0.06749702551194202
68	0xbfd79416466b838f	-0.36841351391745375
69	0xbfe1baf331627391	-0.5540710415403841
70	0x3fb56ee8e80b34f0	0.08372359910136473
71	0xbfc276e48a39c4d1	-0.1442533183031061
72	0x3fbfe538a0989e4b	0.12459138794712847
73	0x3fb6299b134bd97a	0.08657235356426965
74	0x3fb14a95b9f40047	0.0675443247782833
75	0xbf7c9abfd17f78e6	-0.0069835179237698105
76	0xbfb14c114d651158	-0.06756694926759133
77	0x3fc21379e150d66d	0.14121936322924303
78	0xbf93c6d9d868e663	-0.01931324370727906
79	0xbfd43c6ec7c9e5de	-0.31618852148639387
80	0x3fa6de0821d77a9d	0.04466271794421071
81	0xbf8f9e0f0b263dc6	-0.015438191917182997
82	0x3fca80c8636289ac	0.20705513813761678
83	0x3fc4ddd4406aec43	0.16301968713182377
84	0x3fb5bf9c0997d09a	0.08495497926907306
85	0xbfc9754ba7488320	-0.19889207523467523
86	0x3f70eca68a61bf39	0.004131937550581993
87	0x3fb87881b3dd44ce	0.09558878556460401
88	0xbfc06357e3c433ec	-0.128031717504569
89	0x3fc8792f9f78b5e7	0.1911983040494498
90	0x3fb65d0ef7c699d0	0.08735745953763474
91	0xbfcae869115ac441	-0.21021760318174823
92	0x3f9806234bab2c7d	0.023460914128730515
93	0xbfc93c6fbbac1372	-0.1971568743103052
94	0xbfc6571b709f8ad6	-0.17453330039196285
95	0xbfc34b8b81ad90cb	-0.1507429488366426
96	0x3fd172720aa814ae	0.27261019745521764
97	0xbfd45b1363b38903	-0.3180588220258331
98	0xbfc51e20454f993f	-0.1649818743164335
99	0x3fba90c5b2fa9719	0.1037715494117858
100	0xbfc1476204de1b1e	-0.13499093282390445
101	0x3fca1eb60c884c0d	0.20406222927030662
102	0x3fb98329956c5a99	0.09965762994793649
103	0xbfbe935fbc507bd8	-0.11943624827880173
104	0x3fc7db13df13ab4f	0.18637321846412155
105	0x3fc0cc1d96cdb002	0.1312291132302335
106	0x3fb44c2da2081ffe	0.07928738790371878
107	0xbfcd671667ee405d	-0.22970848154773452
108	0x3f64d4cb5520ccd4	0.0025428744638929888
109	0xbfaff816995e8b68	-0.062439638349380655
110	0xbfc2a1f5d06df36b	-0.14556763341161214
111	0xbfc2410b1a29d8b2	-0.1426099660636218
112	0xbfc6a362f0539969	-0.1768611596555261
113	0xbf9ed48a4c509701	-0.030107651622663493
114	0x3fc09bae48bc80c3	0.12975100089625444
115	0x3fc6ba701b428f2f	0.17756463366560513
116	0x3fa0a85fb9b75f22	0.032534591122099124
117	0x3fb8dcfabf6ab5fd	0.09712187932264978
118	0xbfcf831af28e63a3	-0.2461885151249393
119	0xbfb592ef23c1535b	-0.08427328703812746
120	0xbfb1cf214804bb2b	-0.06956680305732436
121	0x3fc95ace8dcb697c	0.19808370517314333
122	0x3fc79c6c8c64c956	0.18446118216668123
123	0xbfdc20d348b27abc	-0.4395034990247202
124	0x3fc8d99a8742cdf7	0.19414073566950638
125	0xbfc350c579945dff	-0.15090244709493558
126	0x3fd2774d4d4fd46f	0.28853161382659825
127	0xbfdf7fc280f9eae4	-0.49217283816658
128	0x3fcef06de6d2aca7	0.24171232004787166
129	0x3fbaa56aa359ef32	0.10408655632084843
130	0x3fa94cb360217026	0.04941330479115917
131	0x3fb34d67f313def7	0.0753998726321433
132	0x3fa99b9aad626f2d	0.05001529089460486
133	0x3fcbf789de873839	0.2184917770923123
134	0x3fc2d5448604eca3	0.14713341277988431
135	0x3fd8273b52cda59d	0.3773945149065073
136	0xbfaf0f0bf30592d2	-0.06066167203497276
137	0xbfce5ccadc4d77e5	-0.23720680005038655
138	0xbfd329479cc24f8f	-0.29939451511858634
139	0xbfd123cfc140a8b0	-0.26781076309510876
140	0xbf85a520c4b80b32	-0.010568862918267283
141	0x3fcce7453a52964e	0.22580781314643378
142	0xbfc9e8f9b04cd579	-0.20242234333424472
143	0xbfb64b319889c713	-0.08708486532284736
144	0x3fc3abf61a691b32	0.15368534364298508
145	0xbf87e4de17974749	-0.011666998953760237
146	0x3fcd2e9cbb0f6b91	0.2279849923496298
147	0xbfcdbdd4d1ee2427	-0.23235569239139517
148	0xbfbe369deec22c7c	-0.11802088812889794
149	0xbfc84601973dac0e	-0.1896364201050748
150	0xbfb9a239bf9c5242	-0.10013161590570355
151	0x3fc538913667d845	0.16578879505658697
152	0xbfd4b3ff4700249d	-0.323486155830844
153	0x3fbfe21a1b4f3693	0.1245437924073605
154	0xbfb09687b336404c	-0.06479690671244603
155	0xbfd18f711830c186	-0.2743799911723034
156	0x3fb7d3a7278a1b03	0.09307331767386633
157	0xbfcab2c9e6fee289	-0.20858119753917873
158	0x3fc329817cdadf48	0.14970415684160288
159	0x3fc35eddf20f5cb0	0.15133261031471568
160	0x3fafe9146b17e3e6	0.06232513243953246
161	0x3fafd256a6600c60	0.06215163021990899
162	0x3fb9df37e5e71994	0.10106229174480169
163	0x3fcfa4b0bba4f147	0.2472134510261503
164	0x3fc317577fbfa801	0.14914983499267012
165	0xbfcffbc2b8663c82	-0.24987062457919157
166	0x3fac54eabe973558	0.055335365071736475
167	0x3fc6771d9489e3b0	0.17551011803496186
168	0x3fc48d9bf25ab8bf	0.16057156881055865
169	0x3fafc5f4a0a572a9	0.06205715619100733
170	0x3fcdbd6590c31cbf	0.2323424298140022
171	0xbf911a71f89ecc17	-0.01670244293172737
172	0x3fb493bea37ca73c	0.08037940493946122
173	0xbfd4aef0f69c6ba8	-0.3231775673208923
174	0x3fc3030ad4d421eb	0.14853034393333017
175	0xbfd8a1aa78f5de48	-0.38486730396786983
176	0x3fc0786591e5d71f	0.1286742174522084
177	0x3f65654b2ee6d5df	0.002611777155119496
178	0x3fb43b14b941cd24	0.07902650378109805
179	0x3fc5a6592b741554	0.1691390478301097
180	0x3fb1d55f5004966d	0.06966205314219005
181	0x3fceacfdf57908ad	0.2396542976949311
182	0xbfab8934a430acb7	-0.053781170885792866
183	0x3fbe22e5038f6992	0.1177199491207033
184	0xbf869a8c2175916d	-0.011036963244529041
185	0xbfcf991e87ee431c	-0.24686032902948163
186	0x3fc406b8bf820076	0.15645512915580512
187	0xbfcad6cbcdea2ec1	-0.20968005709106843
188	0x3fae2c7adacd2d04	0.05893310471454963
189	0xbfd1f6da8048dbe8	-0.2806917431620932
190	0x3f94b31606493238	0.020214409001981987
191	0xbfbd450e103ccf23	-0.11433494469093523
192	0xbfb60b513c7ac149	-0.08611018873739797
193	0xbfb3e64c42c6c431	-0.07773281698497737
194	0x3fca4f1fbc8716f6	0.2055396719498998
195	0x3fcf9742b80a247d	0.24680360781011138
196	0x3fccc3fccf594888	0.2247310650296337
197	0x3fc19df1f0af6c7e	0.13763260128220972
198	0x3fbf72db14395771	0.12284631007909554
199	0x3fade2a54930ff01	0.058369794067855814
200	0x3fcb260dd8219de7	0.21209881833350083
201	0x3fb692639c2d4741	0.08817122042571858
202	0x3fdc72e15b386629	0.44451173694833074
203	0xbfe410029769edfe	-0.6269543607044736
204	0x3fa07f3ae647017b	0.03222068844798095
205	0x3fc00647bef7d1e8	0.12519165825473455
206	0x3fa551f925d15241	0.041641031137861
207	0xbfd1fb5407e9daeb	-0.2809648587494126
208	0xbf713a25ff9f96c4	-0.004205845290902569
209	0x3fb5dceb2a123967	0.08540220048073409
210	0xbfc88846e56e2a1b	-0.19165884211209136
211	0x3fc56892473810a1	0.16725376584520737
212	0xbfa8e467a996a0b9	-0.048617591335017925
213	0xbfd65b7945f5b202	-0.3493331130219134
214	0xbfd5e0994fc6784a	-0.34183342733911515
215	0x3fc4d074f12c6114	0.16261159683268345
216	0x3f606c46a7cdff5a	0.0020047550191861054
217	0xbfd7d0d59cad5ddc	-0.37212124157437443
218	0x3fc03a644ddf8db0	0.1267819767227656
219	0xbfa593872a63aac3	-0.04214117424438293
220	0xbfd7626aee59fccc	-0.3653819396640301
221	0xbfb62b3e75452cc2	-0.08659735072176303
222	0xbfd3598471767277	-0.3023387058290505
223	0x3fae2ee1e7643f46	0.058951434608501205
224	0x3fc7c1e6d838dfbb	0.18560491140101285
225	0xbfab68ae643518fc	-0.05353302930102363
226	0x3fc4176acb1facd7	0.15696463506842548
227	0x3fcb9878487d7e74	0.21559051074563096
228	0x3fd0b518e2fb8646	0.2610532967210911
229	0x3fc2b933e59f8e7f	0.1462769385535587
230	0xbfe0fcd715f553f2	-0.5308642796395573
231	0x3fc244dedd403219	0.14272676280269606
232	0x3fc82a05ad02907e	0.18878241489176512
233	0x3f949be623abfc1a	0.0201259574196194
234	0xbf863359fafde244	-0.01084013268676743
235	0x3fd278e2ec6797f5	0.2886283215178758
236	0x3fb564549ab31c53	0.08356217171523043
237	0x3fc0e32e87abe8e8	0.1319330370386702
238	0xbfd9709cfc2d74e0	-0.3974983656569986
239	0x3fc1afdaa72fa93e	0.1381791416491271
240	0xbfda18c4cba4b537	-0.4077617634491903
241	0x3f6c4c751f16a140	0.0034544265297037635
242	0xbfbca65002ecdc95	-0.11191272803704273
243	0x3fd16eb77e085119	0.2723826151643763
244	0x3fb89b8bbee40a6e	0.09612344179553542
245	0x3faa2584338c18a8	0.051067477505101266
246	0xbfa07f773e6f0c7c	-0.03222248685008197
247	0xbfb1e537a3efb5e7	-0.06990382912018554
248	0x3fa51030579ccd62	0.04113913602341303
249	0xbfb6de288c291430	-0.08932736799131713
250	0x3fd3463255575300	0.3011594613465576
251	0x3fc676cb87b78761	0.17550033690263958
252	0x3f8c22b262e4e787	0.01373805393506068
253	0xbf7bb3175bee0724	-0.006762591597068188
254	0xbfb40acc2d1c2e09	-0.07828975774116755
255	0x3fd129121fe95d2d	0.2681317626606468

model.sequential_layers.2.Linear 2.weight f8 [64, 129]
0	0x3fb44dff839f7675	0.07931515658807504
1	0x3fc1984466a6cb9c	0.13745932590753973
2	0xbfbf0996952cec11	-0.12124005453090116
3	0xbfd2fbe2a8f053d0	-0.29662386415412545
4	0x3fb9279da94d5dcb	0.09826074012141033
5	0x3fb4b5a4862d377c	0.0808966472224863
6	0x3fd19752f5887ffa	0.2748610875878509
7	0xbfba708eee473ab8	-0.10328000371303403
8	0x3fb7321f25664a16	0.09060854590487852
9	0x3fce32220955c53c	0.23590493636906185
10	0x3fab8192a291394f	0.053722936958922156
11	0x3fadf8da4b043c32	0.05853922048310557
12	0xbfb8edc39fd6f6cf	-0.09737799312912475
13	0xbfc0619e64b0ce2a	-0.12797908703360977
14	0xbfb4531dd485bfae	-0.07939325750862622
15	0xbfc486c2dd24eb98	-0.16036258504922496
16	0xbfc486631e229147	-0.16035117122113204
17	0x3fbe030fb5b9ed3c	0.11723421274830498
18	0xbfadc9471bdd3cc8	-0.0581762525094916
19	0xbfaf758551471dfd	-0.06144348733101521
20	0xbfbecf196450f260	-0.12034758280874192
21	0xbfc5e3de2c7c8841	-0.17101647541227474
22	0x3fbbc4bc7b3e6ce3	0.10847070702441246
23	0x3fc447564e01cf1c	0.15842703637064737
24	0xbfd0f84c763bd197	-0.2651549486756947
25	0xbf7bf54dbfbe4ed8	-0.006825736720106078
26	0x3fc304f95f649cff	0.1485892978464349
27	0xbfbdfb819bbd0364	-0.11711893131451984
28	0xbfa74ab9053e0f1f	-0.04549196423525203
29	0xbfc33ae42c03a92e	-0.15023471974502328
30	0x3f7f208f5e2439ec	0.007599411039576936
31	0xbfc4a0d8c059ac8c	-0.1611586512766262
32	0xbfcf6339f542e96e	-0.2452156493726067
33	0xbfb43fb12e4b4ecc	-0.0790968645117644
34	0xbfc94e7812d24a53	-0.19770718497291515
35	0x3f72e2e535a0d746	0.004610915517380415
36	0xbfc2c712c0c0b184	-0.14670023357156137
37	0x3fc1fc90e0280ef5	0.14052020020618952
38	0x3fb200d2648b753e	0.07032504038530349
39	0x3fc48a0855f4999f	0.16046241948170079
40	0xbfc8b4e23dc9eec3	-0.19302013413459038
41	0xbfad2a3b9f3500b9	-0.05696283644147244
42	0x3fbd6e7e7058edec	0.11496725314002959
43	0x3fb64436df598096	0.08697836830970326
44	0xbfa60ba4fe563710	-0.04305759052941316
45	0x3fab9fa64d8081cd	0.05395240493840312
46	0xbfc564f94c86d26e	-0.16714397656109575
47	0x3fa3633295608da5	0.037866192564503444
48	0xbfb916c2fea18b2b	-0.09800356594636798
49	0x3fc5065dbeb7a6d8	0.16425678074238337
50	0xbfc655fa9281e426	-0.17449886468583137
51	0x3fc1bb5b5a9793fa	0.13853017733995882
52	0xbfb14cad4be990cb	-0.06757624724702109
53	0xbf6fca4abf8b9725	-0.0038806400228733767
54	0xbfbb73eac58e45de	-0.10723750422609821
55	0x3fa41936a266444d	0.03925486309447788
56	0xbf9b43818f98621e	-0.026624702824934336
57	0x3fcd1bcbfd7794a5	0.22741079212497542
58	0xbfa9c3caae176a33	-0.0503218972696299
59	0xbfab60fb684f15ee	-0.05347428940107678
60	0x3fce339dff9ad38e	0.2359502313680903
61	0x3fca6f7f7567f73d	0.2065276454231312
62	0x3f886312df73bb69	0.011907718128410587
63	0xbfa03c5639b2efd9	-0.03171033338864477
64	0x3fb18d215e022b2c	0.06855972809914296
65	0xbf9c91ab8233699e	-0.027899436780765556
66	0xbfc92a6265a26240	-0.1966059681187904
67	0x3fa0a7c7ec954470	0.03253006709076878
68	0xbfc62850c48dcb27	-0.17310533139569736
69	0xbfb09430eb3c4db0	-0.06476121657424616
70	0x3fb6c42c5ab42cb3	0.0889308663792459
71	0xbfc4d5b5c7341ae8	-0.1627719137834085
72	0x3fc285cbee1f1cc6	0.1447081482603833
73	0xbfc120b4ad799854	-0.13381060095270192
74	0x3fbef74c349368e9	0.12096096309270234
75	0xbfb2f102d5e2122c	-0.07399003717188951
76	0xbfcae948abc3c090	-0.21024425875612396
77	0x3f953c12f5f31f12	0.020736976872995312
78	0xbfcf93c184ee458e	-0.24669665327796192
79	0x3fbbe79abee42689	0.1090027538340569
80	0xbfd1140134f11859	-0.2668459908494519
81	0xbfb6773fee002b38	-0.08775710640490508
82	0x3fb59f902e668c8e	0.08446599133326257
83	0x3fb83cf6eb4a25a2	0.09468024486900231
84	0x3fc4c18a814c211d	0.16215640366886755
85	0x3fbedf5c42834e7b	0.12059570907450194
86	0x3f908d20cbf14d63	0.016163361022632283
87	0xbf860b5480202f17	-0.010763797912680268
88	0xbfc9481c677e6409	-0.19751315167812347
89	0xbfa72314cad4e62a	-0.045189523467751805
90	0x3fb226a96b9bb6d7	0.07090243222384217
91	0x3fd39ad7886a4732	0.3063258011035145
92	0xbfc70d55e3fd5245	-0.18009446747113791
93	0x3fc3c0933847794f	0.15431442497260625
94	0xbfc3616cefab1086	-0.15141069128560875
95	0xbfc8ff9003fa7001	-0.19529915041209736
96	0xbfd05a46cb0bdfd5	-0.25551004246471837
97	0xbfa5a8bf2a1534e3	-0.04230306042391321
98	0x3fb2118d5e598382	0.07058032563646857
99	0x3fb73e07ec5cd453	0.09079026718684817
100	0xbf91c16688ff3341	-0.01733932696497509
101	0x3fa94e37211a2333	0.0494248607547604
102	0x3fb8f40bd628cfa9	0.09747385004521782
103	0x3fc1fc08724350b2	0.14050393656964882
104	0x3fa2587e504454da	0.03583140115567014
105	0x3fc589cfa604d099	0.16826816183459384
106	0x3f9b29c23b82f7cc	0.02652648437719289
107	0x3fc03dbb715f0198	0.12688391719531178
108	0xbfc439fabdb2a1de	-0.15801939261042625
109	0x3fc069eff139a9bc	0.1282329490525863
110	0xbfba80ad4927e341	-0.10352595363646079
111	0xbfaef9ebdbcdeaa7	-0.06050049837263787
112	0xbfbc555b239fcc62	-0.11067742938739536
113	0xbfc67fa697f50406	-0.1757705919244758
114	0xbfb1012ffe18169e	-0.06642436936825866
115	0xbfc2d53ee6c25893	-0.14713274257218653
116	0xbfc4340ad27913a3	-0.1578382041645031
117	0xbfc40bc03729a4d9	-0.15660860723008943
118	0xbfabf1750057f58f	-0.05457654599374983
119	0x3fb67ca31f74975a	0.08783931272463744
120	0xbfd5dd0bce522cf7	-0.34161658428702374
121	0xbfc1efa3f0dbf6a7	-0.14012574444489198
122	0xbfc016cc32805e42	-0.1256957289303831
123	0x3fa5ce013851d79a	0.04258731663223543
124	0x3fbdb61372391ec7	0.11605950869226965
125	0xbfd73c4730d2917b	-0.36305408256364274
126	0x3fc7bce3b07399fa	0.18545194736289244
127	0xbfbba4a218557eb4	-0.10798085302439625
128	0x3f9dda9671a25aa6	0.029154158292466058
129	0x3f9edee022bf57ff	0.03014707767564317
130	0xbfbfb218c4c01b08	-0.12381129077412478
131	0x3fbd92b6923740a7	0.115519915292
132	0x3f97353e9f654479	0.022664049605115786
133	0x3f74ec31e446d74c	0.0051080654997600165
134	0xbfbd9bbfe68226e1	-0.11565780046126008
135	0x3f7e5ad2c0c1f1ad	0.007410834554431406
136	0xbfc9cc6dc1fdb75d	-0.20155117008419668
137	0xbfc75c6c082582d9	-0.18250799558429412
138	0xbfb79c64e3151aa6	-0.09223013442997771
139	0xbfbfd669eced6781	-0.12436544451102628
140	0x3fc0a4d9eb37d449	0.13003086076028783
141	0xbfb19636aeaf4518	-0.06869832768213191
142	0xbfca5d662b3d73cc	-0.20597531424837567
143	0x3fa71997f103ac01	0.045117138071724135
144	0xbfce13eb9362b04e	-0.23498291679914235
145	0xbfc49acd4f80c98e	-0.16097418195711238
146	0xbfc87f282e0058b9	-0.19138052221450666
147	0x3fc1b3d6d030d655	0.13830075421872104
148	0xbfb803654cea6dc0	-0.0938018143446504
149	0xbfcb25e6529625f4	-0.21209410698456532
150	0xbfb2ec271ed032ca	-0.07391590597417089
151	0x3f89ff969646b243	0.012694527112068537
152	0x3f994f6e9578b62a	0.02471707141210381
153	0xbfbf8dd8ca7924eb	-0.12325816100305402
154	0xbfc934653c207dad	-0.1969114821995225
155	0x3f62e9c710cdc5c0	0.002308739471509752
156	0xbfb21a4e8bb834fd	-0.07071391020891223
157	0x3fad985f35426f5b	0.05780313038960002
158	0x3fc166f397ce27dd	0.13595433151596029
159	0xbfba63f40278913b	-0.10308766422582931
160	0xbfc29dc4c8e51187	-0.14543971833530753
161	0xbfb8ddaab860db2e	-0.09713236810135292
162	0xbfc7e98f7139cbf4	-0.1868151953563878
163	0x3fb645494837b7bf	0.08699472439886245
164	0x3fb2d9594debece9	0.07362898018248
165	0xbfbe06baa4e4b614	-0.11729017759054045
166	0xbfb6b9355b1989a7	-0.08876355623355058
167	0x3fa2487e3fcada92	0.03570932892528335
168	0xbfbe40e7d1c117c1	-0.11817788001016451
169	0xbf97af8df7e56da1	-0.023130625014670895
170	0x3fd533b786431927	0.3312815486100526
171	0xbfca187f2feefc71	-0.20387258377556663
172	0xbfbe42f8efaf4968	-0.1182094178359755
173	0xbf696ea8cabb1749	-0.0031045242993482975
174	0xbfd05036de5a845a	-0.25489589418618197
175	0x3fcab7e183f8e68f	0.20873660034140015
176	0x3fa21781c2be9551	0.03533559324504643
177	0x3fb99e4e61439cc5	0.10007181048023302
178	0xbf9dcd9848e69d2c	-0.029104594659341718
179	0x3fa06028824fe1c7	0.03198362913821345
180	0x3fa93667515a49e0	0.04924319141459299
181	0xbfaf4a845491e447	-0.06111539394709858
182	0xbfaf68071b29859a	-0.06134054380960237
183	0x3f51d343d8a546d0	0.0010879671632050732
184	0xbfb410b0cef8bbe7	-0.07837967923181531
185	0x3f7937906ef086b2	0.006156505768588326
186	0x3fbc7553fc427a0e	0.11116528423961133
187	0xbfcde4be22d95a51	-0.23354317380536085
188	0xbfc03eb98345cab1	-0.126914204690896
189	0x3fc053676a372aa2	0.12754528700164253
190	0xbfbd53a46aea17cd	-0.11455752954688521
191	0xbfb536f447f85f4b	-0.08286978489956913
192	0xbfc5350812bd215b	-0.16568089404087058
193	0x3fcb29dc30665aa1	0.21221496928474884
194	0xbf5aebef045f2491	-0.0016431650305881766
195	0xbfbf1cb998aeb2ad	-0.12153205850217814
196	0xbfb3858bccdcd1ff	-0.07625650168922248
197	0x3fb9f7af1ad659ef	0.1014356079598213
198	0xbfb1c03549d895ca	-0.0693391137397931
199	0x3fa084f9db730317	0.03226452640365645
200	0xbfaa745321c64ddd	-0.05166873729026709
201	0x3fbfcd0b67c20137	0.12422248156690761
202	0xbfd4a3168458f9b0	-0.3224540989357605
203	0xbf80ab0c63d1261c	-0.008138748928234789
204	0xbfb9c58503ca019b	-0.10067015974528319
205	0x3f9cf4ee917c3efc	0.028278091077537745
206	0xbfaf6d6680f8d862	-0.061381533855112705
207	0x3fbe45f2f036ac03	0.11825483669842644
208	0x3fbd23b6fc633eaa	0.11382621442612142
209	0xbfc4cce897a4ee7c	-0.16250331310753896
210	0x3fb374c53b19aa77	0.07600052540662171
211	0xbfba3621d056af40	-0.10238849007026563
212	0x3fb6b46678279354	0.08869018968068804
213	0xbfccfb3a886a9bef	-0.22641688977202487
214	0xbfc7e90645e67ec5	-0.18679884350875944
215	0xbfc7c823a50c46f9	-0.18579526480657885
216	0xbfc0747a81dfe78a	-0.12855464307341108
217	0x3fb8ae4ba4691127	0.0964095379250166
218	0xbfbca16c2492784a	-0.11183811085581499
219	0xbf95f532dc087e5d	-0.02144317119575444
220	0xbf9c626678508c70	-0.02771911725370696
221	0x3fa29e5615e65239	0.03636425988512255
222	0xbfc41e8618a11b3b	-0.15718151285747148
223	0x3f9898ecd9a87614	0.024020863327782818
224	0xbfce18f85b7d07bf	-0.23513702838141445
225	0xbfca48b7a869fee9	-0.2053441593488892
226	0xbfad1dd4f7aee293	-0.05686822436786545
227	0x3f96263a8717655e	0.021630205626796843
228	0xbf85eb0c0e17ad24	-0.010702222995823414
229	0xbfbee5127374aea3	-0.1206828624605643
230	0xbfb530ad4df0c785	-0.08277400162549327
231	0x3f6d2bb6cc386806	0.0035608835476184124
232	0xbfa3294955566d09	-0.037424365679919865
233	0xbfbe189e5824e159	-0.11756314899401356
234	0x3fba99efb107fc56	0.10391138145495069
235	0xbfb343c2f0f1e7cd	-0.07525270826764015
236	0x3fc0164b380474b5	0.1256803535006036
237	0x3fc8a5f77a87bb6e	0.19256490214271643
238	0x3fc5550c09d6947b	0.16665792923336994
239	0x3fc4b014facd3bb5	0.16162359472442991
240	0xbfc85fbb35fe69b1	-0.19042148720184351
241	0xbf6368aca1443024	-0.0023692485502859895
242	0x3f5d81d03cf5b671	0.001800969464820137
243	0x3fc284fbd3164c37	0.14468334013926817
244	0xbfc5ef8c4aa0d77f	-0.17137292522391687
245	0x3fcab255c681d2b6	0.20856735413294353
246	0xbfca507ffde74584	-0.20558166406275913
247	0xbf75b8102a3e8a11	-0.005302489418598914
248	0x3fb4bc1c295c937d	0.0809953309040576
249	0x3fc2336b13d15f5f	0.14219416110676783
250	0xbfc839bc39dfc9bf	-0.18926194024932205
251	0x3fca9e16ed413dbb	0.20794951042851814
252	0x3fc0a426eb1c719c	0.1300095222476444
253	0xbfc624b95923fb98	-0.17299572804037378
254	0xbfa374757b2750ad	-0.0379978859743074
255	0xbf8d46938436631d	-0.014294769737533347

model.sequential_layers.1.Linear 1.weight f8 [128, 257]
0	0xbfa757bb481c3a98	-0.04559121375324543
1	0xbfbcbd24722f4ecb	-0.11226108348574397
2	0xbfaef1cdfe90e8ed	-0.06043857319350985
3	0xbfbdae0ffe272b16	-0.11593723254115348
4	0xbfa864d9669d91a1	-0.04764441850309998
5	0xbfb67a469768deec	-0.0878032798435659
6	0x3fa38118facd616d	0.03809431134749528
7	0xbfbb31d15298941b	-0.10622890726570271
8	0xbfc18a25aa34cbfa	-0.137028415783419
9	0x3facafb0cf82e2bf	0.05602791340920054
10	0x3fc2e49493e19e48	0.14760071964996002
11	0x3f8a62c71ef85c84	0.012883716232904747
12	0xbfba2c8e82dc7067	-0.10224238104677995
13	0xbfc38b1d35a9639d	-0.1526829254169372
14	0xbfbb94f1a3eb384d	-0.10774145366596706
15	0x3fb50352ee8ee1ad	0.08208196949170228
16	0x3fb2293f400a1966	0.07094188035452972
17	0xbf7d6ee35b4af787	-0.007185829269188099
18	0xbfb77485e729c98b	-0.09162175077088912
19	0x3fa9d6973ce5a337	0.05046532266971442
20	0xbfa4b7581a36f06e	-0.04046130485537068
21	0x3fb4b4849f4a4e14	0.08087948693201269
22	0x3f832edd172abf54	0.00936672903966921
23	0xbf916454bf34d704	-0.01698429505378042
24	0xbfc0abcf5784b5d5	-0.1302432229362426
25	0xbfbbbd4d50d37426	-0.10835726950922772
26	0xbfae91567e608529	-0.05970258991897943
27	0x3fb4b3889fc06644	0.0808644666689356
28	0xbfaee46e2ad16433	-0.06033653519325135
29	0xbf47fe2d4df5fd6f	-0.0007322045529888753
30	0x3f9e2d240a83bb07	0.029469073430784778
31	0xbfb1aa6202fd88e3	-0.06900608609206275
32	0x3f92c8a8a2661425	0.01834357730105664
33	0x3f97d64d86acc4f5	0.023278437943365444
34	0xbfb89ef419a6ee0c	-0.09617543817778812
35	0xbfc2fbfd593384ab	-0.14831511359719704
36	0xbfc60d7a07030948	-0.17228627531410212
37	0x3f9958e5e406b2a4	0.024753181498157986
38	0x3f86bf3dcc93823f	0.011106951528234819
39	0xbfc6f7b8adf65d62	-0.17943485731368997
40	0xbfd017d6ed2e52c7	-0.2514550510616513
41	0xbfb1513340eb1a1b	-0.06764526686593124
42	0xbfc04e9a2e6b08a4	-0.1273987509394533
43	0x3fb86aa7e6b3174a	0.09537743933023282
44	0xbfb2db616f18299a	-0.07365998232140783
45	0x3fb3419d7eede155	0.07521995877130412
46	0xbfc353472fb55aff	-0.15097894505989726
47	0xbfa19c0cee55de99	-0.034393695920639185
48	0x3fbe8899b77663e0	0.11927185753883363
49	0xbfa4cc6ee9389be2	-0.04062220189035039
50	0xbf98b50821778c1c	-0.024128081362402395
51	0x3fa5aad478ca8c35	0.04231895422460533
52	0xbfb642ef2afb043b	-0.08695883559541155
53	0x3fabfb4b4afd2127	0.05465159693136661
54	0xbfb2f6c4dcdf77e3	-0.07407789604573582
55	0x3fa9cf7cacdadcbf	0.050411125278907225
56	0x3f7a5f2ef971dbd5	0.006438430303311334
57	0xbf9f374363b39c1b	-0.03048425003080633
58	0x3fa36249a0350c03	0.03785924988417124
59	0x3f90b0905be7e191	0.01629853783558272
60	0x3fafedad9b19b5d1	0.06236021536174586
61	0xbfba5e8737cc0065	-0.1030048857901434
62	0xbfb18d2225bf834a	-0.0685597746046486
63	0xbfa5be9a3965f5e2	-0.04246980620062481
64	0x3fa1d40a3f236fd1	0.034820862014128935
65	0x3f9ffa6de4f9df72	0.031228749371137572
66	0xbf8650b3d283e225	-0.01089611517134965
67	0x3fbf7b95233bb355	0.12297947035012886
68	0xbfbb9f7c6fb321fb	-0.10790231444401137
69	0x3fb31b653f760c5d	0.07463677214950466
70	0x3f9bdde6d8680afc	0.027213675459289086
71	0xbfb891b7b5c8b283	-0.09597347438893604
72	0xbfb5d3b1db9f7659	-0.08526145564925382
73	0xbf9121ad50c2605b	-0.016730030111461108
74	0x3fb1e785fd3bee86	0.06993901665185306
75	0x3f98f7298d7c618c	0.024380349407779486
76	0xbfc57d3224c68656	-0.1678831748550233
77	0xbfaba2105a662a3a	-0.05397082427505891
78	0xbfb09249087be738	-0.06473213631752806
79	0xbfc45a3e9d6918ac	-0.15900404630719345
80	0x3f70370abbd7e664	0.003958742073785968
81	0xbfc04b6e39d70117	-0.12730195831500943
82	0xbf66c1af1b49fce9	-0.0027779026079880376
83	0xbfb19e0b747e8a5f	-0.06881782144641012
84	0xbfc21f01cab7e1c8	-0.14157125852922392
85	0xbfb7144d89d43031	-0.09015354742967997
86	0xbfc3075015666f2e	-0.148660669755253
87	0xbf99423a43aac53a	-0.02466670072562247
88	0xbfbaa7fd1f9a5423	-0.10412580510667672
89	0x3fb8a61702d9609d	0.09628433055456971
90	0x3fbf653861b86854	0.12263824830771003
91	0xbfc677a4802696de	-0.17552620179519968
92	0xbfa5b570308c1747	-0.0423998889219051
93	0x3fc2d4f5bdd31770	0.14712402123239654
94	0xbfc9d91613acd239	-0.20193744621941948
95	0xbfa678b9190d4981	-0.043889793689817054
96	0x3f7d76bdbfe4482a	0.0071933185665944786
97	0x3fbec71705cce305	0.120225371280764
98	0xbfbb662e4f728d7c	-0.10702790679584057
99	0xbfc775cf864e7ad5	-0.18328279550492846
100	0xbfc3b7b1c0091fc2	-0.1540434062646892
101	0xbfaed18d5bd8b0b7	-0.06019250627682154
102	0xbfc4f78253cf07fb	-0.16380337803099096
103	0xbfbfa87be70abb1f	-0.12366461172744579
104	0x3fc0f37e814e830b	0.13243085206797675
105	0x3fa40d624a8150c9	0.03916461143003997
106	0xbf8de017f362be64	-0.01458758079056039
107	0xbf76b2655edcc779	-0.005541225413070333
108	0xbfc8d6d3ed86025b	-0.19405602548433162
109	0x3fbfec561e9372c0	0.12469995733722339
110	0x3fb602756479ef70	0.0859750147155276
111	0x3fb83bd5e0502f53	0.09466301657101654
112	0xbf817086ddafe85c	-0.008515409126619904
113	0x3fb26643bdf3c2a3	0.0718729342222653
114	0x3fb49087a2cbdf00	0.08033035015602863
115	0xbf7c6527d422d26d	-0.0069324069792641
116	0x3f95bfa6f97b4ab4	0.021238907792233433
117	0xbf7d40a70cf2a128	-0.007141735593144717
118	0xbfb6c5ff145a3ce5	-0.08895868536841396
119	0xbfb87ea271bd3fd7	-0.09568228985631265
120	0x3f80fd5e8e123d0c	0.008295763693495072
121	0xbfc3c033d2040a80	-0.154303052469988
122	0x3f9d4816016bdbf6	0.028595298611403273
123	0x3fa3c93c2c3a4fd3	0.038644676588915815
124	0x3fa0c11239ba5ff2	0.03272301630676101
125	0xbfb977496c67df7c	-0.09947642227768755
126	0x3f716a62f57b94f6	0.004251848753232359
127	0x3f93fc033673adde	0.01951603908393717
128	0xbfbec88c85e7962a	-0.12024763363987093
129	0x3fb36d566f0f979d	0.07588710986564569
130	0x3fa23a299a0b49ca	0.03559999471112325
131	0xbfc0f1ecb633cad8	-0.13238295456502303
132	0x3fa2aedcb3ad3329	0.03649034207646757
133	0x3fa1d0be8c918059	0.034795717868065075
134	0x3fb30f597e0b28d9	0.07445296599613317
135	0xbf9ca20bd7a42f06	-0.027961907421782527
136	0xbfb3a7ff7f087018	-0.07678219653502116
137	0xbfc65dd030b0ecba	-0.17473795297141753
138	0xbfbb403f8ef455b9	-0.1064491008767935
139	0x3f8465090909ac63	0.009958334530173646
140	0x3f95d87395ea9c94	0.021333509469198278
141	0xbfbe9ccd2fe1e9ee	-0.1195801011944366
142	0xbfa093f60532bab0	-0.03237885297254672
143	0x3fa4bda3e28c7939	0.04050933971869814
144	0x3fb42ce41f746807	0.07880998390137971
145	0xbfc4e4cfadf4eec9	-0.1632327651403698
146	0xbfb76265223ab93c	-0.09134513936689798
147	0xbfa4a8a4eb85bb86	-0.04034915328053672
148	0xbfba4b965d1bf8f0	-0.10271587155509443
149	0xbfbf89f888df97f4	-0.1231990179217915
150	0x3fa7c8206db873f6	0.046448720353715986
151	0xbfabb2435987bd95	-0.054094414404853776
152	0xbfc4026876c6ea50	-0.15632348823221998
153	0x3f914d8f9d3e7888	0.01689743420831083
154	0x3fc0cfc6bdb3140f	0.13134083044693098
155	0xbf9ea12fa4f1e399	-0.02991175121539733
156	0x3f8ce4be827aca5f	0.01410816989605229
157	0x3f92d83a4fe381fc	0.01840296852685873
158	0xbf993910e32c30c4	-0.024631751885906508
159	0xbfa5a3409a6607ab	-0.042261141631583975
160	0xbfa059dce7c773f4	-0.03193559960684658
161	0xbfc5c58d60e268a3	-0.17009131651577034
162	0x3fab1f31dec16978	0.05297237247642078
163	0xbfbe658aff30cb87	-0.11873692255248446
164	0xbfca683fa6ec70f3	-0.20630641604009944
165	0x3faaa44847cef248	0.052034624829933096
166	0xbfa3b864b0296b14	-0.03851618433392026
167	0xbfb294cf9ba1a141	-0.07258317517846981
168	0xbfb836311f8de8a1	-0.09457690258378416
169	0x3fb72506984f2ecf	0.09040871828545537
170	0xbfa9d7b1ff618da7	-0.050473749565550556
171	0x3f3a750b2fcae9be	0.00040370486366794387
172	0xbf9a169b2f141004	-0.025476860760150558
173	0xbfba1792f2fb5270	-0.10192221100016652
174	0xbfbea6c808914aaa	-0.11973238190811722
175	0xbfa06482bd2ef106	-0.03201683577887775
176	0x3f8652390dbeb0b3	0.010899015171013415
177	0x3fa8bd0613b8e186	0.048317136676305814
178	0xbfc34b9b0936b076	-0.15074480008968622
179	0x3f9b270b8d51e5f8	0.026516132832034217
180	0x3f83d5d00aff1453	0.009685159049590697
181	0xbfb6fcd76385c3d0	-0.08979555301426889
182	0x3fb3a8548af51d50	0.0767872657062203
183	0xbfa90df8c7f3e75c	-0.048934721382422025
184	0xbfb923b11bf34cb5	-0.09820086414701985
185	0xbf909c099cf9b8af	-0.016220236021063424
186	0x3fb617d7c1cd45c5	0.08630131227007272
187	0xbfc3ff8928f35f51	-0.15623583316368664
188	0xbfc1e430f39c0ce2	-0.13977634329794514
189	0xbfb8b9493ca2bcd1	-0.09657724123347868
190	0xbf8ece6f97dfdc9f	-0.015042182752934173
191	0xbf9818621e6aae72	-0.023530514818658373
192	0xbfc0185684234d99	-0.12574273540540729
193	0xbfc9eed3738b3122	-0.2026008905580819
194	0x3f82587e11b16c55	0.00895784846777851
195	0xbf88da4657fc42bd	-0.01213507610330688
196	0x3fbac521f5d9a729	0.104570505640052
197	0x3fa08761d31fcc3b	0.032282883665083216
198	0x3fb38dc2325ec499	0.07638181428662207
199	0xbfc01aba5fb4fc28	-0.1258156745261385
200	0xbfc3e9042c38c640	-0.1555485931326519
201	0xbfa63828a1729ca2	-0.043397206981631756
202	0x3f9a88b29adade55	0.025912085248562217
203	0xbfa2841739c0bf09	-0.0361640222548641
204	0x3fb1caa1396540f1	0.06949813510187021
205	0xbfb7cda6bed0a04e	-0.09298174055641192
206	0x3fb3dbd9667f4fb3	0.07757338287711839
207	0x3fb1478b04b5e660	0.06749791016582085
208	0xbfc05329944149fb	-0.12753791560187708
209	0x3f8903a95ac48db3	0.012214015085709606
210	0xbfc65bac3f85dfc7	-0.17467263318735446
211	0xbfc247ddb95d69bf	-0.14281817961712126
212	0xbf746ebfa27a9182	-0.004988430569629167
213	0xbfc8f4fb85dcc027	-0.19497627292867145
214	0xbfa999c1944ca3a1	-0.05000119147582117
215	0x3fb4d9e5e1e053ae	0.08144985928113499
216	0x3fb6ffc6cd7058d2	0.08984034076306394
217	0xbfacb84b67660d50	-0.0560935558051151
218	0xbf98ae9c151236a0	-0.024103583131867112
219	0xbfaec6645aa53bd2	-0.06010736090194481
220	0x3f812cace1ac7a72	0.008385992657676786
221	0xbfcd51c27776acd9	-0.22905760605985995
222	0xbf9d5cc84faec5a9	-0.02867424951882006
223	0x3f88a113903e7204	0.012025978888964957
224	0x3fb32b0dc650f5c5	0.07487569896416975
225	0x3fa001f4420cb5a0	0.03126490885038469
226	0x3fc763947c2307e5	0.18272644101494886
227	0xbfa4edd4d3e88932	-0.04087700926563044
228	0xbfc088ffae3be7e4	-0.1291808701278675
229	0xbf966caac5948762	-0.021898907002771202
230	0x3fc1369c0f1ba8e8	0.1344790529031521
231	0xbf962fa6ac8ee9d3	-0.02166614940845497
232	0xbfbc3ebf9370523c	-0.11033246373728728
233	0x3fb06d5b6e4b9d96	0.06416865771062982
234	0xbf822bdc7126baa6	-0.00887272091207809
235	0xbfc9b1f4b4d8c3a5	-0.20074328260809896
236	0x3fb08ea399f8a3a6	0.06467649945319795
237	0xbf5c075d6fe01e55	-0.001710740325053713
238	0xbfb35cc3a7e3f0f9	-0.0756342205895101
239	0xbfbbf6072a9bf0f5	-0.10922283926260319
240	0xbfc6aef260d98715	-0.1772139523409854
241	0x3f9aca62ace238fd	0.02616266422460799
242	0xbfa06cf5e624a86e	-0.0320813029705541
243	0xbfa319ef4a045f03	-0.03730724123505349
244	0xbfb0f91b32727650	-0.06630105954760634
245	0xbfbcc5ff5d57bb18	-0.11239620236277081
246	0xbfb0fcdd25559923	-0.06635839616283028
247	0xbf9eb5c3dfd635ec	-0.029990253960525168
248	0xbfc27ec19cbc0d20	-0.1444932952218574
249	0xbfac4c14ff9973c6	-0.05526795978651182
250	0x3fb3b0e7ec88282a	0.07691812061980899
251	0xbfc20fe6a0449c61	-0.14111025643908007
252	0x3fb085e34d41aa90	0.06454296718735919
253	0x3fb1466c99a31484	0.06748083830741974
254	0xbfb1015787af2e6b	-0.06642672598462133
255	0xbf94dd6b4ad82837	-0.020375896876466206

model.sequential_layers.0.Linear 0.weight f8 [256, 31]
0	0x3f8af4164a4f2e5c	0.013160871641864684
1	0xbfaf7f7364ec08d7	-0.061519247121411595
2	0x3fa4132caf13ef51	0.03920879018002544
3	0x3fc156ccf2d45e52	0.13546144349014583
4	0x3fa557cb12b25681	0.041685434372237935
5	0xbfb751dd7cc16c02	-0.09109291358747387
6	0x3f9323d3ab3c87f3	0.01869135601658196
7	0x3f692791a101db3d	0.0030706257166984983
8	0x3fcc860e3a8432f5	0.22284105164762705
9	0xbfbe6b8fe50af63c	-0.11882876722207752
10	0x3fb5108ba850b691	0.0822837148595801
11	0xbfcd0de9816e4147	-0.22698706455094905
12	0xbf8a1411fa1db741	-0.012733593411862311
13	0xbf979bb3fe2b70b2	-0.023054897678648607
14	0x3f8484ba7a6abad1	0.010018784390323362
15	0x3fc08fa4aedbf6d8	0.12938364542053793
16	0x3fb4b8ca44bb4643	0.08094467332855353
17	0xbf9b122c3d90c8a8	-0.026436511285461123
18	0x3fb6717ea07943bb	0.08766929071249667
19	0x3fbc7c1fbdcd36f0	0.11126898177937128
20	0x3fa84c1fbfbea514	0.04745578017839072
21	0xbf9f005e4fd6b81f	-0.030274842856378933
22	0xbfb2fa990ef8cc58	-0.0741363202621853
23	0x3fc4fa78358a051e	0.16389372457710122
24	0x3f8b9d374213a67e	0.01348345919037119
25	0xbfaa4c43aa310076	-0.051363100552863125
26	0xbfa5cd68aeb538b0	-0.042582770659110536
27	0xbfbb8013b60bed15	-0.1074230498742746
28	0x3fc59fbf35c2cfbb	0.16893758893058738
29	0xbfa784828ee14c33	-0.04593284601346461
30	0xbfb91e1a5c2fbddb	-0.09811558485647913
31	0xbfba23888c51e230	-0.10210469651963971
32	0x3f8049053f0481ad	0.00795177553715195
33	0x3fa491fde18bf8d3	0.04017632845169463
34	0xbfc26bb4042703b1	-0.1439118404651061
35	0x3fd0fe2f27065052	0.2655141717052675
36	0xbfba1d41e6658164	-0.1020089328280896
37	0xbfb3d5abde6b7c8a	-0.07747911625073037
38	0xbf92b0808eb5ddcb	-0.01825142737422229
39	0x3f7b593b6e177c25	0.006676895283333405
40	0x3fc4c9eb1ed54fac	0.1624120617440189
41	0x3fd332e85f78cb77	0.299982159837945
42	0xbf957d6264156e2f	-0.020986115797638923
43	0x3fc40e490a957688	0.15668595330037172
44	0x3fbc38faae5ee5e5	0.1102444339475351
45	0x3fabac464259b663	0.05404872474614988
46	0xbfb7af7f03302193	-0.09252160861809093
47	0x3f9567e2ea0ca010	0.020904107604252486
48	0x3f84f15b99363a6b	0.010225978482393224
49	0xbfc6231247cd726b	-0.17294529443724413
50	0xbfc70a2ba13620b3	-0.1799978768506257
51	0x3fb616b34fcaafb2	0.08628388116875277
52	0x3fbb570aba3aaf1a	0.10679690405475775
53	0x3f9733510a8470e1	0.022656694666793768
54	0x3fc3db3d5dc32229	0.15512816503748297
55	0xbfb3b9101ba51883	-0.07704258608746
56	0x3fa29deee07a4b61	0.03636118402677969
57	0x3fc46fde5f322bca	0.15966395996323818
58	0x3fcc0b15304184b9	0.21908821922537472
59	0xbfbb501660dd5bf9	-0.10669078698025193
60	0xbf86f0090bcf4b98	-0.011200018570809253
61	0x3f954c9310600868	0.02079992091604091
62	0x3f7eac90d26cc74f	0.007488790236310396
63	0xbf890cf3c947b64b	-0.012231735782701444
64	0x3f9edd7ff8fb7034	0.0301418300358451
65	0x3fc311064fc3aade	0.14895705122702102
66	0xbfc08a446eb0c57e	-0.12921958355722646
67	0x3fd055875c2ff1e2	0.25522026064552794
68	0x3fc66f03cab3a3b7	0.17526290319008606
69	0xbfc065b05eb77f75	-0.12810330033152764
70	0x3fa687907e5275ee	0.044003024501971896
71	0x3fb0835f5b23900c	0.0645045850283738
72	0xbf910be776e5e45b	-0.016646973258933034
73	0xbf7adca4b346ce71	-0.006558078156036027
74	0xbfc5192e39e786d5	-0.1648309500442823
75	0x3fb3f598dc3a210c	0.07796626450192806
76	0x3fbcc185aa42dd30	0.11232791334883951
77	0x3fb58f59114262d5	0.08421856566782122
78	0x3fb9775b2598dbc4	0.09947747867486983
79	0x3f7bc6f87265ddb1	0.006781549926351203
80	0x3fa6da5050bb1006	0.04463435159189548
81	0xbfb9872a5f0a8ef6	-0.09971871204703206
82	0x3fbf3492b8e09b85	0.12189595235450497
83	0xbf9dc10f402f9797	-0.029056776325795033
84	0xbf73377129bebc09	-0.004691545527676596
85	0x3fa79be68712940a	0.04611130141100979
86	0xbf8064dc031007c9	-0.008004874080146511
87	0x3fc0ec2b90d08d92	0.13220734187153177
88	0xbfc2049c7544134d	-0.14076572156786896
89	0xbfc8611d6a371286	-0.19046371160779446
90	0xbf74c62477abdb2d	-0.005071775866545986
91	0xbfabd72f71e6baa8	-0.0543761087932258
92	0xbfd3a6352cfa316f	-0.30701951401058286
93	0x3fc63cdb480b7bc3	0.17373219507041257
94	0x3f6b11f72d099f44	0.0033044650702328832
95	0xbfa60c78a0789912	-0.043063897694354605
96	0x3fbf7f1d2664fac9	0.12303335368504088
97	0x3fb89a714b102a13	0.09610660631748429
98	0xbfab937eef6ed1b5	-0.05385967896237124
99	0xbfa609c39e38e0f6	-0.04304324442313316
100	0x3fc3050b6cc2676d	0.14859144983784792
101	0xbfb9017ddc486b30	-0.09767901065826545
102	0xbfbb8a72d4217922	-0.10758130721066952
103	0xbfc8a13955f56576	-0.19242016503521214
104	0xbfa477752dd62f9d	-0.039973890157028104
105	0x3f9d0745192aa350	0.02834804502586802
106	0xbfc326738f7609e4	-0.14961094384132345
107	0x3fb52020d619fab6	0.08252148844801863
108	0xbf93e6f04bf19a6a	-0.019435648570289045
109	0xbf73cb1bb74ad31a	-0.004832371011322301
110	0x3fa1e75e908c5ff4	0.03496833338266461
111	0xbfb420bb777728ca	-0.07862445513379437
112	0x3fc2ecf7075111cc	0.14785659653911265
113	0xbf7bf463407fdab0	-0.00682486315053292
114	0xbfbc61de7230d154	-0.11086836135729544
115	0xbfb97ae2deef98cb	-0.09953134482165919
116	0xbfaa1e17c5273da3	-0.05101084024101545
117	0x3fb3971b7beca629	0.07652446532724667
118	0x3fc98b333524a324	0.19956054777983312
119	0xbfc54334ed32c5dd	-0.1661134870715121
120	0xbfbe032a5c895a4c	-0.11723580130760886
121	0xbfac67c4158684be	-0.05547917139780044
122	0x3f93a9cf9da87df5	0.019202465055171165
123	0xbfd3ec273adab476	-0.3112886500119382
124	0xbf84a58af1f3aa22	-0.010081372746261034
125	0x3fd9e9a34fb0d399	0.4048851278524182
126	0xbf9af1b99ab96e15	-0.02631273276197817
127	0x3fbb7decdeacf693	0.10739021717469148
128	0x3f732c004a500d62	0.004680634626314047
129	0x3fc65f29314793bf	0.1747790804503477
130	0x3fb232b0fb636acd	0.07108598840151643
131	0xbfb21b527a085b9e	-0.07072940329849906
132	0x3fc9425d29085f7d	0.1973377657275214
133	0xbfb7caa09001cd5d	-0.09293559566304084
134	0x3fa38d7e5c22e1d2	0.038188885447599255
135	0xbfba9188f713538c	-0.10378318817249815
136	0x3fc6649e50e811d7	0.1749456305552843
137	0xbfc29c7b98ec1b1f	-0.14540047614010462
138	0x3f8743b90dfb4834	0.011359639872726125
139	0x3fc04f913ad077b2	0.1274282014064148
140	0xbfc3a0b78e550e68	-0.15334219407860705
141	0xbfc4bce0f42e29f0	-0.16201412127368497
142	0x3fb38e47f1f5af89	0.076389786312289
143	0x3fa836c838c905e9	0.04729295437983778
144	0xbfbd374e829fab83	-0.11412516297393265
145	0xbfa554f6bb6db1a3	-0.04166384733148056
146	0x3fa940e9fc622911	0.04932337957241562
147	0xbfcf8058105fb766	-0.24610424804216818
148	0x3fab54f56237dd41	0.053382557143715655
149	0xbfc5a0fe3b1a6406	-0.16897561918156628
150	0xbfc894056b9a37c9	-0.19201724771522624
151	0xbfd4e732bb4ada96	-0.32661121645234326
152	0xbf91668e0e395c0b	-0.01699277841393258
153	0x3fa20252eb9f9edb	0.03517398000968593
154	0xbfceb9e1a30115a3	-0.24004764994803648
155	0x3f9761bc9d793480	0.022833773719231676
156	0xbfbf42574fb56254	-0.12210603424080918
157	0xbfc21d7b14634ec3	-0.14152468200210508
158	0x3fad6484c42d15ac	0.05740752119758538
159	0xbfc08eadabac0e50	-0.1293541992418903
160	0x3fa431b7be489e1e	0.03944181630896203
161	0x3fb3ba4610e47348	0.07706106102382393
162	0xbfc6e86ca72e227c	-0.178968030577625
163	0xbfbb0ad1dd28bab5	-0.10563384675399841
164	0xbf7659951917f974	-0.005456526197575296
165	0xbf9b64d06daa009a	-0.02675176305137992
166	0xbfa02dc33dd95ea1	-0.03159914140695475
167	0xbf9c184941ba1f44	-0.027436394344959383
168	0x3f528fede7a8734d	0.0011329482355286358
169	0x3f61060593e78968	0.0020780667248214042
170	0x3fae1d61b0ab5ee4	0.058817913833704855
171	0x3fc1377b0c64dd89	0.13450563531089824
172	0x3f8267f05a830328	0.008987310182762068
173	0x3faa7436fefc136d	0.05166789877515652
174	0x3fbee21d5ff8fc87	0.12063773720818648
175	0x3fba6a2d95a3ac51	0.10318264869026562
176	0x3fa5e041298d0fb3	0.04272655136313066
177	0xbfa9bbffb93960fe	-0.05026244293248004
178	0x3fa40978317d2587	0.039134746590728624
179	0xbfc4a0fcca694673	-0.1611629474960413
180	0xbfc2b7ef13e6dd0f	-0.14623821708458037
181	0x3fb383625b47d432	0.07622351387529205
182	0x3fba932516570684	0.10380775256546754
183	0x3f739f030098257c	0.004790317275828012
184	0x3fb94ef5411d976f	0.09886105384575015
185	0xbfc8c724c7ade48a	-0.19357738256420404
186	0x3fb53a0ccefb722b	0.08291702321316367
187	0xbfd80d6bb25f50a3	-0.37581913394138605
188	0x3fc254225ec0c8e0	0.143192573801179
189	0xbfad1a8ae994325e	-0.056843129170464066
190	0xbfb509e15169e001	-0.08218200910221186
191	0x3fc2f19633899c8d	0.14799764172059718
192	0xbfc7249e12d8ff0a	-0.18080497665686607
193	0xbfa22d549dfe0d7c	-0.03550209454172212
194	0x3f538ea7a7abbe9f	0.0011936795478354812
195	0x3f861ccc11cbde4e	0.010797113698102791
196	0xbfc731841f80eadd	-0.18119861162434506
197	0xbfc57393693f04ab	-0.16758959425900363
198	0x3fb5ae45146a093b	0.0846903967704166
199	0xbfc8a8c3902c895e	-0.19265026607269936
200	0x3fbcc478c8aff182	0.11237292193977136
201	0x3fc0bfd9750c74a4	0.1308547803427348
202	0x3fa4d462548d4374	0.040682862111345225
203	0x3f6883a773d6b9c5	0.002992465072302527
204	0x3fb17d8f359af895	0.06832213457798482
205	0x3fc0cce125da334f	0.13125242565402082
206	0xbfb431e9af81541a	-0.07888660940928141
207	0xbfc2c69c085e1710	-0.1466860810143591
208	0x3fa161354771a528	0.033944764109785475
209	0xbfd2c280ed9da1a8	-0.29312155918753513
210	0x3fb1480424ac7a23	0.06750512976984928
211	0xbf8a702407d8ec45	-0.012909203996164584
212	0xbfa65c32ce15fb3d	-0.043672168404546664
213	0xbfd1185295d5d3ef	-0.2671095336184512
214	0x3f9a449b0eb1c6e7	0.0256523349493766
215	0xbfbdf4190149d6c4	-0.11700588494735614
216	0x3fca9c0d8d070957	0.20788735757930496
217	0x3fbb25f4a991f614	0.10604790820976745
218	0x3fc98093dd8c5ae4	0.1992363769320128
219	0xbf3546d80c6eff4c	-0.00032465719817408446
220	0x3f55056bd50c6263	0.0012830308007264694
221	0x3fb1bb9fe345945f	0.06926917360904515
222	0x3fbda919850d34cd	0.11586150644616851
223	0xbfbcb63754045ff4	-0.11215539742659059
224	0xbfc87f478df57cbe	-0.19138426238621337
225	0x3f8107ad9c683e9b	0.00831542619292174
226	0x3f99fc2d7161b4b2	0.025376043362872643
227	0xbf97e491e82a6987	-0.02333286265875636
228	0x3fb059bf3952dea5	0.06386943006043085
229	0xbfb18df56624c850	-0.06857236617796159
230	0xbfd0726417a311c0	-0.25698187168407216
231	0xbfad0d1a26b4928a	-0.05674058649518539
232	0x3fb2709988ba3dfa	0.07203063572000437
233	0xbfc12fd2e8314079	-0.1342719682456879
234	0xbfa00aeeb83531c8	-0.031333408342650027
235	0x3f8c094908a44316	0.013689585281583965
236	0x3fa8b85d0751897a	0.04828158106171805
237	0xbfc5e138d2287a77	-0.17093572866083992
238	0xbfc2956517e19640	-0.14518417039941944
239	0x3fb4c5af2d80188c	0.08114142285202969
240	0xbfbcc2063d3c94ed	-0.11233557696376169
241	0xbfcc9d382d3ee50a	-0.22354795655500254
242	0x3fbc7ea0ab6a5f71	0.11130718407582464
243	0x3fa8856990bcb5a1	0.04789285556612844
244	0xbfb25dd1f2b8bfa9	-0.07174408126661426
245	0xbfb5a1b812d058fe	-0.08449888667414382
246	0xbfa5411803befd7c	-0.041512251336366796
247	0xbfa12ae43d56c1a6	-0.03353036164060379
248	0x3f9bf3b46b0a9d40	0.027296847375194888
249	0xbf7fe853e17f11f0	-0.007789924296905046
250	0xbfa973a0db2d5b66	-0.04971029925825725
251	0xbfb055274ffd7ea7	-0.06379934027563171
252	0xbfc85200542de40e	-0.19000248060527308
253	0xbfbff8d0d36c065e	-0.12489037667912714
254	0xbfbade5d5f209793	-0.10495551655239259
255	0xbfafbf6f9659ce9b	-0.06200741491639158
