Data/Breast Cancer Winsconsin (Diagnostic)/results/models/model_17/bcw_state.pt (torch, 406575 bytes, 10 tensors)

linear_layers.0.weight f8 [256, 31]
0.0859511451733191 -0.10401609819041156 0.14163561309204392 -0.12759848400196763 -0.09050942571875394 -0.06208162650951482 0.07371104671492257 -0.3149822359896653
0.06551139594347401 -0.03973069420865821 -0.37111595689953725 0.08537546590234514 -0.08319535186532459 -0.32990345655850023 0.044679470364241705 0.17362144116680284
0.11893727057095907 -0.0017958477538640844 -0.02037120071002216 0.2291632282889848 -0.2246144268373905 -0.06878421689884952 -0.06861144756158845 -0.3639232375096535
-0.2251800589521025 -0.0715231753688352 0.014018565404319838 -0.25396428418461836 -0.155778571438338 -0.09516518970561781 0.22598797667320972 0.054440831075785255
0.216391173746341 0.036388223629009765 0.0058196117909452 -0.12713868184963623 -0.16959154590598552 0.05913833211686851 0.08817672729295373 -0.16115629465404865
0.03890153865209848 0.23434568768251007 -0.17663858330695287 0.07994830109590086 0.16663734711730369 -0.10211343739491283 -0.28622112769224595 -0.22427361723653164
-0.2124520514499597 -0.19012298560842456 -0.06821452680698693 0.3036001055205502 0.12638046397526317 0.3219889758893413 0.08657730854169494 0.23787960781922174
-0.20821019756432443 0.1269624961763323 0.31224068132308375 0.11745081618667279 0.06680441398566846 0.11968410887594433 -0.182910381593281 -0.1440962235592422
-0.2551345381323725 -0.03190525346124989 0.10783714151707537 -0.1973401133218553 -0.15152462107403067 -0.05840285785240305 0.20007768088256533 0.013922105088627592
0.060351760791253 -0.060817952796021556 0.04098290842277704 -0.08745945476273653 -0.06628980090587468 0.08084062928336627 0.0456130024305094 -0.03012038027216815
-0.12120601888692657 0.14507601315755067 -0.12777843800231464 -0.04373677098654482 -0.18839997698686342 -0.2409609668829241 0.19934706369610486 -0.016441355169467722
-0.06949576717498368 -0.10262772351009118 0.14255744903698284 0.021588359592505817 -0.16653229220349017 -0.11119760579046406 0.175852961844141 -0.00757601920371753
-0.13138950775364555 0.23076426505594147 0.2374399919055215 0.16561487812833234 -0.038812223751067715 -0.10213904860935313 -0.18631530136695099 0.0802482658396614
-0.06234862224986431 -0.08885845854112866 0.11788749894886319 -0.011765325114205997 -0.06713963180291031 -0.020344706407801665 -0.07085016839437758 0.06159992943673753
-0.0008202577399173844 0.06162371699578089 0.022422252688257913 -0.15832150193642025 -0.12435700175581882 0.20554371589835813 0.16604830082178246 -0.15121190387874378
0.05898382096817311 -0.11970058822231124 -0.07243104020984822 -0.17114177077954731 -0.004382713731884327 0.14140539768117075 -0.1704034091346647 -0.1278626549678591
0.0005850344104331002 -0.03795741039393122 0.038088821084157606 -0.21946236293580473 0.08267887938347106 0.12821169846616667 -0.1299828523011546 0.00452083641849904
-0.39817784395794525 -0.4125228676462576 -0.052167764743785115 -0.08298581163713259 0.005461973712833568 0.05955761869776374 0.12280853295654982 0.21597818450759648
-0.2089027706824735 -0.01562096519667899 -0.11644305073335079 -0.18627273408867673 0.1926289609190215 -0.09910998732316058 -0.18429337698101528 -0.006922689409882221
0.01753365538244083 -0.02690757383973088 -0.05136335248639243 0.031775340040570116 0.07225500205204886 0.09377683612081525 -0.08790644187542183 0.22470857410959277
0.11559318660263673 0.20757276610905218 0.3124377909056309 0.10399821215698483 0.09279352036774671 0.08982537900052051 -0.009959869484170046 0.08000097879593097
-0.0862771117058975 -0.24376874991850267 -0.049791880787461794 -0.06789252194012971 -0.02724519570485285 -0.178331930441199 -0.09890358204936102 0.13128485528653736
0.19328661717419723 -0.0773340536357385 0.05790556359163035 0.3941181575051777 0.19489013280522513 0.0994755201460556 0.27093725129351054 0.24027348905504928
-0.008952444668443428 0.004681804767962798 0.06730986863629299 -0.2648494513917618 -0.034229004589776124 -0.1207200555011934 0.25940690315316417 -0.004302347710865737
0.20147200087033817 -0.09998693849616315 0.36232968110522623 -0.16740865951484807 -0.1668611165396126 -0.07166170716012815 -0.12557451630902533 -0.2329323207761387
0.07735947524814527 -0.0956687381833028 0.19310909634750473 0.033777734436820944 0.006798783094810163 0.027078730886591074 -0.2056155514764839 -0.26224247667158923
-0.08435402549338189 -0.02615011707185356 -0.10680301048419133 -0.18415820344924508 0.22047777876505423 -0.016493710551283704 0.06687032382218454 -0.1695912906995613
-0.16047907769780748 0.09947248637187861 0.041428220868107754 0.11784431105044685 -0.11885429501376181 0.04985625265111266 0.028660453503366844 0.010619069752773545
0.04499726194099087 0.10052779386540578 -0.03472968526844668 -0.13536227431234182 -0.02258782290432707 -0.04346711592537614 -0.05881922684003253 -0.0006292908839009687
0.17736717328058277 0.216804818376371 0.08582607552822523 0.04597795496680677 0.2986665988369143 -0.2211210292957393 -0.15320721893780193 -0.06041821478859946
-0.2480337062326071 -0.22011493160155815 0.19079418321790265 -0.04707283117675463 0.026831542631864012 0.17834850025942436 0.12826509998353305 -0.07133414348005426
-0.07769581454379601 -0.18400558386289292 -0.20001504381568055 -0.06478143787325732 -0.12039783955256969 -0.11530338149504811 0.023200107905377843 -0.19961012910876025
00000000: 35ba 92ed e400 b63f 673f fc8b cca0 babf
00000010: 46f1 16a3 1d21 c23f 6d60 e7a9 2555 c0bf
00000020: 1d19 712f a02b b7bf a8ea 14b7 29c9 afbf
00000030: e898 fe26 bade b23f 5961 9940 ab28 d4bf
00000040: e9af 17d7 5ac5 b03f 8810 8ce0 9457 a4bf
00000050: 8410 7a24 5dc0 d7bf 016c eea1 2adb b53f
00000060: 12d7 7063 4a4c b5bf 3164 3063 231d d5bf
00000070: c2b6 0840 3ae0 a63f 2e10 d935 3a39 c63f
00000080: b2b5 6047 ac72 be3f bbb1 c5d7 546c 5dbf
00000090: 59b6 5123 30dc 94bf 5f36 797d 3855 cd3f
000000a0: ebf9 bc60 2ac0 ccbf 61c0 0faa d79b b1bf
000000b0: 8182 6813 8590 b1bf 10f0 d6b0 844a d7bf
000000c0: 998f 743e b3d2 ccbf 0e7f 1dc3 574f b2bf
000000d0: e04d 96ff c3b5 8c3f f832 bb69 f340 d0bf
000000e0: ba64 df5e 8df0 c3bf efd5 80f1 be5c b8bf
000000f0: fde1 8c8c 2ced cc3f d33a 132a abdf ab3f
00000100: 6d19 31bb b4b2 cb3f 556b e42c 7aa1 a23f
00000110: bf95 1425 4ed6 773f eee4 4c90 1446 c0bf
00000120: b611 acff 2cb5 c5bf 358d c324 6147 ae3f
00000130: 04d6 fdff bf92 b63f fbb5 8afb c4a0 c4bf
00000140: 35b8 8c08 e7ea a33f 980a 471c 0aff cd3f
00000150: eaef 41d5 179c c6bf 35e1 93ea 7d77 b43f
00000160: 479c 1462 5f54 c53f 1ee2 1732 1b24 babf
00000170: 2832 b76b 7251 d2bf a979 b175 ffb4 ccbf
00000180: 400c 79fa a031 cbbf d8f9 b332 f355 c8bf
00000190: 1185 bfd9 8176 b1bf 6577 1123 2f6e d33f
000001a0: 8d43 d02b 3c2d c03f 1481 47a6 779b d43f
000001b0: dd24 c334 ee29 b63f b603 fcc7 d672 ce3f
000001c0: a7c1 9dba a1a6 cabf f1ab 729c 4e40 c03f
000001d0: 97db b056 c0fb d33f 4307 69b6 4111 be3f
000001e0: 0d01 4c15 181a b13f 0c1c 7925 9ea3 be3f
000001f0: fc60 857d 9b69 c7bf 97ff d4bb be71 c2bf
00000200: 62f3 56d0 1f54 d0bf c791 5fa8 e255 a0bf
00000210: 8126 1c04 379b bb3f b801 74da 7042 c9bf
00000220: e19f 06a6 2865 c3bf ce21 f0b8 fae6 adbf
00000230: 126b 063c 259c c93f 0e86 6050 3183 8c3f
00000240: 0a7a b50d 6de6 ae3f e383 89dc 8723 afbf
00000250: 3bd8 bd36 b6fb a43f f093 ee29 be63 b6bf
00000260: 19f7 f24e 5ef8 b0bf 4cca f5b2 f8b1 b43f
00000270: 753d 6c63 965a a73f 8822 d980 e0d7 9ebf
00000280: fd9c 328f 5b07 bfbf 330e f9cd d991 c23f
00000290: c24c 2d3a 0b5b c0bf ff29 0a82 aa64 a6bf
000002a0: c1e4 dc8d 7d1d c8bf 1bf6 2f18 cfd7 cebf
000002b0: 636f 905f 3484 c93f 34e6 04ab 00d6 90bf
000002c0: b41b 3a7f 79ca b1bf 8f86 237c cf45 babf
000002d0: a31f b58e 523f c23f 5e47 b249 421b 963f
000002e0: c7f6 5e1e ee50 c5bf 9477 4340 7277 bcbf
000002f0: bc3d 0390 5982 c63f fddd 6b2b 0808 7fbf
00000300: f872 6b13 5fd1 c0bf 6318 c0f5 ae89 cd3f
00000310: 8294 ff03 6f64 ce3f 3d67 a54a de32 c53f
00000320: 1c49 641f 32df a3bf 3cf6 6be1 c825 babf
00000330: b1c6 0e07 2ed9 c7bf 3991 577d 268b b43f
00000340: 1714 079b 28ec afbf fb38 688d 6dbf b6bf
00000350: c0b4 9708 e02d be3f 6f13 bd34 6b18 88bf
00000360: 33e6 db1a 1030 b1bf 6e44 ac22 3ed5 94bf
00000370: 7c81 2b94 3c23 b2bf 80bf bba4 068a af3f
00000380: 95fd 6715 d2e0 4abf f746 4fd2 248d af3f
00000390: 5caf fee7 dbf5 963f fc06 8904 e143 c4bf
000003a0: 1ce2 9147 dcd5 bfbf 0644 d7a8 414f ca3f
000003b0: 9cff ca1a 1241 c53f ae69 f662 e95a c3bf
000003c0: 0f54 1a9c 2033 ae3f e10e ba9f b2a4 bebf
000003d0: 9ea3 ea34 d78a b2bf c124 3d3a f9e7 c5bf
000003e0: d0b9 56c2 9bf3 71bf 4b5e 4273 9219 c23f
000003f0: 111e ae66 c7cf c5bf 64bc bbb0 cd5d c0bf
00000400: 6ccb 75d4 9f2b 433f 34c9 9058 276f a3bf
00000410: 369f ccc1 6080 a33f 968e c1bb 5717 ccbf
00000420: a79d 056b 712a b53f f53a f0ad 3d69 c03f
00000430: 114e d631 47a3 c0bf 3f9b 16c9 7084 723f
00000440: 77a2 72ec be7b d9bf d923 5950 c666 dabf
00000450: cbbf f5b6 bbb5 aabf c874 03e3 8e3e b5bf
00000460: b4e0 7d67 4b5f 763f 5cae 1111 567e ae3f
00000470: b1d6 b748 6170 bf3f be06 8e53 2ca5 cb3f
00000480: 5f00 1074 53bd cabf 7ea9 3675 e2fd 8fbf
00000490: a607 bf36 36cf bdbf 4010 86f2 c8d7 c7bf
000004a0: b96f b4d7 10a8 c83f 098c 42aa 455f b9bf
000004b0: b65d 80e5 ec96 c7bf 405b da49 f75a 7cbf
000004c0: cea4 c9b1 57f4 913f 061a a0b6 a88d 9bbf
000004d0: 0cb1 481e 4c4c aabf 4c49 967c db44 a03f
000004e0: db34 c9c6 4d7f b23f 7ae1 423c c201 b83f
000004f0: ff70 f65c 0981 b6bf 2c3b 7724 40c3 cc3f
00000500: b047 19dc 8397 bd3f f443 fd90 be91 ca3f
00000510: d158 7e13 fbfe d33f 2b85 0e78 a09f ba3f
00000520: 4a9b 42ef 50c1 b73f 5c75 28c9 cbfe b63f
00000530: 7fcf a70d d765 84bf 5b96 93b3 f17a b43f
00000540: 2a90 2bbd 4116 b6bf 22e8 577c d033 cfbf
00000550: 234d 2d47 527e a9bf b635 6081 6761 b1bf
00000560: e212 1a22 2ae6 9bbf 68eb 89a8 94d3 c6bf
00000570: 59f8 5bc2 be51 b9bf f937 f52f f1cd c03f
00000580: 5342 c2a9 9dbd c83f 1e8c 3b1f 2acc b3bf
00000590: 20d7 c34b cca5 ad3f 23a6 4f5d 3b39 d93f
000005a0: b313 5bed 28f2 c83f 64a7 c749 3a77 b93f
000005b0: 82b8 6432 0957 d13f 072b cb1c 48c1 ce3f
000005c0: 67cc 8fc8 a855 82bf aba2 d565 3a2d 733f
000005d0: e2ad 7d34 383b b13f 8bd5 051d 4bf3 d0bf
000005e0: 5850 93ce 7686 a1bf 8353 5972 82e7 bebf
000005f0: 1291 5969 1f9a d03f 3d51 6dab 569f 71bf
00000600: da1d 66a3 d5c9 c93f 5141 de76 be98 b9bf
00000610: 3ee4 add4 6830 d73f 007c d79e a56d c5bf
00000620: c27e 417f b45b c5bf ecd6 a0f0 6b58 b2bf
00000630: 660f 6164 d312 c0bf 591b f5ed b9d0 cdbf
00000640: 42fc 39a0 d4cd b33f 0133 bf15 bf7d b8bf
00000650: dcb2 af82 ccb7 c83f cc6d 7ab1 504b a13f
00000660: e187 b770 0ad9 7b3f 60e5 4cde 86ba 9b3f
00000670: fffb 9142 9c51 cabf 154c 3bab 94c8 d0bf
00000680: c0af c7b4 3998 b5bf a2d3 70a6 18c7 9abf
00000690: b4d9 242d 7157 bbbf 4164 8dfa 7e92 c7bf
000006a0: 6733 a5a8 9d38 cc3f 873b a12d bae3 90bf
000006b0: 6ba3 e3dd 691e b13f 8eda 9edb 2ab5 c5bf
000006c0: f5c0 3313 948a c4bf 94ab d163 0777 b93f
000006d0: 161d 856b 1436 a53f d437 fb75 0b2b be3f
000006e0: 0bc0 122e 3c6d bebf 0979 463d c286 a93f
000006f0: 1624 f179 2a59 9d3f 1fb6 6a6a 73bf 853f
00000700: 6367 e490 e109 a73f b8ae fd82 30bc b93f
00000710: e250 dbdc 16c8 a1bf ec4f a40e 8d53 c1bf
00000720: 89cf a522 4321 97bf 44ad b362 5241 a6bf
00000730: e6d1 4ebf 8d1d aebf 6c20 0de2 df9e 44bf
00000740: 76e1 4fb0 f7b3 c63f 8457 45a2 42c0 cb3f
00000750: 33aa 899b b2f8 b53f 0dbb d629 6c8a a73f
00000760: d35f 9a82 5a1d d33f 403b a4a2 b14d ccbf
00000770: 16ab 6c4d 4b9c c3bf e410 33e1 22ef aebf
00000780: 6390 4988 91bf cfbf 1c84 4be0 b92c ccbf
00000790: e40d 989c f16b c83f 4d5b de1c ee19 a8bf
000007a0: 969b 6b58 ba79 9b3f f3d2 f3a7 1fd4 c63f
000007b0: 77df d2a4 fd6a c03f dec2 5555 f442 b2bf
000007c0: 6e6e 8076 dfe3 b3bf 397b 7cb6 7e8d c7bf
000007d0: c3bb f2cb 179a c9bf eab1 0d2d 8495 b0bf
000007e0: da28 638f 64d2 bebf 8db2 a3bc 8584 bdbf
000007f0: bd7b dee2 c4c1 973f aa79 3c20 d38c c9bf

linear_layers.1.weight f8 [128, 257]
-0.01200670488674566 0.042293999289527394 0.04080066458755221 -0.0697977001093869 0.031739809588722113 0.059029916353003954 0.08517146816898725 0.12714289857082195
-0.015625643576178738 0.07537106688738089 0.04305937924665024 0.03654878922742218 0.02922011500614343 -0.007438888217274611 -0.08361122285849519 -0.29146624833557455
0.27632833438756016 0.037961611940873954 -0.24861911780792095 0.10147079117929521 0.06681303186063306 0.11899521627184186 0.0740543742170283 0.11273368037015609
0.008795258835248287 0.1349028869511358 0.04913395838294149 0.18976145355799692 0.11864817714375601 0.08704145860870126 -0.07492320025979486 -0.014327927430083572
0.0341390777178882 0.05710741081885629 0.13752373007389268 0.10243306976253758 -0.1299038760791215 -0.26409649530116125 0.13888568414621577 -0.26991117851471647
-0.07172319513022359 -0.0007202262858461187 0.168173465054071 -0.2112143377451833 -0.0019168315632737156 0.0761707229908148 -0.13542002069015527 -0.11713379822137983
0.03316647098975186 -0.34709585287137834 0.03870925359340951 -0.35269533614796716 0.023725197226942038 0.09842034338495625 0.0476551986023953 -0.05070564996900942
-0.18417764378725857 0.1080780492455143 -0.01294485696538107 0.1455317381099339 0.06544501806871522 0.17176980242641865 -0.2025840318067852 0.02752766966561499
0.11367401511729854 0.1776766945353391 0.15761866176441447 -0.2859679808374806 -0.2723284152522658 -0.0587221078254102 -0.016506827503275506 0.0986816129577924
-0.04040682756813382 0.014761680172129376 -0.0869299452884345 0.0457908950714794 -0.026319916554472328 0.036077542182167716 -0.04178846638729331 -0.0029990859302043696
-0.03245335462468335 -0.08102489601325667 -0.022048798639982534 0.09318013086743715 -0.1442373337847682 0.12396024752620032 -0.13533473389916023 -0.006110242652414484
0.016930487557577836 -0.10165438454824251 0.19101786650556155 -0.059034493115069406 -0.14915069678454568 -0.0782129086652724 -0.012431179620149772 -0.19219174191173732
-0.0746972387736271 -0.009387408656028329 0.0653409377268885 -0.0836854245392804 0.04121275472361057 -0.14600015877457864 -0.32396688726703643 -0.03890285672429385
0.02183427008698028 -0.1066509847268337 0.2645558749190532 0.01403979227790398 -0.2990455595547801 0.042199681810875696 0.10438502496999039 0.11252172718160028
0.10032113645677107 -0.22027546938234116 0.039522838056890636 -0.1586436043545773 -0.061303270967780946 0.08289498282200425 -0.03955863221631734 0.14012137676413206
-0.0466796179094663 -0.0058146581562972584 -0.0018695387493766976 -0.0031611069771730026 -0.038288614785035806 0.09463280759694209 -0.09557789365601896 0.20018318121833353
0.12324658919387177 -0.3562324820528502 0.07655987952145393 -0.05157412680922533 0.19419099517128238 -0.21043956484718498 0.09014890210112576 0.1667037377961284
0.14109565819406109 -0.20729028257688759 -0.05560028340760892 -0.3546400763289364 0.1498686813823129 -0.1839617452634329 0.016713564884103933 -0.13102999241500882
-0.03214609522436713 -0.10144284692767125 0.012840646462401592 0.1449166772289683 0.21942407096737007 0.08219892591359178 0.029081965228419458 -0.018755219977994887
0.14806562733989387 -0.1285833860483755 0.055126054240483516 0.03678909293872678 -0.09125459220217658 0.07738832430952049 -0.017028456325499874 0.06020216167467297
0.2447933234811501 0.15306585309099766 0.19258090671490533 -0.06122395222091483 0.15371877769836173 -0.12646616870196445 0.2271973657468464 0.14332035323751555
-0.01585904394852212 0.017641210714964068 -0.14293313957020046 0.09309179385421636 -0.1617355044505224 0.07819652033608206 -0.18218820835158586 -0.04246971800435997
0.1048914110430298 -0.007267669230068807 0.012614123112499622 -0.17297632805580357 -0.09097795662708334 -0.06367442484995214 -0.044487883318503986 -0.06429675745519405
-0.3092155997408199 0.09201541365188813 -0.1579555382500092 0.10917207793594802 0.06432352819392394 -0.045979934049865126 0.08296682218199222 0.06800190517751054
0.0514954410442793 -0.18155351371954284 0.10830765500383854 0.14322406295982304 0.20288592023238228 -0.06107564934398811 0.02253701556053448 0.13803574169322844
0.0343194707336536 -0.003927525426664761 -0.0531014977417805 0.05118324004580824 0.04576783555292948 -0.35895088067947706 -0.15738917834692892 0.099617388530614
0.025611325346921635 0.10762284460582823 0.09914825340286747 0.2513131705888023 0.03940483986418801 -0.05193150718470191 -0.25690316939899155 0.026038687715625328
0.05894032689763833 -0.09252977475289494 0.03398480019323585 0.0655913764410867 0.11938281066633952 -0.21781313156639512 -0.2582375796400052 0.0029837180287481486
0.002175719521580226 0.07334024204180509 -0.007674700208960713 -0.0668275138735071 -0.329358518527574 0.11167797772295976 -0.21110340146676537 -0.07493590672957827
0.0474997519530153 0.1898932384422566 -0.17307873801963375 -0.01043780326805166 0.19520788945128514 -0.09443450469526907 0.1519809029115275 0.21376221187505087
-0.04902043924135209 -0.16650919560859564 0.09661902664602398 0.1656723185124116 -0.14478174257386306 -0.08950939588786816 0.04947935643641302 -0.0017680677418803136
-0.05505785819632694 -0.2777166721362868 -0.009732394296966838 -0.08404714689388869 -0.034052933433678684 0.12236411280896235 0.1254519835633565 0.23050150755824836
00000000: a203 92a6 f896 88bf 73f8 871f 8fa7 a53f
00000010: 1701 1e20 d3e3 a43f 084b 4e17 43de b1bf
00000020: 6d64 5448 3340 a03f 858b 7150 2b39 ae3f
00000030: 118e 561e cccd b53f b4e1 a3ef 3746 c03f
00000040: b0f7 8d30 2b00 90bf d58e 58ab 844b b33f
00000050: 5c04 4d03 e10b a63f ab5e e1dc 85b6 a23f
00000060: a6d3 58b9 e0eb 9d3f b6e8 c959 3d78 7ebf
00000070: 677c c18b 8b67 b5bf 884d 1f0d 62a7 d2bf
00000080: 37c6 c909 5daf d13f ea38 9453 b46f a33f
00000090: 329c 1252 c0d2 cfbf f543 9d61 fdf9 b93f
000000a0: 02bc c9aa a81a b13f 299c 4472 7876 be3f
000000b0: 3f4c 633b 3af5 b23f 39f8 584e 1ddc bc3f
000000c0: a03d 75a8 3f03 823f 9ba9 cb6f 7f44 c13f
000000d0: 9869 c110 1628 a93f b558 8972 1a4a c83f
000000e0: 83fc 8f18 ba5f be3f b7d9 1e5a 5948 b63f
000000f0: 93d5 d3b6 2a2e b3bf f175 dadd f557 8dbf
00000100: b6bb a05c ad7a a13f e106 a7bb 2e3d ad3f
00000110: beaf 8ba9 609a c13f 44b3 a8bc 0d39 ba3f
00000120: 5515 b1b1 b0a0 c0bf 0fa1 93fc f4e6 d0bf
00000130: ce31 a58f 01c7 c13f e2e9 2289 3946 d1bf
00000140: 85ed 7289 735c b2bf 2278 f52b b299 47bf
00000150: 7a2a 3b46 b586 c53f 0deb 8748 1209 cbbf
00000160: 0bae 1338 c667 5fbf 6d81 28ac ec7f b33f
00000170: 013f 0b78 7155 c1bf 91f9 9d08 7bfc bdbf
00000180: 1b0e 7318 32fb a03f 203a 2a86 d136 d6bf
00000190: a3f7 7804 b3d1 a33f 8343 8d75 8f92 d6bf
000001a0: ec34 b908 6b4b 983f 5477 195c 1332 b93f
000001b0: cf9d f61e 4366 a83f 34bb ad48 17f6 a9bf
000001c0: 0d3d 5c0e 2293 c7bf 45ca ecc6 00ab bb3f
000001d0: 47ab 8a4a d582 8abf 7729 dbb3 c8a0 c23f
000001e0: 1490 4a34 01c1 b03f 1651 ee89 8dfc c53f
000001f0: d4a6 a607 46ee c9bf 72ae cba3 3630 9c3f
00000200: 5d74 5581 bd19 bd3f 7534 2524 1cbe c63f
00000210: aa3b c22a d92c c43f cb9b 59a5 4c4d d2bf
00000220: 58eb 5129 d46d d1bf ef1b 53f9 d210 aebf
00000230: 282d 2671 2ae7 90bf 96c8 5ebc 3243 b93f
00000240: eb67 e125 34b0 a4bf 2622 962c 5f3b 8e3f
00000250: b390 0e78 0a41 b6bf 83b9 9279 e771 a73f
00000260: 08f2 56b3 9bf3 9abf bcbe 956f c178 a23f
00000270: d582 f740 4c65 a5bf feb0 9eff 8991 68bf
00000280: d05a 84e1 b99d a0bf bfea 892e 0cbe b4bf
00000290: 1c9c 4cd4 f593 96bf c06f b62e a7da b73f
000002a0: 5fe1 bb73 5e76 c2bf 630c 21d9 dbbb bf3f
000002b0: 7a0c 0e08 a652 c1bf 2ecd cdc5 0d07 79bf
000002c0: 17e5 75c9 3956 913f a134 2191 0506 babf
000002d0: 11ea cb00 4673 c83f 16c3 87e2 c439 aebf
000002e0: 0ec0 6eba 5e17 c3bf 37a6 d7dc c205 b4bf
000002f0: 1c9d 5aaf 8475 89bf 563d 092f bd99 c8bf
00000300: 005d a2b5 5b1f b3bf e0e7 5fa9 b439 83bf
00000310: 5d80 a006 2fba b03f 504f 8c71 686c b5bf
00000320: 8794 6e93 d619 a53f 4de5 9219 22b0 c2bf
00000330: 3320 739c dfbb d4bf 3221 b442 13eb a3bf
00000340: ca8b d20f b95b 963f 0bea 7c9b 7a4d bbbf
00000350: ee7c afc3 7bee d03f c4eb 6805 e5c0 8c3f
00000360: b550 93fc 8f23 d3bf a902 8f5a 329b a53f
00000370: 4a31 701c fab8 ba3f ba9b 5552 39ce bc3f
00000380: 2eec 2d60 a5ae b93f a6d9 8d90 fc31 ccbf
00000390: a484 cc61 563c a43f 9613 3602 6f4e c4bf
000003a0: 5a8e e36f 2463 afbf e015 3908 9b38 b53f
000003b0: a982 496f 0741 a4bf 9012 564d 7fef c13f
000003c0: b232 9f10 64e6 a7bf 2643 e669 1cd1 77bf
000003d0: 651e 61f2 69a1 5ebf 3875 c162 52e5 69bf
000003e0: 772a 9fb8 909a a3bf 44ed c10d db39 b83f
000003f0: 7e21 79f7 ca77 b8bf bb5f 453c 9a9f c93f
00000400: d864 eea5 168d bf3f 4c27 0c53 83cc d6bf
00000410: e0f7 baa2 6d99 b33f 3d46 ee87 ec67 aabf
00000420: e91b b822 40db c83f fdcc 6604 afef cabf
00000430: 956d 4b9a ff13 b73f 4648 fa4e 8c56 c53f
00000440: 038a c62a 6c0f c23f 5e21 39ec 7c88 cabf
00000450: 309d c4ed a377 acbf 29c2 6b4a 6cb2 d6bf
00000460: a0a7 9d9e e52e c33f 348e cff7 0e8c c7bf
00000470: c5a4 4e5a 5c1d 913f 05da 1b3e 97c5 c0bf
00000480: 8992 5df7 7375 a0bf e8ac f78d 28f8 b9bf
00000490: 0b92 ec64 324c 8a3f c1f4 ab32 a18c c23f
000004a0: e948 6184 1616 cc3f 2fb1 9022 fd0a b53f
000004b0: e6e5 3ca6 a9c7 9d3f 5d35 bd81 9134 93bf
000004c0: a614 8b81 d0f3 c23f e47f f19e 6b75 c0bf
000004d0: eaa4 3d70 7b39 ac3f 8fec 0a1e 05d6 a23f
000004e0: 1040 1e01 765c b7bf f96a 00a2 b8cf b33f
000004f0: 00da 135c e86f 91bf 711b 1557 d1d2 ae3f
00000500: 67ba 503b 6355 cf3f a180 9470 a997 c33f
00000510: 7f57 16bc 7da6 c83f a398 0af1 be58 afbf
00000520: 706e 7f91 0ead c33f ab0b 501d 0b30 c0bf
00000530: fe5d cfa3 cd14 cd3f 57ce 0043 5258 c23f
00000540: 233e 6b6c 5a3d 90bf 2599 549c 8910 923f
00000550: 8ffb fb13 a24b c2bf bd3c 2122 ddd4 b73f
00000560: 7fc8 1bbf bfb3 c4bf 0925 81e9 af04 b43f
00000570: 631f 4b76 f151 c7bf b352 cc43 97be a5bf
00000580: a9a4 0fdc 29da ba3f e6a5 941a b4c4 7dbf
00000590: 6e21 e3f1 6ed5 893f 0dad fd9b 1624 c6bf
000005a0: 5bc7 5ed4 544a b7bf b278 5294 f74c b0bf
000005b0: 95ac d7a7 1dc7 a6bf 7147 8296 c075 b0bf
000005c0: b430 133a 30ca d3bf 97de 5c78 528e b73f
000005d0: 3cc0 8017 e337 c4bf e40a 5f88 b3f2 bb3f
000005e0: f7cb f4b9 8177 b03f 9266 0892 ae8a a7bf
000005f0: 66b9 ec4b 503d b53f 0498 cda6 9268 b13f
00000600: f346 5b46 9c5d aa3f 0b1d f341 253d c7bf
00000610: 38df 25ec 0cba bb3f dcd2 3485 2a55 c23f
00000620: e8c4 1b74 2af8 c93f 7e5e 07b9 4e45 afbf
00000630: 8ab4 2083 f113 973f cd31 20ba 27ab c13f
00000640: 608a d558 5292 a13f 910f 3014 4f16 70bf
00000650: 3dd1 5698 1e30 abbf 943b 338c b034 aa3f
00000660: eb2b d1b9 e16e a73f 51e1 581d 0df9 d6bf
00000670: 8d47 df1e 5425 c4bf f216 da71 8680 b93f
00000680: 34c7 16f3 da39 9a3f 0d70 e2b5 2b8d bb3f
00000690: 5722 d2a9 c761 b93f 10e9 2ed6 8315 d03f
000006a0: e6a6 0a05 df2c a43f 7806 fb39 c496 aabf
000006b0: b7ac b3fd 1971 d0bf bc6e adc0 e2a9 9a3f
000006c0: 67be e130 6d2d ae3f 594d 7804 08b0 b7bf
000006d0: b836 c8aa 7466 a13f c0ce b6b0 98ca b03f
000006e0: 9238 8433 df8f be3f 0fc7 5bfa 4ce1 cbbf
000006f0: a9ba c9e9 f686 d0bf 96a1 536b 4f71 683f
00000700: d736 1886 d0d2 613f f6de 0c15 6dc6 b23f
00000710: bc27 77a6 816f 7fbf 7448 8fa2 9b1b b1bf
00000720: 4309 6fc0 3514 d5bf 42e7 008e ed96 bc3f
00000730: 06e3 afae 6f05 cbbf ef1b b3e4 ff2e b3bf
00000740: d6a1 6932 e351 a83f 9da6 6bf0 6b4e c83f
00000750: 12b1 b6af 7127 c6bf 004a 6d3d 6a60 85bf
00000760: 66a6 8e76 92fc c83f 32b7 4715 dc2c b8bf
00000770: 568f cf37 1c74 c33f 21de 8f66 8f5c cb3f
00000780: 6a1b c1fe 3419 a9bf c3a3 cf5e 2c50 c5bf
00000790: dab3 9d47 06bc b83f b880 ee22 c034 c53f
000007a0: 26d1 b448 3588 c2bf 94ea 0578 16ea b6bf
000007b0: 346b 71b3 5b55 a93f e627 3948 d0f7 5cbf
000007c0: 749b ae28 8b30 acbf 8e46 1826 1cc6 d1bf
000007d0: 4ced bcd9 93ee 83bf 673a 3b23 1d84 b5bf
000007e0: 746c dcd6 626f a1bf c3f2 b726 4153 bf3f
000007f0: afbc 4f83 cf0e c03f 8718 52ca 1281 cd3f

linear_layers.2.weight f8 [64, 129]
0.049984040891713724 -0.03183463508980806 -0.040383413212219284 -0.21805304383683952 -0.03412589292637696 -0.08513740676694169 -0.010035593319862465 -0.062396237158659926
-0.03396180284782743 -0.14251454857369472 0.021950134266084248 0.21431698576122027 0.12847571914882736 0.15055470577142763 0.020846419200608497 -0.12031343573563098
0.018347536249666046 -0.1945457473655784 -0.01883419714210617 0.0552172968154532 0.06711634566109831 0.05729313981141993 -0.0478709134178912 -0.055706026653227186
0.018856789523211407 0.007613841141153971 -0.07829332979429546 -0.059321726465608716 0.04341198081986118 -0.025287326690349297 0.0045942025207874534 -0.07406122796725349
0.042998883102753994 0.016378626999037263 -0.059428151322895105 0.1125943462081269 0.05844290190624749 0.11162864587956776 -0.06943048698328431 0.04504473729608864
-0.00558824275435403 0.103392836423677 0.10725686487189127 -0.3395024749217332 0.15545382328636312 -0.011043379505042807 -0.011078277511888796 0.006661074830427871
-0.0662208840187815 -0.1997540754400837 0.06430164491120338 0.09277202917612423 -0.12976589775546798 0.2997849768347583 -0.11835766165275156 -0.07111083220192267
-0.009580595982665188 0.03500447885572142 -0.0020535480188074912 -0.20234085684057349 -0.034798123433217296 -0.0388162591363664 -0.04202794565647642 0.0007217390665583525
0.062060464095659795 -0.24938467771026515 -0.0749495397554588 0.08460794007921771 0.04803346961677949 -0.02943540301438039 -0.016117010125006815 0.05069329398010123
-0.13636318070052703 0.02083939768640141 0.010344695460342366 -0.07652178422953711 -0.044369762175635055 0.014418056054127446 0.04762710163553467 0.0007364586140544446
-0.09187029716703712 0.09848528684182367 -0.027017755734629605 -0.25633049686652054 -0.008569806409026083 -0.14493029268756857 0.047756985161749026 -0.06729738903303807
0.06148761791347618 -0.05489461681667294 0.03212377063134064 0.07432141997626812 0.12895251387669054 0.10933621351517316 -0.06904699801279282 0.11124427525323
-0.12627200169417993 -0.0536835096266654 -0.09686931619796657 0.0266548121834069 -0.022472444681051758 0.058676293070338434 -0.09543250568892402 -0.07355576619413588
0.10678409173582065 0.0528204641000527 -0.08165169412332977 0.015834728131716293 0.21222508391711065 -0.03304708636631912 -0.041370981279291306 -0.05440399711471273
-0.014864420717171145 0.015420050951814436 0.0660136482134532 0.009111250084072047 -0.0742695863683119 -0.04239836907382745 -0.08161159456252706 0.03441367885529046
-0.0063988190462046885 0.07125423310185257 0.01696178674428508 0.045192815424996605 -0.02422314161873694 -0.10118061190530107 0.053205289159165094 0.10965529152722023
0.014470959457202967 -0.006889114800086192 0.07615971332044583 0.011852546816487517 0.09073149725117043 -0.07739138180731794 -0.08466029674234853 0.06789586771656021
-0.04957377004434096 0.06899931551529057 -0.15029649764846742 -0.16389554017933278 -0.21229896293355133 0.06387017891867308 -0.04002766756091205 -0.24405193799344188
0.044612797047352215 -0.04920832163080473 -0.08061907457774767 -0.010222414906920715 -0.07036319191001436 -0.010986079264692887 -0.02715549074260082 0.002550685750604201
0.06944274074354882 0.07124230606300323 -0.052147964389803694 0.018439997148057375 0.0058345585651668995 0.03002406290604448 0.005538705265667239 -0.04071666833674054
0.044792835370799915 -0.0011736335430647883 -0.02833027792721392 0.06398725741274412 0.09206898417998384 0.04404936356297482 0.053743229301091544 -0.05047140070225848
-0.02773425299356122 -0.024138416167525927 0.038353695161845745 -0.09848853851722615 -0.03594010040829545 -0.07376963162006175 -0.01397647557554403 -0.009019642068367872
-0.02649841270164016 -0.03434241992918156 -0.04757902110340147 0.06978289432630906 0.26009487275840787 0.1347179093015818 -0.06878758180740954 -0.05763061798300488
-0.08135137523197236 -0.04201208674269752 -0.18614988635407984 -0.012251797657163268 -0.026870658897452753 0.06068240111306122 0.007618037803156177 -0.03997990582556008
-0.10164774411591877 -0.09619323266562413 -0.08621414258404639 0.04805541116039634 -0.040655299469247404 -0.19099412568625268 -0.12323774638008804 0.0036301426710598017
0.00373334874593104 0.0504651173607541 0.09840318943649787 -0.021202511532607285 0.08195284720522893 -0.004246158874987576 -0.01819719270608866 0.023240185586016728
-0.03420176979912974 0.08541161231275188 -0.01504396875448628 0.06418680534139913 0.01578743476650543 -0.04845264667570728 -0.031206457620686138 0.030371529682235224
-0.018803952123279673 0.10481440560596925 -0.042984435937857716 -0.053705842340900575 0.034860961387947136 -0.04667449172686986 0.048628355276827004 0.056653620466352084
-0.012941765483972063 -0.154372109502018 -0.042747185476839145 0.07513653457384636 -0.14015388431268133 -0.056689362446189884 0.061275121203683586 0.009251298068807614
0.006323336714433348 -0.16727103225340623 0.01022455080896509 -0.01706347456141793 0.024355295548751887 0.05652449302039306 0.04251696722638258 0.019715651844038742
0.044799936748988155 -0.1219069063341256 -0.056947109632357454 -0.004902678472706072 -0.14014258734462684 -0.08010363102433307 -0.11332516295238254 -0.060231232813362595
-0.07567180025465273 0.028862165849664827 0.002707266328382621 0.07667358987445758 0.10832740521775398 0.029198348022775492 -0.044270726647794675 0.02320140793108056
00000000: 3257 e719 8297 a93f e97f 2e19 a14c a0bf
00000010: 713c 187e 22ad a4bf 0747 0982 29e9 cbbf
00000020: 9794 21f4 f278 a1bf 8ff2 baa9 90cb b5bf
00000030: 388f d688 8a8d 84bf bed4 fa4b 66f2 afbf
00000040: 3cd8 1601 7163 a1bf 3003 aaae ea3d c2bf
00000050: 5837 4393 187a 963f bc2e 692e bd6e cb3f
00000060: 7b82 0972 e471 c03f 210a c668 6045 c33f
00000070: 653f d282 c358 953f bd01 c17f dccc bebf
00000080: ab32 9e50 b2c9 923f ac69 4103 e0e6 c8bf
00000090: f448 1693 4549 93bf 23e6 fd07 7145 ac3f
000000a0: fc35 a46d 892e b13f 91e7 8cc3 8655 ad3f
000000b0: 8375 1e4f 8982 a8bf 9cd8 5415 8085 acbf
000000c0: b12e 3db9 314f 933f 2dcf 2beb b02f 7f3f
000000d0: 0621 f61a 080b b4bf 3d5e 39d6 6a5f aebf
000000e0: be73 c05b 183a a63f 46a3 8dc4 ebe4 99bf
000000f0: f86a 3fd9 5ed1 723f 435d 0538 adf5 b2bf
00000100: cdb7 6119 f303 a63f 24ca 410d 8fc5 903f
00000110: 7b82 c9dc 5d6d aebf 0fac adaa fbd2 bc3f
00000120: 55c8 bd60 3aec ad3f 6779 59e7 b193 bc3f
00000130: 7545 f046 32c6 b1bf 5654 1693 1a10 a73f
00000140: aff4 f37d b2e3 76bf 2693 14f3 f377 ba3f
00000150: 9371 e596 2f75 bb3f 3bcb ac96 68ba d5bf
00000160: bfcb 862f e9e5 c33f e1e6 7d4e e99d 86bf
00000170: aa68 e03c 35b0 86bf f3a9 d8a8 a448 7b3f
00000180: 9341 2c13 daf3 b0bf 1702 a1a2 8a91 c9bf
00000190: d8fd f895 1276 b03f de85 4b5f e8bf b73f
000001a0: dc76 7f3f 2b9c c0bf 0998 d553 ad2f d33f
000001b0: f393 070e b04c bebf 8dd7 b2ca 5134 b2bf
000001c0: 1bb7 5fd3 fd9e 83bf ad35 cc67 1bec a13f
000001d0: ad01 9c32 9ad2 60bf 4d2f 6321 4ee6 c9bf
000001e0: be36 3744 0fd1 a1bf 0b67 1687 b9df a3bf
000001f0: d5aa 39d8 af84 a5bf 6857 f3d7 62a6 473f
00000200: b0b4 549f 63c6 af3f abcd 714d d6eb cfbf
00000210: 2796 199e e42f b3bf 6246 9faf dda8 b53f
00000220: 0526 3cca d797 a83f fa55 2a75 5024 9ebf
00000230: cdb6 953d fa80 90bf ddc6 8aaf 78f4 a93f
00000240: e95f be44 5974 c1bf be2f 204e ec56 953f
00000250: 9295 8385 992f 853f cd8a b280 ee96 b3bf
00000260: 7288 f32a a2b7 a6bf a583 cbb9 3687 8d3f
00000270: 5614 db57 9462 a83f 1cab c3d4 dc21 483f
00000280: d264 ced1 cf84 b7bf 9870 1fee 5436 b93f
00000290: 3e8c 2ae5 8aaa 9bbf b095 4007 b867 d0bf
000002a0: 941b 14f2 0b8d 81bf f67a a569 138d c2bf
000002b0: e7bc d982 9a73 a83f 59ca 00d5 663a b1bf
000002c0: d83a 1818 4e7b af3f cd7a e8af 251b acbf
000002d0: 2056 92e0 8672 a03f f4ba 3084 ba06 b33f
000002e0: 022f eb16 8481 c03f adee 5045 75fd bb3f
000002f0: 9217 5a66 10ad b1bf b870 143c 817a bc3f
00000300: 9ba6 d652 ae29 c0bf d7af 5cac 677c abbf
00000310: d05f 0e71 6dcc b8bf 785d 6f2a 664b 9b3f
00000320: 327a dd3b 0403 97bf 4642 93af d10a ae3f
00000330: 6fc5 e8c2 436e b8bf db6c 3cfa 8cd4 b2bf
00000340: ac08 bdc5 3356 bb3f c010 bdab 480b ab3f
00000350: db35 ec1b 20e7 b4bf a7f9 dd9d fa36 903f
00000360: de4c 6809 312a cb3f 6cc5 5736 8ceb a0bf
00000370: 032b 32c7 932e a5bf b93c c238 d7da abbf
00000380: 2079 d5c6 3c71 8ebf c758 5334 8c94 8f3f
00000390: 2d9b 2a3c 45e6 b03f 2319 1849 eba8 823f
000003a0: a512 8ae4 5403 b3bf c2d2 2631 3db5 a5bf
000003b0: ced6 9e59 7fe4 b4bf c1e1 6f72 ab9e a13f
000003c0: ab62 95e8 a535 7abf 9bbf dfa8 b73d b23f
000003d0: 07cb 643d 6e5e 913f ca6f 8740 8323 a73f
000003e0: 9c43 3c84 f3cd 98bf 8b5e 1ffb f8e6 b9bf
000003f0: 6d5f d341 b93d ab3f 8258 f182 5e12 bc3f
00000400: 6b28 e24c f3a2 8d3f be74 3cac c237 7cbf
00000410: baea fbf5 337f b33f 45e6 9be7 2546 883f
00000420: 2530 69ed 2d3a b73f 4ecc daed ebcf b3bf
00000430: c72d c715 4cac b5bf 914c 60a3 9f61 b13f
00000440: 93e4 28b2 bb61 a9bf 9ea5 956b f0a9 b13f
00000450: c43f 0d67 ea3c c3bf 0ae7 8370 87fa c4bf
00000460: e41c 63c7 9c2c cbbf f036 a5c9 cb59 b03f
00000470: 33f3 37a6 817e a4bf 4287 1a0a 183d cfbf
00000480: 6059 9a10 7dd7 a63f 76d2 3048 d531 a9bf
00000490: 2ac6 bea0 73a3 b4bf 5ee1 b04d 7def 84bf
000004a0: b67e 1878 5203 b2bf cf96 3999 de7f 86bf
000004b0: 00d0 9522 a6ce 9bbf a1f0 32fc 2ce5 643f
000004c0: 872a 70dc ffc6 b13f 43d9 a18e ef3c b23f
000004d0: 3ae0 3653 23b3 aabf 0dc8 c142 efe1 923f
000004e0: fc74 9563 fae5 773f 9018 19c1 a0be 9e3f
000004f0: fbcd a6df c0af 763f 1917 d1ad d0d8 a4bf
00000500: 4f80 0626 16ef a63f 6240 d66b 933a 53bf
00000510: cd63 bcc4 9c02 9dbf e7ce f209 7861 b03f
00000520: b56a 073c d591 b73f 1d3f d35f a38d a63f
00000530: 6090 7588 3b84 ab3f c98c cc2e 63d7 a9bf
00000540: 5868 5836 5e66 9cbf ee29 11b0 bdb7 98bf
00000550: 4340 cd74 18a3 a33f c75a f67b 8b36 b9bf
00000560: 33b7 bca7 bd66 a2bf 8e02 3f0b 91e2 b2bf
00000570: 771a 15cc b29f 8cbf 6662 a4dd e378 82bf
00000580: 103e cc5f 6622 9bbf e533 ec64 5495 a1bf
00000590: 7ac7 3a07 475c a8bf 03a4 f3b0 4add b13f
000005a0: 79b2 16f7 64a5 d03f 8161 51bb 6f3e c13f
000005b0: f2d6 3b1e 109c b1bf 0676 f8a6 c281 adbf
000005c0: 421f 1b98 71d3 b4bf b075 31b5 9b82 a5bf
000005d0: f1be 056d c2d3 c7bf 9bad 0972 7817 89bf
000005e0: fb01 bf64 fb83 9bbf 2f5b 7280 c311 af3f
000005f0: 8384 9673 1734 7f3f 7d2f 0908 3f78 a4bf
00000600: f5a6 b028 9605 babf 4437 65a4 1ea0 b8bf
00000610: a2e5 d94a 2112 b6bf 1ed3 a806 b89a a83f
00000620: 514e 427b c5d0 a4bf 0a79 c6d9 7e72 c8bf
00000630: 03d1 554a 828c bfbf 521d aa01 f6bc 6d3f
00000640: 4836 9658 6695 6e3f 9075 4e59 90d6 a93f
00000650: 82ac 7390 f330 b93f 34a0 8076 1cb6 95bf
00000660: c37f 8f9e dcfa b43f f9ed 0698 6b64 71bf
00000670: 80e6 34ee 48a2 92bf 87fd 2d74 46cc 973f
00000680: 8652 81f5 e482 a1bf 6af7 9411 89dd b53f
00000690: e6a6 6b4e 5fcf 8ebf bba9 c6e5 8b6e b03f
000006a0: 781c 0ad0 942a 903f b3ec c009 c9ce a8bf
000006b0: d192 9eeb 95f4 9fbf a1d8 dbda b619 9f3f
000006c0: bfc1 9edd 5741 93bf 7231 3aec 1dd5 ba3f
000006d0: 5f22 2e55 0e02 a6bf 4ea6 ea08 557f abbf
000006e0: fffe 22c2 4bd9 a13f cd74 0c0f b8e5 a7bf
000006f0: c6fc 24d7 d0e5 a83f 98b9 340e b401 ad3f
00000700: 779e 0c5c 3681 8abf ade3 dc1c 77c2 c3bf
00000710: c8f6 3c87 f5e2 a5bf cebc bade 253c b33f
00000720: fae1 c3fe 8ff0 c1bf 7896 795b 6306 adbf
00000730: ecaa 41e3 735f af3f ae67 3535 58f2 823f
00000740: 34cc 3dc6 7fe6 793f 745b 8c1e 2369 c5bf
00000750: f1f2 b9fa 9bf0 843f ef27 ca64 1679 91bf
00000760: 5318 7737 98f0 983f 8c21 e441 c7f0 ac3f
00000770: 865b 86af c8c4 a53f d4d0 8eff 5630 943f
00000780: 9b48 666e 04f0 a63f 2092 dc7f 4a35 bfbf
00000790: fa05 f2ea 2b28 adbf 6bcc 3fbb d414 74bf
000007a0: f503 b63a 31f0 c1bf 2255 8aeb ab81 b4bf
000007b0: 2cc1 b1bc e002 bdbf ac26 43ce a0d6 aebf
000007c0: cabb 5223 3a5f b3bf fe05 aa29 0b8e 9d3f
000007d0: 5361 f18a 8c2d 663f 564b fa60 e1a0 b33f
000007e0: 19b9 ab46 58bb bb3f 7191 6bf7 2be6 9d3f
000007f0: a6af 3e16 a7aa a6bf 52fd 2321 1cc2 973f

linear_layers.3.weight f8 [16, 65]
0.09419793341138778 0.0630726737664944 -0.13019677201706967 0.20635559191354916 0.014178138528399328 -0.12361926086431393 0.0038453593859124253 -0.06000331329358502
-0.044201837318810895 -0.13079442126537785 0.02099422186117263 -0.08542267544418625 0.006356981433211646 0.10622776518483261 0.14443031870618986 -0.020232026860462382
-0.09295254609106339 -0.17551003384762706 0.05435426690077996 -0.021639071110836502 -0.07944858062458343 0.08912994102535252 -0.02167005269235094 -0.06291765954472986
0.024039082505514564 -0.054945841947340826 -0.05459180437984593 0.03834671308413121 -0.10338577015861306 -0.08694120831494156 0.11393432728353936 0.08227684360630956
-0.020624597150944165 0.005907001284194054 -0.07804967717385929 -0.1387041719151969 -0.004326481840821262 -0.19183898144609704 -0.02342262550017118 -0.2638607898646711
0.022085945031876834 0.06458842971367691 0.1547995959581961 -0.13361367757842374 0.0224060477295554 -0.0861174902822462 -0.08786333420014536 -0.07478381660092985
0.043841962695855816 -0.05664016365429752 -0.13682528365164626 -0.05623831499569717 -0.04749296698384052 -0.07500839739629718 -0.12606294638083196 0.174154490892709
-0.03108590267194429 0.04831617950086896 -0.10295019967422081 -0.06408415996981433 -0.03650685001642126 -0.13732244642988026 -0.06287374964573045 0.008147603914463222
-0.007680376310024968 0.1403703091128922 -0.03784936886431003 -0.016625862629219272 0.21822136360142005 0.19831436667528166 -0.11311734858021893 0.05239359343932925
-0.037125590308199785 0.06820801444242736 0.04406441593860742 -0.12927579839469697 0.031354053686773214 0.05014565055724744 0.110044653947896 -0.08228918913585118
0.15565261119755147 0.02124516570580002 -0.02935619400923968 0.015583274367692072 -0.09762141182721669 -0.0484351070190843 -0.056921105131646756 -0.1563902932474026
-0.09993465558953832 -0.06170134679023372 -0.29460778588336467 -0.06002323737513661 0.08948234301457025 -0.008128271804313646 -0.10487851906793902 0.06591897691955735
0.22488790057640803 0.06346672211793541 0.01595613283873058 0.03751486704842243 -0.010772931177949106 0.07253567518698517 -0.200311707333402 0.0014026486610523342
0.12328167454606945 0.05226295080691592 -0.03737329073711436 0.0509777373989312 -0.12326995311295764 -0.13312336815482173 -0.09608202033574263 -0.008303896448051917
0.05057761364477519 -0.10199183747981384 -0.015477899303233128 -0.24106412105450187 0.058898750113040924 0.08680047531553764 -0.15607777270772805 -0.021621143557268078
-0.03357271202170667 -0.20243627981426437 0.04705121938111351 0.0879215206358559 0.0038983481600111613 -0.09871115050354894 0.02642425870811135 -0.009911029867783165
0.1252642265452557 -0.007339551150978642 -0.03616370552107287 0.08011220385603636 -0.11669327714491681 0.022609021464215534 0.16462314262460795 0.15507987961016645
0.0812622986000705 -0.12194144908583812 0.1309488987189544 -0.07329855245267017 -0.14022979871937982 -0.006438518852777199 -0.13915300774767667 0.0068567586206865925
-0.04113227244961708 0.12614298979770094 0.08282172269249279 -0.23659495286345605 -0.13043483337168302 -0.13839383601105296 0.09577913969739019 0.07359538569670719
-0.1251261428235012 -0.0016952646429069065 -0.08948719379500598 -0.03908829478792627 -0.22124065171297239 -0.051238623085756024 -0.10591785847041316 -0.09056549758242247
0.04861638867693608 -0.10041700384023679 0.17815051007926325 -0.07076452921868305 0.04148812284888392 -0.022839735066419252 0.10404163450815923 -0.204657015175244
0.0751530457106037 -0.04338945848581166 -0.0761323231779422 -0.01348141396093616 0.1881765810374382 -0.10703336883279695 -0.3090792634305295 -0.009796885470000379
0.1561413354770831 0.199694840569972 -0.05269941133143344 0.009452895747511052 -0.195923677949565 0.047799277750346265 0.07632267471014538 -0.04328190507960132
-0.13595727977258668 0.06610758483436974 -0.15009098402880414 -0.012569299259910984 -0.10303631518717836 -0.06093167684288227 0.0603103225498102 -0.14741805509274739
-0.10183893472747108 0.15688738445877992 0.19166123427470014 0.01845681384480676 -0.025695873584577138 -0.006314472236463899 -0.09730046441599151 0.05111709852542451
-0.06814960894287038 0.07460548241079036 -0.06742260795236084 -0.0828106074947553 0.030695681693708413 0.03364101369609646 0.028198916593440062 -0.07498068370710671
-0.024358775514492746 -0.11572446393904642 0.05627269385386983 -0.0023348660267020795 0.04405520814571197 -0.14761445937501833 -0.0015046103362496871 -0.05542330078916287
0.05099271593212316 0.0006414158484513308 -0.0023134454326264333 -0.04649385020619638 0.03450311436813431 0.0531722589392558 0.07124423065637932 -0.0348738634486481
0.06047887498893102 0.052357991271885014 -0.10813804923050699 -0.118943985653571 0.05690929131212769 0.13421349089503512 0.042791393433839794 -0.06712425257793124
-0.07893684998458046 0.07061396727562594 -0.11243753984100001 0.024668840862989865 -0.13329374783539708 -0.06431994880787768 -0.07874535380367391 -0.08906828267217758
-0.0035972415440849036 0.035562120195462156 -0.19924872263197585 0.019306538206785247 -0.06180853635592158 -0.11670666457815375 0.04172222562659641 -0.05376320941887324
-0.04903758321992753 0.01072386689675959 -0.19363709099040977 -0.06083901753167016 0.07152249120905636 -0.053209178792790156 -0.067114860110984 -0.09875814078933756
00000000: 4d4a 5a13 5b1d b83f d12e 19df 8725 b03f
00000010: a3d5 edae 49aa c0bf f1c5 4e2b dc69 ca3f
00000020: 3e8d 618a 6d09 8d3f 4663 910a 83a5 bfbf
00000030: ad39 b999 4d80 6f3f 14c4 7e18 c1b8 aebf
00000040: 0131 6a8b 9fa1 a6bf fbc1 ea20 dfbd c0bf
00000050: a5df 3161 827f 953f 409e 5ead 42de b5bf
00000060: 21f5 b535 c709 7a3f cb61 6529 be31 bb3f
00000070: b56c b253 b17c c23f 1038 ca56 b4b7 94bf
00000080: 3f82 8af1 bccb b7bf a369 bfdf 1c77 c6bf
00000090: a44b 798d 52d4 ab3f bc8b f27a 8d28 96bf
000000a0: 4c07 7fff bd56 b4bf 3e5d cc45 38d1 b63f
000000b0: ad08 779e ac30 96bf d2e1 152a 5f1b b0bf
000000c0: 0085 bf84 b39d 983f 4a16 6e84 dc21 acbf
000000d0: a5d3 e1fc 74f3 abbf 15fc 352d 2ea2 a33f
000000e0: d8f8 b365 7d77 babf 782c 636e c741 b6bf
000000f0: 8016 93d1 cc2a bd3f 45d8 8160 1810 b53f
00000100: afa2 0649 9d1e 95bf 6225 5495 f031 783f
00000110: 43d2 ec4a 10fb b3bf 70e6 18ed 0ec1 c1bf
00000120: da83 3520 a5b8 71bf 1158 b403 2e8e c8bf
00000130: 67ec 09ca 19fc 97bf 6697 ca5d 18e3 d0bf
00000140: 71e1 73ae b29d 963f 0dfb 5109 de88 b03f
00000150: 1a88 0921 79d0 c33f f6b1 bfc3 401a c1bf
00000160: d099 ec68 9cf1 963f 6537 60bc cb0b b6bf
00000170: 803a e822 367e b6bf b330 923e 0825 b3bf
00000180: ee3a f127 7472 a63f 4712 1285 f0ff acbf
00000190: 045e 46ab 7d83 c1bf cb98 60b7 44cb acbf
000001a0: eea0 f887 ff50 a8bf 6112 be15 c033 b3bf
000001b0: adb6 f8a3 d422 c0bf b6f8 6ac1 b14a c63f
000001c0: f4dc 5e9d fbd4 9fbf eed5 a5f5 e5bc a83f
000001d0: b0aa b7bc f15a babf 7111 43cb d167 b0bf
000001e0: 2c0f cd9d 06b1 a2bf 6d26 362c c893 c1bf
000001f0: 985b 817a 7e18 b0bf 7bb9 d3e2 b0af 803f
00000200: a215 2951 7575 7fbf 7511 7c7f a7f7 c13f
00000210: 6395 e412 fe60 a3bf 3e88 0ac1 5e06 91bf
00000220: a772 fa79 adee cb3f b340 997b 5d62 c93f
00000230: 4824 c330 42f5 bcbf 8f05 af44 55d3 aa3f
00000240: c8d3 6f18 2002 a3bf 54f6 5a97 1476 b13f
00000250: 5d50 bf72 9c8f a63f 657f 22ff 1b8c c0bf
00000260: 4c0a 5d76 a30d a03f d62b 5cd2 b0ac a93f
00000270: 3a4c ceed e22b bc3f 7a20 2780 e710 b5bf
00000280: ccb3 50bd 6cec c33f 5a38 9eef 4ac1 953f
00000290: f4a0 d1d4 8c0f 9ebf 1ccf 30ae 1fea 8f3f
000002a0: 2def 2f83 b7fd b8bf c51d 4081 7ccc a8bf
000002b0: 2536 fc59 c324 adbf a868 74dd 9804 c4bf
000002c0: ba7c 7e4d 5195 b9bf 4b9a 2aa5 5197 afbf
000002d0: 8006 619d dada d2bf 8271 0da3 5dbb aebf
000002e0: 1829 d198 50e8 b63f 8688 942c 8ea5 80bf
000002f0: 3a20 7391 51d9 babf ad26 0eea 10e0 b03f
00000300: 63f2 1e71 20c9 cc3f 8c7f e1e7 5a3f b03f
00000310: 4b17 daf2 cd56 903f 1f6c 2c0e 2635 a33f
00000320: cc15 bb58 1e10 86bf 5cac b8b0 b291 b23f
00000330: 895e 0064 d0a3 c9bf 12bc 2088 22fb 563f
00000340: 9219 5f48 638f bf3f a32d 04a1 35c2 aa3f
00000350: ae6b eb8a 9722 a3bf 32ac e705 c119 aa3f
00000360: 6919 33a1 9e8e bfbf 4477 47c0 2f0a c1bf
00000370: ef5b 13cf d498 b8bf e6d8 631d a201 81bf
00000380: 4f2f 0719 4fe5 a93f 9d4b 6f16 231c babf
00000390: 639b 8b7a e0b2 8fbf 5683 156a 30db cebf
000003a0: e285 051b fa27 ae3f d4ea c152 8e38 b63f
000003b0: 68c3 b440 5bfa c3bf 211f ec61 da23 96bf
000003c0: e4ae 5748 7130 a1bf f4bf a998 6ee9 c9bf
000003d0: c825 f5f0 1817 a83f 00df be57 0682 b63f
000003e0: 73a5 61bb 6def 6f3f 7fcc 294b 2245 b9bf
000003f0: f7b7 e3fb f50e 9b3f 0fe7 36e9 3b4c 84bf
00000400: 1870 2f7e a808 c03f 1b86 92c2 1310 7ebf
00000410: 04c6 0799 0c84 a2bf 2979 92bf 3b82 b43f
00000420: 961f 0051 9cdf bdbf 282b 22bf d126 973f
00000430: 4364 de02 5f12 c53f 78bd 9851 a8d9 c33f
00000440: 3895 e222 9bcd b43f eebb d907 8e37 bfbf
00000450: dff9 b8fa eec2 c03f 22dc a0a5 b1c3 b2bf
00000460: b552 b6cf 0cf3 c1bf 4f89 84be 465f 7abf
00000470: 8349 b508 c4cf c1bf 93c5 8420 d515 7c3f
00000480: a668 f609 4a0f a5bf 3280 e617 7425 c03f
00000490: d1d5 5cee cd33 b53f 063e 7950 be48 cebf
000004a0: 6398 cbaf 16b2 c0bf bd56 d1a3 e3b6 c1bf
000004b0: 92a9 a350 fb84 b83f 6730 b4ae 25d7 b23f
000004c0: 9c99 a629 2204 c0bf af27 c28c 74c6 5bbf
000004d0: 45a7 c2fa a1e8 b6bf 9b85 8a87 6103 a4bf
000004e0: a193 d319 9d51 ccbf 840a e4e4 f23b aabf
000004f0: 1a5a 31ca 6e1d bbbf 5631 43ea 4c2f b7bf
00000500: 9189 d54e 3fe4 a83f 81c4 74c3 edb4 b9bf
00000510: 0e30 47cb a2cd c63f 5909 b6ca 9f1d b2bf
00000520: dfe4 9d65 ee3d a53f a667 a3ac 4c63 97bf
00000530: b48a a2f9 78a2 ba3f 178e 8979 3332 cabf
00000540: 0b97 85e1 3a3d b33f a01b 60a2 2437 a6bf
00000550: 6bbf 376e 687d b3bf bf49 87c0 249c 8bbf
00000560: e5e5 b692 2b16 c83f 93b2 b7f2 8966 bbbf
00000570: c093 1364 f4c7 d3bf 910a 92b5 6310 84bf
00000580: 58c3 b674 70fc c33f 84c7 b6bc 998f c93f
00000590: 04b9 5fd0 6afb aabf 7657 b430 0a5c 833f
000005a0: f017 a7ee 0614 c9bf c999 6b9d 2579 a83f
000005b0: 25c5 d2ff e189 b33f 36a3 a6bd 0b29 a6bf
000005c0: 7d60 2353 0c67 c1bf f093 e13a 6dec b03f
000005d0: 8b01 ea6d 2e36 c3bf ae25 0aca eebd 89bf
000005e0: d77e 0784 9660 babf 0247 a9ce 6f32 afbf
000005f0: f4df ec9d fee0 ae3f a34c bb46 98de c2bf
00000600: f02c 1dce 1d12 babf 68e5 b3c4 e214 c43f
00000610: 6777 8ff6 5a88 c83f 953f 68cf 57e6 923f
00000620: 3e6b c0e2 0450 9abf 282c f43b 34dd 79bf
00000630: 3963 8de8 aee8 b8bf 58c0 dd34 052c aa3f
00000640: c112 a5b5 4072 b1bf 7980 0e4b 5819 b33f
00000650: 759a 2aa8 9b42 b1bf 86ad f372 1333 b5bf
00000660: 24f9 0254 b06e 9f3f 390f 421b 6539 a13f
00000670: 17b1 3442 2de0 9c3f ed8e 5a20 ef31 b3bf
00000680: c647 d2c0 81f1 98bf 3e20 f753 1ea0 bdbf
00000690: c537 8547 c6cf ac3f 080f 35a7 9120 63bf
000006a0: c29a 687c 678e a63f ae59 b7d5 07e5 c2bf
000006b0: 8d9f fe0b cba6 58bf 9ad2 a660 7160 acbf
000006c0: ed7e 869e b71b aa3f 8d57 ce0b 9604 453f
000006d0: c3bc 2c8f a5f3 62bf b693 33bc 0ace a7bf
000006e0: 697f a467 64aa a13f fea7 65f2 6439 ab3f
000006f0: f9a4 b2d8 0f3d b23f a585 fead fcda a1bf
00000700: 1248 5a4c 16f7 ae3f 21dd 64a8 aace aa3f
00000710: baf4 e568 efae bbbf 801f 70f0 1c73 bebf
00000720: 295a 0cf2 3623 ad3f edbf 095d e82d c13f
00000730: 267d b2e6 c0e8 a53f 6335 9715 0e2f b1bf
00000740: 550e 2295 3435 b4bf d6f1 16c8 c113 b23f
00000750: efb4 75e4 b4c8 bcbf ce73 f2e2 c942 993f
00000760: 396e dbff c40f c1bf f537 9cac 4577 b0bf
00000770: 7b79 4ccf a728 b4bf 4f19 30d1 2dcd b6bf
00000780: e17c 3459 f677 6dbf 858e 6ebe 3235 a23f
00000790: aeaf bc6d fb80 c9bf 12d9 c9d8 17c5 933f
000007a0: 864d 8654 5ea5 afbf 2ba2 96eb 7ce0 bdbf
000007b0: eb45 2a95 9d5c a53f ef36 5df4 d986 abbf
000007c0: eaaf 6840 741b a9bf a5ac dd0c 65f6 853f
000007d0: 6256 8ca6 19c9 c8bf 1a14 3dad 4a26 afbf
000007e0: 3ddd ab48 4c4f b23f 7b2b 86c5 3b3e abbf
000007f0: 2896 4081 702e b1bf 7a6a e7a8 3648 b9bf

linear_layers.4.weight f8 [1, 17]
0.18441214063851877 0.18433159708149766 0.10602155903100938 0.08067093123779599 0.2269417496362109 0.15226080003924006 0.18329428943395418 0.003010906431307827
-0.13636868446548808 -0.1566803557252677 0.18742010123629252 -0.1717845373239059 0.04571782891256025 -0.13503202676946202 0.1292129612702483 -0.21256518855350487
-0.10207689359430225
00000000: a58e 8328 d19a c73f 4ad0 8a82 2d98 c73f
00000010: ce88 b598 3a24 bb3f 8f79 67a3 d9a6 b43f
00000020: fe6b 6460 6d0c cd3f 79cf 502a 487d c33f
00000030: 3fc9 54f1 2f76 c73f b8ca eb14 54aa 683f
00000040: 0729 fd6f 8774 c1bf 8301 e215 1a0e c4bf
00000050: 1d21 b6c2 61fd c73f 9de0 e124 09fd c5bf
00000060: 4e11 0cc8 5368 a73f 8097 71bd ba48 c1bf
00000070: 0501 70e1 0c8a c03f fe7c 8d0a 5635 cbbf
00000080: 5630 aa17 b621 babf
