Data/Breast Cancer Winsconsin (Diagnostic)/results/models/model_best/bcw_state.pt (torch, 406575 bytes, 10 tensors)

linear_layers.0.weight f8 [256, 31]
00000000: cea1 f97f 655b a6bf e18e 15dd baa5 babf
00000010: ffd7 d2e2 55d7 bd3f 498a 59ba def1 bd3f
00000020: 45b6 20cf 0446 c63f 61d1 1696 362d 893f
00000030: 66e1 e67b 1d61 d13f e6a5 f432 fbdb ca3f
00000040: 8767 ae42 93ca cd3f af7d 6b51 4bcd a93f
00000050: 8f18 4fbd c617 c43f 782f 3d87 850d 61bf
00000060: 3b54 cff7 410f a2bf b39e 1ff5 fd9d c23f
00000070: adf8 7053 f680 d0bf 8662 a890 0bae c6bf
00000080: 8a2f 5ded b38d c7bf 3057 d311 dca4 a0bf
00000090: 3cee cd85 293b c33f 0008 7d8e f620 d1bf
000000a0: b6be ba2c 3939 d33f 2c7f bbda db0c c53f
000000b0: f293 fcb6 3b09 d63f 0fcb a54a f0a3 c03f
000000c0: c333 4a6c c041 d23f 468b 61f7 7c2e ba3f
000000d0: 55b3 4163 4d6e d43f a376 5354 cf03 d03f
000000e0: a577 0bc2 61ff bd3f 31bc 8d5e 1060 c73f
000000f0: 0904 8c2a 06ca a3bf 44af 51e6 7933 d1bf
00000100: 5077 33bd 4276 c43f 55a5 f8dd 2f06 c5bf
00000110: 004c dad0 1e76 b3bf 683e bb7e 9604 d7bf
00000120: 9381 3c24 58bb 9d3f 5fcd 6951 af9c b43f
00000130: 4744 1512 a366 dbbf 7d8a cd17 cdf3 a1bf
00000140: 39b4 3356 8ab1 d03f 1601 5a36 7f9b c7bf
00000150: 9b7d 4be1 ee31 9dbf 871e 2792 eb27 b83f
00000160: 14c5 492f 3669 bcbf 5c30 fecd 176f 873f
00000170: b487 476e 1d49 d43f b427 86a2 b70f 90bf
00000180: 7f88 9472 3aa4 a93f 6142 bdcd 02dc b83f
00000190: 448c 74a0 ec43 cb3f c9c7 d465 55a5 d5bf
000001a0: f945 1605 9dc2 c33f e502 15d4 0622 b6bf
000001b0: 306a 620a e3c7 d1bf 4581 3822 a225 d5bf
000001c0: ae6b e9fb b427 913f 8f4b d5e5 57fd b4bf
000001d0: 2285 6558 1ec7 d8bf c435 7f09 17e7 92bf
000001e0: e3ef abe7 cdb3 b33f 3917 c012 4f72 cdbf
000001f0: 372c a77d 1908 c93f f46d e3dc 4041 bbbf
00000200: 05ed 1016 324c adbf a09b b8ad 7723 993f
00000210: 46ce 58e0 7507 b7bf 5ff9 28d9 ec1a d13f
00000220: cf6a d331 51f2 bdbf 8151 badf 667a c7bf
00000230: f7b8 d2cf 1ae6 b9bf 03b1 7150 8642 b23f
00000240: acad 0815 6e1c c7bf d269 4df2 f479 c43f
00000250: 2635 3634 a43a c6bf f8b4 632f fb7a d1bf
00000260: cc28 5096 d6bd 9b3f e7ec 1478 b634 cd3f
00000270: b217 7193 9809 c63f a1b3 b5bc e122 aabf
00000280: 8a36 8034 9ac3 74bf 3400 47c4 b9b0 b33f
00000290: 7605 d43c 9854 cbbf 118b 8ae2 4fa2 cbbf
000002a0: 9a97 92ee cdc7 c7bf 6521 ca5f 933f cdbf
000002b0: 28ba 635a 7418 bbbf 74ab c5bf 4da7 a73f
000002c0: 9a73 c870 1040 b8bf 7e40 2880 d8f9 b3bf
000002d0: 2a15 5efa a5c6 af3f 682e 7db0 1ca9 b8bf
000002e0: f0c6 06d5 0ac7 bd3f 75cf 4a36 353a b5bf
000002f0: 04e4 a5e7 c712 a2bf 3d7c d7b7 0164 c3bf
00000300: 80e2 c54e e8d6 86bf 7a24 4754 667a 92bf
00000310: 8f3b 7aee cb7b c5bf e2fa 5aa7 597e ad3f
00000320: 475d 431b 7507 b33f 0e84 c96d 910e 823f
00000330: ad06 1376 9c12 8cbf f18a 790c 2b98 b03f
00000340: 11d3 bfc6 9564 983f 7c48 ca29 b46b 71bf
00000350: 1a76 f668 8b6e b33f 731d 4687 fc37 ad3f
00000360: 6535 6e72 bdbc b0bf f0ca 4500 d3da 3dbf
00000370: 454a 1787 9e3c c1bf 2a4f f958 0241 b13f
00000380: 5bfc e213 9150 9c3f 2e68 c85d 456c acbf
00000390: 7d85 59df 5828 c13f 46c5 3c95 7d89 c03f
000003a0: e121 b1e9 9548 bd3f 5565 c3b7 24f0 b73f
000003b0: 9eab b97a 6113 bfbf 6092 4d51 622d 8a3f
000003c0: 42d4 b65a 1f82 ba3f 7604 bce7 8136 d43f
000003d0: 994c f110 0aaa cc3f ef71 f9a4 e258 c7bf
000003e0: 4d2a 159e 4ef9 993f 33db 8cd1 a9a2 a7bf
000003f0: 49e8 afb5 f91a a0bf 99e4 0769 fc6f 72bf
00000400: 4d38 1591 c725 cd3f 7aff d447 cc17 c93f
00000410: 9ced 5f9e 68fe cabf 849b 6cff f981 b8bf
00000420: 9b98 cff6 628f a7bf cace 58c9 0662 acbf
00000430: 3712 890a de78 c4bf 7916 88a1 7f29 9a3f
00000440: 34d3 ad91 5801 b73f 1f5c 79b2 2635 c1bf
00000450: 2888 e4e5 fc41 b8bf 17bc abc3 59e9 a63f
00000460: 2ee0 69cf 5467 a7bf 3a7f 9633 64de d1bf
00000470: cc94 3cd0 730c a93f 819c 4666 1bb5 aabf
00000480: f063 229a 16e8 a3bf a5e8 478b c7f1 b03f
00000490: 004e b024 45eb 9dbf aae1 fd3b cb43 8a3f
000004a0: 21ba e4d2 02ad ce3f 521d e71d 19f7 c63f
000004b0: 6187 1ce2 2772 c8bf 223f 1dcc 87fc b5bf
000004c0: c0f9 4cdd 89e4 c53f 48ff b88b 2434 773f
000004d0: 2ace 093e 34e1 cdbf f1fd b308 8cca c2bf
000004e0: c125 2d65 148a b5bf 0113 6cd5 aa44 a93f
000004f0: 7579 2cc5 7d2e c03f 0ae0 1108 3fd0 acbf
00000500: c568 5765 1ce9 c1bf a8ec 0e5a 6d2e ba3f
00000510: f3f3 529d 43ed d03f a3d6 aedc f2fe b6bf
00000520: 54cc 8a89 6989 9f3f 542e 661a 4890 a0bf
00000530: 8e5d d2ed eb6c 903f f01f 2128 78aa 813f
00000540: 6194 ae9a ed03 c2bf d2a0 ac63 f305 c3bf
00000550: b359 b2b4 2474 bbbf 5cff 85ec ae13 b3bf
00000560: fa6a 8e6b 249e cbbf 88d4 4aa3 1df3 d1bf
00000570: 3d33 322a 822d b0bf 7e3c 0386 2076 db3f
00000580: fadb b252 53df 99bf 25dd 8368 4d89 c43f
00000590: 036a dd6d 49bf d33f 093c 92fc f0bb c13f
000005a0: 9b14 ccae 67fc a53f 8042 3805 b48b d43f
000005b0: ea43 83df c254 bf3f f6cc 3e2e ba98 c43f
000005c0: 1a74 890a de4a ba3f cdc1 ea05 5e46 d5bf
000005d0: 899f 69ea f7c7 b9bf 5127 2411 0144 c9bf
000005e0: 9398 795a ad4a bc3f db28 3ac7 2169 b63f
000005f0: ad3c ea37 4176 ac3f 4960 3255 2695 95bf
00000600: ad64 1834 ae11 b6bf fa5a 5f6e 2040 b7bf
00000610: 30cd 92ee 77ab b0bf 709f 59cd 6326 c23f
00000620: 9bb4 7c79 e16d 9abf c43d fd09 90b1 b53f
00000630: ffcd a6fb 2dbb 953f 8f32 1c70 81a5 bebf
00000640: d762 2179 d937 a1bf 11bb e622 d8ea acbf
00000650: f92a a017 78c4 583f d16c 71f3 9622 b03f
00000660: df03 7d56 aae1 cb3f a508 974f 45b7 b53f
00000670: fa77 bf2a 8754 b7bf 75b6 9662 cd7c b33f
00000680: d3a1 d994 292f c03f 6ff2 ea1a ab0e c83f
00000690: a138 5efc 10be b2bf 267d d882 9961 b43f
000006a0: 9d12 1b30 3d88 abbf fc88 9591 6060 bcbf
000006b0: 966d 1237 7abc c23f ff5e fef8 1518 b93f
000006c0: a8ac b559 8bd5 c1bf 11f1 daeb 41f7 c6bf
000006d0: d94d 67c0 eb29 993f fcdc aeda 7979 ccbf
000006e0: 5fe4 91cd 21ea a7bf b20a 08c9 d677 94bf
000006f0: 7a07 0318 dbd2 c7bf b817 8163 2fa3 c23f
00000700: 4248 5379 d149 c33f 2f67 ce05 e65f b7bf
00000710: 5798 0bfa 8560 bdbf a628 6655 6bee bf3f
00000720: 079b 7b55 4254 d7bf 7133 55f3 1e58 a63f
00000730: 7965 97ae 5cff bebf 26a1 17e9 1bb4 bebf
00000740: 05db 060a 0f0b d3bf 7401 c293 ea86 bcbf
00000750: 2e4c 125f 59b1 babf b2b7 130f 2d3f cfbf
00000760: 5310 7eaa b56e b93f c118 48af 368c 883f
00000770: fe1d 96e2 f7f0 c73f d2ca 3dfa caec c93f
00000780: a3bf 3752 3691 ca3f 7214 3810 dd0c c13f
00000790: 2272 6f50 ede3 c83f 6db5 507c e16f ca3f
000007a0: 5b0c 0c32 dc3c a2bf 6542 9d21 31b1 873f
000007b0: db16 14b1 2d52 c33f 97f6 d0d9 aea0 bbbf
000007c0: b126 e3d8 c409 bebf 9064 15ad 0096 ca3f
000007d0: 966a 5b38 425f bdbf b176 b4a0 9342 c53f
000007e0: 0f5e 2c37 a63e cdbf 6fc3 be5c 4192 7f3f
000007f0: c308 862d ee65 c1bf bdfa 3372 da2b c4bf
-0.04366604983517029 -0.10409133813441997 0.11656700885473013 0.11697189378313867 0.17401180375729744 0.012293268637997458 0.27155243968765885 0.2098382948691288
0.2327446055976987 0.05039439553160762 0.15697559589006402 -0.0020816429113547606 -0.035272656917790766 0.14544653386041304 -0.2578712286812202 -0.1771864372574507
-0.18401192750968348 -0.03250777928921733 0.15024298699778338 -0.2676369086731256 0.3003676354228263 0.16445491962712688 0.34431355352199866 0.13000301022437852
0.28526316237622157 0.10227185287071192 0.3192323178580428 0.25023253664935846 0.11717806804105509 0.1826191388786085 -0.03865069646236214 -0.2687668561181804
0.15985903013545988 -0.1642513116687875 -0.07602112387603199 -0.3596550214396985 0.029034974300090232 0.0805158208620944 -0.42813946500706773 -0.03506318011820484
0.26083620470200547 -0.18443288949857423 -0.028510792256268052 0.09435913389381244 -0.1109804025125139 0.011442361806779093 0.3169625832507521 -0.015684956831627253
0.05008108757671525 0.09710710070545182 0.21301038584451437 -0.3382161611981443 0.15437662838353086 -0.08645670583519978 -0.27782512678246274 -0.33042195646159583
0.016753032565570862 -0.08199071274911617 -0.3871532309768374 -0.018459663347859992 0.07696234613462098 -0.23005093017143866 0.19555967936898508 -0.10646443741591566
-0.057221951669328454 0.02454936025437926 -0.08995758750170876 0.2672683830932296 -0.11697871653033619 -0.1834229080601624 -0.10116736959273341 0.07132758583037817
-0.18055511500402355 0.159971826850621 -0.17366459416772634 -0.2731311762607471 0.027091362881073874 0.2281711660706158 0.17216784667306012 -0.05104737690530859
-0.0050693534503928415 0.07691536943366445 -0.2135191246998535 -0.2158908706815841 -0.18578504704526894 -0.2285026757929344 -0.10584189612175321 0.04619830099075886
-0.09472754243365814 -0.07803109291876528 0.06206244164699577 -0.0963304453736612 0.11631839466897609 -0.0829194314526925 -0.03529953673109534 -0.15148946262977062
-0.01115209093471603 -0.018045042890467468 -0.16784047264488008 0.05760460060036167 0.07433254161457113 0.008816848910273147 -0.013707373002378754 0.06482190184173554
0.02382120156831308 -0.004253104937236182 0.075905526281041 0.05706776763241352 -0.06537994426454004 -0.0004555478228872997 -0.13466245266188728 0.06739821121419412
0.027651087607179253 -0.05551354188737921 0.1340437975477861 0.12919587885839173 0.11438881831521243 0.09350804792793117 -0.12138947721693547 0.012781875711604218
0.10354801144315309 0.31582687025372225 0.2239391882636468 -0.1824000649966275 0.025365093611336587 -0.04616289790140229 -0.031455806187253695 -0.004501329400676068
0.22771544059873108 0.19603875644133578 -0.21088893635883899 -0.09573328481620363 -0.0460158277781357 -0.05543538291786161 -0.15993857874322412 0.02554892943773843
0.08986428791633899 -0.13443454470208935 -0.09475689518561181 0.04474907411155742 -0.04571023017791763 -0.2791986945903663 0.04892312924338568 -0.052162986979333865
-0.038880068125941025 0.06618926191723291 -0.029217796673107088 0.012824619072248595 0.23965487763912655 0.179415835953686 -0.19098375835988704 -0.08588455899484562
0.17103694253633073 0.005664961583135959 -0.23343518285001724 -0.14680624413448087 -0.08413817854047691 0.04935201506854093 0.12641880157111599 -0.05627629254826168
-0.13992648075401895 0.10227092217148714 0.264481452595475 -0.08982770812766687 0.03079762365332457 -0.03235078165297681 0.016040502920615256 0.008625925755168823
-0.14074487736539523 -0.14861910216246216 -0.1072409573701865 -0.07451909327028033 -0.21576361896298818 -0.2804636091853543 -0.0631944039361771 0.42908490264102983
-0.025265981600309552 0.16044013598705323 0.3085502217196849 0.13854801495151062 0.04294132241015199 0.321026806924273 0.12238710362295505 0.16091086633750934
0.10270488507508482 -0.33241987779458954 -0.10070752594913136 -0.1973878225037944 0.11051448305951998 0.08754168619103402 0.05558971221500406 -0.02107677359580887
-0.08620728275163243 -0.09082224554672882 -0.06511640142962416 0.14179656531200235 -0.025809786834703457 0.08474064105870754 0.02122184608897548 -0.11971291529716609
-0.03362922290461306 -0.05647921968499337 0.0015116856361624949 0.06302779620584721 0.21782426093162052 0.08482773964991226 -0.09113354486132144 0.07612308175040446
0.12643928306648763 0.18794764341682277 -0.0732126823552073 0.07961425251459228 -0.05377379619816234 -0.11084559969234314 0.14637687386571646 0.09802377060838906
-0.139329356006191 -0.1794207002293509 0.024573978060130706 -0.22245715310939562 -0.0467081607284363 -0.01998839952467319 -0.1861223094220426 0.1456050144062695
0.15069025444114642 -0.09130704538111155 -0.1147540793859617 0.12473173937738355 -0.364517768363314 0.04364105911608974 -0.12108401548848303 -0.1199357456276898
-0.2975499723356026 -0.1114336596238042 -0.1042686326130002 -0.24411547886069013 0.0993455449334431 0.011986186241312759 0.1870412689570315 0.20253884524171056
0.20755652441539238 0.13320506374308 0.1944557802916203 0.2065393311508318 -0.0356205760090453 0.011568435514761785 0.15094538828286982 -0.10792057817249155
-0.11733656210995026 0.20770271731706602 -0.11473478198915141 0.16609425875588138 -0.2284744042778901 0.007707839318684558 -0.13592316840010285 -0.15758829666443389

linear_layers.1.weight f8 [128, 257]
00000000: 78b2 8243 af6e cbbf 8d76 89c0 bffe 9fbf
00000010: ad99 b77a 64dc b63f 1bf2 84d4 ed45 a5bf
00000020: 6eca 8400 1800 923f a9ee d8e3 2c3a b5bf
00000030: 0ada 2dac d831 853f a46e bd48 a3fe c2bf
00000040: 7c16 2532 f930 a43f 3497 45af 488c a5bf
00000050: 3db6 ae5c afda c6bf 8a59 e30b ca8b c9bf
00000060: 84ea c612 3d10 bcbf 708a a5cd 28af c0bf
00000070: 61be f0e6 4d13 c33f 72b5 c6ff c89d b1bf
00000080: 396e 983c 13d4 9bbf 73e8 36a2 b225 abbf
00000090: a9df 6925 6d0b babf 19b7 6491 30ca 9ebf
000000a0: 2fc0 0075 cdba 99bf de3b 35ad ac83 b43f
000000b0: 9ea0 fa25 ea34 b1bf 66bb 4f71 836e b2bf
000000c0: 3164 804f ef90 ae3f 9e8f 73ab 958d b3bf
000000d0: 34ff 38d0 7084 c0bf f95c 2cef 0a94 7abf
000000e0: d0f2 f70c 40c8 8ebf 7b7b ae6d fc84 abbf
000000f0: a264 cb8a b85e ae3f ac57 bf40 4430 b1bf
00000100: 94f8 31ca 65af c73f 4434 d9da ffab c3bf
00000110: 56db 1ec8 b318 b83f 6315 6909 45bf a6bf
00000120: 89b7 4cad 7188 9d3f 75ea 2716 1954 903f
00000130: eb8a 962a b5ea c43f 3495 f50e 822a a4bf
00000140: 9f90 2e5b c03e acbf e4cf 3fc6 881b b73f
00000150: fdef e07e e63f b43f 2b66 dfb0 6944 b0bf
00000160: f7cb ce47 ae95 7dbf 3d74 4180 5cd3 d1bf
00000170: 6f1a e3bf b44f a0bf 6658 b903 3362 b2bf
00000180: d804 f7cf a6b4 b93f cf90 6c77 0a45 a4bf
00000190: 9ce8 37a7 db12 b93f 49c1 80fc 324f 8bbf
000001a0: 3dd9 18d4 393b a9bf 5a86 b1cb 7221 c03f
000001b0: a92a 4089 a467 98bf 0bc2 05b9 6fb4 b3bf
000001c0: a5a9 fd4a 7d98 c1bf 767d a6d0 9400 cf3f
000001d0: dbd7 befd 4c73 a2bf 89fc c4b2 6cfd a73f
000001e0: 3ecf 0182 8106 c6bf 0cfe 7ef7 790d b8bf
000001f0: e9d9 0cab 974f bd3f 8101 50fc e575 9d3f
00000200: 649b 9420 50a3 8dbf 6665 44f6 f8fa c4bf
00000210: 571f df4b a254 78bf 5b0c ee63 d11c c23f
00000220: c158 65e7 73f4 ba3f c6a8 0b56 110e be3f
00000230: 5dbf 81d9 189e 813f fb63 e157 2c1f c3bf
00000240: b782 3d23 0407 bbbf f915 72f3 0aaa a63f
00000250: 66ca 0ae7 4654 a63f 9964 38d4 0376 cdbf
00000260: a8a2 7013 5a38 c1bf 4cdd 41bb 1518 c7bf
00000270: 0df3 814f 74d6 c0bf 8ffc aa78 43ee b3bf
00000280: cdb1 8097 1198 d1bf 5a0a 4272 5369 c3bf
00000290: df0b 0d2e 029d c3bf 5547 391b 341b 813f
000002a0: 1bc5 2da7 079d c4bf 97d7 511d edf8 b0bf
000002b0: 1e3c c664 61e0 9cbf a282 c515 1542 ae3f
000002c0: 9d31 142a a8d6 b5bf 6298 ad1d 21b2 863f
000002d0: 21d7 700d b7d9 843f c3eb 98e6 2257 b7bf
000002e0: 77b7 e953 69ad bbbf 0e55 9fc0 ac9f ba3f
000002f0: fd83 7e3d 94b0 bfbf 664f 6682 8704 b3bf
00000300: 56f9 c1e0 2b61 c7bf 9a7f e5ab 3f80 c3bf
00000310: da7c 0af5 5b69 a6bf dc7d 6ca7 3d35 cbbf
00000320: 4b80 05a0 e2c1 aebf e6cc cb53 4b32 a8bf
00000330: e9fa 7664 d1da c73f 5e66 418a fac8 cbbf
00000340: e052 cf68 1ff0 88bf 99ca b094 9da6 bdbf
00000350: cadc 177c 7ae8 9f3f d11b 2b99 a566 9a3f
00000360: 4947 4227 ec77 c7bf 3bfd 35cf ab39 c2bf
00000370: 1b12 f66c 473b abbf 38e4 b7b6 a7c8 a73f
00000380: 6225 8a46 32e3 bebf 18b3 8a5b 3d55 ce3f
00000390: 8c06 9315 b399 c4bf 287f 50ce 9fa5 a2bf
000003a0: 59a0 7eec f557 c4bf 70ac 7226 e305 b6bf
000003b0: 8b4d d0b6 43cd a0bf 2869 1e5f ee94 adbf
000003c0: ba41 4867 ce15 973f 534e 8b22 c866 96bf
000003d0: e968 3936 a6a7 bd3f 5262 5e07 d702 c13f
000003e0: 2ad1 b459 df1c b03f be8d 11c6 3e63 bcbf
000003f0: 47d2 48b5 0aae d03f f5cd c06a 199c a5bf
00000400: 1e0a 1cdb 56a3 81bf 448c a6da a39d b03f
00000410: 5751 6de3 81da a33f 754b cf50 27a5 a93f
00000420: 0f2b 911a d4a1 c23f 9976 9386 ea6d c0bf
00000430: 7d37 7a5f 8fee 693f ba3a 7339 3cfd 9cbf
00000440: c350 658e f924 c3bf 1937 34c0 9f40 b0bf
00000450: 2312 8de4 4d41 cebf f8cd 3ede 160e 843f
00000460: 2439 fbcb 7106 63bf 57b7 91ea dc63 d03f
00000470: 41de bd74 ae0f c1bf 9b5e e420 00f6 99bf
00000480: 3715 b35d 673b b0bf bb0c fbf4 477d b6bf
00000490: db93 644f cc05 be3f dac1 51c9 050b b3bf
000004a0: 0c59 1cc7 3aa8 bebf e465 e684 8de0 a3bf
000004b0: d093 315d c3d9 c13f c0f7 7fa8 cee2 b53f
000004c0: f224 ac70 83c3 76bf dc36 2bfc 0930 cbbf
000004d0: 616f 6af1 509e b43f b1d4 e3de 5ac0 c03f
000004e0: 4dc6 9933 2bc3 cbbf a085 47b6 aa7b cdbf
000004f0: c2b9 6f38 9437 a0bf 54f6 0f55 7071 a13f
00000500: ab4c c456 3c67 b1bf dc66 fd84 e929 cabf
00000510: 025e a3bd 83df b7bf e341 ae4b 1968 a8bf
00000520: e338 97d3 0ae8 a33f 2d2c abdc eb62 6ebf
00000530: 8831 3d1a ba6d 953f 7d68 1209 2759 c0bf
00000540: 520b 9f3d c207 b8bf c0c6 a62c 5c67 b43f
00000550: 825a 3691 6624 9fbf ef97 c4eb 3886 c53f
00000560: 95ae 6d27 0c20 9dbf 6697 d5f9 b47d c73f
00000570: 82e9 1970 5762 babf 2ef6 ce41 07ac c53f
00000580: a36c 99bc 4b90 83bf 0991 e744 8990 d2bf
00000590: b6b1 6f6e 90b5 b63f a6fa 5f89 becd 78bf
000005a0: a0f9 f24a 7c3b a7bf f729 1179 e7ee c8bf
000005b0: 52d7 06c8 3d94 b2bf 65c2 2c7b d966 a6bf
000005c0: c7c1 b43a 87f3 82bf 1777 6e29 693c a63f
000005d0: 80a1 ad97 ea2a b8bf e522 3e6a 7c4e bbbf
000005e0: 0f89 7734 da88 c9bf 0ee7 2174 538d c33f
000005f0: 3bc4 94a8 5a54 c8bf 494d aec4 32e6 a6bf
00000600: 86a8 95d5 837c bb3f bd2a 0d31 b283 813f
00000610: 7c49 c801 9ee6 8a3f 7f95 c00b 388a c63f
00000620: fe08 6412 4b08 58bf f989 f4a5 61d0 bdbf
00000630: 4246 806a ded3 b7bf 6580 1da5 a05e b3bf
00000640: 3054 7fbb 611b ca3f f8e1 fd2d 8399 c43f
00000650: 7edf 3384 6659 90bf b8d8 fd49 9ec7 c0bf
00000660: 458c 0406 0276 a7bf 8124 6c0e 4ea2 c93f
00000670: 5985 21d1 3289 d0bf 593a bf9e 7ac6 acbf
00000680: 6dcb 72ec 9b7f c63f 41bf 02a6 46c4 c1bf
00000690: f94a 696b 988e aabf c25a 638b 3f4a c03f
000006a0: b585 250e adc5 c03f bc98 8bf9 4730 c0bf
000006b0: 2c02 de0e bd0a b6bf 7097 6f75 0b00 b83f
000006c0: c7df f08c 6693 a83f 0e7f 0a3d d435 973f
000006d0: a391 a864 9522 b23f f0da 0740 249a 96bf
000006e0: e786 76fa bab5 c0bf 0f2a 2243 3e7a b0bf
000006f0: 975b 8c2a 7a71 953f a7a5 4e60 1245 a1bf
00000700: 175b ba5c 701b 843f 4016 acdf 7fd6 b6bf
00000710: 0315 c47c dfbd b6bf dc68 5adc b438 c13f
00000720: 63ca 5117 4feb c8bf dd6e 0ada ff34 85bf
00000730: db5c dc79 cfc2 8c3f c616 ca65 0a18 cdbf
00000740: d023 a0e9 6c47 b5bf c72f 31ea 3eb6 b9bf
00000750: 66b4 7ebc 4d06 b6bf 97f8 21d7 8660 c3bf
00000760: a30d bc83 c27f b93f 408a 4a70 55a8 babf
00000770: dc00 296b 98d6 aabf 223a ddbd d42d cabf
00000780: 8675 184e f95b acbf c36e 54da f538 babf
00000790: 93c2 28c2 93fe a7bf 780b 3909 0356 acbf
000007a0: bbc2 4c50 4c1c a0bf 22eb 82e5 f40b b9bf
000007b0: 3f43 e4d3 5cd1 b4bf 7b19 bb23 83f7 b8bf
000007c0: 9de7 e5c9 62ad c7bf cd5b 162a 14dd bbbf
000007d0: 4626 f4e3 704f 7d3f b52e bf96 26a3 b1bf
000007e0: bde6 b8b2 f629 bbbf 5909 8e72 18a0 cabf
000007f0: ab7a 272b 84eb c9bf b1ca c3fd b427 c1bf
-0.21431532665646436 -0.031245227934383158 0.08930042263054956 -0.04154914111356708 0.01757848265806177 -0.08291893541984997 0.010348980669488323 -0.1483959298301346
0.03943613755340622 -0.04208590640591439 -0.17854873681555886 -0.19957852917168523 -0.109622780880196 -0.13034544030513784 0.14902662063967667 -0.06881386036430628
-0.027176189969493534 -0.053021986295292665 -0.10173685229699338 -0.030068167566404378 -0.02512665773991801 0.08013419369420613 -0.06721366336080556 -0.07199880138771916
0.05969951482274672 -0.07637916026902622 -0.12904176871415418 -0.006488840782160604 -0.015030384441155148 -0.05374897803198216 0.05931641287106372 -0.06714274006603088
0.1850402104645964 -0.15368650613746315 0.0941269267631076 -0.04442802181123786 0.028840805246708654 0.0159458083889867 0.16341270999426824 -0.039386810613715545
-0.0551662551218055 0.09026388969488114 0.07910004232047636 -0.06354389732532499 -0.007222824843597478 -0.27852547192543736 -0.03185810892459961 -0.07181090203207105
0.10041277482288835 -0.03958924014867337 0.0979440005538969 -0.01333465416982506 -0.049279982701067905 0.12602076478929086 -0.023832865597834516 -0.076971991225726
-0.13746610795653882 0.24220524013524497 -0.03603592488745707 0.04685535127873048 -0.17207354400636093 -0.09395563404449819 0.11449573446302676 0.028770059132513296
-0.014471651071813425 -0.16390907311214703 -0.005940088243683159 0.14150445346249083 0.10529255294145214 0.11740215635987558 0.008602327478200495 -0.14938883105313025
-0.1055758081470327 0.04426607343433981 0.043611732200038486 -0.23016403066938976 -0.13453222226350658 -0.180422512468548 -0.1315446270199562 -0.07785436340326356
-0.2749065379637415 -0.15165179327967132 -0.15322901962835453 0.008352667885592227 -0.16104217207934188 -0.06629831281483543 -0.028199693465975277 0.05909791842237168
-0.08530665423695045 0.011081942289546901 0.010180883500747808 -0.09117334489648869 -0.1081147985330214 0.10399894430823428 -0.12378813268016127 -0.07428786214432889
-0.18265293573854063 -0.15235134023077707 -0.04377257696364163 -0.21256228137006772 -0.06007297709834399 -0.047258714655890974 0.18636529355531842 -0.21707088232760702
-0.012176747690241851 -0.11582360153333084 0.031160272430466297 0.02578219172826463 -0.183347243470559 -0.1423849832317304 -0.053186637926988044 0.04645275216530148
-0.1206542417732144 0.23697630853475782 -0.16094053796227958 -0.03641986268507785 -0.15893434569921075 -0.08602733315153599 -0.03281604391681999 -0.05777687941663806
0.022544121793602413 -0.021876456364067497 0.11583937476953889 0.13289916858481604 0.06294055881591434 -0.110889361721596 0.2606226702075997 -0.04220656803263615
-0.008612326204006367 0.06490539634846565 0.03877645398339052 0.050088146795721857 0.14556361481876265 -0.1283543736562265 0.003165512109098266 -0.02830976582191156
-0.14956588223379272 -0.06348608438949234 -0.2363679281208003 0.009792498261822921 -0.0023224089235106705 0.25609515101574715 -0.13329106045033437 -0.025352479941914124
-0.06340642964922415 -0.087849137601597 0.11727597177794229 -0.07438694157622852 -0.11975447999097727 -0.03882257697405203 0.13945810366126787 0.08549205411688288
-0.005557549894328094 -0.2124035340588567 0.08054071325244429 0.1308702076272872 -0.21689357776226573 -0.23033651256905063 -0.03167403401299708 0.034068594344699804
-0.06798150175409272 -0.20440405839581544 -0.09325431232297635 -0.04766921089970191 0.038879717186874684 -0.0037092787436896675 0.02092638764524815 -0.1277207178398533
-0.09386838917184306 0.07970214929698738 -0.03041229497247367 0.16815864097696884 -0.028442563921471892 0.18352377127592517 -0.1030630730328195 0.16931238854697156
-0.009552566235632226 -0.29007179001770617 0.08870794960211623 -0.006055588039088155 -0.04537571349054592 -0.194790777315873 -0.07257448323693197 -0.04375342968558441
-0.009253555754725874 0.04342964773898766 -0.09440485194284598 -0.10666635125938802 -0.1994889026819426 0.15275042696503544 -0.19007428390026057 -0.04472502375497329
0.1073686977812561 0.00855197155182929 0.01313517992915502 0.1760931069740472 -0.0014668210147311118 -0.1164608984150063 -0.09307661152004079 -0.07566265135892676
0.203960625220732 0.160934827286624 -0.015966035670288196 -0.1310918675696422 -0.045822203859892364 0.20026565269680321 -0.25837393210357146 -0.05620177448110004
0.1757693199666294 -0.13880236726753917 -0.051869166480761515 0.12726587587413546 0.13103259268522796 -0.12647342381314342 -0.0861013566300321 0.09375068299376976
0.04799957724065922 0.02266627905430512 0.07084020335657341 -0.0220723785477856 -0.13054597119940256 -0.06436528338432644 0.020940693709316695 -0.033730100876094675
0.009817960576851399 -0.08921050272700715 -0.08883473201793284 0.13454304465705647 -0.1946810592522353 -0.010354994622779607 0.014043446451565014 -0.2272961613672832
-0.0831211157202596 -0.10043709962445667 -0.08603368617942095 -0.15138326172376956 0.0996057101838717 -0.10413106910213177 -0.05241848285777603 -0.20452365179740278
-0.05538920477213609 -0.10243164615934135 -0.04686414475543645 -0.05534371841033353 -0.03146589737150892 -0.09783869365029976 -0.08131961987625135 -0.09752673742614164
-0.184978817542114 -0.10884214427493007 0.007155838945672571 -0.06889573269216494 -0.10610906470619859 -0.2080107268666989 -0.20249988658084325 -0.13402426138744297

linear_layers.2.weight f8 [64, 129]
00000000: e551 4688 5f01 a9bf 9888 a787 4bc8 d33f
00000010: cd1c a2e9 a47c b8bf 13cd 2e8c f954 cd3f
00000020: 6651 73dc e2cd b0bf b7e6 b2fb f10b a0bf
00000030: e0b0 775f 405f aebf b6b8 170b 998c c03f
00000040: a3b5 e66c 97f6 b0bf 5833 6ab7 6f84 b1bf
00000050: 6b85 4d8e f7af bdbf 0dce 5dad 30dd b33f
00000060: 574a a4d4 0437 bbbf 6c63 35d0 2261 93bf
00000070: c3a3 dadd 6dfc 903f f1d1 bdc1 55e0 bc3f
00000080: 5255 c3c6 164d b03f 71d4 0272 2034 aebf
00000090: a3e5 2b29 6dda 703f 36ab 79e6 42d6 b7bf
000000a0: 9bbd 6e0a aced b0bf ca30 26ef 71a0 923f
000000b0: aff3 2830 5cdf c1bf f4a6 d290 46bc afbf
000000c0: 3e83 1a48 fbeb b13f 01c1 b07e 490f 9abf
000000d0: eacd 9a34 5c1e d1bf 0d0b f0ee f180 b5bf
000000e0: ebca 0601 4857 bc3f 3df5 10a7 22d1 d2bf
000000f0: 109d f9f5 efc1 c43f 72ff d930 599b 8fbf
00000100: bfd6 d015 2d98 b63f 021f 426d 4cc1 cabf
00000110: 3a07 92ae cce4 a73f 317a c7b6 f5ac b93f
00000120: 363e 2b53 84fe a9bf f2e4 fb2f ebd0 a4bf
00000130: 47d3 1e7e 9097 a1bf 8adf 9635 0910 bdbf
00000140: b5f7 b4f6 cc10 b0bf 2624 e5c2 0094 b53f
00000150: 3d62 a789 32c0 a83f 2e03 ae8a e3d9 c5bf
00000160: 1b98 7cde 6cc8 b73f 4344 05b5 983b cf3f
00000170: 95b7 64a3 4a61 d33f 0ee9 9068 aff3 babf
00000180: ab61 8a82 9f63 96bf fff5 d79f 5171 a03f
00000190: af5a 2582 d623 b0bf 3b6a 2ede d6aa a8bf
000001a0: dadd 7c40 2593 cb3f 039f 4c15 af35 cc3f
000001b0: 8a57 ada0 332b a63f 5380 a9b6 5838 d43f
000001c0: 915e c77b 6c79 dfbf 7b8a fd7e ec6c 69bf
000001d0: 1276 6740 75a7 c73f 85d1 a519 d992 793f
000001e0: 9cc1 5598 8a6f b03f 9836 68b1 700d a8bf
000001f0: 0a74 751c 134c a23f cba7 f03d bc68 a8bf
00000200: 39ff a93f 0562 923f 501f 1c01 0d5d 813f
00000210: 4a5e daf0 ca91 d33f efeb 0547 3ed3 9abf
00000220: 756e 688f 56de 8e3f 57cd f126 27b3 a73f
00000230: d979 9f5f 5d0e ccbf a945 97f8 afce aebf
00000240: 40ce 2935 a4d6 c6bf 88a5 7686 1fa2 a83f
00000250: 9b2e 7e2b 772a bdbf 4c71 3c57 b493 15bf
00000260: 8789 fba0 fc77 d23f 5e7f 3397 3aad af3f
00000270: 0de5 705a 6c5e 963f 80b0 6603 f288 a73f
00000280: fb74 21ba 77e8 c2bf f0d2 a89c 7839 c63f
00000290: f7e1 8706 caf5 91bf 7cd3 d8db d973 d0bf
000002a0: defd 1e9f ac9d c1bf 0913 ebc8 c037 8abf
000002b0: 9eb8 3e97 fdc6 873f 47e6 7763 5979 d2bf
000002c0: 85c3 4d95 1c30 c43f 206c 93e0 b27b ac3f
000002d0: 625c dfc9 e2f0 b03f 9723 64e2 ed7d c4bf
000002e0: e246 7996 0f68 b33f f5a8 5f77 b600 a63f
000002f0: 9518 ea23 5ba5 b5bf ee1c bd88 8b5a c73f
00000300: 97a9 6143 ce32 973f 1208 9473 a815 98bf
00000310: e068 f149 460a c13f 2632 34f3 391b 80bf
00000320: a4d1 97e8 2009 c43f 3369 e114 94ee 893f
00000330: f23f f4bd c7fc bdbf fa4b c1f0 060b a63f
00000340: 051c 0a4e e9b7 d73f 660e 1e98 7d24 83bf
00000350: 7580 6de4 32ab 933f b634 adcf fd93 c83f
00000360: 9b2c aaf0 8378 d7bf 2e27 8099 e9d2 c9bf
00000370: d759 8326 cf36 b3bf 48ae 6610 e0ef 6c3f
00000380: ca22 5ba4 9952 d03f 8f10 4fed 7943 ae3f
00000390: 3fd9 26b2 8f37 c03f a930 c2d2 8549 c63f
000003a0: e86f 4dba 2f93 d4bf 6595 7223 e220 b1bf
000003b0: 36d7 4042 bb6e b93f 8ed7 0c5d 9227 9d3f
000003c0: 4c24 2c45 dcb0 bbbf 2923 00fb c063 c6bf
000003d0: f655 10cc de28 a6bf c976 5665 4f51 c9bf
000003e0: 5ef8 5ec3 3579 6f3f f53d 601a 8494 bebf
000003f0: c2e6 995a 8e7c bcbf 684b 2d5f 8692 b4bf
00000400: a523 fc59 6024 d13f ca93 f4a0 a68c 98bf
00000410: 19d3 cce1 cfaf 983f 9253 ea38 3dc2 b2bf
00000420: 5a58 7a68 6693 c0bf 8a8b d262 65ee b13f
00000430: 7dcf 580d 306c f83e 76a8 7e18 ddf9 73bf
00000440: 961a 2811 495c 813f badb e3e9 fc7b 9d3f
00000450: 4680 d514 c634 a4bf f7d6 d08b b107 82bf
00000460: dfd4 c1b4 5b2c b3bf fe4f 684e 7804 57bf
00000470: 1765 bf48 9525 b1bf c9f8 8aee 951c bbbf
00000480: c4b2 c24d 02e2 a93f 4f5c 0dfa 5b95 b23f
00000490: ef0f 4e8a 794f 52bf b73d 3828 9c45 adbf
000004a0: 3bda d64f bb54 a03f 4132 3294 f54c 9c3f
000004b0: 9a4f 7107 5312 a6bf 34d3 f223 7f4e babf
000004c0: cfb8 7825 c6ef a33f 7262 9326 9bcb 963f
000004d0: 3079 48fd bacf 9a3f 42c8 334d 2d51 b0bf
000004e0: 4ded 5011 89f1 8d3f 4020 8eec d2da 99bf
000004f0: 4a54 3bf2 0ed1 91bf fa3e 6257 8b3a b1bf
00000500: 0c65 b878 1d4c c3bf b2b4 7b81 6e12 a6bf
00000510: a936 5e09 0e5f b0bf 1ed8 90bd 50b4 88bf
00000520: f256 5d6f 793e c4bf b60c b455 e542 863f
00000530: b082 cb2b 0ca2 b5bf 9c8c 3d01 ef01 b23f
00000540: b581 2163 6fe3 b13f 48cb 3283 d517 9e3f
00000550: 1556 a7be 1c07 a0bf bfa5 0f60 3ab9 943f
00000560: ff8c db21 dfd9 b03f 0ee2 b96e 867e c03f
00000570: c08d d817 baf2 923f d2ed 1e72 7d67 c0bf
00000580: 806a 8d98 71c8 a6bf 66d8 2bc8 d727 a0bf
00000590: 5c95 854c 66c9 89bf 3449 de1e 5033 adbf
000005a0: 4596 c4c7 339a 973f 7510 ef1d a83c a13f
000005b0: abdf c153 d8b9 acbf 3dd9 5dae a621 b03f
000005c0: c724 52bf 4831 c7bf b6e1 58f5 ad86 9d3f
000005d0: 980b 29f9 ffdc 80bf 1751 9b1f 3f1a b23f
000005e0: d679 d8be 5a44 b43f 64f6 78f3 4ee4 a63f
000005f0: c204 c1ff d991 83bf eb60 b5f2 32b1 b1bf
00000600: c8e0 e776 4db9 ab3f 81f0 fd19 3f06 893f
00000610: bb99 f057 af9d 8fbf 149a e5d7 0c18 a8bf
00000620: 290a fdf2 f0cb aebf a172 a24d d111 a8bf
00000630: bfa5 55f2 c5f5 9e3f 5ccb eaa2 f3e0 babf
00000640: 240a 56f9 20a4 a33f 0cc2 68e1 e487 b1bf
00000650: 2de3 8f34 4dcc a5bf 39b5 70bd f0a3 a93f
00000660: 99bb fe45 0933 a43f a79c 1095 d4e9 c0bf
00000670: 2b13 60e5 c60a b4bf b774 b27a 6f47 ab3f
00000680: 0434 d87a 3f2f af3f 2733 ecba e306 8fbf
00000690: e318 a00d 1248 b9bf bd1f aa3a 8d09 9bbf
000006a0: ac9f 6db3 3027 a6bf 2ceb fd56 3610 a43f
000006b0: f513 54db 9e5b bbbf ce3a 6c82 244e b03f
000006c0: d1c3 ec85 a9ae b5bf 9c1b 29df ea43 98bf
000006d0: a7d4 b6ad 134a b63f 7138 2107 7fc0 b93f
000006e0: 7dc5 4875 9bca a03f f296 efb9 9324 95bf
000006f0: 41ca 3dcb 34a9 b1bf ef3c 1a0f b788 b33f
00000700: d7a4 53a0 0db8 b53f 51cf f286 f4d2 a0bf
00000710: 5ce2 99f4 4a68 b1bf 6ef6 f9c5 4006 c0bf
00000720: 1aee c0c5 d62c b93f 05ff 0e3f 31ac c7bf
00000730: abcd f62e 738b a0bf 93b0 fea5 9862 a9bf
00000740: 8639 64fc 37c1 8abf 5901 7677 6d62 a2bf
00000750: 5fb0 d669 8afe 5dbf cff0 064e aec0 90bf
00000760: 7d29 50fe 4ab2 c1bf 9caf dd64 0f9a 96bf
00000770: a398 7a4e 3afc 9a3f 21b9 4bbf 9d35 a43f
00000780: 7ba1 308e 8b3b a5bf accb 567f c367 b4bf
00000790: 0955 6ef6 e70c a6bf 059c c19d f9a1 babf
000007a0: 63fc ba75 bf94 913f 75bd 852a c317 af3f
000007b0: ac33 256e aa8b adbf 4614 6d71 c790 bfbf
000007c0: 8c60 e112 14dd 93bf 4c94 4438 a805 77bf
000007d0: 8377 9327 6eb0 b43f dbff 280f 9675 9dbf
000007e0: c281 b521 9597 c63f fe02 83c0 459a 803f
000007f0: 1c7b ff39 9fc4 b13f 4213 1210 4d3c b1bf
-0.04883860147961964 0.30910003898146376 -0.0956519194024736 0.22915572495330902 -0.06564157373515442 -0.031341135001139823 -0.059320460942986264 0.12929070512422464
-0.06626268776627468 -0.0684270689764167 -0.11596629356565351 0.07759384377077812 -0.1063082713265343 -0.018925231893578795 0.016587940851113602 0.1127980802537605
0.06367628433811959 -0.05899144546257496 0.004114557656742876 -0.09311311842763534 -0.06612658743573833 0.018190174314029396 -0.13962890960274651 -0.061983304194041994
0.0700070429834456 -0.02544894061810599 -0.2674780381887262 -0.08399879535140205 0.11070680642186985 -0.2940146094805021 0.16216849813938738 -0.01543302231152641
0.08825952322589624 -0.2090240033614848 0.04666747694956404 0.10029540741332067 -0.05076993479962903 -0.04065642319432951 -0.03435946979099085 -0.11352593954404547
-0.0627563574134616 0.08428959615879758 0.04834134989113579 -0.17071193953963743 0.09290199691585636 0.2440062412156597 0.3028132053030899 -0.10528084090120535
-0.02186440691238693 0.03211455417838848 -0.06304684331312659 -0.048178400632611994 0.2154280247575418 0.22038830318455646 0.04329835258856381 0.31593911970231153
-0.4917861183907713 -0.0031036967338178823 0.18479791302426968 0.006243560836413646 0.06420198649516923 -0.04697754064191634 0.035736653541540944 -0.04767406707863094
0.01795204354357269 0.00847826156270029 0.30577348252106573 -0.026196454129131238 0.01507251382013595 0.04628870344540797 -0.2191883770855856 -0.06017064961964575
-0.17842533679832862 0.04811190143966387 -0.11392922221983286 -8.230961048777858e-05 0.2885734150023826 0.0618685063907367 0.021844571132736457 0.045966685214211545
-0.14771935070431383 0.17362888001812093 -0.01753917374478139 -0.2570709845488677 -0.13762433785994593 -0.012801653033770248 0.011610013177996866 -0.28865656579691684
0.15771825113509066 0.05563124648480078 0.06617562702682414 -0.1600930552888513 0.07580659316706886 0.042974187919598984 -0.08455438257996868 0.1824507157964272
0.022654745924606336 -0.02352011876519817 0.13312605486391416 -0.007864430174344749 0.15652858120996627 0.012662083518240585 -0.11713837039519584 0.043052880181356515
0.37060005780261945 -0.009346944050555094 0.01920775908672608 0.19201634064157752 -0.3667306757203705 -0.20174903865000132 -0.07505507173787095 0.00353235018265766
0.25504151392355523 0.05910855314098839 0.12669559668365513 0.17411873618073528 -0.3214835471496813 -0.06690801015300492 0.09934587829124272 0.028471266679126077
-0.10816742600231172 -0.1749192452992017 -0.043280565652974376 -0.19779388855106664 0.003841977125346437 -0.1194536747354887 -0.11127557479803854 -0.08036079238563121
0.2678452376135801 -0.023974040578781865 0.02410816970514693 -0.073276354213091 -0.12949829198322754 0.07004388487489002 2.3291214196599186e-05 -0.004876960425386758
0.008476801715926723 0.028793288970486698 -0.039465131800853245 -0.008803736762370102 -0.07489560282722917 -0.0014048743120200764 -0.06697972322526301 -0.10590493272590885
0.050552436821225594 0.07259154181279935 -0.0011175810734309584 -0.05717170706713708 0.03189645146942551 0.027637326402827126 -0.04310855356075578 -0.10276026370668206
0.03893870551506639 0.022261070470309403 0.026183053692983183 -0.06373866209813264 0.014620848504015039 -0.02524880951708064 -0.01739905694451619 -0.067299565156869
-0.15076034922166348 -0.043109372430856566 -0.06395042160712684 -0.01206267431744484 -0.15815656602597233 0.010869781187017185 -0.0845038992806717 0.07034200458797318
0.06987663431346543 0.029387794621196478 -0.03130426242175247 0.020237838852983133 0.06582445694543891 0.12886124044941066 0.01850405474227812 -0.1281582648497151
-0.044498014328117286 -0.03155397718903501 -0.012591170511493992 -0.05703211190042837 0.023049172466150365 0.033665898946794316 -0.05610538504055226 0.063013475007982
-0.18119153348769698 0.028834074115566564 -0.008234023848791058 0.07071299096725557 0.07916800650898578 0.044710604878201804 -0.009555533521167784 -0.0691100924062799
0.05414812160955901 0.012218945484839818 -0.015437478896342385 -0.047058488230323686 -0.06014969793479381 -0.04701093743026275 0.03023442546456123 -0.10499499061078893
0.03836157840398283 -0.06847982886461795 -0.042574322382228004 0.05007889091971624 0.03945187549049151 -0.1321359374862585 -0.07828944301588751 0.0532793843533254
0.060907348390266264 -0.015149859563757652 -0.09875595886851189 -0.026403624253845005 -0.04326774778638706 0.03918618976509544 -0.10686676840494143 0.06369236168050493
-0.08469638366365408 -0.023696584578171462 0.08706782332486061 0.10059350894991483 0.032795770708967865 -0.02064734289515164 -0.06898813211390921 0.0763048564788169
0.08483967937685875 -0.03285946032829535 -0.06799763175684731 -0.1251908270532342 0.09834043815583762 -0.18494239405662696 -0.03231391857425633 -0.04958035494141302
-0.013063847913625148 -0.03590719302428864 -0.001830706757895782 -0.016360019218823404 -0.13825356881745768 -0.022072067767495804 0.02635279754635945 0.03947155914453249
-0.04146991835324606 -0.07970830782760058 -0.04306721575918899 -0.1040340433261094 0.01716899066991252 0.06072816747734581 -0.0577061900572525 -0.12330290335837998
-0.019398034717909726 -0.005620629414157707 0.08081711260044071 -0.028768868136694308 0.17650093217799961 0.008106751382344065 0.0694064632984745 -0.06732637064312733

linear_layers.3.weight f8 [16, 65]
00000000: 5caf 92d1 0d85 b8bf 1574 ec85 a308 a7bf
00000010: 78e0 b948 9847 b5bf 4946 6006 cf34 b7bf
00000020: f27f 788b 7758 953f 197c 8993 1f73 c1bf
00000030: ddfd 4850 99e9 b23f a7ab 9ef1 8ba5 afbf
00000040: 2587 a2d1 c9fc bebf dddb 0da9 b58a 83bf
00000050: ee94 33e0 6578 b43f 5fc7 cd53 838a a4bf
00000060: 9cbe d428 43d1 c0bf 1095 18d2 eae1 82bf
00000070: 9dd4 e88c 67cd b33f cec9 ede3 a681 9dbf
00000080: 426b 5988 9a18 c2bf 0aff 2063 0f18 b2bf
00000090: cd4f a87e d0ff afbf 941d 00c3 b2fe 2dbf
000000a0: e9f4 58bc 4513 aabf e35e 552e 0f05 9fbf
000000b0: 1777 3336 44e2 ad3f 6299 1630 5f64 abbf
000000c0: 0dcf b322 fbd2 bebf bd4a 6fdb 21f7 b13f
000000d0: 65f9 306d 5f85 b0bf 6cbe 7f0f 748a 913f
000000e0: c7b0 c54c 7f87 ac3f c3d8 dfca d2f0 a33f
000000f0: 5c1e 1da6 57a4 c1bf 9471 edfa c3d8 9bbf
00000100: b751 a06b e295 b13f a6fe f6b4 72aa 9fbf
00000110: 8311 d4d2 e575 893f c86d 74fa e9ae a3bf
00000120: 7471 3b3c 5115 acbf b46c ecf8 cdfd b0bf
00000130: 4875 9a9f 9eee b8bf ad43 146c 811d a13f
00000140: e5f1 c576 4799 b63f 0cc7 754e 8dbb 833f
00000150: 3ea3 a893 a519 acbf 97f4 b110 67d7 a7bf
00000160: 7efe dd1c 7a04 cfbf df5d 6b43 dee2 afbf
00000170: 4141 5bf6 80e4 bebf d20b a3c7 f916 b7bf
00000180: 6ad9 dd97 d153 b53f 517f e5f2 59d4 b8bf
00000190: 239b 1d1e f2a9 9f3f da67 94cb 8bed c6bf
000001a0: 7b64 62df 647e b63f 5e8e 91fd c2fc a7bf
000001b0: af30 9a04 b33d 9abf e64f 02d5 1060 7dbf
000001c0: f309 2bc0 80e5 953f a28d 434f dfbe c7bf
000001d0: 4f1e d7b2 101c 893f 7e0f 230e ae44 bebf
000001e0: 4a82 8182 c91e a8bf 7c55 c39b 950e 49bf
000001f0: 4498 6b38 7033 b2bf 7574 6d37 d106 bb3f
00000200: bb3c 85fd ca5e b0bf b73b eab0 7cd3 afbf
00000210: 32bd 4c9f 28fb 90bf 019c 6b46 fcb6 aabf
00000220: 98da 8d6a 97ba b63f 7674 ede6 b62e 87bf
00000230: d287 e790 03c4 913f 4bbc ff1b ca01 b6bf
00000240: 542f c7e8 1077 c0bf ff2a 1270 9082 a9bf
00000250: f448 9b54 7d95 b9bf ad7c 4cf3 0df7 b13f
00000260: ae62 033e 0c69 823f 7270 40fb 151a b0bf
00000270: 8f1a 79a6 abf7 bbbf 6b4a 7510 8f5a b63f
00000280: 8b27 2204 51b4 acbf 317a 69e0 37a6 bbbf
00000290: 851c cee5 f33c b53f 3575 4380 546e 9ebf
000002a0: e377 87f5 16e5 c2bf a9aa 4511 b854 b63f
000002b0: 8716 e2d9 ef2a acbf 6064 ef86 8ac5 9fbf
000002c0: fb4a 8dd1 4b1f a03f 88f6 9ff6 2516 acbf
000002d0: 55d2 06db a8f0 913f 841e 2642 b2c6 a9bf
000002e0: 8e95 41d1 1e23 bcbf 1f67 4404 d944 b43f
000002f0: f7fd 820c 101f c3bf 535d f04d 44ce bcbf
00000300: 51a1 0230 cf6d af3f f387 3a69 29e2 a93f
00000310: d357 f139 1364 b1bf d548 3003 cdd4 9a3f
00000320: 4c4e 289d 4318 b9bf bd26 af7c df70 a4bf
00000330: 8228 83ff 79c3 a9bf 4c2b 1197 ef48 ab3f
00000340: a91e 24f2 407f bbbf b728 f482 ef4c 95bf
00000350: a8fb 081a c663 b23f 1398 eef6 7892 b8bf
00000360: db31 6989 48b1 893f 9e91 e138 5b53 58bf
00000370: faed cb00 108a 903f 115f 7a8b 3124 bd3f
00000380: 1bc9 5993 bcc2 66bf 8fb6 d9bc ee20 a83f
00000390: 711b c247 4977 ccbf de1b 1878 291b a83f
000003a0: 180b 22b3 9e03 b6bf d31c d600 7247 663f
000003b0: d158 27d7 3d7d 8ebf d7d9 753d 7669 b7bf
000003c0: 52e3 0c6b 2b94 aebf 5be6 98f5 02b1 7a3f
000003d0: 0396 a0cd db3f 35bf 8d5b f93a a993 b93f
000003e0: 1b2b e2ec 4a4c b13f 9821 1bb3 2cd2 943f
000003f0: 3e4a 1ef1 0047 b0bf 321d 7414 7994 bc3f
00000400: fd79 39ff ecd2 923f 5348 10be c7cc 93bf
00000410: 8245 3bfb ba53 a73f 7160 554c 7dff 5bbf
00000420: 4b90 354f 1464 c7bf be66 b095 8021 99bf
00000430: b106 6462 cb05 97bf e29f 9272 11cc cb3f
00000440: 2eea b088 e5a7 9dbf 3ef2 76c6 6c6c 78bf
00000450: 6bab 59b3 296d 89bf b550 9412 c7bd c03f
00000460: 9a12 4cf6 ef8b c33f 4fcf 6a09 2f25 c73f
00000470: dea2 b198 0c8a cd3f 60dc f1a3 d8f1 be3f
00000480: a974 7432 1b79 adbf c57e 58ab 5d6c a7bf
00000490: c148 7f27 c3c6 a6bf ad19 fbb9 724f b23f
000004a0: f026 7f43 a1a8 c1bf bd6f 0b7a 90a4 c13f
000004b0: 76bc e0fe 74a7 96bf a451 be88 7536 abbf
000004c0: 5d82 d5f1 3784 b9bf b1d8 268f 7517 9c3f
000004d0: c7b5 cba6 f260 b2bf 76f0 939e 7517 c7bf
000004e0: 1cd6 abdd ea72 b1bf 569e 3301 00c9 a93f
000004f0: 3eb2 d86c f2e0 ae3f e815 4c9c 28f6 c3bf
00000500: d5fd 61c4 81e6 cfbf 4058 3bfb 0ab6 abbf
00000510: c68d 04e1 2320 8d3f 4504 a23d ddc7 c53f
00000520: 89ae d5fe 18ce 88bf 1c85 9670 6e21 a6bf
00000530: 287a 8025 c876 99bf dfa3 3b5f 4e46 c8bf
00000540: 0665 26b5 f327 c8bf cc2f 61f8 7966 b3bf
00000550: 7b73 c916 cc84 b3bf bad2 8c65 85bb b5bf
00000560: d12b 7bf3 ae61 b6bf 7054 5386 2151 d4bf
00000570: c7f6 3aae 9ecb 5bbf c4ef 8077 a61e b83f
00000580: 535a 161a 3692 da3f c5ee 2c14 c4d0 b13f
00000590: 89e9 9657 e58e 99bf e5c4 c224 3c26 a93f
000005a0: 7c2e 7591 c776 b13f a13b 9f2c d713 b53f
000005b0: 59c4 e476 a505 b73f f295 f51f e78f cebf
000005c0: b3b5 b27f ab53 c5bf aae3 f372 f496 babf
000005d0: 6a57 03bd deb5 98bf 2f93 b62f 9f8b ddbf
000005e0: 42b0 101b 752c b23f 9ed1 896b 8765 ce3f
000005f0: 2125 7fb0 9e30 c0bf 41a2 0966 f08b 94bf
00000600: 75b1 8c0a 2227 c23f c34d ec5b 2581 c0bf
00000610: 9048 c0c2 f048 ca3f 1e9a 5131 9b0e b63f
00000620: 1da5 f545 e770 bdbf db0a 9a6e 67fa b73f
00000630: 52e7 c934 85ae 85bf cfeb e1d0 55b8 b73f
00000640: a25d 5e45 3902 c53f e168 03ab d151 b4bf
00000650: f06c 3448 43a1 a4bf 0c37 c6cb ce85 9d3f
00000660: c8ee 7906 f7f1 b33f d96c 1fc4 05cb 96bf
00000670: eb34 6696 c8a7 b13f 9587 aee8 da7b c53f
00000680: 1f87 069f 5888 b73f c5ad da27 5901 74bf
00000690: c64e 651e 88f4 c8bf 4e58 f6f3 e043 b53f
000006a0: efbf e28f d7f5 a9bf 93c7 9854 1f70 b3bf
000006b0: caf5 114a 243a b63f 0363 b7ef 97bd bebf
000006c0: 7cd4 89b7 5b7f cf3f 8381 9d17 3372 aa3f
000006d0: 58a4 b19b 7123 91bf a3ad b62a 5382 b8bf
000006e0: 8bfa 7ee3 cfb4 b93f 9603 67ad e927 b03f
000006f0: d64e 5d90 92e7 9e3f 83ed aaa2 f72d a73f
00000700: 5191 ee16 f40d cbbf eef4 d1a4 50a3 bfbf
00000710: 0063 6e94 331f afbf 5b09 3256 f985 a93f
00000720: 57d2 db97 02e0 a7bf 41d0 7ac5 9505 92bf
00000730: 0361 cabd bad2 bcbf 97de 7f36 2cb3 c4bf
00000740: bc9b 75aa 8e53 a33f d9a9 3a95 6431 9e3f
00000750: c057 2a0e e6cb b3bf 0eaf 10b9 40e6 a9bf
00000760: 53f7 9f3a afe5 ab3f 92dd c19a 15d1 b8bf
00000770: 2401 d05f 7aa1 c5bf cb80 b871 bbb1 aabf
00000780: 42d7 f563 d9fe be3f 0292 b7c6 bd87 c33f
00000790: 4df0 f293 4b2c 9bbf 3141 88a6 baca b23f
000007a0: 5da7 3c48 42e6 b93f acf2 973c f371 953f
000007b0: aa76 2002 699e b83f c0bf 784f f048 a2bf
000007c0: 7264 deae ebfb b33f 986e 373f 98ae 8abf
000007d0: 3f00 6af9 03c1 c1bf cb99 2900 1525 7dbf
000007e0: bb97 a5ba 8a02 b73f 95b9 2fa0 f3de b13f
000007f0: b755 f79c 6d52 acbf 074f 7406 c4d1 c1bf
-0.09578024260070833 -0.044987783525563575 -0.0831237008623037 -0.09064954667726356 0.020845287215820414 -0.13632578567464362 0.07387693605505015 -0.0618098957487157
-0.12104474418677265 -0.009541911336539083 0.07996212695759983 -0.04011927030559436 -0.1313861798639565 -0.00921996549284157 0.0773529738442726 -0.02881489530722963
-0.14137584359817806 -0.07067962808741526 -0.06249858423339525 -0.00022884304189594847 -0.05092828678287182 -0.030292737200709473 0.0583669010318159 -0.05350015127196418
-0.12040681454874065 0.07017718894284548 -0.0645351068096481 0.017129720159515235 0.055721262094125694 0.03894671179289013 -0.13782783137343102 -0.027194082441711467
0.06869330527872007 -0.03092364530107141 0.01243190335890954 -0.03844386274632999 -0.05485013828522059 -0.06637275054201802 -0.0973910464913007 0.03342823452306418
0.08827635431038734 0.009635070759688634 -0.05488316943621506 -0.04656526640699459 -0.24232412728814617 -0.062277742128283846 -0.12067419066011544 -0.09019433139751179
0.08331022222214349 -0.09699022464837738 0.03092172917186099 -0.17912433090606222 0.08786611989707353 -0.046850293591685896 -0.025625989108946253 -0.007171693563709147
0.021383296708117738 -0.18551246042544017 0.012260561425946252 -0.11823547215595728 -0.04710988729562311 -0.0007646780500418083 -0.07109738709877528 0.10557277301036712
-0.06394642533745103 -0.06216039332968342 -0.016583094332586153 -0.05217731818793681 0.08878465987604967 -0.01131956951365452 0.017349296302093205 -0.08596480544632461
-0.12863360754124165 -0.0498242508702642 -0.09993727984991435 0.07017600240623052 0.008989425318234847 -0.06289803871226399 -0.10924790205272415 0.08731931831179345
-0.05606320548493134 -0.10800503948983288 0.08296131477810505 -0.029717750862677767 -0.14761626232842592 0.08723020955737106 -0.055015082690300914 -0.031026997075830898
0.03148877079970266 -0.05485647807652777 0.01751960598785936 -0.050344057631318356 -0.10991089447778377 0.07917553285770083 -0.1493854580967164 -0.11252238180928957
0.061384653673772 0.05055360230950603 -0.06793327488534766 0.026202395743958846 -0.09802649103976896 -0.03992365262054196 -0.050319492760153586 0.05329083174782187
-0.10741048728606963 -0.020801298492224087 0.07183492789861978 -0.0959849932538364 0.012545172398994822 -0.0014847174493520586 0.016151666687603573 0.11383351950859956
-0.0027784045330970903 0.04712625556281324 -0.22239032749004253 0.0470822295283637 -0.08599273560870946 0.00271961466086488 -0.014887316826314752 -0.09145297050950006
-0.05972419435278788 0.006516467628495083 -0.0003242408398612397 0.09990937890812131 0.06757038386619423 0.02033300250221401 -0.06358343016317122 0.1116405177054858
0.018382742955845178 -0.019335862136422865 0.045560687225257204 -0.001708862649442391 -0.18274167888296441 -0.024541863571448934 -0.022483041649144556 0.2171651658475176
-0.02896078726574041 -0.005962777045564636 -0.012415242944560942 0.13079155356593267 0.15270804907062968 0.18082225761247137 0.23077542739635865 0.12087778093870005
-0.05756459227470973 -0.04574864117262004 -0.0444851861681328 0.07152478256748536 -0.13795867725121225 0.1378346057816752 -0.022123172813902824 -0.05314986509543765
-0.09967374471808328 0.027433239805497226 -0.07179180690919572 -0.18040342562733586 -0.06815975105185895 0.05036163344066995 0.06030995920841463 -0.1559496653718917
-0.24922201241495992 -0.05412325207514401 0.014221458725450453 0.17016187199991087 -0.012111850048959443 -0.043223811381958493 -0.0248671791924783 -0.189645573139642
-0.18871923775876825 -0.07578241647678324 -0.07624507480927704 -0.08489259461641555 -0.08742803043712334 -0.3174518405697375 -0.0016964959731206473 0.09421768586702145
0.41517403171147754 0.0695917653328549 -0.024959166976012113 0.04911983441105309 0.06821868230070466 0.08233399238018403 0.08992990639377875 -0.23876656589997897
-0.16661590323694284 -0.10386588865720961 -0.024131279264870832 -0.4616468397091919 0.07099086676379421 0.23747341872116307 -0.12648376100541106 -0.020065075137980285
0.14181924357525202 -0.12894122112684955 0.20535096654254348 0.08616037324973333 -0.11500401933667033 0.09366461229550842 -0.01058677737568173 0.09265648221655386
0.16413036238803352 -0.07937345910196171 -0.04029283768087477 0.028830748736758102 0.07791084201920306 -0.022258844466574643 0.06896642371994559 0.16784225808538325
0.09192422754724959 -0.004884098305108113 -0.19496251567999517 0.08306699710951301 -0.05070375090997447 -0.07592960181571433 0.08682467277863917 -0.12008046724748671
0.24607416593395104 0.05165252364418207 -0.01673676979809033 -0.09573859970867331 0.10041522316076106 0.06310902102906221 0.03018025404101262 0.0452725778645471
-0.21136332626077572 -0.12358573936394965 -0.06078492342857622 0.04985026528540245 -0.04663093665832168 -0.017599430254179763 -0.11259047635610746 -0.161717917071418
0.03774686651995959 0.029485293968415014 -0.07732999654612538 -0.05058481463524177 0.05448672857890693 -0.09694037464384156 -0.1689904182276304 -0.05213723910515141
0.12107618990361593 0.1525799961374475 -0.026536160378541052 0.07340590062836296 0.1011697222099008 0.020942497800194346 0.09616714765476311 -0.03571272821534377
0.07806275386100639 -0.013028325490203316 -0.13870286634846882 -0.007115442308168028 0.0898825364762094 0.06980822239686398 -0.05531637707796782 -0.13921404185440897

linear_layers.4.weight f8 [1, 17]
00000000: c262 e3af 46b5 c03f 1f2e 4c90 fe69 973f
00000010: 1d4b a504 fbec c53f 748e cd6b 4ad4 cb3f
00000020: c5a4 3c42 8e74 c9bf 4ac0 7d41 d03f ccbf
00000030: 7135 9bd8 1971 c8bf 80cf 1342 4e81 c7bf
00000040: bdcc 1ee0 19a8 cd3f e862 1f9b 8bfe c8bf
00000050: f101 31f3 17ed c9bf 96ee b020 2ada c3bf
00000060: b968 371e f873 cc3f 7192 07d1 ace2 8c3f
00000070: da3b 9bef dd65 cf3f d07b 9272 8d51 d03f
00000080: 56c1 e343 2d8f b6bf
0.13053210819523114 0.022865274007058397 0.17129457213248936 0.21741609824958952 -0.1988694976255713 -0.2206974334508252 -0.1909515674255249 -0.1836335966723901
0.23169253772139156 -0.19526810716958853 -0.20254802107412176 -0.15509535404440972 0.22228909945881073 0.014104223374439702 0.24529623221903202 0.2549775713795812
-0.08812220485174768
