Data/Breast Cancer Winsconsin (Diagnostic)/best.onnx (onnx, 418189 bytes, 5 tensors)

model.sequential_layers.4.Linear 4.weight f8 [1, 17]
000000 bc b3 ef 10 40 30 d6 bf 7f 8f 40 0d 35 bb e1 3f
       -0.3466949620622548 0.5541024454910114
000010 3c 32 04 3a c0 fc c7 3f 78 f6 be fb 3d 68 c4 bf
       0.1874008448870813 -0.15943121712000496
000020 7b 56 bd 64 bb 55 d1 bf c3 79 8f 2e 38 ab c8 3f
       -0.2708576663766064 0.1927252032609897
000030 87 5c 47 8a 7f 5b c8 3f 08 23 bf 9b 57 4a b4 bf
       0.1902923035802113 -0.07925937225730817
000040 3a 0d fc 11 85 a9 e6 bf c4 01 43 d0 25 a0 c8 bf
       -0.7081933356534258 -0.19238732022314597
000050 d7 94 eb f1 78 ca c4 bf 02 fd 40 ab 45 d3 ca 3f
       -0.16242896854888642 0.20957251417164718
000060 ed f5 a9 22 e7 03 c5 bf 2e 48 34 3a 61 7d c8 3f
       -0.16418160622190162 0.1913262876701664
000070 37 9f 0c 82 af 59 c2 3f d7 ab 5c cb 1e 08 96 bf
       0.1433619866377229 -0.021515351450186983
000080 5c e8 3a 51 68 e7 cb 3f
       0.21799949613870495

model.sequential_layers.3.Linear 3.weight f8 [16, 65]
000000 57 bc ec 2c 2e 8e b7 3f d6 53 06 72 89 11 d4 bf
       0.09201325032039286 -0.3135703671953797
000010 e9 f6 a9 7a e7 81 cd 3f ef 56 da c4 bb ee c7 3f
       0.2305268620438519 0.1869730673976657
000020 d7 9c f4 db 63 ee b8 bf 3f e0 23 ed 3f de d3 3f
       -0.09738754386909264 0.31044004591194957
000030 63 34 b9 2e ea 4a ce bf 00 5b 5b da 0b f8 c4 bf
       -0.23666121751230937 -0.16381977235752032
000040 ab 0d 28 b0 bb bf b5 bf 29 d5 4e 1e 25 d0 c5 3f
       -0.08495686579413213 0.17041458110694777
000050 41 a4 d5 10 08 21 d2 3f e0 87 9d db 78 7d c5 bf
       0.2832660831832677 -0.1678916046467398
000060 fa f6 cd e9 5a 85 d5 3f 67 a5 c1 5e f0 94 b4 bf
       0.33626435120082443 -0.0803976279581967
000070 c2 ba 54 bc 39 ea d3 3f 80 e1 9e 39 23 3a d0 3f
       0.311170991818397 0.2535484373761605
000080 80 6b 25 aa 66 87 d1 bf ce 57 da 06 4d 20 c1 bf
       -0.2738892232497889 -0.1337982448064267
000090 3a 40 f1 ac db d8 be 3f f6 26 76 c7 f0 bd a1 3f
       0.12049649212099292 0.034652256344157736
0000a0 81 9f 03 5f 90 b5 cb 3f db 53 58 ef 1e ea d5 bf
       0.21647839202273292 -0.3424146020273022
0000b0 23 84 58 e9 69 00 ab 3f f3 ba 5c 59 89 ad cb 3f
       0.05273753140887318 0.2162334143008234
0000c0 6c 8a 8e f9 57 00 c6 3f a9 91 5c e7 8b 36 d8 bf
       0.1718854874171315 -0.37832925409227386
0000d0 72 b8 79 80 d5 b5 db bf 45 97 06 7c 48 f9 c3 bf
       -0.43297326609070474 -0.15604501777596105
0000e0 6f 9c 19 0c 86 5b 71 3f b0 aa 09 f0 37 25 cc bf
       0.004237674352771766 -0.21988581867784296
0000f0 ef d0 6c 4c c8 47 ca 3f 04 0f 82 61 95 0d cc 3f
       0.2053156254929784 0.21916453610548825
000100 e8 49 3a 72 32 41 da bf 94 f7 9b 7b db 55 c2 3f
       -0.4102293124680316 0.14324515853507747
000110 f7 e6 0f 0c 3b 5b c9 3f b0 6e 2d d7 a4 c8 cd 3f
       0.1980966385743199 0.2326856661483041
000120 f7 fa 1f c7 fa ac cc 3f f1 d0 10 1a d8 d0 bd bf
       0.22402891848465575 -0.11646795879716244
000130 f9 a5 84 d7 db da cd 3f ab 21 44 92 e2 17 c7 bf
       0.2332415392241243 -0.18041641370679193
000140 41 d2 cd 77 03 11 cf 3f a8 6f 8a 49 03 e0 c0 bf
       0.2427067122440736 -0.13183632937295653
000150 0a 84 c9 64 81 0a cd bf 93 c2 f3 4b f1 98 b0 bf
       -0.22688310071228585 -0.06483371834088762
000160 4c 5b 1f 23 ed ed c1 3f 83 73 05 f5 42 db 81 bf
       0.14007343497243097 -0.008718989469963528
000170 ea 67 1a 34 73 a5 ce 3f 58 0c d8 0e e9 c1 d3 3f
       0.23942413372134236 0.30871035050967555
000180 c5 94 6b 54 ed 4a a3 3f 81 8d da 4d 30 d6 da bf
       0.03768102317352765 -0.4193230400362254
000190 ca bb ae f9 2d 6f b7 bf 6e a2 20 11 26 a8 ac 3f
       -0.0915402159287019 0.05597037276340165
0001a0 94 0e 66 f9 24 26 ce 3f 56 31 8a c6 9e 30 cf bf
       0.23553907563847487 -0.243671271270055
0001b0 76 e5 c0 81 36 f4 83 3f 73 fc 22 6b 53 02 da bf
       0.009743142924082387 -0.4063919588333597
0001c0 1a d2 85 ae 9e b1 b3 bf 09 c1 5c 81 2b e9 d3 bf
       -0.07692901383217823 -0.31110656388320074
0001d0 31 f7 bd 2b 6e cd d0 bf 70 77 d8 8e f3 23 d0 3f
       -0.2625384738129127 0.252194299218778
0001e0 75 1d 55 11 05 d9 8c bf 6c e2 28 7c fd fb d8 bf
       -0.014085807410664878 -0.39038025975199875
0001f0 3c dc 81 a5 c4 52 cb bf 50 01 5e e6 f4 86 b8 bf
       -0.21346338349732885 -0.0958092749042454
000200 46 52 09 68 13 91 59 bf b3 a2 45 b8 79 c4 c2 bf
       -0.001560467673830905 -0.14662095544487883
000210 92 a1 df 8e 74 f8 9c 3f 48 ca 35 70 80 9f c6 bf
       0.02829153177290917 -0.1767426059628454
000220 ad 48 cf c5 58 9e d0 bf 6f a4 51 7a 12 4c 5c bf
       -0.25966471974710253 -0.0017271213958116834
000230 62 0e 0b 9e 78 6c 80 bf ba 13 24 0a 93 a7 c1 bf
       -0.008019392321677535 -0.13792646403467562
000240 5e 9e 91 8c d2 85 c2 bf dd 35 f1 4b 30 06 d9 bf
       -0.14470893729888962 -0.3910027257560083
000250 cd 67 27 89 0e 81 cb 3f 1a 92 45 cc ca 8a b5 3f
       0.2148760003754532 0.08414905058959513
000260 c5 5f ed 17 92 ab b6 3f 91 0c ad da d4 c0 b8 bf
       0.08855546077882 -0.09669237459915993
000270 b8 5e 55 2f 63 83 b0 bf f1 b4 02 56 19 df a8 3f
       -0.06450481324770407 0.04857711005147703
000280 49 05 97 91 77 76 c6 bf d1 67 c0 7d 6b dc ca 3f
       -0.17549032791979816 0.20985168113912647
000290 66 55 2f 73 c1 23 db bf f1 f4 67 a9 6c 81 d6 bf
       -0.42405735252881127 -0.3516494421345007
0002a0 68 f5 49 38 67 10 ce bf 3d 02 8e 07 a0 3c cb 3f
       -0.23487558601838576 0.21278763169176954
0002b0 8c 16 43 ca a9 68 97 bf ab a2 c2 c1 59 90 b0 bf
       -0.022860196085068327 -0.06470261555171912
0002c0 78 a8 22 9e e5 dd 91 3f cc 5c 5b 6c f2 2a c9 3f
       0.017448032166307276 0.19662313738692772
0002d0 a3 13 4f 3a 0b e6 91 3f de 58 69 94 a2 dc c7 bf
       0.017479110177891177 -0.18642074820190307
0002e0 30 15 e6 11 09 fe cc 3f 3e cf 44 0e cc fc d1 bf
       0.22650254606211595 -0.2810545100539804
0002f0 21 40 22 6d eb bc be bf 54 b8 8a 4f 1e b2 c0 3f
       -0.12007018484496303 0.1304357422245085
000300 66 4e ca ef 2b 27 bd bf 1a 7b a1 16 53 b4 a5 3f
       -0.11387896160368313 0.042391392242953255
000310 45 8d 99 39 8d 64 c8 bf 46 ff d3 ea 29 18 da 3f
       -0.1905685931443292 0.4077248376124668
000320 af 6b 5e 43 66 05 c2 3f 9e be 5b 30 c5 1f c7 bf
       0.14078977860921557 -0.18065705167054075
000330 10 7c 05 ca 7f 80 cd bf f4 a2 cd c8 1f be 8a 3f
       -0.23048398365332945 0.013057945552377138
000340 d8 15 85 75 4e d7 a6 bf 03 12 bf a5 8c 83 c1 3f
       -0.044611408086477844 0.13682706921657947
000350 50 af fa f8 5a 47 ab 3f c7 b6 b9 68 39 dd cb bf
       0.05327877320573171 -0.21768872846171503
000360 d6 b0 c5 ca e0 97 c8 3f 9f 14 89 ac 4a 33 d6 3f
       0.19213495160091182 0.3468805966297825
000370 80 ad 97 ae 05 86 d6 3f 32 d4 a2 92 ec 7d c7 3f
       0.3519300656323239 0.18353039894069095
000380 37 73 bc 6f e7 0d e0 bf e0 77 aa 78 01 3d b4 3f
       -0.5016972715708111 0.0790558738321745
000390 a7 0b de 51 cc 28 a4 bf 99 e4 20 b3 97 96 c6 3f
       -0.03937376498563277 0.17647072073467454
0003a0 c5 cd b4 2f bf 76 d5 bf 8d 46 eb 8e fa ba ca 3f
       -0.33537273081602975 0.2088311384055043
0003b0 a7 ab 3f 1f ef fc ce bf 76 64 61 d9 ab 64 c0 3f
       -0.24209393525901854 0.12807224382666832
0003c0 c2 4b 4f b5 d4 d1 c6 bf ec 1d 35 aa a8 f9 b0 3f
       -0.17827853062644122 0.06630949168640371
0003d0 36 4c 63 4f e6 45 d2 bf 2c d4 16 cd 1a fb 86 3f
       -0.2855163359901697 0.011221131690812035
0003e0 65 84 31 f5 02 bf c1 3f f9 ad 0c 53 82 b0 c7 3f
       0.1386417100175407 0.18507412963059247
0003f0 44 52 72 e6 8d 1b bb 3f 9f 1b 5b cc 42 80 a2 3f
       0.10588919521462353 0.036134803243434314
000400 ae a0 7c a8 49 8d af bf f9 63 36 12 b9 5a d2 3f
       -0.061624814812888715 0.2867872884613117
000410 db 96 8e 70 0b f8 ca bf 10 10 66 aa d2 06 cf bf
       -0.21069472309061762 -0.24239571876762556
000420 4f e2 58 95 f8 1d c1 3f 0c dd f8 4c 12 8f c9 3f
       0.1337271432146445 0.19967869528202475
000430 31 2c d8 d8 c4 4c bb bf 60 18 2f de 86 5d ae bf
       -0.10664015096715286 -0.05930730306822407
000440 80 2f 0c 88 55 95 d1 bf ee 9e eb 27 ee 47 bc 3f
       -0.27473963056467454 0.11047256922358503
000450 68 b4 8a 61 38 34 c6 bf 7f 96 3f 25 a3 9b d2 bf
       -0.1734686352041621 -0.29074934613741016
000460 4d 26 e1 4d 96 8f a4 bf e0 4a 72 d0 49 33 bd 3f
       -0.040157982832692875 0.11406384791397839
000470 24 e3 66 a4 de 81 ce 3f 90 f5 76 3f a1 3f bc bf
       0.23833830859600724 -0.11034591483526968
000480 5b fd ba cd d1 c9 c1 3f 34 5c 59 44 6f 51 c2 3f
       0.13897154374533724 0.14311018788677787
000490 e8 27 a4 26 67 b3 cd 3f 0e aa 9d e8 43 c8 db bf
       0.23203744303492546 -0.4340982219352164
0004a0 21 52 2e ec 2d 60 bd bf 16 09 9b 58 62 d0 ce bf
       -0.11474883094917533 -0.24073438002057718
0004b0 3b 1c 09 32 77 d2 c7 3f 9b 7d 4e 94 e0 c6 c0 bf
       0.1861104006113424 -0.13106925241025355
0004c0 f6 9d 8c 1d a0 a6 d7 3f 2c 63 4a c6 fb b6 cc bf
       0.3695450104300727 -0.224334213086672
0004d0 1f 42 d1 a0 77 c0 de bf 68 6f 1a 10 c1 e8 c0 3f
       -0.48049727158380223 0.1321030930165492
0004e0 a9 06 01 d4 ad 6a cd bf 98 f0 ce 6f 20 77 d6 bf
       -0.2298180852104015 -0.3510209171179297
0004f0 9e ca af 7f 82 f7 cb bf f1 b7 5c 1d 2e 0f c7 3f
       -0.21849089846326292 0.18015076097202568
000500 67 37 fd 6c 95 e6 8e bf ac 2a d1 4e 2b 2f a3 3f
       -0.01508824099405688 0.03746924721834452
000510 d8 0f fe b7 73 75 c3 bf 1a 22 08 5d 78 0d d5 bf
       -0.1520218513870748 -0.32894715390333007
000520 c6 60 ee c8 c7 d4 c7 3f 2a 37 0c 36 de f8 ab bf
       0.18618104277698516 -0.054633087251302406
000530 17 d4 fd e0 3c 0e af bf 92 be 99 dd 4f 22 d7 3f
       -0.06065550085524068 0.36146923676185694
000540 0b 08 ea 98 f4 5b c7 bf 24 f7 f5 78 66 c0 db 3f
       -0.18249375788224173 0.4336181813485942
000550 c2 ed 56 36 2c 78 bd bf 6b cb 0d cb d8 9d d9 bf
       -0.1151149399437861 -0.40025920705300305
000560 7d 01 4a 67 bf 85 d1 3f 54 00 a4 3a 2c 38 b1 3f
       0.27378830992531517 0.06726337844520575
000570 5a 2c e4 55 39 37 d6 bf 37 8e 5f 89 a0 ba c0 3f
       -0.3471206034452671 0.13069540698698898
000580 93 f6 1d dc 2c 8c bc bf ce 14 5c db 68 90 cf 3f
       -0.11151390432311307 0.24659453116343005
000590 c0 d3 62 d6 b6 4f d7 3f 68 47 dc a5 d6 e6 d3 3f
       0.3642403691877085 0.3109642619830226
0005a0 16 ef e0 25 43 1f ad bf 45 3e 23 be 50 a1 bc 3f
       -0.05687913739572374 0.11183647768052037
0005b0 ae 46 4e d7 f2 66 c0 bf db d7 94 0f dc 29 b5 3f
       -0.12814174187638144 0.08266997700124483
0005c0 19 02 f7 c2 9e f8 d5 bf b5 a4 71 41 59 86 be bf
       -0.3432995704606881 -0.1192374977851099
0005d0 14 fe 24 d1 00 77 cb bf 22 e6 26 30 e5 88 71 bf
       -0.214569189187373 -0.004280944124212678
0005e0 7a ae 38 13 70 9a d5 3f 1a db 0b 89 13 44 b0 bf
       0.33755113484469457 -0.06353876205308176
0005f0 79 49 0c 63 39 43 ce 3f f9 e1 89 00 a0 76 c4 3f
       0.23642651878669677 0.1598701479558853
000600 83 7f ef 8b 2b e8 d0 bf 5a b6 f7 be a9 22 ba bf
       -0.2641705385740282 -0.10209141647620737
000610 0d 41 e3 48 39 44 b1 bf 56 1a d7 5a 6d dd b6 3f
       -0.06744726209149494 0.08931621043948587
000620 ba af 2f 27 7b da a6 3f a2 6e 26 85 b8 65 da 3f
       0.044635628255349016 0.4124585438055225
000630 e4 e6 c5 c6 a1 53 ab 3f ec 77 90 52 62 19 da bf
       0.05337243606022726 -0.4077993208210262
000640 17 61 6d 0b 6b 26 d5 3f 93 4e f8 b0 ab d9 bf bf
       0.3304698573679316 -0.12441514082484621
000650 3a 20 27 a0 d3 67 bf bf 2d 9b 22 c8 09 da b1 3f
       -0.12267801914197288 0.06973324905503082
000660 a4 6d 8b a5 07 74 ce 3f 4d 53 8f 7b d9 c0 e0 3f
       0.23791595061525783 0.5235412038115129
000670 21 aa de d8 c8 fd e1 3f 36 61 fb b4 59 03 d2 3f
       0.5622295604455908 0.2814544932748676
000680 63 98 ea 54 1c 76 b8 bf 77 34 b8 3c de ae df 3f
       -0.09555222581056592 0.4950481026615487
000690 4d 7e 20 aa 89 d5 cc 3f 8d ae b2 02 07 82 d7 bf
       0.22526665503481738 -0.3673112417552396
0006a0 71 3b a1 93 44 bf db 3f 52 6f d3 d6 80 ad d8 bf
       0.4335490647981067 -0.38558979968160145
0006b0 a5 db f9 de f6 fa b0 bf 24 08 47 f3 46 4c b9 3f
       -0.06632941192388715 0.09882014693633373
0006c0 2c 2e 9f 4f 47 d6 c6 bf 4c 8e de 1f af 27 c4 3f
       -0.1784142626550972 0.15746106201287302
0006d0 a2 1c 66 b4 44 5f bb bf 1b d4 a5 1f 77 89 c8 3f
       -0.10692243007916827 0.1916951088457218
0006e0 c7 94 1e b5 8b 1b b8 bf 9e 67 39 f4 71 9e d6 bf
       -0.09417031452047119 -0.35342072343848396
0006f0 1a 65 18 03 71 fb 9c bf 61 66 45 5c 53 01 be 3f
       -0.028302923025056527 0.11720772745811693
000700 66 df 16 10 d1 b9 da 3f ff af 9b 65 2b b3 b9 3f
       0.41759134837365364 0.1003901598994048
000710 e5 1e e1 d2 3c 5c cc 3f 8f b4 1f c3 93 7c ab bf
       0.22156486794323552 -0.05368482357867165
000720 c8 b7 bd cc 32 57 d3 3f 96 75 dc 34 dc d3 9a bf
       0.3021971702027 -0.026198807455434535
000730 a0 5b 4e 62 90 12 b8 3f c7 b7 5c 98 dc 96 d6 3f
       0.09403326416064184 0.35295786742323937
000740 4a 77 31 63 72 81 c3 3f 1a 52 30 7a d0 75 cf 3f
       0.1523879036275793 0.24578290907142347
000750 7a 7a 0e b2 0b d8 c7 3f 6e 14 c7 f3 8d f8 d9 3f
       0.1862806910912303 0.40579556280528706
000760 ac 76 7c 62 4c ce ca bf 3b 25 01 15 98 74 a7 bf
       -0.20942072686095992 -0.04581141716387057
000770 6f 3a a6 09 34 d3 ae 3f 3c 2c c8 3d 52 07 da bf
       0.060205103090187666 -0.40669685395613775
000780 2d b5 f7 c0 21 33 e3 bf fe c7 a2 7f f9 5d bf bf
       -0.5999916809939002 -0.12252768865690197
000790 d5 82 7e e4 b0 84 dd 3f 8c 9c e6 c1 72 84 c5 3f
       0.46122381509671345 0.16810450046361713
0007a0 ef 57 e7 1e 19 4a b4 3f 9b 56 3e d4 5e dc a3 bf
       0.07925564770206937 -0.03879066792357585
0007b0 01 27 0d 99 ed f9 d2 3f 1b 07 5e ec 06 e6 c1 3f
       0.296504401649699 0.1398323682915866
0007c0 af 01 72 1b 40 a2 b7 bf ea 7c 76 81 2a ad d7 3f
       -0.09231949491550638 0.369944216183241
0007d0 5f c8 56 a9 71 9b ae 3f 09 c5 bc f7 23 61 db bf
       0.05977969352842715 -0.42780398552993454
0007e0 36 1b c6 f4 b5 f2 9f bf 44 4f 44 52 50 4d c7 bf
       -0.031199305596170755 -0.18204692856726912
0007f0 97 f9 4e ed c2 d7 c6 3f 2f 7c b1 fb 46 ca b5 bf
       0.17845951640442756 -0.08511775631767259

model.sequential_layers.2.Linear 2.weight f8 [64, 129]
000000 31 e8 62 95 6b 1c ba 3f 7b 43 0e 4e 27 de d0 bf
       0.10199615857246226 -0.26355917570713644
000010 42 ae 19 a2 3b 39 bb bf 90 5f 2d a1 b7 a8 bf bf
       -0.10634205539252498 -0.12366817173949429
000020 3d 4a 91 b3 aa 31 b9 bf 7d 09 b7 a4 9c ef cd 3f
       -0.09841410526250001 0.23387487452243852
000030 42 82 6c e8 32 a6 cb 3f d1 a6 35 90 4b d3 ba 3f
       0.2160094866640226 0.10478660841695421
000040 c8 20 5d ab 3b 46 b8 3f b5 78 97 68 54 d5 c6 bf
       0.09482167180715628 -0.17838530642524622
000050 95 aa 7f b9 ae a1 a6 3f 2b 2a b5 08 f0 fa 51 bf
       0.044202289718517175 -0.0010974258501216343
000060 c0 94 93 2d 02 dc c2 bf 98 4a 63 a6 a7 1a c1 bf
       -0.1473391268292854 -0.13362594246298864
000070 21 cc 37 4f 5b f6 ca bf 6d 55 c7 61 fd 2b ca 3f
       -0.21064320915283566 0.2044674613413621
000080 9c 19 ee 15 23 41 76 bf 2b a9 c8 36 da fc 89 bf
       -0.005433213284851492 -0.012689308926458217
000090 df 51 6f 8b c4 0e b2 3f a7 de 21 8d a9 8e d4 bf
       0.07053783802195522 -0.32120741636706857
0000a0 1e 8b f8 5d 7c c2 b9 3f cd 4d e2 f2 ef d6 c2 bf
       0.10062386793337594 -0.14718436584062858
0000b0 93 19 13 23 2a a7 d1 bf 67 75 c3 9c 73 06 b3 3f
       -0.2758279173398474 0.07431719376787314
0000c0 8d f5 d8 6d c4 82 c2 bf 5a eb e3 9d 0f 8b a2 3f
       -0.14461570132872872 0.03621720125553081
0000d0 56 3d d3 e0 04 8e c6 bf 34 40 91 f0 88 c5 cd 3f
       -0.17620907762327914 0.23259078737692251
0000e0 21 97 15 40 c4 66 c1 3f d3 79 d6 42 ef 18 c0 bf
       0.13594868783109695 -0.12576094401897694
0000f0 72 b4 62 c7 58 39 ba bf 16 72 e6 04 9e 87 d6 bf
       -0.10243754260837237 -0.35202742079289473
000100 4a e3 f5 bc a6 4b 7a bf 24 79 11 72 66 2c c3 3f
       -0.006419802971657182 0.1497924859022045
000110 0d 4a 61 c7 70 e3 d2 bf 27 aa ca 26 2c 91 c9 3f
       -0.295131869036738 0.19974281210063902
000120 31 37 ed 8c c3 99 90 bf 3f 9a 4f eb 6b 0e cc bf
       -0.016211562611082534 -0.2191901110629306
000130 ae d9 49 15 30 13 b4 bf f0 36 a9 d7 ce 52 c0 bf
       -0.0784177829717467 -0.1275270989448738
000140 39 2e f5 3c c5 ef c8 bf f2 e4 fb c5 07 2f c2 bf
       -0.19481721378757458 -0.14206025283036855
000150 31 91 06 fd d1 7a ad bf 87 99 88 12 2f 12 c6 3f
       -0.057577669274254346 0.1724299278732355
000160 14 0e 3d dc 4a 99 89 bf 95 e1 39 72 54 c9 d2 bf
       -0.012499413343568334 -0.29353819994823854
000170 56 53 64 7a 95 c9 b4 bf 30 d4 90 66 d5 3b c4 3f
       -0.0812009261902181 0.15807597644894278
000180 60 55 32 f3 8f 84 ad 3f a6 b1 64 51 a1 93 b6 bf
       0.05765199512203867 -0.08819015729085908
000190 c0 3c 42 f9 76 11 9e bf 8d b9 3e 6f 68 85 bd bf
       -0.029363497699304686 -0.11531689372961847
0001a0 ac 00 40 8a df 38 c7 bf b2 8b 0a 0c b7 32 a7 3f
       -0.18142313242424757 0.04530879995333893
0001b0 16 d3 32 5e e7 ce a4 3f 0e ec 0d 8a 1c 17 cb bf
       0.04064105057606164 -0.2116428064435642
0001c0 8c 41 9a ab ab 4a a2 bf 96 af 3e 22 a9 87 c9 3f
       -0.035725941369608355 0.1994525353633178
0001d0 08 73 a7 24 d5 98 bc 3f 94 5b 05 c3 14 09 a2 bf
       0.11170704026103462 -0.03522553330065317
0001e0 21 98 0d 8c 37 ed c5 bf ab 84 39 dc 33 c0 67 bf
       -0.17130178774385832 -0.0028992665191230524
0001f0 86 8c 0c 86 6e 0a b3 bf 04 83 f2 37 1c 74 a9 3f
       -0.07437792561226972 0.049713975743776145
000200 9a 33 8a 26 57 c1 c3 3f 8c fd 77 2f 3d f3 c9 bf
       0.15433778173283202 -0.2027355653553794
000210 a2 b4 96 b3 2d da ca bf 7d a5 9e 1f 2d dc a5 bf
       -0.2097832800767821 -0.04269543658240147
000220 7f 2b af b1 0e da c1 3f 45 6c fa bf e9 57 cb bf
       0.13946708370198377 -0.21362039445816286
000230 0b f8 f7 de 0f a5 c8 3f 11 75 cb f9 c8 f1 b3 3f
       0.19253729235782688 0.07790809725289118
000240 20 4c 64 34 e7 f2 d5 bf 1d 81 67 83 ca 13 b9 bf
       -0.342950631297926 -0.0979582377253831
000250 b8 40 9c 7e 7a b8 95 bf fe d1 62 e3 be 8d d3 bf
       -0.0212115421082337 -0.3055264683310098
000260 60 b1 1c 0c 0e e8 c1 bf 17 4b 84 a3 70 22 a9 3f
       -0.1398942526951812 0.049090881310027416
000270 d1 9b a7 90 2f ac c1 3f 91 cd b7 10 84 9b c6 bf
       0.13806719363421263 -0.176620968020512
000280 94 51 fa bd 1a 58 ca 3f a2 da 44 31 7f 1a ca bf
       0.20581373478183862 -0.2039336195536708
000290 72 be 87 f8 dc 72 d6 bf 09 e8 6a 10 dc 8d ce bf
       -0.3507606913617344 -0.23870421220436835
0002a0 e7 40 c3 dd 62 c9 aa 3f c5 64 16 7f 1a c7 cc bf
       0.05231770474495239 -0.22482615666812059
0002b0 3a b5 25 eb 32 19 b2 3f da 48 d0 9a 55 16 bc 3f
       0.07069700470829768 0.10971579579953375
0002c0 e1 1a 28 00 f1 97 b2 3f 37 f7 46 ef 92 38 aa 3f
       0.07263094190430365 0.051212875088351976
0002d0 30 7f 84 1d c6 1c c0 bf 31 de cc 18 f7 74 bd 3f
       -0.1258781093720187 0.11506599765277127
0002e0 a7 71 34 bf 87 c0 b6 3f 49 2f 0c af 5f ba ca bf
       0.08887527864539511 -0.20881267592664646
0002f0 47 b5 0b 31 d0 97 b5 bf d5 e5 09 bd 5a c6 ce bf
       -0.08434773633390079 -0.24042829733279683
000300 99 c9 e4 dc bc b4 cd 3f 72 56 d0 4f 39 75 b4 3f
       0.23207817827058078 0.07991369436816756
000310 09 48 6a d1 e8 60 ca bf 2b e3 6c a6 36 05 cf bf
       -0.20608244157170955 -0.24234660269009942
000320 07 8a 73 a0 38 d8 c7 3f 9d 27 de 59 a6 41 c0 3f
       0.18628604731118534 0.12700347316814212
000330 38 fa c1 1c 95 74 c2 3f 70 0b 79 b4 58 4d d2 bf
       0.14418281463800198 -0.28597085594463234
000340 92 b1 80 7f d3 38 69 3f 54 98 37 2a b3 10 b9 3f
       0.003078854639190173 0.09791106968586522
000350 ca 30 ff 86 d6 b8 c7 bf 57 73 a9 f3 e6 fe be 3f
       -0.18532830802576533 0.12107699822213412
000360 b7 8b 01 42 d1 0e ca bf ed 36 d7 9a a6 1e b3 3f
       -0.2035771915717228 0.07468644409456333
000370 34 8a 83 6a 3d 5a c1 3f 69 de b0 5d ea 9c d5 bf
       0.13556640339727866 -0.3377023615789541
000380 d9 32 15 d2 ce 3e cc 3f fd 78 ee 61 5c 97 ce bf
       0.22066674478482787 -0.2389941671544377
000390 c7 21 b3 97 a0 36 c2 3f 2d 74 31 e5 c7 1f 96 bf
       0.14229209334577161 -0.021605609287110795
0003a0 49 d1 d3 ac 25 60 d0 bf 97 cf 14 ac e7 9d ca bf
       -0.25586835744549724 -0.20794387724310745
0003b0 5b 45 f9 de a5 49 c4 bf 52 44 61 03 3f 03 b3 bf
       -0.15849755656612782 -0.07426828224676399
0003c0 c1 37 43 5c 40 df a6 bf ea b1 93 0d 32 4d bf bf
       -0.04467202306987828 -0.12227166015117744
0003d0 ac 4f 01 bb 6f fe b8 3f f9 41 d5 2a 7b c0 ba 3f
       0.09763239207796798 0.10449952884415116
0003e0 dc 82 a3 2b 27 41 c0 3f 06 4b 13 4e 04 e1 5c bf
       0.12698831206127792 -0.0017626325646246679
0003f0 28 11 c1 cb a5 34 b3 bf 81 6b af 04 6e 4f af 3f
       -0.07502208923785203 0.061152875968864435
000400 0c f8 57 f0 7e ad c6 bf 6f 45 63 15 2a c1 76 3f
       -0.1771696733048319 0.005555309666492077
000410 ba a1 15 b4 ec 3b ca bf 8a fb f0 6f b4 ce bd bf
       -0.2049537543600886 -0.11643531544630839
000420 d3 d3 f0 e2 ba 82 d4 bf 9d 62 57 b3 bb 4d a0 bf
       -0.32047912752323987 -0.03184305729127355
000430 19 b4 54 65 62 0d c9 3f 43 fa d4 91 33 e1 c6 3f
       0.19572095821186578 0.17874760266018272
000440 67 13 70 9f e4 b9 d1 3f 92 b6 74 37 a5 02 68 bf
       0.27697101183030387 -0.002930948914260886
000450 5c 16 37 35 c9 e6 c6 3f 69 bb 6f 1a 77 84 a8 bf
       0.17891802881620122 -0.047885629632097367
000460 93 cb 7a 38 7c 85 b4 bf 79 b4 51 d1 9c 15 c6 3f
       -0.08016182307146229 0.17253456326162445
000470 15 cf 97 de 80 96 c1 3f d1 60 cf a9 94 9c 8e 3f
       0.1374054991607571 0.014947091514770612
000480 69 53 0d d1 38 d5 d1 bf bd a2 15 be 92 f4 e0 bf
       -0.27863903441657684 -0.5298551285350964
000490 77 f5 ea d1 94 28 ca 3f 75 b9 f5 5b c8 e5 ba 3f
       0.20436344385045022 0.10506870503534123
0004a0 ea bf 26 de 76 c3 90 3f ec b5 9d ba e4 b2 c5 bf
       0.016370637234729125 -0.169521895524141
0004b0 03 f8 0c 60 62 48 c4 3f 8c 00 86 c3 8a eb cc 3f
       0.15845899286244966 0.2259381727890325
0004c0 bb 0b c3 66 46 a2 c5 bf c6 14 b3 b3 13 0a cd bf
       -0.16901474015875614 -0.2268700244368686
0004d0 5f 33 5c 0e 14 b3 c0 bf 6e b1 db a7 56 e6 c4 3f
       -0.13046503735713608 0.16327937313270574
0004e0 73 a9 a9 a7 a3 5e c6 bf d1 b7 24 0a 60 e4 ad 3f
       -0.17476316153199498 0.058382989156924865
0004f0 27 23 47 8b f1 71 b2 bf a0 bb af c7 21 b8 d0 bf
       -0.07205114031161185 -0.2612385225356153
000500 29 fd d1 9e c2 21 c2 3f b3 64 3b 66 b8 1f cf 3f
       0.14165528063674884 0.24315552703663953
000510 bb 41 08 b9 f6 34 94 3f 9c fc 71 80 82 14 b9 3f
       0.019733290713760825 0.09796920429106354
000520 40 66 a1 63 97 12 bf bf dc d6 25 f5 e5 e6 c4 3f
       -0.12137743170151172 0.1632964560519018
000530 f0 b8 16 b0 7b e2 c0 bf a7 cd ab 26 d0 b1 d2 3f
       -0.13191171739658314 0.29210284973597783
000540 2f c3 d3 47 e0 e8 e1 bf 57 52 30 aa 71 21 d0 3f
       -0.5596772578120176 0.25204125995631926
000550 16 f2 02 27 87 4d bc bf e8 92 97 7f d0 ea ca bf
       -0.11055798246793133 -0.21029096822817128
000560 05 4e 6f 29 7f 2b d0 3f bb eb 3b 96 14 db a9 3f
       0.25265482946744583 0.05049957593833861
000570 e6 04 59 11 6b ec b8 3f 91 ee 6c 3b 76 99 bd 3f
       0.09735745595482434 0.11562289191072696
000580 97 9d 4d 4a 17 62 c5 bf c3 c5 73 22 db 05 b5 bf
       -0.16705599907002686 -0.08212060538405468
000590 b5 32 e9 e0 ad da ba 3f d6 b3 13 b2 67 58 b2 bf
       0.10489927998532773 -0.07166145417768574
0005a0 b4 81 4b 45 82 78 b8 3f 36 97 3d 55 d5 b6 b9 bf
       0.09558881942530811 -0.10044606524533325
0005b0 18 cd af a4 0f 9c cb bf 44 08 40 d1 dc 37 d4 3f
       -0.2157001070150748 0.31590958056051854
0005c0 54 b0 b5 83 d3 eb cb bf 98 54 39 6f a7 33 ca 3f
       -0.21813434535158882 0.20470135622841634
0005d0 0f b6 40 5a 09 77 cc 3f 4d df f5 69 88 6d b6 bf
       0.22238270670770574 -0.08760883891033906
0005e0 d5 1a c5 31 1f 25 c1 3f 5f 90 1f 9c 06 7b b2 bf
       0.13394536905453572 -0.07218972503284381
0005f0 a1 d3 a5 4c 99 f5 c0 bf 66 d1 00 da 52 bb cb bf
       -0.13249508135382107 -0.21665416378676666
000600 a8 e3 9f 36 b1 9b c0 3f 27 f3 dc b0 de c1 a0 3f
       0.1297513500901719 0.0327291098496743
000610 27 bb 91 33 b9 c4 ae bf 62 44 44 ff ff e8 c0 bf
       -0.06009463076121895 -0.13211059536164088
000620 bb 9b 9a e1 3c 4a c6 bf 13 27 9b 06 4c 94 d1 3f
       -0.1741405583936436 0.27467632908938916
000630 15 26 c8 c5 e6 81 b2 3f 59 85 8c 08 d5 a5 d0 3f
       0.07229463890703187 0.26012159190039125
000640 f0 0e 95 f8 06 ae bf 3f 2c ba a2 3a 2b 1e d1 bf
       0.12374919480231106 -0.2674663612951089
000650 bf 52 ff fb 27 07 a4 3f 93 b6 c3 d4 15 f2 d0 3f
       0.03911709738864521 0.26477571275504735
000660 f1 b3 20 f8 b9 d9 b6 3f 80 6f 76 b8 e0 32 cf bf
       0.08925974185758868 -0.24374016768421924
000670 5f 48 ad d7 1e 01 9f bf 41 81 b8 99 90 ba c4 3f
       -0.03027771178614846 0.16194350725073473
000680 d8 60 40 31 16 da cd 3f 63 bc 95 8e d8 8f c1 bf
       0.23321797757012663 -0.13720232927468876
000690 b4 9a 06 ee 06 b7 b0 bf 84 c7 4b 9a f4 45 d7 3f
       -0.06529277144600593 0.36364474361391097
0006a0 2e a8 f0 f7 65 b1 b0 bf 9e 2f 2b dc fb 19 cf 3f
       -0.06520688346123002 0.24298046350884034
0006b0 ca e5 99 f8 28 13 c3 3f 1c 70 3c 0e dd 27 cf bf
       0.1490222181198944 -0.2434040374290597
0006c0 ab d6 ce 92 b0 62 c1 3f 0a a5 fb 61 1b de 7c 3f
       0.135824271853996 0.007047755206920367
0006d0 ea 1e 77 d6 50 a9 a0 bf bd 8d 27 57 5d 32 b9 bf
       -0.032541776828620986 -0.09842475297732896
0006e0 a5 3f d4 c2 80 27 b4 3f 49 38 92 aa 4e 9a d4 3f
       0.0787277675301526 0.3219181695684524
0006f0 ed e5 4f 9e d3 09 c6 3f 8a 44 19 70 c8 5a c6 bf
       0.1721748850830375 -0.17464547608918607
000700 16 f7 95 07 f4 42 b3 3f cb 79 bd f6 31 d8 b1 bf
       0.07524037537765724 -0.06970512651375953
000710 d9 61 c8 ce 90 df a3 3f b4 5f 36 62 31 d2 d5 bf
       0.03881504558757216 -0.34095415679029917
000720 a3 e2 c0 c2 d4 c2 ba bf 9b 5c f3 ec e6 39 b7 bf
       -0.10453538660739041 -0.09072726521422896
000730 27 a9 b5 65 cc c5 b4 3f 88 24 e6 cb 62 12 cd 3f
       0.08114316447396118 0.22712359386449443
000740 8c fa b1 00 7d 44 c1 3f f4 29 f1 05 ba 5e 8c bf
       0.13490259679743521 -0.013852551752411714
000750 64 4f eb 16 72 7d c5 3f 78 e0 93 f1 9d 34 9b 3f
       0.16789079779720872 0.026567905301789513
000760 a2 b3 f3 cf f3 75 c3 3f 05 72 6e cc 8e a9 c8 bf
       0.1520371213331631 -0.1926744936180428
000770 c3 92 d7 d4 23 73 a0 bf 83 d0 af c2 cb c6 95 bf
       -0.03212844823045693 -0.021266158826577907
000780 65 8b 99 5e cc e3 d1 bf 27 7a 97 1a 77 44 c0 3f
       -0.2795287059618004 0.12708939360068536
000790 13 2a 07 cf 0c 41 b2 3f a6 b4 30 cc ab a0 a1 bf
       0.07130508474725898 -0.03442894809300272
0007a0 f8 ff 1a e1 74 4c c5 bf 66 c5 98 50 da 42 a1 3f
       -0.16639576903799003 0.03371317132804101
0007b0 c4 02 d5 11 22 70 ce bf 39 44 09 ac c6 4d c8 bf
       -0.237797030169551 -0.18987353706555313
0007c0 cf 11 63 3b d2 50 a0 3f 35 de 9c 80 36 e3 cc 3f
       0.031866616963757026 0.22568398742599674
0007d0 37 96 c6 d5 f2 25 93 3f e3 ee ab 1b 59 01 ac bf
       0.018699449823222216 -0.05469778502262359
0007e0 6f 19 2e a6 3d 1a 75 3f d0 07 e6 27 cf 98 d5 3f
       0.005151978318173141 0.3374517335543006
0007f0 69 4e a8 4a a9 49 cf bf 69 fd 42 52 f0 c0 ce bf
       -0.2444354643381417 -0.24026302353557163

model.sequential_layers.1.Linear 1.weight f8 [128, 257]
000000 06 e7 3d 26 ce 76 7a bf d3 4a e4 0d 56 19 ba 3f
       -0.006460957785628945 0.10194909896044217
000010 67 62 41 bb b6 76 c5 bf 4b 8b 42 be 55 cd 9a bf
       -0.16768535750704247 -0.026173915612740555
000020 c8 8c 89 5b 7c 15 b1 bf 0a ab e1 39 94 7f b4 3f
       -0.06673409685895415 0.0800717011749549
000030 63 9f 8d f4 f9 b4 96 bf 93 94 81 4a 28 47 b0 3f
       -0.022174745131820283 0.0635857755565488
000040 dd fb bd 62 95 f7 b7 bf 3e 45 eb 04 36 43 8c bf
       -0.09362157498070141 -0.01380006983291315
000050 33 c9 99 14 ce 29 ab 3f 9e 2d fd 51 13 71 ac 3f
       0.0530533218524333 0.055550197370929796
000060 c5 6a a9 67 5f 1b a8 3f f3 ca 4a 67 7d 67 b9 3f
       0.04708383694079069 0.09923537990361435
000070 ff 17 33 3f af 0b c4 3f 09 94 33 44 64 69 b7 3f
       0.15660658441464645 0.09145189919543396
000080 b6 3a 74 d1 96 54 a8 bf fa fb 27 33 38 d1 c1 bf
       -0.0475203638726404 -0.13919737336979648
000090 c0 a6 30 46 b1 70 b7 bf db 48 11 58 26 55 71 bf
       -0.09156330073951846 -0.004231595784476928
0000a0 95 b6 0b 2e 32 b1 ac bf 07 66 98 c6 ff 23 a9 3f
       -0.05603939830858199 0.04910277652033917
0000b0 b5 ab 71 0a 28 44 c3 3f 15 8d 9d b0 2c ed c3 3f
       0.15051746854746076 0.15567549346733559
0000c0 dd d9 f4 13 d9 ee b9 bf c4 9f 88 0d 75 31 c0 3f
       -0.1013007806512642 0.12650931511711694
0000d0 eb 48 9e 50 3b e0 c1 bf 57 6e 69 43 23 eb 98 bf
       -0.13965550838890492 -0.024334479321949178
0000e0 67 5f 68 a7 c0 05 b4 bf 85 56 77 35 c7 dc b5 3f
       -0.07821277701475325 0.08540005736662167
0000f0 63 a7 c5 de 3b 51 c5 bf f8 51 17 c3 0d 7e b9 3f
       -0.16654156091254455 0.09957967770544218
000100 af e3 c3 1c 9c a9 c3 bf 8c 78 5e cb 2e f1 c1 bf
       -0.1536135807471317 -0.1401728146565272
000110 9d 11 bc 3b f9 bb c0 bf 00 76 b4 42 67 06 c5 bf
       -0.13073649803858425 -0.16425791508747523
000120 a3 63 c4 74 5e 5e b4 3f 9d 68 19 f0 60 53 c4 3f
       0.07956495619545349 0.15879451488109889
000130 58 66 f6 28 e6 6b bf bf 23 6b 10 b5 19 ea b4 bf
       -0.12274015903531088 -0.08169708891402343
000140 8b d6 8a 5f 1e f1 91 3f 14 57 c9 1b dd 62 bb bf
       0.017521357137147347 -0.10697729042416554
000150 10 04 55 58 a7 6c c4 bf d3 27 e2 6a 4d e4 b4 bf
       -0.15956584752169123 -0.08160861834963322
000160 c3 34 ff 9f 11 ee b3 3f e5 66 eb 24 3d 36 cb bf
       0.07785139232801712 -0.21259273817741256
000170 59 34 34 c6 57 13 b3 3f 4b 64 0d bf 35 5f 8a bf
       0.0745138987442301 -0.01287691106124291
000180 60 7b 8c b1 11 77 bc bf 2c 57 74 c6 3e f3 c8 bf
       -0.11119185051619018 -0.1949232548728842
000190 8b c7 47 e1 86 cb 9c bf f4 f5 ac eb 1a 43 6d bf
       -0.028120143413566317 -0.003572037295639369
0001a0 65 e8 f0 1d 7f 33 c1 3f 1a f0 3b 00 36 37 b3 bf
       0.134384050006534 -0.07506120210376857
0001b0 fe c2 8c e9 35 28 bc bf 4d 92 0d 49 30 69 bb 3f
       -0.10998856498623508 0.1070738008834919
0001c0 23 a7 20 4d 40 78 c5 bf 99 6e cc 4c 2d ca b7 bf
       -0.1677322746848456 -0.09292872548069865
0001d0 a9 09 d6 cb 86 aa a3 3f e7 b5 8e 83 4b cc 9e bf
       0.038410389311155875 -0.030076198486929242
0001e0 90 ea 92 e8 40 60 af bf 5e e8 62 e9 a8 06 bd bf
       -0.061281231298797256 -0.11338287065419325
0001f0 48 4a d1 71 57 fe c0 3f 1d 6b 53 76 e0 dc 99 3f
       0.13276188905236297 0.02525664064601606
000200 7d 49 92 ea 6d d3 9b bf d9 cd 98 3a 38 b7 a3 bf
       -0.027173726503471485 -0.03850722995084838
000210 48 e6 81 1b f7 8e bb bf 2c 38 ef 95 83 f6 a4 bf
       -0.10765022679870484 -0.04094325261358764
000220 2d 9c 37 f0 56 1b c6 bf 7b d3 10 56 ef e7 9a 3f
       -0.17270933846813943 0.026275386455569354
000230 da d1 48 63 63 e4 b5 bf 4f c9 c5 e6 7e 05 c8 bf
       -0.08551617788254565 -0.18766771572297578
000240 9d 80 b2 7d b2 c6 c6 bf 84 53 55 23 3d 25 bc bf
       -0.17793875825464492 -0.10994321930532008
000250 80 a5 62 f4 46 62 c6 bf 6e 23 ed db df 27 73 3f
       -0.17487418110730957 0.004676699113425593
000260 a1 96 ff fc 87 dc b7 3f 1f c3 c3 5d 55 1c ba 3f
       0.09320878912657317 0.10199483431985044
000270 d8 15 07 fd 29 d2 a0 3f 44 6d 92 93 36 fc ab 3f
       0.03285342420307885 0.05465860892692345
000280 17 d6 e6 32 18 45 c4 bf 4f 76 c0 8f 73 ce c6 bf
       -0.15835859761652735 -0.17817539710169902
000290 3b 8a 64 ff b9 8b c8 bf 7d db 1f 82 d6 20 c5 bf
       -0.19176411600445128 -0.16506463388187945
0002a0 c1 06 77 00 79 94 9b bf 5b c3 6b c6 29 6d c3 bf
       -0.02693356576288042 -0.15176889599345142
0002b0 1c e8 8b 48 fd 17 c8 bf 5b e3 6e b5 19 99 bd bf
       -0.1882320980292328 -0.11561737708588053
0002c0 3c d6 14 68 be c6 b9 3f ec a4 28 ef 02 6a aa bf
       0.10068883935022027 -0.051590053266702046
0002d0 cc 09 96 91 70 51 a6 bf 39 a9 6f 93 3f 8a a3 bf
       -0.04359008576558984 -0.03816412615545279
0002e0 a1 e8 5a ba 86 b8 9a bf c2 c8 34 68 84 ac c7 bf
       -0.026094536899770152 -0.1849523075885085
0002f0 f0 8f 09 7c 89 79 b5 3f b4 de ea 5f 0d 6d c7 bf
       0.08388575819259336 -0.18301551040143738
000300 30 dd 63 27 7f 22 b4 3f 88 24 1f 89 81 70 ac bf
       0.07865137778923237 -0.05554585265014916
000310 4d 23 95 fe f6 34 ab 3f 1e cf 2b 52 7a 9d b3 bf
       0.05313846452424418 -0.07662167078143198
000320 14 70 e3 96 ea 0b a4 bf c7 a2 f1 64 bf 14 a1 3f
       -0.039153414649007484 0.033361416885616495
000330 8a a9 3a e6 fc c6 ba bf 57 0c dc ed 30 3e cc bf
       -0.10459881420925946 -0.22064792265163888
000340 9f 0a f1 7b a5 0a a7 3f 39 2b ab 47 ed 84 a5 3f
       0.04500310075720403 0.04202977657185731
000350 87 f2 57 29 83 91 c3 bf 69 d6 43 78 64 b0 a2 3f
       -0.15287818449714427 0.03650201767042633
000360 bd 49 99 7c c0 63 ad bf 07 7c c1 23 3c fe bc bf
       -0.057401671609699424 -0.11325431702560716
000370 25 52 d0 14 61 48 be bf c6 f3 b0 a0 c4 1f a7 3f
       -0.11829191930912282 0.04516424619257679
000380 69 21 a8 56 c7 d1 b9 bf 59 dd b0 43 3e 14 a7 bf
       -0.10085721841472196 -0.045076318514868326
000390 27 03 70 f1 62 d1 c1 bf 31 56 34 bb f6 04 a0 3f
       -0.13920246876662043 0.031287870742897524
0003a0 a8 d9 9e b5 ca e9 6c 3f b6 1e 26 3f 85 3f be 3f
       0.0035294493836445957 0.11815674583169308
0003b0 14 95 e7 0b 61 01 c5 bf 50 2e b7 d9 8b 4b a3 bf
       -0.1641045864227314 -0.03768574745808151
0003c0 5d 60 30 28 bc f4 a7 bf c9 76 61 cf ad a0 c1 bf
       -0.04678905478084581 -0.13771603227626475
0003d0 36 4d b1 9e 55 f2 c2 bf 82 5a 47 2a 17 61 cc bf
       -0.14802046059285495 -0.22171296657935008
0003e0 87 d3 21 7d b7 05 b9 3f 6a 22 76 7e cb be b3 bf
       0.09774348072990167 -0.07713004910886814
0003f0 94 7f c4 50 d0 61 c8 bf b2 ba 21 7f 37 04 c3 bf
       -0.19048503822068297 -0.14856618602376198
000400 23 e5 fa 78 18 42 9c 3f df 1d f8 f5 73 97 bc 3f
       0.027595884689366145 0.11168598895175517
000410 e0 67 c1 52 8b 60 bc 3f 42 88 cb dd 27 50 95 3f
       0.11084814806363807 0.0208135823367075
000420 ea 2b 9f 4a 6d df c1 3f 9b 83 60 3c 1f 48 be 3f
       0.13963094848290264 0.1182879946141057
000430 db 8b ff 33 01 ba b8 3f 31 17 54 a7 b8 2c b9 bf
       0.09658820647705062 -0.09833864293258611
000440 4c f6 e2 33 0d 12 98 bf 40 91 1e f4 2c 00 c3 bf
       -0.023506361286072683 -0.14844285888569608
000450 4f 23 01 61 55 84 c3 bf 6b 6f 30 31 93 bc c3 bf
       -0.15247599827332656 -0.1541923513585702
000460 0e 3d 15 f6 eb ea a7 3f 5a ad 90 aa d1 f3 9b 3f
       0.04671418551390093 0.02729728320643452
000470 ad bc 82 be 4a 6d 87 3f 3f d1 25 37 11 21 95 bf
       0.0114389266385316 -0.020633954039525945
000480 4a 1c d7 4a 3e 72 74 3f ee 40 03 11 f6 73 a5 3f
       0.0049917634291381605 0.041900338722941174
000490 8c c1 ca f6 b9 3f ab bf 1e 5d 07 7e da 05 c4 3f
       -0.053220569015482416 0.15642863420246383
0004a0 e6 20 b4 b1 c6 32 c5 bf 54 c5 51 cd 33 9b af 3f
       -0.16561206509528076 0.06173097497311156
0004b0 0a eb 9f 9f a1 97 b4 3f 69 6f 82 2f 29 ac b5 bf
       0.08043871066176336 -0.08465821657085616
0004c0 de b2 a0 8f f5 c0 46 3f 67 c7 4c 36 62 ea b8 3f
       0.000694389250616458 0.09732641053849776
0004d0 25 2b 22 1c 9f e6 c5 3f ad 4c ec dc db 36 9d bf
       0.17110051034645682 -0.028529582366058893
0004e0 73 07 f5 57 49 3e 64 3f fe bf f5 95 b8 80 93 bf
       0.002471106766876946 -0.019045719292478218
0004f0 f7 6e d6 da a9 d5 b6 bf fb e2 08 9c 2e bb 9d 3f
       -0.08919774620738595 0.029034355424502483
000500 2c c7 b5 c7 e0 60 9c 3f 2e a3 d0 66 07 2f c8 bf
       0.02771331042226348 -0.18893520851386242
000510 6b e1 f9 29 c9 b1 c2 bf 56 bb ae 1b 7e 74 be 3f
       -0.14605059194196754 0.1189650361618367
000520 be 54 e0 e8 80 0a 57 bf f4 a3 83 3e d0 5e a2 3f
       -0.0014063128360295852 0.035879619246607236
000530 30 b0 4b 3c fd 67 bc 3f 97 88 9f e1 20 e6 c1 bf
       0.11096174928724234 -0.1398354627299951
000540 cc c3 90 12 2b c5 b3 bf 42 ff c3 e5 0f 84 b6 3f
       -0.07722729876765227 0.08795260772239735
000550 12 5c 87 a9 68 d7 a0 3f 05 e1 f0 5c 89 f7 c6 bf
       0.0328934390014909 -0.1794292167485382
000560 4f bd 0d 41 d9 0a 97 3f 61 d2 89 6a fa 5e b9 3f
       0.022502321811257272 0.09910550213846527
000570 40 a7 fc a0 9b 3d ba bf 3c b3 d4 66 fa 6d b6 bf
       -0.10250256233544253 -0.08761563311118165
000580 7d e6 da b7 b4 a6 c0 bf f9 0d 33 de 79 b6 c4 bf
       -0.13008746125506213 -0.16181872701245917
000590 75 c0 6f 74 48 08 c0 3f 72 7a 33 da 57 38 96 bf
       0.1252527779138323 -0.021699307148873755
0005a0 98 7b 17 6d 7b f9 b5 3f fa 91 60 20 dd b4 9b bf
       0.0858380452477675 -0.027057128049039016
0005b0 91 72 e4 c7 4a 8f b0 bf d4 6c 8f 6f 2e 69 6e bf
       -0.06468646412072078 -0.0037122637699958747
0005c0 d0 cc 5f be 4d ee c1 bf 63 73 c6 05 65 94 a9 3f
       -0.14008495135894927 0.04996028609750771
0005d0 0c f9 19 20 02 90 b8 bf 61 cd 90 fa 23 2e b4 3f
       -0.09594739230849231 0.07882904879879994
0005e0 55 7a 6f a9 30 48 c5 bf b6 5b fd 8c 0c 74 af 3f
       -0.16626556657043304 0.0614322588068527
0005f0 63 42 88 54 3f 5b 62 bf dd ae ae e4 36 f5 72 3f
       -0.0022407757680940484 0.004628385950961903
000600 cb ea df fa 38 02 a3 3f 3e 90 63 f9 bd 2c c4 bf
       0.0371263319247724 -0.1576154201239905
000610 a7 d8 57 3d 4f 65 a9 3f 53 6c 0d 73 80 2a bb 3f
       0.04960105537240738 0.10611727532288855
000620 b3 61 b4 9c 3b e9 b7 3f 44 db bb 6e 65 a1 94 3f
       0.0934026010112408 0.02014692772260253
000630 ba ca eb 77 83 48 c4 bf e2 8d c1 37 90 50 aa bf
       -0.1584629378845273 -0.0513958995877848
000640 fd c9 17 56 51 90 a9 3f 80 09 86 87 11 bc c1 bf
       0.04992918182314907 -0.13855189435350823
000650 18 92 b1 20 b3 8a cd bf 6f 8f b3 ec 04 1e c1 bf
       -0.23079527946823997 -0.13372861440359027
000660 99 1e 72 f7 6b d8 ba bf 1b fe 6e 29 7d 0f b1 bf
       -0.10486483374745105 -0.066642592063538
000670 18 61 21 9d 92 f5 c0 bf aa 4d 11 a1 66 87 b1 3f
       -0.13249428436643806 0.06847230369867555
000680 8c f9 d1 8c ae 02 a5 3f 3b f1 e7 76 6e da b2 3f
       0.041036085786788495 0.07364550021151654
000690 df 1a b3 59 20 cb 65 bf ab 3c f5 db 32 58 c3 bf
       -0.0026603347629107067 -0.15112910976538294
0006a0 63 ee 56 12 a5 3a c2 bf 23 54 f2 f9 c9 fd bc 3f
       -0.14241469760405598 0.11324751236163925
0006b0 6f 0e 12 b1 03 52 98 3f 2f b3 71 b5 c0 4c c4 bf
       0.02375036018612636 -0.15859230861260573
0006c0 2a 8c 42 f9 13 da d0 bf e9 76 95 ed 83 96 9f 3f
       -0.26331042615692246 0.03084760797116007
0006d0 b6 39 c7 89 d8 d3 97 3f 3b 0b 00 f1 30 93 c3 bf
       0.02326906529361291 -0.15292941825472348
0006e0 a7 84 e5 24 7d 84 c0 3f f9 be 4a 68 d4 91 a3 3f
       0.12904323865499132 0.03822196744056145
0006f0 e5 91 25 bf 8e 3b b9 bf 24 a9 87 f9 ed 81 b0 bf
       -0.09856502691906817 -0.06448256818808723
000700 ba 39 9e e6 08 ec ba bf ce 85 48 48 0a e8 af bf
       -0.10516410475086149 -0.06231720096935654
000710 d5 54 17 29 5f e0 b3 3f 7b 1e ac d3 01 01 9a 3f
       0.07764239075852981 0.025394466919378616
000720 4c 1c 0e 4a 95 23 bb bf b3 b7 86 6c c2 d8 88 3f
       -0.10601170595156012 0.012132185875852608
000730 e2 11 44 37 d1 9e 70 3f 9d 2f f7 32 58 83 95 bf
       0.004057709931889227 -0.021008852110568566
000740 91 60 15 d1 4b e2 a0 3f ae ff ef 18 df 98 c3 bf
       0.03297650267876507 -0.1531027671589959
000750 68 6c 0c f0 21 14 b8 bf a0 d4 f8 79 02 c6 95 3f
       -0.09405719862518114 0.02126315946062063
000760 05 e7 b1 ec 09 14 b8 3f 3f 22 30 25 2f 52 b8 bf
       0.09405576733288619 -0.09500403077994067
000770 75 77 f8 6d 35 ce a4 3f 04 5d 8d 7d e4 ac ae bf
       0.04063574759878367 -0.05991281540507923
000780 47 2d 27 34 6b c3 c9 bf da 6d 53 98 2f b7 b6 3f
       -0.20127620741400618 0.08873269528287811
000790 08 dd 54 be d3 84 99 3f e0 0a a1 96 62 53 b9 bf
       0.02492075776282568 -0.09892860581843932
0007a0 ff b7 25 13 f0 76 c2 3f df 15 45 29 3e 41 bb 3f
       0.14425469336441663 0.1064642763859278
0007b0 2e 3f b8 5f 04 9d 8f 3f a6 08 2e 25 3c 6c 93 3f
       0.01543620507348428 0.018967571038509455
0007c0 f3 c2 db 64 e6 bc b4 3f a7 f8 8f fa f6 3b bc bf
       0.08100738489498464 -0.11028998963590429
0007d0 53 83 1a 0e 2d 67 bc 3f 49 39 fd c2 45 ef b7 3f
       0.11094934076619482 0.09349475870587755
0007e0 95 3a eb cf 05 00 bb 3f d7 cd 1c b4 e4 e5 a5 3f
       0.1054690964331065 0.042769572245017144
0007f0 71 3b f1 e7 b0 7d b7 bf 0e 70 1a 91 3e a2 b1 bf
       -0.09176164305357105 -0.06888190310058936
