Data/Breast Cancer Winsconsin (Diagnostic)/worst.onnx (onnx, 418189 bytes, 5 tensors)

model.sequential_layers.4.Linear 4.weight f8 [1, 17]
-0.4568434568161983 0.23616349784652285 0.2410174279844748 0.21055173036671163 0.24916317541233307 0.379426518899879 0.30465731397110984 -0.3414176377230506
-0.30258406783203634 -0.329778756252826 -0.33199531143550637 0.3441719397487318 0.20310719661514148 0.26144935426798904 0.17634978334605933 -0.3411747981572091
-0.23040193205664983
00000000: c0b2 9a56 ec3c ddbf 8a40 e101 9b3a ce3f
00000010: 21cc 7ab9 a8d9 ce3f 3d47 05ee 5bf3 ca3f
00000020: c6b9 e134 94e4 cf3f 2e3f 7a2a 8648 d83f
00000030: 4a8f ff63 817f d33f b713 135d c9d9 d5bf
00000040: 7f45 e890 895d d3bf 535f 415b 181b d5bf
00000050: 099d 4243 693f d5bf e5fc 5abe e906 d63f
00000060: caaa 85a7 6aff c93f 910b 8912 96bb d03f
00000070: a462 1034 a192 c63f cc7e 13d2 ced5 d5bf
00000080: d42b 8f7d cf7d cdbf

model.sequential_layers.3.Linear 3.weight f8 [16, 65]
0.2374671484825248 -0.30912844233480874 -0.16200493831353924 -0.0653158549870532 0.19634970756172404 -0.09106116513836089 0.20173171927235564 0.2195335813982176
-0.05491652039047238 -0.05458893658500242 0.013355747070430761 0.01561935602869211 0.34681670522716224 0.2566162265028637 0.08922022282091853 -0.2501601520708867
-0.18900676931036364 -0.20846109225594264 -0.38798022063080234 -0.08296296933931577 -0.14841870959851788 0.15953294667814388 0.30347707669490726 0.006795642146806965
0.25960571663826804 -0.24794365813987657 -0.16518437475778053 -0.13934274319150158 -0.2932646697955642 -0.36546144326564967 -0.05446146631762641 -0.05759895349369761
-0.4466621073002175 0.4092412465293913 0.02415524442804159 0.08589958335161087 -0.29314996094811924 0.13533494729516124 0.41546608680562075 -0.2155517235564451
-0.15251117583476145 -0.11255309202766503 -0.054480063565183916 0.16957581825054346 0.2498340457820714 0.19035586728313078 0.06849811085386262 -0.3371461593507282
-0.12167111881156432 0.008959885383324729 0.023428692751414792 0.26008230213280287 -0.1922222612008106 0.47819570021669844 0.18383670348864212 -0.2626219075621611
0.25688030557876934 0.17275530412569726 0.2876837408280413 0.08024096297120549 0.31316709422802286 0.15130936294409297 0.1125023793651697 -0.070996347700573
0.12592823199007594 -0.18472249527489742 0.14012458220615814 -0.19043151706936462 0.08565206824572211 0.16515801019804915 -0.11312946886777221 0.17570714059452952
-0.06040645533392408 -0.5716856011149077 -0.04714274411887751 0.1257533610069328 -0.006685206020955566 0.20677879697637372 0.1904125229235222 -0.0973364797023965
0.22080689865965794 0.20904769014645405 0.032523195723127424 -0.11622338374211755 -0.14806095389774399 -0.26978010962209326 0.21706361790301748 -0.40705652704301193
0.0866340308742568 0.1854931694132797 0.03397975553716786 -0.5187702168193398 0.30461856070525384 -0.4303317699737601 0.14116210182948324 -0.5010012891516412
-0.5160638524856789 0.08292795917067387 0.19175947449583328 -0.15774162802665162 -0.024458246716457535 0.0015362939728008668 0.13176216899540447 0.089009417796499
0.0536230402858558 0.13870173790158033 0.25490391221257386 0.32604543674455855 0.2737376337263588 -0.6735019544701316 -0.24981459091933272 -0.018671224047497246
0.4130829098029014 -0.3252010508486911 0.020235324471787226 -0.25386608996174925 -0.4294509243631144 -0.1535717758500136 0.23673069925040288 -0.3785041139865642
0.28870954354216033 0.0994849767520349 0.30897306062816593 0.103558663032081 0.16289441815698222 -0.41047540495561075 0.1760910695867708 -0.24210166611142786
-0.1543076874024451 0.4400625329960205 0.3864051293705503 0.25423808104752377 -0.15757710501120303 -0.05577126596017744 -0.11953311723805066 -0.03652284621579662
-0.27397698689628563 -0.052921761757529745 -0.286589029519259 -0.5939657639806939 0.25642254864453606 -0.46040129318424117 -0.28438925497557926 0.2366275931436879
0.117647619485634 -0.061050138449347924 -0.30109760067547864 0.07714890180867699 0.25839303962417587 -0.11723510601812048 0.004592496260344255 0.18675792886764014
0.23161150597894795 -0.06020778404573486 -0.29279417874088953 0.042996493087439754 -0.1969212144085285 -0.12012602851942344 -0.45505511241837415 -0.11334284784386409
0.005620027442698923 -0.260443029379983 0.41513278908050577 -0.11734445842252945 -0.31422075003798794 -0.46187028583151835 -0.16041309614101212 -0.23656231994913787
-0.06427339996961515 0.14325797235585894 -0.0007426016974598864 -0.21490177905631197 0.15467861037555217 0.284707439251611 -0.279271681955738 0.34954399905900396
-0.3640024259559189 0.06782468192159755 0.20650091680931665 -0.012352419048362519 0.04250118626362688 -0.2809782160547616 0.2518936518336377 0.05407499273578339
-0.48938554326679584 -0.4108495066935976 -0.3232042443714527 -0.3154066718303519 -0.33348818055380136 0.3512979526066991 0.1300252603062322 0.2303661945925456
0.3840915811777505 -0.0036580929735947013 -0.15729483178312725 0.256159114943661 -0.051567818480460915 -0.082089905620954 0.3217299951333566 -0.325526318084149
-0.40620564992503366 0.11960976833131529 -0.3102146689929473 -0.24047896325082685 0.021639702256505217 0.22769479272795667 -0.3535107121341805 0.21118334622984025
0.20944577306003853 -0.3633590101384767 0.29632191308689687 0.14328790551604792 0.2268816262552977 0.2757128450856484 0.010674400753323546 -0.2542520631124267
0.2555756742476394 -0.3678268568340587 -0.009299152299494016 0.27337905634971976 -0.15405888452208658 -0.3610638953527028 -0.2659257617222626 -0.19469506509652065
-0.06739845663083986 -0.5018223105370503 -0.2909592246207792 0.46846609413875173 -0.09161501325919134 -0.16778188384632803 0.11305182107688042 -0.02851138180642353
0.13181985342167343 0.07733526629535707 -0.21765237699496418 0.0034902508124827337 -0.12727744553587061 0.1694344783894868 0.2244428207711924 -0.44059299055783996
-0.25125298403848517 0.12346302431240067 0.0901295482055759 0.30673839170543826 -0.1567772052791918 -0.2442590774118378 -0.15785948237915526 -0.3161904768265393
0.11428185595925203 -0.38726833539765565 -0.48765264866395175 -0.017985768839127104 0.4502562608302222 0.12348811337236103 0.34602530700463896 0.2624043561966069
00000000: 47ac 4dd2 5265 ce3f ead9 85a9 c2c8 d3bf
00000010: 5c6f eceb 93bc c4bf 6265 1435 8ab8 b0bf
00000020: 3244 47ba fc21 c93f 5575 34d6 c84f b7bf
00000030: 7399 6b50 58d2 c93f 1a53 3d28 ad19 cc3f
00000040: f5a4 2ca6 041e acbf 1146 b6c2 14f3 abbf
00000050: 4997 0c07 425a 8b3f 735c 9f7a 0afd 8f3f
00000060: 7c0e aab1 3e32 d63f 7ff9 1c77 666c d03f
00000070: 955d 28f3 22d7 b63f c009 fab9 9f02 d0bf
00000080: 788f 74b2 5f31 c8bf af25 dd62 daae cabf
00000090: 91aa c6fd aad4 d8bf c666 17a8 0f3d b5bf
000000a0: 388a eb5f 62ff c2bf 70fe 4e5a 936b c43f
000000b0: 3f61 df1d 2b6c d33f 16e7 694c bfd5 7b3f
000000c0: 6a39 b44b 619d d03f 4e0e 7b27 9ebc cfbf
000000d0: 468b b2f7 c224 c5bf 6aa1 78a6 fbd5 c1bf
000000e0: 2a07 762d d9c4 d2bf 5e98 b164 b863 d7bf
000000f0: 24ec 7391 5fe2 abbf 6319 142b 9c7d adbf
00000100: 50e1 cda9 1c96 dcbf 1027 8132 0231 da3f
00000110: d79c 6103 27bc 983f b935 3cdd 83fd b53f
00000120: 6522 c60d f8c2 d2bf afbd 51d2 a752 c13f
00000130: df57 db11 ff96 da3f 13bc a2e9 3297 cbbf
00000140: 1f0e 3e78 7c85 c3bf 568f 5289 47d0 bcbf
00000150: 67ca 9796 cfe4 abbf 140d ca10 a9b4 c53f
00000160: c2da 07e0 8ffa cf3f fb97 4ac0 945d c83f
00000170: ea82 f499 1789 b13f 5689 187c cd93 d5bf
00000180: 87d4 29a4 d625 bfbf cd0b 9475 8f59 823f
00000190: 6016 9ff4 b0fd 973f 1f71 7b3d 30a5 d03f
000001a0: e6d7 b532 bd9a c8bf c22f 6123 c29a de3f
000001b0: a8e2 a40a f687 c73f d653 0c1e ccce d0bf
000001c0: 93a0 dc17 ba70 d03f 7717 b786 d81c c63f
000001d0: d5a1 9c10 6969 d23f adc8 c2f7 ab8a b43f
000001e0: 2322 f9fe ed0a d43f 6234 b6ee 1a5e c33f
000001f0: 8778 18b8 f4cc bc3f 6c68 820f d12c b2bf
00000200: 5b2e 0593 6a1e c03f 0246 059a fca4 c7bf
00000210: 6276 f830 9aef c13f 2665 f858 0f60 c8bf
00000220: 263c f33f 4bed b53f 168d 3cce e523 c53f
00000230: 113d 0089 0df6 bcbf 947a 4353 927d c63f
00000240: 20c3 404c 98ed aebf 813e 0c9a 3f4b e2bf
00000250: edf2 7700 1823 a8bf 9084 71a6 af18 c03f
00000260: 7ce6 a153 f261 7bbf 2187 4245 ba77 ca3f
00000270: d549 5a03 705f c83f 4c91 0725 0beb b8bf
00000280: b3b9 3c84 6643 cc3f cbde 3d20 13c2 ca3f
00000290: cc06 fc5b e1a6 a03f 2cee 33d0 d0c0 bdbf
000002a0: 8016 674d a9f3 c2bf 3b0b fcca 1344 d1bf
000002b0: 4abf 059a bdc8 cb3f 137a d1d1 360d dabf
000002c0: b059 53d9 a52d b63f 5676 217c 3dbe c73f
000002d0: 3734 8465 cb65 a13f b417 6cff c399 e0bf
000002e0: 38f4 fed8 de7e d33f e0e4 9d43 8e8a dbbf
000002f0: 8668 6589 9911 c23f db1f 05db 3308 e0bf
00000300: 3c5c 2257 9883 e0bf a9e3 8f48 c43a b53f
00000310: 2731 d40f 938b c83f 5dcf cbae e030 c4bf
00000320: 7409 0f27 950b 99bf 17b6 b117 af2b 593f
00000330: 7fb7 572f 95dd c03f 9bd2 783a 52c9 b63f
00000340: a9ff ada8 7a74 ab3f 6bc3 1782 fac0 c13f
00000350: 55d4 a47f 5850 d03f 92fc f4ad eddd d43f
00000360: 3b81 22da ea84 d13f b3b8 87f8 538d e5bf
00000370: 9ef4 07ad ecf9 cfbf e922 a4a2 8c1e 93bf
00000380: 6cf5 084d f36f da3f 0c47 8111 18d0 d4bf
00000390: 8233 52a3 91b8 943f 2bbe 7c8e 573f d0bf
000003a0: 5419 d8ba 1f7c dbbf 55a6 6e6d 3da8 c3bf
000003b0: 3bae 9e09 314d ce3f e951 be51 6939 d8bf
000003c0: 6da0 e397 377a d23f 2de3 97f1 d877 b93f
000003d0: 478d aff1 36c6 d33f acb5 f00e d282 ba3f
000003e0: 37b4 576b b9d9 c43f 6830 06a2 3a45 dabf
000003f0: 6815 7ff4 268a c63f 96ba 20f9 2ffd cebf
00000400: 361b 75b3 5ac0 c3bf ca6b da0a fc29 dc3f
00000410: 6bcd 6994 dcba d83f 68cd dfcc 6f45 d03f
00000420: 7c8c 4f90 7c2b c4bf 7e01 b626 0d8e acbf
00000430: 6c8c 53ed b899 bebf 737c 1b5c 1fb3 a2bf
00000440: eddf a4c5 d688 d1bf 2497 fda7 8f18 abbf
00000450: bc5d 4b83 7957 d2bf 1ab4 677d c401 e3bf
00000460: f6a7 181f 3a69 d03f 8ccb 50fc 3677 ddbf
00000470: ff0c 5dfd 6e33 d2bf 1111 f11e d049 ce3f
00000480: f39e 2486 271e be3f 10c9 1cb8 f641 afbf
00000490: 3089 f3de 2e45 d3bf 0bca 30ca 07c0 b33f
000004a0: a1ca acf5 8289 d03f c079 4ab2 1e03 bebf
000004b0: c942 ecd3 94cf 723f aeaa 600e afe7 c73f
000004c0: 2b48 c721 72a5 cd3f dad2 e1fe 8dd3 aebf
000004d0: e2ae 89cb 23bd d2bf f975 4ee7 a203 a63f
000004e0: 54f9 e2df b634 c9bf 50a8 e353 94c0 bebf
000004f0: b4ba 6d7a 9f1f ddbf 1293 b970 0904 bdbf
00000500: d5ae 1aa1 0605 773f da1f 6a3d 19ab d0bf
00000510: 4246 261e 8991 da3f 05a6 4a53 490a bebf
00000520: e1d0 4859 311c d4bf aafe 2863 488f ddbf
00000530: ce4b e394 6a88 c4bf 2bdf d291 ac47 cebf
00000540: 1a4a dfb6 3874 b0bf 9970 14f9 4656 c23f
00000550: 56e8 9400 6555 48bf fa14 73c8 e681 cbbf
00000560: 9713 7a3a 82cc c33f 6ede 208d a538 d23f
00000570: 45b9 2c55 96df d1bf ad2c 1ecb ed5e d63f
00000580: 244d c9d4 d04b d7bf 5201 b756 f55c b13f
00000590: c21f 253e 9f6e ca3f d4b0 b69e 394c 89bf
000005a0: 4243 162a b7c2 a53f ecfd 350e 8cfb d1bf
000005b0: d182 2c8d 061f d03f 0bcb a9aa b7af ab3f
000005c0: 46d4 ddbd 1752 dfbf 39e9 b4ba 5b4b dabf
000005d0: f43d e0da 60af d4bf 75e6 1c77 9f2f d4bf
000005e0: 1231 45cf de57 d5bf f13d 6668 aa7b d63f
000005f0: d9a6 55f0 aaa4 c03f 9c81 f0b3 a37c cd3f
00000600: 97f3 f4da f494 d83f 747f feb5 93f7 6dbf
00000610: 264f 2baf 3c22 c4bf 4f57 5033 e964 d03f
00000620: 259e ccdb 1867 aabf fa45 f913 d803 b5bf
00000630: 415c cf67 3997 d43f 5c28 8a56 6cd5 d4bf
00000640: 6f38 78fb 45ff d9bf eedf 43eb be9e be3f
00000650: 6d1b 84a0 8eda d3bf 98e6 44c1 03c8 cebf
00000660: 588d f2d5 b728 963f a037 1e5c 1a25 cd3f
00000670: f8b9 d964 eb9f d6bf 582d c24e 0e08 cb3f
00000680: d805 ca7c 1ecf ca3f b01b 5026 4641 d7bf
00000690: d5f7 722f f0f6 d23f 2248 0d12 4257 c23f
000006a0: d736 6a06 750a cd3f e6b7 2e7d 47a5 d13f
000006b0: a28f 1ed1 75dc 853f a389 0072 aa45 d0bf
000006c0: 20fe a212 5a5b d03f 1e56 2ca8 798a d7bf
000006d0: 5f07 0e18 6f0b 83bf 9fbc 9bde 0a7f d13f
000006e0: fb1d 5797 33b8 c3bf 3099 93bd ab1b d7bf
000006f0: 55b4 707c ed04 d1bf 671d a494 c4eb c8bf
00000700: cfc3 0777 0641 b1bf fa1c 85a9 ed0e e0bf
00000710: 17cf 8d70 139f d2bf 4817 6736 59fb dd3f
00000720: 5355 c5dd 1474 b7bf 9699 fd73 e079 c5bf
00000730: 2a48 47d2 f6f0 bc3f bd7e b071 1632 9dbf
00000740: cf6d b413 79df c03f 03e6 9077 3ecc b33f
00000750: 3b86 8b78 08dc cbbf 9fbd 0523 9697 6c3f
00000760: 7c28 0c99 a04a c0bf 79b3 bf6b 07b0 c53f
00000770: a962 84d7 8aba cc3f 92bc 52f1 ac32 dcbf
00000780: dcee 5d65 8714 d0bf 22e0 afd3 459b bf3f
00000790: 6c3a f2e5 ba12 b73f 145c 3310 9aa1 d33f
000007a0: 2059 b784 4611 c4bf af13 9ea6 e143 cfbf
000007b0: 784a 1751 bd34 c4bf 57b4 51fb 763c d4bf
000007c0: 0205 df61 9341 bd3f 69cb d320 01c9 d8bf
000007d0: e271 7474 b335 dfbf 2d72 d483 dc6a 92bf
000007e0: 7671 c5a2 ffd0 dc3f 2b08 61c0 ea9c bf3f
000007f0: 1617 4b54 4725 d63f a74f 0ca4 3bcb d03f

model.sequential_layers.2.Linear 2.weight f8 [64, 129]
-0.01898133123029307 -0.22559748387421535 -0.0714580305165304 0.19980434421236154 -0.18922010611758058 -0.2641563708021006 0.06814875461591102 0.17162225067710676
-0.15413626680564751 0.0142051411731741 0.04780878390919886 -0.16123082900951274 -0.17926741565990859 -0.201303483424698 -0.19618309959607436 -0.07292111193538366
0.1610353913845702 -0.0038607112737827484 -0.2656024775488734 0.014144158794894076 -0.07340405492948707 -0.30098054334292357 0.1924450441000478 -0.08555641104409482
0.12611196096801766 0.001846033960687004 -0.06089730151354064 0.04799184071915333 0.12266503344084125 0.09079448382490532 -0.09852741140659507 -0.09710161896979998
-0.2150535533649961 -0.13878014625274707 -0.1504205059690742 0.05388613215373119 0.11231561668514936 -0.22415472551144977 0.12176678583397987 -0.1614629429981844
0.11928206482582372 -0.06918476890065604 0.20129967087923284 0.10628638664399621 0.1665527486908421 -0.18134161178036326 0.20706721925094085 0.012969347625120805
0.06731949295145906 0.2127743830582349 -0.047247130211899684 0.0703867699429036 0.009275697473516054 0.3425367928716691 -0.22194995492158556 0.06649483522174623
0.12933179576310233 0.11112140087690314 -0.32751057257053307 0.07651307461093407 0.018029745189927098 -0.150977217916559 0.1752598000659745 0.03568516851066681
0.10697113502925147 -0.15127338765840584 -0.18589934563828905 0.19668136205233958 0.24477571472227527 -0.08719708226845715 -0.24875012650020623 -0.15189322386676368
0.14596458232059498 -0.06030306591394427 -0.09286932485744 0.20053257755949758 0.1520181135755702 -0.03857551000846216 0.1780113378605013 -0.21353252224069963
-0.07131111369868966 0.03606805190442054 -0.01861079371106551 -0.26046740689661757 0.07576254138883147 -0.016521664975242774 -0.15236230564630038 -0.0984311507913809
-0.2595532458527687 -0.20106378081876736 -0.41426728603753765 -0.1592722031735465 -0.004536758730843259 -0.05010831462775605 0.12747536867414067 0.25739636823127654
0.03523559921498834 0.23087454749654573 0.12993246195231928 -0.2812517000149241 -0.18147310130595032 0.1004192162480958 0.1811484356050782 -0.028035432931561605
0.027664118316015077 -0.2831056324366784 -0.10134516345737334 -0.1605518859981081 -0.08932060699485711 0.09324134882512465 -0.19747809076397335 0.08545221209696396
-0.16088264346398212 0.16297241312266525 0.05938332228344592 -0.09667255534914485 -0.0629000410380258 -0.17121682160427665 0.0678771592684701 -0.1810693280776507
0.033773645645511434 0.13394786513406642 0.1188252035217731 0.235238509484793 0.15714635059225068 -0.11539616539474963 -0.35321106813260356 -0.250303602632168
-0.20605825679033346 -0.2611233549671401 0.08880232483782097 0.11567335862678524 0.18400042447893714 -0.181080957299176 0.17477712295229883 0.14005744850586832
0.018094754804712187 0.03460916571257557 -0.03205890589194086 -0.278474674134614 0.03306140873261169 -0.4219235458571011 -0.24658260990633096 0.19484642278695158
-0.07560921784378372 0.012691936412463072 -0.357897790720065 0.15300698351002434 0.1529579428447722 0.1791694923950386 0.2350354261341922 -0.10271881050954249
0.1781745304087623 0.07854780062116937 0.15246826258922394 -0.1622736745462764 0.36670525200859366 0.22108590996448485 0.05788163504044243 -0.33131633705814323
0.1628161735010727 -0.2142109106960948 0.11096674860094735 -0.2999718629571741 -0.2911619036330253 -0.0801143912994017 0.02061258574996387 -0.21541671636740106
0.198694723850282 -0.07364011553816194 0.22278434726638488 -0.06905045526241504 -0.0510131515110959 0.03464504687844597 -0.051319538018813234 -0.04808484283968614
-0.15899728577656347 -0.0773788868204839 0.05564757087595391 0.15519720842327564 -0.20980102393160344 -0.08310949186200262 -0.05541638792016216 -0.24276996572371498
-0.02003451233425954 -0.426665607057968 -0.1954561051816041 -0.051236268684013764 0.032221392975992635 -0.22016234803106616 0.19149777105821744 0.02213009562085838
-0.2864889264968963 0.06353499854126088 -0.2510690770859387 0.2120860198851833 0.21163186374058052 -0.08656132018018511 -0.17424117764228794 -0.08311416600673793
-0.14960243599233197 0.2541954418950496 -0.11826755184575671 0.0002496289726206338 0.10375404420810387 0.06816646706240286 0.07560941820086614 0.06308474539000762
-0.11667407767650514 -0.048013624707001816 -0.1794690329740487 -0.24774507002897186 0.06746933056671386 0.01640034187757069 -0.04399131689519312 -0.22404422600283935
-0.03198410891837701 -0.1372021880181438 -0.040171333372448076 0.10696519256729095 0.21250307865492934 -0.08889576038459289 0.020605488664362265 0.046985032063200934
-0.02171607086104498 -0.2986291470001845 -0.17351329530385137 -0.009446630384646599 0.1132035833665334 -0.2020867972477919 -0.002307799306695005 0.0011626983478403925
-0.404672563122138 -0.22991725903811902 -0.2136049400342181 -0.024182519950385607 0.0854438077060034 0.05394844216540842 0.03735530734062021 0.18159367720111325
-0.07236460173259208 -0.0003022865765075015 -0.12560311797084264 -0.20783340491838145 -0.15191462006520312 0.15026265279300188 0.17423326824365998 -0.235538270000571
0.12718963883650394 0.20294566765495461 0.010430274456696101 0.16275966508115178 -0.2287864911912135 0.1502634145045858 -0.2934396915426732 0.20446944606026785
00000000: f57f 7993 d76f 93bf ae5a a6db 60e0 ccbf
00000010: bde5 1ad0 124b b2bf 2ed3 fe51 3093 c93f
00000020: eda4 c24b 5d38 c8bf 2b01 681f f0e7 d0bf
00000030: c4a5 5660 3272 b13f 7f48 f6c8 b7f7 c53f
00000040: 8c65 87b8 bcba c3bf 15d6 30c6 9517 8d3f
00000050: 12fd b396 647a a83f 2ef6 d938 36a3 c4bf
00000060: 21b6 bf13 3cf2 c6bf 66a2 f002 50c4 c9bf
00000070: ab82 651e 871c c9bf 414f f33e f5aa b2bf
00000080: a365 bfc5 ce9c c43f 1e52 2095 7fa0 6fbf
00000090: 6bc6 b388 a1ff d0bf 0bc5 a0db 9cf7 8c3f
000000a0: 16e1 50af 9bca b2bf 80f8 98e5 4343 d3bf
000000b0: 10ef 5709 0aa2 c83f e7c3 6563 06e7 b5bf
000000c0: f7fb fecd 6f24 c03f 17dd 42df d33e 5e3f
000000d0: 4ca3 d45c ee2d afbf 642a baf4 6292 a83f
000000e0: a1bc fdc2 f966 bf3f 4267 afaa 4e3e b73f
000000f0: 9238 c0a9 1739 b9bf 712b ddd5 a6db b8bf
00000100: 0cae 4bf5 df86 cbbf b5ac be3e 8cc3 c1bf
00000110: 2079 e4a8 fa40 c3bf a3cd 9d8e f696 ab3f
00000120: 6227 7e5c b7c0 bc3f 6863 a81f 1ab1 ccbf
00000130: ec5e e5aa 1b2c bf3f f7b7 d855 d1aa c4bf
00000140: b11f 6df7 4489 be3f 4744 cfcf 17b6 b1bf
00000150: 6499 8f07 30c4 c93f 9d5e a5aa 9535 bb3f
00000160: 43d1 57b8 9951 c53f 4913 00b2 3336 c7bf
00000170: 70d3 60bb 2d81 ca3f 3eea 335f ac8f 8a3f
00000180: 1c1d 9cac d93b b13f 6fb2 54e4 303c cb3f
00000190: 970f 2e9e c630 a8bf 18d1 f90a de04 b23f
000001a0: 2de8 5e0a 23ff 823f f7df c370 1fec d53f
000001b0: 3952 de2a db68 ccbf ee5b a136 ce05 b13f
000001c0: 4657 91bc f18d c03f c8e9 a6be 7372 bc3f
000001d0: 1a38 92e7 eef5 d4bf 5a9d 2b61 5c96 b33f
000001e0: 2ba7 c8b7 6376 923f 8a43 b2b2 3853 c3bf
000001f0: 331e cbc2 e96e c63f 8d3f 698f 5345 a23f
00000200: ff0e 91d6 7562 bb3f e9bd 5f26 ed5c c3bf
00000210: cd9f eebc 8ccb c7bf 31af dfd8 da2c c93f
00000220: 4e29 cb84 cf54 cf3f 224f a648 8c52 b6bf
00000230: 24dd 184d 0bd7 cfbf e2f1 7eb6 3c71 c3bf
00000240: 0d7b b8a9 f7ae c23f 3cd9 e51f 0be0 aebf
00000250: 4576 10b9 48c6 b7bf b347 332f 0dab c93f
00000260: be74 1a5d 5475 c33f 2163 d353 2bc0 a3bf
00000270: a9ca 3655 13c9 c63f 48fe d39f 0855 cbbf
00000280: 9d5d 2df5 7141 b2bf 0247 b8fe 8277 a23f
00000290: f3d3 5d39 b50e 93bf 99df 927c 7fab d0bf
000002a0: 73e1 8685 2c65 b33f e2fe f92a 0eeb 90bf
000002b0: 206f f2a7 9b80 c3bf 027f 8ead c832 b9bf
000002c0: cf87 a037 859c d0bf 7e6b 833d 75bc c9bf
000002d0: a55e 55ef 5a83 dabf 7068 e513 0863 c4bf
000002e0: 8c9f 0fe6 2295 72bf b7f3 2a09 cca7 a9bf
000002f0: 0420 c0e5 1c51 c03f 8066 ea9d 2e79 d03f
00000300: b411 9184 660a a23f bafc 7c13 4c8d cd3f
00000310: a211 637d a0a1 c03f 4b8b 6021 0700 d2bf
00000320: 713b 9bb5 823a c7bf 18ef ace1 12b5 b93f
00000330: 949b 5237 df2f c73f d8f1 470e 52b5 9cbf
00000340: b484 c28d fb53 9c3f 6640 2816 671e d2bf
00000350: c93d a8b2 c1f1 b9bf b024 d6d5 f68c c4bf
00000360: 10db e61d b7dd b6bf 1dbe d63f aade b73f
00000370: 1bff c04a f646 c9bf f8ca 5338 32e0 b53f
00000380: 92fe 156e cd97 c4bf ce8a 41b0 47dc c43f
00000390: a43c 45a6 7d67 ae3f 2634 a557 88bf b8bf
000003a0: 9ee5 2c93 371a b0bf 2860 a8cc 6eea c5bf
000003b0: 1c16 34c3 6560 b13f 6e7b 339d 472d c7bf
000003c0: 8f40 077f c74a a13f b856 0f22 3425 c13f
000003d0: 0b0a 111b 546b be3f c59c 7fa4 4b1c ce3f
000003e0: 2c5f 3d22 5f1d c43f 294a 7464 9a8a bdbf
000003f0: a1be 8d98 029b d6bf b212 d866 f904 d0bf
00000400: be1c fef0 1d60 cabf 0890 73bb 3eb6 d0bf
00000410: c4b9 fcc8 bfbb b63f bc0d 52ec c49c bd3f
00000420: d327 cb6e 538d c73f 6ea0 c32a a92d c7bf
00000430: e3a4 95c5 185f c63f 986b 7208 67ed c13f
00000440: 9325 7670 6e87 923f e334 c1e5 4ab8 a13f
00000450: 55ee b360 066a a0bf 0009 8b70 87d2 d1bf
00000460: b552 88ca 6ced a03f 3c97 b79d cb00 dbbf
00000470: a4ae a7da 0490 cfbf ea67 ce42 baf0 c83f
00000480: f049 ea2d 205b b3bf 5cf9 83de 3afe 893f
00000490: 6203 9d22 cce7 d6bf ea19 1e9b bb95 c33f
000004a0: 0e43 1739 2094 c33f c688 23a3 06ef c63f
000004b0: 6eea 520e a415 ce3f c28f d2ab c74b babf
000004c0: 38fb 8a4a 6cce c63f e634 d76a b51b b43f
000004d0: ffd3 bf7c 1484 c33f dcc8 963e 62c5 c4bf
000004e0: 897e 294e 1978 d73f c8b1 7308 8b4c cc3f
000004f0: 724e 1363 a9a2 ad3f 2ee5 1270 4934 d5bf
00000500: 4836 390e 29d7 c43f d96b f15b 436b cbbf
00000510: e03c 2f1c 5168 bc3f abc2 472f bd32 d3bf
00000520: 047a 7c89 65a2 d2bf 7ae3 9172 6082 b4bf
00000530: ec75 ba36 771b 953f 1aa4 e763 c692 cbbf
00000540: 2d90 6926 d46e c93f 26fa e81f 14da b2bf
00000550: 31f0 c88e 3284 cc3f 7840 2067 4aad b1bf
00000560: c5e5 cf52 651e aabf 5464 9fde febc a13f
00000570: 298e dff2 8d46 aabf 6c08 dc96 939e a8bf
00000580: dc13 48e7 055a c4bf 317c 4b4c 1acf b3bf
00000590: 6933 07a2 d67d ac3f 2be2 4d8b 80dd c33f
000005a0: ee0d 3a8c c2da cabf a4d3 88e5 a946 b5bf
000005b0: a520 8f6b 895f acbf b700 9e13 1613 cfbf
000005c0: 385c 115d ed83 94bf dd15 2943 7d4e dbbf
000005d0: c67d c7a5 b404 c9bf 60db bbe4 a33b aabf
000005e0: d87c 208a 527f a03f d84f 4da2 472e ccbf
000005f0: 25d9 f9bb ff82 c83f d0b6 cb93 45a9 963f
00000600: ae19 7ea6 d555 d2bf f8d8 e264 d443 b03f
00000610: 9fbe c708 8411 d0bf d93e ac7b a225 cb3f
00000620: 5056 c7be c016 cb3f 3ec1 45f7 e128 b6bf
00000630: 238a cbef 884d c6bf 2850 d550 f846 b5bf
00000640: 8697 fe30 2c26 c3bf 00d1 6ef5 bc44 d03f
00000650: ac02 5b43 c846 bebf a8b2 0646 145c 303f
00000660: 6998 b302 a08f ba3f 8b85 b78a 5b73 b13f
00000670: 0c3b 718a 235b b33f 0f9a 5366 5226 b03f
00000680: 8e5b e933 5ade bdbf 070b c2e7 3d95 a8bf
00000690: 2857 a25d d7f8 c6bf 5984 c246 1cb6 cfbf
000006a0: 565d 4488 ab45 b13f 0690 0750 40cb 903f
000006b0: 24e3 bea6 0786 a6bf 1419 c52f 7bad ccbf
000006c0: 829e 979b 3860 a0bf 0921 3d5f d78f c1bf
000006d0: a48b 2446 5691 a4bf 0e09 e323 1262 bb3f
000006e0: 78a5 8f06 4d33 cb3f 57d9 9a5f dfc1 b6bf
000006f0: 38e4 b9ef 9a19 953f d1d5 3910 6c0e a83f
00000700: 5d4e 95d8 bc3c 96bf 00e2 ff6c bd1c d3bf
00000710: 5f28 6004 af35 c6bf 9dc4 7944 c158 83bf
00000720: cb69 59f8 e8fa bc3f a5fa 90ec fadd c9bf
00000730: 071b 8951 cee7 62bf 22f9 42d8 b50c 533f
00000740: 51ad 0cc0 27e6 d9bf 3566 2dc2 ed6d cdbf
00000750: 4e02 db1b 6857 cbbf 0d7f 4971 4dc3 98bf
00000760: 1435 be37 a5df b53f 0489 8a55 219f ab3f
00000770: f150 b81e 3c20 a33f de9c 5e2c 763e c73f
00000780: 415d d48d 7c86 b2bf 9664 caf5 86cf 33bf
00000790: 5bee fa51 c313 c0bf e104 92f6 489a cabf
000007a0: 9a6e 7b32 f071 c3bf cc2f c77d ce3b c33f
000007b0: d6a8 7d96 464d c63f 77ef 4d37 1e26 cebf
000007c0: d9ae 9805 c047 c03f 71b1 b8a6 1ffa c93f
000007d0: 4842 70bd 775c 853f afd3 5007 4fd5 c43f
000007e0: c367 b730 e048 cdbf f88e 8ae1 d43b c33f
000007f0: 018b a145 b7c7 d2bf 5017 ee07 0e2c ca3f

model.sequential_layers.1.Linear 1.weight f8 [128, 257]
-0.2592553747187367 0.04270067609639544 -0.1094030520467646 -0.15603324372811944 -0.16910852672620216 0.018283593653450444 -0.24253104320847652 -0.12480131927173864
0.09692875328067974 -0.054103812037868654 0.10089771063907262 -0.13692407459839245 0.04549607211586529 -0.14755704079140847 -0.04264973112628236 -0.10235235278330149
-0.08401804957099394 0.16443615041289056 -0.15310921818565923 -0.12085109120317006 -0.034976986628771654 -0.13302507833230703 0.06441788230063467 -0.004457180536587632
0.12508527170393008 -0.21664033754725126 0.06472939980238096 0.012661358775608757 -0.12105085704590618 0.12459914571500393 0.19415131270124478 0.08122483400410754
0.10488155345332012 -0.008972891790167652 -0.13228203951555575 0.1458466607888039 0.1525827154735789 -0.18383525650153199 0.0070517228727385705 0.10130296925375948
-0.03667825812428367 0.09271839732103387 -0.07079135497680698 -0.11753336597248604 0.08274409381266984 0.05731479864076456 0.12762711307055158 -0.07687071571985293
-0.059294239992741624 -0.06256174065457872 0.06888659201781316 0.04039738637582354 0.050709514543989205 0.0829842025473826 -0.07108186556288676 0.14308473331117183
-0.1288610258051329 0.12705197932373602 -0.11774038914175299 0.0896012354665929 0.058711024410491294 -0.04448256311789028 -0.18764220117873245 -0.1325190573379115
-0.0666050676782975 0.0962918790205077 -0.030103364707020543 0.07075837761581022 -0.1739346988780548 -0.0629324643177127 -0.1869364998070346 0.04865602017525426
-0.1770016457561779 0.1174943188920728 -0.13590278029721117 -0.11645515882708814 -0.2046957093213365 -0.22025163209007406 -0.1111000460365762 0.03149100768842671
-0.06793567644876027 -0.1227445182405677 -0.13513506676421802 0.09839194014359443 -0.031977724888074 0.016556872826869042 0.02638881607046326 0.12736364176021298
-0.05402422292120242 0.01720965394594676 -0.18967391672176484 -0.06807780564553874 -0.002680303916279452 0.06347905928735309 0.014877990344069144 0.07708374450054646
-0.10628428702086593 -0.13072144290543766 -0.08007632557874753 -0.11146268713741027 -0.0965321471140708 -0.045171237231508274 0.11075336290983459 0.1289327043499669
0.14152021861673023 0.0021440337009492653 -0.10720646718459802 0.09301852665471305 0.09116656204394205 -0.0768373416984767 -0.12820110519956746 -0.12188999620654552
0.13992666631113468 -0.010326983963054263 0.0789677879373756 -0.259809415854792 0.009563017427157032 0.1517617370499776 0.12788965635724192 0.18602008912290588
-0.06681189317189778 0.03385434630276083 -0.10425329509343498 -0.23606468126030586 -0.17856160926608242 -0.058796195459114756 -0.072939514664376 0.08290494549520519
0.06472539659972767 0.1702411639878255 -0.18849480748299977 0.037159774409123554 0.06038759693679274 -0.08170965081776073 -0.018120920427178625 -0.03487915870292001
-0.14590606968069522 0.003730760866381413 -0.08033544246380772 -0.04959924125242064 -0.08903791691314909 0.08035955233575012 0.057199581654657265 0.17531089475267894
-0.15093049929164568 -0.10844749448610139 -0.05635349904739499 -0.10252924696942792 -0.17317377002140547 0.06887471575828799 -0.1560185098515798 0.1518550075359533
0.11302965224778684 -0.0778080020820711 -0.03232388131386537 -0.15905207140551697 -0.07719355831365123 -0.11332581898635212 -0.0949213985099606 -0.17784918618960574
0.001295729980324723 0.19020640555335946 -0.03702086702525786 0.061624691001192444 -0.1295646780432563 -0.23579556479579927 -0.003083781302158535 0.015021420869130261
-0.23431194942676922 -0.08202923399952851 0.037370333280827596 0.14078472419751745 -0.21753703371912114 -0.11273027648946111 0.08587977750366715 0.050825966412544936
0.13380436232443546 -0.05127772260419248 -0.08896054356635787 -0.017449080426906575 0.14738752925446588 -0.12039897218613246 -0.029181542615456142 0.1114127472096439
0.16612523365590243 0.005523844706442398 -0.04767037750030224 -0.09004421784066566 -0.17397081784485272 0.10996105525808353 0.0641523458127188 -0.010123799723035244
0.06269964260403915 -0.04679261731926449 0.03204779333541004 0.0393502759637208 0.041643226077787046 -0.19408643319351865 0.034789097918992984 0.11377048896363381
-0.1224500084138067 -0.05975843020811618 -0.2524656603701379 -0.010773884759829964 0.0049546508527238435 0.031103005124101114 0.07735800319208819 -0.007155355482385666
0.035341008536824134 0.0898580592332558 -0.11670103055913059 -0.06579777524770594 0.16261282312183348 -0.10657089867414388 -0.16481213734897732 0.0769468413703088
-0.10880465369393341 -0.21658982484395525 -0.23440792575301483 0.005555473217154826 -0.16652594018323072 -0.07983881454756744 -0.21124867422091417 0.07052294859043115
0.11710565729344455 -0.06238763958117563 -0.20081616197021365 -0.08199297891094469 0.16625138179154975 -0.08117269006742042 0.09448036144936707 0.006636724490632776
0.03894652137647951 0.058667671301135524 0.1203917648637871 -0.21009597289168244 -0.06009446952724977 -0.03680368093181554 -0.1125703119468752 -0.06586050239186413
-0.08073832991502845 0.004472115199765346 0.007145197667635297 -0.04859547216437955 0.06952425769967573 -0.185296341108126 -0.13067389954228523 0.0753909349574238
0.03357605666976488 0.0871582978609617 0.021945188945926352 -0.2343680831868465 -0.19005823463649485 -0.13195721759357165 0.012150860831388766 -0.08672246398655074
00000000: 34ab eeda a397 d0bf 58c4 b3ee dcdc a53f
00000010: c199 9fa2 d601 bcbf 4456 73b7 e5f8 c3bf
00000020: 8dc3 e123 59a5 c5bf 3f00 2e33 efb8 923f
00000030: 842e 6cd9 410b cfbf c70f c5b0 faf2 bfbf
00000040: 40f0 61a1 52d0 b83f 9449 95ae 7eb3 abbf
00000050: 79a3 6faf 6ed4 b93f 52b3 3763 ba86 c1bf
00000060: 040f abdb 424b a73f 822f 3f2c 26e3 c2bf
00000070: 23bc bd80 2fd6 a5bf a278 df87 c333 babf
00000080: 435e 2ef7 3482 b5bf 26d9 2668 3e0c c53f
00000090: 9769 6936 1599 c3bf a84d 67dc 18f0 bebf
000000a0: dbcc 5deb 80e8 a1bf a817 7e3c f706 c1bf
000000b0: ec40 c2b9 b07d b03f 1633 314a b141 72bf
000000c0: e6fe 964f cb02 c03f 9a42 61de deba cbbf
000000d0: ecad 3d1f 1b92 b03f e1cd e9ce 32ee 893f
000000e0: 6439 2a60 30fd bebf 5d9a f4c7 bae5 bf3f
000000f0: 157f 4341 f3d9 c83f 12b1 ab95 26cb b43f
00000100: b422 097a 84d9 ba3f 6985 5026 6160 82bf
00000110: 91a3 c82c 9eee c0bf c3cb 2877 1aab c23f
00000120: 236b 7296 d487 c33f 184f 43e7 e987 c7bf
00000130: 6ee1 e671 44e2 7c3f 40be eecb fdee b93f
00000140: 5a70 3c1e 7ec7 a2bf 5c3b 3b94 64bc b73f
00000150: 8704 77da 611f b2bf 8466 0aab aa16 bebf
00000160: 94d1 dc88 b72e b53f 4952 7a83 5d58 ad3f
00000170: e246 5cd2 1556 c03f 1071 099a ccad b3bf
00000180: fe51 388b d05b aebf a59d 17d6 0b04 b0bf
00000190: 6c72 d93b 8da2 b13f 9bf4 a75a f7ae a43f
000001a0: 11fc 1ff5 98f6 a93f e190 06e4 733e b53f
000001b0: 8867 eecf 6b32 b2bf 426e 10bd 9950 c23f
000001c0: 83f1 c7a1 847e c0bf ac33 0b40 3d43 c03f
000001d0: 7f3a c8f0 3b24 bebf 3e9d 0248 1bf0 b63f
000001e0: 96f3 8313 5f0f ae3f e7cc aa23 6bc6 a6bf
000001f0: f9bf b4de a804 c8bf 5d79 ae6c 62f6 c0bf
00000200: 7518 6d9b 070d b1bf b672 43a7 95a6 b83f
00000210: f733 aa9b 6ad3 9ebf fc25 c795 381d b23f
00000220: b811 a901 7e43 c6bf 5fec 198c 571c b0bf
00000230: 4fca 8c04 89ed c7bf cdfd cf1e 71e9 a83f
00000240: fb33 ee6b fda7 c6bf 9574 1b91 1b14 be3f
00000250: 75ef 6726 4365 c1bf 61e2 9c5a 01d0 bdbf
00000260: 3355 9510 7833 cabf c9d6 5b9a 3431 ccbf
00000270: 18aa 4f78 0d71 bcbf ff9d 47e0 961f a03f
00000280: 753d 9484 3b64 b1bf 7c44 9b4b 2f6c bfbf
00000290: 9bc5 251a 1b4c c1bf 8052 1bd5 3630 b93f
000002a0: ca84 3065 625f a0bf 0701 43ed 48f4 903f
000002b0: b9dd 0278 ab05 9b3f 24a0 07aa 734d c03f
000002c0: 7ad9 461d 10a9 abbf 4147 7e53 689f 913f
000002d0: d5b2 9c22 3c47 c8bf 95be d40c 8c6d b1bf
000002e0: a487 3d35 01f5 65bf 10ba 9ee3 2940 b03f
000002f0: d1f1 a90f 5a78 8e3f 79dd aea1 c2bb b33f
00000300: ea52 d570 7235 bbbf b517 15f1 7abb c0bf
00000310: de68 8bcf e17f b4bf b1bd fa93 d188 bcbf
00000320: b21a deae 54b6 b8bf 9e24 4235 af20 a7bf
00000330: 86a8 9e17 555a bc3f 6ab2 48ea dd80 c03f
00000340: 8b3f 57a3 551d c23f cb31 1154 5d90 613f
00000350: 6f40 7a0e e271 bbbf e472 e7e9 0fd0 b73f
00000360: 2aad 771a b156 b73f 72df b4ad 9cab b3bf
00000370: 4e54 12d1 e468 c0bf 59ab 6acb 2e34 bfbf
00000380: 2f83 d2f3 1de9 c13f 22e0 1953 5026 85bf
00000390: d2e4 a0a2 3b37 b43f 2e82 12ac b7a0 d0bf
000003a0: fc44 ce78 c695 833f 93f7 b4b8 ed6c c33f
000003b0: 3c88 c631 b05e c03f 0b48 979b 81cf c73f
000003c0: c43a 2890 951a b1bf 2d48 655c 5b55 a13f
000003d0: c231 ed0c 58b0 babf 8378 e012 5e37 cebf
000003e0: e739 0f58 1bdb c6bf 0293 40f1 881a aebf
000003f0: c9d1 11fe 29ac b2bf 161d 942d 4239 b53f
00000400: 52d0 9df5 d791 b03f 135e e163 76ca c53f
00000410: 797a cd0c 9920 c8bf 91ba a01f 9b06 a33f
00000420: 70e8 da83 1feb ae3f 09a5 0776 ecea b4bf
00000430: 04bf 6e62 4a8e 92bf 5ecf e15b aedb a1bf
00000440: 8582 c8d2 0cad c2bf 8537 21fd f88f 6e3f
00000450: 867c 1712 dd90 b4bf 9ece 2b5e 1265 a9bf
00000460: f7f5 3e5d 30cb b6bf 0208 3491 7192 b43f
00000470: d76f 1a79 4349 ad3f 4931 cc5f 9670 c63f
00000480: d399 36cb b051 c3bf 62a4 260a 37c3 bbbf
00000490: f6f2 d8a6 5dda acbf d200 9e52 5b3f babf
000004a0: cd2b 62df 8e2a c6bf 2a01 b4fb c5a1 b13f
000004b0: 570c b11e 6af8 c3bf 79e5 8c21 fc6f c33f
000004c0: 59eb e1e3 82ef bc3f a341 4fa8 39eb b3bf
000004d0: 87e4 3e7a c18c a0bf be1c 867a d15b c4bf
000004e0: a543 6b00 f5c2 b3bf 7bbb 56be eb02 bdbf
000004f0: 0f76 4ace c44c b8bf 33fc 261b c3c3 c6bf
00000500: cfcc f478 af3a 553f b9b2 abf9 ae58 c83f
00000510: 7f3d 492a 66f4 a2bf 08d4 f380 458d af3f
00000520: 9bce 744b 9395 c0bf ca7e ab8f 8c2e cebf
00000530: 90ba e77a 2843 69bf 389b fafa 8cc3 8e3f
00000540: 23cc ec17 effd cdbf 3d0a 582d deff b4bf
00000550: cd44 904e 3422 a33f 2d34 1add 3b05 c23f
00000560: 6809 bfe6 40d8 cbbf e190 ca32 e4db bcbf
00000570: 0819 c493 37fc b53f 5717 0f6f dc05 aa3f
00000580: 536f 1f58 8020 c13f 1d5d 32db 1241 aabf
00000590: e17b 4041 1ec6 b6bf 9187 1df7 2bde 91bf
000005a0: f53a fe34 98dd c23f 8eee 0290 77d2 bebf
000005b0: 228a b82c c4e1 9dbf b978 9fb9 8b85 bc3f
000005c0: b6d5 cb76 9743 c53f 7832 ccc5 2ba0 763f
000005d0: 811b b470 4068 a8bf 9ace d14a 230d b7bf
000005e0: d90e 8dfe ac44 c6bf 38c8 2a60 6826 bc3f
000005f0: f930 3ac3 496c b03f 8705 c665 c9bb 84bf
00000600: 608a 7472 150d b03f 3935 29b2 33f5 a7bf
00000610: eab0 9180 9168 a03f 669c b428 b825 a43f
00000620: 6243 35cc 4252 a53f faeb 9401 d3d7 c8bf
00000630: 908a a36b e0cf a13f c646 5911 1020 bd3f
00000640: df3f 883d e258 bfbf baed ce2e a898 aebf
00000650: 3dc7 a9ba 6528 d0bf 7203 8e55 9e10 86bf
00000660: 033e 02f6 534b 743f 1ae7 4257 77d9 9f3f
00000670: e03b cbed bbcd b33f 850f 9c1c ef4e 7dbf
00000680: 5623 bf77 3718 a23f 6c59 b011 f000 b73f
00000690: d634 a965 1ee0 bdbf 02a5 d67c 1fd8 b0bf
000006a0: 0df8 9b3a 7fd0 c43f 54c2 82fc 3a48 bbbf
000006b0: 6ae8 f269 9018 c5bf 364a 37c7 c9b2 b33f
000006c0: e69e 442d 9fda bbbf aff2 2c23 37b9 cbbf
000006d0: 8425 8433 1401 cebf 3ff5 80fc 55c1 763f
000006e0: 7be5 82d5 b850 c5bf eee6 6e09 5170 b4bf
000006f0: 6314 8d51 320a cbbf 663a d0bd ca0d b23f
00000700: 5e7e 40e8 a2fa bd3f 6c00 5acf 45f1 afbf
00000710: 9bcc 1510 58b4 c9bf 7793 ecea 7dfd b4bf
00000720: 6cd1 daab b947 c53f 76fc 2ac1 bbc7 b4bf
00000730: f50e 8a6e dd2f b83f 6abe 3c2a 1c2f 7b3f
00000740: 46bb 3567 ccf0 a33f 1647 2463 b009 ae3f
00000750: 3f35 cca4 fed1 be3f 77a8 4bc2 6ce4 cabf
00000760: b67b 94ca b3c4 aebf 63fa f29b eed7 a2bf
00000770: faf5 4f70 68d1 bcbf 0f06 dfdf 3bdc b0bf
00000780: e5c9 8466 44ab b4bf 2555 6e48 5a51 723f
00000790: dc2a e564 4844 7d3f 2200 5c77 81e1 a8bf
000007a0: df49 197d 57cc b13f c55d 905e cab7 c7bf
000007b0: abc9 7c1e ecb9 c0bf 7297 0e00 d24c b33f
000007c0: 798b a682 e130 a13f 9d4a e396 0150 b63f
000007d0: 4326 4fb3 cc78 963f 5ac1 41fa c5ff cdbf
000007e0: e4b3 0c07 d453 c8bf c68c 045f f9e3 c0bf
000007f0: 9acc 1cef 8ce2 883f 1399 a682 7133 b6bf

model.sequential_layers.0.Linear 0.weight f8 [256, 31]
0.24354089094944703 0.07765165730860422 0.0531447861196922 0.11699521747785235 0.10579725714583783 0.0025666298104763466 0.03662863276148921 0.23948670983361348
0.15446098218610957 0.04426688779585123 0.05136560922664082 0.1379790302962886 -0.1294869911382219 -0.040705851371336074 0.23347798289616 -0.0773250129903459
-0.05420808505145621 0.13344489897433248 0.14988244357722902 -0.12478995184532672 0.004639013041206813 -0.12035031471533227 0.3480950618092518 0.1756424138413873
0.23545815180613802 0.23142338884353847 0.2115568435247339 0.20213032565669192 0.024452185160323315 0.011089439708996663 0.2113827881371024 0.07825771584186479
0.22289783088252887 0.014368190558276924 0.22002967360146514 0.1374307607649434 -0.13827492890387702 0.290814859835841 0.22166174547721346 0.08977720316482506
0.03153651330072503 0.21486116871706967 0.1346128066499757 0.24430528229100204 0.1386849287775529 -0.01725663560356017 -0.20686387111114346 -0.021902674345915144
0.027348024850042583 -0.20069060302307865 -0.029003579249627456 -0.029763310053768494 -0.03601280939806212 -0.1256903471469408 0.2570492238986632 0.07976876329546724
-0.02486546160502337 0.12193307631181621 0.11251632709945347 0.1362727869605276 0.14686579087018448 -0.15570061096263288 0.24586431469802938 0.08947140743777737
0.09798831120786315 -0.06540076920958583 -0.03802513583963231 -0.13608048992442986 0.17681502842522143 0.2061270467206663 0.10534016609095874 -0.14127614426134172
0.07033256157211934 0.07573429014915041 0.14277489376699876 -0.01807487957763801 0.07388535017719142 -0.0012011526737566224 0.10275230246251776 0.15385095693805054
0.010924420907801833 0.04027282017021975 0.20199279401841405 0.10628799469437124 0.34710622527581786 0.1275419392734931 0.25481834733403097 0.1181088277341936
-0.029239441204711846 0.22959833354966971 0.39200463738540703 -0.012828618229613266 0.09633521062068713 -0.16264367855302514 -0.08347804762906118 0.04946452609983144
-0.09850845998064128 0.21796947163559838 -0.02486506399554077 0.21465731317869083 -0.055602735077080294 0.09057208292954697 -0.04081854689718765 0.08728097403087579
-0.2380636871823967 0.13036021549362173 0.17871787616544996 -0.04425751837151483 -0.16720909747364815 0.045420700047988746 -0.1325394230711405 0.17710289763305825
-0.14136277549111415 -0.1624344722130158 -0.15624960832488566 0.029584707785811418 0.09162726345151768 0.13123296247696598 0.0938322891236935 -0.06780777222519623
-0.12398583536657214 -0.14187659436562464 -0.002435173528719258 -0.1966798277185063 0.13328678330078114 -0.22865348260488474 -0.2730218777604905 0.10051101454192601
0.2250643531097059 -0.09439183138746557 -0.06403074858575984 -0.2325599592021659 0.13503968773824782 -0.07384110160927344 -0.2723602157428591 0.15276140159907042
-0.23768020728400122 0.06274603032790826 -0.11932322499325042 -0.06187057750614796 -0.025735289795323496 -0.26939837553634327 -0.04156226388968681 0.05093049831813661
-0.07200340362881065 -0.3674944774860968 -0.053305530735094246 -0.06868595288165619 0.09334664592513493 -0.12392964326921133 -0.0052896160002852246 -0.10219986047168858
-0.15516307237425941 0.09843037433431574 -0.07590855803841803 -0.04230019252390301 -0.10154560929203275 -0.16363083455673166 0.09356998704870657 -0.22287392855127006
-0.20519990069460056 0.025971012693318044 -0.024886109292852034 0.05360571267058767 -0.05770533706361203 0.0493299790137112 -0.023776647454017127 -0.06924091420363358
0.04250390148795062 -0.03402302169392083 -0.3605045899398337 0.09188630597011684 -0.09113426668603694 -0.028549665065558335 -0.2382863639431929 0.1859670399974714
0.20125931043610132 0.06368497755161345 0.20700467909121836 0.0995664707440323 -0.1502286497348954 0.2619919045529718 -0.1397062431003378 0.25596502932891263
0.1573572054663605 -0.23968219885084088 -0.26474490579296667 0.10578615600838774 0.07328979917357754 0.03294983399900103 -0.1469239633236352 -0.3610253488288417
0.0834580331473864 -0.15493775469938376 -0.07555447952972495 -0.12172103838102331 0.16257154702023854 -0.2231118960914655 -0.02632800228367826 0.257471176274749
0.10108459320170833 -0.139342412144292 -0.15363441421203441 0.09991268437152609 -0.17021046071233226 -0.2683523298432267 0.25803847078760533 -0.025568921988715198
-0.16611994006235334 0.06582083190877491 0.14003023438718984 -0.047325908993175334 0.12328388021553253 0.06481428756149152 0.35283075706120176 -0.004193774278254111
0.1352668046155599 0.0882432270517524 -0.24219996477052227 -0.1312829908755497 -0.2725706387024542 -0.12504840755719274 0.02918711102387146 -0.19220647557191922
-0.0363342618367543 0.033468367990947545 -0.1880114356335889 -0.16041525688459532 -0.025234262788043003 0.11811844856663685 0.1865148382926392 -0.11655957015652489
-0.1925583400405601 0.04173071308706999 0.11969914167273749 0.178704202414894 -0.11190748738104299 0.15767926694683768 -0.049915886878682876 0.0019438417001339298
-0.17975882809484653 0.1712326653312845 -0.005696053615011934 0.009884114079692417 0.1557818436880311 0.4001710849383684 0.0595218497623958 -0.1873952566318349
-0.26519901667558243 0.07762750717649645 -0.16172340470967664 -0.2762888264537119 0.10489325022038701 0.15255214894310515 -0.07367080055404487 0.009438935882370995
00000000: 02ec ee10 592c cf3f 37e3 9ea0 fae0 b33f
00000010: 508a ac1c cb35 ab3f a014 db08 66f3 bd3f
00000020: fda7 726f 8715 bb3f 9016 1ae3 9c06 653f
00000030: b296 9df7 fcc0 a23f feef 4721 80a7 ce3f
00000040: 1faa 7fa1 60c5 c33f e5fc c146 26aa a63f
00000050: c3fa 88d7 974c aa3f 5e03 54ff 4ba9 c13f
00000060: f719 199c 0793 c0bf 7e9c cab8 65d7 a4bf
00000070: ca01 7046 9be2 cd3f c9d0 f471 92cb b3bf
00000080: cb17 f380 29c1 abbf 0ad6 74f2 b814 c13f
00000090: 6052 b410 592f c33f 398b 0bfa 3bf2 bfbf
000000a0: e061 c394 5b00 733f 4502 c439 47cf bebf
000000b0: 61ab 9782 3047 d63f f29f 9e5b 737b c63f
000000c0: 67bf ca22 7e23 ce3f 0a66 4e17 489f cd3f
000000d0: 2f84 176e 4b14 cb3f 56d7 1c11 68df c93f
000000e0: 9d3a 515e fe09 993f 7a80 0c67 0fb6 863f
000000f0: 373a fe58 970e cb3f 0752 339a b208 b43f
00000100: c7b1 fe86 ea87 cc3f 1e6a 67e4 116d 8d3f
00000110: d248 22ae ee29 cc3f 1794 79c7 5497 c13f
00000120: 33db bf2c feb2 c1bf 82e3 0bee b59c d23f
00000130: 02a9 cc7d 695f cc3f f7ee 8487 a3fb b63f
00000140: be51 83ca 8d25 a03f c2fa 681e 9280 cb3f
00000150: fa9a 1711 fe3a c13f 0507 d73e 6545 cf3f
00000160: 581a c680 6dc0 c13f 81a1 3936 b9ab 91bf
00000170: a0ba 92ec 837a cabf 31e6 0a98 a76d 96bf
00000180: b650 5de1 1e01 9c3f 49a0 4ccc 3ab0 c9bf
00000190: 375a 6041 1db3 9dbf 15e2 34ed 457a 9ebf
000001a0: a819 345d 4570 a2bf b7a1 350d 9f16 c0bf
000001b0: 1bd8 8696 7e73 d03f 79ad 98c5 b96b b43f
000001c0: a8f6 92e1 5476 99bf 1c57 0f8f 0137 bf3f
000001d0: 387f 28b9 decd bc3f 5945 aafd 6271 c13f
000001e0: a024 588c 7fcc c23f 009f 0664 ffed c3bf
000001f0: 9cd4 705b 7b78 cf3f 0052 df20 99e7 b63f
00000200: cb2d 0710 c315 b93f 296f e3d4 1abe b0bf
00000210: 12e0 b6d5 0778 a3bf c7ae ece2 156b c1bf
00000220: 9789 43f6 dfa1 c63f ed3f 3efe 5e62 ca3f
00000230: 3fdd 50b8 92f7 ba3f 385a a731 5615 c2bf
00000240: 12d1 cb93 5001 b23f 2d5a 608b 5263 b33f
00000250: 2ea6 b59d 7246 c23f 480e a9a2 3882 92bf
00000260: 9e1f aa7a 26ea b23f 99e5 e1dc ffad 53bf
00000270: 784b aa92 f94d ba3f f5ec 405e 63b1 c33f
00000280: 65c7 36f4 8a5f 863f 15fa 189b a39e a43f
00000290: b71a 2b5e e6da c93f 7974 2ba5 b035 bb3f
000002a0: a30c 7307 fd36 d63f 3027 0655 4b53 c03f
000002b0: 8e1b 0e9d f14e d03f 06bd 7c50 613c be3f
000002c0: 7303 e9ae f1f0 9dbf 5bed e76a 7a63 cd3f
000002d0: a6d7 5c9e 9a16 d93f 5412 fefd e345 8abf
000002e0: 0db2 11a3 6ca9 b83f 16a8 2410 82d1 c4bf
000002f0: 0731 803c d15e b5bf 6263 d213 6a53 a93f
00000300: 9805 ffb5 d937 b9bf 06c4 1974 6ce6 cb3f
00000310: 3df7 b132 3a76 99bf ff8f f90d e479 cb3f
00000320: e7cb 7231 f677 acbf d6ed 1c66 bb2f b73f
00000330: 6dc1 fc27 2be6 a4bf 2290 06c1 0b58 b63f
00000340: 0123 68f3 de78 cebf a34f 1fbf a4af c03f
00000350: f7ab ab34 3ae0 c63f 22fb 03e4 eba8 a6bf
00000360: 761a 9f92 1b67 c5bf a6fa 88ca 6141 a73f
00000370: 87b8 c243 0df7 c0bf 622f aec8 4eab c63f
00000380: 8695 cde8 2c18 c2bf 29ef f21c a7ca c4bf
00000390: 2854 e2b6 fcff c3bf 546b 9b21 744b 9e3f
000003a0: 153d f263 e274 b73f 3275 ffe0 3dcc c03f
000003b0: 2b57 1895 6405 b83f 9330 1fa4 d95b b1bf
000003c0: 1f11 1124 89bd bfbf b121 6f22 0329 c2bf
000003d0: 1855 4fd5 edf2 63bf 33bd eaf9 cd2c c9bf
000003e0: d008 a293 8a0f c13f 29c6 f36e 8444 cdbf
000003f0: 68b9 04c1 3079 d1bf 0869 5800 17bb b93f
00000400: aa00 0da2 e8ce cc3f 0a97 d124 102a b8bf
00000410: 9f3e 1db3 5164 b0bf 61f2 9055 86c4 cdbf
00000420: c8b8 3f01 fb48 c13f 6d2f 831c 40e7 b2bf
00000430: a136 d68a 596e d1bf c2c4 fa83 af8d c33f
00000440: 117c 9816 4e6c cebf 1852 36b4 1f10 b03f
00000450: 87cf ff84 f78b bebf ab73 f215 80ad afbf
00000460: a892 1810 5a5a 9abf 328b 21af d23d d1bf
00000470: 78cf 4e28 a647 a5bf 376f 4af1 8f13 aa3f
00000480: 7153 c9a7 d06e b2bf 73db 908e 0785 d7bf
00000490: 9f03 68ce dc4a abbf 6441 5211 6795 b1bf
000004a0: 3593 70d7 90e5 b73f 2aa1 d864 dab9 bfbf
000004b0: 8d89 ac7b 90aa 75bf d6b4 6122 c529 babf
000004c0: 4079 b230 62dc c3bf adec b2a6 bb32 b93f
000004d0: 32f3 4246 be6e b3bf bb63 02ef 5ea8 a5bf
000004e0: 4b30 f69e e4fe b9bf a0e8 84ed daf1 c4bf
000004f0: 11e7 42e2 33f4 b73f 931e 2105 2287 ccbf
00000500: cf18 5087 fd43 cabf 64af a528 2598 9a3f
00000510: 7761 2686 be7b 99bf 900f 993d 3572 ab3f
00000520: 8059 fcce 8d8b adbf 050b 276d c741 a93f
00000530: cce3 e4cc e758 98bf 4bbc 0cc6 c5b9 b1bf
00000540: d6b1 af45 12c3 a53f 0515 f92a 776b a1bf
00000550: d25d f6d7 8112 d7bf d986 1767 dc85 b73f
00000560: f622 f646 9354 b7bf 3fc4 1297 1f3c 9dbf
00000570: 9000 1ce6 2a80 cebf f326 7699 c4cd c73f
00000580: 2756 2b76 ddc2 c93f 0ca7 d49f a84d b03f
00000590: c16a 681b 217f ca3f b4ae 9f2f 307d b93f
000005a0: 7d4d c440 b13a c3bf 09cb 77b1 79c4 d03f
000005b0: 6adc 94e8 e4e1 c1bf 84ca 7825 bb61 d03f
000005c0: de4c a2e9 4724 c43f a1b5 bf02 e8ad cebf
000005d0: 0775 0a9e 94f1 d0bf c3f2 6c30 cd14 bb3f
000005e0: 65b7 94ca 1ec3 b23f 9861 def6 ccde a03f
000005f0: bfa2 bc88 67ce c2bf abcc 8f10 0a1b d7bf
00000600: bedd f472 815d b53f 30bd ac16 00d5 c3bf
00000610: 117f a5d2 8957 b3bf 67e7 1427 1c29 bfbf
00000620: 7b24 dbfa 24cf c43f c7db 873c ee8e ccbf
00000630: bf11 1c53 baf5 9abf 0cd0 7062 687a d03f
00000640: fd48 ee0d aee0 b93f 9c80 8ddf f8d5 c1bf
00000650: d557 4ae0 4aaa c3bf 6ece d4af e093 b93f
00000660: e028 19d5 74c9 c5bf 21da 1e40 af2c d1bf
00000670: a020 49ca b383 d03f c328 f14e bd2e 9abf
00000680: 3d01 e40e 6b43 c5bf 6c96 7150 a2d9 b03f
00000690: fb74 92be 82ec c13f 4e21 c2fe 193b a8bf
000006a0: 5352 a649 888f bf3f 96e0 634d ab97 b03f
000006b0: 3973 a674 c794 d63f 2f55 f3b5 7d2d 71bf
000006c0: ca74 0733 6c50 c13f 23e1 47ae 1b97 b63f
000006d0: 3b10 e48f 6800 cfbf 4f70 2a8c e1cd c0bf
000006e0: 7beb c41e cc71 d1bf b900 7012 9601 c0bf
000006f0: 33be 3fdd 39e3 9d3f 9e95 54c7 389a c8bf
00000700: 9656 a084 679a a2bf 4077 f113 c422 a13f
00000710: b8fe a83b c210 c8bf afa4 0cb5 7c88 c4bf
00000720: e93b a7b5 02d7 99bf ede0 a5b9 023d be3f
00000730: 32c2 57dd b7df c73f ebab db15 d9d6 bdbf
00000740: 9eeb 856e c0a5 c8bf 303c e55f ba5d a53f
00000750: 4cfb d75a 9aa4 be3f 52ce 8380 c7df c63f
00000760: 1ba7 7a16 f8a5 bcbf 399f 658f d52e c43f
00000770: 01ba 633b 938e a9bf 9799 f621 10d9 5f3f
00000780: dfd5 ea57 5602 c7bf 6e69 cdb4 f3ea c53f
00000790: 1d42 e2bf be54 77bf 1f17 c755 1f3e 843f
000007a0: ceaf f9d1 a8f0 c33f 4c5e a72e 679c d93f
000007b0: 0cfb 40dc a579 ae3f 9162 5459 91fc c7bf
000007c0: 1c64 e34b 05f9 d0bf 9fd2 9774 65df b33f
000007d0: 1de8 1c3f 5ab3 c4bf 429c 7754 b7ae d1bf
000007e0: 7288 44b7 48da ba3f 8694 522d d486 c33f
000007f0: 2abd 0cef 16dc b2bf 02fe 6387 b854 833f
