Data/Breast Cancer Winsconsin (Diagnostic)/results/models/model_13/bcw_traced.pt (torch, 476245 bytes, 5 tensors)

weight f8 [256, 31]
00000000: bda5 b344 be02 92bf ae05 dec7 8124 ce3f
00000010: 10a5 e085 f48f c23f f58e 13c7 63b7 c63f
00000020: 4638 1262 0845 c53f 1df2 fc4f eeca c23f
00000030: f419 e556 a5ac b53f f187 a3cb 70f3 ae3f
00000040: 764d 8f59 1d62 b33f 6ebc 4388 af0f cc3f
00000050: f995 fe17 3a33 9ebf bb60 9443 175a bdbf
00000060: 8d25 6c0b 7c01 c6bf 9ed2 9860 423e c0bf
00000070: e424 6162 8592 a53f 0c91 8c99 875f aebf
00000080: d903 29fe 5179 babf 9fb4 c743 d475 b1bf
00000090: e7de fb88 efae 9b3f 72e2 9fa4 fd11 c1bf
000000a0: 3b96 6c64 1c2d d23f a299 a9b6 3bb1 ca3f
000000b0: 49ab 6b31 7f87 ba3f 925f 45d3 0a55 cf3f
000000c0: 409a fcc8 b8f4 bc3f f5e2 8c85 8797 cc3f
000000d0: 9336 33bc 171b c93f e83d 9e94 49b1 c83f
000000e0: 68bb 88f1 118f be3f ae82 3b13 ca2c ca3f
000000f0: a881 251b a8c4 af3f add1 3537 9682 ca3f
00000100: 25af 162d 090a d43f 0de2 4511 058a b63f
00000110: 002e 6ec2 ed20 b9bf b7f3 1fa8 a235 bbbf
00000120: 6ad5 abcb 6e53 bf3f 2d3c 54b3 01f9 a33f
00000130: e7d4 bc5e c847 8ebf d609 a370 85b2 c0bf
00000140: 3c29 efc2 c1f7 c9bf 2c33 1e38 3d5d c13f
00000150: d8c3 e6a5 5f49 b73f 3ceb f8af 6170 c5bf
00000160: 521a e0a0 546d b43f ecc5 58d3 f348 a2bf
00000170: db90 18d9 84a1 82bf 8fa3 8a18 c857 a4bf
00000180: 0122 a93f 50cc a3bf 6cc2 02a3 4f47 5f3f
00000190: 1b98 06b0 9162 cbbf b745 795c 27c9 c33f
000001a0: 6701 507b 6449 ba3f e9fd e04b edf5 d03f
000001b0: 9416 e002 259e c93f 99bd e7fe ab3f c23f
000001c0: b0df 45d1 45ad 92bf 3ddb 1069 ff10 b8bf
000001d0: f1ba cafc a70d 7c3f 8162 68c1 0b6f cc3f
000001e0: 0dac cbd2 2e51 ba3f ae36 ddbe 9837 b13f
000001f0: 6914 1d12 bfad a53f c0de 18f8 5b26 b73f
00000200: c4ce 3c5d c6b4 503f 827b ba1a 86ce c23f
00000210: fac4 a52a a82f ab3f c573 54ba 2d55 b13f
00000220: f5ef 52ef 3586 c7bf 0f4c d6e5 558f bf3f
00000230: d340 6780 8a8f a63f ec34 1ea3 0e26 afbf
00000240: 970b d173 bf23 b6bf 8332 bd06 2d4f ca3f
00000250: 8a95 0f48 53f8 81bf 3d89 821a c3d6 bb3f
00000260: c2f0 9425 94d5 ccbf 6e07 0443 f94a b3bf
00000270: dc57 4d37 afe5 773f ac7a 6d9e 3e02 c0bf
00000280: 7270 b024 b66e 94bf 447a 859b 399b c7bf
00000290: 6a24 f23e 4081 db3f 83e2 f977 e74c d43f
000002a0: 6c66 995e 1f12 cb3f f348 edd3 3ef3 cf3f
000002b0: 2cbb bf60 81e6 c63f e638 58cc aa50 b63f
000002c0: 0d28 7746 50f7 c73f d0a6 d91a 95c0 b1bf
000002d0: 8859 b67d be8c cf3f 8508 11c5 ee54 a7bf
000002e0: 96ec f1da 605c 8f3f c3f4 2b3c c11a cd3f
000002f0: cde2 71fe d0f9 c73f dd66 048b 5bba d13f
00000300: 09bc 03b4 3aa5 d33f d6b7 fa62 1bdb 923f
00000310: 5ec8 06f6 8f9d bcbf e8e1 1a5e 0641 63bf
00000320: 0064 e07b fde7 c73f 8421 b69b ec94 7fbf
00000330: 9d73 a520 764f c8bf 927d 2987 7a28 a53f
00000340: 7a7c 08f7 690e 80bf da8a 5421 5b5d 9dbf
00000350: d842 1432 98bc b83f f635 9112 9cc8 943f
00000360: c6b9 0fd0 7f84 c93f 7d84 a4ef e331 b53f
00000370: ca7c 1d80 c80c bb3f 9928 82a1 947e a63f
00000380: 5baf d367 165e bebf 62fc 452a c4ba c73f
00000390: 18fb e5b9 4e2b be3f 5dfe b266 a098 bc3f
000003a0: bae9 65e6 1781 d53f a750 29b4 1ad4 b53f
000003b0: 167c b8e7 f129 a63f 478a 60a0 2aeb be3f
000003c0: cc7e 6c99 e2e6 a03f 7768 0020 0822 aa3f
000003d0: 885c 4834 1013 c9bf 5eab 5a6f dbb8 b43f
000003e0: 2395 2a2f 873c c03f ec36 c349 6b26 ad3f
000003f0: 15a6 79bb 3d28 b5bf 37fa a4ea 05a7 b03f
00000400: 4914 30c8 b38c c3bf c97f 9414 f3c1 a4bf
00000410: 2de7 d0e6 861b c6bf b141 4bf5 e62a bd3f
00000420: c9f7 a236 946e b7bf 9578 7239 affe 953f
00000430: c04d 4813 42fa 6c3f 997f 866e a526 a8bf
00000440: 3e28 05dc ff74 9dbf 412a 5484 7588 c3bf
00000450: 6372 ff53 e4a4 94bf 82dd 893e 230e 9bbf
00000460: 0d35 4ed7 7a7f c5bf d9cb 7309 02ec a43f
00000470: 2a7f 85e1 9af0 b3bf 8c0f f3a5 cfa1 bebf
00000480: e201 7485 4068 c63f 3520 f176 0656 ccbf
00000490: d1af 9bc7 93be bb3f faa6 5ca5 1e6a c23f
000004a0: 3d00 026e 8197 a43f 22b0 3433 b35e 8dbf
000004b0: be46 4f32 65b4 7cbf 7cc9 a7a7 225b b7bf
000004c0: 0811 e270 8065 cbbf b998 4209 0171 c4bf
000004d0: 3d8b ac33 cecf 693f bde2 a190 5ad6 95bf
000004e0: 1e5c 8cb0 91c3 d23f 7b30 2020 d8fa c53f
000004f0: 1b0e 716c 5128 8dbf 6eba 01b8 b03d bbbf
00000500: a72f 2445 4c3f c0bf d2da 7e59 5570 b93f
00000510: eaa4 f287 71e0 bbbf 7c29 d59a fd0d cabf
00000520: 4597 f45e f07a cabf 75ef 51ca 611f b3bf
00000530: 3d59 e18e 8a48 bbbf ecf3 9e4d fea1 9c3f
00000540: 4927 a82a 2f7d a23f 37de 3e4d 3840 c03f
00000550: 06c7 e93b 223f c7bf b388 ee53 b56a b9bf
00000560: 3ffd 4c74 1f85 b53f 4196 0adf 6a17 a53f
00000570: 423b 7c1d bdef 8cbf 3511 91cf db97 d33f
00000580: 3384 fa29 9ef2 cf3f 612f 2f90 9fa5 c33f
00000590: 6529 5d63 fa28 c73f 63dc 527c 3568 bc3f
000005a0: d193 2d43 b850 b4bf 8f6c c845 7f6f 8c3f
000005b0: 86c7 164d f74a bf3f d207 feec 472e b63f
000005c0: 641d 9989 e37b cdbf ef61 2ad9 05c7 afbf
000005d0: 7b9a b075 f3c6 bfbf 6aaf ec84 e257 d1bf
000005e0: ea42 3ab3 b034 9fbf f1d7 258f 6220 b3bf
000005f0: 5c67 b55a 8556 c33f 4227 7e2c a7c3 b73f
00000600: e6a6 1365 7b4b cabf e78e 60bc 3049 8c3f
00000610: 3ac4 1a8f 6b38 c1bf d17b 25d1 e503 b0bf
00000620: 3285 e608 0cc6 793f 94b5 8b21 2437 cdbf
00000630: 65f1 5cd2 48d3 a33f 7154 f1b0 8daf c4bf
00000640: 6e12 a6fb e0c5 b93f 234d a831 dcd2 93bf
00000650: fc51 05ca e616 b0bf 9c1b 335d 8a25 b43f
00000660: 00de 74e5 d93e a83f fb5b 06c7 f4a2 8b3f
00000670: 4491 32a6 a5db ccbf b491 2314 9279 d8bf
00000680: a066 4ff3 9e42 78bf 03c0 a15f c2e0 c8bf
00000690: be87 b841 1463 cabf 4a00 8715 4b81 c23f
000006a0: e789 8cdb 8220 c5bf 143b 2c08 8de6 b63f
000006b0: 00e9 ebc8 325f babf a254 8339 6f23 b63f
000006c0: 1d5a 7019 47fb b0bf c037 41ef 802e cb3f
000006d0: dce2 1750 1c49 c73f a01e 775b 499e d43f
000006e0: db1e bbf4 8f48 cc3f 4b40 a1c6 3710 aabf
000006f0: 07dc a162 d18f bfbf 9d8e eb61 275e d13f
00000700: a495 5ea3 1bae d13f dff8 2084 585b c5bf
00000710: 2ff8 383f b59e c7bf 45d7 6bad 070d c43f
00000720: d47a c048 10d3 babf d4c5 122a 376d 873f
00000730: edfb 87a7 f25b d13f 5cde 9d8a 49b6 853f
00000740: 64d7 4195 463f b1bf 4bda 4166 8460 82bf
00000750: 92cf 1307 86d8 c73f 19f7 ca03 293a 8a3f
00000760: 2f4a 4119 2292 c3bf 5530 6313 65f4 c63f
00000770: f9ee 43f5 2cdc c13f 2d7f 63a5 7c26 da3f
00000780: a140 fbca a96c b83f d479 b435 298e c53f
00000790: 7aff b07c 7b79 9a3f d9c0 de43 4f7c c03f
000007a0: c234 c5b3 1e80 d03f dfc2 010e 706c ae3f
000007b0: e2a7 79d8 9497 c5bf 7e0f 4276 aef4 c23f
000007c0: 9028 d87d 2f11 893f 4437 6769 e9ec b93f
000007d0: f88c 0835 214e 493f 8bb7 09b2 7812 a0bf
000007e0: 34c7 2c46 86cd bf3f 5c83 f6fd d1af bd3f
000007f0: b174 7c39 f62e a83f 4955 7d49 4430 a7bf
-0.017588589614126116 0.23548910388130423 0.14501816308010307 0.17747161121871327 0.16616921223288922 0.14681795983951043 0.08466561671693978 0.0604510544378768
0.07571586071508371 0.21922868875069262 -0.029492290224558435 -0.11465592765705683 -0.17192030484902113 -0.12690000263832685 0.042133491763317626 -0.05932258366945761
-0.10341370062907575 -0.06820418028628915 0.027034514175254733 -0.13336153543766077 0.2840033512787589 0.20853372973506362 0.10363001781994997 0.24478278461424147
0.11310915858175807 0.2233743097401867 0.19613930406051291 0.19291038281197292 0.11937057635144088 0.20449186266980263 0.06204724627855579 0.2071101922589497
0.31311253932175226 0.08804351493552805 -0.09815870282016448 -0.10628716091737443 0.12236683342401525 0.039009144917251916 -0.014785352126276808 -0.1304480361923896
-0.2028734399630795 0.13565793266425297 0.09096334266975192 -0.16749211399459252 0.07979325225469694 -0.03571283297459246 -0.009097135424845628 -0.039732220645709686
-0.038668163081243996 0.0019090917303793654 -0.21394558997161614 0.15457622542684898 0.10268238077697377 0.2650101891522057 0.2001386894264 0.14256811090988888
-0.01823910798836409 -0.09400936427196611 0.006848961068199642 0.22213885253656332 0.102801252807396 0.06725458774345824 0.04234120460618202 0.09042906577166843
0.0010196625853042133 0.14692760758495288 0.05309796829795661 0.06770597266263596 -0.183783285005006 0.12328087674386289 0.044063881086573574 -0.060837228214134814
-0.08648296906998919 0.2055412562280204 -0.008774424206374549 0.10874575993742482 -0.22526790461586726 -0.07536275755049157 0.005834278524011052 -0.12506849990582702
-0.01995358084614946 -0.18442459195917327 0.4297638525682205 0.3171938583032345 0.2114905559454202 0.2496107611464776 0.17890946601934254 0.0871683834923008
0.1872349113530735 -0.06934482484362126 0.2464826692418678 -0.04556986003491751 0.015312916452094687 0.22737899244376622 0.18731129097047586 0.2769993646230498
0.3069597967104874 0.018413951793881576 -0.11177921062952254 -0.0023503422133581593 0.18676727818163386 -0.007710384608238367 -0.18992497057015792 0.041324452399517445
-0.007839992381432948 -0.02867643729144729 0.09662772390971541 0.020296515115026247 0.19935605677842555 0.08279251671457817 0.10566380622684615 0.043934483256706965
-0.11862316164814272 0.18538715423707958 0.11784832037481541 0.11170389659218345 0.3360042333585188 0.08526770494910584 0.04328876451130996 0.1207758561654738
0.03301151392792931 0.05104089155811747 -0.19589426567901946 0.0809456965313706 0.1268471699051271 0.05693373942777477 -0.08264528109580056 0.06504857042907806
-0.15273139262004268 -0.040542217504707496 -0.17271505613626328 0.11393588532087652 -0.09153105100537497 0.021479356652542043 0.0035373011144288202 -0.047169847242229675
-0.028766629985774943 -0.1526018997322627 -0.020160262705632436 -0.026421118442582443 -0.1679528762146351 0.04086309781441572 -0.0778900909986048 -0.11965654183864965
0.1750565196634986 -0.2213752823611245 0.10837672827955137 0.1438635165625824 0.04021839588040208 -0.014340782165696512 -0.007007975863375369 -0.09123436539792878
-0.2140350867449643 -0.1596986098495046 0.0031508471851266194 -0.021325507238062914 0.29318659058611896 0.1717176586975063 -0.014237056848407417 -0.10641006939270323
-0.1269316995243319 0.09937032160710693 -0.10889348572768012 -0.2035519605654591 -0.20687679897781144 -0.07469760121779052 -0.10657564152038375 0.02796170567284044
0.03611132999146933 0.12695983669049024 -0.18161418843697436 -0.09928448962321816 0.08406254376767651 0.04119428608582299 -0.014129140341109573 0.30614371557409764
0.24959160852179849 0.1534919218087181 0.18093805171731528 0.11096510205503445 -0.07935668602074421 0.013884538952927876 0.12223764068656182 0.08664369140572539
-0.2303432866922136 -0.06206529880472888 -0.12412950156486062 -0.2709890649882626 -0.030474434794601026 -0.07471290583438851 0.1510779087937476 0.09282917820214912
-0.20542852816952645 0.013811474560561489 -0.13453430640723402 -0.06255947452653678 0.0062923879726509025 -0.22824527395225103 0.03872134750278881 -0.16160746707706466
0.10067564147727534 -0.01935905507168657 -0.0628494494643021 0.07869782233602368 0.04735451627714937 0.013494407962566504 -0.22545309653390622 -0.38242008177465014
-0.005922909641378787 -0.19435910863421677 -0.20614865502380825 0.14457071829929397 -0.1650546619431019 0.08945542764216113 -0.10301511197386404 0.08647818712354874
-0.0663341939074162 0.2123566787944906 0.1819186583595841 0.3221610444274834 0.22096442651513012 -0.050904982563793576 -0.12328823717130898 0.2713716942073264
0.27625170663881193 -0.1668501515541214 -0.18453088366544665 0.156647643736216 -0.1047830751053696 0.011438780757404489 0.27123705254046976 0.010601591627831634
-0.06737176078772006 -0.008973154421466087 0.1862952742154645 0.012806244304893565 -0.15289713128238833 0.17933333822873246 0.13953172660682592 0.4085990538715006
0.09540806966401984 0.16840090868295354 0.025854043469962097 0.12879362882586667 0.25781981998154546 0.059421064100097835 -0.16868839807585717 0.14809208654707712
0.012239810016599045 0.10127123664207455 0.0007722532409996366 -0.03139092610659507 0.12422980511908294 0.11596405458705078 0.047233290212014174 -0.04529012105073577

weight f8 [128, 257]
00000000: 7fa4 0a4a d5fd b3bf 32be efef 3e8c b1bf
00000010: ccd6 a40e b967 bbbf 5ef6 913a 2b04 a0bf
00000020: 2b64 0f26 2fa5 a7bf e42a 37cb 0d83 b8bf
00000030: e8a6 50ec 781e aa3f cbce c419 2c12 a33f
00000040: 86c7 617a b150 b2bf fc9e c6f0 02d3 873f
00000050: aa8f 86e5 5233 b0bf dc12 63ac 859a 8b3f
00000060: d509 b3b3 7828 a7bf 5804 4ea6 76aa b0bf
00000070: a40f 736e 1e02 c0bf f24b ab6d 656c 573f
00000080: e20d 19be 19d4 b9bf 5745 cebb b2d4 ad3f
00000090: 7f8b 2ccb 13f0 9d3f cf02 efc6 cde7 c4bf
000000a0: 32dd 24ca 6a7e a8bf 50d6 85f3 727f b1bf
000000b0: 1c82 1013 66d9 b2bf 0775 9f83 3af2 aebf
000000c0: e3db 68d6 5ab6 b3bf 01d2 997e 6b5a bbbf
000000d0: f87e 551f d3ad c1bf 1c8f 47ea ff35 aebf
000000e0: 235d 5a03 f544 c0bf 0cdf 7696 8a1f a23f
000000f0: acc8 b4cf 56b3 81bf ec5c e316 aa5c b0bf
00000100: 3bb4 7bab 21ad 89bf 17f5 ffe8 6204 babf
00000110: b835 67af 9e8d bdbf 00a0 046e 90d2 b0bf
00000120: f0b4 95c0 299c a6bf 5ca6 44bd 6fe1 a8bf
00000130: 604e 4e67 7300 873f aa52 f640 1d41 4f3f
00000140: 6c40 c6a9 5204 8d3f d933 627e 9330 a13f
00000150: fe31 17a9 9f1b a4bf efeb cf93 6025 92bf
00000160: dd01 23d6 d88f 9cbf ee4b 8501 3d0b 97bf
00000170: 7b46 54fc bada b7bf 4b82 d7a1 a8a9 b9bf
00000180: 8779 2d29 de44 c0bf d6d5 9204 2ec0 c0bf
00000190: 861e bc80 23ab acbf 55fb 3c0f 78f7 a8bf
000001a0: bbc7 1363 a91d bebf 0bec 3ed6 6ea8 943f
000001b0: 57ac d4ea d5b5 a4bf bb7f d826 6e24 afbf
000001c0: 534d 5d5f 8b68 a8bf bb46 2b1c 186a b6bf
000001d0: 6a06 fbeb 8ca5 a1bf a2c2 9c9e 9ba9 bbbf
000001e0: 4d1f 1619 60f8 a03f 5c70 44d3 28ea a3bf
000001f0: 8ea8 4a21 0f6e b2bf d2d2 c202 e388 b1bf
00000200: b2bb 8027 972e afbf 5344 d312 8664 a73f
00000210: 1cbe c7bb 27a3 98bf 2b54 30c3 dfa7 9ebf
00000220: 57db 9f60 4fa3 b2bf 5048 153e 434c 813f
00000230: c8cc 3e2d 2841 91bf 282b ee62 389c 98bf
00000240: cbf6 a317 a403 c3bf c905 7f44 5ae9 b7bf
00000250: 14f0 93c7 4c29 b1bf ee95 0260 3f65 b3bf
00000260: aec3 793d 6a3f 8cbf 1bb8 ab2e 4131 b0bf
00000270: 2418 7ccf 4fe6 7fbf 8227 2f6b d58c 8fbf
00000280: 45aa 5e56 8683 b3bf 344e 9c14 23d8 b5bf
00000290: 4b35 958f c5b1 8d3f 34f6 96e6 3995 7bbf
000002a0: 8a38 fa1e 1fe1 bcbf a16d ea6b dc94 bfbf
000002b0: 8786 0602 ccd3 73bf 2faf f9df ba9b b2bf
000002c0: 68a7 9b8f acb5 92bf 352f f2ac 700e a9bf
000002d0: c647 7a9a 365a b1bf cda3 1cc0 e521 b7bf
000002e0: eb8f a088 a84e bbbf 88b2 0af4 37e5 9f3f
000002f0: 4e87 fa92 50e3 a9bf 5b74 3f0d c8f8 a7bf
00000300: beaa b97a 7f3a b4bf 70f1 a218 a3c5 82bf
00000310: a9ce b42b 9e24 53bf 6b56 390a 050b bfbf
00000320: fdc0 cef7 564e babf 89f2 d6ef 7d6a b9bf
00000330: a28b e196 52d7 c2bf 5459 c52d 3a77 a9bf
00000340: 3fb1 8d40 f038 96bf a386 9059 b8d9 b2bf
00000350: 4d62 b70e 4505 b0bf 45a7 da5d f45e c0bf
00000360: 9d7c 0c77 58c2 96bf 259a feeb 6bb2 babf
00000370: fd1c 2bb9 015f adbf b4e3 4791 d327 723f
00000380: dd4c c357 2f23 8abf 8afc 4016 8c88 babf
00000390: c562 1c6f e16a 9fbf 6dbf d0f0 4114 78bf
000003a0: 7cf2 c6a3 ad66 91bf 7502 5cd4 4d53 b7bf
000003b0: 2015 7033 541b b4bf 012b 9ac4 d2d6 b3bf
000003c0: 664a 293e a4c4 7c3f 4ad5 1a62 07fc 933f
000003d0: 678b c631 46ec a73f 7bfd fc69 cfc7 72bf
000003e0: 9df4 98c1 40c1 b5bf 97c8 37b0 46ea 933f
000003f0: 92d8 edab 030e a83f dfdc 9089 1cfa a4bf
00000400: 416a cd45 1788 a03f 0295 80bb 8608 7c3f
00000410: 6d4b 6871 aa2e 90bf e214 d4d9 b756 b6bf
00000420: 7b68 7bc3 7f03 9fbf 97a5 a5b8 21c7 b7bf
00000430: f950 0fca 2c38 b3bf 938e 5725 80cb 903f
00000440: 44bb 066a 3667 b1bf bf9b 20a8 9684 c0bf
00000450: 0fb1 030d 4b94 a7bf c710 6a49 9933 abbf
00000460: ec55 a0b6 bd71 afbf 862e 025d 7382 903f
00000470: bf1b efef 06e1 a4bf af6e 2d1c f754 a5bf
00000480: c242 e750 6d93 bfbf c78a 36e1 33fb abbf
00000490: 64d9 8336 d70b b6bf b7b1 a45e 1e7e 9ebf
000004a0: 2e78 56a4 09b5 a6bf 69eb ec00 6b9f b9bf
000004b0: ade0 b57d 29dc b0bf f1b4 5e11 0134 ad3f
000004c0: 89d4 f9e3 29c2 a3bf 232f 6ed7 038b 7b3f
000004d0: a458 2ef2 bcb2 acbf 7255 0ad6 2d86 83bf
000004e0: ec7d 9341 fe6b 9b3f d20e c9ff f2f9 aebf
000004f0: 15c0 03da 31e3 94bf bbcf 1aaf 1661 b7bf
00000500: 92bd bc1d 64ed a9bf 4347 b093 e52b abbf
00000510: 031c a301 7e01 8b3f 5cb0 6e1c 95cb 98bf
00000520: 02ca 3502 f362 74bf a03d cf51 780d aabf
00000530: 3cf0 2cbe f46d a6bf 8df9 56f8 1a91 63bf
00000540: c04a 4929 c409 92bf 0ad6 3649 4951 b5bf
00000550: 8644 10e0 9811 b6bf 304b 76e7 3aca b3bf
00000560: 1438 21cf e323 a5bf b898 54c5 ee48 a4bf
00000570: ca45 912c 156c 77bf b8fb 9ca9 e589 a9bf
00000580: 1505 e898 30c5 c2bf bd52 346e ba49 b1bf
00000590: 5013 30f2 1fe8 aabf 4769 4749 64cf 92bf
000005a0: db38 a160 4b9a aebf 9fc0 f289 db54 b2bf
000005b0: 00b2 0cef bee6 873f 1764 0f48 ca46 c1bf
000005c0: afcd ef39 4e8b 923f d7bf 3ce9 c038 b5bf
000005d0: 5357 aa75 c3e8 bbbf 029a 40e3 3aae a93f
000005e0: fa50 418e 9fd0 713f 6d3e cd4e 82ff a8bf
000005f0: bb69 b2a2 c84d 8f3f 8c67 c75e 5ff3 93bf
00000600: 87b7 c05c 7dad 94bf 6592 d4d8 897a 71bf
00000610: c2fb 92a2 1eae b1bf 7c06 4173 edec b1bf
00000620: a5d8 a5b8 815d 8abf 91d4 802a 721b adbf
00000630: 10b4 0352 51b5 afbf 71f5 94d4 f07d bcbf
00000640: 6072 d391 fac0 afbf 6482 ebaf 7cb2 bcbf
00000650: 07db e575 dc1b a1bf 70be e108 a716 92bf
00000660: 2cb7 1717 bfb2 9dbf bd0a 87a1 aae4 a73f
00000670: 8df1 f56f bc03 c1bf ff4a c903 0742 a3bf
00000680: de0e c8b3 257f 9fbf 989d 1be9 5adf bebf
00000690: f1a9 60ff 04ba 913f 11cf b008 0495 82bf
000006a0: 4a1f 2a87 f19d b5bf c411 c05d 00c5 6abf
000006b0: 6d3f 5f92 e000 bdbf 74b8 6947 fd3a b13f
000006c0: de62 fb46 3ac0 b0bf ec75 9260 bb24 babf
000006d0: 8723 2f95 6167 9f3f 8ce6 5480 2f31 a9bf
000006e0: 7d2e 100c 2098 acbf 3a4f bd84 6873 b7bf
000006f0: e22c 64c1 2b6b b3bf 9eff 66dd 31c1 aa3f
00000700: 7951 7e0b c241 a3bf 4fb8 2ff0 bfa0 abbf
00000710: 8b92 57ca d830 7a3f 9f43 c9fd 2a07 a7bf
00000720: 2561 6ee2 a41e 8ebf ee9e 3c46 08a5 b8bf
00000730: 2731 bf98 cb06 b13f 9ff2 51f1 5ff2 babf
00000740: 16c9 5df2 7565 b1bf 73a0 37fe b84d 9d3f
00000750: 75c3 6c6b 20b7 af3f b8fd 657d abf4 b3bf
00000760: 1974 a81d bedf 60bf 4ebf 435f 7a0d a03f
00000770: dd98 c16b e916 a8bf 3bf2 7a4f cc19 a73f
00000780: cf9b 3b25 7efe a03f bfd0 6d19 041b 90bf
00000790: c3bc afc1 84e7 b2bf 9537 920a ea1c 66bf
000007a0: 39cc e472 27cf bcbf 8896 09c7 3c55 adbf
000007b0: 5adf 38df 211b b4bf 1c70 8df1 3ba2 28bf
000007c0: b37f 622a 4f70 b2bf 8b3e f90e f64c b8bf
000007d0: b0ad e378 a8c3 bebf 02d3 d561 9f6e a9bf
000007e0: 3470 3596 4a24 aebf 94a7 0c31 3f89 94bf
000007f0: b0e0 23c8 8b53 ac3f 1ae3 e91c 568b a8bf
-0.07809193666129664 -0.06854623182129485 -0.1070514355422702 -0.03128180589645234 -0.046182130237589845 -0.09574972354236483 0.05101373562531625 0.03724801840362842
-0.0715437816413936 0.011632941220184538 -0.06328313926365917 0.013478321383794727 -0.04523064797969637 -0.06510106620955136 -0.12506466286697304 0.0014296522628469669
-0.10089264765797837 0.05826338331747632 0.029236134792096188 -0.16332409108692622 -0.04783948628976943 -0.06835096784001249 -0.07362974133912598 -0.06044180733418086
-0.07700126394853117 -0.10684844818917584 -0.1381172087667364 -0.059005734776091695 -0.12710440314979463 0.035396891467312924 -0.008642843450250424 -0.0639139467124214
-0.012537253423454789 -0.1016294306609392 -0.11544219763091845 -0.06571295438754987 -0.04416017986191345 -0.04859494386103044 0.011231328573365562 0.000953807148038684
0.014168401533226148 0.03357373159187888 -0.039273251906340775 -0.01772070791410479 -0.027892482824201415 -0.0225038082292705 -0.09318131122952338 -0.10024503661362265
-0.12710167894961108 -0.13086486075705633 -0.055993184532835236 -0.0487630385018664 -0.11764010113600325 0.020173770739102575 -0.04044979564272271 -0.0608248159808222
-0.04767261065594632 -0.08755636871071719 -0.034466174894544135 -0.10805676100131703 0.03314495378714231 -0.038895870007963324 -0.0719918686178593 -0.06849497620971626
-0.06090233189785667 0.0456888101558738 -0.02405988772983224 -0.029937263763788174 -0.07280441388125546 0.008446240741850769 -0.01685011650233717 -0.02403343299696839
-0.14854861406631978 -0.09340442821760243 -0.06703643677241217 -0.07576366514202679 -0.013792829514587126 -0.06325156583236018 -0.0077880017850074125 -0.01540533765173158
-0.07622565849912018 -0.08532923939883902 0.014499228901196167 -0.006734110045213227 -0.11281008249554439 -0.1233651889291907 -0.004840657144457367 -0.07268875091693582
-0.018271156563890584 -0.04893829451711299 -0.06778279563357534 -0.09036098423224743 -0.10666898093819525 0.031147836942795354 -0.05056239885494894 -0.046819926850482495
-0.07901760812971312 -0.00916602534231778 -0.00116839834556696 -0.12126189708336603 -0.1027578692435362 -0.09928118806323928 -0.14719612471807603 -0.049737756812350625
-0.021701578083068936 -0.07363464533457402 -0.06258041009221778 -0.12789778311462832 -0.02222574450126712 -0.10428499709687651 -0.057365468839231305 0.00443251269870697
-0.01276242243367281 -0.10364604514414757 -0.030681154638929415 -0.005878694134523116 -0.01699324905506437 -0.0911148684936139 -0.07854200607114992 -0.07749669360979895
0.007023469518190417 0.01951610122951778 0.04672450406658051 -0.00458508511638855 -0.08498005606175459 0.019448379998671852 0.046981920945584524 -0.04097069911261441
0.032288291235734075 0.006844068811948436 -0.01580301587280124 -0.08726071422650564 -0.03028678541782213 -0.09288225896820844 -0.07507591183759023 0.016401293067146282
-0.06798114861042587 -0.1290462799963432 -0.04605326207988202 -0.05312804242297058 -0.0614146504814633 0.016122629691877076 -0.0407793205154614 -0.041663858594544016
-0.12334330773524996 -0.05465089916403581 -0.0861181743710851 -0.029777979399271817 -0.04434995776249227 -0.10008877537340556 -0.065859406653433 0.057037385340075526
-0.03859072597416808 0.006724371915776381 -0.056051163256755104 -0.009533269972318268 0.026779148819398843 -0.06050071117763668 -0.020397929126318177 -0.09132520461099507
-0.0506392751980186 -0.05306928088988496 0.01318643991943525 -0.024214105472922007 -0.004977177860711725 -0.05088401793147601 -0.04380764790991562 -0.002388527561122794
-0.017615380306163386 -0.08327158009964122 -0.0862060114889279 -0.07730453635148815 -0.04128944304885365 -0.03961893233126673 -0.005718310080810205 -0.04988019652818515
-0.14664275613908076 -0.0675312537244492 -0.05255222159761408 -0.018369261715500042 -0.05977092318117779 -0.07160732381703604 0.01167058150311906 -0.13497284430084797
0.01810953358285666 -0.08289724058408808 -0.10902043936434085 0.050157394638791444 0.0043493492740547205 -0.04882437908110835 0.015285079445949692 -0.019483080062719746
-0.02019306067102591 -0.004267252411669452 -0.06906310528846318 -0.07002147735422598 -0.012873662421707907 -0.05685002106512472 -0.06193021894601014 -0.11129670324313225
-0.06201918630697345 -0.11209849638863428 -0.03341568888838791 -0.01766453735075263 -0.02900217607923776 0.04666646215220769 -0.13292651621658216 -0.03761312409610262
-0.03075846586035779 -0.1205956286536235 0.01731117066098337 -0.009073287501542933 -0.0844412760726502 -0.0032677657272890143 -0.11329463552033099 0.06730635636788113
-0.06543316109617645 -0.10212298495976996 0.03066780541465477 -0.049203380980952977 -0.055848123047408806 -0.09160474053106507 -0.07585404845683599 0.05225520923295267
-0.037611068633085894 -0.05396079832995381 0.00639424022435676 -0.04497656200385979 -0.014706886444216647 -0.09626819338575007 0.06650993804141035 -0.10526084558109482
-0.06795441786906439 0.028616800800506725 0.06194402037943451 -0.0779521161220974 -0.002059813804648158 0.03135282910250102 -0.04704980316528105 0.04511869878976823
0.03319162563803212 -0.015728057910977308 -0.07384519318269427 -0.002699334251309924 -0.11253592066786745 -0.05729093484550868 -0.07853900623092383 -0.00018794042332615022
-0.07202620301040845 -0.09492433419768014 -0.12017300559425936 -0.04967210835721937 -0.058870631061580886 -0.020054805153598546 0.05532490556828529 -0.04793805220555765

weight f8 [64, 129]
00000000: 0102 6901 f30f 923f c500 5b66 ae17 aa3f
00000010: 1e07 5187 4140 b0bf 0609 3b1d 67d9 803f
00000020: ff40 325c b58d c8bf a852 e36c dbf6 a0bf
00000030: f6e7 8a44 d563 97bf 7d60 3a8d b3dd b63f
00000040: 8977 a736 fd67 babf d31c 7c5e 1283 9d3f
00000050: 9631 3570 644d b53f 155a 6d8d 2e30 7f3f
00000060: 63f1 4f88 1875 73bf 4234 c28d 08c4 afbf
00000070: 1aeb e19b 126c 75bf 7af5 a368 7b76 c0bf
00000080: 3377 3db5 264b c53f f990 4d9b fafe bf3f
00000090: 0460 27ab c9c3 a63f 91f0 85e7 29dc c3bf
000000a0: 0646 6d5a b33e b6bf df21 e9c2 b720 c1bf
000000b0: f316 fb11 cfa6 acbf d6e5 ff1c b02c b5bf
000000c0: 0192 1640 0189 8a3f 46dc d806 3991 a1bf
000000d0: 75d0 25d7 f11f aabf 354c a98b 8918 66bf
000000e0: 6a07 86d9 391a c4bf 39b1 c363 dd0a a93f
000000f0: ada9 dc89 a55e c6bf 0d72 710f 3500 cebf
00000100: 183a cb13 f080 833f d5a8 653a b457 a53f
00000110: 9139 2e1e e252 afbf 1fe9 7a71 a011 b23f
00000120: afae ef73 803e b33f db6f fe42 078f aabf
00000130: 634d 02bf 23cf babf 7990 7822 42ed 983f
00000140: 5277 fdc4 9ad7 b9bf 4965 c80f 109b b73f
00000150: a787 8392 c6ad c83f 1289 e1ce c900 bc3f
00000160: 5ca3 f4c8 887b bd3f 3b87 baa3 0321 cb3f
00000170: 1ee3 beeb 9657 a8bf 30fa 101b 0edc aebf
00000180: 1627 4d53 ea41 763f 2109 96fd 1aab 61bf
00000190: 0eeb 4661 d539 b63f e293 a583 b940 a43f
000001a0: 122e 3292 ad10 bbbf 725d 0eae d888 9fbf
000001b0: 6b08 4bad 63d2 a73f ac4d 7272 e86f 903f
000001c0: ceae 64bd cd1b 833f a7ca e0c4 541d 903f
000001d0: c880 21e1 b905 a3bf ad23 ba83 70cc ae3f
000001e0: e3dd 6abe 5eae acbf ea18 cb33 663c a6bf
000001f0: 24e5 d7a6 6151 a3bf 9942 b8c5 1f80 b53f
00000200: e781 fcee f696 c63f c815 359c e7cc 92bf
00000210: f083 fcfd 5d49 64bf cfaa ec31 d882 b5bf
00000220: b11d f22e 79d4 b1bf 2e4c 0c52 f5cf aabf
00000230: a0c1 9209 e677 843f 1880 00f9 84d5 abbf
00000240: 111b 0db4 52a3 a7bf 8d67 08e2 bee6 a8bf
00000250: 74b6 a999 a2e5 a23f 0abb 2413 949b b6bf
00000260: 1d63 1d4b 99c9 9b3f d68b 6e92 a9cd a23f
00000270: e3ff f396 d426 c13f 2dcb c440 d2a7 a7bf
00000280: faad 532a 464a c4bf 1b61 2f99 bcf7 9d3f
00000290: ba69 37ce 5706 b23f 5c56 39fb d75d c3bf
000002a0: 16d2 fed2 b2e0 b4bf 48ae 7c2e 7b03 b43f
000002b0: a2ca b297 14f6 89bf f141 f309 6187 a13f
000002c0: 2692 3e25 c690 9bbf a132 2397 1a19 843f
000002d0: ede3 9966 b7fe b9bf be02 3835 be8a b8bf
000002e0: c106 1535 b30a 9dbf 378f 3b47 538d b2bf
000002f0: b669 e603 e092 9f3f d47b 348d 3390 823f
00000300: 28d3 0ddd ed1b a3bf fc41 8c57 989e 903f
00000310: 7092 43f0 cd3e 8f3f c374 4b20 396a aebf
00000320: 16ed 7bcf b1b6 68bf 8ce8 d661 2510 b13f
00000330: 9880 042b 40b6 b23f e33e 218d 4276 c43f
00000340: 8463 49b7 9c03 ba3f 6e04 e5c4 4e30 9dbf
00000350: 1f30 98e0 95aa c1bf 1361 3e52 44d6 97bf
00000360: dc11 90f7 ff2b b93f 5927 7530 1022 b13f
00000370: 83ba 6720 8c91 c2bf 47db 7ca9 4033 a6bf
00000380: b826 99c0 6dfa c03f f0ac 60fb 81e3 b5bf
00000390: 2a7a 967c 4bb2 c2bf 5575 a7d1 03f3 c33f
000003a0: 294f 362b 4f64 c0bf 966b 0c4b fd33 c73f
000003b0: 555d 8ed6 256a 793f 18c5 8650 deda b1bf
000003c0: d8d7 3830 c3dc c93f 2fcb e70b 8c2a b13f
000003d0: c374 7b24 4f05 b0bf abee e06e 1e9c 66bf
000003e0: a850 7738 09e5 a4bf deda 9bcb 8e7c a2bf
000003f0: f7cf 2f7b 2bd0 9e3f b8e4 fcb8 20c1 a1bf
00000400: 9edc f22a 5a34 b63f ad3e 8e95 5964 b43f
00000410: 5986 eb00 193b 91bf d55c b423 0d53 97bf
00000420: 1ec8 928f 4687 b33f 4e42 ed96 7cd9 ad3f
00000430: 63ae 3c9b a1ae a33f 73ce bfa3 a5a9 a63f
00000440: 83e6 e1ac 7e67 bc3f 61f2 32f8 8599 933f
00000450: 687b f0c2 871f b7bf aa31 1c86 d4ef 9cbf
00000460: 0169 8f07 a708 973f 0402 5282 6d2b bfbf
00000470: cdf0 e4fe 1b71 923f d52f a2f7 595d b63f
00000480: 4f85 b391 bda5 af3f ba04 fa23 135a b93f
00000490: 0875 07f5 04f5 9ebf 7c9e a03b 9c59 b53f
000004a0: 769f a523 4c9d a43f 1acb 04bf e7a6 be3f
000004b0: 6a7e 875e 7876 7e3f 346b 4984 6bd2 b4bf
000004c0: fa1d 5d00 d089 babf ad83 974a fd98 a53f
000004d0: cf33 fe4e fdd5 b33f ea1e 2820 a2de b73f
000004e0: d45d af1f c904 8c3f 2ed7 b542 3f79 b3bf
000004f0: 200f 44f0 4b84 b4bf 845e 23dc 3b2e 9fbf
00000500: 4611 6b0a 2543 a8bf cabb db03 bf77 77bf
00000510: 9f08 dd8c 915a bc3f 8746 d4d7 3b50 a33f
00000520: 6626 406f 0a0c ac3f 96e2 8de2 508f adbf
00000530: 3d9d ea3d 5f73 b03f fcc5 572c 67b9 8b3f
00000540: 2389 5cc5 09f2 b33f 39f9 c4c9 6d8b 94bf
00000550: 6f5b 1307 2a28 babf d1d3 d997 95a6 b1bf
00000560: 6a50 7e67 ac1c c3bf e0d7 fcd8 a004 b33f
00000570: 9a21 63eb ee04 8d3f 9929 c441 935d a43f
00000580: b36b 07ce da9a 9fbf 6138 5194 ea54 9e3f
00000590: 3011 9544 d778 85bf fea4 679a 7a3f a4bf
000005a0: 5a58 9c6f 0760 a3bf ff81 b7d8 9a82 953f
000005b0: aa14 219a c52c abbf 6ec5 9a97 b94e b03f
000005c0: b73b ddfd cbf2 b13f b882 f7d8 8523 a7bf
000005d0: ac93 98f5 ec65 993f 87bb 89e0 e029 823f
000005e0: 4c04 efd1 c7df a2bf 26f2 8f20 2142 b73f
000005f0: 0e8a 9d9f 7180 c03f 0509 3dd0 e4b0 a23f
00000600: 2923 26d7 927f 823f 8a6f 6503 2eb9 8a3f
00000610: 6952 a832 c807 903f 23ee b70b 5d75 ad3f
00000620: d718 0019 6ac2 a83f a47c 8995 5c09 843f
00000630: e23c 62e8 5745 a23f 9137 ddbd 613c 923f
00000640: 02ce b305 87a6 b3bf d3c4 7193 c535 a13f
00000650: 98ae 12c3 990d b03f ec51 e26e 9d74 a23f
00000660: 0552 9da1 8bfa b03f 6a29 87b2 9fbb 89bf
00000670: 50b3 e063 0026 943f b7aa f54e 3d45 ccbf
00000680: 5449 ee07 7700 7cbf 5413 c0c7 d858 a23f
00000690: 2df8 714c 2500 c0bf 7069 6a7c 2d76 91bf
000006a0: 07bf a6f4 4dfd a4bf 9709 5da7 ad83 a53f
000006b0: 9e8d 65c7 ab0c 9c3f b23f cc83 2f55 b03f
000006c0: 953f 8259 bb3f b5bf 1c99 b99d 0845 b5bf
000006d0: 8286 0841 e7c7 903f 578d 5733 ba8d 983f
000006e0: 9729 9749 db9e a73f 6da9 731d 8e07 a73f
000006f0: e449 649c 4da0 943f af7b 8671 bcdc b73f
00000700: b26e 499c b44e a4bf 5dbc 8a57 f7a0 89bf
00000710: d305 db94 e647 983f 0424 bb09 4aca a5bf
00000720: c56b 4118 3179 a73f ea8c 4795 f958 9fbf
00000730: cab1 6d7b febf 6cbf d166 11da 9d07 9c3f
00000740: f620 6d10 c858 b5bf a1d0 ac82 b2d4 9ebf
00000750: def6 0261 f02d a53f 57b9 15a2 116d abbf
00000760: 47ab edbc ac6c 9abf edec 1d65 4991 aa3f
00000770: 4495 a456 5712 ab3f 3602 1f5c 59ea a93f
00000780: 167f 4fa9 55e4 b33f 59b1 8557 d922 a0bf
00000790: f985 bec4 492b a9bf 6594 9b43 953a b9bf
000007a0: d50a 611c 1cda 9b3f 5742 b65e 51ce a13f
000007b0: 0f25 b5a5 d9da c6bf 5f0d 7efb cb67 b53f
000007c0: 48a3 cf33 f239 a9bf a67c dcd0 5863 833f
000007d0: 2923 664c c0b2 82bf 3b73 1ab2 c576 b93f
000007e0: f6f0 7b63 c24c b0bf a565 368c 2e8d ad3f
000007f0: 596f 7c61 988a a43f e4be fde4 a2f6 993f
0.017638966523238157 0.05096192359406041 -0.06348046830774165 0.00822716291384441 -0.19182459832928342 -0.03313337043951964 -0.022841770466335697 0.08932039449644154
-0.10314924797373072 0.028820311562438427 0.08321216334770151 0.007614309163577211 -0.004750343160591394 -0.062042491249578294 -0.00523001927478608 -0.12861578568837811
0.16635593270887625 0.12498441974236475 0.044462492125319414 -0.15515636257976387 -0.08689423520743142 -0.13381096856234273 -0.055960150666164575 -0.08271313388822618
0.012956628578487008 -0.03431108673651599 -0.05102496863665432 -0.0026972471653521576 -0.157050353253051 0.048911016872667586 -0.17476338607350553 -0.23438132528362168
0.009523273090420267 0.04168475354056659 -0.06117922418990241 0.07058146257887586 0.0751724513099201 -0.05187246983334123 -0.1047231999712515 0.02434256873506555
-0.10094611462906514 0.09220981965372234 0.19280321268075548 0.10938702870183573 0.11516623407500276 0.21194501394807638 -0.04754325511698297 -0.0602726371803225
0.005433955510690832 -0.0021567847404081607 0.0868199694149718 0.03955631000534489 -0.10572323626745853 -0.030795465110342098 0.04652701845545056 0.016051895127544277
0.009330375044178576 0.015736889378056642 -0.03715306161098081 0.06015349967953596 -0.05601783823425046 -0.04342955953829793 -0.037730266205423996 0.08398626877920846
0.1764820734906742 -0.018359774502888532 -0.0024763904365419018 -0.08402777880534561 -0.06964833637368063 -0.052367845788602416 0.00999431339946072 -0.0543633989293541
-0.046167931059747265 -0.04863544949712582 0.0369082272126037 -0.08831143824930279 0.02713622590030972 0.036725329518297364 0.13399751063116047 -0.046202249914492156
-0.15851666514150492 0.029265353059458748 0.07040928635198088 -0.15130138174815755 -0.08155362750296322 0.078178118562101 -0.012676392440288457 0.034235985245348995
-0.02691945650407681 0.009813506829595755 -0.101542913960557 -0.09586705016409788 -0.028361129870296823 -0.07246895302847355 0.03083372138790149 0.009064104792342244
-0.03732245753682256 0.016229992240427635 0.015256508726858103 -0.05940416831229236 -0.003016803060629801 0.06665261877688716 0.07309342432245314 0.15985900775057535
0.10161761736652691 -0.028504591720097165 -0.13801835505034973 -0.023278300781016514 0.0983276347543049 0.06692601378486297 -0.14506675321850446 -0.04335977620069414
0.1326424780293587 -0.08550274264478097 -0.14606612761868237 0.15585372674005762 -0.12806119546859776 0.1812740913818202 0.006204746060482454 -0.06974591699578914
0.20204963545410126 0.06705546656284576 -0.0625810112064356 -0.0027599901577824624 -0.04080990614207397 -0.03610655055483901 0.0300909799515949 -0.03467657335426949
0.08673633144904833 0.07965621854077183 -0.01682700222125386 -0.02277775316642024 0.076282892276851 0.0582999166714485 0.038441705894311416 0.04426305412189615
0.11095420571100516 0.019140332483163273 -0.0903248644758442 -0.028258629498894607 0.022493944012105697 -0.12175640517853742 0.018009602959168803 0.08736192985287457
0.06181137469844577 0.09903068188033873 -0.030231549697295385 0.08339859443423764 0.04026258406776055 0.1197342721323306 0.0074372007297537155 -0.0813357542005349
-0.10366535195236529 0.042182841639948655 0.0774839704374266 0.09324086461139883 0.01368100288338684 -0.07606883410138884 -0.080143686445862 -0.030449805556456613
-0.04738727333236396 -0.005729433205245502 0.1107569664864365 0.03772151002534679 0.05477936370887164 -0.05773403897814437 0.06426043759949081 0.013537221947419013
0.0779119593467255 -0.020063128891018443 -0.10217535660500031 -0.0689481254319866 -0.14931254437817937 0.0742893724207927 0.014169565733383394 0.03977642228899753
-0.03086416132451193 0.029620805075233018 -0.010484391956773281 -0.03954680571389167 -0.03784201848445497 0.021006030537934702 -0.05307595735988831 0.06370124770434923
0.07011103580337773 -0.04519289277573563 0.024802877893438754 0.008868939258915421 -0.03686356008211841 0.09085280461290121 0.1289197949764262 0.036505842609146945
0.0090323898227936 0.013048514822621166 0.015654686061753163 0.05753603714034863 0.048358264495662766 0.009783480943211416 0.03568529807773203 0.01780846330012015
-0.07675975693910433 0.033613371132455015 0.06270752918742983 0.03604595163884369 0.06632301994006447 -0.012564895282498784 0.019676214309743145 -0.2208630214257334
-0.006836380924953939 0.03583409727438061 -0.1250044463412804 -0.017052374571542683 -0.04099506007639602 0.042020250969034105 0.027392086072166692 0.06379982917519447
-0.08300372061989798 -0.08308462000568223 0.01638757070953157 0.023978146918932932 0.04613385461159963 0.04497951612013904 0.020142758055110024 0.09321191569914221
-0.03966297538565068 -0.012514049872463124 0.023711779437467783 -0.04255896920000882 0.045846494875795986 -0.030612849937722432 -0.003509518657145193 0.02737280505639356
-0.0833859481909974 -0.030108250833294496 0.04136611160491353 -0.0535665045125479 -0.02580518630149278 0.051889699548121594 0.05287430699017162 0.05061606645131571
0.07770285972173627 -0.03151587670695006 -0.04915838743842111 -0.09855015659884854 0.02719921038829905 0.034777205287473016 -0.17855377761069532 0.0836150635714623
-0.04927021868190323 0.009466832994404161 -0.00913000329161802 0.09946857069230657 -0.06367125443279406 0.057717756858618054 0.04011989774718811 0.025354905344498926

weight f8 [16, 65]
00000000: afde 0eff b005 a23f 76fd 5bfa 30d2 903f
00000010: 4395 c18e 931c 9abf bec8 8fe4 a89a a03f
00000020: 6fc4 f14e 0f93 88bf 30be f607 a74b b2bf
00000030: 5692 badc 6fac a73f 94d9 7995 d7a9 76bf
00000040: 4d49 a352 d00c 9dbf 45e3 d298 677b c0bf
00000050: 91eb 804e 0c61 b53f d5f4 1165 fa5d 6d3f
00000060: 190c ba65 630b b2bf 301d 8e8a c0df c3bf
00000070: 60c5 c1c1 9520 b3bf 0408 532d 0e52 88bf
00000080: 50ff 66bc 78c0 c0bf 88ee e2ae ee15 b73f
00000090: 75dd acb7 3975 b5bf 2232 8d55 d146 8ebf
000000a0: 9e1f d7ee bf02 bebf 9d51 6903 a4ec c1bf
000000b0: 2ddb 1a5d 5b26 8cbf a3d7 f268 b008 99bf
000000c0: 63ab f698 7623 89bf 532e 636a d02b c8bf
000000d0: b26f e110 d46f c4bf d12b 090a 7adb bf3f
000000e0: de77 2db9 194a b6bf 11e8 ea23 4330 b8bf
000000f0: 6c2f 5b0b 3826 bcbf 90a3 b526 ee28 a03f
00000100: 8dad 183c 7936 c5bf 2cbd 2486 e6b6 c7bf
00000110: 8ea5 5d38 277a ba3f e2ff f75a 7b15 c1bf
00000120: 425e a308 1a8e bbbf 299e aafc c77b babf
00000130: da15 4b9d 1960 b9bf e60a 12b5 65cd 5b3f
00000140: ff86 31f5 3173 b13f 2ae8 0424 bdf2 babf
00000150: fdc2 2cff d093 acbf e414 f159 1fdf a13f
00000160: e7f6 7312 ee64 b9bf 7b83 d92a 09fc b3bf
00000170: fcb2 fb04 1849 bdbf 053c eb30 449a bc3f
00000180: 584e 7dd7 92e9 ac3f eea1 b00b b630 a43f
00000190: e7c5 678a 715b a0bf 96af 1a59 4dc6 b2bf
000001a0: a292 0562 240d bbbf 1e05 08e9 d54e babf
000001b0: e1ae 0a44 9b5e c73f d2cf 2c45 5a38 a5bf
000001c0: 02f8 3c4a c728 bfbf 6afd d008 cbed c4bf
000001d0: 9967 b7ba 9dea b9bf 1a76 f958 c6db a2bf
000001e0: 66bb 4d82 b40d b7bf b9d4 e784 ea25 adbf
000001f0: c811 c93d 9d12 b03f 64e1 4c2b 90f7 9c3f
00000200: 2b31 9336 9da0 903f 2762 8d39 c2af cc3f
00000210: fee8 b03c 56c3 a13f 2164 8b8c 0ed1 c0bf
00000220: 4e17 6d4b 1066 b0bf 939b db59 294d ccbf
00000230: ee29 bc50 ece7 c83f 0f61 f798 f0f5 ba3f
00000240: 2156 0d42 68e5 a33f b08c ff87 3b09 b73f
00000250: f894 06ac 2ebf b53f 13d1 6a51 331a c03f
00000260: 93d6 4861 b7d3 713f 2b5f 0bbf 53be be3f
00000270: 456b 15e2 c4cb 76bf 9697 208d 9667 803f
00000280: 04d7 f647 9a74 a7bf f6c6 834f 1cff b0bf
00000290: 11dd 56af 3c0b a73f 4dbc e58e b863 b43f
000002a0: 3e95 4141 3312 b9bf 2dd2 24bd 7559 af3f
000002b0: 8614 b13b e8f4 c63f 4125 88f7 24b1 c33f
000002c0: 7c76 bed4 d837 91bf 8c60 6939 9668 b73f
000002d0: e281 1f20 515d c8bf 0430 0237 6503 9e3f
000002e0: a0be 6455 86b5 b33f 11bd df0e bf5d acbf
000002f0: 2bea 2c2f d76e c83f 9279 3b3d 188c acbf
00000300: e3c8 861a b4a0 93bf 978d a184 4aea 973f
00000310: 561b eb3d 735b c43f 7e34 55d6 62d8 b43f
00000320: 5685 f8d6 7c41 af3f f4da f2bc bee4 b93f
00000330: a995 eb37 ac4b c73f d5a3 3baa 1d51 bcbf
00000340: 6b6a 8f38 5dbd b93f 1acb 0fb9 76af b53f
00000350: ab9f 233d 31c4 a33f 565c 2f35 52ff ac3f
00000360: 53bc f3a0 c60c b43f ce52 7ee6 16ac c03f
00000370: 1486 f711 fcdf 83bf 641d dced 1a15 a4bf
00000380: f1b2 eb2c c25a 603f 7a90 6a75 9ac3 a3bf
00000390: 7d8b 726b 1a87 abbf 4f0f 70fd 25be 9d3f
000003a0: d171 d0ce 04cc b43f 87c9 6dca 9cf8 ad3f
000003b0: 11af c34d 02c5 d3bf e853 2df3 e8f2 96bf
000003c0: 02b9 1e52 1fe7 a73f a444 156b 5982 b73f
000003d0: 1511 aec4 eff7 bb3f f41c b3d4 fc98 b5bf
000003e0: fa0a 08af f38a c3bf 80fe e32b a184 c83f
000003f0: 601b 15b3 eb70 abbf fff5 2b22 e9be a1bf
00000400: 2c9b 949d 3974 a13f fe8d 6b22 143e 95bf
00000410: e378 203b d2b1 c3bf bba3 c7c2 76b3 bdbf
00000420: 5c51 a752 20b9 adbf d059 aec6 cfcc babf
00000430: f7f3 cf51 5aec d1bf 93e9 90d0 8868 9a3f
00000440: 22c4 0e61 e472 b33f 5db5 4f92 dded a6bf
00000450: 1076 42ee 6588 c0bf e9e9 182f 6b84 c5bf
00000460: 4d54 0519 3a00 b6bf 0641 ae3d 9929 933f
00000470: ae60 177c 1011 71bf 7d54 470f cbd1 c0bf
00000480: f4ea 5761 c1f6 b6bf a49e 572c 6386 a3bf
00000490: 763c 570a 248f b6bf 39c8 c82f 2fc8 c0bf
000004a0: 682e 2956 9385 c5bf 4e8f 3b54 b3af b2bf
000004b0: f34f 6b7f c8e1 b53f ec94 4643 e42e abbf
000004c0: 9415 23d6 08e1 afbf 2a9a 14d8 5326 933f
000004d0: 4171 5899 2a3f a4bf 5e7f d827 c5b0 82bf
000004e0: f0b3 56db 7513 a73f 4097 bb73 ced2 b73f
000004f0: 856d 5ca7 cd0c a13f 9f61 0d5e 82cf 55bf
00000500: e0a4 0ef2 f478 9c3f 0638 b5b4 2f0a 933f
00000510: bf4c fbab bcde a63f bbda 8d57 3b5d b1bf
00000520: beba b46a 55b3 aabf f509 4043 2a9b 923f
00000530: b119 0a67 b831 bc3f 0fbd 0315 543f c0bf
00000540: 1bcc 65c5 d18f a3bf ca61 e1e1 12d3 b1bf
00000550: 27f1 722c 13aa 843f 9563 2327 ea50 a63f
00000560: 6e3a 49b1 6d9e 9c3f 85d8 a544 9313 b23f
00000570: 7ea8 7307 5e9d bebf 1de5 c2d8 fbc1 8a3f
00000580: 503d 29b4 7145 8cbf e27b e315 5582 ad3f
00000590: f759 a0e3 e4b1 8cbf 399f 51c4 3ae8 c1bf
000005a0: d395 b135 129d 97bf 49bb aeb9 7409 91bf
000005b0: 9932 ab6f f02f 71bf 0a8f f7f8 320d 99bf
000005c0: ab07 a3ea a1da b13f ae33 cf87 f9ca 9d3f
000005d0: 1226 715b d242 b6bf 8aec b293 3af0 bbbf
000005e0: 60f3 1995 4e52 b03f 32d8 3048 252a c0bf
000005f0: 7dc0 21a8 257c 8d3f 5497 316b ffaa 6c3f
00000600: 57da 6238 e204 c6bf 4487 3dd8 b8d5 a8bf
00000610: f905 0bc2 449e 733f 7d20 4025 812f b33f
00000620: 2df8 3c1f 1093 c0bf e341 18cd e49c b5bf
00000630: 2beb 0fec d944 a4bf 478a 1580 d342 b1bf
00000640: e868 286e 9f6d cf3f c84c 8954 14ac ae3f
00000650: 7e3e e548 d853 acbf a1ae a841 6bea 9b3f
00000660: 204c 2ce9 52e3 c03f 4ec4 3082 d2be b8bf
00000670: 9866 bd20 43f0 4d3f a856 c97a 34b6 a33f
00000680: ac0d d43e fd9f c0bf cf83 2f7c 65a4 acbf
00000690: 6a79 1b5e c21f 9a3f 82df 332f cf1e c13f
000006a0: e35e 56db 5268 c5bf dca4 2955 4d0a b43f
000006b0: 3ddf 3408 6cc6 b2bf 35de 3ce0 ecff bb3f
000006c0: 99bb e967 cab9 9ebf 0806 3840 ed01 b53f
000006d0: 5361 e4b6 3eda a73f 0c01 06b4 cb95 a63f
000006e0: 78e0 f2f5 af0a b8bf 80a0 51d8 f7e1 b23f
000006f0: 2f5c 72ff f279 a7bf 3e6e 7f54 1c46 953f
00000700: f3eb f2e1 43d2 bcbf e54b 689c 2097 9e3f
00000710: 07f0 c044 e1f1 a63f 2dfe e942 1c13 ad3f
00000720: 38e6 4a90 16a8 893f 2f68 74a8 900e d03f
00000730: 6b2e 3521 e8ab 613f d899 4d6b 3949 bdbf
00000740: f12e be82 0e22 bcbf 5f15 5975 e9f4 b13f
00000750: 08ff e620 ffc6 b13f 7163 8a24 2cbb 91bf
00000760: 407a ce51 2afc c1bf 6f2a 3645 d584 a8bf
00000770: f4d8 9450 a0fe b9bf e480 40fc faec 9a3f
00000780: 04ba f001 f2ee aabf 00e0 4450 fc6f c8bf
00000790: 5975 7122 bd3a 8dbf af1a 3d20 f642 aabf
000007a0: bb32 48c2 8b95 97bf 295e 1dc3 e143 a83f
000007b0: 27f6 db58 4661 c1bf 8872 c53b 5b7e 80bf
000007c0: aa1f 130e 3074 c6bf 89a6 dfce 1c52 c0bf
000007d0: 99cf 3fc0 9be3 ca3f 8144 6a6a 6fa2 c4bf
000007e0: c3f8 af9a ab1f 96bf 6549 0aa4 ca32 d13f
000007f0: 521e 074d 76db b1bf fc9e af76 2e29 abbf
0.03519967187406558 0.016426816254349906 -0.025499635303636536 0.03242996015605247 -0.011999244305316929 -0.07146686500959087 0.04623746461337379 -0.00553306782204856
-0.02836919311887103 -0.12876601183031702 0.08351208607284223 0.0035848513148822683 -0.07048627122462427 -0.15526587262523028 -0.07471595745461945 -0.01187525821513092
-0.13087376784641913 0.09017841119469427 -0.08381996855029235 -0.014783511565519328 -0.11722945767462398 -0.14003420034954397 -0.013745034960590619 -0.024447208791307806
-0.012274672072484177 -0.18883710093210712 -0.15966273140190662 0.12444269890799765 -0.08706818362176658 -0.0944864237489187 -0.109958174488552 0.03156227324036032
-0.16572490152735178 -0.18526917982078694 0.10342640997045846 -0.13346807424386414 -0.10763704977886682 -0.103451251207496 -0.09912262048882017 0.001696919749776421
0.06816398845833403 -0.10526640061735351 -0.05581524958541271 0.03490541432305763 -0.09919631910812719 -0.07806451126226747 -0.11439657327327873 0.11172891802128511
0.05646952515112663 0.03943413632106628 -0.031947658677278494 -0.07333835053822066 -0.10566928284749591 -0.10276543559304627 0.1825746614680304 -0.041445561355800145
-0.12171598017172872 -0.16350686960684452 -0.10123620804316004 -0.036832998620166715 -0.09005287343255261 -0.05692990181334196 0.0627840305178956 0.028288128512231295
0.016237694221488724 0.22411372957391615 0.03469342699868781 -0.13137990820430992 -0.0640573677202074 -0.22110478293981525 0.1945777315343799 0.10531524405030644
0.03885961347866052 0.08998462744016211 0.08494846057745409 0.1257995746178798 0.004352299049562486 0.12009166158838684 -0.005565423083079339 0.008010078603614617
-0.04581148270101035 -0.06639267865446272 0.045007606891369296 0.07964662064272084 -0.09793396323364775 0.06122940000424069 0.17934897341379868 0.15384351812853406
-0.016814601883757593 0.09143961812640294 -0.19034780567655135 0.029309827310996198 0.07698859772494382 -0.055402727666541314 0.19088258555878332 -0.05575633761849298
-0.019167722815560572 0.023354687066228754 0.1590408375106686 0.08142678959593927 0.06104650615840039 0.10114662278179393 0.18199684839707445 -0.11061273008421264
0.10054571753372847 0.08470861452205405 0.03860620375945641 0.056635445587453745 0.07831994466299479 0.13025175337374723 -0.009704560564332922 -0.03922351983606623
0.0019964020242383353 -0.03860171016029397 -0.053765130630629245 0.029045671075450582 0.08123807954002095 0.058537387571862935 -0.30889947504214016 -0.022411002962446164
0.04668519856874022 0.09183272232373213 0.10925196220165774 -0.08436565583098227 -0.15267797514396603 0.19154753344627196 -0.05359589158120204 -0.03465965788016589
0.034089851842784874 -0.020744623757208196 -0.15386417281201323 -0.116019651940987 -0.05805302628474138 -0.1046876773892571 -0.28005083074077625 0.025789392213690098
0.07597186441013595 -0.044783519850038124 -0.1291625417115232 -0.16810359763788021 -0.08594096289501003 0.01871337355584137 -0.004166664498790036 -0.1314023804285717
-0.08970268847034985 -0.038134669459222864 -0.08812165501079669 -0.13110914071290994 -0.16813890177796798 -0.07299347692929567 0.08547642813510929 -0.05309212990986531
-0.06226375211694371 0.018700895370011995 -0.03954442140477222 -0.009126224783414901 0.045070345902196496 0.09306040120608561 0.033300806693854525 -0.0013312123412188915
0.02780516364478991 0.01859354534581572 0.04466809844384433 -0.06782885444213609 -0.05214945724070706 0.018170032839416057 0.11013367190944369 -0.1269326307878846
-0.038206630083458225 -0.069626979967672 0.0100900171222454 0.04358607986222932 0.027948106713945035 0.07061119485828911 -0.11958873445442639 0.013065307190447012
-0.013804329214649386 0.05763498203463492 -0.014011181065183271 -0.13989958368187574 -0.023060116316988854 -0.016637634118235742 -0.0041961090125367745 -0.024464413114301066
0.06974231699407933 0.029094599641939993 -0.08695711834402456 -0.109134350833232 0.0637559045807854 -0.12628618264142372 0.0143969480452315 0.0034995068213445144
-0.17202403786878293 -0.04850556983616497 0.004789608560430641 0.07494361075817042 -0.12948800587941048 -0.08442525870510269 -0.039587793413338034 -0.06742593648008564
0.24553292158891016 0.059906611747146565 -0.055327185533880816 0.02726142490625583 0.13193737397577454 -0.09666171720961467 0.0009136512539768714 0.03849948881967907
-0.12988248412885406 -0.05594174519479333 0.025511776918273034 0.1337527256471241 -0.16724620542367238 0.0782821972767524 -0.07334017944674272 0.10937386011652779
-0.030005610077235543 0.08206065004198859 0.04658695204324439 0.044111600614089225 -0.09391307596786358 0.07376050025198033 -0.04585227363821109 0.020775263459525066
-0.11258339182215575 0.02987338022837695 0.04481414760854823 0.056786425750939486 0.012527633932552282 0.25088898134856924 0.0021571668418454613 -0.11439856404977122
-0.1098946637341063 0.07014330973568893 0.06944269707946316 -0.017315568666706086 -0.14050797457180586 -0.04788843603008252 -0.10154153792686654 0.026294633527982905
-0.05260425828634044 -0.19091752929102768 -0.014272191632864905 -0.05129212516344716 -0.02303140996268625 0.04739289767047367 -0.13578109110669453 -0.008053505670141861
-0.17542076766244225 -0.12750587559940055 0.21007105719729394 -0.16120712944078622 -0.02160518771778964 0.26872507113980354 -0.06975497608720474 -0.05304856489948226

weight f8 [1, 17]
00000000: 25a1 d409 fd20 b3bf 2777 7149 c7cf c83f
00000010: d85a a472 9a43 c43f 290c 4b01 85ba cc3f
00000020: 511d 5853 a95c c03f f3a3 e9ec 24fd c2bf
00000030: 4604 b0a0 da68 c7bf 3f22 f8d9 71ce 8f3f
00000040: bfa3 aed5 f41f c53f b88c 22ca 2c7f c93f
00000050: aba2 3b7c 98dc bc3f 62b0 ba96 028e c13f
00000060: 694c 76ab 1681 ca3f f06f d84c 09ae c2bf
00000070: 82aa 82c4 bb6f b3bf c760 5d0b 32db b83f
00000080: 151e 8ff5 85e4 a63f
-0.07472211351398934 0.193840895520162 0.15831308934931232 0.22444212496893215 0.1278278023676003 -0.1483503491211021 -0.18288739057610054 0.01553048082770758
0.16503773149204723 0.19919357175704078 0.11274102242499377 0.1371463047011075 0.20706447002575892 -0.14593616726131087 -0.07592366740815673 0.09709465768299018
0.04471224424883872
