Data/Breast Cancer Winsconsin (Diagnostic)/results/models/model_19/bcw_traced.pt (torch, 476245 bytes, 5 tensors)

weight f8 [256, 31]
000000 35 37 78 56 1a 49 5e bf e8 13 ae 15 88 e8 c3 3f
       -0.0018484837727358986 0.15553380068391154
000010 f9 c2 4a 7f 08 3d ad bf 39 96 fd cc a1 0d a0 bf
       -0.05710627130372887 -0.03135400416685425
000020 11 4d 2a 15 4a e8 9a 3f 3d 05 3a 04 2d 6a 57 bf
       0.026276738683532367 -0.001429122888027059
000030 08 6a c9 7f d5 57 a3 bf a7 2a d0 12 e3 e5 b0 bf
       -0.03777949509522577 -0.06600779732995453
000040 67 2f 66 0c b7 de cb bf b4 ce bf f2 06 2e c5 bf
       -0.21773422341754697 -0.16546713688841452
000050 c4 41 b3 b5 00 a6 d1 3f a9 c7 cd 98 c8 3c a5 bf
       0.2757570051590188 -0.04147936692505933
000060 ce 0f ff 1f 22 74 c7 3f e0 62 2a 56 2d 2c c9 3f
       0.18323160707779923 0.1966606779795006
000070 9e f3 7c 17 4a 68 c3 3f 59 a0 bb f9 bc 2e ad bf
       0.15162016054992206 -0.05699720905778411
000080 51 59 7b a9 37 0e c7 3f 36 83 eb fb 81 67 9e 3f
       0.18012138152580318 0.029691725731825623
000090 e4 fa 2d 8f 31 f1 90 bf 9c 23 dd ab 6d d5 c1 bf
       -0.016545080532064285 -0.13932581798351584
0000a0 72 c3 35 c8 41 5b b2 3f 61 2c 08 a3 e9 ea b8 bf
       0.07170497072162421 -0.0973344824816862
0000b0 62 db 90 e4 c4 5e b0 3f 88 16 8d c5 c8 4a a9 bf
       0.06394606189938437 -0.04939868365776784
0000c0 61 23 70 ec 58 1e b6 3f 5c 57 29 2b 57 77 aa 3f
       0.08640056393063623 0.05169174577592514
0000d0 1d 34 66 c1 5c ca ae bf 77 3c 57 ea 5a 3a b3 bf
       -0.06013765202360608 -0.07510917874536625
0000e0 b0 4e 4c 38 97 4d b7 3f 09 b9 6a 64 ee 4f 95 3f
       0.09102769016709078 0.020812725905380556
0000f0 83 f4 b1 f1 a7 d4 c4 3f 51 8c ec 00 6f bc ba 3f
       0.1627397470619237 0.10443776867445932
000100 57 32 91 e0 cf e3 b6 bf 45 55 5d e9 2b 2b c4 3f
       -0.08941363556477576 0.15756749052767752
000110 36 61 08 49 5a 0b 9a bf b7 a8 3e 95 31 b3 c2 3f
       -0.025433932025493898 0.14609355723707093
000120 69 c0 6a 3c 0e 90 ac 3f eb 31 d9 89 61 2c ad bf
       0.055786557078477746 -0.056979225232314544
000130 62 cd 8a 64 b0 57 c4 3f 47 ba da 2f 1c ae bc 3f
       0.15892605695044454 0.1120317093689006
000140 bd ea a3 cd cf 7c 61 bf 52 95 bb 86 9f ec d2 3f
       -0.002134710183893189 0.29569233090872615
000150 6c 92 4d 77 80 d8 ba 3f 26 c7 bc 58 db f4 ce 3f
       0.10486605560942913 0.24184743721848995
000160 ff 10 d4 6c b3 53 c0 3f a5 cc e3 f6 ed 84 ab bf
       0.12755434812437014 -0.053748546970291224
000170 7f c2 4f 52 d0 de a4 3f ef 76 c7 4d 39 6a c7 bf
       0.040762434051321066 -0.18292919442949748
000180 38 e0 4d 37 84 3a a2 3f 28 5b 1e 19 56 c9 cb 3f
       0.035602695227624215 0.21708179689877594
000190 0c bb 3b 8e 10 0c 7d 3f 4b 39 21 35 c2 89 c1 bf
       0.007091583891208907 -0.13701655954577982
0001a0 3f 71 ad d6 61 79 83 3f 25 a3 0f fc 1f 1f bf bf
       0.009508861888826046 -0.12156867889246976
0001b0 bd a1 ff 8c 7a c6 c5 bf 7b de a2 d7 d7 45 bd 3f
       -0.17011958965964694 0.11434697165065615
0001c0 a4 cc f8 3a 44 6c 9d bf 22 25 e3 6e 4a d7 90 3f
       -0.028733316516263444 0.016446269052527225
0001d0 4a 97 5f fe 8a 33 a7 bf ac ad 05 47 96 21 c8 3f
       -0.04531511645454474 0.18852499454383798
0001e0 b7 a2 c2 cf f9 6c c5 bf 4c 6a fc 9b 5c a5 da 3f
       -0.16738817829652472 0.41634288056380764
0001f0 27 ee 6c 6f 27 da be bf d2 bd f5 b9 14 40 c5 3f
       -0.1205162665400442 0.16601809578013033
000200 f0 2f 88 3d 36 2c a8 bf 21 f4 b0 27 7f 49 d4 3f
       -0.04721230984804936 0.31698588253112986
000210 86 1e ba 00 86 1d b6 bf a9 02 c3 dc de fe a3 bf
       -0.08638799207448686 -0.03905388302655883
000220 ed 8b fc 6a cb 91 d3 3f ed bb 22 e0 fb 5d c0 bf
       0.30577359626675965 -0.12786816066861154
000230 ac a5 29 c9 7d f5 b4 3f e7 f5 8f c0 f1 55 b1 bf
       0.08187090073774667 -0.06771765662411831
000240 98 58 3d f7 ed 59 b9 3f 94 af f7 d6 1c 89 c8 bf
       0.09902846609233718 -0.19168434616528585
000250 a3 e2 84 31 16 4c c6 3f 22 76 86 1a 87 56 ce 3f
       0.17419698160099015 0.2370156173246168
000260 fe 27 51 8a 33 52 c5 3f dc ab f4 0f 44 97 ce bf
       0.16657108548889704 -0.2389912679585383
000270 4a b1 f4 04 04 0b ad bf 0f 0e 7c 6c 0f 16 b1 bf
       -0.05672466812606787 -0.06674286268758343
000280 05 93 62 45 00 e4 89 3f 57 fc 3c a8 0a ff c7 bf
       0.012641908757652151 -0.18747075285679912
000290 52 2b 95 2d d5 71 c0 3f 56 eb 5a 78 17 b6 d4 3f
       0.12847389913289448 0.3236139941542907
0002a0 84 b2 f7 a1 56 0a d2 3f f2 14 c3 28 65 6f e0 3f
       0.2818810064043549 0.5135980411656915
0002b0 23 74 c5 7f db b7 d5 3f 68 14 b2 3b b9 b3 c1 3f
       0.33934676625887245 0.13829722800088295
0002c0 69 da 76 10 27 eb d1 3f 75 1a 6c 3c 09 5f b2 3f
       0.27997757537688145 0.07176263547089852
0002d0 7e 7a 4d f9 69 55 bb 3f 16 3e ea 3f c9 c7 7a 3f
       0.10677206360331046 0.00653818715240064
0002e0 aa 74 e5 37 7c 66 e8 bf 25 bd e9 29 52 26 c3 3f
       -0.7625104037976105 0.14960696264777443
0002f0 4c b8 3d 5b a1 0b c9 bf e6 51 89 91 82 83 97 3f
       -0.19566742854243768 0.02296260846408584
000300 eb 87 c3 e1 49 91 b1 3f 35 c7 6f 54 b3 98 c7 3f
       0.06862317811786027 0.184347549656701
000310 df 9e 4e 32 8f d7 ce 3f 60 e6 a6 c4 4a f2 cd bf
       0.24095334965135515 -0.23395666696687822
000320 eb ee f2 fd 2d 84 a3 3f 22 15 46 bd 24 50 b6 bf
       0.03811782574618213 -0.08716039296094327
000330 c1 18 3f 60 60 08 cd 3f 91 ea 19 81 0a 4b ce bf
       0.22681812953505268 -0.236665070569718
000340 ec ab 4d 09 30 d2 b0 3f 09 3f 41 20 1d 69 cb bf
       0.06570720889219189 -0.21414531779236537
000350 4a d5 d3 da 31 18 c3 bf 81 11 c5 5e 56 a3 b9 bf
       -0.1491758650296709 -0.10014858068195133
000360 04 fc f7 32 8b 0d 75 3f 02 0d 76 6a ef ad c9 bf
       0.005139869448156812 -0.20062058161065727
000370 0c 54 de d1 fe 65 c6 bf f6 11 64 2d fc 6b b3 3f
       -0.17498765227779278 0.07586647136856314
000380 5b 81 a0 1a 96 bb 90 3f 8c 71 12 61 07 c3 d4 bf
       0.016340585112744815 -0.32440361480419067
000390 04 36 f1 4a 2e 32 d6 bf 3d 6b 1c a4 71 80 cf bf
       -0.3468127948625297 -0.24610729706986403
0003a0 b3 ec 2f c2 5d 6e d6 bf 52 38 5b cc 63 67 ab 3f
       -0.3504862209662846 0.05352317685684284
0003b0 8b e9 b4 ff 06 44 bd 3f 83 c6 3d 7e 60 45 d7 bf
       0.11431926482047154 -0.3636094315362259
0003c0 62 e8 ef 8b 70 ae 89 bf 19 d0 ad 66 8a 35 b5 bf
       -0.012539748449843017 -0.08284821516809905
0003d0 33 56 93 27 86 f7 b0 bf d8 42 f6 18 a6 77 ce bf
       -0.06627691713523447 -0.23802639216275767
0003e0 74 b7 22 2b f6 4c a3 3f 40 93 31 25 c6 37 c4 bf
       0.0376965453773285 -0.15795208755585044
0003f0 31 2e 9c 6d 37 b4 cc 3f f8 bf ca 11 c3 09 92 3f
       0.22424977161459617 0.017615364037453646
000400 36 2c 6a 80 35 9d c6 3f f6 25 67 df e0 ad 93 bf
       0.17667263765574298 -0.019217980990822135
000410 87 69 41 9d 9b 2a af bf fb c6 b8 27 59 4d b6 bf
       -0.06087194723723415 -0.08711774081964656
000420 52 4f ad 69 71 72 bf 3f 86 df 68 14 04 ea a0 3f
       0.12284001188282659 0.03303539990559927
000430 07 5e d1 4c a9 c8 c0 bf 26 2a 7c cd 29 ee cc 3f
       -0.1311236977660288 0.22601816686103965
000440 8c 35 35 9c a5 66 90 bf 8f 09 26 0b 92 e9 91 bf
       -0.0160165669051842 -0.017492563181357886
000450 d5 b5 6a 9b 4b 11 9a 3f 3f be e6 60 17 a8 b0 3f
       0.025456601487055714 0.0650648700309313
000460 a2 77 51 93 c5 f0 88 bf 24 5d 94 2e cb b2 c4 3f
       -0.012177985723777433 0.16170635008232026
000470 d6 f5 d8 bf 2f 64 a8 bf a9 be c9 70 af 41 ce bf
       -0.04763936249626581 -0.23637955672483216
000480 89 a1 8f 33 9f 94 c0 bf df f2 cc 3c 48 fb ca bf
       -0.1295355798495275 -0.21079352349069944
000490 c9 4d 59 05 87 39 9c bf cb 92 ed cc e2 39 ac 3f
       -0.027563199712245443 0.0551291346699024
0004a0 07 85 fd 13 5f f1 a4 bf 90 d7 97 9d b0 ac b5 3f
       -0.04090401762983658 0.08466628882874105
0004b0 42 5b 5f ed 37 6f d6 bf 45 c2 52 04 88 ff aa bf
       -0.3505382364359556 -0.05273079922460914
0004c0 7a b1 ac ce 59 f0 93 bf 35 12 50 a4 2e 52 c0 bf
       -0.019471553077140304 -0.12750800154766898
0004d0 71 6c c5 1a 60 c9 d7 bf f2 21 1a d6 9c 95 c6 3f
       -0.37166597952245356 0.17644081548884533
0004e0 30 cc 0a 0c 1e 4e 9c bf e1 ea 77 a3 bf 57 b6 3f
       -0.027641744122501588 0.08727643719604884
0004f0 8a 06 75 2c 32 4c 7e 3f 16 81 0f f5 d5 83 b9 3f
       0.0073968849094982 0.09966790421413338
000500 a1 c0 6c c2 90 1e ba bf 19 d5 6f cf 33 ef c7 bf
       -0.10202889200877731 -0.18698737744095054
000510 68 36 11 2a 42 77 b4 bf b0 a7 d3 f1 4c 15 ae bf
       -0.07994473959953441 -0.05875626041399984
000520 ed 32 34 17 68 19 c1 bf 72 4f a7 fb af 50 9c bf
       -0.1335878480243972 -0.027651548132623778
000530 e3 ac be ee b3 55 b3 bf 17 11 31 77 cb 73 91 3f
       -0.0755264718888387 0.017043284559137364
000540 7d 82 c6 98 b3 84 c1 bf ad 7f 7c 52 6e ea 93 3f
       -0.13686222991693234 0.019448970589223503
000550 9d 25 b7 25 a2 ae ab bf ad dd 9e 33 d7 d3 9b bf
       -0.054066722015316794 -0.027175295377416187
000560 fe 23 d8 7b 4b ca a3 bf c6 10 8d 71 25 6f b2 bf
       -0.038652762286865525 -0.07200845739595527
000570 c7 01 45 24 e9 e5 ae 3f 02 13 e4 86 21 4f 88 3f
       0.06034782951110489 0.011869680336994207
000580 ab 38 9c e5 f7 ee c2 3f 8e 4e 17 66 37 e0 c8 3f
       0.14791773520886883 0.19434254155077152
000590 ff f1 de db dc 30 b5 3f 0e f3 81 90 8b 7d ba 3f
       0.08277683608952911 0.10347816732423729
0005a0 99 ff 73 9b d8 fb ac bf 84 36 e1 1a f3 ef a9 bf
       -0.05660893342610435 -0.05065879538652232
0005b0 c5 6f 1c 62 9a 18 a0 bf df 7f df eb b3 e5 b9 bf
       -0.03143770644803071 -0.10116123684520016
0005c0 98 cb 56 9b 67 c6 c1 bf 0c 16 8f a1 a5 8c cf bf
       -0.13886733136095297 -0.24647970570201527
0005d0 11 5a 58 cc 0f 66 a9 3f 05 12 40 8d 6c b9 d1 bf
       0.049606794065926725 -0.2769423846623627
0005e0 11 e4 ff 1d 39 86 b4 bf 24 c0 17 40 7c 5d c9 bf
       -0.08017308218394727 -0.19816544656305368
0005f0 09 eb 77 44 0b e9 bc 3f 78 bf 51 78 aa 45 aa 3f
       0.11293096944420368 0.05131275862447543
000600 90 5e 55 57 d9 20 b2 bf e6 8f 87 ca 5b 76 cd bf
       -0.07081373579182526 -0.2301745165742652
000610 e9 7f 02 71 c2 a7 b1 3f a6 c5 da ea bc c2 c8 3f
       0.06896605738666008 0.19344293086537084
000620 83 9e e8 99 2a b3 79 bf 5d 2d 12 6c a9 06 be bf
       -0.006274382029495154 -0.11728915108158362
000630 61 65 83 b4 7b b0 b1 bf ad c7 d8 66 7b fe b2 bf
       -0.0690991702753272 -0.07419558773906827
000640 f5 90 92 1a 81 ec a8 bf 9b 51 7d 34 05 bf 94 3f
       -0.04867938470241199 0.0202599347388329
000650 66 5a 73 3e 09 f2 80 3f 2d 88 72 77 4e d7 8c 3f
       0.008274147241917617 0.014082539577717846
000660 9a 18 91 8e b5 7a b9 bf c0 4a f9 8a e0 e5 c7 3f
       -0.09952864390024488 0.18670279298620152
000670 55 b7 b4 6f aa 7d b6 bf 5f f7 7d 2f 96 9b dc bf
       -0.08785500743098613 -0.44699625623603895
000680 fe a6 d3 55 de d5 cb bf a2 39 1a cc c9 67 db bf
       -0.217464248569108 -0.4282097333133611
000690 e9 18 3c ad 00 b8 bc 3f 9c 04 91 f0 4b 0d 52 3f
       0.11218265752185953 0.00110180297839716
0006a0 02 57 75 c7 fd 83 c9 bf 1c 4f f9 59 ed c0 c6 bf
       -0.1993405555646675 -0.17776266949896857
0006b0 d4 a4 8e 88 f5 6e bd 3f e8 f9 d6 61 f6 41 ba bf
       0.11497435172954634 -0.10256900681176939
0006c0 a3 aa a5 25 3c 8a c8 3f 85 87 c9 31 7b c0 c3 bf
       0.19171859586943638 -0.15431156092659762
0006d0 e0 d6 ff 25 cc 57 be bf 81 5d 17 97 14 ab a8 bf
       -0.11852718284339003 -0.048180240100630385
0006e0 bc 38 4e f8 16 47 a6 3f 37 02 a9 ca 32 d8 c8 3f
       0.043511121569382166 0.19409785171048252
0006f0 c0 d2 32 6f e9 fe b7 3f a2 f2 b3 f6 b0 23 a6 bf
       0.09373339619453258 -0.04324105273733393
000700 6b fe 98 64 5c fc c0 3f 30 b0 36 9d c9 84 b4 3f
       0.13270144378656154 0.08015117729399956
000710 f7 fa a9 15 21 78 96 3f e6 4d d1 10 5e 7b 76 bf
       0.02194263167120433 -0.005488746112934239
000720 aa 02 0a f9 30 63 a5 3f e3 b2 93 63 76 49 85 3f
       0.0417723945620357 0.010394024766776372
000730 cf 9e 7e ad 40 a1 94 3f 57 0d fe ce 5b 23 b6 3f
       0.020146380032797503 0.0864770298340337
000740 b0 71 fe 13 79 02 bc bf 81 2b d2 33 2e dd a0 bf
       -0.1094127343953406 -0.03293747313099172
000750 b2 29 19 af 55 36 c9 bf ee e8 cf a1 e9 64 bc 3f
       -0.1969706635448581 0.11091480446330923
000760 42 8d 6c ef 6c 23 b4 bf 16 aa 31 fc 73 b8 ae bf
       -0.07866555066407435 -0.06000101522007044
000770 b6 94 0c f8 75 d1 bb bf ec 66 84 07 9c 25 c5 bf
       -0.10866486841094311 -0.16521025054026184
000780 cb 3c 07 7a b1 6a b1 bf 13 f4 4b d9 4f df a7 bf
       -0.06803426007467121 -0.04662560966060183
000790 4a 05 7a 4c c3 88 80 bf f2 d3 6b f4 62 fe ce bf
       -0.008073354503042158 -0.2421382611716179
0007a0 2f 64 92 48 da 1d d1 bf d0 60 24 f9 cb e9 b8 3f
       -0.2674470623692881 0.09731745560236793
0007b0 c0 d8 d5 c9 8d 19 8d 3f 53 7b 1f 12 e1 64 dd bf
       0.014208896371865953 -0.4592821766836341
0007c0 0d a2 d9 c5 52 ca 85 3f 41 b1 56 24 d5 b5 de bf
       0.010639807379633682 -0.4798481802815964
0007d0 27 cf ae 13 9f 28 a9 bf 5f 87 01 b7 c5 a0 bd bf
       -0.049138041641894774 -0.11573444097441897
0007e0 28 3f 0a 63 0c c2 a5 3f 6a f5 2b 51 d7 13 a5 3f
       0.042496096696707675 0.04116700044503825
0007f0 36 8a 23 3b 09 d7 cf bf 6c 6c a8 ea 25 f9 c3 bf
       -0.24874987971914359 -0.1560408969679402

weight f8 [128, 257]
000000 3a bc 73 6d 0a f7 b4 3f e0 68 91 34 76 60 a3 bf
       0.08189454242868602 -0.037845319668763144
000010 e4 ac a0 f4 85 26 b1 bf 62 b6 d2 52 24 43 bc bf
       -0.06699406835894056 -0.11039950391815403
000020 6b 65 ed 9f 27 a8 af 3f c6 f3 c5 27 12 f3 b5 bf
       0.06182979418981457 -0.08574021788622507
000030 3a 5f 45 6e 47 17 28 3f 7e 30 17 81 21 71 b3 bf
       0.0001837992377982047 -0.07594499017358378
000040 5e 2e 02 3a a3 54 7f 3f f8 ef 5c bd 65 8e b0 bf
       0.00764907608403184 -0.06467281220551502
000050 09 ed 5d 76 bb 4b a1 bf 64 bf 51 31 37 f7 bf bf
       -0.03378091640385079 -0.12486596063695071
000060 cb 5f c7 6a 7f f1 3d bf 6c 77 e8 f4 e1 69 ae bf
       -0.000456899268809871 -0.05940157045937053
000070 a9 7f d9 0f b6 25 cc bf 8c bc f7 23 19 ff bd bf
       -0.21990085386187033 -0.11717373970144446
000080 53 c5 1b f7 a9 6b d1 bf 23 08 f7 ab 41 83 b4 bf
       -0.27219628459632367 -0.08012781570781206
000090 9f ff 38 fa ab d7 b0 3f 5c df a7 69 be 8d 6c bf
       0.06579089030219486 -0.0034855574606317673
0000a0 41 14 7c 97 76 0c bd 3f f4 b6 85 47 5d 5a b3 bf
       0.11347142408710999 -0.07559760090017759
0000b0 73 26 40 4e a2 b1 ad bf 8f 90 5c 84 e4 68 b2 bf
       -0.05799586491782529 -0.07191303473934084
0000c0 8d bd 56 fc 25 d2 b2 3f 3d dd a5 02 12 b4 ae bf
       0.07351910982719385 -0.05996757776568493
0000d0 f8 fc aa 62 b1 73 91 bf 7c b7 5d a4 31 40 b5 bf
       -0.017042895934307162 -0.08301077139705443
0000e0 70 22 23 7d 65 3a 92 3f 81 c2 50 c4 9a 17 b0 bf
       0.017800889742633108 -0.06286017697198966
0000f0 66 b7 3f ea 6d 06 cc bf f4 3e 1c 3e 5f db 89 3f
       -0.21894620836195172 0.012625450213391322
000100 e7 13 a8 e3 a6 6f 75 3f e4 7b db cf b9 6e ae bf
       0.005233432685149509 -0.059438521025860586
000110 96 2e a5 3c 35 62 b1 bf 45 23 4e fe ce 1b 88 bf
       -0.06790478449436885 -0.011771790633945076
000120 3b 0a 1b 8b 4c 63 77 3f 82 9a 81 1b af b4 ab bf
       0.0057099332786401625 -0.054112884624193405
000130 6c 34 7d 59 26 02 c4 bf f1 ee a4 62 ba 57 b2 bf
       -0.15631560678085366 -0.07165112407977482
000140 4f 41 38 63 ae 49 a3 bf c4 c8 ca 19 3d 2b b3 bf
       -0.03767151795557543 -0.07487851981821608
000150 c0 9c 02 15 78 9f ae bf 67 3d 54 1a 48 ce 9f bf
       -0.05981040245506497 -0.031060339552877816
000160 6f 61 e9 f8 55 82 ae 3f 2d c1 8f 9a 49 8a 98 3f
       0.05958813346359448 0.02396502500408919
000170 2b af 95 32 f2 a6 b8 bf 99 e5 7b 44 ed e3 c2 bf
       -0.09629739508607986 -0.14758077472633316
000180 bc 36 47 c5 bb fc b7 bf 12 d1 dc 5e 9a de bd bf
       -0.09370015684472838 -0.11667790237408251
000190 c7 f8 95 69 30 89 7e bf ef b5 2a d3 b6 0d aa 3f
       -0.0074550524817579905 0.050885880734636284
0001a0 eb 28 a8 fe 3f 00 7d bf 56 c2 53 b8 d0 9e cd bf
       -0.007080316524034051 -0.2314091587100104
0001b0 b4 72 5f 08 0c bb 90 3f df 7f 8e a0 19 bb b0 bf
       0.016338527689969864 -0.0653549210533124
0001c0 0f a8 69 97 a5 2a 84 bf 7b 9c 33 c0 c1 ae a5 bf
       -0.009846967395066767 -0.042348913871870196
0001d0 95 df 39 49 b3 64 a5 bf 0e b2 30 f2 4e 06 b0 bf
       -0.04178390759346865 -0.06259625828597157
0001e0 d9 5c 92 bf 71 8b 7c bf b0 0e 4d 71 94 73 87 bf
       -0.006968921975519759 -0.011450919826195033
0001f0 1f 21 af e1 fe 9d aa bf 4f 8c 30 33 e7 c6 b8 bf
       -0.05198666100437976 -0.09678502082583516
000200 d3 98 1f 0f 21 ca cb bf 19 26 3e 94 42 5b c8 bf
       -0.21710599173019904 -0.19028503645340392
000210 13 ea 4c d2 e1 f6 af bf 64 af af 74 cb dd c0 3f
       -0.06243043605941891 0.1317686385876825
000220 53 de 31 cf 06 25 a8 bf 14 f1 ad 50 0b 29 cd bf
       -0.04715749053223974 -0.22781506957461117
000230 e4 59 34 17 be 59 54 bf 6b b1 db ec 7c de 99 3f
       -0.001242099414246683 0.025262786823917176
000240 0b 11 68 fc fe 5d bd bf 5c ce 45 58 74 0c 72 bf
       -0.11471551573055565 -0.0044064087600080536
000250 9a 2b a9 54 de 3a b7 bf 21 17 6b 44 13 b1 67 bf
       -0.09074201170839871 -0.002892053252568597
000260 15 50 12 63 b3 13 b1 bf 2a 88 5c e5 ea 9c 8d bf
       -0.06670685929049143 -0.014459452747875263
000270 20 c6 49 06 ae ae ba bf c6 a9 6f 4c eb f1 cb bf
       -0.10422790196914677 -0.2183202861045414
000280 b8 5c a0 70 aa 40 b6 bf 05 bb eb e0 ca fa 84 3f
       -0.08692422151249246 0.010243973721541186
000290 8b 06 6a 07 53 35 a5 3f c2 eb df f4 0d 59 b9 bf
       0.04142245736603652 -0.09901511410127653
0002a0 d5 18 2e c7 fd db 9d 3f bb 9b 0e 0a 70 7a a0 3f
       0.029159512788759685 0.032184125163716236
0002b0 cf 17 0f 50 9a a6 77 bf f3 f5 71 f7 8f 61 b5 3f
       -0.005774119171240557 0.08351993361608105
0002c0 c7 86 0e bf c6 f9 c8 3f 21 cc b6 13 1c bf ae bf
       0.19512256936018543 -0.060051801115513344
0002d0 3c d7 ee 70 d6 a9 b3 3f 9c 22 b8 d7 2b 22 73 bf
       0.07681026703980093 -0.004671260128369294
0002e0 50 fd 85 64 dd 7c a9 3f 5f e7 bf 9d d6 67 b3 bf
       0.049780767937586234 -0.07580319739636597
0002f0 06 3f e5 24 45 47 a5 bf c6 19 ee a1 08 c5 b3 bf
       -0.04155937266716418 -0.07722524598475564
000300 de 10 aa f1 b9 c1 c3 bf 08 a3 2b a6 34 a8 a2 bf
       -0.15434955883041018 -0.03643955734680132
000310 9b 46 b9 b0 72 e0 b4 bf 24 a8 a1 92 b6 c7 c1 bf
       -0.08154980482620504 -0.1389072624181732
000320 6c d9 f3 bf 4b 32 b6 bf e0 c6 6d 9d 75 3e c3 bf
       -0.08670495449391574 -0.15034361063913249
000330 88 58 92 34 d6 ab a1 bf b9 10 93 1b 49 74 b4 3f
       -0.03451413528198183 0.07989937709050111
000340 ed e5 0b 45 7e d4 b4 3f 3b 0c 31 5c 9e 48 83 bf
       0.08136738954262741 -0.009415852726425302
000350 76 e5 cc ec 09 91 9a 3f 51 6b 0d 1c 33 01 ba bf
       0.025943903997562377 -0.10158080515740876
000360 cd 84 10 73 bb 66 c0 3f fd 0a 78 d7 53 8e 8e bf
       0.12813513868699147 -0.014919905675019768
000370 e4 19 e4 64 39 fa a1 bf b6 35 b2 14 61 1d 97 bf
       -0.03511218411044917 -0.022573010338012366
000380 74 5c dc a8 0c c9 85 3f 95 01 7d 48 ae 0a 99 bf
       0.010637377646658154 -0.02445480649407868
000390 b6 62 a5 81 c7 ff aa bf 90 42 4c 85 ee 6d b5 bf
       -0.052732691360409076 -0.08370867494910272
0003a0 41 53 14 70 24 78 c2 3f d9 0e 4f 7d c4 ef b1 bf
       0.14429145310045935 -0.07006481227204676
0003b0 fb 1a 6b 59 ea e1 bc 3f 2f 67 7b 40 3a 93 b0 bf
       0.11282219584527901 -0.0647465140749801
0003c0 3b 4d 5a 94 73 aa a4 3f 07 a1 0e 75 ea f4 85 bf
       0.040362941607919166 -0.01072104615907722
0003d0 10 15 b4 fe 2b 8b b4 bf 69 7a f7 a6 b8 f0 aa 3f
       -0.0802485939821802 0.0526178077523028
0003e0 aa 84 f7 c7 9d 83 c2 bf 7f 0f 2b d3 b4 71 aa bf
       -0.14464161170966366 -0.0516487605832756
0003f0 bd 0c 13 02 ba 60 b0 bf 47 f2 c3 f8 a5 1e a4 bf
       -0.06397593069691516 -0.03929632817923739
000400 c7 42 07 7c 8c 03 78 3f e1 cd 4c b1 a0 57 9d 3f
       0.005862759368441223 0.02865458566811963
000410 b2 9a d9 5b ad 25 a6 bf 84 29 1a 8f 60 c5 bd bf
       -0.04325620409217858 -0.11629298680978734
000420 cb 41 89 e3 d9 e2 c2 bf 82 71 7c 1c 86 bd 4a 3f
       -0.14754794702686377 0.0008160500374035237
000430 31 39 69 6e 18 cb c3 bf 71 44 22 fc 35 c4 b7 bf
       -0.15463548079646608 -0.09283769040691127
000440 ef f2 ab 51 c7 a2 91 bf 58 99 9d 2e 25 94 c3 bf
       -0.017222513542026027 -0.1529585340133035
000450 5f c6 b7 b0 78 f3 ba bf 5f 9b cb 45 0c 25 a7 bf
       -0.10527757944489612 -0.045204528350771815
000460 39 89 5e 26 d5 c3 ae 3f ba 71 a7 16 81 06 ac bf
       0.060087834295034566 -0.05473712350405742
000470 69 a1 ea 9f 4a cd b0 bf 67 74 e6 55 3d 55 97 bf
       -0.06563249973499342 -0.02278610073846146
000480 d6 bf c0 2a fc b8 c0 bf c6 4e f5 97 85 fe b2 3f
       -0.1306452950243499 0.07419619522016338
000490 0d 6e 38 87 03 dd b2 bf 69 33 e5 87 d7 55 af 3f
       -0.0736849026802064 0.06120179685476652
0004a0 51 38 69 ff e5 24 4a bf cf 54 d7 c3 0c 49 a0 bf
       -0.0007978556666985525 -0.03180732622755899
0004b0 0e 01 73 1c c3 85 be bf e3 5d 2d b6 40 76 99 3f
       -0.11922854847489736 0.024865161055769646
0004c0 9d 5b 95 bb 9d 6d a4 3f 7e 88 98 61 3f d8 a0 bf
       0.03989880480610639 -0.0328998381267107
0004d0 a0 fb 0b 27 d4 a9 b5 bf 00 cf ac 50 19 a8 bb bf
       -0.08462263062754838 -0.10803373546223938
0004e0 49 01 27 21 fa a5 9d bf ab a7 31 8f 84 32 c1 bf
       -0.028953464768848112 -0.13435418121235662
0004f0 01 c6 22 95 29 da 27 3f 4a 3d 10 9b c0 be 61 3f
       0.00018197782134658783 0.002166153128662228
000500 34 33 cc aa 19 9f b2 bf 44 59 a9 67 0f c3 b2 bf
       -0.07274017734398514 -0.07328888207243717
000510 33 a5 c5 da 39 7d a8 3f 34 e4 46 c3 64 86 c9 bf
       0.04783039851720119 -0.19941386733060684
000520 1c 59 cb 8c ed e9 b4 bf f6 04 e2 c2 01 ac b8 bf
       -0.08169445693360838 -0.09637461669810307
000530 98 f7 5b b6 5c 66 b7 bf 63 ca 90 9e 6d 5b a1 bf
       -0.09140567257051513 -0.03390066681494799
000540 24 1e 9e 40 86 f4 b7 bf 6e 04 dd 04 05 cf ac 3f
       -0.09357489659861834 0.05626693424574901
000550 d2 5e 30 37 0b fe a1 3f fd 02 8d 6b 60 e8 c2 bf
       0.03514132546132277 -0.14771657229905336
000560 05 a3 22 52 7b 99 b6 bf 69 7e 08 97 ef 67 70 3f
       -0.08827944522148463 0.004005370996793192
000570 33 0c 0b 8b fc 14 bf bf 70 26 49 2f 5e aa ab bf
       -0.12141397852524065 -0.054034178993401905
000580 bf 4e 75 b9 f6 7d b2 bf 49 cb 19 2f 9f 24 75 3f
       -0.07223455455578696 0.00516187840695432
000590 4e a4 e1 fb 54 99 bf bf c0 dc 67 9a 76 4e 80 3f
       -0.12343341016243523 0.00796215685566748
0005a0 34 95 73 9c 5a 76 a9 bf 70 bb 6c b4 fd fd 8f bf
       -0.04973109397705358 -0.015621168202043484
0005b0 67 a4 87 24 09 c3 9d bf 98 56 b1 0a 98 e5 c1 bf
       -0.029064314703564877 -0.139819150181826
0005c0 9a 8f 19 30 ad b6 92 bf 03 41 65 b6 ac 62 d1 bf
       -0.018274980603009895 -0.2716476231771738
0005d0 5a 62 b4 81 42 c2 c6 bf f6 35 f2 24 b7 c5 b6 bf
       -0.17780333836778334 -0.088954397697499
0005e0 b5 99 0c e3 f0 c0 ae 3f 44 1c c8 3d 01 63 c7 bf
       0.06006577273938111 -0.1827088882130018
0005f0 58 c4 1d d4 1e f6 94 bf 7a b8 9a 99 63 0f c0 bf
       -0.020470124908971904 -0.12546963691915264
000600 ee 4c 6d 58 1c f0 8c 3f 85 b9 8f 62 1f c4 b7 bf
       0.014129849861694823 -0.09283634334835796
000610 15 2d 87 37 cf dd be bf bd ce 94 6c f9 05 79 bf
       -0.12057204347290836 -0.006109213173931924
000620 27 27 4e 75 c6 c1 a7 bf 83 4b 96 0b 19 ae 96 3f
       -0.04640026266049651 0.022148505527705985
000630 c5 49 70 b2 86 cf c3 bf b1 89 34 57 f2 c6 a8 bf
       -0.15477069580863492 -0.04839284243122977
000640 c3 a9 91 0d 64 a3 8c 3f e9 b7 53 02 b7 16 80 bf
       0.013983518280117907 -0.007855825193896453
000650 31 66 6d be 91 96 c1 3f 07 ba d1 d5 ec 12 a4 bf
       0.1374075107403754 -0.03920688734148219
000660 7c 81 c8 b0 f3 f0 b4 3f ef 27 93 bd 7e dc b5 bf
       0.08180163446423266 -0.08539573791782094
000670 84 f2 bc 09 31 73 b8 bf f6 e3 cc ff d1 98 b3 bf
       -0.09550768363710388 -0.07655060286641899
000680 fa 7a cb f4 1b d8 b7 bf 5c b4 17 4c b3 38 ad 3f
       -0.09314131475865031 0.05707321456780143
000690 14 9c 45 f5 04 28 be bf e4 69 c1 33 3d 08 9f bf
       -0.11779814708789643 -0.0303048670615257
0006a0 b2 1d 0d 30 74 c2 aa 3f 1f f4 e3 b2 c6 a7 a0 bf
       0.052264815202359385 -0.032530030572140094
0006b0 84 f0 48 9d 62 1e b2 bf 7d fa a5 d4 57 ab 9e bf
       -0.07077614154781214 -0.029950497011208988
0006c0 53 50 14 59 f5 f0 c2 bf 36 f9 27 32 a8 71 91 bf
       -0.14797846650674504 -0.017035129605568154
0006d0 01 af 86 fc 8b 89 bf bf 04 6c a1 9f 59 7a 9d 3f
       -0.12319254794300251 0.028787041061473687
0006e0 f3 fb 7e 01 09 50 4b 3f 17 0f a1 47 26 70 bd bf
       0.0008335155462119145 -0.11499251602895942
0006f0 53 aa c1 6f 82 94 88 3f 43 08 3d c8 aa 76 8f 3f
       0.01200200942567623 0.01536305831507801
000700 11 9a bd 13 33 8a 76 bf 73 c7 ba 84 83 71 b4 bf
       -0.005502891082733289 -0.07985708227604764
000710 a7 52 c8 59 9a d5 bf bf 93 77 1b f3 3e 13 c0 bf
       -0.12435307208972778 -0.1255873381659823
000720 3e 40 b1 0e 2a 4b a3 bf 1d 30 c2 e6 02 b7 b0 bf
       -0.03768283299780294 -0.065292531335388
000730 17 35 04 22 9e bb 85 bf 78 2c bc ee 82 09 b4 bf
       -0.010611758626078811 -0.07827013329021948
000740 8e a3 7c 63 13 7d c1 bf d8 bf 90 3c 85 47 a4 3f
       -0.13662950856931072 0.039608157771340025
000750 06 82 89 23 c8 04 63 bf 4a 22 40 15 4a 8b bb bf
       -0.002321616073729385 -0.10759413737117388
000760 10 e6 e5 08 05 23 c6 bf 9d 31 28 88 8d 81 99 bf
       -0.17294371542429632 -0.024908267436374854
000770 a9 ff da cb 9b 39 a9 3f 01 aa ff 09 c9 6f ac bf
       0.04926764358015074 -0.055540354223769135
000780 b0 55 1e 42 48 5c b1 3f 2b d2 4d 7e 97 78 bf bf
       0.06781436552258557 -0.12293383439629994
000790 d6 dd cc 6e 80 3e a0 bf 6a f5 7d 91 df 7a 6f bf
       -0.031726850057051045 -0.003842770249262874
0007a0 86 22 5f ba 9e 7a 98 3f 90 c9 0e 0e 30 44 b9 3f
       0.02390525829813097 0.09869671195227725
0007b0 ce fb ea 0e 29 60 9e bf b0 a6 ea 99 f0 80 b0 bf
       -0.029663697753445288 -0.06446746595124853
0007c0 a9 7c e1 dd b5 c4 b1 bf 1c 55 7b d2 45 d8 bb 3f
       -0.06940781275760578 0.10876881016459489
0007d0 75 35 96 b0 8f 65 9d bf ed 0e ce a0 f0 57 9e 3f
       -0.028707738068580697 0.02963233930087388
0007e0 5d 88 a6 5c 35 ca 84 3f a2 dc 80 ba d6 58 97 3f
       0.010151307001084737 0.022799830563795205
0007f0 12 55 3d 4b 01 2a 96 bf 50 ab cd 86 44 2a ac bf
       -0.021644611565837364 -0.05500997682141551

weight f8 [64, 129]
000000 4d 6b 9e 68 9e 8e b1 bf 8d fa e2 0e 59 0f be bf
       -0.06858243993921782 -0.11742169011538746
000010 ec fa 0e 95 70 1d ad bf 5c 0e 1e 5a 31 61 91 bf
       -0.056865232654208814 -0.01697232353718757
000020 e1 dc b6 e0 e5 30 a1 3f 46 d9 db a0 02 c4 a7 bf
       0.03357618682951525 -0.04641731465919689
000030 d0 3b cf b1 d2 19 a6 3f c5 17 38 0f 0a 0f 8b 3f
       0.04316576405073358 0.013212278928232632
000040 dc 7b 53 1c 6d 3d ae 3f 57 4c 93 77 d3 89 a5 3f
       0.05906239481713957 0.04206715426121182
000050 fb ad 89 64 f4 a4 af bf ae 3d 7f c9 b6 13 c1 bf
       -0.06180537917392922 -0.1334141239044419
000060 46 39 4f 27 6b f5 94 bf 20 53 79 0a ea f1 b8 bf
       -0.02046744754243803 -0.09744131808959056
000070 31 09 6f bf 38 a8 a9 bf 11 c1 63 c4 76 61 a0 3f
       -0.05011155449712346 0.03199359080633902
000080 9b 3c 81 aa a9 6b a7 3f 3f 35 7f c9 ba c4 9c 3f
       0.045743276656702046 0.028094214008708148
000090 29 cf b3 6e cb db 96 bf 37 15 c0 a4 e6 e4 85 bf
       -0.02232282508062081 -0.010690500166684032
0000a0 a2 3e a4 a6 00 0a 98 bf ac ea 88 13 9c 65 67 3f
       -0.023475656672472874 0.0028560684552563966
0000b0 32 25 43 0f fa a2 b1 3f 35 9d 37 5e c1 af ba bf
       0.06889307854284679 -0.10424431371904037
0000c0 38 f1 d4 5e 35 b3 ae bf 6b d0 0b 6b 4a 25 a2 bf
       -0.05996100218405548 -0.03544075543132482
0000d0 8b 85 01 a3 70 69 c1 bf dc 38 61 cd 31 c7 ae 3f
       -0.1360302730491124 0.06011348373486822
0000e0 2d b4 78 eb f0 44 97 bf ff 56 90 0f 2f 1a b1 bf
       -0.022723926898994207 -0.06680578355766541
0000f0 c4 10 e0 70 e1 01 a9 bf 2d e2 23 b5 0e 8a a1 bf
       -0.048842473057477714 -0.034256419765317105
000100 6a 4b 09 06 a7 70 9c 3f 89 b5 5d 99 4f dc a0 bf
       0.027773484939028682 -0.03293083903450184
000110 7a a5 75 11 40 c8 b9 bf 0d 58 ca 26 bd 39 ad bf
       -0.10071182657488534 -0.05708113764301013
000120 e6 98 39 df 87 24 95 3f d8 a1 47 3f 75 c0 93 3f
       0.020647166251728154 0.019288856494229595
000130 8a a3 1a 46 c8 8e 88 3f 1f f4 e8 77 e7 42 98 bf
       0.011991085662275375 -0.023692719167446193
000140 ff 90 0b c5 37 c7 97 bf a2 18 aa 7e d3 0e b2 bf
       -0.02322089328926413 -0.07053872911828532
000150 45 34 81 6a da f3 8f bf 6b 67 44 4e 17 c7 b5 bf
       -0.01560183179403841 -0.0850691381532706
000160 0d 3a 23 f6 38 60 82 3f 86 93 5b 7a ec 6a b6 bf
       0.00897259236481054 -0.08756902682541864
000170 10 02 83 8e 56 f5 b1 bf 80 72 bc 8f ef 16 6c 3f
       -0.07014981250086572 0.003428905385489067
000180 47 3d 01 cc f6 b5 ae bf 80 68 ac 2e b8 2c c5 3f
       -0.059982025530752874 0.16542722968080525
000190 67 34 95 a7 c1 28 a3 bf 8c 7d ef 38 e8 a6 be bf
       -0.03742032213868001 -0.1197343005182942
0001a0 2a 3e 4a 8e 31 40 9e 3f 9a 89 f8 b5 85 08 a5 bf
       0.029541754064267213 -0.04108064504932259
0001b0 32 b7 1a de 55 50 c8 bf c2 5a b4 2a f9 24 ba bf
       -0.189951642465013 -0.10212666790571759
0001c0 c7 c6 ee 78 22 cb 88 bf 4c 48 51 a9 d4 29 c4 bf
       -0.01210619861180663 -0.15752657191711916
0001d0 61 f7 96 35 50 23 a8 bf 15 55 9e e9 51 99 a9 3f
       -0.04714441923304836 0.049997863548165856
0001e0 2c b2 74 39 b5 dd a7 bf e2 33 51 74 60 d0 94 3f
       -0.046613372100498957 0.020326144313276624
0001f0 92 2d 37 27 8a b1 b4 bf fa 7f 18 fa b0 df ac bf
       -0.08083404023562071 -0.05639412930418071
000200 42 97 39 3a 0f 8e b0 bf fb 9a e4 0c 42 bd 7b 3f
       -0.06466765567310254 0.0067722873775781746
000210 18 76 c3 7b bf a6 98 3f 6a 87 49 ee ac 1e b7 3f
       0.024073593071866822 0.09031182115134376
000220 60 a1 fc e5 c0 02 63 bf ba 59 f8 62 a6 93 a0 3f
       -0.0023206489130595392 0.032376479703248376
000230 ec b5 6f 06 da 5f 91 3f e6 5f 5e fa 90 ee 9c bf
       0.016967207568020656 -0.028253808289804193
000240 b1 5a a1 3e 20 72 a8 bf e7 33 e3 59 6c 9c 95 bf
       -0.04774571194200428 -0.02110451983098818
000250 c0 d3 e3 d8 f1 a7 a1 3f f1 42 7c 17 57 ab c3 bf
       0.03448444149572749 -0.15366638800380586
000260 2a e2 4d f0 4a a9 b9 bf 72 bb f3 f0 23 34 94 3f
       -0.10023945204546494 0.019730149823711192
000270 1e 2f ba 9f 9f 2b a8 bf 6e ab 20 86 6b f9 a4 3f
       -0.04720782112880627 0.040965423701286294
000280 2a 5d 2e 1b 3a f7 a2 bf 66 42 e0 c9 3a f6 aa 3f
       -0.037042442148214796 0.05265983309084703
000290 5d 21 46 02 c6 33 be 3f 5d 7b 81 d2 be 44 b5 bf
       0.11797750049129747 -0.08308022155095558
0002a0 29 d6 37 55 b6 a5 a7 3f 08 d8 8d 24 04 ae 9e 3f
       0.046186159041024695 0.02996069405659088
0002b0 00 11 04 89 4d db a4 bf e3 4c 9d 0e 43 2a ab bf
       -0.04073564813191588 -0.053056808027258894
0002c0 26 52 de f8 03 04 6c bf 3b 85 1c 8a 99 b1 bc bf
       -0.0034198834973244883 -0.11208495733128114
0002d0 5e a8 76 16 92 a1 7a 3f ac 23 b9 99 e2 83 d0 bf
       0.006501742034212025 -0.2580496312335139
0002e0 05 06 26 d7 08 3f a1 bf d4 89 80 f2 86 fc ab bf
       -0.033684040320633137 -0.054661004164035326
0002f0 0e af fd de 93 ba ac bf 38 d9 c7 8d 82 33 bc bf
       -0.056110974283766976 -0.11016097985689022
000300 85 a6 01 19 f4 3a bf bf b3 b6 ec 48 d7 58 a8 3f
       -0.12199330912121738 0.04755280270761144
000310 8e 7b 59 98 a4 70 a5 3f 2e 30 52 9c 95 d9 b7 3f
       0.04187502250419249 0.09316382471496418
000320 96 db 52 f1 27 04 8d 3f c5 5f 7f 75 a0 e3 a5 bf
       0.014168083240617507 -0.04275227960869147
000330 44 3b b5 50 17 6d c0 bf 29 4e 80 6f 3f f7 bf bf
       -0.12832919541184584 -0.1248664519519528
000340 24 16 40 c5 4a 6d c1 bf 90 73 70 d2 7b 7f c8 3f
       -0.136147829354898 0.19139049315790801
000350 1f 08 5f 69 c0 79 9f 3f 60 f8 8b c9 1d 90 a6 bf
       0.030737883025501952 -0.044068270542980015
000360 df 41 22 c9 ab 2b 8f bf a4 1e 5d ec ba f1 50 bf
       -0.015220014644257538 -0.001034195463448664
000370 52 21 67 cb af 8d d0 bf 9f 96 ef dc 19 4e 6f bf
       -0.25864786971626075 -0.0038214211594887605
000380 99 43 2c 62 01 9c 6a bf 52 75 67 31 e1 52 9c bf
       -0.003248217298626743 -0.02765991081274894
000390 4e 04 3c 43 6f c8 ab 3f 55 a5 11 a5 f3 63 a4 3f
       0.054263569791154084 0.039825071239486455
0003a0 30 65 92 4d 96 bc ab 3f 19 65 a8 9b 39 40 bd bf
       0.05417318055078579 -0.11426124620665624
0003b0 e0 a3 8b fc ca fa 63 bf c3 cf d6 ac f9 9e c3 bf
       -0.002438923318881056 -0.15328904094132953
0003c0 81 1c b0 61 da 47 94 bf 26 a3 1c 41 3d 84 a5 bf
       -0.019805347645185826 -0.042024530599809304
0003d0 58 25 e6 09 e2 14 8a bf 3b d6 0d b1 3c 86 97 3f
       -0.012735143591970186 0.022973011309167495
0003e0 30 be a9 ba f2 07 a9 3f e9 16 90 09 da 1e 80 3f
       0.048888764654176575 0.007871344963870057
0003f0 10 ff e8 42 f5 97 63 bf dd ab 55 75 27 c4 92 3f
       -0.00239179518328559 0.018326393639124795
000400 99 b5 95 e1 94 0e ab bf e0 18 49 ac a3 5a a6 3f
       -0.05284562352867823 0.04366027334303779
000410 20 86 d1 2e 4d f1 9c 3f be 64 0b 62 f3 a5 a0 bf
       0.02826424215562018 -0.032516103475879174
000420 5d 33 ec 8b d5 b2 b5 3f 0b 5d 62 b7 74 c8 a8 bf
       0.08476004282074485 -0.048404357324381385
000430 56 35 55 76 c6 bd a8 3f 73 73 b7 7c 62 82 8f 3f
       0.04832287020199526 0.015385407858895061
000440 5c 65 17 0d 86 ee 78 bf a0 95 46 5e f2 d4 8e 3f
       -0.006086848866709484 0.015054601194445294
000450 f7 25 53 e0 e2 89 a3 3f 8f 2c 53 c7 0c ef 83 bf
       0.03816136349048443 -0.009733295281327407
000460 bb b2 41 78 68 47 ba 3f ca 9c e1 90 65 e4 b5 3f
       0.10265210090592351 0.08551630770817834
000470 66 11 47 5f d2 29 9f 3f cf b7 98 2e f7 09 a3 3f
       0.030432974877628104 0.03718540614896392
000480 c1 ec 07 07 9b cc 93 bf 95 84 52 cd 60 8d 93 bf
       -0.019335195831428068 -0.01909400227726062
000490 91 5d b5 db d2 e9 b6 bf 4f aa 1b 4c 54 14 97 bf
       -0.08950536598182725 -0.022538487572925366
0004a0 62 b2 8b 45 b6 9c b2 bf fd 0e 86 7e 15 bd b1 3f
       -0.07270373533146704 0.06929144228893942
0004b0 d5 46 18 62 6a 4b ac bf 01 0f 2b 9a 58 7c 84 3f
       -0.055262875055758144 0.010002796368446367
0004c0 23 3b 88 6b fa c5 b4 3f 50 35 ae ee 1a c3 a8 3f
       0.0811459076432866 0.048363534580043166
0004d0 ea 74 d9 fe 88 46 bb 3f 87 db e8 f1 47 de 9a 3f
       0.10654503080282365 0.026238559856405465
0004e0 fe b5 e4 db 2b a6 94 bf 3f 7c 94 27 e0 2c b1 bf
       -0.020165143295505665 -0.06709099737462142
0004f0 41 f8 12 f0 a5 af ca bf 2d b6 e2 df 6e 23 ad bf
       -0.2084853574978656 -0.056910958127769674
000500 c6 fb 8c 8d 62 91 92 bf f7 2f b8 e2 60 ee a4 3f
       -0.018132724656648745 0.04088118331500817
000510 fc 4e 82 14 87 4c a7 3f a8 c5 84 1c 51 e4 9e 3f
       0.045505734685461235 0.030167834630622586
000520 fc 63 43 fc d9 f3 a8 bf c6 da 57 c6 71 c5 93 3f
       -0.04873543934235866 0.01930787823763571
000530 64 8d 1f 06 14 bb ac bf e5 cc 27 74 f3 50 bd bf
       -0.05611479353663176 -0.11451646409823331
000540 2c 0d 94 7f 7c b0 be bf 10 5d 82 8b 38 09 b8 bf
       -0.1198804675550959 -0.09389069944369433
000550 e0 29 5b 86 a0 17 b9 bf 1c e1 a1 fd 19 f7 9e 3f
       -0.0980167701738206 0.03023949251698453
000560 42 7f 4e 46 2a 63 a3 bf 73 38 73 f4 c1 c6 a7 3f
       -0.03786594494090291 0.04643827542314307
000570 b4 c0 87 d5 aa 61 b8 3f 81 7d d2 3b 22 c0 c0 3f
       0.09524028504506782 0.1308634559727402
000580 42 5e dd 69 7a e0 b7 bf 41 44 71 f0 5c f8 9b bf
       -0.09326901516521338 -0.0273146173242973
000590 a2 5f 1b 90 79 5c 9b bf b5 f6 6f a1 ab 53 4b 3f
       -0.026719951077069155 0.0008339489021406884
0005a0 81 dc a7 a6 97 89 b0 bf 49 7d ef 8f 8a 8b ac bf
       -0.06459949320547943 -0.05575211531663144
0005b0 92 cf 34 51 e5 d8 85 3f 5f aa 4f 9f ae f8 b1 3f
       0.010667602101058358 0.07020083798821862
0005c0 40 56 52 09 ec 7c 9f 3f 2b 2a de 5f 35 21 a8 bf
       0.030749977177569443 -0.04712836070310219
0005d0 cb c9 fc 5c 8a d5 b8 3f c8 c3 8a f1 c1 36 ae bf
       0.0970083691616203 -0.0590115172721038
0005e0 94 f2 49 67 b4 b7 8b bf 75 05 93 48 52 96 a0 3f
       -0.013533982660413536 0.03239686141888402
0005f0 3d c6 f2 ab bc 5c 9b 3f ee d4 2b c5 32 fa b0 bf
       0.02672095107545246 -0.06631772340536532
000600 f4 ed 1d 53 ab f5 b1 bf 56 d9 f8 89 98 13 93 3f
       -0.07015486506673324 0.01862943975557959
000610 d7 f2 4f 1d db 72 a8 bf de 28 11 8b f2 8f 9d 3f
       -0.04775128109756615 0.028869428384759803
000620 0d af dc 0b 9d 20 8e 3f 1f 06 be 22 af 2b b5 3f
       0.014710642742634695 0.08269781683159082
000630 70 7c f8 46 f0 32 ab bf 85 30 72 95 80 c1 a3 bf
       -0.05312300554600646 -0.03858568023960721
000640 bb e2 50 97 6e 39 aa 3f ce b9 09 70 9f e1 a0 bf
       0.051219421359240035 -0.03297136538172972
000650 96 35 6c c3 fb 03 96 bf bf 65 90 11 b7 7a 9b bf
       -0.02149957065835436 -0.026835308501267138
000660 47 df e6 37 cc 85 b3 3f de 79 ae 8c cb a9 bd 3f
       0.0762603413085091 0.11587211784942705
000670 3d 3a 0c 7e ba 89 9c bf 94 2a fb 5a 79 fd a6 bf
       -0.027869142478318166 -0.044902603489011345
000680 40 39 78 ec 44 6b a4 bf a9 7b 14 c6 8f 40 7f bf
       -0.03988089930145344 -0.007629930130206222
000690 e1 3c 29 0d cb eb 82 bf 9b 9c 4b 28 5c 06 a8 bf
       -0.009238802279610105 -0.04692352287184428
0006a0 cb fb a7 29 f7 25 a0 bf 3a f1 89 5d 3e 77 9b 3f
       -0.03153965362070429 0.026822065791280304
0006b0 f4 f9 f3 84 2a 8f 83 3f 47 2a 3d 75 dc 51 b2 bf
       0.009550411398319782 -0.07156160223272777
0006c0 14 f9 c5 18 5e 92 9f 3f cd 6f 42 8b ae cd a6 bf
       0.030831785451931173 -0.044537977694943366
0006d0 7a 95 0d b8 fc f5 c4 3f b6 1a 6b 91 fc e3 88 bf
       0.16375693308797762 -0.012153599918190632
0006e0 38 88 71 5c 4b c2 54 3f 69 02 07 62 d7 a2 b6 bf
       0.0012670265148462378 -0.08842226165052981
0006f0 f6 c4 ee 31 8f 10 83 3f 1f 6d 84 d0 31 4c 76 3f
       0.009308928214382988 0.005443758571597428
000700 ea aa 54 47 00 bd 82 bf 71 2d c2 87 d9 8f ab 3f
       -0.00914955346759912 0.05383186132629703
000710 ae f6 a0 30 cc 1d 9a 3f a1 3d e5 be c5 29 98 bf
       0.025504293888153277 -0.023596849228224696
000720 a3 aa 30 a0 1e 18 b7 3f b7 f9 14 fd 7b e1 c2 bf
       0.09021178637400822 -0.14750623567119955
000730 85 54 50 3a a4 b2 a6 bf ce 69 da 0a d5 3a 9f 3f
       -0.04433167659605267 0.030497864520478583
000740 50 ed b3 7c f7 10 51 3f ed 56 cf 37 9e d0 9d 3f
       0.0010416428438578436 0.029116127163283535
000750 37 72 ae 1b 3e 18 bb bf 37 38 83 83 14 0a 97 3f
       -0.1058386628705613 0.022499390150919587
000760 0a 8b 57 1f 23 81 b0 3f 7b db ec e1 00 10 7e bf
       0.0644704772489996 -0.007339480826707208
000770 c5 3d bb 8f 78 2d b4 3f 7a 2e 25 37 3a 58 b7 bf
       0.07881883153026255 -0.0911899933463988
000780 ab 5b b1 ac 9a d1 c0 bf a5 93 2a 40 72 44 cb bf
       -0.1313966124750697 -0.2130263150512778
000790 9b ec 66 da 9e 05 a0 bf 26 be 28 33 c0 45 a7 bf
       -0.03129288116493819 -0.045454031224263766
0007a0 99 fa 7d f6 f7 8c 81 3f fb fd 77 27 3f 3b 99 bf
       0.008569657525865625 -0.02464007070920891
0007b0 34 0f e8 59 32 43 bc bf c0 64 fb cf 3d 36 b4 bf
       -0.11040034003241034 -0.07895265891729064
0007c0 cf f7 29 1e df 38 a1 bf b9 c9 b7 6e 39 b1 a8 bf
       -0.03363702052318695 -0.048227114453669846
0007d0 12 bb 80 3d 8d 2c a7 3f dc 91 8c 5d e2 53 a4 bf
       0.04526177764670626 -0.039702485961502026
0007e0 a7 f1 8b 7a 6e 97 a0 bf 71 d3 ce 4c b9 75 98 3f
       -0.0324053310959898 0.02388658076570799
0007f0 ba 98 bb 21 81 b5 8e bf 61 71 bd 52 82 d6 96 bf
       -0.014994629709189734 -0.02230266218190147
