Data/Breast Cancer Winsconsin (Diagnostic)/results/models/model_15/bcw_state.pt (torch, 406575 bytes, 10 tensors)

linear_layers.0.weight f8 [256, 31]
0.09360366033816447 -0.16421651312108668 0.10221026153376214 -0.04787350368552288 0.06720493811600521 -0.18733127912675143 0.06052981319491816 0.128403902646026
0.05894595082298733 0.12869977336190055 0.20272483695851765 0.09838302616644275 -0.014729073686629532 -0.009078172206446177 -0.0013106122334474053 -0.06979886431530327
-0.10475411158505306 0.02168349036924321 0.018816235020795415 -0.25909645574710266 0.15285631732213348 -0.11707956741671033 -0.028252901908420853 0.19197011851462292
-0.01837539723536029 0.04399982727744329 0.1155562718899298 -0.050124155322426985 0.1563093760296268 0.07259706404694984 -0.0898005236867494 -0.04931427619041731
-0.06617998843531898 0.05637432128993204 0.03224671163531008 0.08006920219857212 -0.07867914106472429 0.06651108961596944 0.09951800533260835 0.08163486870248128
-0.16651414995960548 0.09368311224564124 0.026269592100989198 0.10491911634382019 -0.05127076107900132 -0.2071317377522615 -0.09324284731587108 0.06123282208068347
-0.07325437790914675 -0.09225475279773426 -0.3595790096128032 0.27596421342314975 0.36890410214155495 0.27043436296712886 0.1722537612475842 0.3494356635246163
-0.061336351621751745 0.24488142917749514 0.1992743030000298 0.41305715389780007 0.18869180168716285 0.20660288400823276 -0.1863091906928514 -0.20452161831217727
-0.23639616337573227 -0.03782921079165664 -0.06059754926180842 -0.16073644088624695 -0.1022416203054633 0.05756817451036169 -0.04390791049778105 -0.15243614850082984
0.25519107864328017 0.09167892802612823 0.14158427071086332 0.16491361304335864 -0.16468490918203832 -0.2670798406547288 -0.11399528905696507 -0.09432252865116249
-0.23007829535802782 -0.036914546407858795 0.08001586868740095 0.17522697738289245 -0.07567420647582684 0.12780285806492359 0.023981119578214163 -0.12575485120036503
0.1666156100923671 0.16938070594766746 0.10459204248467717 0.03927780553181809 -0.047401838885783434 -0.13501343074429412 0.08610800486455748 -0.12440006450775792
0.157641713430998 0.06904273605576802 -0.018265500902209027 -0.035480072566925314 0.1089902707709332 -0.06373544760655611 -0.08294291152633246 -0.004269858487681071
-0.11051399480442253 0.11610059015165054 -0.005712969118486835 -0.19770606130519763 -0.06692061288629436 -0.032677811388566215 -0.20105194164891965 -0.24528567901157264
-0.23628869017067222 0.33189979652843793 0.19684208374604284 -0.011564045270658834 0.1934418286602897 0.2206927506850432 -0.08377380185392455 0.20996099687390105
0.01240749468744644 0.22236038866546848 -0.10523535263105532 -0.1004800816637237 0.1476015091430145 0.1421262882356801 0.16138602746514194 -0.00833036399501839
0.24397983708513057 -0.013687474432416705 0.11250293477732047 0.14257821998290932 -0.05980568371086939 -0.2751963555761638 0.1364052402003923 0.04523577042372347
-0.021577551645434172 0.11644011667273498 0.2830913465174858 0.0819636112188134 -0.04645878052098508 0.15688992136662622 -0.06003529243052597 0.13265575104309874
0.2792821331481909 0.22537220565522995 0.20726844464262534 0.07559781510794626 0.24827357167806122 -0.0792425591013496 0.09213173671181703 0.27670715415050934
0.2691536449557828 0.04479669699722363 -0.12959354035443887 -0.08038934159709014 0.38176546769706926 0.02125641475520832 -0.11302969903155795 0.0699157371912055
0.14665899546972502 0.10792739331498043 0.10847928566802081 -0.013162128906759253 -0.06271292636290013 -0.13528621656880885 0.014364158733476027 0.06110515964543815
-0.21716225117188334 0.1661783671466458 -0.15599450439705329 -0.019002874965966813 -0.16876527963941368 0.005587992738624688 -0.009684310801663255 0.11923793411812962
-0.10811555003958011 0.08641912058376688 0.07858701733280414 -0.017880052191820896 0.18459909834674051 0.08123148556874597 -0.096404803705285 -0.005365450096195528
-0.020443774187027208 -0.3983222304443775 -0.1550903991472757 -0.17575882619389943 0.026977264517742572 0.1568786364902928 0.07352953413905769 0.24964778107932586
-0.08430390630440573 -0.10996993614295797 -0.09943921549849681 0.08803844731971036 -0.293540157105021 -0.2728006787249292 -0.17674248522443045 -0.18231649728409563
0.0014591816049468638 -0.12842726541962488 -0.352477269798357 0.04716323160603479 -0.06806967363244497 -0.000501231799746399 -0.17341622672261983 -0.24905007173604948
-0.13988782126021782 -0.07647862881196384 -0.00620248616017564 0.15166845013286745 -0.0008281538049867501 0.08446862157546167 -0.09444404957462611 -0.07052025061581063
-0.025497722856552312 -0.10477829996238205 -0.1439332934304434 -0.07503856077567829 0.08078400086430074 -0.17672332795064707 -0.1362952755958031 -0.056833211235677736
-0.19506575176935198 -0.16707701115921075 0.020822020829868438 0.04021023691192878 -0.18155219221519986 0.12707001234425358 0.1698908768359092 0.02695981468480385
0.1161816108853809 0.1244363748897863 0.08012200095676397 0.1736796549522571 0.06549666198865192 -0.10204710887672656 -0.29591482352141774 -0.20016312907098852
-0.03621893084050775 -0.011917406573601578 -0.051424404753695085 -0.2014510532578763 -0.05947800970421034 -0.10375724049814447 -0.19362027344326552 -0.295238875366411
0.11767558172741031 -0.061540556254379555 0.11458307952389485 0.06816565786328745 0.23029539300875115 0.18781496732129552 0.014535781584481587 0.18999111780707853
00000000: 0035 f0d3 68f6 b73f 81bb a8f4 0b05 c5bf
00000010: c265 9aa2 732a ba3f 1d38 5939 e082 a8bf
00000020: a583 56c3 5734 b13f e101 afaa 78fa c7bf
00000030: e5d7 3580 c3fd ae3f c18f 4501 8a6f c03f
00000040: aa5f 08e6 292e ae3f d5c5 cbf2 3b79 c03f
00000050: 2571 6930 e3f2 c93f 55cb dd47 a12f b93f
00000060: ab8c 46ce 462a 8ebf 1986 dfa5 9397 82bf
00000070: cb93 8b2b 1b79 55bf 3a3c 889f 56de b1bf
00000080: 451c 615b 2ad1 babf dd01 ff67 3234 963f
00000090: 7a52 3128 9044 933f 4f5f fc4c 0995 d0bf
000000a0: 155a f1b9 cb90 c33f 38a8 1531 edf8 bdbf
000000b0: d5e4 da26 54ee 9cbf ae2e 6a12 7a92 c83f
000000c0: 5c20 b508 00d1 92bf 795e 5f36 2587 a63f
000000d0: 396c 9d88 1895 bd3f e1ea b28f dfa9 a9bf
000000e0: 307e 0d15 f201 c43f 3505 de9f b895 b23f
000000f0: 80f4 65c8 2afd b6bf 2471 ed86 b83f a9bf
00000100: e5b6 faf5 2bf1 b0bf 5285 8c54 18dd ac3f
00000110: 4a20 c117 a482 a03f e513 dc4c 6a7f b43f
00000120: b017 c0f1 5024 b4bf 5acf b8ea de06 b13f
00000130: e046 4412 037a b93f 6158 4ad3 05e6 b43f
00000140: 51e9 32ee 5550 c5bf a453 48cf 9dfb b73f
00000150: 78e1 cf7b 6ae6 9a3f 6503 6cad fadb ba3f
00000160: 0293 2644 2940 aabf c207 cef3 4a83 cabf
00000170: 11be ce63 c3de b7bf 3f80 8e90 e859 af3f
00000180: ad9a 6885 ccc0 b2bf 94b5 2aea 019e b7bf
00000190: 225d a7ad 5703 d7bf e533 e1cd 65a9 d13f
000001a0: e9b9 83f3 1f9c d73f 6c23 2aee cb4e d13f
000001b0: 55ef 9547 690c c63f 003c b966 275d d63f
000001c0: 5cf2 8a70 7a67 afbf cd87 db50 4658 cf3f
000001d0: ccbe 2803 d281 c93f 48ac d745 876f da3f
000001e0: f184 a28e 0d27 c83f d78d 099b f671 ca3f
000001f0: c229 7cc4 fad8 c7bf e3e6 fcae c32d cabf
00000200: 56a0 4cbf 3a42 cebf 1908 5eae 595e a3bf
00000210: b62c 9858 a406 afbf 0ce1 70fe 0293 c4bf
00000220: 0484 80bf 812c babf 13f6 9f65 9379 ad3f
00000230: fa50 3fff 187b a6bf 9706 4518 0783 c3bf
00000240: 1e3f 40f6 0c55 d03f 5ac4 9a2d 4578 b73f
00000250: bc63 2af2 6e1f c23f c1dc 57a7 e31b c53f
00000260: 5e71 8a25 6514 c5bf e01b 420b d617 d1bf
00000270: bed1 6596 cb2e bdbf 2530 d56f 8525 b8bf
00000280: 2884 0aa1 3473 cdbf f808 23a3 76e6 a2bf
00000290: 1765 2c83 eb7b b43f 2644 9e6c d66d c63f
000002a0: bce4 f681 625f b3bf d2b1 dc13 d85b c03f
000002b0: 2755 3db1 818e 983f 6105 9c26 bc18 c0bf
000002c0: 63c6 2c0a a953 c53f 162f 4f58 44ae c53f
000002d0: 73be e449 8bc6 ba3f 5884 6f74 381c a43f
000002e0: 52c4 91c7 0d45 a8bf faa3 c8be 1e48 c1bf
000002f0: 5f2c d198 2c0b b63f 445d aec0 aed8 bfbf
00000300: 09f5 d589 9a2d c43f 46c9 62e5 c8ac b13f
00000310: 0287 1404 31b4 92bf 6057 abae 712a a2bf
00000320: 8418 8b50 c9e6 bb3f 9eea 105f f750 b0bf
00000330: 6ecc 7024 bf3b b5bf 399d 0269 457d 71bf
00000340: 6470 6f29 a54a bcbf 4165 bfad c4b8 bd3f
00000350: 766c 6e78 7b66 77bf 046e c3a5 6e4e c9bf
00000360: 8860 c693 b521 b1bf c5ff 6f66 25bb a0bf
00000370: eaf6 16ed 11bc c9bf ed13 c468 8565 cfbf
00000380: b04e 5932 b53e cebf 62e0 e8a4 d83d d53f
00000390: 3437 1514 1f32 c93f 56bd f9e1 e3ae 87bf
000003a0: e01e e3ab b3c2 c83f 9309 54f9 a83f cc3f
000003b0: 8664 392b 3372 b5bf b525 817f 00e0 ca3f
000003c0: 9954 43bf 1969 893f 943c 9f22 4e76 cc3f
000003d0: f8f3 ee3d b4f0 babf 7125 a508 10b9 b9bf
000003e0: d803 4e33 9be4 c23f 05e3 efb7 3131 c23f
000003f0: 0f40 ff1e 4ca8 c43f b508 6187 820f 81bf
00000400: 63ff 9436 bb3a cf3f 88a1 6ab8 2d08 8cbf
00000410: bb96 9209 fecc bc3f 1868 f9cb 0040 c23f
00000420: a463 4ebf d99e aebf 8764 cb2c d19c d1bf
00000430: 6ef4 d416 ba75 c13f 4a94 2895 2429 a73f
00000440: 3e5e 94fa 6c18 96bf 2544 0dfd 04cf bd3f
00000450: 64af c42a 2b1e d23f c498 a535 91fb b43f
00000460: 823b e6fd 71c9 a7bf e2bb ab0c f814 c43f
00000470: 7197 3023 f2bc aebf 669f 2d18 ddfa c03f
00000480: 57a1 0e2b c2df d13f 83b9 5b16 ffd8 cc3f
00000490: 6ece 9dbb c587 ca3f a7a5 89df 605a b33f
000004a0: d5c0 68ab 6dc7 cf3f 29a9 ca87 3d49 b4bf
000004b0: fdd6 190c f295 b73f a152 69ec 91b5 d13f
000004c0: 49cb ab35 d039 d13f abcf 24b9 97ef a63f
000004d0: 922e cc68 8596 c0bf eb41 1b59 6594 b4bf
000004e0: 5111 a06d d86e d83f 3ab9 d0d8 3dc4 953f
000004f0: 3b38 d1ac 83ef bcbf ea42 b66c ffe5 b13f
00000500: 8774 9ad2 b8c5 c23f ed5f a130 21a1 bb3f
00000510: c2d2 3c68 4cc5 bb3f b425 9a09 bff4 8abf
00000520: 66de c34f f40d b0bf 1e9d e109 0f51 c1bf
00000530: a56a f5bf f46a 8d3f 3d89 96ec 2c49 af3f
00000540: bfbf 5aff f8cb cbbf 7c48 192e 5545 c53f
00000550: 73db 5ebf a0f7 c3bf 1104 095a 7d75 93bf
00000560: a833 60c6 199a c5bf 2fbb 0061 6fe3 763f
00000570: 5a67 6b31 5ed5 83bf 45df 7a93 6086 be3f
00000580: 93ea 9bef 75ad bbbf 2807 a840 901f b63f
00000590: f7a6 555d 471e b43f 6798 a8fd 254f 92bf
000005a0: 719a 2279 f1a0 c73f c35a ec2d 96cb b43f
000005b0: 756c 1737 fcad b8bf 2c4d 100b 15fa 75bf
000005c0: 930d 2976 36ef 94bf edd0 4186 1c7e d9bf
000005d0: e36c 2190 00da c3bf 0a3a 3ee5 437f c6bf
000005e0: 3063 5b93 ed9f 9b3f 515c 9562 9914 c43f
000005f0: a6d8 6ae0 d4d2 b23f 1999 a05f 75f4 cf3f
00000600: eea1 80d8 f094 b5bf 6cf7 465f fd26 bcbf
00000610: 4b85 8132 d974 b9bf ca5d 070c b089 b63f
00000620: 860a b5a7 5cc9 d2bf a6cf 5cfa 9075 d1bf
00000630: 0325 ed6c 7f9f c6bf 99a0 ada0 2556 c7bf
00000640: 5042 6b51 40e8 573f 132d 72fc 4d70 c0bf
00000650: 0982 97d2 fc8e d6bf d6a7 a472 c725 a83f
00000660: 67ca 199e 036d b1bf 0121 0418 a36c 40bf
00000670: a147 2fbf 8032 c6bf de1d 966c dfe0 cfbf
00000680: 1cee b518 d8e7 c1bf 6d1e 9779 1a94 b3bf
00000690: acb9 6333 c767 79bf 14ed 932c df69 c33f
000006a0: 4abe 15c1 0e23 4bbf 4a6e 344f bc9f b53f
000006b0: ed8d 3938 7c2d b8bf ecc2 197a 9d0d b2bf
000006c0: 4b5b 2a37 131c 9abf 9e3d ab2b c0d2 babf
000006d0: 096f 0bfa 676c c2bf 316f 7824 ba35 b3bf
000006e0: aa90 c0a1 42ae b43f 0181 feb8 de9e c6bf
000006f0: 8f42 a4a3 1f72 c1bf 5ef4 2a1f 3e19 adbf
00000700: 7aa2 3520 eaf7 c8bf 6ece 6b8d c762 c5bf
00000710: 0df0 002a 5e52 953f 3a96 00a9 6f96 a43f
00000720: f66a 0a2c 1a3d c7bf c612 a985 d443 c03f
00000730: 3c12 f3f7 fbbe c53f 1083 8289 5a9b 9b3f
00000740: 1639 26fb 13be bd3f 0f9d 95f0 0fdb bf3f
00000750: 4ca4 cc1d e082 b43f ab10 008b 223b c63f
00000760: 8209 3da5 63c4 b03f 63e2 4663 c21f babf
00000770: 3c45 5bba 44f0 d2bf 43ca 9c06 f29e c9bf
00000780: 8f81 e9a6 498b a2bf 62df e43b 2768 88bf
00000790: 584b 44b1 4c54 aabf ed60 beea 25c9 c9bf
000007a0: 8e81 05d5 e673 aebf 26a9 a9a2 d58f babf
000007b0: 0105 2493 8cc8 c8bf 3438 8d98 31e5 d2bf
000007c0: b797 0ea7 fc1f be3f 9afc fa68 3e82 afbf
000007d0: 8ce7 3a13 5155 bd3f 61af 3bf7 4d73 b13f
000007e0: cd2e b2c6 517a cd3f 2311 2c23 520a c83f
000007f0: 1999 3794 efc4 8d3f 7785 c102 a151 c83f

linear_layers.1.weight f8 [128, 257]
0.025302728251727517 -0.03197287475786025 -0.01988657038663673 -0.05898475856145332 -0.060673668645131136 -0.021277162512065673 -0.0012650141594900603 0.013946123705296638
-0.052405993351283715 0.029269329591594635 0.0026119485772511763 -0.037057860173316685 0.0053591654836780385 -0.006457024902529133 -0.04907308554139959 0.0019165794428621938
0.020118117856562593 0.032213680991298274 0.031037723372602636 -0.013909423101821103 0.04253683385871733 0.04828346408870364 -0.03472511154715937 -0.0059430466232769374
-0.08131499732340032 0.05903641962363112 -0.11490915112146109 -0.022246879216541043 0.04365424464278772 0.02087079580952309 -0.14124256500864282 -0.03072219649987301
0.006909845723499218 -0.050275425136832655 0.013849348541177359 -0.010518536846233623 -0.030902928581575766 0.03875406524600439 -0.023657748128070557 0.03302455087288854
0.02028576994261676 -0.025073756219244552 -0.029859246982976137 0.02245120914133967 0.010718165853650891 0.006137315048300058 -0.04569224600036181 -0.12036539429992033
0.03862292532993181 -0.06614819952885162 0.04851281541089384 -0.0034786163482743485 -0.01931100130641617 0.04569987268348765 0.0005293405390548893 -0.01778510416034579
0.02846510683300298 0.006423001886613121 0.0408617346757484 -0.06638671923703937 -0.037698640425298885 -0.034689061429685426 -0.016392336816359647 0.03546069461137213
0.009096586956967745 -0.04154016268918804 -0.017619120806257205 -0.03508655735533158 -0.15360016537481033 -0.045195328545656575 -0.057785074793885685 -0.027207845387451007
0.01243729058891157 -0.02075570003946583 -0.03705373166223368 -0.013152083160321532 -0.017632831282081284 -0.06367466033355328 -0.03889611905959493 -0.021873475939034576
-0.0007801447908664492 -0.08186726027133248 -0.05020856577009459 -0.0699796160724173 -0.0005200550289615199 -0.020676968938449107 0.012245860883274654 -0.002041609065807785
-0.0021411062404520587 -0.05569914631151916 0.010375053779313102 -0.06925690042818786 -0.05618623458411205 0.026262374502993534 -0.02928561289273976 0.032259228268514115
0.013854820648660733 -0.04976953659459841 0.03633914672493507 -0.001264866079125189 -0.006944757084045143 0.028630914548282115 -0.015292271301966363 -0.011712616822194112
0.03802197875903247 -0.014821608849434398 -0.052826864267442264 0.041541629904385924 -0.010068321610764434 0.005959874851796304 -0.044255872947722166 -0.0061478748288821715
-0.06463558277867221 0.03600624500003132 -0.06012828063166409 -0.006652910595378863 0.02844487722884922 0.010945842159312888 -0.04343665276912192 -0.0598154131683927
-0.0752665920995788 0.010486988404014307 -0.015255534306741364 0.04212274561523657 -0.10525733742191457 -0.042218695870759146 0.00805453018939983 0.026327957866422277
-0.04068775571964223 0.022879570239035227 0.042030455888838004 -0.003182759070554768 -0.050147035464302485 0.008683146670129618 0.0401094455391682 0.04599158052594969
0.03839264306104243 -0.04655412671863353 0.020222896000986288 0.03126943878138912 -0.04845750656157804 -0.006104569602753769 0.025920930645594555 -0.06923591705265257
0.005934928070724445 -0.03811596464591453 -0.07888148230395337 0.016408995035375285 -0.08386133229613989 -0.1173544522192389 0.04699568023713548 0.0417526076903002
-0.009046380040082718 0.0408583669873247 -0.08457919626451163 0.0038353199697224644 0.0013070125793800524 -0.06582966407866914 -0.05309330284079178 -0.019234265196817372
0.045313330156833094 -0.0728098483840694 -0.02677322364237289 -0.011692355868989776 -0.02059280639438746 -0.03954435192009597 -0.025769283216130534 -0.04609796750302119
0.05882056050798304 -0.036161345902747354 0.013675365470638882 0.041831457183521784 0.024842629542184774 0.012066424450017783 -0.00025849919084847595 -0.0005093595073605856
-0.016866738501011225 -0.05094294295846315 -0.014652080157158779 -0.009435124974138264 -0.02603120507486719 -0.00472098114814984 -0.05674464531500945 -0.07116515968471776
0.03717942605645813 -0.05928730000318301 0.04450376444763266 0.03260850948898094 0.04971154505004822 -0.02323444749830149 -0.04657308526545653 0.0262566416230696
-0.059599768142484 -0.0388020077256897 0.03800105816130687 0.01163352383714137 -0.058680319829602846 0.02600715815570206 0.00947170348027745 -0.001465615198489474
-0.0036140647059244254 -0.04521103970016439 0.04206344998728415 -0.02710650254857966 -0.04715597957417829 -0.033521290050566484 -0.03901334904024689 0.027937306335474154
-0.0055536062607550694 0.0005975502157640638 -0.036211053069064886 -0.02139832797164551 -0.0002809113443707508 -0.05216649206205885 0.00021522486961996932 -0.009746730318573768
-0.0642629312090864 0.022219965529321786 -0.01392179325385594 -0.08618123498381922 0.03173759380908702 0.025837312525078548 0.010651660673449229 0.004510205571748799
0.036213444514335925 -0.033074071288937114 -0.012142761849520262 0.008190945550270239 -0.10490166585120514 0.03891921950572291 0.02423791527823824 -0.035488575506909426
0.013960814223244425 -0.02055367541843294 0.003814786267190809 -0.06941973128764563 0.0363340889127908 0.0374770176945173 -0.01560272051194357 0.035566663447079906
0.062268673174829266 -0.02294195288913085 0.008653299030311356 -0.051189852536091 0.03909325959315097 0.02106640413718491 0.009558080813983787 -0.0498095885396123
0.04752712576271749 0.0490813188057081 -0.012321587391204305 0.013117904472487688 -0.02678307056426804 -0.024267897178137106 -0.0030384208150885357 0.02368441729636511
00000000: 3eec 5c59 f5e8 993f df62 e3a6 bf5e a0bf
00000010: 94c5 c225 255d 94bf 7bc1 f711 4033 aebf
00000020: b14c 1e7d 9e10 afbf 1d62 9034 aec9 95bf
00000030: 5947 6a9c dab9 54bf 6402 c309 c98f 8c3f
00000040: c1c6 1d57 f5d4 aabf 75aa 7c75 c7f8 9d3f
00000050: 97e6 fa36 a765 653f 1f1e 0273 3ff9 a2bf
00000060: 3dad c707 7ef3 753f 37b8 926c ae72 7abf
00000070: f53a 0783 1b20 a9bf 84f0 be81 b766 5f3f
00000080: c108 0109 d899 943f 5ecc aec4 4f7e a03f
00000090: 717c 4f5b 5ac8 9f3f 0bde a02a 8b7c 8cbf
000000a0: 02df 984c 63c7 a53f 4eab 6536 9cb8 a83f
000000b0: 3bd7 e364 7dc7 a1bf 8053 2b6e bc57 78bf
000000c0: 29a7 2d46 0fd1 b4bf 2be4 1c87 053a ae3f
000000d0: 83ea 13a6 af6a bdbf ab42 b1ca e2c7 96bf
000000e0: e80b 2562 d959 a63f 7909 c665 275f 953f
000000f0: 87f4 c182 3c14 c2bf d0b7 e9b4 a375 9fbf
00000100: b202 7296 7f4d 7c3f 9aa8 8255 b3bd a9bf
00000110: 3d2d 7118 0c5d 8c3f 4afe 0c1e be8a 85bf
00000120: 6b18 6f6e 04a5 9fbf a824 a3a5 92d7 a33f
00000130: e73c 079a bc39 98bf 5aa4 ed0b 98e8 a03f
00000140: 1d2f e9f9 cac5 943f 1b52 cc4b efac 99bf
00000150: bcab 1925 6c93 9ebf 9a22 1224 73fd 963f
00000160: aa2a 84de 67f3 853f 7be3 aef6 7023 793f
00000170: cf32 815c f964 a7bf 009b 1638 44d0 bebf
00000180: edf7 5552 62c6 a33f 566b aaa1 16ef b0bf
00000190: 65db 40f7 abd6 a83f 8bfa 6fee 2f7f 6cbf
000001a0: c29b 415c 43c6 93bf 43c1 3645 f965 a73f
000001b0: 933d df26 6e58 413f b107 e622 4236 92bf
000001c0: 6517 b3fb f425 9d3f d8ee b870 014f 7a3f
000001d0: 922a 2e4c d4eb a43f 8406 0354 b8fe b0bf
000001e0: ccec 7577 3c4d a3bf 7126 bdc0 c3c2 a1bf
000001f0: 3e08 201a 27c9 90bf 4f6f 4c77 e727 a23f
00000200: a017 e23b 3ba1 823f 21f0 7090 c044 a5bf
00000210: edad 962e bf0a 92bf 1ba2 bd80 ddf6 a1bf
00000220: d3f5 7893 2ba9 c3bf 4336 1294 d723 a7bf
00000230: fa90 df5c 0196 adbf 9bef 8898 5fdc 9bbf
00000240: 5d4c a4e2 b878 893f 0618 8073 fb40 95bf
00000250: 3e3c 5eeb b4f8 a2bf ea00 62b8 7aef 8abf
00000260: 060b c546 570e 92bf d76d b787 fb4c b0bf
00000270: c6c4 9a2e 31ea a3bf 6863 3b1f 0066 96bf
00000280: 6509 742e 5490 49bf 867e 7ab5 40f5 b4bf
00000290: a159 ece7 efb4 a9bf 4fec 6a22 2fea b1bf
000002a0: 079a b6ab 890a 41bf aef3 7be5 572c 95bf
000002b0: 554d 0aa0 5b14 893f 5550 6785 90b9 60bf
000002c0: 12c9 f5a8 398a 61bf 8e6c a537 9984 acbf
000002d0: ac3f 6925 843f 853f 6684 5cfa d1ba b1bf
000002e0: ca5c 0c30 71c4 acbf 8632 6c1e 86e4 9a3f
000002f0: d874 7836 0cfd 9dbf 7e9f d014 4884 a03f
00000300: c4a0 9f8c ea5f 8c3f 7591 0588 647b a9bf
00000310: 6c0c 7f6d 0b9b a23f 20f7 649c 3bb9 54bf
00000320: 52cc df08 1b72 7cbf f6c9 8e26 6c51 9d3f
00000330: 1ff0 fce8 8d51 8fbf 677f 9dd1 c8fc 87bf
00000340: 7137 99e6 9d77 a33f 0068 42aa ca5a 8ebf
00000350: 98fe c16c 1f0c abbf 7047 b9cb f144 a53f
00000360: 82ca 5940 b39e 84bf a03c 3ab9 6169 783f
00000370: b2cb eead b4a8 a6bf 337a 4795 832e 79bf
00000380: 703a 3122 f58b b0bf fb2b 7419 696f a23f
00000390: e062 c14d 22c9 aebf 79c5 e216 1540 7bbf
000003a0: 371f bf65 a720 9d3f e5b8 cf10 c66a 863f
000003b0: e3a2 2e36 543d a6bf 34bf b536 20a0 aebf
000003c0: 638f 8cdf ab44 b3bf c686 d4c1 337a 853f
000003d0: 1d95 7127 4b3e 8fbf 349b abcd 1c91 a53f
000003e0: 1023 e415 25f2 babf 66e0 165c b09d a5bf
000003f0: be24 fcbd e47e 803f 5fe9 0658 b7f5 9a3f
00000400: 50b6 5388 06d5 a4bf 0959 b1f7 bd6d 973f
00000410: dd01 f512 0485 a53f 0a81 cfc3 ba12 6abf
00000420: f7fd 9e4a dfac a9bf 8eef cb37 78c8 813f
00000430: 63ed b3a9 3989 a43f e627 805c 358c a73f
00000440: e556 b554 33a8 a33f 9a30 8047 f1d5 a7bf
00000450: 898e d193 4fb5 943f 9255 dc41 8c02 a03f
00000460: 47f9 da1b 6ccf a8bf 22bb ccec 1a01 79bf
00000470: 076d 9e35 048b 9a3f 4b20 73ef 71b9 b1bf
00000480: 4f69 7c1f 394f 783f f629 388b ef83 a3bf
00000490: 4c67 c1aa 9331 b4bf 1d0e 2604 85cd 903f
000004a0: 8f64 9caf ef77 b5bf 1056 52fe f00a bebf
000004b0: 4bf2 575b d10f a83f d0e8 1a09 9960 a53f
000004c0: 36d0 5a93 e886 82bf 5001 f54b 63eb a43f
000004d0: 6ac7 e071 fba6 b5bf 6d71 deba 3f6b 6f3f
000004e0: 3862 2b12 026a 553f b415 537e 36da b0bf
000004f0: 58f7 ac9e 0b2f abbf 0183 eeaf 25b2 93bf
00000500: b961 310e 4f33 a73f 54e4 a28d aaa3 b2bf
00000510: 6058 cf9f 706a 9bbf cb64 9070 29f2 87bf
00000520: 08ad fcd7 4716 95bf ff05 7a44 283f a4bf
00000530: 905a 9e52 4363 9abf efd2 ac1d 279a a7bf
00000540: 84a8 6d7f ba1d ae3f 9333 106c bd83 a2bf
00000550: 4f6e a87b d401 8c3f 3231 18c9 ee6a a53f
00000560: a8a7 b8a5 5870 993f 2acd 2313 48b6 883f
00000570: 56cc 1b92 e5f0 30bf 06d6 8736 d1b0 40bf
00000580: 7013 02a9 8345 91bf 62eb ef83 3115 aabf
00000590: 7537 bfe8 e801 8ebf 93ad 9409 b952 83bf
000005a0: 365a e399 eca7 9abf c16e 2eba 4e56 73bf
000005b0: 71c1 b357 a20d adbf 0ce2 7541 e137 b2bf
000005c0: 383a fe85 2e09 a33f 3ae3 29ad e75a aebf
000005d0: d9f3 b389 32c9 a63f 3b28 a703 10b2 a03f
000005e0: 197a 72a8 ca73 a93f 7c55 9560 c5ca 97bf
000005f0: 8c8b 2d6c 6dd8 a7bf 3aa6 4b64 05e3 9a3f
00000600: 5dd4 0a5e dc83 aebf 68e6 6654 dbdd a3bf
00000610: 454c 08ec df74 a33f d491 5723 51d3 873f
00000620: 9d86 2ccd 580b aebf 576a f6d6 9ea1 9a3f
00000630: ad4a 7b85 e665 833f ec66 2556 3c03 58bf
00000640: 355c f636 3e9b 6dbf a258 dcc1 e625 a7bf
00000650: 4dc9 1a2c 5789 a53f 3003 d297 cec1 9bbf
00000660: 02f4 291c d424 a8bf b14c f9d8 b329 a1bf
00000670: 6078 78c4 8ef9 a3bf 3360 32e4 989b 9c3f
00000680: fca2 3cd4 60bf 76bf 94d1 3451 9d94 433f
00000690: bce6 5e51 418a a2bf 9827 4f7b 71e9 95bf
000006a0: 2284 8209 e968 32bf 4609 b502 91b5 aabf
000006b0: 70ab 778d bf35 2c3f c58c b0ff 17f6 83bf
000006c0: 155c e313 8973 b0bf b715 11a5 d4c0 963f
000006d0: 59dd d075 0783 8cbf 16ce c831 f90f b6bf
000006e0: 0f72 edee e83f a03f b339 3fb1 1875 9a3f
000006f0: 75a7 ecb1 89d0 853f 3ac4 dc16 4b79 723f
00000700: adaa ba8f 918a a23f 4d28 10ad 15ef a0bf
00000710: 10e6 36e8 4dde 88bf 8904 181a 6ac6 803f
00000720: fc78 20e8 d5da babf 8804 ed4d 38ed a33f
00000730: d9e3 c5f5 d2d1 983f 601b 5efe 8e2b a2bf
00000740: 286c 1dc4 7c97 8c3f 2e67 f0ce 050c 95bf
00000750: 3a35 48c8 2f40 6f3f 0dda 93d3 7dc5 b1bf
00000760: 6485 38b7 619a a23f 33fa b20a 3030 a33f
00000770: 8791 9eb2 51f4 8fbf 1d85 aa30 cb35 a23f
00000780: 09d1 b3f5 ade1 af3f 4bf4 7565 187e 97bf
00000790: d999 b322 d2b8 813f 4224 0f6d 8e35 aabf
000007a0: 99ab e41e 0804 a43f 8f0d 4173 6e92 953f
000007b0: 3c95 11e4 2f93 833f 7615 9c73 a480 a9bf
000007c0: a6c2 a5b5 7955 a83f f1e9 3ac6 2f21 a93f
000007d0: 5b4c 0a77 0f3c 89bf a870 9c55 8fdd 8a3f
000007e0: d0d4 a370 056d 9bbf f222 e402 afd9 98bf
000007f0: fa86 08c1 07e4 68bf 4fcf d956 ba40 983f

linear_layers.2.weight f8 [64, 129]
-0.05556665462646187 0.0105484477290377 -0.03061023302686496 0.013295037024415568 0.02180294322959062 0.02946235082629093 0.04999472346624659 -0.05474882899835727
0.0006358201346108946 0.06063038306985643 -0.09110079203104496 -0.11547965865381785 -0.045574289734590795 0.07798194756825812 0.03865133824474501 -0.08878819706039898
0.011362944533519924 0.08565124990976698 0.049908306055843434 0.09445744468350947 -0.01240463496733433 -0.030468003788668662 0.03987727671201631 0.1596397187044495
-0.07350536902141608 0.07327850288869879 -0.0497163043891558 0.04825669640585123 -0.018750024672850907 -0.05607530447677786 0.027409783293717484 0.115139198992536
-0.08948997977957715 0.07114741931272497 0.0393554227708293 0.003991805581780798 -0.0883994145083275 -0.03835063912940102 -0.06456685259631668 -0.052078751567004235
-0.030067759529246552 0.026523282294930357 -0.09729853804716687 0.24901954693738565 -0.02672343892858976 -0.06764767427340644 0.039871846493113684 0.03532593927346266
0.06686834607182218 0.07147860652940043 -0.08815866005168205 0.023528319798367912 0.08156728375728596 -0.027048975077336352 -0.008180786459159553 0.09917010514813293
-0.012414550982807606 -0.058898154923453024 0.042574687612639786 -0.09146338997228555 0.1957123524684674 -0.009794479242442757 0.09942231591307232 -0.07289489650465605
0.031661339209751824 -0.11830260791562697 0.033715597517363395 0.05589524929467237 0.10550821077790362 -0.04060859231880296 -0.28600285584694535 0.12566579193840566
-0.03967548784098421 0.025932121231680687 0.08757906660151084 -0.05986326354745926 0.11380655222691966 -0.21460353159008344 -0.03322571466564734 -0.09838953539607705
-0.0021448334924692417 -0.19848060786765234 0.034149457471576015 -0.11146451450871239 -0.026891361198843187 0.022501506413059258 -0.006380287050937601 0.03854491756648109
-0.02175752586224634 -0.06099360882831232 -0.022474548636081483 0.06841378817931168 0.07383447912938639 -0.020383094192243857 -0.0711683889393273 -0.0474556967688403
0.017215905770594307 0.04277061673330526 0.008352837703184207 -0.0016004385884097398 0.048032723241112595 -0.022212331683482946 -0.11425031939718135 -0.04269015809346677
0.07065661089782946 0.018628038855427593 0.015171637239833176 -0.0060867684649440765 -0.05209250838125596 -0.13262617184548914 0.06683004724588981 -0.0783836554840824
0.05595150577232965 0.008128731673262847 -0.23911864201040234 0.11985580890736149 -0.1853883953082336 0.06203177211821092 -0.021981523195619943 8.198097884511238e-05
-0.05309532959998831 0.08236936751527685 -0.07210280664778379 -0.0277887338198154 0.015384964386523245 -1.2212571211248548e-05 0.16728672287403 -0.12931346082027753
0.20050893235597703 0.07731009690269745 -0.03159542533351254 -0.1368307001557376 0.011069330600999678 -0.0810050159340697 0.013381886172878308 0.0811922448360444
-0.025202153346889508 -0.10146556461834567 -0.08078778845618872 -0.002321439872544693 -0.06286738771935661 -0.1033187949632793 -0.0050326163606255175 -0.00765978107335447
-0.06442015407487173 -0.033055763068654494 -0.07990111011435226 0.020351745520273863 -0.0011470004740275486 -0.07440481343009145 -0.03307422411484088 -0.08365394216231639
-0.04556967867034058 0.010390920364112802 0.05938790004729718 -0.1400267098115599 -0.10317849184680904 0.025175230983166225 -0.009155098952439997 -0.05124763904665968
0.237766817484098 0.0015404766443203077 0.04381726920229474 -0.02954390425920796 -0.04679847465259642 -0.13902649295179914 0.04745531378287287 -0.02916924275898127
0.023693988467273584 -0.06881784028805785 -0.037675446438608116 -0.02589671777964245 -0.04107610388568398 -0.007304057647097445 -0.029143467279408516 -0.030803489348765766
-0.07519040367222028 0.03354138315991291 0.02697178585546545 -0.12892956145270212 0.0070624224551426576 -0.0006879389164241393 -0.015692904899085477 -0.01741523007339216
-0.043106723358105475 -0.05145266354287366 -0.04151338206479852 -0.091678752096284 -0.144665617473614 -0.09253299105741684 -0.04386580366747463 0.040143700914397125
-0.013519735546360148 -0.009827129971898723 -0.0737718334023954 -0.04993374564402504 -0.00027617093423680435 -0.010008070887371663 -0.0211383743734624 -0.15959063987245012
-0.09217031696551987 0.07960853386093966 -0.009649625738600169 -0.033076692058191755 0.1696601777662741 -0.02734936680288223 -0.022642099975258442 -0.018874478510248788
-0.009406651374663573 0.07561426395074596 -0.04110541054323923 0.0030395019095745073 0.031169373387975114 -0.039563269919207646 -0.0189487437298546 -0.1181363907644521
0.021002711527097376 -0.02020187191101108 0.024697481927031976 -0.2599998172994771 -0.003485312677543677 0.021620625019945664 0.04463249428507791 -0.0788955226187087
-0.2427694193931552 0.016923545987200132 -0.024217629695313807 -0.02049989749299868 0.04212168397185888 -0.05820254765725574 0.03410438370234439 0.03480548764467548
0.10863323590347534 -0.017516449813467505 -0.10575537360235399 0.0558767742243144 -0.07102206974800987 -0.04909077491499019 -0.13633374165757994 0.016991813170866774
-0.05838172194397849 0.03178731337697418 -0.048715667594952314 -0.10736418670746328 -0.06078538614949499 -0.09575602395564052 -0.03739168909612007 -0.03738135962711535
0.017476628301881056 -0.046261566114811435 -0.0749988308253229 -0.013013400532258496 0.0470496300191327 -0.05952156212911052 0.025084507138344907 0.1679235475018946
00000000: d7d0 bc88 3b73 acbf ac83 28b0 6c9a 853f
00000010: 45e2 17f7 4958 9fbf 7375 c0a9 6d3a 8b3f
00000020: 19b3 82c0 8253 963f aa7d 0ce5 602b 9e3f
00000030: e42a 858c e898 a93f 9aa0 15dc 0908 acbf
00000040: 45e2 9657 a5d5 443f fba3 db10 f20a af3f
00000050: b2bc 69aa 6152 b7bf e279 452d 1390 bdbf
00000060: 44a1 e567 8355 a7bf 0deb 7bfa 9ff6 b33f
00000070: 9466 6ab3 1bca a33f f02c a5c2 d2ba b6bf
00000080: f907 4399 7445 873f 3d56 3985 3ded b53f
00000090: a501 9edc 948d a93f e886 c7f3 5c2e b83f
000000a0: f534 07ec 9967 89bf c30e 631f 0133 9fbf
000000b0: 5ace a95e cb6a a43f 4d37 7d05 136f c43f
000000c0: 4403 0774 3fd1 b2bf 3b24 6845 61c2 b23f
000000d0: 07db db5a 6a74 a9bf 5894 c009 1ab5 a83f
000000e0: bd8b 13db 3433 93bf fc97 aefd e6b5 acbf
000000f0: 070d 596b 4f11 9c3f a81b 2936 c379 bd3f
00000100: 8e15 79b8 d0e8 b6bf 8a98 249f b736 b23f
00000110: 6522 71db 6426 a43f 78d3 cf26 b659 703f
00000120: 1c7f 4c12 58a1 b6bf d9d5 aee9 b1a2 a3bf
00000130: 998c 4e08 7487 b0bf 1df5 97ed 10aa aabf
00000140: 1d51 5e2f 15ca 9ebf b53e 2858 eb28 9b3f
00000150: 2c77 dc96 8ee8 b8bf 5e95 145d dfdf cf3f
00000160: c395 f0a0 635d 9bbf 1f9d a7a4 5b51 b1bf
00000170: 0d28 7029 156a a43f e78f c2d3 3d16 a23f
00000180: 3c1e 84af 481e b13f 214d 6805 6c4c b23f
00000190: d8f9 c7e1 9091 b6bf e659 41d0 ce17 983f
000001a0: 893d 29f0 97e1 b43f 75d1 63fd b9b2 9bbf
000001b0: 4896 6192 16c1 80bf 0624 5a46 3663 b93f
000001c0: 2eb8 b9d3 cc6c 89bf 19c7 6122 e627 aebf
000001d0: 7a0e de75 59cc a53f b956 b60c 256a b7bf
000001e0: c83c a334 1a0d c93f a19c 38c0 200f 84bf
000001f0: 84d7 56ab bd73 b93f be65 886c 3da9 b2bf
00000200: 262a e840 ea35 a03f f874 0768 1449 bebf
00000210: 6d83 67b9 2b43 a13f 6fdc 7157 4d9e ac3f
00000220: 6825 c00a 9602 bb3f 2d47 e43f a6ca a4bf
00000230: 0337 1bec de4d d2bf 70fa 4c11 d115 c03f
00000240: e4b1 7575 5850 a4bf eb84 6c32 f38d 9a3f
00000250: 4121 deea 946b b63f ea19 56ce 65a6 aebf
00000260: 4498 e21b 6d22 bd3f a28b e4e6 2078 cbbf
00000270: f917 c0fb f502 a1bf 0d77 cb7c 0e30 b9bf
00000280: 79a0 93b6 0a92 61bf 2544 d703 d067 c9bf
00000290: cb7a 08a6 097c a13f 66bc 7a3c f088 bcbf
000002a0: e668 93b3 6889 9bbf 208a 9e88 a20a 973f
000002b0: 61df 9043 3722 7abf d706 c0d0 28bc a33f
000002c0: 23b5 14d8 9a47 96bf 2580 5de6 8d3a afbf
000002d0: 2a8e 896d 9103 97bf 825b d3e6 9083 b13f
000002e0: 738b 2d01 d1e6 b23f cab3 c94b 4edf 94bf
000002f0: 0fe0 006f 1738 b2bf 8e1a 43f3 1c4c a8bf
00000300: 86db 05e1 0ba1 913f fcd6 32c0 07e6 a53f
00000310: 509d 1ce6 4a1b 813f dedd 5fd9 b938 5abf
00000320: 1bb3 eabe be97 a83f ea06 9858 d4be 96bf
00000330: a152 5e49 823f bdbf 90b9 be01 7cdb a5bf
00000340: 6e68 0d39 8d16 b23f b5d2 b086 3a13 933f
00000350: 84c4 2cae 4e12 8f3f a194 ec77 70ee 78bf
00000360: 596b ba87 deab aabf 42c4 55f7 e4f9 c0bf
00000370: e0ac 4f23 c61b b13f 2d56 d884 f310 b4bf
00000380: 3f81 e8fe aca5 ac3f a796 8ee5 cba5 803f
00000390: d838 a68d 709b cebf 6924 7ecb deae be3f
000003a0: 7811 7493 ceba c7bf 470c 1fe1 a0c2 af3f
000003b0: 793f f70c 5382 96bf 4494 fc7d a67d 153f
000003c0: a192 67a0 4f2f abbf 049a abab 2816 b53f
000003d0: e085 805c 5475 b2bf a23c d05b a674 9cbf
000003e0: 3837 1ff7 2682 8f3f e16d a801 939c e9be
000003f0: c844 e6bd a669 c53f f9ec 93ee 578d c0bf
00000400: 912c 83d5 46aa c93f 5301 d931 98ca b33f
00000410: 6d73 058d 462d a0bf 7ffb 201b ab83 c1bf
00000420: 7df7 5b67 84ab 863f 96b0 3fa6 bebc b4bf
00000430: 923c c55b f667 8b3f 7a77 42d4 03c9 b43f
00000440: 6c98 a7e1 97ce 99bf 69ba b4b1 a5f9 b9bf
00000450: 20e3 552d 82ae b4bf 9576 a18a 6904 63bf
00000460: af55 3dbe 1318 b0bf 15ee 6dbd 1973 babf
00000470: be4b eaaa 149d 74bf c5f2 45d3 dc5f 7fbf
00000480: 6471 f4d6 d67d b0bf f9fc a55a afec a0bf
00000490: ddf0 da2e 6674 b4bf 2251 b485 16d7 943f
000004a0: 0081 9061 deca 52bf b2e3 58a0 310c b3bf
000004b0: b5df d3cd 1aef a0bf 92c4 c441 586a b5bf
000004c0: 621c 28af e854 a7bf 7517 1db9 d547 853f
000004d0: 7b67 f640 1768 ae3f 4e83 9a2d 65ec c1bf
000004e0: 2ff5 21d8 e769 babf 65c0 f726 89c7 993f
000004f0: 652e bd94 e8bf 82bf 47bd 676b 213d aabf
00000500: a487 95a0 246f ce3f 8fd7 af33 3a3d 593f
00000510: eaa0 7294 376f a63f a599 5bda c140 9ebf
00000520: 9b6b 453c f8f5 a7bf ecb5 40c0 9ecb c1bf
00000530: 070e 7019 104c a83f e6ae cbbe 8ade 9dbf
00000540: 89a1 50a6 3c43 983f ba26 6bc5 0b9e b1bf
00000550: 93cd a134 324a a3bf 29cd bf4f ab84 9abf
00000560: c516 ac55 ed07 a5bf ade0 8e0b dcea 7dbf
00000570: 1cad 6dfb c8d7 9dbf 232b 6c2d f38a 9fbf
00000580: 07c7 bea4 ad3f b3bf 5a07 780f 562c a13f
00000590: c1df a7e8 7d9e 9b3f 36a7 f68c c380 c0bf
000005a0: 7f21 9b97 7ced 7c3f 556b e792 d98a 46bf
000005b0: 7f82 4805 cd11 90bf 195b 784e 4cd5 91bf
000005c0: dc1e 1f9e 1512 a6bf 2adf 6ae6 0058 aabf
000005d0: 751b a1f4 3d41 a5bf 8bdb fd39 4278 b7bf
000005e0: 16d1 f327 6784 c2bf bf85 64fa 3db0 b7bf
000005f0: 4341 5420 9475 a6bf f1ae 2215 b78d a43f
00000600: 9b6f 2d30 3cb0 8bbf 4326 be0e 3f20 84bf
00000610: a449 d4fb b5e2 b2bf 8a07 0479 ea90 a9bf
00000620: f176 7221 6119 32bf 442c 4289 1c7f 84bf
00000630: d49d 7f4a 4ca5 95bf 4bfc 7f51 776d c4bf
00000640: 7d63 0751 7998 b7bf 764d 6a91 3961 b43f
00000650: 3c38 bad7 2ec3 83bf 21b2 4c9d 6def a0bf
00000660: e147 78b9 6cb7 c53f db51 f0ef 7801 9cbf
00000670: dc40 a09b 7d2f 97bf 38e8 b8cf d453 93bf
00000680: 8405 2760 cb43 83bf 9d91 c7d6 745b b33f
00000690: 6f98 f1b3 c40b a5bf 532f 8729 4ce6 683f
000006a0: 2548 5a3d ddea 9f3f bd04 da0c a341 a4bf
000006b0: 0de4 7aaa 4c67 93bf 1d01 cdbe 2f3e bebf
000006c0: 7179 8b1c bc81 953f fffd b3ac ccaf 94bf
000006d0: b13c aef4 4b4a 993f 481a 1146 d6a3 d0bf
000006e0: bd9e ecfe 3a8d 6cbf 21dc 8495 b723 963f
000006f0: 952d 96fe 11da a63f 11bc 7239 7f32 b4bf
00000700: eb99 617e 1113 cfbf 7e83 30f2 6754 913f
00000710: fbae 1c9e 81cc 98bf 8e12 37d5 ecfd 94bf
00000720: 2e21 392e f990 a53f d0ad 766d b9cc adbf
00000730: 54b9 4d39 2176 a13f 1d78 4f5e 06d2 a13f
00000740: eccd 7643 63cf bb3f 900c 5d0c d5ef 91bf
00000750: 5095 ffbe c812 bbbf f57e cc6b e19b ac3f
00000760: aaa7 dc9a 802e b2bf d721 9711 6d22 a9bf
00000770: f45b e150 6273 c1bf 2c76 7947 4d66 913f
00000780: aefa dd84 35e4 adbf 437c c33e 6d46 a03f
00000790: 860a 3f8e 42f1 a8bf c091 ab26 387c bbbf
000007a0: ab72 2c1b 431f afbf efd2 487f 7783 b8bf
000007b0: f9bc 9ee3 0025 a3bf e62d 284a a623 a3bf
000007c0: 0cf3 00ac 64e5 913f 0bba 0c93 98af a7bf
000007d0: 310c a295 1f33 b3bf 30ff 900d c5a6 8abf
000007e0: b730 719c e316 a83f 7fb2 8035 9c79 aebf
000007f0: ab8f 2ec7 c0af 993f 42dd 5fd0 847e c53f

linear_layers.3.weight f8 [16, 65]
0.11816000353615641 -0.09096064272906693 -0.08725598344981224 -0.03790077897366099 0.05383721912321887 0.001577721066319663 -0.1266860398546263 -0.19173668415436873
0.10638082815262877 -0.01676659899888494 -0.007338460611462123 -0.014452664459167357 0.036392057105432814 -0.0026726682648857743 -0.13293594504483155 -0.015689822611806212
-0.03591718166028403 -0.1732875080741692 -0.09857861206320463 0.00517206503461531 -0.0782977631888483 -0.04158020783417691 -0.06052527733019651 -0.012969898063737537
0.07008142832387752 -0.12636602373031616 0.07971853846529647 -0.09426253935686423 0.04329728754197893 0.10976900449304294 -0.05599282030866281 -0.003541370205893989
0.07327456041804019 -0.20427496285876728 -0.07452343081718282 -0.24399426194709087 -0.06768011488746259 -0.21242353626305602 0.10013147645462951 -0.04212393229905675
-0.072833889664083 -0.10805217441110736 -0.1681894835444688 -0.058328598871070975 0.1725317518331048 -0.0016050256353761744 0.053474358808848606 -0.04027298135715652
-0.13118279976609543 -0.05187562701873013 -0.13900399219167545 0.046695163792414715 -0.14279540955528416 0.05978188689666204 0.08470461662929284 0.06397400335830901
0.043931476186884526 -0.09619030816592938 -0.10808304671137452 0.08581047027600958 0.04180393230338309 -0.08885052640877315 0.08559319532843065 -0.028569236216050856
0.36684212712296027 0.07202804079700446 0.05674187373720114 -0.023061529302791997 -0.12645822721669414 0.010369536309184458 0.004078100887144749 -0.12770120964652568
-0.1306404726929228 0.051916345515879626 -0.04032801133688182 0.10316680353061666 0.07734763630518827 -0.1219932808373607 0.10243315156555362 -0.05450220312815571
-0.1476966514738318 0.11814492809942759 -0.20428431885649542 -0.07916521546507681 -0.10651364004138138 -0.08196313914440519 0.06176098899399812 -0.022460965799520376
0.06797773135311871 -0.015734242534943745 -0.1468345263447299 0.07183427635391214 0.062071227141237646 0.04563878107321648 -0.007517730631033653 0.12033768145863086
0.17673355033446006 -0.00582195054734294 -0.029859441886006387 -0.05683024954435963 -0.0776020024769258 0.025999292558715876 0.2541907792968373 -0.06354646205434494
-0.1397270446306477 0.04019694753972385 0.14351324075735197 -0.11646780793026228 0.11768193051895362 0.1497830091682826 -0.006442492889366012 0.0019430546080860033
-0.014532953391708868 -0.0902874905785608 0.03160616003526213 -0.05288337254841521 -0.04200670342480156 -0.16370887203854356 0.20357567525633205 0.2658212346757581
0.07953468165378902 -0.044668644627432384 0.07515059291458875 -0.004826914638237982 0.022857322367321964 0.11041750933147478 -0.12727848976913908 0.10230732846372656
-0.02034965957353058 0.3576269507525162 -0.09631361896220668 -0.15346789262407898 -0.04526129149091124 -0.03656801561481793 -0.20084759950680228 -0.18304046215160624
0.0237130146993972 -0.05453634793733858 0.011691944555580043 -0.49450116299413427 0.02711105416131025 -0.003476414604940108 0.012423667326611626 0.007333018613539855
-0.0951613537577529 -0.10924743837474193 -0.11790467083315459 0.06257360260443805 -0.09965288843939214 -0.08448387563998515 -0.10231975048615219 0.09164155535716317
0.05307013184120559 -0.022544846371410007 -0.10291267913254548 -0.13533607243028614 -0.11614004786060228 0.041385835187207336 -0.095277498578065 -0.08199589666807428
0.058836673515496214 0.07068757293914907 -0.12656241580505753 -0.049880966405787625 0.05102035487275154 0.0606146790352142 -0.15071509757456203 0.059419948689249234
-0.09656200694643853 -0.03664446835054534 0.05322429548111161 0.006964221642959773 -0.1341221378037255 -0.0899064950892864 -0.04991138411061637 -0.0023245279094585383
0.04930125875971494 -0.009246605873967783 0.19480383797532386 -0.1434943049572641 -0.023261879026853217 -0.024225745948311065 -0.12454798792441796 -0.0829555476153435
-0.25564284198592646 0.05671196779808452 0.11238114501203947 -0.10890391645452173 -0.09457938067201087 0.050719996452261704 -0.11505609482371938 0.008238010922431937
0.041050563268198885 -0.030752045357369005 -0.19443436802307681 0.15582104437482688 -0.031015763517512444 0.02822974745195202 -0.09311338861892551 0.002691731732938102
-0.05404433004453066 0.0856971279573413 -0.385399203719534 -0.04709482270508995 0.07644083873565811 -0.08871754489469735 0.061894613933574816 -0.10244935314860466
0.001978679543020989 -0.11076027542470686 -0.25264809089314677 -0.01782795266574765 -0.18901883883943782 0.18581654951866722 -0.013833964265166279 -0.07964521689704218
-0.04154853059203617 -0.017428624030546676 -0.03537212780126601 -0.10400153282539973 -0.17441836044772355 0.2619859092631447 0.05733935587303708 -0.05987978544162057
0.01275249710051088 -0.005507948398519411 0.01598077386854096 0.046627189106195975 -0.061040155814122345 -0.03385944931902446 -0.22621006147665212 -0.04477388854965797
0.0049648381649210135 0.11312221213536959 -0.11166786702063437 0.0030479616249064457 0.053802087791764035 -0.15768093560322327 -0.03862866543999295 0.1032545013108025
-0.0049148496143354954 0.06381100202940726 0.1660884006320261 -0.08417332298054907 -0.011736505604809318 0.04082556192404912 -0.02513422687428446 -0.08488704093605721
0.1732820786505545 -0.004219357079700696 -0.1546321236576947 0.05435159303737729 -0.14833101928709264 -0.17511322222599016 0.10543383425475161 -0.022363086781313064
00000000: a80e e2e6 bb3f be3f 6a96 be59 3249 b7bf
00000010: 4919 4c7b 6856 b6bf e59d 5e1c bb67 a3bf
00000020: 0835 e24e 8d90 ab3f 438f 7318 71d9 593f
00000030: 1687 0487 3f37 c0bf ac78 f1e1 d38a c8bf
00000040: 7b41 d621 c63b bb3f 3020 7669 432b 91bf
00000050: e175 4405 ef0e 7ebf 7698 89c9 5b99 8dbf
00000060: 2139 34ce faa1 a23f 0cc1 4dd9 fde4 65bf
00000070: 8117 3788 0b04 c1bf e9b1 fd2b fe10 90bf
00000080: b2d9 30a1 bc63 a2bf 32f0 fdf9 482e c6bf
00000090: 5183 e5aa 723c b9bf 7bc5 d2a2 4d2f 753f
000000a0: 89fd 3e7c 520b b4bf 5d0a 9e41 004a a5bf
000000b0: 1ed6 6d4d 2bfd aebf d830 2140 f68f 8abf
000000c0: ef40 b542 dbf0 b13f 79a6 9f09 c32c c0bf
000000d0: dce6 9723 6f68 b43f a790 c6fb 9621 b8bf
000000e0: 3122 ffe3 0f2b a63f 287f 694c d219 bc3f
000000f0: 9fb1 1248 17ab acbf 4b7a f4a6 ca02 6dbf
00000100: 6bcf 9f20 1fc2 b23f d25c 6f96 ae25 cabf
00000110: b840 25b2 f713 b3bf 8db9 bc37 343b cfbf
00000120: 0efb 07e8 7b53 b1bf 7143 93c6 b130 cbbf
00000130: 713e ac68 37a2 b93f 7fec 349f 4491 a5bf
00000140: 40d0 25e6 3da5 b2bf 2f7e 5bab 4ea9 bbbf
00000150: 4f64 ada5 3b87 c5bf cc3f 2501 3fdd adbf
00000160: ed87 d23b 8515 c63f ee60 3e27 f74b 5abf
00000170: d963 84bc fd60 ab3f a1cc ae03 a99e a4bf
00000180: 2e84 6515 99ca c0bf 7b87 0233 718f aabf
00000190: 0704 3d00 e2ca c1bf 6654 bdb2 6de8 a73f
000001a0: 1989 07b7 1e47 c2bf 0a8a 3a42 bb9b ae3f
000001b0: 3f37 3ea6 33af b53f 75d7 37ac 9960 b03f
000001c0: 1fb0 f9ba 2f7e a63f cccb c393 ed9f b8bf
000001d0: e39c e09e 54ab bbbf 3c66 7dcb acf7 b53f
000001e0: 31a9 2c34 5367 a53f f376 2879 e8be b6bf
000001f0: a61c b286 6fe9 b53f 94e8 e0fc 4041 9dbf
00000200: b071 b266 577a d73f 033b 9eff 6d70 b23f
00000210: 59b3 0758 450d ad3f f4dd 9a08 719d 97bf
00000220: ea58 1a7f c82f c0bf fabf 949a 9f3c 853f
00000230: 618c 0adf 32b4 703f 35b5 8b63 8358 c0bf
00000240: c502 e0b6 d3b8 c0bf 2db1 3c7c c794 aa3f
00000250: c3f7 9b83 dfa5 a4bf 2665 32bf 2369 ba3f
00000260: 298b 5a00 0ecd b33f 9f38 879f f33a bfbf
00000270: 4d11 001c 0f39 ba3f 24a2 fd77 b6e7 abbf
00000280: 5787 e74f b9e7 c2bf 8214 60fa be3e be3f
00000290: 2382 4912 fd25 cabf 8f3e 67eb 2b44 b4bf
000002a0: 053f 8e58 7a44 bbbf b54b 1a4a 89fb b4bf
000002b0: 68b1 cbe7 229f af3f 5b9b 2ee6 0100 97bf
000002c0: 5296 0415 fd66 b13f 6aac 7524 a31c 90bf
000002d0: 8781 4948 79cb c2bf 3f00 ac2b bb63 b23f
000002e0: 693b 30c5 ccc7 af3f ac0c 4760 f75d a73f
000002f0: ecf2 3473 e9ca 7ebf 765e 5746 73ce be3f
00000300: d96f 6579 349f c63f 1f3f 32f3 c1d8 77bf
00000310: 5643 8239 7993 9ebf cbde 6ebe da18 adbf
00000320: f514 be8e b9dd b3bf 5508 09fd 8e9f 9a3f
00000330: 3294 0167 a944 d03f 54c7 4cb8 9444 b0bf
00000340: 2d16 8767 93e2 c1bf 770e 2abe b194 a43f
00000350: 3543 cc51 a45e c23f bbe7 1892 d5d0 bdbf
00000360: 82b7 e82a 6720 be3f 29e7 eff2 162c c33f
00000370: d78d 3b84 7163 7abf 99a2 bfff c2d5 5f3f
00000380: 6ce2 40fc 73c3 8dbf f9d7 45bb 141d b7bf
00000390: 593d 68bf ae2e a03f 3bfc 3187 8713 abbf
000003a0: e836 d812 e781 a5bf 683c bc8d 69f4 c4bf
000003b0: 1158 be89 c40e ca3f 35f1 6011 3703 d13f
000003c0: b4cd 9988 625c b43f 33b6 a9ff cede a6bf
000003d0: dcd9 d7ba 113d b33f c565 3008 63c5 73bf
000003e0: a0c7 2af0 e867 973f 8105 7c67 5244 bc3f
000003f0: f277 855b a94a c0bf de90 e425 d030 ba3f
00000400: 3185 6989 8ad6 94bf db9d 6926 5ce3 d63f
00000410: 1f22 9a63 02a8 b8bf 0b3a e7fd d5a4 c3bf
00000420: e8d4 74ed 7c2c a7bf 905f 4afe 0ab9 a2bf
00000430: 2b50 aec7 5fb5 c9bf 8a97 64af de6d c7bf
00000440: 1571 7e7a 3948 983f 3815 ab2d 30ec abbf
00000450: 6461 f13b f2f1 873f 9033 b934 e8a5 dfbf
00000460: 8b80 ee0b 00c3 9b3f 3e43 23e1 917a 6cbf
00000470: 90d7 e966 9471 893f 018f 0432 3a09 7e3f
00000480: ff8d 3b96 7e5c b8bf 50c5 fdde a3f7 bbbf
00000490: c027 4621 002f bebf 0b6a c7d8 d204 b03f
000004a0: 8193 cc08 da82 b9bf c7be e93a bca0 b5bf
000004b0: d2a9 128e a031 babf ccad 362b d275 b73f
000004c0: 9305 4e21 022c ab3f cc27 6f07 ff15 97bf
000004d0: 74d0 373f 7c58 babf 3951 8742 b152 c1bf
000004e0: 8031 51ab 5abb bdbf 771c 4b31 8630 a53f
000004f0: 68fe 6f2c 1b64 b8bf 9077 98de aefd b4bf
00000500: 89e5 1b29 d71f ae3f c8db 01ae 9418 b23f
00000510: 778a 647e 3233 c0bf 2cbc cf7e ff89 a9bf
00000520: 4ab2 3707 571f aa3f 9c41 3a20 e308 af3f
00000530: 0c50 8cdf a14a c3bf 9b5d b3a0 4a6c ae3f
00000540: fdfe dea5 49b8 b8bf 3e30 4a52 10c3 a2bf
00000550: ed55 e300 3740 ab3f 2d7f 2d03 8486 7c3f
00000560: 84af c409 ea2a c1bf 9941 1bb0 1c04 b7bf
00000570: b308 e824 fc8d a9bf 9543 316b e30a 63bf
00000580: 9399 0cbc 033e a93f 931d 9f6e e2ef 82bf
00000590: 58a1 9e08 55ef c83f d712 7a79 055e c2bf
000005a0: 6dc6 a746 f6d1 97bf 81dc 464a a2ce 98bf
000005b0: 9c00 eb7e 60e2 bfbf 8798 0724 933c b5bf
000005c0: a44e 72cb 735c d0bf a01a f8dd 5909 ad3f
000005d0: aa84 83be 02c5 bc3f bb17 9487 20e1 bbbf
000005e0: 87ba dcb2 5a36 b8bf d609 08ac f8f7 a93f
000005f0: 712d 79f4 5074 bdbf 46ad f71b 17df 803f
00000600: 2f47 7055 9404 a53f e949 61d4 767d 9fbf
00000610: 5553 f0b1 39e3 c8bf 3f29 cfa8 f1f1 c33f
00000620: 1e6c dfa7 98c2 9fbf 9567 5248 42e8 9c3f
00000630: 5222 f06e 47d6 b7bf c002 6778 f80c 663f
00000640: 8ca6 26cc b2ab abbf c01a f039 3ff0 b53f
00000650: 4d4f f86b 61aa d8bf 5697 a806 d01c a8bf
00000660: 61ce 7276 a091 b33f 8475 e769 31b6 b6bf
00000670: 0858 499d a6b0 af3f 4505 45ed 1e3a babf
00000680: e635 a67d 9735 603f 3523 a510 c95a bcbf
00000690: 0c1b f2e5 622b d0bf fdb7 9da6 7d41 92bf
000006a0: 0057 92f1 c431 c8bf a87e 9e31 d6c8 c73f
000006b0: ce4d be40 fb54 8cbf 180a db01 a163 b4bf
000006c0: b8e6 2d58 d945 a5bf 9fe3 e628 cfd8 91bf
000006d0: 6557 31a8 4b1c a2bf ea0d 382e d89f babf
000006e0: e5f2 f840 5753 c6bf ec12 138c 60c4 d03f
000006f0: 422e 7f84 955b ad3f 7596 5330 90a8 aebf
00000700: 1188 e92f fb1d 8a3f f1cb d5a3 808f 76bf
00000710: 4f47 8594 435d 903f bb8b a1d8 84df a73f
00000720: cdc5 edc1 a740 afbf 18b8 f896 0656 a1bf
00000730: 5cc0 0888 73f4 ccbf f830 1266 9aec a6bf
00000740: 18b5 c598 0256 743f 0b95 92c9 93f5 bc3f
00000750: b121 deec 4396 bcbf 7b30 f3ef 09f8 683f
00000760: e756 0b7f f28b ab3f dc2b cf8e e32e c4bf
00000770: 7a7b 81ed 22c7 a3bf 8870 4b12 e36e ba3f
00000780: 5db7 bbe5 9721 74bf 085f d7f6 ea55 b03f
00000790: d3d0 7a7c 6242 c53f 93a8 6505 628c b5bf
000007a0: 7e91 ef1d 4f09 88bf 57f6 9b8a 16e7 a43f
000007b0: 40be bd69 c9bc 99bf 35b1 ac38 28bb b5bf
000007c0: 72bd 646e 1b2e c63f 1eeb ad0a 5148 71bf
000007d0: 72aa 0245 fcca c3bf a77d 29d5 f8d3 ab3f
000007e0: 2203 69c6 82fc c2bf 4166 472d 1c6a c6bf
000007f0: 601b 0436 b6fd ba3f e511 7459 59e6 96bf

linear_layers.4.weight f8 [1, 17]
0.1955258366717441 0.18017387437989626 -0.009680847392531361 0.21437066006693514 0.15069756716570282 -0.08293073540526726 -0.14079394453795316 0.18387238067809292
0.17025250782361767 -0.11441045108779198 -0.15769241751295013 -0.1630226267823359 0.018583574911006727 -0.13730409883718434 -0.15378091692595366 -0.09508227979728587
-0.13275813285125265
00000000: 5a9b 0399 fd06 c93f fb12 0701 f00f c73f
00000010: 7081 9657 8dd3 83bf 43ce 1a6f 7f70 cb3f
00000020: 5c1f 48d1 0e4a c33f 2d1b 66dc f23a b5bf
00000030: e1f6 a135 8905 c2bf 8a35 d352 2189 c73f
00000040: c80b 958c d5ca c53f e51f bed9 004a bdbf
00000050: 57cc 05e0 432f c4bf fbe1 44e9 ecdd c4bf
00000060: 6631 f199 9207 933f 0965 0e43 2e93 c1bf
00000070: 1112 79d4 17af c3bf 1e91 28f2 4f57 b8bf
00000080: 42e4 6fef 37fe c0bf
